distributed_shared/worker_logs/worker_11/models/model_episode_80.pt (torch, 816842 bytes, 16 tensors)

0.weight f4 [256, 4]
00000000: e9a0 993d c125 75be e735 a2be 8512 6dbe
00000010: 2ea9 ea3e ce03 dcbe fb81 2d3e 7394 993c
00000020: 1f59 bfbe 6f8a 5a3e eea8 04be 1dc3 bebe
00000030: a484 fe3e 6821 d23e 2224 e1bc e858 63bd
00000040: 0a28 0ebd 797e 35be 8efd aebd 4170 cebd
00000050: f0a5 43bd e4c8 843d 4f8e b7be 61f0 523e
00000060: 2575 f5bd 40c1 aa3d 8399 b4be dfdb 923e
00000070: 3c6f c23d 36fc 843e 7c66 43be 9cab 7d3e
00000080: 6af9 a63d 79ab e93e 8575 df3e beff b63e
00000090: aa13 5e3e b964 083e 8852 a03c e8b0 b6be
000000a0: ec7a 473e 0bf5 26bd 3950 42be 1d3d b83e
000000b0: cd4c 8b3e 1b3e a93e c173 943e a4ec 12bd
000000c0: 7073 d8bd 56be 333d adee cc3d faad 583e
000000d0: f393 0cbe 47f1 773e c890 4ebc 2ca3 babc
000000e0: 301c 5e3e 99bf 893e 46ea 60bd 2c85 c6bd
000000f0: be66 833e 10e7 e7be fff1 9bbe 63f0 f1be
00000100: 345b 003d 9ae5 f8be 8b0b cfbd ed6a 17be
00000110: 75b8 f93c a69d 613e 3be3 d7be 2ef1 aebe
00000120: cd1d 973e 7d6f dbbe e728 96be 6447 c43a
00000130: 65bb 16be 3787 833e 16db e53e 6307 90be
00000140: e647 613e e799 bebe 91f3 7c3e 92c5 06bd
00000150: f395 70be 73d5 e73e d597 a0be 0d61 dcbd
00000160: f983 9fbe 81ed a5be 7493 9d3d 414f 4a3d
00000170: cae9 94bd b258 c83e cb9b e5be 6746 82be
00000180: 75cc c93e e287 053f 4824 d33e b616 ebbd
00000190: 2700 a5be 6366 49be 5dd4 05be a376 34be
000001a0: 5fc5 09be 5184 8a3d 6b70 353e 6f51 ddbe
000001b0: e5fc 6e3e 331a 143c 5ea7 fb3e 3378 48bc
000001c0: 4030 553e c375 783e 4e85 bd3e ee28 c8be
000001d0: 9d4d 303c 9462 ebbe 16d4 79be c0ab 413e
000001e0: ccab 203e 8992 cbbe f860 e63e 3602 fabe
000001f0: 3bd1 84bd 046c c2bd 9e62 9a3d 1856 ad3e
00000200: 102a b13e b894 f73e e850 43be 554e 96bd
00000210: fe6d 5d3e b794 e13e 139b a63d 17a1 b43e
00000220: dd0f 80bd c669 8bbe ca66 8ebe 7b72 edbe
00000230: 5412 91be 49c2 aa3d a073 4d3d f3dd c8be
00000240: 36ca e53d 47ee af3e 3bda 1e3e 2010 f53e
00000250: d9ad b6be ac3a 81be 2f65 8dbe c68d 7e3b
00000260: fa1f 1c3c d6ca 5ebe c9a4 c93e 060e f83e
00000270: ca5c ed3c f47f 51be a70c da3e fc95 d63e
00000280: 1cf7 ed3e f106 7c3e 8b16 a6be c4c8 abbd
00000290: 02ac fcbd 71a5 393e 7b68 8c3e 3c75 213d
000002a0: 0f4f f8be f9f4 4bbe aaa5 dd3e 9aa1 f13e
000002b0: 4c3d 4bbe c864 8dbe 0b84 5fbe 5a97 fa3e
000002c0: 5325 f23e ea48 f7be b65e c23e 4f76 90be
000002d0: 37b1 84be 5166 f2be 88b8 efbe 39ec e6be
000002e0: 55ac 65be a120 8dbb 5c98 aebe c7ad 5fbe
000002f0: e983 963e 1e7c c3be b0c5 ad3e 1dfc c73e
00000300: cc8b d73e e954 4f3d 3eed fdbe 7650 dfbe
00000310: 3db4 b6be 9c19 103e 32d8 abbe 49d3 83be
00000320: 72f1 f93e 1bf2 073f 432a e33e cb9d bebd
00000330: c7e4 eebd d14c c4be d964 923e 93f8 8c3d
00000340: af40 babe 9033 4b3d f11a f63e 683d 053f
00000350: f505 a33e 32d1 3bbe 9415 8fbe 3db5 d43e
00000360: 457b 8c3d faac e63e 3016 0f3e ae27 003f
00000370: d329 5dbe 838f 4abe e395 d9be e956 f6bc
00000380: d076 d13e 21dd 3fbe a9cb 15be b6f0 a53e
00000390: eb66 ddbd 34b1 cfbe 7916 583e 8712 b7be
000003a0: 529c 283e 9c77 da3e b455 a73e 2fff 06be
000003b0: b719 5e3e 276f 7bbe bc52 333d db63 89bd
000003c0: cd29 44bd b670 a83e 37b6 c53e 9249 393e
000003d0: 85fe 58be edd3 da3e fe51 283e 5db5 2abe
000003e0: 566c 97be 0b75 10be f529 fc3e 0cbe 8cbd
000003f0: 99a8 f23d 8e89 f93e 075b 49bd ae2c 1bbc
0.07501394 -0.23940183 -0.3168175 -0.23151596 0.458322 -0.42971653 0.16944115 0.018747544
-0.37372681 0.2134187 -0.12955067 -0.37258235 0.49710572 0.41041112 -0.02748305 -0.05550471
-0.034706153 -0.17724027 -0.085444555 -0.100800045 -0.047765672 0.06483629 -0.3585076 0.2059951
-0.11985234 0.08337641 -0.3527337 0.28683373 0.094938725 0.25973672 -0.19082063 0.24772495
0.08153041 0.45638636 0.43644348 0.3574199 0.21687189 0.13319673 0.019570604 -0.35681844
0.19480485 -0.040761035 -0.18975915 0.35984126 0.27207032 0.33055195 0.28994563 -0.03587021
-0.10568893 0.04388269 0.10006461 0.21160117 -0.13728313 0.24213134 -0.012607761 -0.022782885
0.2169044 0.2690399 -0.05491092 -0.09693369 0.25664324 -0.45293474 -0.30458066 -0.47253713
0.031336978 -0.48612672 -0.101096235 -0.14786883 0.030483464 0.22032794 -0.4216555 -0.3416838
0.29514924 -0.42858496 -0.2932808 0.0014974889 -0.14719923 0.25689098 0.44893712 -0.28130636
0.22000083 -0.37226793 0.24702288 -0.03290326 -0.23494701 0.45280036 -0.3136584 -0.107606985
-0.31155375 -0.32407764 0.0769414 0.04939199 -0.07271154 0.3913017 -0.44845423 -0.25444338
0.394138 0.52160466 0.41238618 -0.11478941 -0.3222668 -0.19667964 -0.13069291 -0.17623381
-0.13454197 0.067635186 0.17718665 -0.4322619 0.23338659 0.0090394495 0.4915113 -0.012235689
0.20819187 0.24263673 0.37015766 -0.39093727 0.010760692 -0.45973647 -0.2439731 0.18913174
0.15690535 -0.39760235 0.44995856 -0.48829812 -0.0648522 -0.094932586 0.07538341 0.33854747
0.34602404 0.4835565 -0.19073832 -0.073391594 0.2162399 0.44058773 0.08135047 0.35279152
-0.06253026 -0.27229136 -0.27812797 -0.46376404 -0.28334296 0.08337838 0.050159097 -0.39231834
0.11220209 0.3436148 0.15512936 0.47863865 -0.3567951 -0.25240076 -0.2761626 0.0038841828
0.009529108 -0.21757063 0.39383534 0.484482 0.02897491 -0.20458966 0.42587778 0.41911304
0.46477592 0.24612023 -0.32439074 -0.083879024 -0.123374954 0.18129517 0.27423462 0.039418444
-0.48497817 -0.19917668 0.43290454 0.47193605 -0.19847602 -0.27615952 -0.21827714 0.48943597
0.472941 -0.48297817 0.37962884 -0.28215262 -0.25916454 -0.47343686 -0.46820474 -0.451021
-0.2242902 -0.004306868 -0.34100616 -0.21843635 0.29397514 -0.3818063 0.33939886 0.39059535
0.42098844 0.050618086 -0.49595064 -0.43616074 -0.35684386 0.14072269 -0.3356338 -0.25747135
0.4881702 0.531038 0.4436818 -0.0930744 -0.116647296 -0.38339856 0.28592566 0.06883349
-0.36377475 0.04960972 0.4806743 0.52046824 0.31840482 -0.1834152 -0.2794615 0.41544524
0.06859449 0.45053846 0.13973308 0.50060546 -0.21597986 -0.19781308 -0.42497167 -0.030070739
0.4091096 -0.18736698 -0.14628471 0.3241021 -0.10810646 -0.40564883 0.21102323 -0.35756323
0.16465881 0.4266938 0.32682574 -0.13183282 0.21689497 -0.2455412 0.043780074 -0.06708499
-0.047891427 0.32898492 0.3861558 0.18094471 -0.21190841 0.42739812 0.16437528 -0.16670747
-0.2957484 -0.14107148 0.4925076 -0.06872186 0.11848564 0.48737758 -0.049159076 -0.009471102

0.bias f4 [256]
00000000: 24f8 843e 785d 2b3e aad1 983e 8184 683e
00000010: 8243 ab3d a9b9 f4be b9fb 0e3e 7e7c d33e
00000020: e54d c9be 6fa2 06be 06b1 bcbe 90ac 693e
00000030: 1468 b9be 08c5 633e 10fe f53e 2df0 16bc
00000040: 67c3 ee3e 0fe4 d5be fd5f 9dbe 7b9a b4be
00000050: 5669 d3be da39 e6bd a875 aa3e ed87 b1be
00000060: 51d7 6bbe 26de a5bc a9af ab3e f65f dabe
00000070: 8d5e d2be 26e3 8dbe 0299 31be 09ea c1be
00000080: 6809 86be 30f9 d73e 9c15 c73e c1a8 97bd
00000090: ccfb 9cbd d4f8 e93e 0670 a3be ee8c a4bd
000000a0: 0489 953e ecc0 eebd aee8 22be 8804 043e
000000b0: 6855 cbbe 2c5c 503e 1efa c83e 6d17 ccbe
000000c0: 3751 f43e 5c74 153d fa42 a63d dbbb b8be
000000d0: c299 8d3e 1ce5 f63d a865 f5be 3277 d7be
000000e0: eb83 8cbe b23d ef3e 1605 a5be 75c6 92be
000000f0: 6112 f13e 8217 4abe 1f35 d3be 2b8b e73e
00000100: 0de8 8c3e 0569 30be 62ff 6e3e 7d1b 7abe
00000110: a40b 6f3e 9865 273e b26f aa3e c53d 35be
00000120: a02b e5bd b9ee f03e 17f9 0fbe 9df3 fc3e
00000130: 7f9d 4d3c 031f 9b3e 7a54 a53d 6118 c5be
00000140: c287 8a3e 8f64 4b3e 4ab5 f3be 7472 cbbd
00000150: e962 c4bd daba 37bd 3be4 b9be f5db 38be
00000160: 82c2 99bd 4817 483d 1379 3e3e 337c f53e
00000170: edf4 153e 92f7 c3be 823e 083d fa2c 8cbe
00000180: 280e 5fbe d3bd 213e c755 ad3e 7d26 033e
00000190: c062 d8bd e057 c4be 218e 953e df6c e63c
000001a0: 5bcf 9f3b c4e3 043e d998 b33e 5314 1bbe
000001b0: 6265 2c3e 1879 973d c2d1 c3be b609 4f3d
000001c0: 76ee 21be 3deb 863e 2932 dbbe d7c2 23be
000001d0: ebd8 e8bd b124 87bc a303 943e f34a 4bbe
000001e0: 5b70 fabe 335f 8cbe 9a96 d23d 74c0 9a3e
000001f0: 6665 92bd 1b88 06be df04 b1be da48 c73e
00000200: d079 e63e 96ae 843d b6ff e3bd af8a ea3e
00000210: b47d 60be 2496 db3e 9d63 98be 5c99 10bd
00000220: fd54 ac3e 1bee c2be efc4 333e 0fe5 c9be
00000230: f41e 12be f828 ae3e c40a 9c3e f829 b4be
00000240: c189 e43e 3c94 c43e 5c7e bc3e fee4 e83d
00000250: 4f9a a0bd ee0c 00bd 9bb7 8c3e cd1e 8e3e
00000260: daeb d53d d478 28bc 18bf 21be 9df2 aa3e
00000270: b589 babe 5212 373e 24fd d4be 3eeb 473e
00000280: 79eb d5be 6abf c83d a4b2 95be 4686 f53e
00000290: be42 9c3d 48f8 953e b028 c53e 7beb 88be
000002a0: 2265 133e b965 a1be 958f 84be 2d69 38be
000002b0: 0672 6d3b fc65 ec3e bd41 71be 8a2d 003f
000002c0: e517 00be 13cf eb3e adec 6f3e 690b 3ebe
000002d0: e150 003d 9099 12bd 6b0c be3e 9dd8 8bbd
000002e0: a897 b2be 78ca d9bd 67ab dcbd 0bd6 8cbe
000002f0: 1c61 7e3d 8ffb a5be c811 d83d a653 ec3e
00000300: 8abd 8abd 5c42 7a3e 883c 43be ad8d c73e
00000310: 2cd2 cf3e 0a24 65bd 91c8 f4be b046 c6be
00000320: b374 033e bcac b5be 28c2 c83d b12f 063e
00000330: 6325 3fbd 157d e7bd 4aa8 923e 3978 b6be
00000340: a311 4e3e 91bb b93e cf4a b3be cb33 cf3e
00000350: 6ece acbe cc47 083e d3fe c73e bae7 ddbd
00000360: 6720 05be 0a4a 1ebd 452b bebe 4e08 8b3e
00000370: b61c cbbd b6f2 3fbe f72e b8bd 0456 4d3e
00000380: 36c4 60be 5622 e33d 63b9 b63e a08d b43e
00000390: 2cb3 d7be d3f3 0bbe d0ca dd3d d0bd 6b3e
000003a0: 8f9d bd3d fbba f13c 8b08 dbbe 4522 5ebe
000003b0: 4d00 b13e f625 adbd d747 e83e 666d b5be
000003c0: beee 6e3e 9f19 a0be bc68 43be 1064 823e
000003d0: 8024 4ebe 6e65 e73e 611b afbe 4665 ebbe
000003e0: 71a0 12bd a484 963e a523 e9be f028 33bd
000003f0: 1040 103e 3967 29bd 83c7 38be 586f 973e
0.25970566 0.16734874 0.2984746 0.22706796 0.083624855 -0.47797897 0.13963212 0.41305918
-0.3931724 -0.13147901 -0.36853808 0.22819734 -0.36212218 0.2224313 0.48045397 -0.009212536
0.46633455 -0.41775557 -0.30737296 -0.3527411 -0.41291302 -0.11241503 0.3329289 -0.34674016
-0.23031355 -0.02024753 0.33532456 -0.42651337 -0.41087762 -0.27712363 -0.17343524 -0.37873867
-0.2617905 0.42182302 0.38883674 -0.07405234 -0.07665214 0.45697653 -0.31921405 -0.08034693
0.29206097 -0.11657891 -0.15909073 0.12892354 -0.39713597 0.20347661 0.39253324 -0.39861622
0.47718212 0.036487922 0.081182435 -0.36080822 0.2765637 0.12055418 -0.4792912 -0.42083126
-0.27444395 0.46726757 -0.32230443 -0.28667036 0.47084334 -0.1973553 -0.41251466 0.45223364
0.2752079 -0.17227562 0.23339608 -0.24424548 0.23344284 0.16347349 0.33288342 -0.17699344
-0.111899614 0.4705713 -0.14059864 0.49404612 0.012549757 0.30297098 0.08072753 -0.38495162
0.270567 0.19862579 -0.4759925 -0.099339396 -0.09589178 -0.04485593 -0.3630694 -0.18052657
-0.075078025 0.048850328 0.18600874 0.4794632 0.14644213 -0.3827482 0.033262737 -0.27378064
-0.21782744 0.15795068 0.33854505 0.12807651 -0.1056571 -0.38348293 0.29209998 0.028128086
0.0048770136 0.1297751 0.3507755 -0.15144472 0.1683555 0.07396144 -0.3824597 0.05054637
-0.15813622 0.26351348 -0.42811707 -0.15992294 -0.11369499 -0.016496988 0.28909025 -0.1985281
-0.48913845 -0.2741638 0.10282631 0.30224955 -0.071482465 -0.13137858 -0.3457403 0.3892277
0.4501481 0.06478612 -0.11132757 0.45808932 -0.21922952 0.42887986 -0.297635 -0.035302505
0.3365859 -0.38072285 0.17555593 -0.3943257 -0.1426962 0.34015632 0.30476964 -0.3518827
0.44636348 0.38394344 0.36815155 0.11371802 -0.07841932 -0.03126233 0.2748383 0.27757874
0.10445376 -0.010282714 -0.15795553 0.33388224 -0.36433187 0.17878082 -0.4159938 0.19523332
-0.41781214 0.09802134 -0.29237854 0.47954005 0.076299176 0.29290986 0.38507605 -0.26742157
0.14394048 -0.3152292 -0.25890794 -0.18008871 0.0036231293 0.46171558 -0.23560233 0.5006949
-0.12509115 0.46056423 0.23430128 -0.1855904 0.031327132 -0.03579098 0.3711885 -0.06828425
-0.3488133 -0.10634321 -0.1077488 -0.27507052 0.06210433 -0.32418486 0.105502665 0.4615757
-0.06774433 0.24439377 -0.1906606 0.38975278 0.40590036 -0.055942573 -0.4780927 -0.38725805
0.12837486 -0.35483348 0.09802657 0.1310413 -0.046666514 -0.113031544 0.2864402 -0.35638598
0.20123915 0.36275914 -0.35018012 0.40469202 -0.33751243 0.13308638 0.39061603 -0.10835214
-0.13000642 -0.038644828 -0.37142387 0.27154773 -0.099175856 -0.1874493 -0.08993333 0.20052344
-0.21949849 0.110905334 0.35688314 0.352643 -0.42128885 -0.1366723 0.10829699 0.23021626
0.092585675 0.029508105 -0.42779955 -0.2169276 0.34570542 -0.08454506 0.4536731 -0.35435027
0.2333326 -0.31269547 -0.19082922 0.25466967 -0.20131111 0.45194572 -0.34200576 -0.45975703
-0.03579754 0.29398072 -0.45535007 -0.043740213 0.14086938 -0.041358206 -0.18044858 0.29577136

2.weight f4 [256, 256]
00000000: 35f7 95bc 0d49 08bd 1624 c0bc b5df 39bc
00000010: 6787 1ebd 38fb 6cbd 7717 49bc 81f2 27bd
00000020: f50d 733d 3230 40bd 1839 6ebd 464c 123d
00000030: b23b 853c 7d80 523d dc19 2dbc 1b4b 26bd
00000040: c675 303c 70f5 2b3d 8716 c4bc e6a4 23bd
00000050: a91b 10bd b990 59bd 44d4 1ebd 96a6 2bbd
00000060: 3b45 063d 5220 1b3c a7cd 4abd 1eb8 51bd
00000070: a6e3 293c bb53 583d 3424 cd3c a23c 5abb
00000080: a438 3ebd fbf0 76bd 0308 033d 5162 a13a
00000090: 576a 5f3c bea3 46bd 8451 ad3d c3df 03bb
000000a0: 05e0 063d 751b 08bd 6236 033d cb94 073c
000000b0: 3e28 673d ee7a febc d5f5 09bd 887b 673d
000000c0: b059 fcbc 2d85 93b9 4a42 363d 6885 fe3c
000000d0: 9454 8c3d 7941 c13a 18f6 4b3d 89b1 073d
000000e0: c799 9f3c f307 643c aec0 9c3b eacd 313c
000000f0: d35e 673c 81e9 753c cb85 b0bc c7ec 85bc
00000100: b1c2 363d 37ba 233d cb9c c0bc 3939 753c
00000110: 2f85 023c d932 743d b369 d0bb 8c97 3cbc
00000120: 0cb7 863d f02d 37bd a07c 2cbb c5c3 ffbc
00000130: 57e2 193d 6852 22bd 68a4 76bd 921e 3dbc
00000140: 3522 333d 2d6a 3abd a894 d9bc 8000 ebbc
00000150: 308d 0abd 9f82 523d 88cd 4dbd ffaf e3bb
00000160: 2f8b a93a 911a d23c 8a79 c43c fba5 2a3d
00000170: 94e5 d83c aab9 3c3c b5b8 af3b 1178 0fbc
00000180: 0d1c 043d e52b 06bc f7cb da3c fde4 db3c
00000190: c3eb 8a3d 166d 2e3d 2fb6 89bc 40a9 003d
000001a0: 902d 95bc b66e 25bd 8946 993c 65bc 743d
000001b0: 3e8a 323d 755c 06bc b787 46bd aa68 333c
000001c0: c33a 043d c780 1fbd e59f 223c ba1a 723c
000001d0: 9391 933d 340f 4e3d 074e b8bc 0481 e03b
000001e0: b543 7b3d 2e32 cabc 6de7 3bbd bef4 373d
000001f0: d0f7 073d c83f 593d 2794 3fbd 6766 58bd
00000200: 1fdb 193d c293 4ebd ed63 083c 2db5 533d
00000210: 9abd 5e3d de94 d6bb 3713 11bd ee5d d13c
00000220: a466 0abd 2188 12bd 1198 86bd dab4 693d
00000230: 045d 6fbd 249a 943c 6c81 09bd 8029 133d
00000240: 69b9 a1bc 8372 f93c 9974 dfbc 5878 463d
00000250: 7b90 3b3d 9f29 a83c d3c2 133d 9abc 873d
00000260: d277 093b 8ac4 e63c 4e7e 023d b962 3d3d
00000270: 7b55 153d 6391 6d3d 445f 493d fe43 acbc
00000280: e95b 2dbc 9989 57bd 42fa b03c cc52 61bd
00000290: 8401 1a3c 0516 3a3d c523 6abc f904 f33c
000002a0: 0601 3a3b b332 4d3c c29f e7bb 16ea dbbc
000002b0: 1507 473c 85db 073d db24 16bd 83d2 18bd
000002c0: 0b5e c1ba a443 2cbd b9a6 223d 218a 3c3d
000002d0: 7b93 43bd 20b0 49bc 5728 0abd ce70 97bc
000002e0: 5763 e33c b18c cebc 641c 783d df91 2cbd
000002f0: 6a21 933d dbcf 47bd ec89 703d 5e58 2b3d
00000300: 531d 3c3d 4baf 343d b450 fdbc 046a 6fbd
00000310: 26fc 873d 8665 12bd 8f70 713d 0ac1 20bd
00000320: aa2f 17bd 05f4 ddbc 19b5 1abc 10ed 79bd
00000330: 4c03 293c f1c6 993c 6920 d9bc da3e 0b3d
00000340: d43c 76bd 5bb5 42bd 04f6 be3b 0c1c 4c3d
00000350: f75a 353d b063 143d 5809 a7bc 5a36 93bc
00000360: 11dd febc 90d4 0bbd 5631 873c bf2d 003d
00000370: 03fd adbc e3bd 1fbc 9b52 2f3d 2825 f33c
00000380: c491 7abd 9dd0 7abb f69a 80bd e7c8 64bd
00000390: 6b5a 4c3d 2b1f 2fbd 1d5c d23a 71ed 11bd
000003a0: c67c a8ba 0e64 35bc ffdc 063d 8be4 3abd
000003b0: 0a45 753c 67e6 e53c 3bf8 6ebd 43f7 443c
000003c0: 32fa 06bd cb86 223d 23a6 0b3d f3d5 36bc
000003d0: 161c 2b3d 4cab 573d 381e 07bd 00e6 4f3d
000003e0: b81c d23c d288 8fbb 7848 dfbc dfdd 34bd
000003f0: d004 f73c 0071 473d 554c 56bc dbcc 7f3d
-0.018306354 -0.03327279 -0.023454707 -0.01134484 -0.03870335 -0.05785677 -0.012273661 -0.041002754
0.059339482 -0.046920963 -0.058159918 0.03571727 0.016263817 0.051392067 -0.010565247 -0.04059897
0.010770267 0.041982114 -0.023936523 -0.03995218 -0.03518263 -0.053116534 -0.03877665 -0.041906916
0.032780867 0.009468155 -0.04951253 -0.05120098 0.010369217 0.052814227 0.025041677 -0.00333003
-0.046440735 -0.06028841 0.031990062 0.0012312626 0.013636193 -0.048496 0.084628135 -0.0020122386
0.032928485 -0.03322931 0.032034285 0.008275221 0.056434862 -0.031064477 -0.03368171 0.056514293
-0.030804485 -0.0002813725 0.044496812 0.031069472 0.068520695 0.0014744244 0.04979524 0.033128295
0.019482506 0.013917911 0.0047837114 0.010852316 0.014121729 0.015009285 -0.021548172 -0.016348256
0.044619266 0.03997251 -0.023512265 0.014967256 0.007966324 0.059618805 -0.0063602566 -0.011510741
0.06577882 -0.044721544 -0.00263194 -0.03122128 0.03756937 -0.03962937 -0.060215384 -0.011542933
0.043733794 -0.045511413 -0.026560143 -0.028686762 -0.033826053 0.0513941 -0.050244838 -0.0069484706
0.0012935157 0.025647433 0.023983736 0.041662198 0.026476659 0.011518875 0.005362595 -0.008756653
0.032253314 -0.008189176 0.026708586 0.026842589 0.06783249 0.0425845 -0.016810505 0.03141141
-0.018210202 -0.040388785 0.018710392 0.05974998 0.04358887 -0.008200754 -0.04846927 0.010950247
0.032282602 -0.03894117 0.009925817 0.01477688 0.072055005 0.050307468 -0.022498144 0.0068513174
0.061343867 -0.02468213 -0.045875 0.04491114 0.033195317 0.053039342 -0.04677215 -0.052832033
0.037562486 -0.05043388 0.008324605 0.051686455 0.054380037 -0.006548508 -0.035418715 0.025557484
-0.033789292 -0.035774354 -0.06571973 0.05705724 -0.058438316 0.018139906 -0.033570692 0.03592825
-0.01974173 0.030450111 -0.027277278 0.048454612 0.045792084 0.020527659 0.03607447 0.0662777
0.002097596 0.028169889 0.031858735 0.046236727 0.036458474 0.05799998 0.049163118 -0.021028515
-0.010580995 -0.052621458 0.021603707 -0.055010602 0.009399775 0.045431156 -0.014290755 0.029665457
0.0028381958 0.012524295 -0.007068605 -0.02684502 0.012147685 0.033168335 -0.036656242 -0.037310135
-0.0014752758 -0.042056695 0.03970978 0.046030167 -0.04774807 -0.012310058 -0.033729877 -0.018486407
0.02775733 -0.025213571 0.06057395 -0.0421313 0.071841076 -0.04878221 0.058725283 0.04183232
0.045926403 0.044112485 -0.030922271 -0.058450714 0.066398904 -0.03574135 0.058945235 -0.039246596
-0.03691069 -0.027093897 -0.009442591 -0.061017096 0.010315727 0.01877162 -0.026504712 0.033995487
-0.060116604 -0.047536235 0.005827667 0.049831435 0.044276204 0.036227882 -0.020390198 -0.017970253
-0.031111272 -0.034138262 0.016503017 0.031293627 -0.02123881 -0.009749862 0.042803388 0.029680803
-0.06117417 -0.0038271316 -0.062795565 -0.055855658 0.049890917 -0.042754333 0.001604918 -0.035626832
-0.0012854568 -0.011071218 0.032925602 -0.04562811 0.0149700735 0.028063966 -0.0583422 0.012021842
-0.03295345 0.03967933 0.034093987 -0.011159408 0.04177483 0.052653596 -0.032987803 0.050756454
0.02564846 -0.004380324 -0.027256235 -0.044156905 0.030153662 0.04869175 -0.013079722 0.062451225

2.bias f4 [256]
00000000: ee74 663d 9d63 6e3c 074e 4c3d 647f 0e3d
00000010: 573b 103c 34cf 013d 6322 5cbb d221 5fbb
00000020: 7eb1 6b3d 09b8 0f3d 09fa 9fbc 1dc1 593d
00000030: 24a6 e2bc dbf8 853d a88b 6b3d 44b8 1dbb
00000040: 04ea c3bb 8d78 4c3c 7449 6a3d de51 6cbd
00000050: 9052 2c3d 6737 4b3d 71b0 d63c e8be 563d
00000060: b494 44bd 5618 363d e4cd 3d3d 4eda c9bc
00000070: a2a4 97bb b81b 503d e923 42bd 9902 f03c
00000080: f06f d53c aeb4 01bc e391 d2bc c7fc 9bbc
00000090: de35 453d b103 8abc df58 333d a9bd 333d
000000a0: 40eb 433c ac06 db3b 16a4 853d 62fc 103d
000000b0: cd19 c23c c95b 36bc d669 343d 9065 6b3b
000000c0: 935a 4abd 69a4 683d 3b06 473d ee76 593d
000000d0: c0f9 4d3d d3fe 29bd 9909 ecbc 5952 113c
000000e0: db56 83bc 7253 49bd e589 82bd b13b 04bd
000000f0: 5293 ccba e8ff 05bd 6c54 0dbc dc62 ddbc
00000100: 6141 4c3d 6da0 193d 0154 48bd 3d27 f5bc
00000110: 1c17 493d 546d a63b 974c a8bc a52d 47bd
00000120: 2229 e93c 2610 a63c 6b37 a4bc a0ac 76bd
00000130: 97c0 02bd ebc7 11bc 96b0 47bc fbef 57bd
00000140: 77cd 25bd 9c22 9cbc 6ee8 35bd a324 72bc
00000150: adb1 5fbd a9fd 4e3d f593 1e3c cb4f 623d
00000160: 8bb2 ed3c dc54 193d ec40 663d 4ddc 6e3d
00000170: b342 05bc e75d 23bd c995 b5bc 21b4 b53b
00000180: fe24 b53c b5e2 fbbc 0cdb 20bc da72 83ba
00000190: 51dd 76bd df68 86bc b257 efbb 6af0 35bd
000001a0: cfb2 8bbd 1892 25bd 4f12 1dbc 10fb 66bd
000001b0: 413d cbbc 65e0 f73c 74a5 d9bb 965c cd3c
000001c0: f8eb 6f3d 05b7 38bd 3724 013d 0544 9abc
000001d0: 1d77 8dbb 958f 233b da88 593a 1754 673d
000001e0: d493 3a3d 0510 3cbd 1ccd df3b e07b 1abd
000001f0: d67d 683d 36c1 173d 352d 823b 5513 413d
00000200: 1fbc 283d 0f32 f33c 6cea 723c f835 1e3b
00000210: b73f 8fbc 5ef0 153d c678 573d 819e 28bd
00000220: 4377 56bd bf43 743d 1e20 2d3d a95a 043c
00000230: 9b03 d83c 41ef 5a3c e40c 4dbc 8a3f 6fbd
00000240: 6e8d 0e3b 2b7c 5bbc 4eac 3cbd c820 ebbc
00000250: 200f 103d 38df 203c fb60 11bc 6c65 743c
00000260: cba0 fd3b 5617 7d3d 5713 07bd b691 4bbd
00000270: 1f37 1e3c 17a0 983c ba8e 3dbd 183a 733d
00000280: 08ff 54bd 8ca4 72bc ba89 42bd ad6c 19bd
00000290: 2b98 85bd 5809 743d 64b7 45bd f026 853c
000002a0: 32a0 533d 6c06 ec3a d1e2 86bc 0369 f93b
000002b0: ec90 5d3d 1afa c33c d749 093d 2a17 863c
000002c0: 1452 353d e0c5 5a3c 5ab2 41bc ed32 31bc
000002d0: 23f4 293d 47bd 44bc a416 1f3d f16e 81bd
000002e0: 7de6 053d b5d7 19bd 3b0d 60bd b22e f1b9
000002f0: 12aa 83bd 2084 39bc a634 703d 132b 1c3d
00000300: 4246 5f3d 53ea a8bb d635 1d3d 44ad 663d
00000310: 9143 9b3c be7f bbbb 8728 0b3d df27 f7bc
00000320: 44e2 8fbb 6f7e 5f3d 5077 e1b9 3ea7 3bbd
00000330: 834c 4c3c 74a0 a7bc 4d50 2d3d 1958 5ebc
00000340: 6f20 823d efcb 0d3d bbf9 ec3b af16 07bc
00000350: df73 c73c f525 c03c 6a91 6b3d 01b5 10bd
00000360: 6700 d2bc 8c5f ae3c 7d1c 64bc 3d2f 1e3d
00000370: 37da 903c fbad 45bd 7745 453c 5816 c53b
00000380: e4aa 863c 2da8 c1bc a02a 233d edad 55bd
00000390: 7ad7 643a 5e7d eebc ebdd 3eba d715 3bbb
000003a0: 6fe8 4b3d bf36 63bd 18b8 133d 4f61 223c
000003b0: 5162 15bd 0e14 c7bc ce5c 223d e0e2 443d
000003c0: db64 783c f9ef cf3c 7cca 1c3d 65ae 053d
000003d0: ec0f 0fbd 893a 703c ad28 e43a daf5 bf3c
000003e0: 2dba 0f3d 121d 043d 1f29 e9bc c1c1 3fbc
000003f0: 1f8c 19bd d6fc 7ebd d201 8dbc 76a9 23bc
0.056263857 0.014550117 0.0498791 0.034789458 0.00880321 0.031691745 -0.0033589832 -0.0034047258
0.057542317 0.03508762 -0.019528406 0.053162683 -0.027667113 0.06541606 0.057506233 -0.002406613
-0.0059788246 0.012479913 0.057198957 -0.057695262 0.042070925 0.049613383 0.02620718 0.052428156
-0.047993377 0.044456802 0.04633893 -0.024640229 -0.00462778 0.050807685 -0.047397528 0.029298114
0.026054353 -0.007916613 -0.02570433 -0.019041432 0.048147075 -0.016847463 0.043785926 0.043882046
0.011957943 0.006684145 0.065254375 0.03539694 0.023693943 -0.011130282 0.044046246 0.003591869
-0.049402785 0.05679742 0.048589926 0.053091936 0.05028701 -0.041502785 -0.02881317 0.008869731
-0.016032627 -0.049151845 -0.063739575 -0.03228349 -0.001560787 -0.032714754 -0.008626085 -0.027024679
0.049867038 0.03750651 -0.048908237 -0.029925937 0.049094304 0.005078951 -0.020544333 -0.048627514
0.028461996 0.020271372 -0.020045957 -0.06022322 -0.03192195 -0.008897762 -0.012188097 -0.052719098
-0.04047915 -0.019059472 -0.044411115 -0.014779243 -0.054612804 0.050534878 0.00967883 0.055251878
0.0290158 0.037434444 0.056214258 0.058315564 -0.008133578 -0.039884474 -0.02216615 0.0055451547
0.022112366 -0.03074775 -0.00981785 -0.0010028735 -0.060269658 -0.016407428 -0.0073041553 -0.04441873
-0.068212144 -0.04042253 -0.009586885 -0.056391776 -0.024809482 0.030258367 -0.006642038 0.025068562
0.058574647 -0.045096416 0.031528678 -0.018831262 -0.004317178 0.0024957408 0.00082982855 0.05647668
0.045551136 -0.045913715 0.006829871 -0.037715793 0.05676063 0.037049495 0.0039726743 0.047137577
0.04119503 0.029686956 0.014826398 0.0024141055 -0.017486436 0.036606185 0.052605413 -0.041166786
-0.05235983 0.05963492 0.042266957 0.008078256 0.026368907 0.013362707 -0.01251528 -0.058410205
0.002175178 -0.013396303 -0.04606276 -0.028702155 0.035170674 0.0098188445 -0.00887322 0.014916759
0.0077401153 0.061789833 -0.03297743 -0.049699508 0.009656697 0.018631024 -0.046278693 0.059381574
-0.05200103 -0.014809739 -0.047494628 -0.037457157 -0.06523164 0.059579223 -0.048270598 0.016253918
0.051666446 0.0018007285 -0.016465576 0.0076113953 0.054093286 0.023922969 0.033517685 0.016368467
0.04426773 0.013352841 -0.0118223075 -0.010815364 0.041492593 -0.012008018 0.03883995 -0.063199885
0.032690514 -0.03755923 -0.054700118 -0.00046001893 -0.06428923 -0.011323005 0.05864396 0.038127016
0.054510362 -0.0051548867 0.03838142 0.056317583 0.018953117 -0.005722015 0.033974197 -0.03017038
-0.0043909866 0.054563936 -0.0004300424 -0.04581379 0.012469414 -0.020462252 0.04231291 -0.013570809
0.063538425 0.034618314 0.0072319186 -0.008245154 0.024347244 0.0234556 0.057511725 -0.03532887
-0.025634957 0.021285795 -0.013922808 0.03861927 0.017682178 -0.048261624 0.0120404875 0.0060146265
0.016438909 -0.023639763 0.039835572 -0.05216782 0.0008729618 -0.029112514 -0.0007280993 -0.0028546953
0.049782213 -0.05547213 0.036064237 0.0099108955 -0.036470715 -0.024301555 0.039639287 0.048067927
0.015160765 0.025382983 0.03827904 0.03263702 -0.034927294 0.014662393 0.0017407142 0.02343266
0.03508966 0.032254286 -0.02846199 -0.011703909 -0.037487146 -0.062252842 -0.017212782 -0.009989133

4.weight f4 [2, 256]
00000000: abb7 23bc 05a4 0a3d 2939 f43b ddb5 37bb
00000010: 50f9 07bd 62a9 3e3d 5e88 17bc e384 2dbc
00000020: 59dd 303d 9478 6a3d 1ab5 6d3c b180 93bc
00000030: 8811 d33c 431a 213d 2ebc 2b3d a52c 9e3c
00000040: 3f52 4ebd 3da8 c3bc b7bf ec3c 85c3 b53c
00000050: a957 97bc fdc7 183d 3ae8 9bba 08a3 643c
00000060: c3e2 143d 5d30 713b 7091 5c3c ba53 5abd
00000070: ff38 d13c b780 b0bc aefb 18bc edb7 51bb
00000080: 9363 6e3d 8bf5 2ebd 3c26 c5bc 5374 95bc
00000090: 6bfa fe3c e4bf 2a3d de7f 213c 654e ecbc
000000a0: 3d43 1f3d c5eb 00bd ca63 21bb 62bd 503d
000000b0: f4fe 1f3d 3a80 c2bc 3a91 30bd fdd8 71bd
000000c0: 04c3 03bd 71b7 f8bc cb7c e0bc fa04 2b3c
000000d0: fd2f 0a3d e2b5 5bbd 597a d63c af67 23bd
000000e0: cf75 753c 67f5 e53c c420 2abd 6d5c 593c
000000f0: 5875 4fbd cec5 833c 00da a33c f830 0d3d
00000100: 913d b5bc 0571 2ebc 7b07 ea3c 11e8 7a3d
00000110: 6f16 163d 18ba 473d 765b 7ebc 9b86 693d
00000120: f648 743c 59c8 0e3d d407 d63b 298e f5bc
00000130: b0b4 5bbc ce48 47bd 4c18 c93b a2ca 713d
00000140: ff27 4e3a d978 fabc 6944 afbc 54bb 433c
00000150: 1d76 f9ba f66a f1bc d68c 0039 bda4 cfbc
00000160: 56ce 1b3d 4fbf fa3c 49de 353d d1aa 243b
00000170: 616b 203d dd3b 4fbd 16e2 c8bc 9db2 5ebd
00000180: 794b 493c d891 1a3d 258d 433d 0ca8 883b
00000190: 61ca 59bd 5236 80bd 0d76 47bd 545d 18bd
000001a0: 9105 f03c 1f01 2abd 54cf 15bb 9060 df3b
000001b0: c1f3 5a3c 8110 c73c 1288 c23c e4f8 123c
000001c0: 4858 19bd 98a5 6d3c a766 133c 3bcb 9f3c
000001d0: b459 0cbd 4881 82bd 2aa5 9ebc c16e 30bd
000001e0: 8cff 92bb 60e6 923d 7bd0 93bc 5ffa 193d
000001f0: a8a2 f43c ab1f 22bd 3ec8 3bbd 2322 5bbd
00000200: 01e2 ebbc 5a1c d23c 1bf8 c53b fd3a d9bc
00000210: 67ec 10bb 483a 2bbd 6a14 54bd 417c 223d
00000220: 0e42 9bbc a79f 063d 6fe9 1ebc c47a 423d
00000230: 8674 dfbb ba8a 0dba e8a6 a33c f174 1b3d
00000240: d1e0 343d 1b34 20bd b40a 273d 6bcf c3bc
00000250: 719e 45bd 61be 633d c127 09bd 1b7d 2f3d
00000260: 1f9b cd3c c789 53bd 99c9 293d 8ff2 33bd
00000270: be2c 573d cfbc 423d ccb7 8d3d c798 dd3c
00000280: 5c20 ce3b 678d 2cbd 607c 47bd 7d03 86bc
00000290: e2fa 2fbd 2548 5d3d 7f49 aabc 67f5 cc3c
000002a0: b4d5 483d 2dad 763c cc9c 53bc 0ce3 15bb
000002b0: 577c 6abc dd02 cabc 1920 2a3d f2cf a8bc
000002c0: 6d54 853c 42e5 3b3d 1d66 6b3d 0e4d 0b3d
000002d0: b862 3dbc 1e42 c8bb e137 103d c5f7 be3c
000002e0: 396b 703b 6784 52bd 9fec 803c 085f 6b3c
000002f0: 7d7e 39bd 91ee 003c 2594 893d 08bb 483d
00000300: f680 70bb f9ff 423d 767e 18bc 8540 18bd
00000310: 5d45 1e3d 3b42 16bd 4633 373d b845 693c
00000320: c750 cc3c af3e da3c e856 79bd 0ec8 493d
00000330: 955a 3c3d 3c59 26bd 0325 4bbd a1f0 e0bc
00000340: d8d9 2b3c d8a3 843c 4f03 4f3c 4825 20bd
00000350: 8721 18bc 0d46 813c c3c2 673d 5db2 0cbd
00000360: 5f2f 0abd 03fb c7bc f558 043d db1c 303d
00000370: 187f 64bd 2174 adbc 9db3 e13b 3c54 43bd
00000380: 3163 453d f1cb 593d 2100 683c 5823 dabc
00000390: 703c 4ebd 3051 ba3c f703 57bd ee05 43bd
000003a0: 59da 48bd 6ead 7abd ada1 29bd 090e 80bc
000003b0: f4c5 9fbc e175 f23c f7d3 0d3d acb2 a1bc
000003c0: 7f9f 193d 898d 723d 1423 3abd 880f 06bd
000003d0: 992f a2bc e96d 5fbc 10c4 14bc 3a47 12bd
000003e0: 2011 a3bc 6d5a 2abc 72e4 a4bc 2057 ddbb
000003f0: 3325 00bd 5de0 d0bc b7e6 6f3c 7caa e23c
-0.00999252 0.033847827 0.007453103 -0.0028031983 -0.033196747 0.046548255 -0.009248821 -0.010590765
0.043179844 0.0572439 0.01450851 -0.0180057 0.025765195 0.039331686 0.04192751 0.019308398
-0.050371405 -0.023883933 0.02890001 0.022187958 -0.018474417 0.0373001 -0.001189477 0.013954885
0.03634907 0.0036802508 0.013462409 -0.053302504 0.025539873 -0.021545751 -0.009337349 -0.0032000497
0.05820043 -0.042714637 -0.024066083 -0.018243944 0.031125268 0.041686907 0.009857146 -0.028845975
0.038882483 -0.031474847 -0.002462613 0.05096186 0.0390615 -0.023742784 -0.04310725 -0.059044827
-0.032168403 -0.03036091 -0.027403256 0.010438198 0.03373717 -0.053640254 0.026181387 -0.039893802
0.014981701 0.028071119 -0.041535154 0.013266665 -0.050649017 0.016085532 0.020001411 0.03447053
-0.022124084 -0.010647063 0.02856802 0.061256472 0.036642488 0.048761457 -0.015524736 0.057013135
0.014909973 0.034859035 0.006531695 -0.029975014 -0.0134097785 -0.048653416 0.0061369296 0.059031136
0.0007864236 -0.030575203 -0.021394925 0.011946518 -0.0019032393 -0.029469948 0.00012259497 -0.025347108
0.038038574 0.030608801 0.04440144 0.0025126229 0.039164905 -0.0505942 -0.024521869 -0.054369558
0.0122860605 0.037736744 0.047742028 0.0041704234 -0.05317152 -0.06260361 -0.048696566 -0.03719838
0.02929953 -0.041504975 -0.0022859173 0.006816931 0.0133637795 0.024299862 0.023746524 0.008970473
-0.037437707 0.014504813 0.008996642 0.019506088 -0.034265235 -0.06372315 -0.019365866 -0.043074373
-0.00448603 0.07172847 -0.018043747 0.037592288 0.029862717 -0.039580982 -0.045845263 -0.053499352
-0.02879429 0.025648285 0.0060415394 -0.026517386 -0.0022113563 -0.04180363 -0.05177728 0.03966928
-0.018952396 0.0328671 -0.00969921 0.04748036 -0.0068193106 -0.0005399395 0.019977048 0.03795332
0.044159714 -0.03911219 0.04078169 -0.023902616 -0.048246805 0.05560148 -0.033485178 0.04284392
0.025098382 -0.051645067 0.041452024 -0.043932494 0.052532904 0.047543343 0.06919822 0.027050389
0.0062904786 -0.04212704 -0.048702598 -0.016359085 -0.04296387 0.05402388 -0.020786999 0.02501936
0.04903193 0.015055937 -0.012915801 -0.0022870926 -0.0143118715 -0.024659568 0.041534517 -0.020606969
0.016275609 0.045872934 0.05747043 0.034009032 -0.011559181 -0.0061113974 0.03520954 0.023311505
0.0036685003 -0.0513958 0.01573783 0.014365919 -0.045286644 0.007869379 0.067177095 0.049006492
-0.003669796 0.047607396 -0.009307494 -0.037170906 0.03864037 -0.036684256 0.044726633 0.014237814
0.024940861 0.026641218 -0.060873896 0.049263053 0.045984823 -0.040612444 -0.049595844 -0.02745849
0.01048895 0.016191408 0.012635066 -0.039098054 -0.009285337 0.015780473 0.056582224 -0.034349788
-0.033736583 -0.024411684 0.0323114 0.04299627 -0.05578527 -0.021173539 0.0068878666 -0.047687754
0.0481903 0.05317301 0.014160187 -0.026628181 -0.050350606 0.022743791 -0.052494016 -0.047613077
-0.049036358 -0.06120055 -0.04141395 -0.015631692 -0.019503571 0.029597225 0.034625974 -0.019738518
0.037505623 0.05921701 -0.04544361 -0.032729656 -0.019798087 -0.0136370445 -0.009079948 -0.03571246
-0.019905627 -0.010397536 -0.020128462 -0.006754771 -0.031285476 -0.02549761 0.014642409 0.027669184

4.bias f4 [2]
00000000: 006f c1bc 9a76 013d
-0.0236125 0.031607248

exp_avg f4 [256, 4]
00000000: 7679 8aba fabf ebb9 6070 2db8 c918 5f39
00000010: a39a 00bd e56a c1bb 116d 61bb f1bf ed3a
00000020: 3990 d3bc 9c3b 83bb b9ce 0cbb c850 543a
00000030: e9b0 80ba 4d73 06b9 dcc8 8cb9 e5b5 88b8
00000040: 8d93 1b3c 5c48 103b d638 df3a fa37 36ba
00000050: b2c8 d53a 2c97 8a39 ef30 fc38 6c7f 12b8
00000060: 904c 6d3d 5e42 fe3b 6341 943b 3b9f 87ba
00000070: 5af6 69bd d2c7 f1bb 5b57 95bb 65f9 c838
00000080: 170d 1f3b ff73 a939 dce5 c039 a3a6 10b8
00000090: 3f57 ecbb 178c 87ba da78 8eba 82dc 3939
000000a0: 46d4 6ebd 4ed3 00bc 3aab 9ebb 47d9 6e3a
000000b0: 4fdc 58bb 23e1 b1b9 dc3b 1db9 32a7 b538
000000c0: e23a 88bb 9ffb 5dba e7c7 c9b9 d0dd 6539
000000d0: 62bd 2fbb 00ac 2dba 1cea 683a 078d 033a
000000e0: 0499 053d 5130 2c3b 6a1f 373b e4bc 4e3a
000000f0: 0bff 153d 4536 6e3b 99ce 373b f6df 8639
00000100: ded7 eabc 9955 6fbb 038d 3fbb 03a1 9839
00000110: 42a4 61b9 1f0d 53b9 124c 33b9 427c 4637
00000120: 33b7 60ba 7097 86b9 db14 d9b8 8659 e938
00000130: d5c1 1fb8 ea73 3237 79e9 4c36 7bda 8837
00000140: 19cf 033b 325b d239 f3a7 6e39 3c38 12b9
00000150: cdda 6abd 7459 f8bb 7cf8 79bb 8a25 6a3a
00000160: dd5e 80ba a932 12b9 84d7 c9b8 8419 db36
00000170: 2e70 6639 c3ec 3138 5967 c738 20d7 a237
00000180: cafb d23b 15d5 073a a3e6 2e3a 9d1e 6c39
00000190: b4fa f139 6cc0 0239 1c0c bf38 7414 52b8
000001a0: dd5d 1fbd 314a 00bb 1bf6 cbba 173e 48ba
000001b0: 86aa 9c3c ff9c 943b 1950 a03a ee54 04bb
000001c0: 2d5f 183d a018 823b ea28 833b 2fc3 bd38
000001d0: b9be d8b9 b646 9ab8 8ac3 63b8 273c 1438
000001e0: 3c6d 31bc 675d 64ba dff2 beb9 adae cf37
000001f0: 1346 bbbb 9511 4538 6286 9d39 f932 a0b8
00000200: 60e1 423b 4143 6239 5fd4 dd39 0365 6d39
00000210: b277 323b 89e3 b639 e026 9338 401a b7b8
00000220: 1a0e 83ba 32bf 08b9 2c65 88b9 6b4f ccb7
00000230: 8919 02bc 8b7f 8cba 716e 83b9 2737 2a39
00000240: dc51 0ebd 7505 acbb e104 1dbb 7cd4 923a
00000250: 20c6 4fbc c685 e7ba a61c aaba 2577 a939
00000260: 6df7 8cb9 58e9 eeb8 4c3b 1eb9 6c5d ccb7
00000270: 4d60 39bc 99ac 5abb 4db3 62b8 71bd dd3a
00000280: 110f c83b 509a 173a 0a6a 463a d4f9 0037
00000290: 273f 9fbc 0b2c 4cbb fce7 3dbb a966 a339
000002a0: e407 b5bc 6ffe 64bb 42a8 08bb d0ed 663a
000002b0: 9f1b 31bc 4a3e 2cbb 0412 a1b9 2da0 983a
000002c0: 851a 6cbb 5b18 ddb9 6353 57b9 caed bc38
000002d0: 591f da3b 212c 5f3a fe48 893a 7a90 b7b7
000002e0: b0a0 98bc e72f a5b9 3fda 7fb9 2d23 03ba
000002f0: e8bd 8e3c 9c21 293b 9839 a33a ef86 1fba
00000300: e417 5239 956e 4c38 d44e a238 4961 64b5
00000310: 6b7b 8bbc a01f 2ebb 4a31 c8ba 50a5 1d3a
00000320: 5aa7 a03d 26e8 f23b 2ab8 de3b 62ac 2f3a
00000330: 7235 0abc 4133 f3ba 1991 40ba 4a70 4d3a
00000340: 29f7 e33c de76 923b eec4 303b 563f 94ba
00000350: d69f 37bb e9c9 73ba 68c0 f3b8 17f1 9f39
00000360: cbdf 70bb 09cc 58ba 5e8b 9cb9 7cf7 b639
00000370: 49ce f8b9 84aa 4ab9 e8c2 8eb7 fc95 b638
00000380: 8280 a43c e72a f93a f040 c439 e54d 22b9
00000390: 643a 20bb 5d62 43ba 8fc7 14ba 6e7d 3939
000003a0: 0fce 0ebd 0b5a 1ebb 4d2d 7bbb 95c9 91ba
000003b0: 9211 adbd 5898 23bc d9f7 fdbb 68d7 2fb8
000003c0: c492 a8bc d0e1 98bb e2c8 75ba c4f1 fe3a
000003d0: bf61 acbc 598e 87bb 2fc5 10bb cc65 b43a
000003e0: e997 84bc d084 4abb b7cf a3ba 4cdc 803a
000003f0: b444 0e3d 1dee 113b 74d1 363b a70f 2a3a
-0.0010564763 -0.00044965727 -4.135107e-05 0.0002127617 -0.031397473 -0.0059026354 -0.0034397284 0.0018138868
-0.025825607 -0.0040049087 -0.002148552 0.00080991955 -0.0009818348 -0.00012822189 -0.00026852533 -6.518866e-05
0.009495628 0.0022015786 0.0017030488 -0.000695109 0.0016310422 0.00026434043 0.00012025411 -3.4927783e-05
0.057934344 0.0077593764 0.0045243963 -0.0010347137 -0.057119705 -0.0073785568 -0.0045575327 9.5831965e-05
0.0024269277 0.00032320616 0.00036792352 -3.4487468e-05 -0.007212549 -0.0010341433 -0.0010869757 0.0001772512
-0.05830791 -0.007862879 -0.004842189 0.00091113563 -0.0033090299 -0.0003392781 -0.00014994986 8.661895e-05
-0.00415741 -0.00084679754 -0.00038486646 0.00021921773 -0.0026815762 -0.0006625056 0.00088849827 0.0005018268
0.03261663 0.0026273916 0.0027942308 0.0007886423 0.03662018 0.0036348265 0.0028046726 0.00025725336
-0.028667387 -0.0036519526 -0.0029228337 0.00029111662 -0.00021518863 -0.00020127416 -0.00017099109 1.1830651e-05
-0.00085722207 -0.000256713 -0.00010351251 0.00011126981 -3.8089074e-05 1.0636615e-05 3.0534268e-06 1.6314201e-05
0.0020112453 0.00040122267 0.00022760015 -0.00013944594 -0.05733757 -0.007579023 -0.0038142493 0.00089319854
-0.0009793896 -0.00013942517 -9.62457e-05 6.529679e-06 0.000219763 4.242059e-05 9.5083094e-05 1.941208e-05
0.006438707 0.0005181593 0.0006671941 0.00022518118 0.0004615389 0.00012469449 9.109845e-05 -5.008695e-05
-0.038907874 -0.0019575472 -0.0015561016 -0.00076386466 0.01912428 0.004535317 0.0012230902 -0.0020192224
0.03720014 0.0039702207 0.00400268 9.048578e-05 -0.0004134083 -7.356463e-05 -5.4303127e-05 3.534197e-05
-0.010829266 -0.0008711428 -0.00036420577 2.4757663e-05 -0.0057151406 4.6984835e-05 0.00030045497 -7.638889e-05
0.0029736385 0.00021578094 0.00042310634 0.00022639711 0.0027231988 0.00034883272 7.016747e-05 -8.7310094e-05
-0.000999871 -0.00013041197 -0.0002601532 -2.4355677e-05 -0.007940658 -0.0010719163 -0.00025068552 0.00016233009
-0.034746036 -0.005249674 -0.0023959207 0.0011202241 -0.012681514 -0.0017663769 -0.0012978509 0.00032322961
-0.00026887227 -0.00011392188 -0.00015090144 -2.4362198e-05 -0.011314464 -0.0033367036 -5.4049586e-05 0.001691742
0.0061053117 0.0005783187 0.00075689016 7.687562e-06 -0.019439293 -0.0031154181 -0.0028977385 0.0003116627
-0.02209849 -0.0034941693 -0.0020852243 0.00088092405 -0.010809808 -0.0026282244 -0.00030721736 0.0011644416
-0.003602655 -0.0004217055 -0.00020535062 9.00883e-05 0.006656569 0.00085133506 0.0010474024 -2.1882577e-05
-0.01863131 -0.00031506942 -0.00024399998 -0.0005002495 0.017424539 0.0025807386 0.0012453077 -0.00060854753
0.0002003606 4.8740378e-05 7.739445e-05 -8.507819e-07 -0.017026624 -0.0026569143 -0.0015273478 0.0006013708
0.0784442 0.007412928 0.0067968564 0.0006701407 -0.008435594 -0.0018554704 -0.000734584 0.0007836862
0.027827816 0.0044697365 0.0026972848 -0.001131038 -0.0028018854 -0.00092998013 -0.000116229814 0.0003050647
-0.0036754485 -0.00082701497 -0.00029858475 0.00034898135 -0.0004745594 -0.00019327743 -1.701848e-05 8.706373e-05
0.020080809 0.0019009978 0.00037432415 -0.00015478542 -0.0024448866 -0.0007453317 -0.00056754885 0.00017689701
-0.03486448 -0.0024162557 -0.0038326562 -0.0011122698 -0.08450617 -0.009985052 -0.007750493 -4.1923864e-05
-0.020577796 -0.004665591 -0.0009375942 0.0019450714 -0.021042703 -0.004136842 -0.0022090187 0.0013763248
-0.016185718 -0.0030901916 -0.0012497817 0.0009831279 0.03473349 0.002226717 0.002789584 0.0006487318

exp_avg_sq f4 [256, 4]
00000000: 7b92 5137 34a2 6536 bbe9 e735 9d5b 1b36
00000010: fc63 e539 581c 6a38 fdd8 5d38 44a5 a237
00000020: 766b e738 bb06 2737 db6b 3637 2cc0 2e36
00000030: 31ce f536 2995 1935 5899 f135 bf04 8135
00000040: 2bd0 a439 b4b5 0438 3cc2 4937 5267 e336
00000050: b9e9 ec36 03f0 0f35 b5d4 8535 a8f9 d734
00000060: b793 9f3a bf15 9d38 8013 8438 27fb fd37
00000070: a531 dd3a 8462 8838 2bb7 b137 f975 9f37
00000080: 437c 7937 a7aa 4236 2f41 df36 2787 f435
00000090: 2f5c 8638 e2b6 5637 adb3 fe37 3139 0a37
000000a0: b84b 5c3a 1c58 4638 5dd0 0638 ef5a a037
000000b0: aeb5 fc36 fd69 7336 f1d7 c336 3325 f735
000000c0: 4016 3a38 9e66 9f37 fa59 0e38 b220 1b37
000000d0: f52a 6139 576d 3637 81e4 b236 2f45 6f36
000000e0: c9ad a83a bb0b 1038 8891 9737 3398 2337
000000f0: 8903 a839 b660 4a37 75be 7b37 d55b aa35
00000100: 6cef 6b39 0e7f 8737 02dd 5a37 71fc 0037
00000110: fd09 3936 17be ec35 3276 c635 4e3b 0136
00000120: bfc7 bc36 709a a636 7950 4536 27c9 9436
00000130: 7792 8235 c896 c035 cd76 3236 82b3 4c35
00000140: a7b5 3937 2887 4236 b831 6436 9032 1d36
00000150: eb65 053b e6a4 7838 9c5b c437 0472 1037
00000160: 6177 4736 f0dc 6835 d8d4 e835 4add f034
00000170: 8b49 7b35 ecfc 5b34 9a66 7935 2ecd 7f34
00000180: bada 9139 1624 7a36 1e7c 2f37 7f42 df36
00000190: e74c 9836 4707 9636 cfb1 f936 d3a2 0e36
000001a0: afed c139 89f9 4037 0e33 be37 327e b036
000001b0: ffff 2539 dc7a d337 b4ac 1938 9efc 2c37
000001c0: 6d65 c33a 06ab b738 b6a0 9e38 43e6 c837
000001d0: 203c 9f36 f121 3e36 410c c036 053d d635
000001e0: 5823 1038 56ee 9e35 7bce 5136 9167 2835
000001f0: 52b9 0739 5ccf 4436 bc02 9b36 3d3a 4736
00000200: 66ae e738 baef d135 b1f5 a336 fc49 6036
00000210: 1ad3 3a37 688e 9b36 feab 1537 19bd f035
00000220: f26f ae36 6247 3835 d11b 0236 6e21 6335
00000230: c17a ce39 0f14 5637 3f2d 4c37 9788 0137
00000240: 5952 0f3a bcd2 5438 a2a1 4938 bc97 cb37
00000250: 3deb 2239 3d47 7d37 c6f9 b337 edab ed36
00000260: af38 3136 282b d634 934a b535 cccb 5735
00000270: 0e42 bb38 f982 cf37 e4c9 c737 d1e9 c436
00000280: b10b bb37 ef90 3f36 5bb2 9836 804d 6335
00000290: 4e26 ae3a e180 d838 8457 2738 d5ec de37
000002a0: 059c 4c39 f3ae bf37 c14d 0a38 8d69 6837
000002b0: fd84 bd38 26a1 9537 a099 8f37 c1dd 7e36
000002c0: 4f0e 8038 99ad 0636 bd64 1336 2db9 3235
000002d0: 98da 7838 2661 8b36 add8 e536 b242 5236
000002e0: 16f9 1939 b4a0 1537 0073 c437 5498 9236
000002f0: 638a dd38 e5a0 3637 f2dd 5c37 7f9d 1c36
00000300: 1a89 8b35 f63f ed34 d1e5 9035 0024 f134
00000310: 1dc4 0e3a 1642 ea37 4fc4 af37 3ef9 3437
00000320: 83ae 0c3b 3b7a 7b38 c709 8e38 cb8f b337
00000330: ba78 5338 bf5a 5337 2b49 a837 7b53 b436
00000340: ac5f 5839 f87f 9837 0db4 9937 929a 2837
00000350: caba ac38 6e28 e136 5d16 9936 d94d ac36
00000360: c8b2 a637 5f8a 8636 c55e 4e36 8738 f835
00000370: c313 e535 f60a 8435 f4ca 9035 154f f634
00000380: b05e 2939 7ebe 4537 5fff 8937 eaaf 8536
00000390: d0fa 5238 70b9 e737 8b7a 5138 705a 6b37
000003a0: a7c1 1d3a 2426 da37 be1b 4c38 8b21 6937
000003b0: b9b4 173b 6160 ae38 bb09 9d38 1884 d037
000003c0: d71b 8139 a1ba 1338 f013 0138 23ef 1637
000003d0: 2957 2f39 72e2 ae37 6b8c 9837 7857 d936
000003e0: 587d 9339 de5a 0938 0b2e f137 6032 fb36
000003f0: 83ad 3a3b a3a8 c538 b9a1 e837 e865 a137
1.2491476e-05 3.4218074e-06 1.7278866e-06 2.3150126e-06 0.00043752778 5.5816345e-05 5.2892592e-05 1.9388863e-05
0.000110349545 9.955543e-06 1.0873157e-05 2.603988e-06 7.325573e-06 5.7214e-07 1.8000528e-06 9.61263e-07
0.00031435615 3.1640477e-05 1.2025757e-05 6.7771552e-06 7.060557e-06 5.3620914e-07 9.971178e-07 4.022852e-07
0.001217476 7.490394e-05 6.297883e-05 3.0276902e-05 0.0016875757 6.503335e-05 2.1185338e-05 1.9009212e-05
1.48704885e-05 2.9007585e-06 6.6535063e-06 1.8218751e-06 6.4067885e-05 1.2797975e-05 3.0362828e-05 8.238757e-06
0.0008403617 4.7288937e-05 3.2142143e-05 1.911583e-05 7.5313355e-06 3.6271515e-06 5.8365918e-06 1.841376e-06
4.4366578e-05 1.9002062e-05 3.3939235e-05 9.246332e-06 0.00021473675 1.0873503e-05 5.3314147e-06 3.5654045e-06
0.0012869175 3.43432e-05 1.8068371e-05 9.750994e-06 0.0003204609 1.20626555e-05 1.500511e-05 1.2692714e-06
0.00022500538 1.6152419e-05 1.304527e-05 7.688171e-06 2.7572962e-06 1.7638694e-06 1.4786549e-06 1.9257018e-06
5.62609e-06 4.9651644e-06 2.9402129e-06 4.434161e-06 9.728382e-07 1.4348998e-06 2.6593218e-06 7.625714e-07
1.10691535e-05 2.8986924e-06 3.4003588e-06 2.3424254e-06 0.0020354937 5.928138e-05 2.340768e-05 8.609615e-06
2.9722798e-06 8.674824e-07 1.7347293e-06 4.4864493e-07 9.3611806e-07 2.0487977e-07 9.2909033e-07 2.382337e-07
0.0002781952 3.7273908e-06 1.0459711e-05 6.653659e-06 4.5389056e-06 4.4711956e-06 7.441478e-06 2.1254425e-06
0.00036988917 1.1502191e-05 2.267354e-05 5.2599e-06 0.00015830992 2.5210371e-05 3.6638885e-05 1.0310816e-05
0.0014907547 8.7579756e-05 7.563962e-05 2.3949082e-05 4.7455687e-06 2.8331963e-06 5.7234724e-06 1.5962001e-06
3.4365192e-05 1.1841282e-06 3.1263614e-06 6.2735586e-07 0.0001294364 2.9326975e-06 4.6196783e-06 2.968721e-06
0.000110474226 1.5641483e-06 4.886381e-06 3.3421666e-06 1.1135615e-05 4.6359382e-06 8.921137e-06 1.7936428e-06
5.1986362e-06 6.8649217e-07 1.93877e-06 8.4612736e-07 0.0003938284 1.2760064e-05 1.2169882e-05 7.7208015e-06
0.0005467288 5.0741e-05 4.8072667e-05 2.4270143e-05 0.00015537157 1.5096562e-05 2.1454773e-05 7.083165e-06
2.640805e-06 3.9892006e-07 1.3507255e-06 8.0390305e-07 8.9291585e-05 2.4737312e-05 2.3816661e-05 5.868475e-06
2.2297581e-05 2.854558e-06 4.5507163e-06 8.4676867e-07 0.0013286562 0.00010323688 3.9897408e-05 2.6574746e-05
0.00019513078 2.2850441e-05 3.2974178e-05 1.3852853e-05 9.036993e-05 1.7837225e-05 1.7118466e-05 3.7978027e-06
6.106181e-05 2.0068603e-06 2.1963344e-06 6.6579634e-07 5.933139e-05 4.1538324e-06 6.849956e-06 3.133126e-06
0.00014684009 8.918509e-06 2.3418572e-05 4.3688724e-06 0.00010563878 1.08855065e-05 1.31646975e-05 2.3337486e-06
1.0396209e-06 4.4191228e-07 1.0795721e-06 4.4915942e-07 0.0005446093 2.7925747e-05 2.0953039e-05 1.0786867e-05
0.0021466322 5.99569e-05 6.772909e-05 2.1405422e-05 5.0418756e-05 1.25977085e-05 2.0061232e-05 5.3741364e-06
0.00020635006 1.8179402e-05 1.8322864e-05 1.0049569e-05 8.236391e-05 6.710229e-06 4.5623588e-06 5.135062e-06
1.9871994e-05 4.0096197e-06 3.0751555e-06 1.8493892e-06 1.7067581e-06 9.837956e-07 1.0787903e-06 4.587861e-07
0.0001615237 1.1786467e-05 1.645059e-05 3.984188e-06 5.030149e-05 2.7623697e-05 4.994361e-05 1.4028148e-05
0.0006017931 2.6005386e-05 4.8663227e-05 1.3895692e-05 0.002314849 8.3149185e-05 7.488156e-05 2.4857043e-05
0.0002462554 3.5221343e-05 3.0774565e-05 8.996375e-06 0.0001672177 2.0847863e-05 1.81852e-05 6.4772867e-06
0.00028131413 3.2747972e-05 2.875088e-05 7.4862473e-06 0.0028484769 9.425103e-05 2.7731863e-05 1.924015e-05
