distributed_shared/worker_logs/worker_11/models/model_episode_20.pt (torch, 816842 bytes, 16 tensors)

0.weight f4 [256, 4]
000000 73 a3 a7 3d b0 25 7e be 7b 3b a1 be 6c 69 5c be
       0.08185472 -0.24819064 -0.31490692 -0.2152459
000010 90 a6 e4 3e 48 94 d8 be 89 f5 22 3e a5 96 07 3c
       0.44658327 -0.4230063 0.15913977 0.008275663
000020 62 28 ba be 75 50 5a 3e 4a a9 ef bd f0 23 b9 be
       -0.36358935 0.21319754 -0.11702211 -0.3616023
000030 11 7c 01 3f 3f f9 c9 3e 43 52 63 bc 04 4e 17 bd
       0.50579935 0.39447972 -0.013874593 -0.036939636
000040 f2 7c 2a bd 50 66 3b be 65 ff 9d bd d8 f4 bb bd
       -0.041623063 -0.18300748 -0.07714728 -0.091775596
000050 6a f5 4c bd 66 5d 82 3d 46 da b9 be 66 85 4c 3e
       -0.050038733 0.063654706 -0.36299342 0.19972762
000060 ae 88 07 be 69 8f 8c 3d 07 98 ad be 00 f9 9b 3e
       -0.13235733 0.06863291 -0.3390505 0.3046341
000070 52 4e d7 3d 8e bc 83 3e 3f 32 41 be d7 34 83 3e
       0.10512985 0.25729793 -0.18866824 0.2562625
000080 dc 06 b5 3d d7 cf f2 3e 71 03 d9 3e 28 b2 ab 3e
       0.08839199 0.47424194 0.42385438 0.3353436
000090 b9 9f 66 3e 60 18 14 3e ed 27 b6 3c f9 56 b7 be
       0.22521867 0.14462423 0.022235835 -0.35808542
0000a0 95 13 4d 3e e7 99 34 bd b1 1c 40 be bc 9f ba 3e
       0.20027001 -0.044092085 -0.18760945 0.36449993
0000b0 8c 04 90 3e 28 ef a2 3e 13 df 9a 3e 8c 5a 92 bc
       0.2812847 0.31823087 0.30248317 -0.017865442
0000c0 ac 7c f2 bd 4d 39 3f 3d e1 0a bb 3d 6b 2b 4a 3e
       -0.118401855 0.046685506 0.09132934 0.19743125
0000d0 77 dc 0e be f4 84 81 3e 79 da cc bb c9 73 e8 bc
       -0.13951288 0.25296748 -0.00625163 -0.028375523
0000e0 c8 9d 5d 3e 41 0f 86 3e c1 e0 3a bd 77 86 ad bd
       0.2164222 0.26183513 -0.0456245 -0.08472913
0000f0 5a b2 8a 3e 51 48 ee be 20 bd 97 be ec 07 e5 be
       0.27089196 -0.46539548 -0.29636478 -0.44732606
000100 86 07 dd 3c 42 49 fa be f6 7a b9 bd a5 06 11 be
       0.026981127 -0.48884016 -0.09056656 -0.14162691
000110 7c 31 00 3d 87 36 52 3e 99 1e c7 be d9 ba 95 be
       0.031297192 0.20528613 -0.38890532 -0.29244116
000120 8d 4c 98 3e f8 0e dc be c1 d4 97 be 93 78 f6 39
       0.29745904 -0.4298017 -0.29654506 0.0004701061
000130 ef 67 23 be e0 67 81 3e f7 56 e1 3e 6a c6 93 be
       -0.15957616 0.25274563 0.4401166 -0.28862315
000140 05 91 61 3e d7 23 bd be 06 1d 71 3e 3d 78 43 bd
       0.22027977 -0.36941406 0.23546228 -0.04772209
000150 f9 05 6d be eb 4d ea 3e 6e e0 9b be e3 64 dd bd
       -0.2314681 0.45762572 -0.30444664 -0.10810258
000160 9d 72 a2 be 3b f9 a4 be 83 69 a1 3d 00 b6 42 3d
       -0.31728068 -0.32221398 0.07881453 0.04753685
000170 96 61 d8 bd a6 2d b4 3e 97 85 d6 be 08 65 5a be
       -0.10565488 0.35191077 -0.41898796 -0.21327603
000180 8e 39 cd 3e 7b 13 02 3f 05 d7 d5 3e cc c7 d2 bd
       0.40082973 0.50810975 0.4176561 -0.102920145
000190 d1 b3 a3 be 48 3a 58 be c0 dd e6 bd 9c ac 20 be
       -0.31973127 -0.21115983 -0.11272764 -0.15690845
0001a0 d3 cc 0c be 27 d3 88 3d ca e0 38 3e 3e 99 d9 be
       -0.13750009 0.06680899 0.180545 -0.42499727
0001b0 8d 5a 6f 3e 67 35 9f 3c 26 ff f4 3e 34 fa f1 bc
       0.23374386 0.019434644 0.47850913 -0.029538251
0001c0 30 7c 57 3e e4 33 80 3e de 80 b5 3e cf 28 d0 be
       0.21043468 0.2503959 0.3544988 -0.40656134
0001d0 53 4c 81 3c 3e 41 e7 be 78 e2 80 be 1f a1 37 3e
       0.015783465 -0.45166963 -0.25172782 0.17932557
0001e0 a2 bb 22 3e 81 9e c8 be aa 42 e2 3e 43 8f ff be
       0.15891889 -0.3918343 0.44191486 -0.49913988
0001f0 0c cf a1 bd 5d 23 cd bd 43 6c 8f 3d 2c 86 ac 3e
       -0.07900819 -0.10016511 0.07003071 0.33696115
000200 c6 35 b1 3e 5c c2 f8 3e 1d eb 46 be 9b 6e 9e bd
       0.34611338 0.48585784 -0.19425626 -0.0773594
000210 54 9a 57 3e d3 02 e1 3e e2 c5 8f 3d df f1 b1 3e
       0.21054965 0.43947467 0.07020165 0.34754845
000220 43 d0 8e bd f2 a8 90 be c7 10 86 be 15 7a e2 be
       -0.069733165 -0.28253895 -0.26184675 -0.44233766
000230 0d ce 90 be 06 3d ac 3d 2d 4f 47 3d 1b fa c9 be
       -0.28282204 0.08410077 0.048659492 -0.39448628
000240 67 66 e8 3d 5a 87 b3 3e 5a d8 0c 3e 51 c5 ea 3e
       0.11347657 0.35064203 0.13754407 0.45853665
000250 7e cc ba be 73 4e 87 be f3 6b 8a be 94 bc 8f 3c
       -0.3648414 -0.2642704 -0.27035484 0.017545976
000260 4e 3b 4f b8 ee d0 51 be 6e 9c b7 3e ad 08 db 3e
       -4.9407878e-05 -0.20489857 0.35861534 0.42780057
000270 af 10 55 3d 53 d0 2e be 74 46 c7 3e fe 1c b9 3e
       0.052017864 -0.17071657 0.3892094 0.36154932
000280 b5 7e f2 3e 89 ee 72 3e 63 2b a3 be e7 ef 9b bd
       0.47362295 0.23723806 -0.3186904 -0.07614117
000290 fd 79 ff bd e5 94 42 3e 85 5c 8a 3e 1b 99 bd 3c
       -0.12474439 0.19002111 0.27023712 0.023144295
0002a0 72 06 fc be 27 38 4a be db 96 dc 3e 67 c7 f1 3e
       -0.49223667 -0.19747983 0.43083844 0.47222444
0002b0 9d b4 57 be b7 e6 90 be 65 ec 62 be ad 11 f9 3e
       -0.21064992 -0.2830102 -0.2216049 0.48646298
0002c0 4c 86 ee 3e 6f b8 f1 be 39 81 bd 3e de 08 99 be
       0.46586835 -0.47211024 0.37012652 -0.29889578
0002d0 f5 95 81 be 61 34 fb be 63 ae e5 be fc a6 d9 be
       -0.2530972 -0.490634 -0.4485961 -0.4251021
0002e0 fc f1 69 be 86 48 34 bc 3a 21 ac be b9 c6 54 be
       -0.22846216 -0.011003619 -0.336191 -0.20778932
0002f0 dd 02 95 3e 27 c1 c3 be 02 b8 a7 3e 96 de c2 3e
       0.29103747 -0.382333 0.32757574 0.38060445
000300 11 a6 dc 3e 28 d3 37 3d c4 ab fb be c0 57 dd be
       0.4309545 0.04487911 -0.49154484 -0.4323101
000310 40 bc b1 be 5e b1 0b 3e be c9 a5 be 9c 59 7b be
       -0.34713936 0.13641879 -0.3238048 -0.24545902
000320 86 1a fe 3e 5f 34 03 3f a5 52 e9 3e a1 86 93 bd
       0.4962961 0.51251787 0.45570865 -0.07203413
000330 24 59 f2 bd 97 1c c8 be 45 4f 8d 3e dc 4c 87 3d
       -0.118334085 -0.39084312 0.2759954 0.06606457
000340 37 69 c1 be f8 d9 53 3d 01 99 f3 3e 63 e4 02 3f
       -0.37775585 0.051721543 0.4757767 0.5112974
000350 c7 2e 9e 3e 99 36 3f be 6d 9a 91 be a5 cd d6 3e
       0.30895063 -0.18673171 -0.2843813 0.4195377
000360 5a d5 a5 3d 86 b1 ed 3e cb ec 04 3e 45 32 f7 3e
       0.08097334 0.46424502 0.12980954 0.4828054
000370 7b f2 53 be 64 bf 4b be d9 fc d1 be a4 bd 9d bc
       -0.20697968 -0.19897228 -0.4101322 -0.019255467
000380 f3 a4 cb 3e ef 37 3a be 55 69 24 be 2e da 9d 3e
       0.39774284 -0.181854 -0.16055806 0.3083052
000390 02 6e d9 bd e9 5d ce be 68 3d 58 3e 9d 5a b9 be
       -0.106166855 -0.40306023 0.21117175 -0.36201945
0003a0 85 d3 2c 3e 77 7d dd 3e aa 40 a4 3e f9 ad 0e be
       0.16877563 0.43259785 0.32080585 -0.13933553
0003b0 4d cb 6c 3e ce 9a 76 be 5c 99 12 3d 80 f6 95 bd
       0.23124428 -0.24082491 0.035790786 -0.07322407
0003c0 a5 92 1d bd f5 8c aa 3e 17 e9 c0 3e 37 54 36 3e
       -0.03846993 0.33310667 0.37677833 0.17805563
0003d0 0a de 62 be 56 da d9 3e 68 4e 20 3e c6 3f 33 be
       -0.22155014 0.4254939 0.1565491 -0.17504796
0003e0 e4 c7 9e be c8 57 09 be c4 a4 f6 3e 62 eb 9f bd
       -0.3101188 -0.13412392 0.4817258 -0.078085676
0003f0 bd 8c ef 3d ee ff f4 3e d8 db 45 bd eb 90 81 bb
       0.116967656 0.4785151 -0.048305362 -0.003954043

0.bias f4 [256]
000000 eb 6d 85 3e 5d 3d 31 3e f8 b1 a1 3e 60 0c 67 3e
       0.26060423 0.17308564 0.31581092 0.22563314
000010 76 4d b2 3d 00 15 f7 be 8f e8 11 3e 4f 06 d3 3e
       0.08706181 -0.4825821 0.1424887 0.4121575
000020 5c 8f cd be 46 b5 05 be 51 73 c1 be 3d 32 6b 3e
       -0.40148437 -0.13057432 -0.37783292 0.22968383
000030 5a b3 ba be 17 9d 74 3e 04 61 f9 3e eb 29 c1 bb
       -0.3646496 0.2388805 0.4870683 -0.0058948896
000040 c0 27 ed 3e cf 9b df be 0e 38 a3 be bb fa b1 be
       0.4631939 -0.4367356 -0.31878704 -0.34761605
000050 01 46 d8 be 08 3e f1 bd 73 60 ad 3e 6e 87 b8 be
       -0.4224091 -0.1177941 0.33862647 -0.36040825
000060 e7 6f 6c be c0 b7 f0 bb e9 c1 ae 3e 61 cc e0 be
       -0.23089562 -0.0073461235 0.34132317 -0.4390593
000070 22 7a d2 be 09 14 8d be fa 72 37 be 12 b1 c5 be
       -0.41108805 -0.27554348 -0.17914954 -0.38611656
000080 fe 8a 89 be 8d e0 d9 3e 9b dc c9 3e be 22 8f bd
       -0.26863855 0.4255413 0.3942612 -0.069890484
000090 75 b1 a9 bd f6 8d f0 3e 6d ea a6 be 3c 69 93 bd
       -0.082858 0.46983308 -0.32600728 -0.07197806
0000a0 17 dc 92 3e ff e5 ed bd f8 cf 1b be 27 e3 fb 3d
       0.2868354 -0.11616134 -0.15216053 0.12299185
0000b0 72 5b cf be a6 86 5d 3e af 92 cd 3e 55 e7 cc be
       -0.40499455 0.21633396 0.40150973 -0.40020242
0000c0 9b d5 f2 3e 07 46 17 3d 9e 2b a9 3d 21 db b9 be
       0.47428593 0.036932018 0.082602724 -0.36299995
0000d0 8e 17 8e 3e e5 07 dc 3d f9 68 f9 be 88 94 da be
       0.27752346 0.10743693 -0.487129 -0.42691445
0000e0 96 53 90 be 21 8d f1 3e ad e0 a6 be a7 47 97 be
       -0.2818877 0.47177985 -0.3259329 -0.29546854
0000f0 92 9f f2 3e c7 18 44 be 01 14 d2 be 3f 67 e9 3e
       0.47387367 -0.19150077 -0.41030887 0.45586583
000100 bb 8e 91 3e df 49 2b be 14 4e 72 3e 30 7c 7c be
       0.28429207 -0.16727398 0.23662597 -0.24656749
000110 b8 ee 70 3e 96 ae 2c 3e 10 1d ae 3e d5 17 3d be
       0.23528564 0.16863474 0.34006548 -0.18466122
000120 4a 87 e4 bd ed e9 f2 3e 6a 98 0f be c0 44 fe 3e
       -0.11158617 0.47444096 -0.14022985 0.49661827
000130 f9 ef 42 3c d2 a5 9a 3e 18 3c a8 3d f1 70 c2 be
       0.011898034 0.30204636 0.08214587 -0.37976792
000140 e1 cf 8f 3e f7 87 50 3e 94 46 f8 be df df d3 bd
       0.28088287 0.20364366 -0.48491347 -0.103454344
000150 24 80 ca bd 8a 16 2f bd 5e 30 bf be 46 9d 43 be
       -0.09887722 -0.042746104 -0.3734159 -0.19102964
000160 e2 32 a9 bd 1e 83 56 3d 8b 6a 48 3e 82 96 f8 3e
       -0.08261658 0.052371137 0.19571893 0.48552328
000170 52 e7 16 3e 56 28 ca be 27 8f f5 3c 32 c6 89 be
       0.14736679 -0.394839 0.029975487 -0.26909024
000180 88 ea 5f be 5f c5 1f 3e a4 64 b3 3e 23 2d 03 3e
       -0.2186681 0.15602635 0.3503772 0.12810187
000190 27 11 d8 bd 65 7f c5 be 7f dc 9b 3e c1 78 09 3d
       -0.105501465 -0.38573757 0.30441663 0.033562426
0001a0 81 54 62 3b 0a 5b 06 3e 37 4c b5 3e 6f b8 27 be
       0.0034535232 0.13120666 0.3540971 -0.1637895
0001b0 c1 7f 43 3e 9c 76 93 3d ad 9b c1 be 10 10 54 3d
       0.19091703 0.07200357 -0.37814084 0.05177313
0001c0 98 94 24 be 04 d8 88 3e 32 55 df be d2 a6 27 be
       -0.16072309 0.26727307 -0.43619686 -0.1637223
0001d0 de 59 d6 bd 42 38 59 bc 7a cd 93 3e 07 89 48 be
       -0.104663596 -0.013258042 0.28867704 -0.19583522
0001e0 f8 55 fe be e7 ff 90 be b5 65 dc 3d c4 85 9c 3e
       -0.49674964 -0.28320238 0.107615866 0.30570805
0001f0 05 63 89 bd 3d 77 06 be 49 1c b4 be ca 6e cb 3e
       -0.067083396 -0.13131423 -0.3517783 0.39732963
000200 09 75 eb 3e 08 65 91 3d 35 6a eb bd 6c d8 eb 3e
       0.45987728 0.07099348 -0.11494867 0.46063554
000210 71 01 68 be e6 e2 d9 3e dd 9d 9a be 18 15 35 bd
       -0.226568 0.42555922 -0.30198565 -0.04420957
000220 83 ac b1 3e d6 3b c6 be 24 43 2b 3e 2a 4f c9 be
       0.34701928 -0.38717526 0.16724831 -0.3931821
000230 6f 9b 10 be b4 9c b3 3e 6d c5 a2 3e 53 ea b6 be
       -0.14121793 0.35080492 0.3179125 -0.3572565
000240 8f cf e5 3e 0d 9f c6 3e 84 79 bf 3e ce f3 e1 3d
       0.44884917 0.3879322 0.37397397 0.1103283
000250 ce b8 8a bd 81 bd ff bc 55 a1 8f 3e ff 8b 8e 3e
       -0.0677353 -0.031218292 0.28052774 0.27841184
000260 39 d1 d2 3d 5f 39 5a bc ef 1a 27 be 00 aa ac 3e
       0.10293812 -0.013319342 -0.16318868 0.3372345
000270 2c 42 bc be 51 01 3f 3e c9 e2 d1 be 78 06 47 3e
       -0.36769235 0.18652846 -0.40993336 0.19436061
000280 e5 06 da be 74 8b bc 3d ec ec 97 be a3 65 f6 3e
       -0.42583385 0.09206286 -0.29672945 0.48124418
000290 1c 68 8e 3d fb 1b 8f 3e b7 77 c9 3e d1 88 8a be
       0.06953451 0.27951035 0.39349148 -0.27057508
0002a0 20 37 1b 3e 3d c6 a1 be 93 bd 82 be a8 fa 39 be
       0.15157747 -0.31596556 -0.2553526 -0.18162024
0002b0 a5 20 1e bc c2 bd ec 3e d5 17 83 be e1 8c fd 3e
       -0.009651338 0.46238524 -0.2560412 0.49521545
0002c0 4e 8b fb bd 70 ac ec 3e 0f 0d 7b 3e b0 03 4a be
       -0.1228243 0.4622531 0.245167 -0.19727969
0002d0 07 8a f3 3c 61 f3 23 bd 81 ed be 3e f7 b5 9d bd
       0.029728903 -0.040027026 0.37290576 -0.07700723
0002e0 78 c9 b7 be 98 96 d7 bd d6 e2 d3 bd 27 69 89 be
       -0.35895896 -0.1052677 -0.10346 -0.26838037
0002f0 45 57 8b 3d 58 17 b1 be 1d bd de 3d 7c 8e f0 3e
       0.06803755 -0.34588122 0.10875914 0.46983707
000300 48 db 91 bd 56 80 7d 3e b0 d5 44 be c0 1a c8 3e
       -0.07121903 0.24755988 -0.1922214 0.3908291
000310 93 d4 d1 3e 2e b6 3f bd ed f5 f4 be 58 e8 c9 be
       0.40982494 -0.0468046 -0.47843876 -0.39435077
000320 e7 44 0c 3e 3d 42 b3 be b9 a6 e1 3d bb 5e 06 3e
       0.13698159 -0.35011473 0.11018128 0.13122074
000330 fa d4 37 bd 10 3a e6 bd 82 69 93 3e 5d 8b b4 be
       -0.044880845 -0.11241543 0.28791434 -0.35262576
000340 a5 26 51 3e 51 8f bf 3e 09 01 b4 be 3b 70 ce 3e
       0.20424898 0.3741403 -0.3515704 0.4032
000350 b4 4f b0 be 76 95 00 3e af e3 c3 3e 07 87 f2 bd
       -0.3443581 0.12557015 0.38259646 -0.11842161
000360 b8 cb 07 be b0 ab 16 bd 0c 71 c4 be 27 c2 8c 3e
       -0.13261306 -0.036784828 -0.38367498 0.27491876
000370 c8 cc b6 bd 73 c1 41 be 28 23 c0 bd 61 57 50 3e
       -0.08925778 -0.18921451 -0.093817055 0.20345832
000380 9b d0 61 be 31 24 ee 3d 7c f2 b7 3e 27 da b6 3e
       -0.22052233 0.11627997 0.35927188 0.35713312
000390 c0 aa d7 be e6 85 0a be 21 b3 e2 3d 6d b0 73 3e
       -0.4212246 -0.1352764 0.110693224 0.2379777
0003a0 ab e5 cb 3d fb 5f c8 3c 28 f2 db be 90 cb 64 be
       0.09955915 0.02445983 -0.42958188 -0.22343278
0003b0 88 bc b7 3e de 3f b5 bd eb a4 eb 3e 9f 06 b9 be
       0.35886025 -0.08850072 0.4602426 -0.36137864
0003c0 69 53 74 3e 30 85 a2 be f9 97 38 be 53 5b 7f 3e
       0.23859943 -0.3174224 -0.18026723 0.24937181
0003d0 0a 8c 48 be 7e 64 e4 3e f4 e2 b4 be 13 ca ee be
       -0.1958467 0.4460792 -0.35329401 -0.46638545
0003e0 ab 9b 2c bd d7 22 96 3e 8e d8 ee be 86 b8 2e bd
       -0.042140644 0.29323456 -0.46649593 -0.042656444
0003f0 06 19 0f 3e 1d 99 42 bd 77 f2 2f be f1 b2 9b 3e
       0.1397439 -0.0475093 -0.17182337 0.3040996

2.weight f4 [256, 256]
000000 76 be 24 bc e4 d3 16 bd b0 53 a0 bc 8d f2 04 bc
       -0.010055175 -0.03682317 -0.019571155 -0.008114469
000010 77 e7 29 bd c5 cb 74 bd cc 9d 86 bc 4e 1b 1b bd
       -0.041480508 -0.059764642 -0.016432665 -0.037867837
000020 8a 44 71 3d 11 a4 28 bd 5e 7a 69 bd 06 ad 17 3d
       0.058903255 -0.04117209 -0.057001464 0.037030242
000030 71 bb 28 3c c9 c4 45 3d b9 86 e1 bb 1d 11 00 bd
       0.010298596 0.048283372 -0.0068825153 -0.03126632
000040 06 1a 3f 3c 5f e9 58 3d 4a 82 a9 bc a6 5d 34 bd
       0.011663919 0.052956935 -0.02069201 -0.044034623
000050 9a 37 0f bd 2e f7 51 bd dd d8 30 bd f7 9a 07 bd
       -0.034965135 -0.05126112 -0.043175567 -0.03310677
000060 34 00 15 3d 1c c2 16 3c de f3 4d bd d9 b7 4f bd
       0.036377147 0.009201553 -0.050281398 -0.05071244
000070 17 5c 7b 3c 9f c4 48 3d 76 3e ec 3c 1a b9 29 bc
       0.01534178 0.049015637 0.028838377 -0.010359073
000080 41 1e 2d bd 7d 50 78 bd 45 f7 0f 3d 34 0d 73 3b
       -0.04226518 -0.060623635 0.035147924 0.0037086727
000090 bf 9e 45 3c 4b 15 52 bd 60 77 8a 3d c7 11 97 bc
       0.012061774 -0.051289838 0.0676105 -0.018441094
0000a0 ce 62 18 3d 14 f8 25 bd cb a4 d7 3c d2 dd 5a 3b
       0.037203602 -0.04051979 0.026323697 0.0033396375
0000b0 38 35 60 3d eb e9 ea bc ad c5 03 bd 19 47 54 3d
       0.054738253 -0.028675994 -0.03217094 0.051825617
0000c0 98 98 c7 bc 89 8e 8f 3b dc 5f 3e 3d 93 e3 d6 3c
       -0.024364755 0.004381005 0.046478137 0.026231563
0000d0 16 eb 7a 3d 29 c4 11 3a 7f 7d 4d 3d 58 49 0b 3d
       0.06125935 0.0005560541 0.05016851 0.034005493
0000e0 e0 7a 8f 3c 7d d7 12 3c f5 12 1e 3c b7 98 67 3c
       0.017514646 0.008962509 0.009648074 0.014135531
0000f0 9f b6 53 3c 8b 88 5e 3c f6 78 d8 bc 6c eb 4e bc
       0.012921958 0.013582359 -0.026424866 -0.012629371
000100 d8 79 23 3d 92 b3 21 3d fa c3 e5 bc 44 9f 5c 3c
       0.03991112 0.039477892 -0.02804755 0.013465706
000110 1f 32 a4 3b 59 92 80 3d f4 1c d2 bb 6e 19 99 bc
       0.0050108577 0.062779136 -0.006412143 -0.018688884
000120 36 25 78 3d 14 80 3c bd 96 86 f1 bb b3 75 fc bc
       0.060582362 -0.046020582 -0.00737078 -0.030817842
000130 0e 9e 3c 3d 41 fc 18 bd 6d 54 67 bd f4 06 e3 bb
       0.04604917 -0.037349943 -0.056477 -0.006928319
000140 c6 00 40 3d b1 1a 4a bd 02 a8 b1 bc f6 e1 c8 bc
       0.046875738 -0.04934186 -0.021686558 -0.02452181
000150 7b e3 29 bd 8b 83 5b 3d eb 99 44 bd cc 90 d7 bb
       -0.041476708 0.053592246 -0.04799835 -0.0065785404
000160 cc e7 c9 3a 84 fd f3 3c f2 df a1 3c 17 60 56 3d
       0.0015404164 0.029783972 0.019760106 0.052337732
000170 34 d1 b2 3c f4 c6 16 3c d1 89 8a 3c 19 c9 4c bc
       0.021828271 0.009202708 0.01691142 -0.012499117
000180 f7 15 fc 3c 5e 50 37 bc 83 e0 f1 3c b4 f8 f3 3c
       0.030772192 -0.011188595 0.029526 0.029781677
000190 7e dd 7c 3d 93 17 3e 3d 48 a4 98 bc f4 6e 0c 3d
       0.06173467 0.0464092 -0.018633023 0.0342855
0001a0 b5 53 78 bc 0e 81 26 bd 0f 19 bf 3c 2e d3 6c 3d
       -0.015156676 -0.04065042 0.023327379 0.057818584
0001b0 d9 df d8 3c 58 23 29 bc fa 88 28 bd d2 15 11 3c
       0.026473926 -0.010323368 -0.041146256 0.0088553
0001c0 8c d5 16 3d 5b aa 31 bd 0d 82 56 3c 8f b7 18 3c
       0.036824748 -0.043375354 0.01309253 0.0093211075
0001d0 64 be 56 3d 1d a9 39 3d 1b 3c e4 bc 43 08 01 3c
       0.052427664 0.045327295 -0.027860692 0.007875505
0001e0 56 c9 73 3d d7 0d ab bc 87 6a 2f bd 54 e2 3b 3d
       0.05951818 -0.020880623 -0.0428262 0.04587014
0001f0 7f 66 db 3c 12 ae 36 3d 40 0a 36 bd 67 71 5c bd
       0.026782272 0.0445996 -0.04444337 -0.053819086
000200 e0 fe 07 3d 16 06 73 bd 60 d3 35 3c 7e 1a 6a 3d
       0.033202052 -0.059331976 0.011097759 0.05715417
000210 de 53 5d 3d 91 4e 84 bb ca a6 fa bc 1c fb f6 3c
       0.05403506 -0.004037686 -0.03059711 0.030149035
000220 13 89 0b bd ac 08 0f bd 14 b0 79 bd 88 8e 6d 3d
       -0.03406627 -0.03492038 -0.060958937 0.057997257
000230 4d 90 79 bd 9b 19 9e 3c fe cc 16 bd 09 cb 13 3d
       -0.06092863 0.019299319 -0.03681659 0.0360823
000240 55 bf a4 bc a9 36 19 3d 80 81 f8 bc 36 0a 56 3d
       -0.020110765 0.037405644 -0.030335188 0.05225583
000250 d9 b4 1a 3d 40 a2 df 3c 28 18 12 3d 2b eb 7f 3d
       0.037770126 0.027299047 0.03566757 0.062480133
000260 8d 29 df 3b b0 1a b2 3c 2b a1 12 3d 83 5d 49 3d
       0.006810373 0.021741241 0.035798233 0.049161445
000270 db b2 25 3d 6c ff 5c 3d 39 c3 41 3d 66 ef 73 bc
       0.040453773 0.053954527 0.04730532 -0.01488862
000280 79 aa ab bb 2b da 4e bd 37 18 d0 3c 3c f3 6f bd
       -0.005238828 -0.05050103 0.025402172 -0.058581576
000290 9a a5 33 3c 22 cd 38 3d 53 ae 7c bc e4 c1 14 3d
       0.010964775 0.045117505 -0.0154224215 0.03631772
0002a0 e3 0d 77 3b f5 c0 16 3c 08 fa 18 bc d1 c6 f9 bc
       0.0037697486 0.009201278 -0.009336956 -0.03049031
0002b0 18 b7 81 3c 13 c1 0d 3d ba 43 1b bd d8 b1 09 bd
       0.015834376 0.034607958 -0.037906386 -0.03361687
0002c0 f5 15 86 ba d3 7a 27 bd 53 b5 0d 3d bd 39 37 3d
       -0.0010229932 -0.04088862 0.034596752 0.044732798
0002d0 ee 7a 34 bd b8 65 79 bc ca cb 2a bd 9e a7 b7 bc
       -0.044062547 -0.015222006 -0.041698255 -0.022418793
0002e0 3f f7 ee 3c 39 32 db bc 5d 95 6c 3d 38 b8 41 bd
       0.02917063 -0.026757346 0.05775963 -0.047294825
0002f0 ca 16 89 3d 07 a2 25 bd 34 74 53 3d 6d 9d 39 3d
       0.066938 -0.040437724 0.05162449 0.04531615
000300 bd 41 52 3d 41 a1 37 3d 34 39 0f bd d3 75 5b bd
       0.051332224 0.044831518 -0.034966663 -0.053579163
000310 5d ae 80 3d 19 33 3d bd aa c1 72 3d 84 13 0e bd
       0.06283257 -0.04619131 0.059266724 -0.03468658
000320 b5 79 12 bd b9 29 cb bc fd 57 da ba df e0 79 bd
       -0.0357606 -0.024800168 -0.0016658303 -0.06100547
000330 53 01 41 3c 63 6f 99 3c 86 d3 c2 bc eb c6 03 3d
       0.011780101 0.018729871 -0.023782503 0.032172125
000340 8a 02 7b bd 15 98 50 bd f5 2a 91 3b 80 88 2e 3d
       -0.06128172 -0.050926287 0.0044301697 0.042610645
000350 45 66 40 3d 26 77 1d 3d d1 4e b9 bc f3 b1 8f bc
       0.04697253 0.038443707 -0.02262059 -0.017540907
000360 1a be e0 bc 6f 3a 08 bd b0 f7 9e 3c c9 24 e0 3c
       -0.027434397 -0.03325885 0.019405216 0.02736129
000370 18 52 af bc cc d7 a5 bc 3b bf 31 3d 6b 6e 07 3d
       -0.02140145 -0.020244502 0.043395262 0.033064287
000380 b3 12 7a bd aa d3 ae bb e5 74 6b bd d8 35 6d bd
       -0.06105299 -0.005335291 -0.057484526 -0.057912678
000390 88 cf 39 3d d6 79 44 bd 95 68 d7 3a 04 ce 0c bd
       0.045363933 -0.047967754 0.0016434366 -0.03437616
0003a0 12 49 bf bb 56 42 64 bc 89 1a 0a 3d c3 1b 32 bd
       -0.005837568 -0.013931831 0.033716712 -0.043483507
0003b0 fe 22 92 3c a8 f2 06 3d 77 a6 7b bd d3 64 84 3c
       0.017838951 0.03294626 -0.06143805 0.016161358
0003c0 01 03 14 bd 3b d4 25 3d 85 e5 ea 3c 33 22 6d bc
       -0.036135677 0.040485602 0.028673897 -0.014473486
0003d0 95 d4 18 3d ee 93 34 3d a0 90 0b bd 91 7e 67 3d
       0.03731211 0.04408639 -0.034073472 0.056517188
0003e0 99 0a d6 3c f1 0b ad bb bd ca 04 bd 17 5b 46 bd
       0.0261281 -0.0052809645 -0.03241991 -0.048426714
0003f0 9c cc f4 3c 4f ee 3c 3d ec 8f 94 bc 62 db 76 3d
       0.029882722 0.046125706 -0.018135034 0.060267814

2.bias f4 [256]
000000 f8 b9 6f 3d 55 ca 29 3c 45 c4 55 3d 10 d3 cb 3c
       0.058526963 0.010363181 0.05218913 0.024880916
000010 ea a9 75 3b be 7d eb 3c 9e a4 cd ba cb e5 0d bb
       0.003748531 0.028746482 -0.0015689319 -0.002165186
000020 e7 d3 5e 3d 3a 5b f6 3c 18 72 5c bc 84 d1 6c 3d
       0.054401305 0.030072797 -0.013454936 0.057816997
000030 66 d9 db bc 51 a4 83 3d c9 6a 64 3d 41 d6 9e bb
       -0.026837062 0.06427825 0.0557659 -0.0048473184
000040 c8 11 61 bb e0 f1 8b 3c 4f 9f 5c 3d 23 2e 6c bd
       -0.0034342874 0.017083108 0.053862866 -0.057661187
000050 d3 3a 2d 3d f6 fe 4b 3d cd d1 c2 3c 0b 89 4e 3d
       0.042292427 0.049803697 0.023781681 0.050423663
000060 6d 86 46 bd cc 7a 36 3d 51 6f 42 3d 62 3e 99 bc
       -0.048468042 0.044550702 0.04746944 -0.018706504
000070 bb 7a d7 bb ad 34 48 3d 30 d2 2c bd b9 ea ef 3c
       -0.00657591 0.04887836 -0.042192638 0.02928673
000080 37 99 d4 3c 41 a7 8a bb 77 3b aa bc d6 1a be bc
       0.025951965 -0.004231364 -0.020780308 -0.023206156
000090 88 f1 38 3d 9e 23 9f bc 44 ce 31 3d f7 36 3d 3d
       0.045152217 -0.019426163 0.0434096 0.046194997
0000a0 c6 ab 0f 3c a7 6f 44 3c 68 a9 83 3d fe 2d fa 3c
       0.008768981 0.011989511 0.06428796 0.030539509
0000b0 bb 3d a5 3c 9e 80 b2 bb 4f 6a 3e 3d e6 0d ad 3b
       0.020171037 -0.0054474613 0.046488103 0.005281198
0000c0 8c 1e 60 bd 43 2b 74 3d 3c 86 4b 3d ff 98 50 3d
       -0.05471663 0.05961157 0.049688563 0.05092716
0000d0 77 dd 48 3d cd fe 1f bd 38 27 d7 bc 4c d4 2e 3c
       0.04903933 -0.039061356 -0.026263818 0.010670733
0000e0 92 3f 98 bc 26 3f 4e bd 4f 36 78 bd d3 0f f7 bc
       -0.018585 -0.05035319 -0.060598668 -0.030158913
0000f0 02 67 8b 38 05 dc 0c bd ed f3 11 bc b6 34 e2 bc
       6.647223e-05 -0.034389514 -0.008908254 -0.027613025
000100 60 80 63 3d b1 46 20 3d 7f 40 52 bd 38 f8 e1 bc
       0.05554235 0.039129917 -0.05133104 -0.02758418
000110 05 bc 47 3d b6 ad b7 3a 67 aa c6 bc 22 ea 48 bd
       0.048763294 0.0014013562 -0.024251176 -0.04905141
000120 e8 5d d6 3c e0 15 ba 3c 62 fa be bc 77 38 61 bd
       0.026167825 0.022715509 -0.023312751 -0.05498549
000130 79 85 ef bc 3c 91 d8 bb 7b df 8a bc 17 a9 54 bd
       -0.02923845 -0.00660911 -0.016952267 -0.05191907
000140 f9 35 2f bd 42 a7 95 bc 6b 2e 3a bd af c5 8b bc
       -0.04277608 -0.018268231 -0.045454424 -0.017062036
000150 bd ff 61 bd 97 70 57 3d 41 8c 68 3b e8 6e 5b 3d
       -0.05517553 0.05259761 0.0035483988 0.053572565
000160 0b 20 b7 3c be ed 13 3d 63 a1 64 3d 24 98 60 3d
       0.022354146 0.0361154 0.055817973 0.054832593
000170 e4 07 49 bc a2 fe 0b bd d8 bc b3 bc 2d 19 14 3b
       -0.012269948 -0.034178384 -0.021940634 0.0022598014
000180 df 10 b3 3c 86 e4 07 bd e3 56 fa bb de 5a 89 ba
       0.02185863 -0.03317692 -0.0076397522 -0.0010479351
000190 93 01 77 bd c9 6e 24 bc 85 19 eb bb 84 f9 2f bd
       -0.060304236 -0.010036179 -0.007174673 -0.042962566
0001a0 e7 4e 81 bd 97 bf 09 bd 19 43 0a bc 52 11 72 bd
       -0.063138776 -0.03362998 -0.008438849 -0.05909855
0001b0 78 61 06 bd e0 87 d5 3c 1e 53 99 bb 22 2f d1 3c
       -0.032807797 0.026065767 -0.004679098 0.02553517
0001c0 38 99 6b 3d 59 29 2e bd 75 69 00 3d 13 7d 90 bc
       0.057519168 -0.0425199 0.03135057 -0.017637765
0001d0 47 c3 47 bb b3 42 72 3b f2 5f 8f 3b c3 57 70 3d
       -0.0030481385 0.0036966025 0.0043754512 0.058677446
0001e0 1e be 55 3d e8 95 55 bd e7 e9 5a 3c 8c f3 17 bd
       0.052183263 -0.052144915 0.013361431 -0.0370975
0001f0 22 7e 5f 3d 9e 24 20 3d ab 6b 9c 3b b2 54 40 3d
       0.05456365 0.03909742 0.004773577 0.04695577
000200 b2 cb 18 3d e9 1c fe 3c 15 a9 42 3c c4 0c 40 3b
       0.037303634 0.031019645 0.011881133 0.0029304484
000210 26 87 d3 bc 40 75 22 3d 27 a9 5c 3d 92 76 39 bd
       -0.02582128 0.0396626 0.053872254 -0.045279093
000220 29 04 4f bd 96 0c 70 3d 99 17 36 3d c1 0f a0 3b
       -0.050541077 0.058605753 0.0444561 0.0048846905
000230 86 91 c0 3c 02 98 2f 3c 4d 19 70 bc 6b 6c 72 bd
       0.023506891 0.010717394 -0.01465447 -0.059185427
000240 42 69 c2 bb 9d 7b 69 bc e6 a5 43 bd 28 cd b8 bc
       -0.005932958 -0.014250663 -0.047765635 -0.022558764
000250 62 fa 1a 3d 28 6c ee 3b 70 7f 45 bc 51 c7 8c 3c
       0.03783644 0.007276077 -0.012054309 0.017184885
000260 a3 58 32 3c f8 c2 74 3d fd 69 1f bd 0c bc 29 bd
       0.01088539 0.05975625 -0.038919438 -0.0414391
000270 42 af 18 3c 8e b8 a9 3c 9d 60 32 bd 30 78 67 3d
       0.0093191285 0.020717885 -0.04354917 0.056511104
000280 37 ae 4c bd 7f 4c 53 bc 9f bb 32 bd 30 fe 0f bd
       -0.04997083 -0.012896656 -0.04363596 -0.03515452
000290 66 ca 6c bd ff 4a 79 3d 4b 7c 38 bd 5f d0 50 3c
       -0.05781021 0.060862537 -0.04504041 0.012744992
0002a0 3b 02 47 3d 96 d1 64 3b f9 e3 78 bc b0 5c 92 3b
       0.04858611 0.0034914962 -0.015191072 0.0044666156
0002b0 c4 b5 54 3d 9d 13 d6 3c 6d 4b fa 3c 12 28 dd 3c
       0.051931158 0.0261324 0.030553544 0.026996646
0002c0 c0 16 32 3d 2e 89 44 3c d3 1c 7e bc d8 ad ea bc
       0.043478727 0.011995597 -0.015509802 -0.028647348
0002d0 ca 17 37 3d 1d 96 78 bc d0 a2 1a 3d f0 ac 7a bd
       0.04470042 -0.015172509 0.037752926 -0.061200082
0002e0 8c 01 fd 3c 68 fc 0e bd 5c 36 51 bd 9d cb 17 bc
       0.030884527 -0.034908682 -0.05107723 -0.009264854
0002f0 4b 2c 6f bd 94 86 bb ba 9b ed 73 3d 4f d6 0d 3d
       -0.05839185 -0.0014307075 0.05955277 0.03462821
000300 7d 48 68 3d 02 79 9a bb 7c c9 2f 3d 26 87 6b 3d
       0.056709755 -0.0047141323 0.04291676 0.057501934
000310 39 c0 80 3c 4c a6 80 bb 7e 30 02 3d 3d 18 ff bc
       0.015716659 -0.003926074 0.031784527 -0.031139487
000320 f8 ed 8f bb 53 81 5e 3d 9e 36 f4 39 c8 42 48 bd
       -0.0043923818 0.054322552 0.0004658 -0.048891813
000330 b2 c2 1d 3c bd 9d 8f bc 07 32 37 3d 8b eb 79 bc
       0.0096289385 -0.01753127 0.044725444 -0.015253912
000340 85 71 7b 3d 48 80 18 3d 0d 0a 9d 3b d6 12 c0 bb
       0.061387558 0.037231714 0.004792458 -0.0058616204
000350 3f 2f 13 3d e5 83 c3 3c 8e 35 5a 3d 16 82 08 bd
       0.03593373 0.023866603 0.05327373 -0.033327185
000360 6b da bd bc 22 c1 bd 3c 39 fd 9a bc 27 2a 27 3d
       -0.023175439 0.023163382 -0.018919574 0.040811684
000370 63 ac 82 3c 14 46 51 bd 19 15 47 3c 3e 59 94 3b
       0.015951341 -0.051092222 0.012151026 0.00452724
000380 56 25 6c 3c e0 7e df bc 96 57 2f 3d 01 87 53 bd
       0.014413198 -0.027282178 0.042808138 -0.05164242
000390 da b5 47 bb 9c 2c e1 bc 9c ac 6d bc 2e e3 20 3b
       -0.0030473382 -0.027487092 -0.014506485 0.0024549472
0003a0 32 5d 5b 3d f0 f1 3c bd 28 13 16 3d ac ac 45 3c
       0.053555675 -0.046129167 0.036639363 0.012065094
0003b0 68 b1 0f bd f3 a4 cd bc 35 48 d7 3c 57 bd 42 3d
       -0.035081297 -0.025103068 0.026279548 0.04754385
0003c0 d0 28 70 3c 59 f1 c2 3c a8 48 25 3d cd b5 07 3d
       0.014658168 0.023796724 0.040352494 0.033132363
0003d0 ec ad e0 bc e8 e3 63 3c 21 47 f8 3a 91 c6 cc 3c
       -0.027426682 0.013909318 0.0018942097 0.024997028
0003e0 ee a6 23 3d 2f 58 09 3d f0 3f cd bc fe 6b 3b bc
       0.03995412 0.033531364 -0.025054902 -0.011439322
0003f0 db 0e 11 bd aa 21 6f bd e6 78 69 bc 8f 22 4d bc
       -0.035414558 -0.058381714 -0.014250016 -0.012520446

4.weight f4 [2, 256]
000000 fe cd 9f bc a2 b5 01 3d cc 34 5b 3b d0 80 95 bb
       -0.019507404 0.03166736 0.0033448217 -0.004562475
000010 97 1d 0c bd df b0 42 3d ab 39 63 bc 41 54 74 bc
       -0.034207907 0.04753196 -0.01386873 -0.014912666
000020 23 7a 56 3d 72 ce 46 3d 47 01 86 3c 0b ac 81 bc
       0.052362572 0.048536725 0.016358031 -0.015829107
000030 68 dc d0 3c 5f af 4f 3d 09 29 31 3d 66 cf 89 3c
       0.025495723 0.050704356 0.043252025 0.016822528
000040 5e 51 53 bd f5 6d bf bc 47 5a dc 3c 8b eb c1 3c
       -0.05159127 -0.023367861 0.026898516 0.023671886
000050 f6 85 11 bc 72 fb 33 3d 86 b0 f8 3a ff 80 83 3c
       -0.008882036 0.04394097 0.0018973507 0.016052721
000060 68 71 02 3d c6 56 bb 3b b4 20 98 3c 5c 5b 4e bd
       0.031846434 0.0057171313 0.018570282 -0.050380096
000070 14 a3 c2 3c 45 d1 ba bc 8b bd 44 bb ca 92 3f bb
       0.023759402 -0.022804866 -0.0030020203 -0.002923178
000080 25 8a 7b 3d 50 c2 37 bd 10 e9 bd bc 8f b3 97 bc
       0.06141104 -0.044863045 -0.023182422 -0.018518237
000090 d6 aa 06 3d ee 66 35 3d 81 8b 32 3c 71 d4 e4 bc
       0.032877766 0.044287615 0.010897518 -0.027933331
0000a0 26 c0 16 3d c4 b7 c4 bc 1b ea dd b9 52 7d 4e 3d
       0.03680434 -0.024013408 -0.00042326827 0.050412484
0000b0 90 98 13 3d 10 ad ae bc c4 59 35 bd df 0e 5d bd
       0.036034167 -0.021322757 -0.04427506 -0.05396926
0000c0 08 ae 17 bd 84 a7 05 bd fa 3c a0 bc 97 8f d5 3b
       -0.037031204 -0.03263046 -0.019560326 0.0065173614
0000d0 bf 05 9e 3c 82 35 58 bd a3 37 09 3d 4c 48 48 bd
       0.01928985 -0.052785404 0.033500325 -0.048897073
0000e0 9e 1c 46 3c 23 5f dc 3c e0 4b 23 bd c6 45 2b 3c
       0.012091784 0.026900833 -0.039867282 0.010453647
0000f0 07 ea 52 bd 29 37 88 3c 2a 03 d4 3c 90 cf 18 3d
       -0.051492717 0.016627865 0.025880415 0.037307322
000100 bd d4 8f bc 25 a1 23 bc b4 5f 03 3d 75 22 53 3d
       -0.017557496 -0.00998715 0.03207369 0.051546533
000110 57 ab 18 3d 5f dc 55 3d f1 58 92 bc 9a 55 61 3d
       0.037272777 0.052212115 -0.017864676 0.055013277
000120 99 a7 68 3c 12 62 d6 3c 2c 82 17 3c a8 fa a1 bc
       0.014200115 0.02616981 0.009247344 -0.019772843
000130 d6 e0 b0 bc 90 dc 4e bd 38 85 f5 3b a6 2f 6c 3d
       -0.021591585 -0.050503314 0.0074926876 0.05766263
000140 84 2c 70 3b a6 c5 34 bd 5f 8c cc bc 65 64 87 3c
       0.0036647627 -0.044133805 -0.024969278 0.016527364
000150 13 7a 50 bb b9 48 d4 bc 40 fc 08 ba 63 27 d1 bc
       -0.0031811043 -0.025913583 -0.00052255765 -0.025531476
000160 28 7f 12 3d 2f 00 20 3d da 19 1e 3d 1f 5f d0 b9
       0.035765797 0.039062675 0.038598873 -0.00039743722
000170 ea 0d 12 3d 54 3a 3b bd 89 40 e1 bc e9 a3 59 bd
       0.0356578 -0.045709923 -0.027496593 -0.053134833
000180 de 18 51 3c 4f 30 24 3d ab 9c 3d 3d 10 8b 0d 3c
       0.012762276 0.040085133 0.04629199 0.008639112
000190 a4 e5 62 bd 52 1f 79 bd e4 57 44 bd 77 b6 17 bd
       -0.055394784 -0.060820885 -0.04793538 -0.037039246
0001a0 50 2c 06 3d ce e1 26 bd 6a b2 b6 b9 57 d9 28 3c
       0.032757103 -0.040742688 -0.00034846674 0.010305724
0001b0 4d bb 48 3c 29 ff f9 3c f4 bd e6 3c f4 b0 2a 3c
       0.012251687 0.030517178 0.028166749 0.0104181655
0001c0 d6 f7 02 bd 4c 69 1c 3c 42 dd 0d 3c 88 5e 83 3c
       -0.031974636 0.009546589 0.008658709 0.016036287
0001d0 3b f7 2a bd d8 00 7c bd 3f 8f a1 bc 4d 22 5b bd
       -0.041739684 -0.061524242 -0.019721625 -0.05349951
0001e0 55 4a 1f bb 3b 02 82 3d 68 77 85 bc bb 15 e2 3c
       -0.002430578 0.06348082 -0.016292289 0.027598253
0001f0 48 9c f4 3c 41 58 2b bd fb 13 48 bd 16 87 4f bd
       0.029859677 -0.041832212 -0.04884718 -0.050665937
000200 d9 30 e3 bc b2 6a 81 3c 54 5e 7d 3c 13 e8 e0 bc
       -0.027733253 0.015797947 0.015464384 -0.027454412
000210 00 b5 d6 bb 73 57 33 bd c1 99 5a bd 75 ac 20 3d
       -0.0065523386 -0.04378457 -0.053369287 0.039226968
000220 0c 7b ae bc 61 4a c1 3c c1 79 1d bc 78 00 43 3d
       -0.021298908 0.023595037 -0.009611548 0.04760787
000230 57 79 ae bb 42 46 a1 bb 69 08 93 3c a0 95 62 3d
       -0.0053245234 -0.0049217055 0.017948346 0.055318475
000240 32 b8 34 3d e8 71 2a bd 54 12 4b 3d 20 c0 7e bc
       0.044120975 -0.041612536 0.049578026 -0.015548736
000250 15 04 57 bd 69 0c 6a 3d ef 7d 08 bd 88 0d 12 3d
       -0.052494127 0.05714074 -0.033323225 0.035657436
000260 16 93 b1 3c 8e 14 54 bd 4a 10 09 3d 6e 6e 2c bd
       0.021676581 -0.051777415 0.0334628 -0.0420975
000270 d4 09 4b 3d 68 18 43 3d c5 1f 84 3d 5a b4 d1 3c
       0.04956992 0.047630697 0.06451372 0.025598694
000280 e7 ce 11 3c c8 9a 28 bd 23 bb 30 bd 6b f4 ca bc
       0.008899427 -0.041163236 -0.043147217 -0.02477475
000290 d2 8f 2a bd 31 85 5f 3d 0e 37 98 bc 4d 24 cf 3c
       -0.041641064 0.05457038 -0.01858094 0.025285864
0002a0 84 d7 52 3d ea e1 31 3a 03 0c a8 bc 64 fb 00 3c
       0.051475063 0.0006785678 -0.02051354 0.007872436
0002b0 93 12 69 bc 51 7b cb bc 9d 95 32 3d c2 77 97 bc
       -0.01422562 -0.024839075 0.043599714 -0.018489722
0002c0 11 9f 14 3c fd f9 46 3d 37 96 6f 3d 33 68 0a 3d
       0.0090711275 0.04857825 0.058492865 0.03379078
0002d0 88 d3 4b bc ac 79 b6 bb 53 d0 0b 3d c0 59 07 3d
       -0.01244057 -0.0055687036 0.03413422 0.033044577
0002e0 f6 30 12 3c c6 af 5a bd 26 29 9e 3c 7e 9f c1 3b
       0.008922806 -0.053390287 0.01930673 0.0059089055
0002f0 71 59 2f bd 52 cc ff 3b 59 f5 83 3d c8 06 4d 3d
       -0.042809907 0.0078063393 0.06443281 0.050055295
000300 30 15 4f bb 1b bc 3e 3d f8 71 8b bb 19 50 4e bd
       -0.0031598322 0.04656611 -0.0042555295 -0.050369356
000310 54 1d 1a 3d 27 64 11 bd 77 80 36 3d ce b5 55 3c
       0.037625626 -0.035495903 0.044556107 0.013043834
000320 66 4c fa 3c a2 99 1a 3d 14 f1 6c bd cc 56 4b 3d
       0.030554008 0.037744172 -0.057847098 0.049643323
000330 90 f2 36 3d 0f f9 3d bd 0d db 66 bd f2 1a 26 bd
       0.04466492 -0.0463801 -0.056361247 -0.04055304
000340 14 a3 b7 3b fe 10 8f 3c 0c af 60 3c 9d 9d 36 bd
       0.005604157 0.017464157 0.013713609 -0.044583905
000350 dc 2c 16 bc cc 52 50 3c 22 8d 63 3d 22 e7 03 bd
       -0.009165969 0.012715053 0.055554517 -0.032202847
000360 00 ed 25 bd e6 1d a3 bc 67 5c df 3c 50 09 25 3d
       -0.040509224 -0.019911718 0.02726574 0.040292084
000370 7c 87 63 bd 2a 71 a7 bc 30 6e f6 3b 1a 42 3a bd
       -0.05554913 -0.020439703 0.0075204596 -0.045473196
000380 a3 4d 46 3d 5f 9a 59 3d 45 02 87 3c 92 a8 fc bc
       0.048413884 0.053125735 0.016480574 -0.0308421
000390 35 92 40 bd c9 3e af 3c a0 83 46 bd c7 54 3f bd
       -0.047014434 0.021392243 -0.04846537 -0.04671171
0003a0 46 a1 43 bd 37 87 6b bd 5f 61 52 bd 42 16 93 bc
       -0.047761224 -0.057501998 -0.05136239 -0.01795495
0003b0 fa d9 d1 bc ad 4d fe 3c 18 f5 03 3d e1 06 9d bc
       -0.025616635 0.031042898 0.03221616 -0.01916832
0003c0 18 34 12 3d 53 94 77 3d c9 70 41 bd f1 72 fa bc
       0.03569421 0.060444187 -0.0472267 -0.030572386
0003d0 94 c0 a6 bc 78 34 20 bc d4 23 ff bb 55 8b 34 bd
       -0.0203555 -0.0097781345 -0.0077862535 -0.04407819
0003e0 c9 80 92 bc 89 70 c1 bc a4 75 b4 bc 69 60 27 bc
       -0.017883675 -0.023613231 -0.022028752 -0.010215857
0003f0 21 ac 21 bd 77 54 c2 bc 45 1f 6e 3c 3c f3 fb 3c
       -0.039470796 -0.023721917 0.014533822 0.030755632

4.bias f4 [2]
000000 4a 02 de bc 39 c0 0f 3d
       -0.0271007 0.035095427

exp_avg f4 [256, 4]
000000 88 8e f3 ba a7 a7 df ba 8c 47 73 ba 0e cb 85 3a
       -0.0018581906 -0.0017063514 -0.00092803757 0.001020761
000010 09 b7 14 bb 05 56 43 bb 3f c7 c0 ba 29 af 08 3b
       -0.0022692105 -0.002980591 -0.0014707817 0.0020856357
000020 30 96 fc b9 f7 08 08 ba 74 b3 a7 38 0f a7 15 3a
       -0.00048177084 -0.0005189324 7.996606e-05 0.00057087926
000030 70 ec 6c ba 54 55 95 b9 b5 cf 29 ba 18 6d 84 b7
       -0.00090379175 -0.0002848307 -0.0006477789 -1.5786427e-05
000040 6b 79 cd 3b fa 6d 61 3b 5d 86 bd 3a b1 9f dc ba
       0.0062705777 0.0034397827 0.0014459599 -0.001683226
000050 d9 78 06 3b f6 3c 46 3a 5b 56 57 39 8e 01 fa b9
       0.0020518808 0.00075621845 0.00020536168 -0.00047684874
000060 32 9e 17 3c 59 0d 33 3b ec 09 f9 b9 56 4b 00 bb
       0.009254025 0.0027321188 -0.00047500373 -0.0019576154
000070 f3 97 2a bc 6d e3 0a bb ce aa 74 3a 65 f7 bb 3a
       -0.010412204 -0.0021192685 0.0009333313 0.0014340697
000080 90 74 fc 3a 06 e2 8e 3a 7c 79 2f 3a 01 8d 02 ba
       0.0019260813 0.00109011 0.0006693823 -0.00049801177
000090 77 9c 68 bb 6a 43 f3 ba 9f 8f 9b ba c7 19 4d 3a
       -0.003549365 -0.001855952 -0.0011868364 0.00078239705
0000a0 e7 1b c1 bb fa 4b 04 bb bb ce 2e 3a 57 ac ed 3a
       -0.005893219 -0.0020186887 0.00066683785 0.0018133026
0000b0 3c 0b c9 3a 7a a8 32 3a d5 64 f7 39 4d ab 8d b9
       0.0015338431 0.0006815266 0.00047186637 -0.00027021245
0000c0 5f 91 e6 ba f7 27 7e ba bb 84 44 ba d2 cd c2 39
       -0.0017590931 -0.0009695286 -0.0007496585 0.00037155912
0000d0 a4 53 bb 3b 0b 35 0b 3b c0 f5 14 3a 2b a6 78 ba
       0.005716758 0.0021241333 0.00056823716 -0.000948521
0000e0 03 41 cc 3b 7f fd 80 3a 34 30 f2 b9 09 36 23 ba
       0.006233336 0.0009841173 -0.0004619375 -0.00062260084
0000f0 69 98 b8 3a 13 50 2b 39 c0 af 1d b9 11 e8 62 b9
       0.0014083508 0.00016337661 -0.00015038159 -0.00021639491
000100 2c 35 5a bb 15 71 25 bb e4 c7 8c b9 86 ef 08 3b
       -0.0033295853 -0.0025244404 -0.0002685181 0.002089472
000110 2b 00 7b ba b3 21 31 ba 17 8e 5d ba ad ee a3 39
       -0.0009574915 -0.0006757036 -0.0008451654 0.0003126761
000120 08 ca 35 bb 2c e3 fe ba c2 d8 b9 ba ba 9c 79 3a
       -0.0027738828 -0.0019446365 -0.0014178979 0.000952195
000130 50 90 27 3a 19 25 d5 39 7b 7f f8 39 d6 31 3b b9
       0.00063920487 0.00040654166 0.00047397226 -0.00017852275
000140 15 a7 9e 3a 61 eb 2a 3a 46 37 a6 39 e0 42 9f b9
       0.0012104238 0.00065200595 0.0003170317 -0.0003037667
000150 b0 18 3c bc 01 a0 50 bb 36 6b 7a 39 a0 2b ee 3a
       -0.011480495 -0.003183365 0.00023881797 0.001817096
000160 ab ea 80 ba f5 71 05 ba 58 9c 02 ba 98 2c 41 39
       -0.0009835562 -0.0005090528 -0.00049824035 0.00018422527
000170 c4 ef e2 39 d8 84 82 39 a7 21 bc 39 02 d9 9d b8
       0.00043284718 0.00024894509 0.00035883227 -7.526764e-05
000180 c8 aa 27 3b 6e 84 0d 3a de 81 1d 3a f3 d3 97 b8
       0.0025583971 0.00053984567 0.00060084264 -7.23972e-05
000190 94 2b 8d b9 db 91 25 b9 11 12 40 b9 f9 d1 89 38
       -0.00026926084 -0.00015789962 -0.00018317277 6.5717795e-05
0001a0 93 7d 04 bc e3 45 ef ba a3 30 ec b8 73 7a 89 3a
       -0.00808658 -0.0018255081 -0.00011262416 0.0010488763
0001b0 e1 db 9d 3b a9 e9 f1 3a e4 e7 85 3a 36 27 12 ba
       0.0048174714 0.0018456477 0.0010216204 -0.0005575301
0001c0 8e e5 4e 3c f1 e2 41 3b b3 f5 03 3a 8d 7a 80 ba
       0.012627972 0.002958473 0.00050338655 -0.0009802148
0001d0 a9 d5 23 3a 2a 2c af 39 1d d8 a4 39 1d 9b 09 b9
       0.00062497944 0.00033411506 0.00031441535 -0.00013123122
0001e0 da 05 93 ba 6a f7 7b b9 cb 90 e6 37 c1 53 f0 38
       -0.0011216954 -0.00024029394 2.7485561e-05 0.00011459692
0001f0 ed 75 af bb cd 3a 05 ba 9f 0e ba b8 2b 99 b5 b8
       -0.005354634 -0.00050823094 -8.8718945e-05 -8.659282e-05
000200 30 96 d1 3a 14 fa ec 38 95 2f f1 39 16 0a 2b 39
       0.0015990194 0.000112999376 0.00046002553 0.00016311588
000210 58 0d 47 b9 ca 1d f8 b8 7f fb bc b8 c6 cb 88 38
       -0.0001898309 -0.0001183111 -9.0113834e-05 6.522941e-05
000220 da 61 79 ba e7 33 0c ba 60 e3 48 ba f5 13 26 39
       -0.0009513177 -0.000534831 -0.0007663276 0.00015838428
000230 70 a1 b3 bb 51 2d b8 ba 91 8b 04 ba d6 9d e4 39
       -0.0054818913 -0.0014051591 -0.00050561974 0.00043605146
000240 db da ea bb 00 33 4d bb 06 34 d7 b9 af 31 0a 3b
       -0.007167203 -0.0031310916 -0.00041046756 0.0021086743
000250 ed ef 46 bb 74 c4 01 bb 27 18 b2 ba 2d 35 81 3a
       -0.003035541 -0.0019800933 -0.001358752 0.0009857767
000260 3c 67 46 ba 5f 6b 9c b9 bc 5d 2a ba b8 eb e8 37
       -0.00075684837 -0.00029834636 -0.0006498953 2.776632e-05
000270 d9 e7 7b bb 95 87 dd ba 40 93 84 ba fc a5 0c 3a
       -0.0038437753 -0.0016901369 -0.0010114685 0.000536531
000280 1a fd 01 3a c1 d6 9d 39 a6 e7 9d 39 2b 80 09 b9
       0.00049586745 0.00030105378 0.00030117965 -0.00013113084
000290 b9 9a 2e bc 37 28 99 bb dc 59 9a ba 2d 74 20 3b
       -0.010657006 -0.0046739834 -0.0011776048 0.0024483309
0002a0 f5 3e ae bb ff 71 23 bb 86 92 8b ba cf 93 a1 3a
       -0.0053175637 -0.0024939773 -0.0010648526 0.0012327376
0002b0 d0 e8 41 bb 7d 9d 90 ba 59 24 ee b9 a6 12 c0 39
       -0.002958823 -0.0011033263 -0.0004542198 0.00036634988
0002c0 a3 2c 49 3a 63 da ad 38 a1 da 4e b8 e3 28 80 b8
       0.0007674193 8.2899605e-05 -4.931784e-05 -6.1111314e-05
0002d0 a9 9d 2c 3b bc a1 c6 3a fb c8 ac 3a 7a ac 2d ba
       0.002633909 0.0015154402 0.0013182455 -0.0006625127
0002e0 5f 54 b0 bb 29 37 94 ba 73 7a 10 ba 83 4d 8c 39
       -0.0053811516 -0.0011307943 -0.00055114104 0.00026760632
0002f0 9c 68 47 3a cd 3b 06 39 76 dc 24 37 48 b2 5e b8
       0.00076068356 0.00012801513 9.826492e-06 -5.3094962e-05
000300 cf 48 2c 3a 34 e0 fb 39 45 56 17 3a d4 93 51 b9
       0.00065721286 0.00048041495 0.0005773048 -0.00019986863
000310 d7 4e 9b bb e8 a0 1e bb bf f3 91 ba c2 52 a6 3a
       -0.004739623 -0.0024204794 -0.0011135264 0.0012689459
000320 f9 5a 46 3b da 7f 95 3a d3 f7 5a 39 3b 50 96 ba
       0.0030266626 0.0011405901 0.00020882422 -0.0011468002
000330 4c 00 12 bb 09 4e 86 ba 7b f3 1b ba 65 75 cb 39
       -0.002227801 -0.0010246645 -0.0005949062 0.00038806643
000340 a7 b5 92 3b dc ae f7 3a 1a cb 14 3a 86 4c 81 ba
       0.004477221 0.0018896717 0.00056760164 -0.0009864725
000350 cc 48 61 bb 03 26 ed ba 02 87 65 ba cf 37 5d 3a
       -0.0034375666 -0.0018092993 -0.00087557745 0.0008438797
000360 86 b4 78 bb 24 b6 0c bb 65 cd a8 ba fa 28 7e 3a
       -0.0037949397 -0.002147087 -0.0012878595 0.0009695437
000370 2d 11 ba ba 7c f4 99 ba 38 d1 38 ba 22 08 2d 3a
       -0.0014195793 -0.0011745836 -0.0007050219 0.0006600638
000380 dc 82 0c 3b 2b b1 fb 39 96 02 42 b6 d3 46 4a b9
       0.0021440303 0.0004800645 -2.8909758e-06 -0.00019290605
000390 40 b9 1b bb fd 28 ca ba 11 ca a2 ba 43 29 2d 3a
       -0.002376154 -0.0015423592 -0.001241984 0.0006605575
0003a0 ce ca 88 38 5f e6 f5 b9 40 2c 11 ba 74 ab f9 39
       6.522761e-05 -0.0004690168 -0.0005537905 0.00047620723
0003b0 75 7f 2d bb a5 64 c3 ba 28 b6 8c 39 00 96 d6 3a
       -0.0026473675 -0.0014907314 0.00026838598 0.0016371608
0003c0 22 67 c1 bb 33 12 06 bb 24 99 83 ba 5b ca 0f 3a
       -0.005902187 -0.0020457625 -0.0010040146 0.00054851704
0003d0 9f 8b 37 bb 28 b1 11 bb 06 1d 89 ba 37 13 b4 3a
       -0.0028006805 -0.0022230837 -0.001046092 0.0013738637
0003e0 dd 4d b0 bb 0d dd e2 ba e4 e9 33 ba 12 ff 0b 3a
       -0.005380376 -0.001730831 -0.00068631605 0.00053404376
0003f0 f4 d5 8b 3c 31 ce 65 3b 13 5f 09 ba ef f7 d9 ba
       0.017069794 0.0035065527 -0.00052403024 -0.0016629676
