distributed_shared/worker_logs/worker_11/models/model_episode_0.pt (torch, 816814 bytes, 16 tensors)

0.weight f4 [256, 4]
000000 72 31 9c 3d 40 c6 7c be 97 85 a1 be 56 48 60 be
       0.076266184 -0.24685001 -0.31547233 -0.21902594
000010 3c 81 e3 3e c5 41 d8 be 01 2d 20 3e 53 a5 cf 3b
       0.44434536 -0.42237678 0.15642168 0.006336847
000020 a6 1d bc be 65 aa 60 3e 5f 60 f2 bd 41 c7 bd be
       -0.3674137 0.2194 -0.118347876 -0.3706608
000030 07 ec fc 3e 7b 21 be 3e 26 3b b8 3a f4 38 4c bc
       0.49398825 0.3713492 0.0014055714 -0.012464751
000040 43 3d 35 bd 9d 3b 3d be 1b d7 94 bd fb 9f b5 bd
       -0.044247877 -0.18479772 -0.072675906 -0.088684045
000050 08 44 37 bd a0 ab 87 3d 9c 5b ba be 03 1c 4d 3e
       -0.044742614 0.06624532 -0.36398017 0.20030217
000060 a8 11 0f be 69 d8 85 3d 4e 08 ad be b9 2d 9c 3e
       -0.13971579 0.065354176 -0.33795398 0.30503634
000070 93 54 dc 3d b9 1b 87 3e 82 27 44 be 00 5a 7e 3e
       0.10758319 0.26388338 -0.19155696 0.2483902
000080 54 20 b3 3d 14 bd f4 3e d1 f9 d6 3e 9e f8 a9 3e
       0.087464005 0.47800505 0.4198747 0.33197492
000090 4d 54 6b 3e 99 3f 1e 3e 7e da 94 3c da ac bc be
       0.22981377 0.15453948 0.018170591 -0.36850625
0000a0 0c c0 55 3e 28 f7 27 bd fe 2b 3d be 09 86 bb 3e
       0.20874041 -0.04100719 -0.18473813 0.36625698
0000b0 96 ed 8c 3e 0d 8f 9d 3e 50 d2 9f 3e 7b d8 c9 bb
       0.27525014 0.30773202 0.31215143 -0.0061598397
0000c0 ea e5 ef bd 31 23 35 3d 20 7e be 3d de 06 50 3e
       -0.117137745 0.044223014 0.093014 0.2031512
0000d0 b3 65 10 be 40 e2 85 3e 14 08 58 bc 90 ef 23 bd
       -0.14101295 0.26149178 -0.01318552 -0.040023386
0000e0 18 63 67 3e ea cb 8f 3e 09 ee 40 bd a2 4e d2 bd
       0.22596395 0.28085262 -0.047102008 -0.10268904
0000f0 a7 81 8a 3e ca 52 eb be 9e 66 99 be 49 e1 e8 be
       0.27052042 -0.459616 -0.29961103 -0.4548438
000100 5d 5a ac 3c 78 d1 fd be 21 7c af bd f6 ae 0a be
       0.021039182 -0.49573874 -0.085685976 -0.13543305
000110 bd b8 0c 3d 8c 18 51 3e be f8 c5 be 50 52 93 be
       0.034355868 0.2041952 -0.38666338 -0.28773737
000120 93 41 93 3e 78 86 e0 be f4 42 97 be 7b 5b da 3b
       0.28760967 -0.43852592 -0.2954327 0.0066637374
000130 30 c5 27 be 7b 2c 80 3e 7c 48 e2 3e e3 22 93 be
       -0.16383815 0.25033936 0.44195926 -0.28737554
000140 c7 96 6e 3e a6 2f bf be ea 18 73 3e 5d 49 1a bd
       0.23299704 -0.3734104 0.23739973 -0.03766762
000150 88 70 6c be f4 25 e7 3e f5 5d 9a be 60 8c c7 bd
       -0.23089802 0.45146143 -0.3014981 -0.09743571
000160 de 9b 9d be 3a a4 9e be da ee 97 3d 10 af 17 3d
       -0.3078298 -0.3098467 0.07418604 0.037032187
000170 43 2d c2 bd 66 10 ba 3e 06 98 db be 1b a9 67 be
       -0.09481289 0.36340636 -0.42889422 -0.22623102
000180 26 ba c7 3e 48 2c fc 3e 20 9e db 3e 69 6f b3 bd
       0.39009207 0.49252534 0.42894077 -0.08761484
000190 54 b1 a8 be 2a 9e 5f be 88 ec d0 bd 91 a6 18 be
       -0.3294779 -0.21837679 -0.10201365 -0.1490729
0001a0 0f cf 10 be 0a 09 6d 3d 18 0e 3f 3e 7a 1b d5 be
       -0.14141487 0.05786995 0.1865772 -0.41622525
0001b0 8b 5d 74 3e 12 eb b0 3c df 41 f4 3e 78 84 e7 bc
       0.23863809 0.021596465 0.47706506 -0.028261408
0001c0 bf c8 55 3e f0 4c 80 3e 68 a3 b5 3e 3b 5d d0 be
       0.2087736 0.250587 0.35476232 -0.4069613
0001d0 0e 9f c5 3c d1 7c e1 be 75 d8 84 be 96 05 2d 3e
       0.024123695 -0.4404054 -0.25946394 0.16896662
0001e0 48 f8 25 3e 2c 1a c7 be bb d2 e3 3e e8 7b ff be
       0.16207993 -0.38887155 0.44496712 -0.4989922
0001f0 3d f1 ac bd 18 49 ea bd 61 ff 9a 3d d9 b1 b4 3e
       -0.0844445 -0.11439723 0.07568241 0.35291937
000200 92 16 a6 3e 8a dc ec 3e 14 92 3e be 22 0a 72 bd
       0.32439095 0.46262008 -0.18610412 -0.059091695
000210 f6 20 5e 3e cc c4 e5 3e 11 00 84 3d f3 d4 ac 3e
       0.21692261 0.44876707 0.06445325 0.33756217
000220 09 46 88 bd af b0 90 be ad 38 85 be d4 aa e1 be
       -0.06653983 -0.282598 -0.26019803 -0.44075644
000230 e3 f2 93 be 71 29 ab 3d bc af 41 3d 5a 00 cb be
       -0.28896245 0.08357514 0.047286734 -0.39648706
000240 e4 c6 f4 3d bd 21 b5 3e 59 7d 03 3e d3 c3 e8 3e
       0.11951998 0.35377303 0.12840785 0.45461902
000250 ea b1 bc be 9b e2 88 be 3f f1 85 be 2e aa a8 3c
       -0.36854488 -0.26735386 -0.2616062 0.02058896
000260 05 3d 0b 3c 1a 4d 4d be 2e e4 b0 3e 7e 1a d8 3e
       0.008498435 -0.20048943 0.34549087 0.42207712
000270 ce 6c 41 3d 47 3a 37 be 8a 96 bf 3e 15 7a ba 3e
       0.047222905 -0.17893325 0.3741954 0.36421266
000280 9b 6f f3 3e 02 b5 7e 3e 20 a4 a1 be a1 65 b7 bd
       0.47546086 0.24873737 -0.3157053 -0.08954931
000290 16 6a f2 bd f9 d0 47 3e ac 45 8a 3e 6b a6 a6 3c
       -0.118366405 0.1951331 0.2700628 0.020343026
0002a0 e9 be f8 be 7b 97 4e be 22 6f da 3e 03 c8 f6 3e
       -0.48583153 -0.20174973 0.42662913 0.48199472
0002b0 0d 50 5d be 72 12 97 be 8e 42 5f be 31 2a ff 3e
       -0.21612568 -0.2950626 -0.21802732 0.49836877
0002c0 26 cf eb 3e 9e be f2 be 87 fb bc 3e 52 0b 99 be
       0.4605648 -0.47411054 0.3691065 -0.2989145
0002d0 af 4e 83 be 39 74 fe be a6 87 e1 be 90 92 d5 be
       -0.25645968 -0.49698046 -0.44048804 -0.4171338
0002e0 12 87 70 be 27 f2 47 bc 9a fc ab be c6 3d 57 be
       -0.23489025 -0.01220373 -0.33591157 -0.21019658
0002f0 aa 57 9a 3e ad 10 ba be 2d 8f a2 3e a3 70 b7 3e
       0.30145007 -0.36340848 0.3174986 0.35828122
000300 ea fa d7 3e bf eb 40 3d b6 7a f3 be 4b a2 df be
       0.4218362 0.047099825 -0.4755456 -0.43678507
000310 cd a6 af be ad 02 0b 3e ba 94 a3 be 1a 1c 77 be
       -0.34306946 0.1357524 -0.31949407 -0.24131814
000320 3a 0c f9 3e a3 72 fc 3e 35 52 f0 3e 73 b6 54 bd
       0.4864214 0.4930621 0.4693772 -0.05193181
000330 1a 69 ef bd 6e 93 cb be fa 04 87 3e 3a 44 95 3d
       -0.116899684 -0.39760917 0.26370984 0.07288404
000340 3e b9 b9 be a4 7b 87 3d 28 70 f2 3e 8e b0 fe 3e
       -0.3627414 0.066153795 0.47351193 0.49744076
000350 fd da 9f 3e ba a4 40 be 57 01 92 be db 0a d8 3e
       0.31221762 -0.18812838 -0.28516647 0.42195782
000360 35 c2 b7 3d 36 f4 ef 3e 18 6e f9 3d 35 20 f6 3e
       0.08972589 0.46866006 0.12179202 0.48071447
000370 b0 0e 55 be ae 63 52 be 30 b6 ce be d7 b2 3a bc
       -0.20806384 -0.20545837 -0.40373373 -0.011395178
000380 21 c0 c8 3e cd 9d 3e be 8e ee 26 be f9 04 9f 3e
       0.39209083 -0.18614884 -0.16301939 0.3105848
000390 cb 58 d6 bd 7a 4b cd be cb c3 57 3e 68 99 ba be
       -0.10466155 -0.40096647 0.21070783 -0.36445165
0003a0 7d 7c 35 3e 52 d5 e1 3e ce 07 a0 3e c7 75 17 be
       0.1772327 0.44108063 0.31255955 -0.14791022
0003b0 d6 ec 76 3e 61 79 72 be 85 27 08 3d 5b 0b 98 bd
       0.24113783 -0.23679115 0.033240814 -0.07424041
0003c0 bd c3 3c bd 8e 27 a7 3e 6c 13 c3 3e cc 5d 3a 3e
       -0.046085108 0.32647365 0.38100755 0.18199843
0003d0 b2 de 64 be 6b 8f d8 3e ec c6 21 3e 40 7b 30 be
       -0.22350577 0.4229692 0.15798539 -0.17234516
0003e0 07 f2 9f be f0 dd 11 be bd d8 f7 3e f2 4b 8d bd
       -0.3123934 -0.14244819 0.48407546 -0.06899251
0003f0 51 42 df 3d 12 80 ed 3e 12 51 18 bd 13 2f 3e 3c
       0.10901321 0.46386772 -0.03718669 0.011607903

0.bias f4 [256]
000000 4a 3a 86 3e dc 4c 35 3e c1 7d a2 3e d6 3e 66 3e
       0.26216346 0.17705101 0.31736568 0.22484908
000010 48 c6 b8 3d c9 cf f9 be c1 78 14 3e 70 43 d5 3e
       0.09022194 -0.4879134 0.14499189 0.41653013
000020 ad 55 cf be 1a 66 06 be 0f f5 c1 be c4 ef 6a 3e
       -0.40495053 -0.13124886 -0.37882277 0.22943026
000030 78 88 bb be f6 60 7b 3e 14 61 f8 3e ef 22 c8 bb
       -0.36627555 0.24548706 0.48511565 -0.00610768
000040 ea af eb 3e 7e 95 e9 be 52 9f a6 be 82 05 b5 be
       0.4603265 -0.45621866 -0.32543427 -0.35355765
000050 0c b7 d8 be c0 65 fd bd 99 b0 b2 3e 4d 36 b5 be
       -0.42327154 -0.12372923 0.34900358 -0.3539299
000060 e9 fc 71 be 4d e3 8e bb 0a 4d af 3e 65 d2 e1 be
       -0.23631634 -0.0043605925 0.34238464 -0.4410583
000070 91 62 d7 be 8a 1a 8d be a8 69 3a be 23 6c c5 be
       -0.42067388 -0.2755931 -0.18204367 -0.38559064
000080 a6 95 90 be 52 45 db 3e a9 f0 cb 3e 4b 21 8b bd
       -0.28239173 0.42826325 0.39832047 -0.067934595
000090 ea 91 9f bd ed a9 f4 3e 10 8f a4 be 8d bd 89 bd
       -0.07791503 0.47785893 -0.32140398 -0.06725607
0000a0 be 65 92 3e 29 81 ec bd 96 2a 19 be 25 a4 fb 3d
       0.28593248 -0.11548073 -0.14957651 0.122871675
0000b0 15 69 d0 be ec fd 5e 3e a4 02 cd 3e d5 ce ce be
       -0.4070517 0.21776551 0.40041077 -0.40392175
0000c0 06 9a f3 3e f9 d4 15 3d ca fb aa 3d 5f af b9 be
       0.47578448 0.03658006 0.08348806 -0.3626661
0000d0 bf c0 91 3e 49 6b de 3d 42 f7 fa be f1 5b e0 be
       0.28467366 0.10860307 -0.49016768 -0.43820146
0000e0 bc a9 90 be 4c 34 f3 3e 6f 16 a5 be 68 c2 99 be
       -0.28254497 0.47500837 -0.32243678 -0.30031133
0000f0 e1 dd f3 3e a1 dd 47 be d5 23 d3 be 72 43 ee 3e
       0.47630218 -0.19518138 -0.41238275 0.46535832
000100 77 bf 96 3e a0 06 2e be fd a8 78 3e 00 d8 7d be
       0.2944295 -0.16994715 0.24283214 -0.24789429
000110 79 d0 6f 3e 69 c7 35 3e 44 43 ad 3e 54 1f 3c be
       0.2341937 0.1775185 0.33840382 -0.18371326
000120 ba 01 db bd 6d 55 f5 3e 67 d6 0f be d5 f1 fe 3e
       -0.10693689 0.47916737 -0.14046632 0.49793878
000130 40 05 ce 3b 59 75 9c 3e e6 3e a7 3d 19 7a c8 be
       0.006287247 0.3055828 0.08166294 -0.39155653
000140 ea ea 8e 3e 87 9e 59 3e ce b4 f5 be f0 39 e7 bd
       0.279136 0.2125188 -0.47989506 -0.112903476
000150 ef 9d c8 bd ac ad 25 bd 4a 89 c2 be 07 5f 43 be
       -0.097957484 -0.04044883 -0.37995368 -0.19079219
000160 73 3d a8 bd a0 c2 68 3d 5a 20 4a 3e 8b b8 fb 3e
       -0.082148455 0.056826234 0.19738904 0.49164233
000170 78 0c 1a 3e 92 75 cd be e8 c3 d1 3c d4 f6 88 be
       0.15043819 -0.40128762 0.02560611 -0.26750815
000180 31 00 61 be 11 31 24 3e f3 34 b1 3e a5 7b 01 3e
       -0.2197273 0.16034342 0.3461071 0.12644823
000190 fd f1 d7 bd f2 4c c5 be d7 73 a1 3e ba 5f 1b 3d
       -0.105442025 -0.38535267 0.3153369 0.03793309
0001a0 47 d8 c6 39 24 20 0b 3e 93 1c b7 3e 6e b4 2c be
       0.00037926642 0.1358648 0.35763988 -0.16865703
0001b0 d5 a3 50 3e 3d 07 97 3d 35 e2 c3 be 19 31 58 3d
       0.20374997 0.073744275 -0.3825852 0.0527812
0001c0 0f 48 24 be af e0 8d 3e e7 79 e2 be d9 75 29 be
       -0.16043113 0.27710482 -0.4423363 -0.16548862
0001d0 9d 9a c4 bd ae 84 6f bc 2f 96 93 3e 7e 78 4e be
       -0.09599803 -0.014619036 0.28825518 -0.20163152
0001e0 90 08 00 bf e6 6d 95 be 74 49 d7 3d 67 af 9c 3e
       -0.50013065 -0.29185408 0.10512057 0.3060257
0001f0 63 3e 85 bd 6d 83 0b be 86 0c b6 be 95 bc ca 3e
       -0.0650604 -0.13624354 -0.3555643 0.39597002
000200 1f 2c ed 3e f5 e2 99 3d 04 af e9 bd 35 42 ea 3e
       0.46322724 0.07513992 -0.11410335 0.45753637
000210 5d 0a 68 be ce c8 db 3e 97 12 9e be 76 23 3c bd
       -0.22660203 0.4292664 -0.30873558 -0.045932256
000220 05 08 b4 3e cd dc c7 be 06 43 28 3e 4c 5d c9 be
       0.35162368 -0.39035645 0.16431817 -0.39328992
000230 75 32 17 be 99 c3 b5 3e 87 ec a3 3e ad 7d b8 be
       -0.14765342 0.35500792 0.32016394 -0.36033383
000240 71 b7 e6 3e 32 46 c9 3e c8 eb c4 3e 00 84 e8 3d
       0.4506183 0.39311367 0.38461137 0.11353302
000250 47 17 89 bd e1 ff 16 bd 61 8d 90 3e fb 5c 93 3e
       -0.06693893 -0.03686512 0.28232864 0.28781876
000260 11 40 cc 3d 46 28 04 bb d1 ce 2b be c5 36 ae 3e
       0.09973157 -0.0020165606 -0.16778113 0.3402616
000270 d1 02 bb be d1 e9 3f 3e 24 03 d2 be 1a f1 49 3e
       -0.36525586 0.18741538 -0.4101802 0.19720879
000280 d3 32 d8 be 3a bd b9 3d a4 51 9b be de f4 f7 3e
       -0.42226276 0.09069295 -0.30335724 0.48429006
000290 35 90 a4 3d a3 08 92 3e 9b 2c cb 3e 8d 53 8a be
       0.08035318 0.28522214 0.3968247 -0.2701687
0002a0 95 5c 1b 3e b8 f0 a0 be 05 0f 84 be 06 3d 3b be
       0.15172036 -0.31433654 -0.2579271 -0.18284997
0002b0 a4 0f 5f bc 7b 70 ef 3e 1e d8 83 be c3 95 fb 3e
       -0.013614569 0.46765503 -0.25750822 0.49137697
0002c0 e2 50 01 be 10 9a ed 3e b4 0b 7d 3e d1 e1 48 be
       -0.1262851 0.46406603 0.24711496 -0.19617392
0002d0 92 77 dd 3c ae 98 24 bd 6a d2 bb 3e ba 15 a1 bd
       0.027034555 -0.04018467 0.3668397 -0.07865472
0002e0 f3 ec b7 be 8c 5e db bd 67 22 d7 bd 86 77 89 be
       -0.35922965 -0.10711393 -0.105046086 -0.26849002
0002f0 42 bd 95 3d 59 53 b7 be cd f8 e4 3d 2a 85 f2 3e
       0.07311489 -0.35805777 0.111802675 0.4736722
000300 35 d3 9d bd 3a d0 7f 3e 23 00 44 be 3b 90 c8 3e
       -0.077063 0.24981776 -0.19140677 0.3917254
000310 8a d7 d7 3e db 7d 28 bd 5f a8 f6 be ed a1 ce be
       0.4215663 -0.04113565 -0.48175332 -0.40357915
000320 38 7c 0b 3e aa ee af be 52 fe e2 3d 9f 46 04 3e
       0.13621604 -0.34361774 0.11083664 0.12917565
000330 6e f3 40 bd 73 f9 e3 bd 46 fe 95 3e 69 30 b5 be
       -0.047107153 -0.11131563 0.29295558 -0.35388497
000340 f3 be 51 3e c5 16 be 3e dc bd b5 be de 39 cf 3e
       0.20482998 0.37126747 -0.35496414 0.40473837
000350 6a 34 b0 be 99 ee 02 3e 67 46 c7 3e 2d 8e f2 bd
       -0.3441499 0.1278633 0.389209 -0.11843524
000360 0f 65 0b be ae ca 1b bd d6 10 c4 be f2 a6 90 3e
       -0.1361277 -0.038035087 -0.38294095 0.2825237
000370 dd 1f b9 bd 29 69 42 be bd 6d c3 bd 66 7e 50 3e
       -0.090392806 -0.18985428 -0.09542415 0.20360717
000380 c9 a7 67 be 52 c8 f5 3d ca 65 b6 3e 1a 84 b7 3e
       -0.22622599 0.12001099 0.35624534 0.35842973
000390 0a 7c d8 be e9 84 08 be 40 70 eb 3d 7b e4 73 3e
       -0.42282134 -0.13331951 0.11496019 0.23817627
0003a0 56 14 d9 3d 4c 79 e6 3c 14 2d de be 71 7b 63 be
       0.10599582 0.02813401 -0.43393767 -0.22215058
0003b0 5e 9d ba 3e f2 6e bf bd dd 35 eb 3e 14 1d bb be
       0.36448187 -0.09347333 0.45939532 -0.36545622
0003c0 b5 64 7d 3e fe c8 a3 be d7 ef 3c be 47 12 81 3e
       0.24745448 -0.31989282 -0.18450867 0.25209257
0003d0 59 1a 46 be bf 8e e6 3e c1 75 b5 be 68 5d f0 be
       -0.19345988 0.45030782 -0.35441402 -0.46946263
0003e0 c3 e5 28 bd 53 be 97 3e 88 f9 ed be c2 9a 1b bd
       -0.041234743 0.29637393 -0.4647944 -0.037989385
0003f0 a2 8b 11 3e c9 e4 33 bd 34 58 33 be bf 82 9e 3e
       0.14213422 -0.04391936 -0.17514116 0.30959126

2.weight f4 [256, 256]
000000 3b f1 17 bc 1b 1f 27 bd 52 1d 84 bc bf d5 62 bb
       -0.009273822 -0.04080115 -0.016127262 -0.0034612266
000010 d9 ad 13 bd fd 26 75 bd 03 15 58 bc 2f 20 1c bd
       -0.036054466 -0.059851635 -0.013188603 -0.03811663
000020 d3 87 62 3d 1b 9a 1a bd 26 ac 6f bd 7a d6 15 3d
       0.055305313 -0.037744623 -0.058513783 0.036581494
000030 34 29 1d 3c d8 1d 44 3d e3 f7 96 bb 98 9c 02 bd
       0.009592343 0.047880024 -0.004607187 -0.03188762
000040 b6 4f 81 3c db 45 59 3d 42 30 a8 bc e0 b3 3d bd
       0.01578508 0.053045135 -0.020530824 -0.04631412
000050 84 23 14 bd 1c 64 45 bd 2c 71 36 bd 62 cb f8 bc
       -0.036166683 -0.048191175 -0.044541523 -0.030370418
000060 90 b0 1d 3d 67 29 44 3c 28 47 4c bd 13 c9 5b bd
       0.03849846 0.011972762 -0.049872547 -0.053658556
000070 ee 59 81 3c 3f 6e 41 3d d7 d1 ef 3c c7 6f 5c bc
       0.015789952 0.04722428 0.029274864 -0.013454384
000080 08 08 19 bd 4a 9d 7b bd 80 e8 16 3d 51 8b ec 3b
       -0.037361175 -0.0614293 0.036842823 0.0072187562
000090 02 1c c8 3b dc bd 45 bd 73 0c 7e 3d f1 e9 bf bc
       0.0061068544 -0.048276767 0.06202359 -0.023426982
0000a0 e4 7f 2b 3d 67 9b 27 bd d6 a5 9b 3c e0 10 ef ba
       0.041870013 -0.040919688 0.018999975 -0.0018239282
0000b0 c7 f6 52 3d f1 36 b0 bc 16 0b f4 bc 0e 56 3e 3d
       0.051504876 -0.021510573 -0.029790442 0.046468787
0000c0 89 ab a0 bc 9c 60 12 3c 20 e8 48 3d b6 17 b9 3c
       -0.019613044 0.008934166 0.049049497 0.022594314
0000d0 28 cf 6e 3d 85 75 9a ba 82 70 3f 3d 54 ae 15 3d
       0.05830303 -0.0011784291 0.046738155 0.036543205
0000e0 95 db 57 3c 9f 97 5e 3c b7 70 1d 3c e0 3f 47 3c
       0.013174911 0.013585954 0.009609393 0.012161225
0000f0 ce aa 34 3c d8 6d 3d 3c f0 76 e5 bc 97 bb 28 bc
       0.011027051 0.011561833 -0.028010815 -0.010298631
000100 7e 79 22 3d c4 e4 1d 3d c0 70 09 bd 5a 94 4c 3c
       0.039666645 0.038548246 -0.033554792 0.012486542
000110 a6 1b 20 3c 25 7b 7e 3d 71 18 5b bb 56 3f b9 bc
       0.009772217 0.06212916 -0.0033431316 -0.022613209
000120 b0 bc 6e 3d c1 bf 46 bd 3f 5d 2b bc fd d8 fa bc
       0.058285415 -0.048522715 -0.010459243 -0.030621046
000130 b0 cb 3e 3d 97 08 12 bd d4 01 5c bd 8c ea 67 bb
       0.04658097 -0.035652723 -0.05371268 -0.0035387604
000140 91 bc 4b 3d d6 0a 66 bd f0 27 a9 bc f7 b1 b5 bc
       0.049740378 -0.056162678 -0.020648926 -0.022179587
000150 c6 68 2a bd 1a a0 63 3d 72 7b 40 bd 77 3d 1b bc
       -0.041603826 0.055572607 -0.046992727 -0.009475104
000160 9a 6d 0c bb 8f 86 0e 3d 3f 8e 49 3c 0f 43 66 3d
       -0.0021427632 0.034796294 0.0123019805 0.056216296
000170 92 38 ac 3c e1 f9 87 3b 13 30 ab 3c 54 f7 7f bc
       0.021023069 0.004149661 0.020896947 -0.015622932
000180 30 5a 02 3d 14 40 87 bc a1 0d 03 3d bc 67 02 3d
       0.03182429 -0.016510047 0.03199542 0.03183721
000190 58 be 62 3d f1 5b 2e 3d d6 8d b5 bc c8 95 04 3d
       0.055357307 0.04256815 -0.02216236 0.032369405
0001a0 a9 c7 81 bc 1a d0 34 bd 4f 3e d3 3c d8 94 66 3d
       -0.015842276 -0.044143774 0.025786547 0.056294292
0001b0 47 8f a5 3c 1d e5 90 bc f2 33 34 bd 14 b0 1d 3c
       0.020209922 -0.017687375 -0.04399485 0.0096245
0001c0 e9 e5 0a 3d cb b1 35 bd c9 6a 91 3c 2b a2 05 3c
       0.033910666 -0.04435901 0.017751114 0.00815634
0001d0 ac 7d 3b 3d a6 03 35 3d 18 d3 fa bc 4c 22 63 3c
       0.045774147 0.044192933 -0.030618235 0.0138631575
0001e0 c6 79 71 3d 34 01 5a bc 56 c5 24 bd 5d 71 3f 3d
       0.058954023 -0.013305951 -0.040227257 0.04673897
0001f0 29 ae b6 3c 98 37 33 3d 58 51 27 bd b5 4d 5a bd
       0.022299843 0.04375419 -0.04084906 -0.053296763
000200 b3 5a 14 3d 7f 78 75 bd e3 9c 03 3c 3c 33 7c 3d
       0.03621931 -0.059929367 0.00803301 0.0615723
000210 b6 00 43 3d 31 4a 2a bb 07 c1 f5 bc 77 71 1c 3d
       0.0476081 -0.0025984163 -0.02999927 0.038194146
000220 dc 50 07 bd a9 39 24 bd a3 8d 5f bd ab 5f 75 3d
       -0.033036098 -0.04009405 -0.054578435 0.05990569
000230 44 57 79 bd a1 02 a2 3c 16 59 14 bd 8f 44 1c 3d
       -0.06087424 0.019776644 -0.03621777 0.03815132
000240 fb 2d 8e bc 33 79 1c 3d 19 7e f4 bc ea 53 51 3d
       -0.01735591 0.038201522 -0.029845284 0.051105417
000250 f2 bb 19 3d 35 7c fe 3c 15 cd 15 3d b9 00 7c 3d
       0.037532754 0.031065086 0.036572535 0.061524127
000260 e6 c1 20 3c b9 06 a1 3c ea f6 28 3d 18 2c 4b 3d
       0.009811854 0.019656526 0.0412511 0.049602598
000270 3b 02 1c 3d 20 5e 53 3d 81 8d 35 3d a6 0d 4f bc
       0.038088065 0.051603436 0.0443244 -0.012637531
000280 ed 0d 01 bc 78 6c 48 bd bb aa d2 3c 25 27 7d bd
       -0.007876855 -0.04893157 0.025716176 -0.06180491
000290 dd 7f 0e 3c 19 a8 38 3d a5 7c 44 bc 9c 6d 1b 3d
       0.008697477 0.045082185 -0.011992608 0.03794633
0002a0 ef 97 0d 3c 53 5f c7 3b 12 4a 47 bc fb 12 0b bd
       0.008642181 0.0060843616 -0.012163656 -0.033953648
0002b0 5b 04 c5 3c 52 ab 0b 3d 6e cf 24 bd 76 b1 00 bd
       0.024049928 0.03409893 -0.040236883 -0.03141924
0002c0 df bb a0 3a e0 80 25 bd 04 de 1a 3d 15 22 1c 3d
       0.0012263021 -0.040406108 0.037809387 0.03811844
0002d0 c2 cf 2a bd af c7 9f bc f5 ed 27 bd f6 81 d5 bc
       -0.04170204 -0.019504396 -0.040998418 -0.026062947
0002e0 36 e7 d4 3c a8 aa d1 bc 43 e9 63 3d dd d6 5b bd
       0.025989156 -0.02559407 0.055642378 -0.053671706
0002f0 3a ac 79 3d da 5e 18 bd df a9 44 3d 09 46 3d 3d
       0.060955264 -0.037199832 0.048013564 0.04620937
000300 a6 22 65 3d ba 1e 3f 3d c2 14 24 bd 75 54 41 bd
       0.055941246 0.046660163 -0.04005886 -0.047199685
000310 f2 bb 6c 3d ca 0f 4f bd 9a bf 66 3d 84 9b 19 bd
       0.057796426 -0.050552167 0.05633507 -0.037501827
000320 90 73 e3 bc c3 4d c5 bc 38 41 07 3b 1f d3 6f bd
       -0.027765065 -0.024084931 0.0020638239 -0.05855095
000330 97 d0 83 3c 92 43 a6 3c 9c 13 cb bc ce b4 f8 3c
       0.016090674 0.020295892 -0.024789624 0.030359652
000340 5d c2 66 bd 26 6a 5a bd 1a c6 c7 3b d0 ec 39 3d
       -0.056337703 -0.053323887 0.0060966136 0.045391858
000350 09 8d 2d 3d e3 a4 16 3d 1d 4d bf bc 89 2c c6 bc
       0.04237083 0.036778342 -0.0233522 -0.024191158
000360 5c 81 c0 bc 7f a1 15 bd 27 78 b0 3c 78 eb cb 3c
       -0.023499183 -0.036530968 0.021541668 0.024892554
000370 90 1d 99 bc bb cf b6 bc 7f d2 2c 3d 9e 51 10 3d
       -0.018690854 -0.02231585 0.042192932 0.035234086
000380 97 04 68 bd 5b 9e bb bb 2d 0a 55 bd 6a a4 5b bd
       -0.056645002 -0.0057256646 -0.052011658 -0.053623594
000390 38 c9 2e 3d d8 5f 4e bd 9b 70 eb ba 12 e9 e5 bc
       0.042672366 -0.050384372 -0.0017962636 -0.028065238
0003a0 82 68 46 bc e6 06 8c bc da f0 0f 3d fa 2a 3b bd
       -0.012109878 -0.017093133 0.035141803 -0.045695283
0003b0 61 db b7 3c f5 b4 15 3d 47 78 69 bd 60 31 91 3c
       0.022443475 0.036549527 -0.05699947 0.01772374
0003c0 a5 f3 16 bd 9c a3 2c 3d 67 5a a5 3c 76 e1 a3 bc
       -0.03685345 0.042148218 0.020184709 -0.02000497
0003d0 fe 2d 0e 3d 46 7d 3e 3d ed b2 0f bd 1b 25 70 3d
       0.03471183 0.04650619 -0.035082746 0.058629137
0003e0 56 68 a1 3c 29 85 1b bc 6d db 13 bd 42 60 5e bd
       0.019703072 -0.009492197 -0.036097933 -0.054291017
0003f0 be 3f cf 3c 78 36 2f 3d a2 4d d4 bc 3f af 80 3d
       0.02529895 0.042776555 -0.025915924 0.062834255

2.bias f4 [256]
000000 80 04 71 3d ac cd 24 3c 9d 5b 55 3d de b9 cb 3c
       0.058842182 0.010058802 0.052089322 0.024868902
000010 a7 9b 6f 3b 03 3f eb 3c bb 6f 34 ba 73 a7 0d bb
       0.0036561282 0.02871657 -0.0006883104 -0.00216147
000020 5a 2a 5a 3d 79 9d e8 3c ab 78 b2 bc b4 42 71 3d
       0.053263046 0.028395401 -0.021786055 0.058901504
000030 d2 3b d1 bc 7e 9d 78 3d 66 83 60 3d 8d 78 aa bb
       -0.02554122 0.06069707 0.05481281 -0.005202359
000040 67 fe d0 bb 72 88 9b 3c f8 80 5e 3d 1a 3a 6e bd
       -0.0063779834 0.01898596 0.054322213 -0.05816088
000050 9f 5a 2d 3d 3f 1e 47 3d 5b 6e ca 3c a5 5d 4e 3d
       0.04232275 0.04861283 0.024710825 0.050382275
000060 5e d2 4c bd 2a 69 40 3d 78 37 42 3d ae d2 85 bc
       -0.05000531 0.046975292 0.04741618 -0.016335811
000070 76 ef d7 bb 98 d7 46 3d e3 46 27 bd e3 d8 f8 3c
       -0.0065898253 0.04854545 -0.040839087 0.030376857
000080 36 de d8 3c 05 04 2f 3a ce 8e a8 bc bb fe e9 bc
       0.026473146 0.0006676319 -0.020575907 -0.028563848
000090 a1 96 38 3d ef 5e a2 bc 42 9f 31 3d 45 1a 40 3d
       0.045065526 -0.019820658 0.04336477 0.046900053
0000a0 c9 b2 11 3c 9d 11 3f 3c a2 42 74 3d 18 52 f5 3c
       0.008892723 0.011661914 0.05963386 0.029946372
0000b0 85 91 a2 3c 64 52 6a bb 6c 3a 3e 3d 15 77 bc 3b
       0.01984478 -0.0035754675 0.046442434 0.0057515004
0000c0 c6 9e 64 bd dc 0e 77 3d 3c d6 4a 3d f3 db 4a 3d
       -0.05581548 0.060316905 0.049520716 0.049526166
0000d0 cf e9 48 3d d0 86 20 bd ec 32 d2 bc db 19 32 3c
       0.049051102 -0.039191067 -0.025659047 0.010870422
0000e0 bf 2f 9a bc 00 d3 52 bd 4f ec 76 bd 05 af 04 bd
       -0.018821595 -0.051470757 -0.060283955 -0.032393474
0000f0 0a 31 a7 38 97 b7 0f bd 22 f7 13 bc a1 f5 e6 bc
       7.972315e-05 -0.035087194 -0.009031089 -0.028193297
000100 2b 87 73 3d 87 4e 20 3d 2c 47 52 bd 12 47 cd bc
       0.059455078 0.03913739 -0.051337406 -0.025058303
000110 af 22 45 3d 37 71 b5 3a 08 eb c1 bc 5c c1 4a bd
       0.04812878 0.0013842945 -0.023671642 -0.049500808
000120 f9 e2 cc 3c 98 df cc 3c 9e 35 bf bc dc a1 5e bd
       0.025010573 0.025008962 -0.023340996 -0.05435358
000130 df 8b ee bc 14 76 a5 bb 3f 2d 88 bc 12 60 55 bd
       -0.02911943 -0.0050494764 -0.016623138 -0.052093573
000140 25 ad 31 bd b2 5c 97 bc bd d5 37 bd de 4d 8f bc
       -0.043378014 -0.018476818 -0.04488157 -0.017493185
000150 fa dc 64 bd 87 7f 5b 3d e0 1b 86 3b 19 fb 5d 3d
       -0.055874802 0.053588416 0.0040926784 0.054194544
000160 b3 60 b3 3c a2 88 12 3d 33 2b 66 3d 33 93 5a 3d
       0.021896696 0.035774834 0.05619354 0.053363036
000170 19 e4 51 bc 34 e6 02 bd 8c 2b b1 bc 4c 0d 05 3b
       -0.01281073 -0.03195782 -0.02162721 0.0020302115
000180 38 65 ae 3c 23 90 09 bd ed c7 4d bc ae 6a a0 b9
       0.0212885 -0.033584725 -0.012559873 -0.0003059706
000190 93 d0 74 bd 9f 57 08 bc 55 2e c9 bb e2 42 2c bd
       -0.059769224 -0.008321672 -0.0061395564 -0.042055972
0001a0 b5 5b 7e bd 54 41 11 bd d6 5a 10 bc 28 d6 72 bd
       -0.062099177 -0.035462692 -0.0088107195 -0.059286267
0001b0 76 6d 12 bd 60 46 cb 3c 5a 2c af bb 3c f8 d5 3c
       -0.03574892 0.02481383 -0.0053458633 0.026119344
0001c0 e5 24 6f 3d f2 11 29 bd b4 84 f2 3c 04 63 90 bc
       0.058384795 -0.04127688 0.029604293 -0.01762534
0001d0 82 62 23 bb a0 fc a3 3b e1 c1 97 3b 4e 08 71 3d
       -0.0024930541 0.0050044805 0.0046312665 0.05884581
0001e0 91 3c 62 3d ef 54 62 bd 04 31 7c 3c 71 ea 18 bd
       0.055233542 -0.05525678 0.015392546 -0.037332956
0001f0 84 ba 5d 3d 16 19 21 3d f8 b5 ab 3b 95 4b 40 3d
       0.054132953 0.039330564 0.005240198 0.04694708
000200 75 e9 18 3d 9e 85 fe 3c 1c f1 4f 3c de 98 c0 3b
       0.037332017 0.031069573 0.012691762 0.005877598
000210 42 37 eb bc 38 a0 23 3d ba 7f 61 3d 0c d0 40 bd
       -0.028712872 0.03994772 0.05505345 -0.04707341
000220 32 82 49 bd f5 7b 77 3d 70 6f 3a 3d 17 40 b0 3b
       -0.04919643 0.06042095 0.04551643 0.005378734
000230 76 cb b0 3c 8e 3e 3f 3c 6d d3 58 bc 4a 0a 75 bd
       0.021581393 0.011672629 -0.013234002 -0.059824266
000240 bb 3d 95 ba 5a 94 69 bc 3e 23 43 bd 06 c4 af bc
       -0.0011386195 -0.014256561 -0.04764103 -0.021455776
000250 6f 9d 1b 3d 64 b7 c4 3b 3f 55 46 bc bc 99 8c 3c
       0.037991937 0.006003307 -0.012105285 0.01716315
000260 73 37 3c 3c 0f 81 72 3d 88 26 1d bd 82 92 29 bd
       0.0114878295 0.05920511 -0.038366824 -0.041399486
000270 f8 5a 1d 3c 11 bb a8 3c ca e8 34 bd 83 b1 68 3d
       0.009604208 0.020597013 -0.044167317 0.056809913
000280 fe b2 52 bd 68 66 4e bc 6e a8 32 bd 02 ef 13 bd
       -0.05144023 -0.012597658 -0.04361766 -0.036116607
000290 ed 83 65 bd b6 d6 7a 3d c7 a4 36 bd 1e 60 56 3c
       -0.056034017 0.06123992 -0.044590738 0.01308444
0002a0 51 78 46 3d 55 07 76 3b 18 d5 6d bc bf 68 8f 3b
       0.048454586 0.0037540991 -0.014516138 0.0043765004
0002b0 87 6c 57 3d 8e 6a dc 3c dc cb f8 3c b8 4b ed 3c
       0.052593734 0.026906278 0.030370645 0.02896677
0002c0 ef 9c 30 3d b4 af 94 3c 57 ff 82 bc e8 fe c8 bc
       0.043118414 0.018150188 -0.015990896 -0.024535611
0002d0 a7 46 35 3d 5d bc 7e bc 87 74 1c 3d 03 84 7b bd
       0.044256832 -0.015547839 0.038197067 -0.061405193
0002e0 72 d0 ef 3c 67 fc 0a bd 51 3a 4f bd 98 05 44 bc
       0.0292742 -0.033932116 -0.050592724 -0.011964224
0002f0 44 ec 67 bd 51 c8 d7 bb f0 89 74 3d d2 c1 0c 3d
       -0.056621805 -0.006585159 0.05970186 0.03436453
000300 01 e3 6c 3d 23 33 9b bb e0 9c 32 3d 82 7d 6a 3d
       0.057833675 -0.0047363206 0.04360664 0.0572486
000310 90 b1 78 3c 61 45 90 bb 5d 8a 01 3d 6e 0f 02 bd
       0.015179053 -0.004402802 0.031626094 -0.031752996
000320 8d a2 99 bb d0 27 57 3d 0c db 82 3a 7b d3 48 bd
       -0.004688567 0.052528203 0.0009983494 -0.04902981
000330 37 59 0c 3c 14 75 89 bc b1 35 38 3d 79 97 70 bc
       0.008566192 -0.01677946 0.04497308 -0.014684551
000340 87 4c 76 3d 69 1a 1b 3d bd 4f 8e 3b 74 01 d1 bb
       0.060131576 0.037866984 0.0043430016 -0.006378347
000350 19 e3 02 3d fb 91 b9 3c 78 68 59 3d 3b 2c 05 bd
       0.03195486 0.022652617 0.053078145 -0.032512885
000360 3b af c1 bc 93 3c c0 3c b8 0a 95 bc 73 ce 26 3d
       -0.023643127 0.023466384 -0.018193588 0.04072423
000370 aa dd 61 3c 73 66 4c bd 5f e2 53 3c 38 f2 d6 3b
       0.013785759 -0.04990239 0.012932389 0.0065596364
000380 3a 19 6c 3c 19 f9 e7 bc 7d 58 31 3d 8b 83 56 bd
       0.014410311 -0.028317021 0.04329728 -0.052371543
000390 50 f7 81 bb f0 0a db bc 7d 96 75 bc 3d 0c 21 3b
       -0.0039662495 -0.026738614 -0.0149894925 0.0024573945
0003a0 67 29 60 3d 52 23 27 bd fc f6 15 3d 1d 11 36 3c
       0.054726984 -0.04080517 0.036612496 0.011112479
0003b0 f5 85 10 bd 2a a3 cb bc 71 a8 c6 3c f7 95 41 3d
       -0.035284 -0.024858076 0.024250241 0.04726216
0003c0 f8 36 62 3c 71 1a b6 3c d8 b4 21 3d 54 c3 08 3d
       0.013807051 0.022229405 0.039479107 0.033389404
0003d0 22 66 d2 bc 84 e6 67 3c e0 27 41 39 93 c0 ce 3c
       -0.025683466 0.01415408 0.00018420769 0.02523831
0003e0 0e 74 28 3d 78 f9 0a 3d 74 5d cb bc 48 ab 33 bc
       0.041126303 0.03392932 -0.024824835 -0.01096613
0003f0 10 b7 0f bd ce 24 6c bd a8 b1 65 bc 57 a2 4e bc
       -0.03508669 -0.057652287 -0.014019407 -0.012611947

4.weight f4 [2, 256]
000000 6f fc b9 bc 9c b8 12 3d 8f 85 10 bb 13 bd 23 bc
       -0.022703378 0.03582059 -0.0022052263 -0.009993809
000010 e9 97 12 bd 63 71 5c 3d 0a c3 93 bc 27 10 c1 bc
       -0.035789404 0.05381907 -0.018037338 -0.023567272
000020 ce da 6e 3d 4e 66 42 3d da 85 7d 3c 91 63 68 bc
       0.058314137 0.047460847 0.015473807 -0.014183895
000030 b3 8d 9d 3c 6f 3a 62 3d e6 e7 1a 3d 24 2d ab 3c
       0.019232607 0.055231508 0.03781881 0.020895548
000040 89 99 43 bd d8 4d bf bc cb 29 0c 3d 7a cb 92 3c
       -0.047753844 -0.023352548 0.034219544 0.01791929
000050 ed 8a 2d 3b e0 b0 45 3d e8 84 3c 3c 9c 2d c1 3c
       0.0026480511 0.048264384 0.011506297 0.023581319
000060 42 05 eb 3c 61 9c db 3b ab de cf 3c b5 e2 4c bd
       0.02868903 0.0067019914 0.025374731 -0.050020892
000070 e8 e5 fb 3c 61 d0 cc bc 5a f1 ff ba 51 9e 64 3a
       0.030749276 -0.025001707 -0.0019526884 0.0008721101
000080 cc a9 6f 3d b0 bb 2c bd 5a 8e ac bc 5a a6 90 bc
       0.05851154 -0.04217118 -0.021063972 -0.017657448
000090 bc 36 26 3d af 52 4e 3d b4 43 68 3c 79 57 fa bc
       0.040579543 0.050371822 0.014176298 -0.030559288
0000a0 0f a7 50 3d 3b a7 fc bc bc 60 e9 bb 42 ec 4d 3d
       0.05094057 -0.03084146 -0.0071221273 0.05027414
0000b0 f4 02 18 3d b2 ab 92 bc d2 87 44 bd a4 66 33 bd
       0.03711219 -0.017904136 -0.04798109 -0.043799058
0000c0 27 74 1b bd a6 bc 10 bd 2a d1 6d bc 03 87 a7 3b
       -0.03795257 -0.03533616 -0.014515201 0.00511253
0000d0 f4 63 47 3c cf d7 55 bd df 39 27 3d ac 2e 6b bd
       0.012169827 -0.052207764 0.040826675 -0.057417557
0000e0 47 1b 09 3c e8 6f ba 3c 11 19 3e bd d3 6b df 38
       0.00836832 0.02275844 -0.046410624 0.000106535525
0000f0 0c 9d 4d bd db 4a 3e 3c 86 f5 0e 3d 06 cc 39 3d
       -0.0501986 0.011614527 0.03490212 0.045360588
000100 e9 86 80 bc 44 a0 59 bc 51 3e 16 3d 6c 5e 31 3d
       -0.01568933 -0.013282839 0.036680523 0.04330294
000110 8e dc 28 3d a4 d7 77 3d e9 d4 9e bc 8c cb 6a 3d
       0.041225962 0.060508385 -0.019388633 0.057323024
000120 3e b9 42 3c 9d 1b b3 3c 08 34 57 3c 6d 2a 86 bc
       0.0118849855 0.021863753 0.013134964 -0.016377652
000130 69 96 e5 bc 50 73 63 bd ff 89 3e 3c 82 36 45 3d
       -0.028025823 -0.055529892 0.0116295805 0.048147686
000140 6b e5 03 3c 1f 1e 70 bd eb 90 fc bc e1 ac ac 3c
       0.008050303 -0.058622476 -0.030830821 0.021078529
000150 6f 5f c1 bb ea 84 df bc 96 85 c2 39 c1 49 e1 bc
       -0.005901269 -0.027285058 0.00037102093 -0.027500989
000160 2e 64 00 3d 38 f9 2a 3d 7c f5 3b 3d ec 23 28 bb
       0.03134554 0.04174158 0.04588841 -0.0025656177
000170 e8 b7 3d 3d d9 a7 39 bd fa fc cf bc 1f 5a 5e bd
       0.046317965 -0.045326088 -0.025389183 -0.054285165
000180 41 5a 9c ba e4 cc 55 3d 0f d2 36 3d 4e 03 82 3c
       -0.0011928753 0.052197352 0.04463392 0.015870716
000190 0c 6d 5f bd 17 54 64 bd 54 0d 40 bd 41 d8 30 bd
       -0.054547355 -0.055744257 -0.04688771 -0.043174986
0001a0 0e 9e 14 3d c0 10 15 bd be 53 37 3b d6 1a 43 3c
       0.036283545 -0.036392927 0.0027973498 0.011908254
0001b0 e6 78 21 3c fe 7d 19 3d 5a f1 07 3d ff 2a 57 3c
       0.009855485 0.03747367 0.033189155 0.01313281
0001c0 6c 0a f2 bc ad b1 cd 3b 66 45 7f bb 9c 1a 56 3c
       -0.029545985 0.006277284 -0.0038951277 0.013067868
0001d0 b8 7b 40 bd e5 68 63 bd 99 38 c2 bc bd d6 80 bd
       -0.046992987 -0.055519957 -0.023708628 -0.06290958
0001e0 46 fc 07 bb d8 7e 72 3d 6b 72 6c bc e4 f9 b3 3c
       -0.0020749732 0.059203 -0.014431576 0.021969743
0001f0 bc 61 11 3d ca 4b 44 bd 20 d0 55 bd 4e ae 4b bd
       0.035493597 -0.04792384 -0.052200437 -0.049726777
000200 7c 72 d5 bc 50 f9 90 3c 8d ae c6 3c 5a 60 cf bc
       -0.026055567 0.017697006 0.024253154 -0.025314499
000210 fc 2b d1 bb 4d 50 42 bd 0c 3a 70 bd 2e 8c 1d 3d
       -0.006383417 -0.047439862 -0.058649108 0.038463764
000220 97 5f 6b bc 4b d7 b6 3c 2f 68 4d bc 12 21 54 3d
       -0.014366052 0.022319457 -0.012537046 0.05178935
000230 5b 18 a3 ba 80 da ef bb fb 9f 83 3c 37 20 73 3d
       -0.0012443172 -0.0073197484 0.016067496 0.059356894
000240 b2 90 3c 3d 2e e8 3d bd 97 04 63 3d 92 72 63 bc
       0.04603643 -0.046364002 0.0554243 -0.013882296
000250 6c d7 73 bd d1 75 6e 3d 34 05 f5 bc ec 71 f0 3c
       -0.059531614 0.058217827 -0.029909708 0.029351197
000260 fa 74 87 3c 55 ab 64 bd 23 ab f1 3c 15 1d 19 bd
       0.016535271 -0.055827457 0.02950055 -0.03738125
000270 75 c4 51 3d 33 0a 49 3d 7f 65 7f 3d d6 db f6 3c
       0.051212747 0.049081992 0.062352654 0.030134123
000280 fd 9f 26 3c e1 96 2e bd 0d a9 2a bd 05 2b 16 bd
       0.01016998 -0.042624358 -0.041665126 -0.03666212
000290 23 ae 14 bd 7f f9 79 3d e8 86 96 bc 44 de fb 3c
       -0.036298882 0.061028954 -0.018374875 0.030745633
0002a0 8c 62 5a 3d 9b 2f 62 bb 4f 6b ea bc 2b 77 5e 3c
       0.053316638 -0.0034513238 -0.028615622 0.013578217
0002b0 e9 f9 3e bc 30 12 ea bc ae ef 44 3d 20 31 6f bc
       -0.011656263 -0.028573126 0.04808014 -0.014599115
0002c0 54 c0 10 b9 ba 20 4f 3d 36 44 81 3d b2 9b 07 3d
       -0.00013804558 0.05056832 0.06311838 0.033107467
0002d0 d9 92 5d bc e9 9e 8f bb 2c af 14 3d dc 84 17 3d
       -0.013523781 -0.0043829572 0.03629987 0.03699194
0002e0 c6 28 0e 3c c5 71 59 bd 75 ea 8e 3c 19 6a 07 3b
       0.008676713 -0.053087015 0.017445782 0.0020662604
0002f0 7a 51 1e bd f2 a2 18 3c 52 da 7d 3d 36 a7 4e 3d
       -0.03865192 0.009316193 0.061975785 0.050452434
000300 dd ec bb bb c1 a2 4d 3d a9 37 72 bb 2d bf 75 bd
       -0.0057350234 0.050204042 -0.0036959446 -0.059996773
000310 16 38 24 3d 6e 8b 40 bd 6c d0 45 3d 5e 2e 43 3c
       0.04009255 -0.04700797 0.04829447 0.01191291
000320 7b b2 23 3d a5 2b 3c 3d 12 96 6c bd 48 3a 61 3d
       0.039965134 0.04594006 -0.057760306 0.054987222
000330 04 16 32 3d 9b d7 52 bd fa 11 7d bd 74 64 30 bd
       0.043478027 -0.05147515 -0.061784722 -0.04306455
000340 b4 48 3f 3b ca 18 9a 3c 5e aa a2 3c 9b 5f 60 bd
       0.0029187622 0.018810648 0.019856628 -0.054778676
000350 9b ed f8 bb ee 44 3e 3c 39 b7 69 3d fe b2 10 bd
       -0.007596684 0.011613114 0.0570595 -0.03532695
000360 a4 28 40 bd 4c 57 b8 bc b7 fc eb 3c 4b c1 17 3d
       -0.046913758 -0.022502564 0.028807027 0.037049573
000370 18 5d 74 bd 96 e4 14 bc 52 8a 62 3c e1 b9 42 bd
       -0.059659094 -0.009087702 0.013826923 -0.04754055
000380 58 ee 50 3d 05 05 62 3d dd 82 af 3c f6 3b 24 bd
       0.051008552 0.05518057 0.021424705 -0.040096246
000390 27 e2 2b bd 68 2e ae 3c f1 78 47 bd 89 52 34 bd
       -0.041963723 0.021262363 -0.048699323 -0.044024024
0003a0 d1 65 3c bd 90 8a 6d bd 87 ac 6f bd 50 97 b9 bc
       -0.045995537 -0.05799347 -0.058514144 -0.02265516
0003b0 28 f8 20 bd ec 09 15 3d af f0 c9 3c e9 17 06 bc
       -0.03929916 0.036386415 0.0246509 -0.008184412
0003c0 c3 9a 26 3d 63 0e 67 3d bc 98 5b bd 7c 19 f0 bc
       0.040674936 0.056410205 -0.053612456 -0.029309027
0003d0 03 f4 94 bc 58 50 ad bb ae b0 db bb 16 42 36 bd
       -0.01818276 -0.0052891187 -0.0067044115 -0.04449662
0003e0 a6 4c 3d bc b5 d2 ff bc 10 c5 d7 bc 56 4d c1 bc
       -0.011553919 -0.031228403 -0.026339084 -0.023596447
0003f0 b5 38 36 bd 7e 12 da bc 61 10 00 3c 91 6f 06 3d
       -0.044487674 -0.026620146 0.007816405 0.03282124

4.bias f4 [2]
000000 71 b3 e0 bc d0 18 11 3d
       -0.027429314 0.035424054

exp_avg f4 [256, 4]
000000 e1 d5 65 3a 29 6e 59 3b 71 48 9c 3a d6 29 4c bb
       0.0008767527 0.0033177233 0.0011923445 -0.0031152866
000010 7d 55 2a ba 44 2e 14 bb 68 e6 80 ba dc e1 0a 3b
       -0.0006497724 -0.0022610584 -0.0009834291 0.0021191752
000020 2d 13 49 ba 18 c4 24 bb e7 5e 74 ba 0f e1 1a 3b
       -0.0007670399 -0.0025141295 -0.0009322003 0.002363268
000030 f0 70 e6 b8 44 23 b0 b9 4f 38 44 ba c4 2b 9b 39
       -0.00010988291 -0.0003359561 -0.0007485197 0.00029596512
000040 7c 44 9f b6 12 fc 32 37 76 39 e6 b7 58 4a 3b b7
       -4.746542e-06 1.06683165e-05 -2.7444894e-05 -1.1163378e-05
000050 29 e0 3d b9 75 30 4b ba f2 06 37 ba de 26 3b 3a
       -0.00018107951 -0.0007751056 -0.0006981931 0.00071392755
000060 f9 7a 82 3a 4c b8 5b 3b 3d 8a ad 3a a1 31 4e bb
       0.0009954862 0.0033526598 0.0013240051 -0.0031462687
000070 9c c8 24 ba 07 58 05 bb 4e ea 0d ba 56 6d fb 3a
       -0.00062859966 -0.0020346658 -0.0005413637 0.0019182365
000080 3d 68 be 39 76 2b b7 3a 8b 0e 34 3a 7a 21 ab ba
       0.00036317288 0.0013974744 0.0006868622 -0.0013056241
000090 6c 02 00 3a c9 a4 e4 3a 3c 6a 29 3a ec a8 d6 ba
       0.00048831734 0.0017444129 0.00064626685 -0.0016377247
0000a0 e2 56 ba b9 fe 3d 9a ba b2 12 16 ba 7d 39 90 3a
       -0.00035541417 -0.0011767743 -0.0005724832 0.0011003461
0000b0 69 01 0f b9 ee 98 01 ba 86 00 4c 37 fe d5 f6 39
       -0.00013638068 -0.0004943748 1.2159469e-05 0.00047080213
0000c0 ec 48 95 38 7b d9 99 39 fb 8c 95 39 be 0f 8d b9
       7.1184564e-05 0.0002934447 0.00028524533 -0.00026905345
0000d0 64 1b c0 37 f0 3e 98 37 71 05 23 b9 10 3e bd b7
       2.2900938e-05 1.814912e-05 -0.00015546918 -2.2559456e-05
0000e0 5c f2 50 ba c7 a1 34 bb 37 43 b7 ba 49 df 28 3b
       -0.00079706847 -0.0027562247 -0.0013981824 0.0025767854
0000f0 5f e9 f8 38 19 b4 06 3a 71 c2 50 3a ac 27 f3 b9
       0.0001186903 0.0005138531 0.00079635443 -0.0004637813
000100 2c 1e 23 ba f4 12 1f bb c8 af 6b ba 04 32 15 3b
       -0.00062224525 -0.0024272772 -0.0008990732 0.0022765407
000110 54 be 14 ba c0 2d 05 bb 80 d6 a5 ba 1b d4 f7 3a
       -0.0005674113 -0.0020321459 -0.0012652427 0.0018907817
000120 49 50 ee b8 20 b6 dd b9 02 d4 aa b8 4d 10 d1 39
       -0.00011363679 -0.00042288098 -8.145721e-05 0.0003987573
000130 34 13 b9 38 7f b0 c9 39 0d 71 b2 39 ec 9c b9 b9
       8.825064e-05 0.00038469207 0.00034035035 -0.00035402866
000140 1d f1 14 3a 6a 61 fa 3a e0 1c 5e 3a fa 92 ea ba
       0.00056816806 0.0019102518 0.00084729306 -0.0017896586
000150 22 cf 62 39 69 4e 7e 3a ee c5 2a 3a 18 01 6c ba
       0.00021630203 0.0009701015 0.0006514479 -0.00090028485
000160 75 23 22 3a dc a1 0d 3b a9 82 37 3a b7 39 05 bb
       0.0006185093 0.0021611368 0.0007000366 -0.002032859
000170 02 e1 c5 38 10 d3 db 39 f5 77 2f 3a 90 db c5 b9
       9.435603e-05 0.0004192819 0.0006693595 -0.00037738355
000180 b3 df a5 38 3e ef 78 39 1c 02 cc 39 a8 92 5f b9
       7.90948e-05 0.00023740248 0.00038911484 -0.00021321571
000190 79 d6 50 ba f6 28 32 bb 46 16 77 ba 4e 7a 27 3b
       -0.0007966529 -0.002718506 -0.0009425621 0.0025555077
0001a0 42 9a 28 b9 83 e0 50 ba 16 6d 31 ba 60 b4 40 3a
       -0.00016079194 -0.0007968025 -0.0006768269 0.0007351097
0001b0 05 8c ce 37 8c ed b0 37 3d 57 5c 39 91 54 60 b7
       2.4622315e-05 2.1091451e-05 0.00021013334 -1.337113e-05
0001c0 78 d8 2a 39 27 c3 18 3a 30 fd 1b 3a f4 23 0c ba
       0.00016293104 0.000582742 0.00059505086 -0.00053459336
0001d0 13 06 91 3a 1b c0 83 3b 62 8b 02 3b ff 40 76 bb
       0.0011064432 0.0040207035 0.0019919504 -0.0037575362
0001e0 22 ac 91 b9 73 f3 8d ba f9 37 44 ba a6 c8 83 3a
       -0.00027784804 -0.001083 -0.0007485147 0.0010054305
0001f0 de 79 ea b9 b3 d6 a8 ba e3 1a a3 ba d1 7e 9b 3a
       -0.00044722756 -0.0012881368 -0.0012443926 0.0011863356
000200 56 00 a2 38 af 88 e2 38 aa 85 1c 3a c0 ef b0 b8
       7.7248245e-05 0.00010801979 0.0005970845 -8.436991e-05
000210 26 9e 03 39 10 e0 ea 39 5c 46 53 38 07 e0 de b9
       0.00012552048 0.00044798898 5.0371847e-05 -0.00042510053
000220 0b 50 fd b7 b9 c9 da b8 61 9f 53 b9 de 45 c2 38
       -3.0197223e-05 -0.00010432624 -0.00020181901 9.263655e-05
000230 1f a1 22 ba d4 82 03 bb d4 03 54 ba 9f d8 f6 3a
       -0.00062038185 -0.0020066993 -0.00080877286 0.0018832869
000240 e2 41 20 ba 42 4c 0c bb 93 df 68 ba 98 83 03 3b
       -0.0006113333 -0.0021407758 -0.0008883413 0.002006745
000250 58 eb 1e 39 a5 11 0b 3a c4 f5 7e 39 66 42 02 ba
       0.00015155727 0.00053050584 0.00024314882 -0.00049690006
000260 1d 6c 94 b9 c6 ba 7c ba 03 9f da ba 3a 6d 62 3a
       -0.0002830931 -0.00096408685 -0.0016679469 0.0008637492
000270 30 59 b2 b9 18 15 a7 ba cd 56 ad ba d7 4a 99 3a
       -0.00034017256 -0.0012747375 -0.0013224721 0.0011695278
000280 08 03 90 b9 53 76 93 ba ad 90 1f ba 1a 82 89 3a
       -0.0002746808 -0.0011250473 -0.0006086927 0.0010491044
000290 21 3d 58 ba 48 91 44 bb 6b 9a 7c ba 3a cc 38 3b
       -0.0008248855 -0.002999382 -0.0009636047 0.00281979
0002a0 23 04 eb 38 43 49 a2 39 3e d7 6e 38 a5 0d 9a b9
       0.00011206444 0.00030953632 5.694408e-05 -0.00029383335
0002b0 10 3e fb b8 6d d0 e7 b9 83 43 ee b9 09 a1 d4 39
       -0.00011980173 -0.00044215043 -0.00045445198 0.00040555772
0002c0 a4 65 55 b9 0c 1a 3f ba 9a b4 af b9 12 fd 32 3a
       -0.00020351127 -0.0007289953 -0.0003351316 0.00068278715
0002d0 80 ce a3 38 68 c7 bd 39 8e 90 0c 39 f9 aa b1 b9
       7.810909e-05 0.00036197458 0.00013405291 -0.00033887455
0002e0 ea 6d 50 39 a7 7c 53 3a 61 60 3e 3a ae fb 42 ba
       0.00019877372 0.0008067586 0.00072622864 -0.0007438016
0002f0 99 1f 53 39 19 bf 3b 3a b1 0a 25 3a 25 2e 2d ba
       0.00020134299 0.00071619597 0.00062958436 -0.00066063023
000300 e8 25 89 39 f6 ef 8c 3a 3a 5e 5b 3a 48 47 82 ba
       0.0002615892 0.0010752666 0.0008368228 -0.0009939456
000310 13 bd e8 39 fc 7b d0 3a 82 88 d3 39 25 9c c4 ba
       0.0004439136 0.0015906091 0.00040346762 -0.0015000148
000320 45 cf 8c 38 c0 d1 78 39 af da 96 39 3d b0 62 b9
       6.714327e-05 0.00023729261 0.00028773161 -0.00021618693
000330 c0 05 1b 38 c9 d0 ff 38 a4 ae 26 b8 9b 57 f7 b8
       3.6960235e-05 0.00012198237 -3.974013e-05 -0.000117941956
000340 a9 32 50 b9 d0 39 15 ba 0f 8e 9c b8 6b ba 0d 3a
       -0.00019855298 -0.00056925137 -7.46512e-05 0.00054065016
000350 d9 fb 93 39 91 b2 74 3a 45 6d 7d 39 f9 05 67 ba
       0.00028225666 0.000933447 0.00024168666 -0.00088128407
000360 8f 2e 38 39 2f c5 3d 3a c9 f4 eb 39 c8 46 30 ba
       0.00017564952 0.00072391605 0.00045005072 -0.00067244144
000370 82 26 fb b8 b0 d0 d9 b9 4d 5f 32 b9 52 4d cc 39
       -0.00011975785 -0.0004154495 -0.00017010905 0.0003896752
000380 3a 6e 32 39 c3 d1 16 3a 34 36 5a b8 14 10 10 ba
       0.00017016465 0.0005753303 -5.202573e-05 -0.000549556
000390 47 6a 8e 39 a6 60 6c 3a 93 53 b2 39 09 3d 5e ba
       0.00027163533 0.0009017087 0.00034013073 -0.0008477723
0003a0 c8 b1 13 b8 ad c9 60 b8 df 62 8f b9 d3 60 32 38
       -3.5213103e-05 -5.3593587e-05 -0.0002734875 4.252868e-05
0003b0 df d6 cb 39 05 78 be 3a fc e3 3d 3a 0b 01 b2 ba
       0.0003887927 0.0014531618 0.000724375 -0.0013580633
0003c0 ce 8b cf b8 f6 9a b0 b9 64 4d ca b9 cd 73 a1 39
       -9.89657e-05 -0.0003368479 -0.00038586103 0.0003079459
0003d0 a3 fa 50 3a 61 10 30 3b 13 41 a3 3a c8 e8 24 bb
       0.0007971918 0.0026865231 0.0012455307 -0.0025163162
0003e0 2d 44 be b8 eb af af b9 7f 97 09 ba ab 4f 9e 39
       -9.072605e-05 -0.0003350967 -0.000524871 0.00030195466
0003f0 4a 5d fa 37 ef af a5 38 22 d6 54 38 1c a5 99 b8
       2.9845763e-05 7.900583e-05 5.0744165e-05 -7.3263625e-05
