distributed_shared/worker_logs/worker_3/models/model_episode_120.pt (torch, 816870 bytes, 16 tensors)

0.weight f4 [256, 4]
0	0xbeee9451	-0.4659753
1	0xbe21e6ef	-0.1581075
2	0x3d578f3c	0.052626833
3	0x3cb4782f	0.022029964
4	0xbef9b27b	-0.48768982
5	0x3e9ef0e6	0.31043166
6	0x3dbd9b3b	0.092581235
7	0x3ee8d882	0.45477682
8	0xbeb165c2	-0.34647948
9	0xbe78602d	-0.24255438
10	0x3e8abb8f	0.2709622
11	0x3ece030b	0.40236697
12	0xbe6e5093	-0.23272924
13	0xbe6916dd	-0.22762628
14	0x3dad555f	0.08463549
15	0x3ecea036	0.40356606
16	0xbe100c2a	-0.1406714
17	0xbefbd910	-0.49189043
18	0x3f09f0ea	0.5388323
19	0x3d8ba94a	0.06819399
20	0x3efc4448	0.49270844
21	0x3ed7357b	0.4203299
22	0xbea5f814	-0.3241583
23	0x3e00acae	0.12565872
24	0x3ec92d30	0.39292288
25	0xbe7f7e23	-0.24950461
26	0x3e19a18d	0.15003033
27	0xbe1643e5	-0.14674337
28	0x3d9a1738	0.0752396
29	0x3ee74dc5	0.4517652
30	0x3d8d1781	0.06889249
31	0xbee18e10	-0.44053698
32	0xbebc8b41	-0.36824992
33	0x3b05448b	0.0020335044
34	0xbde8ec67	-0.11373215
35	0xbe7ba21c	-0.24573559
36	0x3e14ce65	0.14531858
37	0xbea7faf5	-0.32808653
38	0xbece92b1	-0.40346292
39	0x3d5711bf	0.05250716
40	0x3ecb3f19	0.39696577
41	0xbde412a9	-0.11136372
42	0x3edfc029	0.43701294
43	0xbe3c6ff4	-0.18402082
44	0x3ea89609	0.32926968
45	0x3e2a00b6	0.16601834
46	0xbe61824a	-0.22022358
47	0x3e97f524	0.29679215
48	0x3e377c4a	0.17918506
49	0x3e90b749	0.28264835
50	0xbee08c53	-0.4385706
51	0x3e814b89	0.2525294
52	0x3ea660c0	0.3249569
53	0xbda845cd	-0.082164384
54	0x3ed9ccc2	0.4253903
55	0x3db705a1	0.089366205
56	0xbd05ef7d	-0.032699097
57	0xbd45ebf8	-0.04832074
58	0xbeb4e9fa	-0.3533476
59	0x3d9d98ab	0.07695135
60	0x3ebfa374	0.37429392
61	0xbe8af061	-0.2713652
62	0x3ee97406	0.4559633
63	0xbeed04d2	-0.4629274
64	0xbd7a2024	-0.061065808
65	0x3e8aa45c	0.2707852
66	0xbeb4f5e3	-0.35343847
67	0xbe25b5fc	-0.16182703
68	0x3cd2fb98	0.025754735
69	0x3de62ede	0.11239408
70	0xbeca4bfb	-0.39511093
71	0xbe219661	-0.15780021
72	0xbeea12a8	-0.4571736
73	0x3e3abf98	0.1823715
74	0xbee6d65d	-0.4508542
75	0xbeafdb9d	-0.3434724
76	0x3ea2bbc9	0.31783894
77	0xbe9acdfc	-0.3023528
78	0x3eb05cf5	0.3444592
79	0xbec60eff	-0.38683316
80	0xbee5d1eb	-0.44886717
81	0xbedb2ba7	-0.42806742
82	0x3e89f190	0.2694211
83	0x3e0de293	0.13855962
84	0xbe83fee9	-0.2578042
85	0xbd5d2d74	-0.053998426
86	0x3e666377	0.2249888
87	0x3dc37ca9	0.095452614
88	0x3ee0ea26	0.4392864
89	0xbe3a3b65	-0.1818672
90	0x3ee55da3	0.44798002
91	0xbd8f7c61	-0.07006145
92	0x3e81d232	0.2535568
93	0x3e49e658	0.19716775
94	0x3ef38aa4	0.47566712
95	0xbe5e3260	-0.21698904
96	0x3ebcceee	0.36876625
97	0x3e9e2421	0.3088694
98	0x3e769a81	0.24082376
99	0xbe8ab5ba	-0.2709177
100	0xbebf9cc4	-0.3742429
101	0xbe9fc356	-0.31203717
102	0x3e459111	0.1929362
103	0x3ee281f0	0.4423976
104	0x3e5beb32	0.21476439
105	0x3eddbe52	0.43309265
106	0x3eecdb07	0.46260855
107	0x3eecef3d	0.46276274
108	0xbe84bbeb	-0.2592462
109	0xbba74697	-0.0051048505
110	0xbebfe69a	-0.37480623
111	0xbe5e801f	-0.21728562
112	0xbeba7a4c	-0.3642143
113	0xbef0cd95	-0.47031847
114	0x39596a10	0.00020734244
115	0xbd6d5f82	-0.05795241
116	0xbb4d0192	-0.0031281454
117	0xbee2878a	-0.44244033
118	0xbea3c39c	-0.31985176
119	0xbe2c39c7	-0.16818915
120	0xbd8df216	-0.0693094
121	0xbd3d46ff	-0.046210285
122	0xbece2ca2	-0.40268427
123	0x3ec4afb4	0.384153
124	0xbec70c51	-0.38876584
125	0x3ee671f5	0.45008817
126	0x3e20df05	0.15710075
127	0xbe0b52e2	-0.13605836
128	0x3ef017f2	0.4689327
129	0x3c952645	0.018206725
130	0xbcf7750e	-0.030207183
131	0x3e719431	0.23591687
132	0xbebbcce8	-0.3667977
133	0xbe145a3a	-0.14487544
134	0xbea0e5ce	-0.31425327
135	0x3e5519d7	0.20810638
136	0x3d8d99a5	0.06914071
137	0x3ef26cda	0.47348672
138	0xbe90a384	-0.28249753
139	0xbed16915	-0.40900484
140	0xbee82f3d	-0.4534854
141	0xbc9962a0	-0.018723786
142	0x3e7182e6	0.2358509
143	0x3ea5eacc	0.32405698
144	0x3e4505b5	0.19240458
145	0xbcb6a23b	-0.022294154
146	0xbe595798	-0.2122482
147	0xbde69003	-0.11257937
148	0x3e9f2d50	0.31089258
149	0xbe9a37dc	-0.30120742
150	0xbebd915c	-0.37024963
151	0xbe3c390f	-0.18381141
152	0x3e23887c	0.15970033
153	0xbeb76ef4	-0.35826838
154	0xbdb89f9f	-0.0901482
155	0x3eaad3b8	0.33364654
156	0x3ecd9457	0.40152237
157	0x3e78ae8c	0.24285334
158	0x3de1c1cd	0.11023293
159	0x3dc2ced2	0.09512104
160	0x3eb93fe6	0.36181563
161	0x3ed2e325	0.41188923
162	0x3eeb514d	0.45960465
163	0xbec59a3f	-0.38594243
164	0xbc6e19f4	-0.014532555
165	0xbed5b52e	-0.41739792
166	0xbe09691a	-0.13419
167	0xbea81918	-0.32831645
168	0x3d1c3c06	0.03814318
169	0x3e4527b7	0.19253431
170	0x3ed71a5f	0.42012307
171	0x3e960e19	0.2930763
172	0x3ed1997a	0.40937406
173	0xbd41dd95	-0.047330458
174	0xbea1b030	-0.31579733
175	0x3c46d0ac	0.012134712
176	0x3d194b0e	0.037425093
177	0x3ec4ec6d	0.3846163
178	0xbeb4c6fd	-0.35308066
179	0xbede6bf3	-0.43441734
180	0xbe027437	-0.12739645
181	0x3e8beccb	0.27329096
182	0xbe50d7f7	-0.20394884
183	0x3e034bab	0.12821834
184	0xbd84153f	-0.06449365
185	0x3ecab777	0.39593098
186	0x3e63c4e7	0.22243081
187	0xbee44a87	-0.4458811
188	0x3ead8f56	0.3389842
189	0xbe2b01a1	-0.1669984
190	0x3e529970	0.20566344
191	0xbe7bf3b2	-0.24604681
192	0xbeee9922	-0.46601206
193	0xbd2461c0	-0.040132284
194	0x3e0cd91b	0.13754694
195	0xbda888a5	-0.08229188
196	0xbda3d5da	-0.07999773
197	0xbeb7c478	-0.3589208
198	0xbe8b3b14	-0.2719351
199	0xbd0e5d01	-0.034756664
200	0x3dff71cd	0.12472878
201	0x3e8d5341	0.2760258
202	0x3e6fde41	0.23424627
203	0x3eeee2c3	0.4665738
204	0x3ee49680	0.44646072
205	0x3e82be5c	0.25535858
206	0xbf0a5979	-0.54042774
207	0xbe398e69	-0.18120731
208	0x3e7afb76	0.24509987
209	0xbbbb66eb	-0.005719056
210	0xbecd378f	-0.4008145
211	0xbdbf5098	-0.09341544
212	0xbda1029a	-0.07861824
213	0xbd8dab75	-0.069174685
214	0xbe6b7706	-0.22994623
215	0xbc3a50b0	-0.011371776
216	0xbe71333c	-0.235547
217	0x3db77779	0.089583345
218	0x3e581a8d	0.21103878
219	0x3ee50d52	0.44736725
220	0x3dabad6a	0.083826855
221	0xbe375b97	-0.17906033
222	0x3ef3d429	0.47622803
223	0x3f04a369	0.51811844
224	0x3e1dccf4	0.15410215
225	0xbed87d68	-0.42283177
226	0xbd32068e	-0.043463282
227	0xbecc1477	-0.39859363
228	0x3e997f03	0.29979715
229	0xbe4bcb0d	-0.19901676
230	0x3ec50567	0.38480684
231	0x3e0e0b6f	0.13871549
232	0x3ea2ba9b	0.31782994
233	0x3b5c1548	0.003358202
234	0xbe7f8735	-0.24953921
235	0xbea4958e	-0.3214535
236	0x3e5bbec1	0.21459486
237	0xbeaf2a8c	-0.34212148
238	0x3e9ad510	0.3024068
239	0x3ef0bbc7	0.47018263
240	0x3ed26713	0.41094264
241	0xbeb1996f	-0.34687373
242	0x3e8f7196	0.28016347
243	0xbeb60548	-0.35550904
244	0xbe67c523	-0.22633795
245	0x3e815071	0.25256684
246	0xbf049b12	-0.5179912
247	0xbe8773bc	-0.26455486
248	0x3e868774	0.26275218
249	0x3dac28f4	0.08406249
250	0x39a21fdd	0.00030922788
251	0x3f03e3c3	0.5151941
252	0xbeb9889b	-0.36237034
253	0x3e149628	0.14510405
254	0xbde802b2	-0.11328639
255	0x3e7d946f	0.24763654

0.bias f4 [256]
0	0x3dd46f64	0.103728086
1	0x3d9ed585	0.07755569
2	0x3e3bb97c	0.18332475
3	0x3e24c113	0.16089277
4	0x3e4a1c33	0.1973732
5	0xbe639984	-0.2222653
6	0x3df2a543	0.118479274
7	0xbe800474	-0.25003397
8	0xbe2239d4	-0.15842372
9	0x3bb16324	0.00541343
10	0xbe5d7aeb	-0.2162892
11	0xbd2c7c7b	-0.0421109
12	0xbe1a8831	-0.15091015
13	0xbd63b7a9	-0.055595074
14	0x3dd969d9	0.10615892
15	0x3c7090e8	0.014682986
16	0xbce63877	-0.028103096
17	0x3dd04ad2	0.10170521
18	0x3e677d1f	0.22606324
19	0x3e67295c	0.22574371
20	0xbdb447f6	-0.08802788
21	0xbd70495b	-0.058663707
22	0xbe43919f	-0.19098519
23	0x3d91711c	0.07101652
24	0x3dfc6d8e	0.123255834
25	0xbe077737	-0.1322907
26	0xbdb5330e	-0.088476285
27	0xbe4157b9	-0.1888112
28	0xbe1c068f	-0.15236877
29	0xbe43b391	-0.19111468
30	0xbde85093	-0.11343493
31	0x3bb5c8d8	0.005547624
32	0xbe65987e	-0.22421452
33	0xbe508313	-0.20362501
34	0x3e01b2ee	0.12665913
35	0x3d4ae25f	0.04953229
36	0xbe072e5a	-0.13201275
37	0x3d956369	0.072943516
38	0x3e69fb45	0.22849758
39	0xbe781606	-0.24227151
40	0x3e0699da	0.13144627
41	0x3ddd6d8c	0.1081191
42	0xbe011ab2	-0.1260784
43	0x3e22f06a	0.15912023
44	0xbc7a36ce	-0.0152718555
45	0xbde2bddd	-0.1107137
46	0x3e565576	0.20931038
47	0x3e48f1f6	0.19623551
48	0xbe37a983	-0.17935757
49	0xbd338838	-0.04383108
50	0xbc2fda6c	-0.010733228
51	0x3e2bc7cf	0.1677544
52	0xbe18b2c4	-0.14911944
53	0x3dd037d2	0.10166897
54	0x3e49e021	0.19714405
55	0xbe0502f7	-0.12989412
56	0xbc4fc6e5	-0.0126816975
57	0xbd7ba2d8	-0.061434597
58	0x3e4aef40	0.19817829
59	0xbe3882a1	-0.18018581
60	0xbdce179b	-0.10063096
61	0xbd9118d7	-0.07084816
62	0xbe5383f1	-0.206558
63	0x3e22aa6e	0.15885326
64	0x3e1d3fd8	0.15356386
65	0x3e49c24b	0.19703023
66	0x3e29643e	0.16542146
67	0x3dd6ceae	0.1048864
68	0xbe63ef96	-0.22259364
69	0x3e208674	0.1567629
70	0xbe35e022	-0.17761281
71	0xbd3ce139	-0.046113227
72	0xbe67ef4f	-0.22649883
73	0xbe4a3ca0	-0.19749689
74	0x3d8903ef	0.066902034
75	0x3e61d4d4	0.22053844
76	0x3dec067f	0.115246765
77	0xbe2884bb	-0.16456883
78	0x3e3219da	0.17392674
79	0x3d1ad46d	0.03780024
80	0x3e4eda47	0.20200454
81	0x3d976f18	0.07394236
82	0xbe52894f	-0.20560192
83	0xbd218722	-0.039435513
84	0xbdfbfb9f	-0.12303852
85	0x3e6d1fa9	0.23156609
86	0x3e6b99fe	0.23007962
87	0xbe40bb46	-0.18821439
88	0xbd4551af	-0.048173603
89	0xbd2520e0	-0.040314555
90	0xbe714dff	-0.2356491
91	0x3d3e07f5	0.046394307
92	0xbe02819f	-0.12744759
93	0x3d47b577	0.048757043
94	0xbbb56183	-0.005535306
95	0xbca34a86	-0.019932996
96	0x3dc90b1a	0.098165706
97	0xbe45457e	-0.1926479
98	0x3ca4951c	0.020090632
99	0x3ddb9f7f	0.10723781
100	0xbc9e6081	-0.019333126
101	0xbe303050	-0.1720593
102	0xbe58931c	-0.21149868
103	0x3e17419b	0.1477112
104	0x3e2f71af	0.1713321
105	0x3e3a0e9d	0.18169637
106	0xbdd567af	-0.10420167
107	0x3ca3bc72	0.019987319
108	0x3e0f806d	0.14013834
109	0x3cc92401	0.0245533
110	0x3e6944f1	0.22780205
111	0xbe1347a2	-0.14382794
112	0xbe3467af	-0.17617677
113	0x3daa8558	0.083262146
114	0x3daf7d59	0.0856883
115	0xbe413196	-0.18866572
116	0x3dffe059	0.12493963
117	0xbe0cc129	-0.1374556
118	0x3db0c25a	0.086308196
119	0xbe270d1f	-0.16313599
120	0xbd1fa603	-0.03897668
121	0xbe3a4c8b	-0.18193261
122	0x3dd46043	0.10369923
123	0xbe004683	-0.12526898
124	0xbe0fbdf3	-0.14037304
125	0x3e451baa	0.19248834
126	0xbd81a178	-0.06329626
127	0x3e64e1b2	0.22351721
128	0x3d8ce0a4	0.06878784
129	0xbe3ae7c0	-0.18252468
130	0xbe768406	-0.240738
131	0xbd31949d	-0.04335462
132	0x3e53cfcb	0.20684735
133	0xbe305cdb	-0.17222922
134	0xbe5bcf40	-0.21465778
135	0xbe118340	-0.14210224
136	0x3e2f6b08	0.17130673
137	0x3db2de97	0.08733862
138	0xbddb7508	-0.10715681
139	0x3cfade4b	0.030623576
140	0xbd4bbe44	-0.049742
141	0x3c728923	0.014803204
142	0xbd0aa4a2	-0.033848412
143	0xbd7fe537	-0.062474456
144	0xbe40a152	-0.18811539
145	0xbe4a652d	-0.19765158
146	0xbe5c89d1	-0.21536948
147	0xbe3f606e	-0.18689129
148	0x3e25f913	0.16208296
149	0x3e4151b5	0.18878825
150	0x3dca0f9d	0.09866259
151	0x3e290a6a	0.16507879
152	0xbe0e8212	-0.13916805
153	0xbe2eb53c	-0.17061323
154	0x3e40640b	0.18788163
155	0xbe5863c0	-0.21131802
156	0x3e184d30	0.14873195
157	0xbc2abf8a	-0.010421643
158	0xba30fc1a	-0.0006751433
159	0xbd775cac	-0.060391113
160	0x3e597bee	0.21238682
161	0xbe3907ed	-0.1806943
162	0xbe34f865	-0.1767288
163	0x3e1f8a46	0.15580091
164	0x3e3a3cb4	0.18187219
165	0x3e5d2f3f	0.21600054
166	0x3e45ba2c	0.193093
167	0xbe695b5d	-0.22788759
168	0xbccb60d2	-0.024826441
169	0xbe3d5288	-0.18488514
170	0x3780020d	1.5259744e-05
171	0x3da5c92d	0.08095012
172	0x3dd9ac77	0.10628598
173	0xbe182cc8	-0.14860833
174	0xbbc87297	-0.006117176
175	0xbdce8087	-0.100831084
176	0x3b4537a5	0.0030092981
177	0xbdbf49eb	-0.093402706
178	0x3e54de3c	0.207879
179	0x3d41b06d	0.047287393
180	0xbdfaa231	-0.12237967
181	0x3e1f39d3	0.15549402
182	0xbe579eeb	-0.21056716
183	0xbdc514cc	-0.09623107
184	0x3d63a75c	0.05557953
185	0x3e180c9f	0.14848565
186	0xbd69ffc8	-0.057128698
187	0xbe368d6f	-0.1782739
188	0xbda61dbb	-0.081111394
189	0xbe3ede66	-0.18639526
190	0x3dbe2580	0.09284496
191	0xbe2e01fd	-0.16992946
192	0x3dfb1060	0.12258983
193	0xbd61937b	-0.05507229
194	0xbdd890fc	-0.105745286
195	0x3e390273	0.1806734
196	0xbe36bb3d	-0.17844863
197	0x3ddfa1ba	0.10919519
198	0x3d43c64c	0.047796533
199	0x3e5a6fff	0.21331786
200	0xbe460084	-0.19336134
201	0x3e5781f7	0.21045671
202	0x3b8ac921	0.004235402
203	0xbda03f93	-0.07824626
204	0x3d8349e6	0.064105794
205	0xbe6c0420	-0.23048449
206	0x3dfe42bd	0.12415073
207	0xbd3925c7	-0.045202043
208	0x3d924482	0.07141973
209	0x3d9e1cef	0.077203624
210	0x3e184c6b	0.14872901
211	0xbe0253b8	-0.12727249
212	0xbd114e32	-0.035474963
213	0xbe1aeb3c	-0.15128797
214	0x3d722ccb	0.05912475
215	0xbdc1f3ef	-0.09470355
216	0x3db4090e	0.087907895
217	0xbd1b5817	-0.037925806
218	0x3d5eeb21	0.054423455
219	0xbe014924	-0.12625557
220	0x3df79f12	0.12090887
221	0x3e773a38	0.24143302
222	0x3d853a76	0.06505291
223	0x3e3dd48b	0.1853811
224	0x3e719a0d	0.23593922
225	0xbddb1647	-0.106976084
226	0x3c93457f	0.017977474
227	0x3d2f43f3	0.04278941
228	0xbd15b0eb	-0.036545675
229	0x3d7fe644	0.062475458
230	0xbe2791e4	-0.16364247
231	0x3d8ee473	0.06977167
232	0x3e1d84f9	0.15382756
233	0x3cdd6df7	0.027029974
234	0x3e627810	0.22116113
235	0x3d563e30	0.0523054
236	0xbe6a1b66	-0.22862014
237	0x3d63deac	0.05563228
238	0x3d3b0519	0.04565916
239	0x3ddd6793	0.10810771
240	0x3dda519c	0.10660097
241	0x3e380c29	0.17973389
242	0x3d4b4c34	0.04963322
243	0xbe7f59a1	-0.24936534
244	0xbdac8468	-0.08423692
245	0xbe20de1e	-0.15709731
246	0x3e333497	0.1750053
247	0x3df9ba8b	0.121937834
248	0xbcbb5a03	-0.02287007
249	0xbe594c3a	-0.21220484
250	0xbd307afd	-0.04308604
251	0x3e349e39	0.17638482
252	0xbd0fa45b	-0.03506885
253	0xbe1391c3	-0.14411072
254	0x3dfab0bf	0.12240743
255	0xbc9fdefb	-0.019515505

2.weight f4 [256, 256]
0	0x3d3cce27	0.04609504
1	0x3d74050d	0.05957513
2	0x3d34944a	0.044086732
3	0xbc48d9f5	-0.012258996
4	0xbc3301f9	-0.010925763
5	0xbd4039f6	-0.046930276
6	0x3d344d3d	0.044018973
7	0x3d347ea8	0.0440661
8	0x398cc28e	0.00026847835
9	0xbc383e5c	-0.011245336
10	0xbd01b882	-0.0316701
11	0x3d32c8bd	0.04364847
12	0xbd4852bb	-0.048907023
13	0x3d57b250	0.052660286
14	0xbd4a20cf	-0.049347695
15	0xbd2fa8eb	-0.042885702
16	0xbd33fab2	-0.043940254
17	0x3d45b388	0.048266917
18	0x3b23aa25	0.002497324
19	0x3cc69373	0.024240231
20	0x3d285663	0.04109801
21	0x3c001047	0.007816381
22	0xbbc94e98	-0.0061434023
23	0xbcef12f0	-0.029183835
24	0x3c7f0dd6	0.015567264
25	0x3d2718aa	0.040795006
26	0x3cc3adda	0.02388661
27	0x3b5883b3	0.0033037483
28	0x3c3db7ba	0.011579448
29	0xbd901351	-0.07034934
30	0x3d57caf2	0.052683778
31	0x3b216ec6	0.0024632677
32	0x3d1a2964	0.03763713
33	0xbd13fdc4	-0.03613068
34	0xbc2f2de0	-0.01069209
35	0xbd742b4c	-0.059611604
36	0x3d051477	0.03249022
37	0x3d6f8729	0.05847851
38	0x3d2a5f71	0.041594926
39	0x3d3a9190	0.045548975
40	0x3c41dd22	0.011832507
41	0x3cf7ab25	0.030232975
42	0x3cfb4e82	0.030677084
43	0x3d692693	0.056921553
44	0xbd5e1d99	-0.054227445
45	0xbcef5bc4	-0.029218562
46	0x3c97c795	0.018527785
47	0xbd16e286	-0.036837123
48	0x3c70037d	0.014649269
49	0xbd074f2e	-0.033034496
50	0xbc32073d	-0.010865984
51	0x3cdc866b	0.026919564
52	0xbcb6f756	-0.022334736
53	0x3c73f68e	0.014890326
54	0xbd57d294	-0.052691057
55	0x3cecfc34	0.028928854
56	0xbd8498a4	-0.064744264
57	0x3ca414f5	0.020029524
58	0x3d8ad187	0.067782454
59	0x3d1f606f	0.038910326
60	0xbd965dc5	-0.07342104
61	0xbc7b396c	-0.015333515
62	0x3c52cb32	0.012865828
63	0xbd8ec7c2	-0.069716945
64	0xbd527cf0	-0.05138868
65	0xbbf5a579	-0.0074965325
66	0x3d467a6f	0.048456606
67	0xba9c217f	-0.0011911838
68	0x3d3101e5	0.043214697
69	0x3c9b1b93	0.018934047
70	0xbc2e9629	-0.010655918
71	0xbd3675e8	-0.044546038
72	0x3d023171	0.031785432
73	0xbc49d754	-0.012319405
74	0x3d3638b1	0.04448766
75	0xbba17ca6	-0.0049281893
76	0x3cd625bf	0.026141046
77	0x3cd2dce3	0.025740093
78	0x3d3b96bd	0.045798052
79	0x3d05501a	0.032547094
80	0x3ce6fca1	0.028196635
81	0x3c74bbe3	0.014937374
82	0xbb90465f	-0.00440292
83	0x3c928d01	0.017889502
84	0x3d4b3242	0.049608476
85	0xbd0dee14	-0.034650877
86	0x3d24c702	0.04022885
87	0x3b817b7f	0.0039514895
88	0xbd340134	-0.04394646
89	0x3d08b093	0.03337152
90	0x3d374e78	0.044752568
91	0xbd8a228c	-0.067448705
92	0xbb2418c2	-0.002503917
93	0x3d3b3f0a	0.045714416
94	0x3d2877e3	0.041129958
95	0x3d20500a	0.03913883
96	0x3cbea69b	0.023272803
97	0xbbf53f75	-0.0074843713
98	0x3d85f8b5	0.06541578
99	0xbd330261	-0.04370344
100	0xbd0c0688	-0.034185916
101	0xbc988ee3	-0.018622821
102	0x3ceabb23	0.028653687
103	0xbd23678a	-0.039893664
104	0xbced8cca	-0.028997798
105	0x3b4c4374	0.0031168135
106	0xbd73c6b4	-0.05951567
107	0xbd8ad37e	-0.0677862
108	0x3cbecf97	0.023292346
109	0x3ca50491	0.020143779
110	0xbc684285	-0.014176016
111	0x3c7f6b9d	0.015589622
112	0x3d050517	0.032475557
113	0x3d93537e	0.07193659
114	0xbd1cf695	-0.038321096
115	0x3d816314	0.06317726
116	0x3d530624	0.051519528
117	0x3d6e5492	0.05818612
118	0xbd4f9d9a	-0.05068741
119	0x3ca79d13	0.020460641
120	0xbc9a143b	-0.018808475
121	0xbd262909	-0.040566478
122	0xbce5c819	-0.028049516
123	0x3d1a8d83	0.037732612
124	0xbd4f4154	-0.05059941
125	0x3c4cb9ee	0.012495501
126	0xbd26d28b	-0.040728133
127	0x3d5adbb9	0.0534322
128	0xbbe25fec	-0.0069084074
129	0x3d379d9b	0.04482804
130	0xbc8b7e5f	-0.017028032
131	0xbd3c3342	-0.04594732
132	0xbcff5a6b	-0.031171044
133	0xbd8b8f80	-0.0681448
134	0xbd26468a	-0.040594615
135	0x3cf42dee	0.029807057
136	0xbd106840	-0.03525567
137	0xbc976c33	-0.01848421
138	0x3b0552c6	0.0020343526
139	0x3d5b4d54	0.053540543
140	0xbd4d6f26	-0.050154828
141	0x3d0d4e54	0.034498528
142	0x3c2a658e	0.010400189
143	0x3d4b5a97	0.04964694
144	0xbd2acd08	-0.04169944
145	0x3ae9ff1e	0.001785252
146	0xbb94f692	-0.004545995
147	0xba809a16	-0.0009811546
148	0xbcfe78d7	-0.03106348
149	0xbd17390a	-0.03691963
150	0xbd2db85f	-0.042412158
151	0x3d288c86	0.04114964
152	0xbd0319c8	-0.03200701
153	0xbcb6a6b7	-0.022296293
154	0x3c0b9d3f	0.008521377
155	0xbd224bf4	-0.039623216
156	0xbc8fd784	-0.01755882
157	0x3d27a0a8	0.040924698
158	0xbc663270	-0.014050111
159	0xbc102bad	-0.008799476
160	0x3d13de45	0.036100645
161	0xbcdc7c85	-0.026914844
162	0xbd012689	-0.03153089
163	0xbcc8a407	-0.024492277
164	0xbd18a59a	-0.037267305
165	0xbcb6a782	-0.02229667
166	0xbc81e5ee	-0.01585671
167	0x3d31a6e0	0.043372035
168	0x3d36d143	0.04463316
169	0xbc462ee5	-0.012096141
170	0xbc296e3e	-0.010341225
171	0xbd04d4ab	-0.03242938
172	0x3d561cee	0.052273683
173	0x3d0bc4b7	0.03412315
174	0xbba643f3	-0.005074018
175	0x3d8e0f39	0.06936497
176	0xbd808dc6	-0.06277041
177	0x3c914e91	0.017737659
178	0xbd608316	-0.054812513
179	0x3c0e57d4	0.008687932
180	0xbb4f2263	-0.003160619
181	0xbc42dfde	-0.011894194
182	0x3ca33161	0.019921007
183	0x3c2fcf4e	0.010730578
184	0xbc90db27	-0.017682625
185	0x3cf0368b	0.029322883
186	0x3bd5a1ba	0.0065195234
187	0x3cdd2e4f	0.02699962
188	0x3d63d8db	0.05562673
189	0x3d053910	0.032525122
190	0xbd811a7a	-0.06303878
191	0xbb0365a4	-0.0020049596
192	0x3d24cbb1	0.040233318
193	0xbd02ac4d	-0.0319026
194	0xbcbbcc05	-0.022924433
195	0xbd0d1e4f	-0.034452733
196	0x3c0f3ad7	0.008742056
197	0x3c08bd0d	0.0083458545
198	0xbd6565f0	-0.05600542
199	0x3d5cbf70	0.053893507
200	0x3b81a46b	0.0039563677
201	0xbd6aee3f	-0.057356115
202	0xbd591d20	-0.05300629
203	0xbc445844	-0.011983935
204	0xbd4e996a	-0.050439276
205	0xbd5f2b53	-0.054484677
206	0xbc74c70d	-0.0149400355
207	0x3d0c36c5	0.03423192
208	0x3d215f62	0.039397605
209	0xbc8545f5	-0.01626871
210	0x3d34c267	0.04413071
211	0xbd129298	-0.035784334
212	0xbcfa4863	-0.030552095
213	0x3ba8afd7	0.005147915
214	0x3d440241	0.047853712
215	0x3d17b52d	0.037038017
216	0x3cbdefdb	0.023185661
217	0xbd47374e	-0.048636727
218	0xbd106a32	-0.035257526
219	0x3cc90090	0.024536401
220	0x3d80b67a	0.06284805
221	0x3d225c55	0.039638836
222	0x3ac6dfa5	0.0015172852
223	0xbc1d75bd	-0.0096105905
224	0x3d155cf9	0.03646562
225	0x3c9e6fd9	0.019340442
226	0xbd350737	-0.044196334
227	0xbcfb278b	-0.030658504
228	0x3d920dd6	0.07131545
229	0xbd78ee94	-0.0607744
230	0xbd729eda	-0.059233524
231	0x3af19f9f	0.0018434412
232	0x3c894626	0.016757082
233	0xbb4c1f83	-0.0031146712
234	0xbc03bfd0	-0.008041337
235	0x3ae20b0f	0.0017245727
236	0x3cf3273e	0.029681798
237	0x3b704a56	0.0036665401
238	0x3bbb2189	0.005710785
239	0x3c99637d	0.018724198
240	0x3c50c0ef	0.012741311
241	0x3d1ea49e	0.03873121
242	0x3d9c0b0d	0.07619295
243	0x3d0637d8	0.0327681
244	0x3d18b934	0.037286
245	0x3ce7b10d	0.028282667
246	0xbc1db18f	-0.009624853
247	0xbca64c40	-0.02030003
248	0x3c8b569e	0.017009076
249	0xbd486ab0	-0.04892987
250	0xbbb85ce8	-0.0056263097
251	0xbcf0d157	-0.029396696
252	0xba913a6a	-0.0011080031
253	0x3d77318a	0.06034998
254	0x3c3fcae4	0.011706088
255	0x3d3332f2	0.043749757

2.bias f4 [256]
0	0xbd5bfadd	-0.05370604
1	0x3cfbd5e5	0.030741641
2	0x3bf4e24f	0.007473267
3	0xbdaa4674	-0.08314219
4	0xbd2a83fd	-0.04162978
5	0xbc0b7ded	-0.00851391
6	0x3c889d12	0.01667646
7	0x3b29641d	0.0025847026
8	0xbd800509	-0.062509604
9	0xbd16f591	-0.036855284
10	0x3cffd8bc	0.031231277
11	0xbd5dab22	-0.054118283
12	0x3ca2be99	0.019866275
13	0xbd19f1f4	-0.03758426
14	0x3cfa14d1	0.030527504
15	0xbd49f4f7	-0.049305882
16	0xbcd4042b	-0.025880894
17	0xbd916054	-0.07098451
18	0x3a7b96af	0.0009597344
19	0x3c8a3004	0.016868599
20	0x3d48ed5a	0.04905448
21	0x3d562f0c	0.05229096
22	0x3d53e94f	0.051736172
23	0xbc391327	-0.01129607
24	0xbd3a5ffb	-0.04550169
25	0xbc3d8bff	-0.011569022
26	0xbd108fae	-0.035293274
27	0x3c21ce66	0.009875869
28	0xbce23815	-0.027614633
29	0xbc9a979d	-0.018871123
30	0xbcf7a890	-0.030231744
31	0x3d0dbb32	0.03460235
32	0x3cb5103d	0.02210247
33	0x3d33d3da	0.04390321
34	0xbd151a4c	-0.03640203
35	0x3cb46b9c	0.022023968
36	0x3d0a41a0	0.03375399
37	0x3d2d7ca4	0.042355195
38	0xbd6ec3bd	-0.05829214
39	0x3d2b4c56	0.041820846
40	0x3c798130	0.015228555
41	0xbd4cba18	-0.04998216
42	0x3d81106a	0.06301959
43	0x3ca23735	0.019801715
44	0x3d71bb5b	0.059016567
45	0x3d04973a	0.032370783
46	0x3d781045	0.06056239
47	0x3ccecf03	0.025245195
48	0xbd0f505f	-0.034988757
49	0xbd1047a0	-0.035224557
50	0x3d3a9d23	0.045560014
51	0xbd70767e	-0.058706753
52	0x3bea2763	0.0071458085
53	0xbd7aad97	-0.061200704
54	0x3d09b1e7	0.033616927
55	0xbd2567c5	-0.040382165
56	0x3d8c62ab	0.06854757
57	0xbca98554	-0.020693459
58	0xbd1597ab	-0.036521595
59	0x3cb56683	0.022143608
60	0x3d04c360	0.032412887
61	0x3d2c7d40	0.042111635
62	0x3d2bef28	0.041976124
63	0xbd6aaaba	-0.057291724
64	0x3ce54bef	0.02799031
65	0x3d059794	0.03261526
66	0xbc2ba8f5	-0.010477294
67	0x3cd62081	0.026138546
68	0x3d5e9846	0.054344438
69	0x3d2a983d	0.041649092
70	0x3d97fbbd	0.07421062
71	0xbd49c836	-0.0492632
72	0xbcef4640	-0.029208302
73	0x3d2867d0	0.04111463
74	0xbd0e4e7e	-0.034742825
75	0x3d2f9f7a	0.042876698
76	0xbd436ad6	-0.04770931
77	0x3c7071bc	0.014675554
78	0x3d47ff76	0.04882761
79	0x3c952203	0.018204695
80	0xbd01941d	-0.031635392
81	0x3bc7cfe1	0.006097779
82	0x3d3d5f9c	0.04623376
83	0x3d886ccf	0.066613786
84	0xbd0e9011	-0.03480536
85	0xbb345301	-0.0027515294
86	0x3d0b19d4	0.03396018
87	0x3ca55391	0.02018145
88	0x3d3a3856	0.045463882
89	0xb7b2525f	-2.125761e-05
90	0xbcfbfb4b	-0.030759474
91	0xbccbd5ec	-0.02488228
92	0xbd126f80	-0.035750866
93	0xbd3e3ee2	-0.04644669
94	0xbaf839bf	-0.0018938108
95	0x3ac7748f	0.0015217232
96	0x3c99bf41	0.018767955
97	0x3d858e23	0.06521251
98	0x3c046398	0.008080386
99	0x3d09defc	0.03365992
100	0x3c1a8bf5	0.009432782
101	0x3cf75320	0.030191004
102	0xbc45f1ec	-0.012081604
103	0xbd8901ae	-0.066897735
104	0x3d15b2b6	0.036547385
105	0xbd62f740	-0.055411577
106	0x3d3c8292	0.04602296
107	0x3bd52fa8	0.006505925
108	0x3d4f1909	0.050560985
109	0x3c188710	0.009309545
110	0x3d74e672	0.059790082
111	0xbc92e79b	-0.017932704
112	0xbd2a67e2	-0.041602977
113	0x3ce4d4e0	0.027933538
114	0xbd2ba61f	-0.041906472
115	0x37ad9a8a	2.069517e-05
116	0xbd16e678	-0.036840886
117	0xbcee6305	-0.02909995
118	0x3d270d5f	0.040784236
119	0x3d030ed9	0.03199658
120	0x3c55ff03	0.013061288
121	0x3d0d2a4f	0.034464177
122	0xbd2cce24	-0.04218878
123	0xbd071d8a	-0.032987155
124	0x3b2779d0	0.0025554784
125	0xbd815bd0	-0.0631634
126	0x3d0d887e	0.034553997
127	0xbb4825f7	-0.0030540207
128	0x3d09d2d3	0.033648323
129	0xbd55133a	-0.05202029
130	0x3d5e83b5	0.054324824
131	0xbc151ae7	-0.009100652
132	0xbcd853f2	-0.026407216
133	0xbc878515	-0.01654295
134	0xbd245538	-0.040120333
135	0x3cb4e0a7	0.022079779
136	0xbb4b3a22	-0.0031009992
137	0xbd21435f	-0.03937089
138	0x3c5d46f9	0.013505691
139	0xbd273689	-0.040823493
140	0x3d540ecc	0.051771924
141	0xbd605c90	-0.054775774
142	0x3c16ef8d	0.009212387
143	0x3c8406cd	0.016116524
144	0x3c7e81a9	0.015533843
145	0xbcd87748	-0.026424065
146	0xbcb4f209	-0.022088068
147	0xbd3b07f6	-0.04566189
148	0x3bc5d637	0.0060374993
149	0xbcdc8a09	-0.026921289
150	0x3c42e46c	0.01189528
151	0xbcda0ec8	-0.026618376
152	0x3d061d3c	0.032742724
153	0x3d262981	0.040566925
154	0x3cddc727	0.027072502
155	0xbd147fc2	-0.03625465
156	0xbc85f1be	-0.016350623
157	0x3d76693d	0.060158957
158	0xbd5d7331	-0.054064933
159	0x3d7ec43b	0.06219886
160	0xbd2c78e3	-0.042107474
161	0x3cb23afb	0.02175664
162	0x3d295fcd	0.04135113
163	0xbd2b96d5	-0.04189189
164	0xbd0587b6	-0.032600127
165	0x3c22da46	0.009939736
166	0x3cd0efd8	0.025504991
167	0xbd0eda8d	-0.034876395
168	0xba880b27	-0.00103793
169	0xbcc0ae83	-0.023520714
170	0xbc9dbbfd	-0.019254679
171	0x3cdc0e45	0.026862273
172	0x3c3de54f	0.011590316
173	0x3c60711a	0.0136988405
174	0x3cb119e3	0.021618789
175	0x3d22d063	0.039749514
176	0x3d97f7c9	0.07420308
177	0x3d77bb40	0.06048131
178	0xbcb4b901	-0.022060873
179	0xbd6c944d	-0.05775862
180	0x3c95b931	0.018276783
181	0x3d2d3b74	0.042293027
182	0x3c1f071c	0.009706285
183	0x3b26e0f2	0.0025463668
184	0x3d2f6f44	0.04283072
185	0x3d014193	0.031556677
186	0x3bf2fbf7	0.0074152905
187	0xbc9d154f	-0.0191752
188	0x3d291958	0.041283935
189	0xbd83966a	-0.064251736
190	0x3d65c00c	0.056091353
191	0xbcd217ad	-0.025646055
192	0xbc418a4c	-0.011812758
193	0x3cd87472	0.026422713
194	0x3d675e0e	0.056486182
195	0xbd0e255d	-0.0347036
196	0xbd9447dd	-0.07240269
197	0xbd03d7a3	-0.03218807
198	0xbd2a8333	-0.041629028
199	0x3cee14de	0.029062685
200	0x3a1daf9c	0.00060152425
201	0x3cccf35a	0.025018383
202	0x3c80e0e6	0.01573224
203	0xbc8a2a02	-0.016865734
204	0xbbff9793	-0.0078000515
205	0xbd9af0e3	-0.07565477
206	0x3c678e2c	0.0141330175
207	0x3c81a4ef	0.015825717
208	0x3cc43bda	0.02395432
209	0x3bbd406d	0.0057755024
210	0x3c6e9f6d	0.014564377
211	0x3d6f7d7b	0.058469277
212	0x3c4e8a58	0.012606226
213	0x3c1048b2	0.008806394
214	0xbd4b0567	-0.0495657
215	0x3d8af7ad	0.06785522
216	0x3bed2e16	0.00723816
217	0xb9b3b2fe	-0.000342749
218	0xbce1836a	-0.027528483
219	0xbc6cd242	-0.014454426
220	0xbcee62ef	-0.02909991
221	0xbd10952b	-0.035298508
222	0x3ce5264b	0.027972361
223	0x3b3d95db	0.0028928432
224	0x3d6ad4cd	0.05733185
225	0x3d23fe77	0.0400376
226	0xbc24a4fb	-0.0100491
227	0x3d15e289	0.036592994
228	0x3d8b6351	0.068060525
229	0x3d4a5c1c	0.04940425
230	0xbb43485b	-0.0029797766
231	0xbcc302bf	-0.02380502
232	0x3a911594	0.0011069053
233	0xbd81c6e3	-0.06336763
234	0x3d6e3292	0.058153696
235	0xbc544b40	-0.012957394
236	0xbd1f096b	-0.03882734
237	0xbd93ce6a	-0.07217105
238	0xbc9ab36e	-0.018884387
239	0x3cbef974	0.023312308
240	0x3d376107	0.044770267
241	0xbbd2e8bf	-0.006436437
242	0xbcc15725	-0.023601124
243	0x3d0b3439	0.03398535
244	0xbd612937	-0.054970946
245	0x3d5f938b	0.054584067
246	0x3d5d8f62	0.05409182
247	0xbcda9a4e	-0.026684906
248	0x3c7b53a0	0.015339762
249	0x3d06e5c8	0.03293398
250	0x3c10cbb4	0.008837629
251	0xbc11a1c5	-0.0088886665
252	0x3d51b7cd	0.051200677
253	0x3c684f8a	0.01417912
254	0x3c8ff143	0.017571097
255	0x3d3cea8e	0.046122126

4.weight f4 [2, 256]
0	0x3d031629	0.032003555
1	0x3d2c4c74	0.0420651
2	0x3d16ea3b	0.036844473
3	0x3d5b1654	0.05348809
4	0xbd495c58	-0.04916033
5	0xbceabf78	-0.028655753
6	0x3cb82ce1	0.022482337
7	0xbd66201e	-0.056182973
8	0xbd7ba218	-0.06143388
9	0xbc8c8d93	-0.017157352
10	0xbd3259bc	-0.04354261
11	0xbd2c3ee4	-0.042052165
12	0xba5fe3fa	-0.0008540746
13	0x3c27ff30	0.010253713
14	0x3c778386	0.015107041
15	0xbbd40093	-0.006469795
16	0x3d8de853	0.06929078
17	0xbcef1fc2	-0.029189948
18	0xbbe1b257	-0.006887715
19	0xbc598ffa	-0.013278956
20	0xbbc4441f	-0.005989566
21	0x3d4c54d9	0.049885605
22	0xbd81fb91	-0.063468106
23	0x3d017e8e	0.031614833
24	0x3d0e26d9	0.034705017
25	0x3d6c1421	0.057636384
26	0xbc05132c	-0.008122247
27	0x3c89384d	0.01675048
28	0xbd177c78	-0.036983937
29	0xbd44129d	-0.047869314
30	0xbd0420d4	-0.03225787
31	0x3ce585b6	0.02801786
32	0x3b0cfe75	0.0021513973
33	0xbc89c651	-0.016818197
34	0x3c5e757c	0.013577815
35	0x3ab865bc	0.0014068405
36	0xbd658f72	-0.056045003
37	0xbd839741	-0.06425334
38	0xbd2ad84d	-0.041710187
39	0xbd4bd33b	-0.049761992
40	0xbc754a62	-0.0149713475
41	0xbd0f2958	-0.034951538
42	0x3c7a9a63	0.015295598
43	0xbd1c3dbe	-0.03814482
44	0x3d2dd685	0.04244091
45	0xbbe3dd38	-0.0069538616
46	0x3d580150	0.052735627
47	0xbb430e82	-0.0029763286
48	0x3d41e2bf	0.047335383
49	0xbc199701	-0.009374381
50	0x3c8b4fea	0.01700588
51	0x3d048cfa	0.03236101
52	0xbce176bf	-0.027522443
53	0x3a2d3145	0.0006606768
54	0x3d1bac5e	0.03800618
55	0xbc88dd70	-0.016707152
56	0xbd5e7569	-0.05431119
57	0x3cad9245	0.02118791
58	0xbd4f67f9	-0.050636265
59	0x3d764618	0.06012544
60	0xbd31b795	-0.043387968
61	0xbda6cc5b	-0.081444465
62	0x3d7b2b72	0.06132073
63	0xbd5c115c	-0.053727493
64	0xbad24225	-0.0016041441
65	0xbd6aa055	-0.05728181
66	0xbd951ba5	-0.072806634
67	0xbd04fd85	-0.032468338
68	0xb9298f1f	-0.00016170413
69	0x3d278eff	0.040907856
70	0xbc1b3a2d	-0.009474319
71	0x3c9d4d03	0.019201761
72	0xbd37264a	-0.04471425
73	0x3d22cdef	0.039747175
74	0xbd3e0789	-0.046393905
75	0x3cd5af7d	0.026084656
76	0x3b577aff	0.0032879708
77	0xbd5f5b33	-0.054530334
78	0x3b1a035a	0.0023500533
79	0x3c1024b0	0.0087978095
80	0x3c9b94e5	0.018991897
81	0xbd0209a9	-0.031747494
82	0xbc03b48a	-0.008038649
83	0x3c4cb9a8	0.012495436
84	0x3c82746f	0.01592466
85	0xbcf96321	-0.030442776
86	0x3d145cd8	0.036221355
87	0x3ce34ae7	0.027745677
88	0x3d15257a	0.036412694
89	0xbd0e5e13	-0.034757685
90	0xbc927801	-0.017879488
91	0xbd26e7c8	-0.040748388
92	0xbcdabb8b	-0.026700756
93	0x3c74a6d1	0.01493235
94	0xbcd13bde	-0.025541242
95	0x3d57e626	0.05270972
96	0x3cf2b789	0.029628532
97	0xbd0d7bf3	-0.034542035
98	0xbd3beda7	-0.04588094
99	0x3d7d8496	0.061894022
100	0x3b5dc8f8	0.003384171
101	0xbd1e5b55	-0.03866132
102	0x3c968f08	0.01837875
103	0xbc9ac614	-0.01889328
104	0x3d3b82b1	0.045778934
105	0x3d3f2c67	0.046673205
106	0x3b2d878b	0.0026478495
107	0x3bf96ce0	0.007611856
108	0x3c5cdc71	0.013480292
109	0x3ce20596	0.027590554
110	0xbd890068	-0.066895306
111	0x3d0636b4	0.032767013
112	0x3cb4797d	0.022030586
113	0xbce31af2	-0.02772281
114	0xbcc696a6	-0.024241757
115	0xbb231711	-0.0024885575
116	0xbcb7084b	-0.022342822
117	0x3d22cc49	0.039745603
118	0x3d486134	0.048920825
119	0xbd654c8d	-0.055981208
120	0xbd036925	-0.032082696
121	0xbc7fb483	-0.015607002
122	0xbca6f6be	-0.020381328
123	0x3d5a4465	0.053287882
124	0xbd373cee	-0.04473584
125	0x3d6fbcbd	0.058529604
126	0xbd3cc106	-0.04608252
127	0x3bdf2f5a	0.0068110647
128	0x3d30d54c	0.043172166
129	0x3bc6aad1	0.0060628434
130	0x3d40f4a5	0.04710831
131	0x3d901cbb	0.0703673
132	0x3a5090d7	0.0007956153
133	0xbd3ee7cd	-0.04660778
134	0x3aa81d27	0.0012826071
135	0x3cf567c9	0.029956715
136	0x3d69ac51	0.0570491
137	0xbbb489fb	-0.0055096126
138	0x3c8a574f	0.016887335
139	0xbcf723af	-0.030168382
140	0x3d0799aa	0.03310553
141	0xb8816a26	-6.170971e-05
142	0xbc1707b6	-0.009218147
143	0xbce95ea2	-0.028487507
144	0xbd6f7ccf	-0.058468636
145	0xbd98d9f8	-0.07463449
146	0xbd8a50be	-0.067536816
147	0x3d3e734b	0.04649667
148	0xbc46ec62	-0.012141319
149	0x3d9134b0	0.070901275
150	0x3d28dd46	0.041226648
151	0x3c17196c	0.00922237
152	0x3cdfcef9	0.027320372
153	0xbd6ab300	-0.057299614
154	0xbcf500fe	-0.0299077
155	0xb9217878	-0.00015399035
156	0x3ccbd688	0.02488257
157	0xbd0d9709	-0.034567866
158	0x3cf6fb72	0.030149195
159	0xbcdf7dd7	-0.027281685
160	0xbd15ac42	-0.03654123
161	0x3cad4923	0.021153038
162	0xbd56329d	-0.052294362
163	0xbc95c690	-0.018283159
164	0xbc95680a	-0.018238086
165	0x3ca90b64	0.020635314
166	0xbd06c6da	-0.032904483
167	0xbce5b2e1	-0.028039398
168	0x3d7129ed	0.058877874
169	0xbcf86afa	-0.030324448
170	0xbbf61f97	-0.00751109
171	0x3d87539b	0.06607743
172	0xbd2a3c9e	-0.041561715
173	0xbd65a8cc	-0.05606918
174	0xbd5f2e91	-0.05448777
175	0x3cd45d20	0.025923312
176	0xbd291080	-0.0412755
177	0xbd746177	-0.059663262
178	0xbcda3283	-0.026635414
179	0x3ce56ac1	0.028005006
180	0x3d056fb4	0.03257723
181	0xbd5e72b7	-0.05430862
182	0xbc723525	-0.014783178
183	0xbc2a0c53	-0.010378915
184	0xbd68d13a	-0.05684016
185	0x3d150042	0.0363772
186	0x3c84915d	0.016182596
187	0x3d4231fd	0.047410954
188	0x3d80db43	0.06291821
189	0xbca1dbd7	-0.019758148
190	0xbce3bb73	-0.027799344
191	0xbcfed896	-0.031109136
192	0xbc7145fc	-0.014726158
193	0xbc93015c	-0.017944984
194	0xbb867cb4	-0.0041042212
195	0x3bcfba70	0.0063393638
196	0x3c93b426	0.018030237
197	0x3b974755	0.0046166577
198	0x3cd00e69	0.025397496
199	0x3cdd19f2	0.02698991
200	0x3cf38d78	0.029730543
201	0xbcf47091	-0.029838832
202	0x3d099f84	0.03359939
203	0xbc53fd64	-0.012938831
204	0x3c088a08	0.00833369
205	0x3cc75617	0.024333043
206	0xbb80db1c	-0.00393237
207	0x3cf1f258	0.029534504
208	0xbcaa3c04	-0.02078057
209	0x3d095792	0.03353078
210	0x3c8bfab2	0.017087314
211	0xbd36199d	-0.04445802
212	0x3d17f5fb	0.03709982
213	0x3c881cf6	0.016615372
214	0x3d99c3d1	0.07508052
215	0x3c9960bd	0.018722886
216	0xbd4a3e40	-0.049375772
217	0x3ca00808	0.01953508
218	0x3d1ea8b8	0.03873512
219	0xbd16db16	-0.03683003
220	0x3c981087	0.018562568
221	0xbc944570	-0.018099517
222	0x3d6ea09f	0.05825865
223	0xbd0f22d1	-0.034945313
224	0xbcfa0e55	-0.030524412
225	0xbd3124a7	-0.043247845
226	0xbd2c5f7b	-0.042083245
227	0xbcdfc973	-0.027317738
228	0xbd41de1f	-0.04733097
229	0x3d2bc9c3	0.04194046
230	0x3d14595b	0.03621803
231	0x3d106a73	0.035257768
232	0x3dadf627	0.084942155
233	0x3c5dffa1	0.013549716
234	0xbd820bdc	-0.06349918
235	0x3d360ecb	0.0444477
236	0x3cd9e31c	0.026597552
237	0x3d13b1d6	0.03605827
238	0xbcbf810b	-0.023376962
239	0xbc2a476d	-0.010393006
240	0xbc45ef09	-0.012080916
241	0xbc226eb7	-0.009914092
242	0xbcd4930f	-0.02594903
243	0xbc164734	-0.00917225
244	0xbd50019e	-0.050782792
245	0xbd25cd31	-0.04047889
246	0xbca8a0f4	-0.02058456
247	0xbc5c281f	-0.0134373
248	0x3d44cfda	0.048049785
249	0xbdb65ca0	-0.089043856
250	0xbda28c35	-0.079368986
251	0xbcb96d1d	-0.022635037
252	0xbc86cc1a	-0.016454745
253	0xbc8a56e6	-0.01688714
254	0x3b84c39d	0.004051639
255	0xbc966da0	-0.01836282

4.bias f4 [2]
0	0xbcb534cb	-0.0221199
1	0x3cc61513	0.02417997

exp_avg f4 [256, 4]
0	0xbc29fefb	-0.0103757335
1	0xbb9a12ec	-0.0047019627
2	0x3a8787a3	0.0010340106
3	0x3b377a3c	0.0027996441
4	0xbaefeef8	-0.0018305471
5	0xbaf91188	-0.0019002417
6	0xbb13b72b	-0.0022539597
7	0xb996df8f	-0.00028776794
8	0xbc77150f	-0.015080704
9	0xbbed56b3	-0.0072430014
10	0x3a2f12ee	0.0006678541
11	0x3b77eb1b	0.0037829343
12	0x38d87f4a	0.00010323392
13	0xba844b27	-0.0010093198
14	0xbaa28370	-0.001239879
15	0xb7aa098c	-2.0270025e-05
16	0x3aec6f9d	0.0018038634
17	0x3b0d5fd9	0.0021572022
18	0x3b4cb10c	0.0031233458
19	0x3a33154c	0.00068314816
20	0x3c9830ee	0.018578019
21	0x3bf03ed5	0.007331709
22	0xbae640bc	-0.00175669
23	0xbb885ed3	-0.0041616946
24	0xbbc457e5	-0.005991923
25	0xbb214ad8	-0.002461126
26	0x39fdf738	0.00048440113
27	0x3ac16e6b	0.0014757639
28	0xbc33da4a	-0.010977337
29	0xbbbc3142	-0.0057431767
30	0xba8a6bfd	-0.0010560747
31	0x3b0ee3ba	0.0021803216
32	0x3c0ff431	0.008786247
33	0x3b83f9c8	0.004027579
34	0xbbc7c151	-0.006096043
35	0xbbd1fde5	-0.0064084404
36	0xbb8ef3ec	-0.004362574
37	0xbc090d7a	-0.0083650295
38	0xbc587bb8	-0.013213091
39	0xbb21e106	-0.0024700775
40	0xbaf4a4b9	-0.0018664814
41	0xbaae406b	-0.0013294345
42	0xb96cf938	-0.00022599555
43	0x3a56a652	0.0008188236
44	0x3bc714b2	0.006075465
45	0xb75860cc	-1.2897141e-05
46	0xbbf942db	-0.0076068467
47	0xbb8a6d1a	-0.0042244317
48	0x394809a0	0.00019077072
49	0x3a814aac	0.0009864173
50	0xba182f1e	-0.0005805361
51	0xbaaed634	-0.0013338984
52	0x3c586045	0.013206546
53	0x3bb87e71	0.0056303074
54	0xba939d0e	-0.0011262016
55	0xbb550ee1	-0.003251009
56	0x3b3c3767	0.0028719546
57	0x3aeaed75	0.0017923551
58	0x3b02f191	0.001998041
59	0x39bc0820	0.00035864208
60	0x3b997671	0.004683309
61	0x3b8c691e	0.004284992
62	0x3ba5a3bf	0.0050549204
63	0x3a25f4bf	0.00063307205
64	0x39814ea8	0.000246634
65	0xbb6d0bc8	-0.0036170352
66	0xbc3b647c	-0.011437532
67	0xbba1dd62	-0.004939721
68	0xbcb8a563	-0.0225398
69	0xbc03c90a	-0.008043537
70	0x3bddf0e4	0.006773101
71	0x3bf937e1	0.0076055382
72	0x3b2d8637	0.0026477703
73	0x3b3831b7	0.0028105804
74	0x3b2e1dc6	0.002656804
75	0xb9b65a15	-0.00034780861
76	0x3b387bdc	0.0028149998
77	0x3a8c5397	0.0010706064
78	0xb9b2d1f4	-0.00034107233
79	0xba542c69	-0.0008093776
80	0xba5c3478	-0.00084001524
81	0xbb1c68f0	-0.0023866259
82	0xbb53e10a	-0.0032330179
83	0xb94b33ef	-0.00019378935
84	0xb9fc7259	-0.0004815038
85	0x38b7e7a4	8.7692664e-05
86	0x3ac000e1	0.00146487
87	0x3a6533ec	0.00087433937
88	0xba227ce3	-0.0006198419
89	0xb94c7c73	-0.00019501317
90	0xb98a6c0a	-0.00026401907
91	0xb933a35d	-0.00017131628
92	0x3c369b7a	0.011145467
93	0x3baea044	0.0053291637
94	0xba310762	-0.0006753114
95	0xbb45af19	-0.003016418
96	0x3bd0d3aa	0.0063728886
97	0xb93c646b	-0.00017966486
98	0xbba4f7dd	-0.0050344304
99	0xbb31c76b	-0.002712692
100	0xbb94df20	-0.0045432
101	0xbb47afaa	-0.0030469694
102	0xbb780a9c	-0.003784812
103	0xba5567f1	-0.00081407937
104	0x39a81bb8	0.0003206411
105	0x3a1b2b88	0.00059192674
106	0x395de917	0.00021163035
107	0xb9e236e5	-0.0004314698
108	0xbc81a722	-0.015826765
109	0xbbe62598	-0.0070235245
110	0x3af62470	0.001877917
111	0x3b94d2a9	0.004541714
112	0xbade5fb1	-0.0016965774
113	0xba58663b	-0.00082549796
114	0xba6a90ac	-0.00089479494
115	0xb995ecaf	-0.00028595838
116	0xbc1b3d0a	-0.009475002
117	0xbbcae9fe	-0.006192445
118	0xbbdfed97	-0.006833743
119	0xba80c196	-0.0009823318
120	0x3d054b4d	0.032542516
121	0x3c5ce6d1	0.013482765
122	0xbc029c7f	-0.007971882
123	0xbc3a2bd3	-0.011362988
124	0x3b374312	0.002796356
125	0x3b329b82	0.0027253334
126	0x3b1fee33	0.0024403452
127	0xb992951f	-0.00027958394
128	0xbc8eb305	-0.017419348
129	0xbbd85110	-0.0066014603
130	0x3baa9927	0.0052062455
131	0x3bca37d2	0.006171205
132	0xbb0a4670	-0.0021099113
133	0xba6179ad	-0.00086012
134	0xbaa61130	-0.0012669917
135	0xba3063ab	-0.0006728719
136	0xbacb76f5	-0.0015523123
137	0xba847b6f	-0.0010107587
138	0x39db4c24	0.00041827664
139	0x3a81782a	0.0009877731
140	0xbc7a3d73	-0.01527344
141	0xbc525bfb	-0.012839313
142	0xbc52d4cd	-0.0128681185
143	0x37ab6cfb	2.0435536e-05
144	0x3a891fb7	0.0010461722
145	0x3aee4fda	0.0018181757
146	0x3ba23342	0.004949958
147	0x3b0d04c3	0.002151773
148	0xb7cec4d5	-2.464877e-05
149	0x3a01c8ec	0.0004950899
150	0x3ad4a0f4	0.0016222284
151	0x3a30fec2	0.0006751829
152	0x38939f72	7.039205e-05
153	0x3a02ee06	0.00049945747
154	0x39a550ef	0.00031531553
155	0xb94a8336	-0.00019313101
156	0x3b8f8a22	0.0043804804
157	0x3b04b1f0	0.002024766
158	0x39b0fd83	0.00033758217
159	0xba1fb71c	-0.0006092654
160	0xb95ec43f	-0.00021244677
161	0xb95f08d9	-0.00021270233
162	0xbb17e571	-0.002317753
163	0xbad18a05	-0.0015986568
164	0xbb88ffc5	-0.0041808807
165	0xbb94da91	-0.0045426567
166	0xbb9daf22	-0.004812137
167	0xb833b9f4	-4.2850108e-05
168	0xb8c434b6	-9.3558265e-05
169	0x3a3c1275	0.0007174381
170	0x3ac5196d	0.0015037485
171	0x39a1d4ff	0.00030867007
172	0xbb886a5c	-0.0041630697
173	0xbb69b3ab	-0.003566007
174	0xba221726	-0.0006183259
175	0x3ae4c181	0.0017452688
176	0x3c084df8	0.00831937
177	0x3b63ca5d	0.003475807
178	0xbaddbd5d	-0.0016917397
179	0xbb324f63	-0.0027207963
180	0xba3f25da	-0.0007291712
181	0xba1d3ddd	-0.0005998293
182	0xba161c1f	-0.0005726236
183	0xb8a2fd6c	-7.7719655e-05
184	0xbb7069e5	-0.0036684212
185	0xba308fdd	-0.00067353045
186	0x3b43e678	0.0029892009
187	0x3b07966e	0.0020689028
188	0xbc9ebb45	-0.019376406
189	0xbc0458e6	-0.008077836
190	0x3bd88b13	0.006608376
191	0x3c0aaab1	0.008463548
192	0xbbb15dfa	-0.005412814
193	0xbc12e34a	-0.008965323
194	0xbc6a3aa4	-0.014296208
195	0xbb463618	-0.0030244645
196	0xbba97ad1	-0.0051721116
197	0xba8ad134	-0.0010590912
198	0x3af07007	0.0018343934
199	0x3ac23b79	0.001481875
200	0x3ca0f2ef	0.01964709
201	0x3bc95282	0.006143869
202	0xbbf243e9	-0.0073933494
203	0xbbeb6316	-0.007183443
204	0x3a8c43de	0.0010701378
205	0x3af14fd5	0.0018410633
206	0x3b10d398	0.0022098776
207	0x385f4642	5.3232776e-05
208	0xbc4acb5f	-0.012377589
209	0xbc00ada4	-0.007853899
210	0xba2771c5	-0.00063874974
211	0x3b88a6fb	0.0041702962
212	0x3b82f6cf	0.003996707
213	0xba8d36f5	-0.0010773825
214	0xbba18b7e	-0.004929959
215	0xbae84d87	-0.00177233
216	0xbaa69934	-0.0012710453
217	0x39535688	0.00020154763
218	0x3ade6439	0.0016967125
219	0x3a6618d8	0.0008777506
220	0x3ccb9045	0.024849067
221	0x3c2ce7af	0.010553285
222	0xbb4f6eea	-0.0031651803
223	0xbbdc9371	-0.0067314436
224	0xba159e1d	-0.00057074596
225	0xba7fe438	-0.0009761485
226	0xbadaafe0	-0.0016684495
227	0xba08e8b0	-0.00052226614
228	0xbb5a7120	-0.0033331588
229	0xbb814f47	-0.003946218
230	0xbb8b2517	-0.004246365
231	0xb8d5ae7a	-0.0001018913
232	0xbaca15dc	-0.0015417892
233	0xba2b8e37	-0.0006544324
234	0x3a4a5d99	0.00077196356
235	0x3a6fdf9c	0.0009150447
236	0x3af8389c	0.0018937769
237	0x3b01c6ce	0.0019802335
238	0x3b15de4c	0.0022868095
239	0x39a02647	0.00030546097
240	0x3acdd695	0.0015704209
241	0xb99315dc	-0.0002805431
242	0xba23e487	-0.000625201
243	0xb8ede624	-0.00011343908
244	0x3b5711f1	0.003281709
245	0x3ab086bc	0.0013467888
246	0xb9b069a2	-0.00033648039
247	0xba269951	-0.00063552434
248	0xbb831c5a	-0.0040011825
249	0x39bdad3e	0.00036177965
250	0x3b48a6e0	0.0030617043
251	0x3ada600b	0.0016660703
252	0xbc4116ec	-0.01178525
253	0xbc1818fd	-0.009283301
254	0xbc170c51	-0.009219245
255	0xb942c7a1	-0.0001857565

exp_avg_sq f4 [256, 4]
0	0x39e83994	0.00044293387
1	0x38183ce3	3.629633e-05
2	0x3852bc26	5.024313e-05
3	0x3748902e	1.1954498e-05
4	0x3812ee79	3.5031208e-05
5	0x36bcd2b8	5.6273675e-06
6	0x3703c808	7.854782e-06
7	0x36af9773	5.2330374e-06
8	0x39c52a5a	0.00037606322
9	0x381bfe30	3.719161e-05
10	0x382c28dd	4.1046053e-05
11	0x37875782	1.6134003e-05
12	0x39d1bb61	0.00040003195
13	0x38312048	4.2230153e-05
14	0x38764af5	5.872078e-05
15	0x375320c4	1.2584209e-05
16	0x37f54cb3	2.9241992e-05
17	0x37004b35	7.646905e-06
18	0x3731aba3	1.0589984e-05
19	0x36e98023	6.958858e-06
20	0x392768f9	0.00015965466
21	0x38003bf1	3.0573403e-05
22	0x38215729	3.8466565e-05
23	0x37212f05	9.607295e-06
24	0x390085d3	0.00012256885
25	0x37acb527	2.0588353e-05
26	0x37bcbce4	2.2499305e-05
27	0x3691625d	4.3327877e-06
28	0x3a82cd1b	0.0009979339
29	0x38243c81	3.9156996e-05
30	0x38274645	3.9881346e-05
31	0x37c0b907	2.2974344e-05
32	0x3b9cee0b	0.004789119
33	0x39265cef	0.00015865614
34	0x38d377e5	0.00010083596
35	0x37a32efe	1.9452997e-05
36	0x39b4e768	0.00034504686
37	0x3816e2c7	3.597399e-05
38	0x380d7a0e	3.3730692e-05
39	0x36c468d7	5.85346e-06
40	0x3a120070	0.0005569523
41	0x38009db9	3.066447e-05
42	0x37cc4119	2.4349009e-05
43	0x374d5bb3	1.2240303e-05
44	0x39a98b5f	0.0003233803
45	0x37d846a3	2.57821e-05
46	0x3781c74b	1.5470801e-05
47	0x3697b2b5	4.520955e-06
48	0x3a75a413	0.0009370457
49	0x3875bd37	5.8588772e-05
50	0x38b63464	8.688195e-05
51	0x381b8c34	3.7085454e-05
52	0x398b6353	0.00026586148
53	0x38053d09	3.1766514e-05
54	0x37a43791	1.9576199e-05
55	0x3772d13c	1.447304e-05
56	0x38e949e9	0.000111240726
57	0x370184de	7.719935e-06
58	0x365340ad	3.1479096e-06
59	0x3612c6a8	2.1871328e-06
60	0x3880141b	6.1072606e-05
61	0x375e6469	1.325561e-05
62	0x37cf9599	2.4745985e-05
63	0x36909c55	4.309734e-06
64	0x3a992d51	0.0011686479
65	0x38aec050	8.3327875e-05
66	0x38f9154c	0.00011877212
67	0x3780576f	1.5299504e-05
68	0x3b10ea30	0.0022112243
69	0x38c19072	9.229862e-05
70	0x3851a069	4.9978877e-05
71	0x37947182	1.7695831e-05
72	0x37dc5dc1	2.6269701e-05
73	0x378bf7cd	1.6685482e-05
74	0x388085fd	6.128473e-05
75	0x369c2f8b	4.654697e-06
76	0x3874ac01	5.8334324e-05
77	0x36c7b386	5.9515614e-06
78	0x36696de9	3.4783682e-06
79	0x35e2d283	1.6899579e-06
80	0x37bc2629	2.2429116e-05
81	0x36bb2fba	5.5785904e-06
82	0x37768b2f	1.4695149e-05
83	0x35fef310	1.8995215e-06
84	0x387f4d58	6.086877e-05
85	0x3792b4c2	1.7488728e-05
86	0x388adfda	6.6220484e-05
87	0x36e54c5e	6.833622e-06
88	0x389dda33	7.526986e-05
89	0x36df703c	6.6589837e-06
90	0x36d33ceb	6.295382e-06
91	0x35e954ed	1.738457e-06
92	0x3aa0f3cb	0.0012279687
93	0x383c1878	4.484548e-05
94	0x38356dec	4.3256136e-05
95	0x37b8b1ef	2.2017366e-05
96	0x3906d72d	0.00012859395
97	0x37c0afbe	2.297002e-05
98	0x379f0217	1.895525e-05
99	0x3688dd08	4.0788473e-06
100	0x3849b4c3	4.8090482e-05
101	0x37bb4e6a	2.2328652e-05
102	0x38a68e9d	7.9420606e-05
103	0x3690fd59	4.321028e-06
104	0x39e36248	0.0004337004
105	0x3819803f	3.659748e-05
106	0x38a1174c	7.6814176e-05
107	0x37aed1db	2.0840138e-05
108	0x3a1aa1b3	0.0005898729
109	0x387e5059	6.063315e-05
110	0x38b0bab6	8.4271116e-05
111	0x3795981e	1.783302e-05
112	0x379799ca	1.8072216e-05
113	0x3711cbd6	8.690133e-06
114	0x373edbf8	1.1376098e-05
115	0x372be447	1.0245544e-05
116	0x37d31d5b	2.516683e-05
117	0x36c96c92	6.002906e-06
118	0x37b383c6	2.1399825e-05
119	0x36302d76	2.6252505e-06
120	0x3bb25cff	0.005443215
121	0x395f2953	0.00021282332
122	0x39010ad9	0.0001230644
123	0x381ae729	3.6931746e-05
124	0x3752aee8	1.2557699e-05
125	0x36ef29a8	7.1276045e-06
126	0x3766c1d7	1.37542e-05
127	0x370335cf	7.820737e-06
128	0x3b2edec1	0.0026683065
129	0x39462013	0.000188947
130	0x393646b1	0.00017383207
131	0x37e54feb	2.7336142e-05
132	0x392a7d4c	0.0001625914
133	0x3711c4b5	8.688473e-06
134	0x3784aaeb	1.5815216e-05
135	0x37137312	8.788675e-06
136	0x39a74338	0.00031902804
137	0x3808516b	3.2500753e-05
138	0x38394028	4.4167187e-05
139	0x37cfc075	2.4765943e-05
140	0x397015c1	0.00022896288
141	0x38120880	3.481703e-05
142	0x38452177	4.6999627e-05
143	0x372cc1c5	1.0297114e-05
144	0x38ef8b47	0.000114223505
145	0x37615720	1.343133e-05
146	0x37813554	1.5402831e-05
147	0x36c1c396	5.7746174e-06
148	0x37492747	1.1989679e-05
149	0x368a40a9	4.120248e-06
150	0x36d1830e	6.243942e-06
151	0x36835ef6	3.915159e-06
152	0x36b2cf7b	5.3289673e-06
153	0x367351f6	3.625753e-06
154	0x36b2b22d	5.325556e-06
155	0x36827296	3.8876415e-06
156	0x390209f5	0.00012401475
157	0x379beae5	1.8586821e-05
158	0x37b07459	2.1035014e-05
159	0x379f2641	1.897209e-05
160	0x3958eba2	0.00020687145
161	0x3785ebb9	1.5964602e-05
162	0x371f2288	9.485178e-06
163	0x366c026b	3.5168148e-06
164	0x3811d9c6	3.477351e-05
165	0x378e1aea	1.6940252e-05
166	0x38810089	6.151299e-05
167	0x3667ba4c	3.4530121e-06
168	0x39efd04c	0.00045740826
169	0x37b270fc	2.1271866e-05
170	0x38097325	3.2770582e-05
171	0x37b1ce01	2.1195972e-05
172	0x3a41f1c0	0.0007398389
173	0x382061c0	3.823801e-05
174	0x3807b2b8	3.2352953e-05
175	0x37b4216f	2.147324e-05
176	0x39a5475b	0.00031524416
177	0x3836eff9	4.3615673e-05
178	0x384dae0f	4.9037913e-05
179	0x378399ea	1.5688089e-05
180	0x3704a2f3	7.905753e-06
181	0x3642f086	2.9048256e-06
182	0x369859e7	4.540419e-06
183	0x36785952	3.700687e-06
184	0x3919cff6	0.00014668689
185	0x375490bc	1.2669883e-05
186	0x37026fa5	7.774598e-06
187	0x36176742	2.2560857e-06
188	0x3bd5311c	0.0065060984
189	0x397e88ca	0.00024274286
190	0x39197869	0.00014636073
191	0x37f211ec	2.8856994e-05
192	0x39dd6d56	0.00042233866
193	0x3822a814	3.8780345e-05
194	0x3821eb46	3.8604507e-05
195	0x3720e0be	9.58907e-06
196	0x38036919	3.1330714e-05
197	0x3714ccf8	8.86921e-06
198	0x38145149	3.5361652e-05
199	0x367ca92d	3.76494e-06
200	0x3a4791fd	0.00076130015
201	0x388f7838	6.841164e-05
202	0x38239027	3.899648e-05
203	0x374e066d	1.2280053e-05
204	0x39396c1a	0.00017683246
205	0x373a1ac9	1.10927e-05
206	0x381b961d	3.7094684e-05
207	0x36c9cd1f	6.014146e-06
208	0x3aee63cc	0.0018187701
209	0x38babb47	8.904054e-05
210	0x38a539c1	7.8785706e-05
211	0x381321e3	3.507909e-05
212	0x37a0218b	1.9089106e-05
213	0x36fb2900	7.485156e-06
214	0x37695f5f	1.3910088e-05
215	0x3642f2a6	2.9049493e-06
216	0x393c0268	0.00017929974
217	0x37c57764	2.3539826e-05
218	0x38ad431d	8.261784e-05
219	0x36b6cc0d	5.4477773e-06
220	0x3a8e7cd0	0.0010870937
221	0x38b7f3ca	8.771529e-05
222	0x38ba5075	8.8841574e-05
223	0x3789fe82	1.6450187e-05
224	0x37a4047d	1.9552414e-05
225	0x368da708	4.2215725e-06
226	0x3680f3a9	3.843063e-06
227	0x36701fb7	3.5781247e-06
228	0x379bc2ef	1.8568213e-05
229	0x3720bd3a	9.580801e-06
230	0x3728636f	1.00367315e-05
231	0x37153b60	8.894916e-06
232	0x3757ac54	1.2855122e-05
233	0x362f5382	2.612564e-06
234	0x36b60892	5.4250204e-06
235	0x361497a9	2.2141996e-06
236	0x38438678	4.6616857e-05
237	0x377818b7	1.4787706e-05
238	0x3860f76c	5.363619e-05
239	0x36f66785	7.3434226e-06
240	0x39d91ee2	0.00041412475
241	0x3825ef9f	3.956223e-05
242	0x381891f2	3.6375546e-05
243	0x3725a265	9.872577e-06
244	0x3a324d19	0.00068016496
245	0x37ed56d2	2.829303e-05
246	0x3813a96f	3.520533e-05
247	0x37576053	1.2837426e-05
248	0x38ab251f	8.16083e-05
249	0x37b132c8	2.1123691e-05
250	0x379dc825	1.8809058e-05
251	0x373f611f	1.14071e-05
252	0x379b0a7b	1.848232e-05
253	0x36a0499d	4.7769413e-06
254	0x37043914	7.881103e-06
255	0x3635baec	2.7079905e-06
