distributed_shared/worker_logs/worker_9/models/model_episode_60.pt (torch, 816842 bytes, 16 tensors)

0.weight f4 [256, 4]
0	0xbecccf27	-0.40001795
1	0x3e875283	0.2643014
2	0xbeb647af	-0.35601565
3	0x3e8f583c	0.27997005
4	0xbec9d681	-0.39421466
5	0xbef519af	-0.47871158
6	0x3e33ce9c	0.17559284
7	0xbda30392	-0.07959665
8	0xbe14af52	-0.14520004
9	0xbcae6c74	-0.021291949
10	0x3ebad4fd	0.36490622
11	0xbe8073c7	-0.2508833
12	0xbcca5070	-0.024696559
13	0x3ef63993	0.480908
14	0x3edc270f	0.4299855
15	0xbdb9a7ba	-0.090651944
16	0xbed96578	-0.42460227
17	0x3ed32f97	0.41247246
18	0xbee54180	-0.44776535
19	0x3e32d714	0.17464858
20	0xbee21255	-0.4415461
21	0x3e9fbb6d	0.31197682
22	0x3e6a9db5	0.22911723
23	0xbe350cfd	-0.17680736
24	0xbd9f5322	-0.07779528
25	0xbe618542	-0.2202349
26	0xbd7c1d94	-0.061551645
27	0xbe8f681c	-0.28009117
28	0xbe659544	-0.22420222
29	0x3e73816c	0.2377984
30	0xbe21adda	-0.15788975
31	0xbefd6ca0	-0.49496937
32	0x3e9ffb1f	0.31246278
33	0xbe691e29	-0.22765411
34	0x3dfe4844	0.12416127
35	0xbe033726	-0.12814006
36	0xbebb3366	-0.3656265
37	0xbe0a93de	-0.1353297
38	0x3e779edf	0.24181698
39	0x3f079443	0.52960604
40	0xbe3b6da6	-0.18303546
41	0xbea71f6f	-0.3264117
42	0xbe537b72	-0.2065256
43	0x3eca6c43	0.39535722
44	0x3ed53253	0.41639957
45	0x3e5f5a66	0.21811828
46	0xbd57148c	-0.05250983
47	0xbea82543	-0.32840928
48	0x3ca63a54	0.020291485
49	0x3e910a43	0.28328142
50	0x3e798d94	0.24370414
51	0x3c2c7274	0.010525335
52	0xbc32fdcd	-0.010924769
53	0xbea84140	-0.32862282
54	0x3da5bf65	0.08093146
55	0xbdc54b9d	-0.09633563
56	0xbd2755b2	-0.04085321
57	0x3e4e2bd9	0.20133914
58	0xbe5000fe	-0.20312878
59	0xbee67baf	-0.45016238
60	0x3ece1f3d	0.40258208
61	0xbe0d8a7f	-0.13822363
62	0xbef1b20d	-0.47206154
63	0xbf027115	-0.509538
64	0x3e8ef9a6	0.27924842
65	0xbe2920bc	-0.16516393
66	0x3edd6447	0.43240568
67	0xbefcaaa4	-0.49348938
68	0x3edf4a7b	0.43611512
69	0xbee0336b	-0.4378923
70	0xbe104e24	-0.14092308
71	0xbecf21d1	-0.40455487
72	0xbd5cae3b	-0.053877097
73	0xbd135cf2	-0.03597731
74	0x3e853e1b	0.26023945
75	0xbe0bc95b	-0.1365103
76	0x3ec7e540	0.3904209
77	0x3f064207	0.524445
78	0xbe085ecc	-0.13317412
79	0xbe39650f	-0.18104957
80	0x3e0b6854	0.13614017
81	0x3e8ecb6a	0.27889568
82	0xbe599c78	-0.21251094
83	0xbf0995cc	-0.53744197
84	0x3ec6e695	0.38847795
85	0x3e9b2cf6	0.3030774
86	0x3df1bf39	0.11804051
87	0xbd99ebb5	-0.07515661
88	0x3e02c621	0.12770893
89	0xbde3cf23	-0.111234926
90	0x3d81b40d	0.0633317
91	0x3e8ae59e	0.2712831
92	0x3ed83aaa	0.42232257
93	0x3dada0a2	0.08477904
94	0xbeba4282	-0.36378866
95	0x3ede49a8	0.4341557
96	0xbede0ee4	-0.43370736
97	0xbed35c2f	-0.41281268
98	0x3e553f66	0.20824966
99	0xbe7d4ce3	-0.24736361
100	0xbddf0567	-0.10889702
101	0x3e6010e8	0.21881449
102	0xbe463b97	-0.19358669
103	0xbe08e9b1	-0.13370396
104	0x3cc2a011	0.023757966
105	0xbea8b1fc	-0.3294829
106	0x3e1d7d5b	0.1537985
107	0xbef67d8e	-0.48142666
108	0x3de6339b	0.11240312
109	0x3e544fa1	0.20733501
110	0xbe356602	-0.17714694
111	0xbe6a45db	-0.2287821
112	0x3eb37b2b	0.35054907
113	0xbec51a06	-0.38496417
114	0xbdb5a1a9	-0.08868725
115	0xbeaa9b8a	-0.33321792
116	0xbef41685	-0.4767343
117	0xbe81100d	-0.25207558
118	0xbe9311d3	-0.28724536
119	0xbece89ca	-0.403395
120	0xbdba428a	-0.090947226
121	0x3e97fdad	0.29685727
122	0x3ef9447a	0.48685056
123	0xbec9f39e	-0.39443678
124	0x3bfa4ddb	0.0076386756
125	0x3e0d7c10	0.13816857
126	0x3e1f0bd1	0.15531851
127	0x3e9d5383	0.30727777
128	0xbef1f74a	-0.4725898
129	0xbe6bfe61	-0.23046257
130	0x3e5048ff	0.20340346
131	0xbe904dfd	-0.281845
132	0xbd5a330e	-0.053271346
133	0x3e63c9de	0.22244975
134	0xbc872cc9	-0.016500847
135	0x3e8007f1	0.2500606
136	0x3dbc645b	0.09198829
137	0xbed5b624	-0.41740525
138	0xbe0b483a	-0.13601771
139	0x3ee0a821	0.43878272
140	0x3eb500fd	0.35352316
141	0x3d8f9f27	0.07012778
142	0xbea82dda	-0.32847482
143	0xbe829a29	-0.2550824
144	0x3d5decc2	0.054180868
145	0x3ed52d3d	0.41636077
146	0x3ec785f8	0.38969398
147	0xbefd75d0	-0.49503946
148	0xbe9eb39e	-0.30996412
149	0x3ec06e4f	0.3758416
150	0x3eaa7100	0.33289337
151	0x3e4c5792	0.1995528
152	0xbe90159e	-0.28141493
153	0xbd857ec8	-0.06518322
154	0xbe18e693	-0.14931707
155	0xbec5d5ea	-0.38639766
156	0xbcf1fb14	-0.029538669
157	0xbdeaa72e	-0.11457668
158	0xbebc48c9	-0.3677428
159	0xbd9ee1a7	-0.077578835
160	0xbe9f38e4	-0.31098092
161	0x3e885b6f	0.26632258
162	0xbe23e3bf	-0.16004847
163	0xbd463fe7	-0.048400786
164	0x3e2a6278	0.16639125
165	0xbd182196	-0.037141405
166	0x3d3d6101	0.04623509
167	0xbde2592e	-0.11052166
168	0xbe42ceb8	-0.1902417
169	0x3ed40e7e	0.41417307
170	0xbe548dbf	-0.20757197
171	0x3ed8d0c2	0.4234677
172	0x3e5794ae	0.2105281
173	0xbd6a9686	-0.057272457
174	0xbe8e6f16	-0.27819127
175	0xbd953607	-0.072856955
176	0x3e940c79	0.28915766
177	0xbdfd84a0	-0.12378812
178	0xbea7f19f	-0.3280153
179	0xbed4a8de	-0.41535085
180	0xbecdb3ae	-0.40176147
181	0x3d90841f	0.0705645
182	0xbe9d25c7	-0.30692884
183	0xbe2afa7d	-0.16697116
184	0x3e0944da	0.13405171
185	0x3e74fe57	0.23925148
186	0x3df0f146	0.11764769
187	0xbed3c1f1	-0.41358903
188	0x3e84c062	0.25928026
189	0x3f039f26	0.51414716
190	0xbe5372aa	-0.2064921
191	0xbee33756	-0.44378155
192	0xbee4d743	-0.44695482
193	0x3e9afe47	0.30272123
194	0xbef718c3	-0.4826108
195	0x3ed570a7	0.4168751
196	0x3ec243a5	0.37942234
197	0x3e44df07	0.19225703
198	0x3e51ea65	0.2049957
199	0xbe064b95	-0.1311477
200	0x3ed2b778	0.411556
201	0xbeba507f	-0.3638954
202	0x3e2c4b15	0.16825517
203	0x3da72525	0.08161382
204	0xbccd83f5	-0.025087336
205	0xbef669f0	-0.481277
206	0xbdf77f3f	-0.12084817
207	0x3d284be8	0.041088015
208	0x3e92620d	0.28590432
209	0xbe0eccd3	-0.13945322
210	0xbd6b0827	-0.05738082
211	0xbea98e94	-0.3311659
212	0x3eed9d68	0.46409154
213	0x3da8b015	0.0823671
214	0xbd1b6e01	-0.037946705
215	0xbe2f8960	-0.17142248
216	0xbe41a73e	-0.18911454
217	0x3e69ed43	0.22844414
218	0x3e95692c	0.29181802
219	0x3d6b523d	0.057451475
220	0xbe95b2d2	-0.29237992
221	0xbe9d9cde	-0.30783743
222	0xbdb57027	-0.08859282
223	0x3e89b61c	0.2689675
224	0x3e3d1351	0.184644
225	0x3e8da293	0.27663097
226	0x3ebee7d1	0.37286237
227	0xbef7bf2a	-0.48388034
228	0x3eb18cfe	0.3467788
229	0xbe387040	-0.1801157
230	0x3e9bc7ee	0.30425972
231	0x3ee08a23	0.4385539
232	0xbdc9c32d	-0.0985168
233	0x3ec34ce2	0.38144594
234	0x3e64695a	0.22305813
235	0x3cdd0dfe	0.026984211
236	0x3e3eb024	0.1862188
237	0x3e974419	0.29544142
238	0x3e814e25	0.25254932
239	0x3e76b2e1	0.24091674
240	0x3edf8cb6	0.4366204
241	0x3e4615ae	0.19344208
242	0x3ece3fdf	0.40283105
243	0x3e5acc01	0.21366884
244	0x3e8a2dfd	0.2698821
245	0xbe9c276c	-0.30498827
246	0xbee6026d	-0.44923726
247	0x3d35eac1	0.044413332
248	0xbdfff1c4	-0.12497285
249	0xbef4abf7	-0.4778745
250	0xbe12e60d	-0.1434557
251	0x3c0954d1	0.008382038
252	0x3d84cceb	0.064843975
253	0x3e03ec04	0.12883002
254	0x3ee2bafc	0.44283283
255	0xbef4adce	-0.47788852

0.bias f4 [256]
0	0xbd26726d	-0.04063647
1	0xbe819bc7	-0.2531416
2	0x3e2a29ab	0.16617458
3	0xbebafc4f	-0.3652062
4	0x3e450823	0.19241385
5	0xbe109746	-0.14120206
6	0xbe828eb2	-0.25499493
7	0x3e3632f1	0.1779287
8	0x3ee40aec	0.44539583
9	0x3e5d6341	0.21619894
10	0x3ed5cc50	0.4175744
11	0x3e813169	0.2523301
12	0xbed63576	-0.41837662
13	0xbeb631c1	-0.35584834
14	0x3e90bd09	0.28269222
15	0xbcb1cc46	-0.02170385
16	0x3ea62850	0.3245263
17	0x3eefe2ad	0.46852627
18	0xbeeaaa15	-0.45832887
19	0xbe459e7e	-0.19298741
20	0xbee1a202	-0.44068915
21	0xbe88422d	-0.26612988
22	0x3d894d7c	0.06704232
23	0xbec43701	-0.38323215
24	0xbec803b0	-0.39065313
25	0xbdcc6274	-0.09979716
26	0x3ee8ef52	0.45495087
27	0x3e1dfebf	0.15429209
28	0x3e9d4698	0.3071792
29	0xbe29d052	-0.16583374
30	0xbe4dc717	-0.20095478
31	0x3ebccc8a	0.368748
32	0xbbdc74c5	-0.006727787
33	0x3ed13eb6	0.40868157
34	0xbeeabb27	-0.4584591
35	0xbea91d2d	-0.33030072
36	0xbee29e18	-0.4426124
37	0x3ee11571	0.4396167
38	0x3ee1b6bf	0.44084737
39	0x3e00b972	0.12570742
40	0xbe3b9d96	-0.18321833
41	0x3dc390c3	0.095490955
42	0xbdabd387	-0.08389955
43	0xbe83cae7	-0.2574074
44	0xbe822c80	-0.25424576
45	0x3ee358a4	0.44403565
46	0x3ea1e233	0.3161789
47	0xbeabd828	-0.33563352
48	0x3ee12e94	0.4398085
49	0xbe200f5b	-0.15630858
50	0xbd1fd4ac	-0.03902118
51	0x3eed04ca	0.46292716
52	0x3d7757eb	0.06038658
53	0xbe841d35	-0.25803533
54	0xbe2d81a0	-0.1694398
55	0xbea84da1	-0.32871726
56	0x3eae2564	0.34012902
57	0x3d749a4b	0.059717458
58	0x3e72f8ad	0.23727675
59	0x3eabda13	0.33564815
60	0x3eb7abdc	0.35873306
61	0xbed6d056	-0.41955823
62	0x3edbc396	0.42922658
63	0x3ee2cbbe	0.44296068
64	0x3e963562	0.29337603
65	0x3eb6cd41	0.3570347
66	0xbe365421	-0.1780553
67	0xbeee993a	-0.46601278
68	0xbeec709d	-0.46179667
69	0xbd5c90b3	-0.053848933
70	0x3ef13d88	0.47117257
71	0x3e99694b	0.29963145
72	0x3e3c379e	0.18380591
73	0xbc0cbf59	-0.008590543
74	0x3e93164f	0.28727958
75	0x3e81151f	0.25211427
76	0x3dfdc07c	0.12390229
77	0x3ef468be	0.47736162
78	0x3df6123b	0.12015196
79	0xbef3dfc9	-0.47631672
80	0x3e178137	0.14795385
81	0xbea0577f	-0.31316754
82	0xbdb9a68d	-0.0906497
83	0xbeddd3ae	-0.4332556
84	0x3e7a9f18	0.24474752
85	0x3ebccab8	0.36873412
86	0xbe3ae24c	-0.18250388
87	0x3ece24ee	0.4026255
88	0x3e71d393	0.23615865
89	0x3e1feb5b	0.15617125
90	0x3d8ed727	0.06974631
91	0xbd407316	-0.046984755
92	0xbed5a88c	-0.41730154
93	0xbe5d6de7	-0.21623956
94	0x3d962113	0.07330527
95	0xbec31b47	-0.38106748
96	0x3d33ea65	0.043924708
97	0x3e7be216	0.24597964
98	0xbe163b58	-0.14671075
99	0xbe2d148e	-0.16902372
100	0xbc2beb43	-0.0104931025
101	0x3eb03e25	0.34422413
102	0xbdfe38a9	-0.12413151
103	0x3edde8b0	0.4334159
104	0x3df7cdaf	0.12099778
105	0xbed8c131	-0.42334893
106	0x3eac2215	0.33619753
107	0xbe13b3e9	-0.14424099
108	0x3ec625ef	0.38700816
109	0x3e9b0f69	0.30285195
110	0x3e869407	0.2628481
111	0xbd6f632c	-0.058444187
112	0xbebe1288	-0.37123513
113	0x3ed6cee9	0.41954735
114	0xbe90051f	-0.28128907
115	0xbddd9840	-0.10820055
116	0xbe2ae65d	-0.16689439
117	0x3e6bfcac	0.23045605
118	0x3ec53d43	0.385233
119	0xbec0a8c3	-0.37628755
120	0x3e2c3500	0.16817093
121	0xbccdcadb	-0.025121143
122	0x3e03af5b	0.12859862
123	0xbd83153e	-0.06400536
124	0xbcd02302	-0.025407318
125	0x3e7431d8	0.23847139
126	0x3ea9c40e	0.3315739
127	0x3e1e3801	0.15451051
128	0x3ebd577a	0.36980802
129	0xbe462385	-0.19349487
130	0xbeb9fdf9	-0.36326578
131	0xbdd0d14b	-0.101961695
132	0x3e1a3b93	0.15061788
133	0x3e8fe293	0.2810255
134	0x3cbfe52f	0.023424713
135	0xbe8265cc	-0.2546829
136	0xbc8b6c31	-0.017019363
137	0xbec81ac6	-0.39082927
138	0xbea45d72	-0.32102543
139	0x3ee6f7b4	0.45110857
140	0xbd7ac541	-0.061223272
141	0xbdd1a988	-0.10237414
142	0xbe6efd12	-0.23338726
143	0xbd93c187	-0.07214647
144	0xbe957d1b	-0.2919701
145	0x3e082c0c	0.13298053
146	0x3d9aabdb	0.0755231
147	0xbe14d578	-0.14534557
148	0xbe652f9a	-0.2238144
149	0x3daac899	0.08339042
150	0xbd3dced5	-0.04633983
151	0x3c82ca57	0.015965624
152	0xbcd708f6	-0.02624939
153	0xbd5cb182	-0.053880222
154	0x3d537743	0.05162741
155	0x3dc0bb5d	0.09410737
156	0x3e97f4af	0.29678866
157	0x3e06b8f2	0.13156489
158	0xbe9045eb	-0.28178343
159	0x3e67f715	0.22652848
160	0x3e42e5c8	0.19032967
161	0xbef8e29b	-0.48610386
162	0xbe4d29d6	-0.2003549
163	0x3eacc6c3	0.33745393
164	0x3e317d97	0.17333065
165	0x3ef5c80f	0.48004195
166	0x3ed6e1b0	0.4196906
167	0x3e5cb097	0.21551739
168	0xbe99823a	-0.29982167
169	0xbe64a78b	-0.22329538
170	0xbeb0517d	-0.3443717
171	0xbe38ee3d	-0.1805963
172	0xbef94be1	-0.48690704
173	0x3cb211b2	0.021736953
174	0x3e320d1f	0.17387818
175	0x3e90a8ad	0.2825369
176	0xbdaf0fc1	-0.08547927
177	0x3e52b3fd	0.20576473
178	0xbc059afd	-0.008154628
179	0x3efefe1d	0.49803248
180	0xbeb114ee	-0.3458628
181	0xbef2a00c	-0.4738773
182	0x3e67ea9f	0.22648095
183	0x3eb36473	0.35037574
184	0x3e878ee0	0.26476192
185	0xbe1b9b68	-0.15196002
186	0x3e23a95a	0.15982571
187	0x3e588315	0.21143754
188	0x3dfd4dea	0.123683766
189	0x3ea8457c	0.32865512
190	0xbdc1a85a	-0.09455939
191	0x3ea0cf2f	0.3140807
192	0x3e9355c3	0.28776368
193	0xbe73971e	-0.23788115
194	0x3ea08869	0.31354073
195	0xbde43c44	-0.11144307
196	0xbb00b81d	-0.001964099
197	0xbdafb30e	-0.08579074
198	0x3e6a1b96	0.22862086
199	0x3eb7932f	0.3585448
200	0xbe343da2	-0.17601636
201	0x3d8f3a34	0.06993523
202	0xbe7ea499	-0.24867477
203	0x3cda4b92	0.026647363
204	0x3d3bab16	0.045817457
205	0xbec841b5	-0.3911263
206	0xbe9a91bd	-0.30189314
207	0xbe4706e9	-0.1943623
208	0x3ebae4fb	0.36502823
209	0x3eea47a0	0.4575777
210	0xbd82c35b	-0.06384917
211	0x3ef8ebc7	0.48617384
212	0xbed9e7e1	-0.42559722
213	0xbefb83ad	-0.49123898
214	0x3df11b55	0.11772791
215	0xbdac8255	-0.08423296
216	0xbe725c7e	-0.23668095
217	0xbcde2da7	-0.027121378
218	0xbe44b922	-0.19211248
219	0xbe2d2d0a	-0.16911712
220	0x3ed41da7	0.41428873
221	0x3de93d00	0.11388588
222	0xbcbccbf8	-0.023046479
223	0xbec0dc38	-0.37668014
224	0x3d91a792	0.071120396
225	0x3e16f43a	0.14741603
226	0xbecf3a80	-0.4047432
227	0x3dd66cd3	0.10469975
228	0xbefc0ade	-0.4922704
229	0xbe58a235	-0.21155627
230	0x3e7f85e9	0.24953426
231	0x3eb9b927	0.36274073
232	0xbe51c4d2	-0.20485237
233	0x3dc96511	0.0983373
234	0x3bd69a30	0.0065491423
235	0xbeab998a	-0.33515579
236	0x3d1d777f	0.03844404
237	0xbed6e61c	-0.41972435
238	0x3e97bfaa	0.29638416
239	0x3ebf8eb5	0.37413564
240	0xbe280876	-0.16409478
241	0x3e92f85f	0.28705117
242	0x3cacca8d	0.021092677
243	0xbe98221b	-0.2971352
244	0x3ece4c08	0.40292382
245	0xbe9ceac5	-0.30647865
246	0xbd81276a	-0.06306346
247	0xbe19e2a5	-0.15027864
248	0xbd88d8ec	-0.066819996
249	0xbe191a29	-0.14951386
250	0xbecbc6b0	-0.39800024
251	0x3e8b23f2	0.27175862
252	0xbc135e9d	-0.0089947255
253	0x3ddb4110	0.10705769
254	0x3e8b4702	0.27202612
255	0x3ac45fd8	0.0014982177

2.weight f4 [256, 256]
0	0xbb80f34d	-0.0039352537
1	0x3d2eb938	0.042657107
2	0xbd2a835e	-0.041629188
3	0x3c5c456c	0.013444286
4	0x3c8a1018	0.016853377
5	0x3d50bc08	0.05096057
6	0x3d3e40ab	0.04644839
7	0xbbd42855	-0.0064745345
8	0xbbe9e223	-0.0071375533
9	0xbcc589db	-0.024113586
10	0x3cb30b6f	0.021856038
11	0x3d4d991e	0.050194852
12	0xbca75b76	-0.020429354
13	0x3d2b4584	0.041814342
14	0x3d2504b6	0.040287696
15	0xbc88d6f2	-0.016704056
16	0xbd61c53f	-0.05511975
17	0x3c210aac	0.0098292045
18	0x3c9ab8f9	0.01888703
19	0xbc3dfe43	-0.011596265
20	0x3d7fc354	0.06244214
21	0x3d252aa8	0.040323883
22	0x3cbea850	0.023273617
23	0xbc3b550a	-0.011433849
24	0x3d528d20	0.05140412
25	0x3cb29ac5	0.021802315
26	0xbc705e51	-0.014670924
27	0xbd02887c	-0.031868443
28	0x3d0969f9	0.03354833
29	0x3bdd379a	0.006751013
30	0x3c9e146b	0.019296845
31	0x3d1581d8	0.03650078
32	0xbb033979	-0.002002327
33	0x3ce20fac	0.027595364
34	0xbcdf9278	-0.027291521
35	0x3d0e361a	0.034719564
36	0xbca78a90	-0.020451814
37	0xbd20fcac	-0.039303467
38	0x3cc3b5fa	0.023890484
39	0x3d0d9a48	0.034570962
40	0x3cce1484	0.025156267
41	0x3d1a6f18	0.037703604
42	0xbc58c7e8	-0.013231255
43	0x3d4ae32a	0.049533047
44	0xbcb21f8d	-0.02174356
45	0x3d5802a5	0.052736897
46	0x3d3624f1	0.044468824
47	0x3d24a922	0.04020036
48	0xbd50a6de	-0.050940387
49	0xbd031087	-0.031998184
50	0xbcf6f0dc	-0.030144148
51	0xbd2de5df	-0.04245555
52	0xbd70067c	-0.058599934
53	0x3d2414b0	0.04005879
54	0x3d32b440	0.04362893
55	0x3cc78110	0.024353534
56	0xbc841907	-0.016125215
57	0x3c6a8d2a	0.014315883
58	0x3c976fd6	0.018485945
59	0xbc895584	-0.01676441
60	0x3d51a836	0.05118581
61	0xbb08ce20	-0.0020874813
62	0xbd3f8d71	-0.04676575
63	0x3c4fde2d	0.012687248
64	0xbd35f810	-0.044426024
65	0xbd1d9cab	-0.03847949
66	0xbc4369e3	-0.011927101
67	0x3d1c8727	0.03821483
68	0x3bbceede	0.00576578
69	0xbb7b3b87	-0.0038335042
70	0x3d445fc4	0.04794289
71	0x3d2dce09	0.04243282
72	0xba08ed35	-0.0005223335
73	0xbca478ec	-0.020077191
74	0x3d240785	0.040046234
75	0x3c903d51	0.017607363
76	0x3b8d7953	0.0043174415
77	0x3b91ab51	0.0044454713
78	0x3d272ba3	0.0408131
79	0x3d3ab8f9	0.04558656
80	0xbd206047	-0.039154317
81	0x3ce9606d	0.028488362
82	0x3d5ca920	0.053872228
83	0x3d5cdd28	0.05392185
84	0x3d558468	0.052128226
85	0xbc3eef92	-0.011653798
86	0x3d4a830e	0.04944139
87	0x3cf00e9e	0.029303845
88	0x3d46c51a	0.048527814
89	0x3cea39fa	0.028592099
90	0xbc916cd2	-0.017752085
91	0x3d2ea000	0.042633057
92	0xbd7474e9	-0.059681807
93	0x3c9da45d	0.019243414
94	0xb6648285	-3.405062e-06
95	0x3caa7c03	0.020811087
96	0xbd3e7593	-0.046498846
97	0x3d0f4440	0.034977198
98	0x3cb9cb8a	0.022680063
99	0xbd15e15b	-0.03659187
100	0x3d190805	0.037361164
101	0xbd07385b	-0.03301273
102	0x3d883fde	0.06652807
103	0x3c1b41ff	0.009476184
104	0x3d4aafad	0.049483944
105	0xbccfc212	-0.025361095
106	0xbc2d121e	-0.0105634015
107	0x3d56fc20	0.05248654
108	0x3d2fbf53	0.04290707
109	0xbd297b94	-0.04137762
110	0xbd5a4f96	-0.053298555
111	0xbce5c8cb	-0.028049847
112	0x3d13a1f1	0.03604311
113	0x3d4f1944	0.050561205
114	0xbc318529	-0.0108349705
115	0xbd1f9a30	-0.038965404
116	0x3cd8f7a5	0.026485274
117	0xbd05e6a3	-0.032690655
118	0xbc50f304	-0.012753252
119	0xbab747f6	-0.0013983238
120	0x3ce9e7db	0.02855294
121	0x3c2ca4fc	0.010537382
122	0xbbbe6fd6	-0.0058116717
123	0x3c8fdf33	0.017562484
124	0x3c6c5a23	0.014425787
125	0x3d4c0857	0.04981264
126	0x3c0af4a4	0.008481178
127	0xbd5b44cf	-0.053532418
128	0xbcc3c610	-0.023898154
129	0xbd13746e	-0.035999708
130	0xbd3690f8	-0.044571847
131	0xbd76fac2	-0.060297735
132	0xbd2c4ae3	-0.042063605
133	0xbd59a0cb	-0.05313186
134	0xbd34e31c	-0.0441619
135	0xbc299a65	-0.010351752
136	0x3d6a02a7	0.057131436
137	0xba1524cd	-0.00056893827
138	0xbbc859db	-0.006114227
139	0xbcd42b0a	-0.025899429
140	0x3d19bee7	0.037535574
141	0xbb256e39	-0.00252427
142	0x3d5373b0	0.051624
143	0x3ca1f2af	0.01976904
144	0xbc87c3eb	-0.016572913
145	0x3a7c9fb2	0.00096368336
146	0x3d054878	0.032539815
147	0xbb969b9a	-0.004596186
148	0x3cea5ad7	0.028607769
149	0xbaef7699	-0.0018269598
150	0x3d2b8943	0.04187895
151	0xbd602f89	-0.054732833
152	0x3d12abaa	0.035808243
153	0xbd72767f	-0.059195038
154	0x3bcb1b6a	0.0061983364
155	0x3c6a8a42	0.01431519
156	0xbd4db120	-0.050217748
157	0x3b7ceb8f	0.0038592552
158	0x3bbb1573	0.005709344
159	0xbd7f810d	-0.06237893
160	0x3d099bb1	0.033595745
161	0x3c3e7df4	0.011626709
162	0xbd25ce18	-0.04047975
163	0x3c8b1212	0.01697639
164	0xbc8838b0	-0.016628593
165	0x3d5d31dc	0.054002628
166	0xbbb51231	-0.00552585
167	0x3cff660b	0.031176588
168	0xbd404183	-0.046937477
169	0xbc29d359	-0.010365331
170	0xbbe597a2	-0.0070066014
171	0xbd6dbd28	-0.05804172
172	0xbca105c3	-0.019656068
173	0xbcdd1609	-0.026988046
174	0xbd812dd1	-0.06307567
175	0xbcb835d8	-0.022486612
176	0x3cb5c4cd	0.022188568
177	0xbd8188e9	-0.06324942
178	0xbbb941a2	-0.005653576
179	0xbd1792f6	-0.037005387
180	0x3d5c0f9f	0.053725835
181	0xbc33f7e7	-0.0109843975
182	0xbd2f625b	-0.04281841
183	0xbd37be8b	-0.04485945
184	0xbd1e2cce	-0.038616948
185	0xbc00adbe	-0.007853923
186	0x3cd8ebd1	0.026479634
187	0xbd43bfb3	-0.04779024
188	0x3cb4c4db	0.022066524
189	0x3c8255ae	0.015909996
190	0x3caaf6a8	0.020869568
191	0x3c8ba83a	0.01704799
192	0xbd4c2916	-0.04984387
193	0xbd400d63	-0.046887767
194	0x3d71a519	0.05899534
195	0x3c7dd7a7	0.01549331
196	0xbce233c7	-0.02761258
197	0x3cd90b07	0.026494516
198	0xbca7067c	-0.020388834
199	0xb8da262a	-0.00010402159
200	0x3d7165a0	0.058934808
201	0xbd1ed478	-0.038776845
202	0xbd3582d3	-0.044314217
203	0x3d56c74d	0.05243616
204	0x3c4fd014	0.012683887
205	0x3d210965	0.0393156
206	0xbd1355cb	-0.03597049
207	0xbd57e2f2	-0.052706666
208	0xbd585a80	-0.052820683
209	0xbd0b2616	-0.03397187
210	0x38ccdd96	9.7687516e-05
211	0x3d1bb5e4	0.03801526
212	0xbbbb8981	-0.005723179
213	0x3b4b60c1	0.0031033012
214	0xbae52e13	-0.0017485045
215	0xbce04d0d	-0.02738049
216	0xbc431cbf	-0.011908709
217	0xbd35ed99	-0.044416044
218	0x3a074124	0.0005159548
219	0xbd3b8754	-0.045783356
220	0x3d3bcdaf	0.045850452
221	0x3c96729c	0.018365197
222	0xbd39bc15	-0.045345385
223	0xbcfa8d8c	-0.030585073
224	0x3d522229	0.05130211
225	0xba9b0f05	-0.0011830038
226	0x3d340c7c	0.04395722
227	0xbbef9ce3	-0.0073124035
228	0xbd0e887d	-0.034798134
229	0xbcd5de15	-0.026106874
230	0xbd6c5944	-0.057702318
231	0xbd640fa7	-0.05567899
232	0xbd2b078d	-0.041755248
233	0x3c9fcdb9	0.019507276
234	0x3d6d2f0a	0.057906188
235	0xbd4ab588	-0.049489528
236	0xbc8f153d	-0.017466182
237	0x3c8b9925	0.017040798
238	0xbc56fa13	-0.013121146
239	0x3d3db966	0.046319388
240	0xbcaf0349	-0.021363871
241	0x3d265202	0.040605552
242	0x3c3ba509	0.011452922
243	0x3d3c2a42	0.045938738
244	0x3c7263bf	0.014794289
245	0x3d5cae74	0.05387731
246	0xbd2d6913	-0.042336535
247	0x3cfe0928	0.031010225
248	0x3d6e1cd6	0.05813297
249	0x3d45e6ec	0.048315927
250	0x3d862035	0.06549112
251	0x3cece192	0.028916154
252	0xbd294811	-0.041328494
253	0xbd801ca1	-0.062554605
254	0x3ccb8df7	0.024847968
255	0xbb8823b8	-0.0041546486

2.bias f4 [256]
0	0x3d4816cc	0.048849866
1	0x3d7e991f	0.062157746
2	0x3cc2b1cc	0.02376642
3	0xbcacf377	-0.021112187
4	0xbd1c3232	-0.038133807
5	0x3d535c37	0.051601615
6	0xbcc63c4a	-0.02419867
7	0x3d53bb9b	0.051692586
8	0xbcfe2d52	-0.03102747
9	0xbc263bb1	-0.0101460675
10	0x3c1b644e	0.009484364
11	0xbd6b8c18	-0.05750665
12	0xbd571aad	-0.052515674
13	0xbd2d6952	-0.04233677
14	0xbc9a93b7	-0.018869264
15	0xbcb58c10	-0.022161514
16	0x3d69aa36	0.05704709
17	0x3d276bd6	0.040874325
18	0xbd01bf75	-0.03167673
19	0x3d35261a	0.04422579
20	0xbd5f65c7	-0.05454042
21	0xbc20bc24	-0.009810481
22	0xbd119181	-0.035539154
23	0x3aeccad3	0.0018065817
24	0xbd0837c3	-0.033256304
25	0xbd55ab74	-0.052165464
26	0xbd6321d8	-0.055452198
27	0xbcb9405a	-0.022613693
28	0x3d718f94	0.058974817
29	0xbae7952b	-0.0017668357
30	0x3d116175	0.035493333
31	0x3d1bbd36	0.038022242
32	0xbd2108ec	-0.03931515
33	0x3c255ced	0.010092956
34	0xbcf764e0	-0.030199468
35	0xbd02f0c6	-0.0319679
36	0xbd345cab	-0.044033688
37	0x3d4d2cd2	0.050091572
38	0xbd53ff6f	-0.051757272
39	0xbd691083	-0.056900512
40	0xbce481b9	-0.027893888
41	0x3ca77cc9	0.020445244
42	0x3c87b0d5	0.016563812
43	0xbd477dbd	-0.048703898
44	0x3d47e8bd	0.04880594
45	0xbd25abce	-0.04044705
46	0x3d2f7354	0.042834595
47	0x3d6c9e8e	0.057768397
48	0x3bfab63e	0.0076511195
49	0x3d47650b	0.048680346
50	0xbd4a1cd3	-0.049343895
51	0xbce3e0ea	-0.027817208
52	0x3d0adfc2	0.0339048
53	0x3d7c887c	0.0616536
54	0xbd351d67	-0.044217493
55	0x3d5b87f3	0.05359645
56	0xbd25320f	-0.040330943
57	0x3d76fb8c	0.060298488
58	0xbd1118a5	-0.035423893
59	0xbc06fcc3	-0.008238974
60	0x3bf2ca5b	0.0074093766
61	0x3ab14d36	0.0013527039
62	0x3d65d20f	0.05610853
63	0x3d2af5e3	0.041738402
64	0x3d309f6e	0.043120794
65	0x3cb2122b	0.021737179
66	0xbc0bda51	-0.008535937
67	0x3a773d07	0.0009431396
68	0x3d291359	0.041278217
69	0x3d5409dd	0.05176722
70	0xbd13cad3	-0.0360821
71	0xbc33a867	-0.010965443
72	0x3d7f5441	0.06233621
73	0xbd06bc23	-0.032894265
74	0xbd38dd0f	-0.045132693
75	0x3d514f11	0.051100794
76	0x3d4b41a9	0.049623165
77	0x3d43d5dc	0.047811374
78	0x3c324863	0.010881516
79	0xbd12645d	-0.035740245
80	0x3d02e51a	0.03195677
81	0x3d5b2ee2	0.053511508
82	0x3d6fd533	0.058552932
83	0xbd3ec7fa	-0.04657743
84	0xbc7f6d88	-0.015590079
85	0x3d38a8b5	0.045082767
86	0x3d628f56	0.055312477
87	0xbcd13a54	-0.025540508
88	0xbd26c853	-0.040718388
89	0x3d3fad34	0.04679604
90	0x3b7601cc	0.0037537692
91	0xbce76510	-0.028246433
92	0xbd4af0fd	-0.04954623
93	0xbd2327d1	-0.039832894
94	0x3cc296c1	0.023753526
95	0x3d3f4854	0.046699837
96	0xbc31fc88	-0.010863431
97	0x3d146111	0.036225382
98	0x3cef5756	0.02921645
99	0x3d18d9f7	0.037317242
100	0xbc51e322	-0.0128105
101	0xbd49d929	-0.049279366
102	0xbcdcd443	-0.026956683
103	0xbd273ea3	-0.04083122
104	0xbd6800c8	-0.05664137
105	0x3ba978fd	0.0051718936
106	0xbd59999b	-0.053125005
107	0x3c3dbccf	0.01158066
108	0xbd1b4bda	-0.037914135
109	0xbbb0f63c	-0.005400447
110	0xbc6f12d8	-0.014591895
111	0x3bd3a2f4	0.0064586345
112	0xbd53803a	-0.05163596
113	0xbd308eba	-0.043104865
114	0x3d2430d6	0.040085636
115	0xbd275545	-0.040852804
116	0xbc9e67ec	-0.019336663
117	0xbd7144c1	-0.05890346
118	0x3cae90a3	0.021309203
119	0xbb8cf896	-0.0043020947
120	0x3d2ea232	0.04263515
121	0x3b9e3597	0.0048281658
122	0x3d467401	0.048450474
123	0xbd322d2d	-0.043500114
124	0x3d5caada	0.053873874
125	0xbcade1ee	-0.021225896
126	0xbc70f116	-0.014705917
127	0x3d43e189	0.04782251
128	0xbada2123	-0.0016641956
129	0x3c773c09	0.015089997
130	0xbafc01af	-0.0019226576
131	0xba890f51	-0.0010456835
132	0xbd3f22d5	-0.046664078
133	0x3cdbc140	0.026825547
134	0x3d0cc469	0.034367
135	0xbd3a0bd5	-0.04542144
136	0x3cf28f8e	0.029609468
137	0xbcbf2721	-0.023334088
138	0x3d681590	0.05666119
139	0xbd7947e0	-0.06085956
140	0x3cc632c9	0.024194138
141	0x3c672c54	0.01410969
142	0x3d183fb7	0.03717014
143	0x3cd8a58e	0.02644613
144	0xbcb3220f	-0.021866826
145	0x3d73f353	0.059558224
146	0xbd3ce5b6	-0.046117507
147	0xbd3d62d4	-0.046236828
148	0xbd6ce681	-0.057837013
149	0xbd6bc92c	-0.0575649
150	0xbb59554a	-0.0033162409
151	0xbcbe2a83	-0.02321363
152	0x3cdc0ee2	0.026862565
153	0xbc93fdf1	-0.018065425
154	0xbd0d6807	-0.034523036
155	0xbc9cb45f	-0.019128976
156	0xbb11c01b	-0.0022239748
157	0x3d2d1eb0	0.042265594
158	0xbd61d031	-0.055130187
159	0x3c8792a8	0.016549423
160	0xbc442b60	-0.011973232
161	0xbc2ab049	-0.010418006
162	0x3d419ccd	0.047268678
163	0x3cc8e4ad	0.024523104
164	0x3b1175c2	0.0022195433
165	0x3cf2b005	0.029624948
166	0x3d25f701	0.040518764
167	0x3d5f6efa	0.054549195
168	0xbd04e978	-0.032449216
169	0xbd1e07e0	-0.03858173
170	0xbc1e1dc2	-0.0096506495
171	0x3d704c92	0.058666773
172	0xbcc86f37	-0.024467094
173	0x3ce304ab	0.027712187
174	0xbd25d462	-0.040485747
175	0x3d29215f	0.04129159
176	0xbc8041aa	-0.015656311
177	0xbcbb0d1b	-0.022833398
178	0xbb1c9eae	-0.0023898291
179	0xbd76aef2	-0.060225435
180	0xbd5e837d	-0.054324616
181	0x3cb0da86	0.021588575
182	0xbc7183d1	-0.0147409
183	0xbd2cd29e	-0.042193048
184	0xbcc87c6f	-0.024473397
185	0x3cfa5ac8	0.030560866
186	0x3c909157	0.017647428
187	0xbcc3051d	-0.02380615
188	0x3d599bcc	0.053127095
189	0x3bcb5c71	0.0062060882
190	0x3a561c7b	0.0008167696
191	0xbc8f1126	-0.017464232
192	0xbd3ffc62	-0.04687155
193	0x3d688176	0.05676409
194	0xbd42030d	-0.04736619
195	0xbd0b41f4	-0.033998445
196	0x3c3903cf	0.011292412
197	0xbd325a52	-0.043543167
198	0xbd749114	-0.05970867
199	0x3c5bd7e4	0.013418172
200	0x3c7a38b8	0.015272312
201	0xbd38f535	-0.045155723
202	0x3b1189b8	0.002220733
203	0xbcb3cd91	-0.021948608
204	0xbd3bdd0e	-0.04586511
205	0xbba549fe	-0.005044221
206	0x3d6837ef	0.056693967
207	0xbc0a1087	-0.008426792
208	0xbcb16b7d	-0.0216577
209	0x3bc63c1e	0.006049647
210	0x3d3886a3	0.045050275
211	0x3d3ce9c5	0.046121377
212	0xbb18cfc6	-0.0023317202
213	0xbd1741cd	-0.036927987
214	0x3bbc3115	0.0057431557
215	0x3c2d88ad	0.010591668
216	0xbd7ea9bd	-0.062173594
217	0xbcfb049f	-0.030641852
218	0x3cb2c61d	0.021822983
219	0xbb64f37e	-0.0034935172
220	0xbd730c93	-0.059338164
221	0x3d46ab3c	0.048503146
222	0x3cb41a53	0.021985209
223	0x3d1c250d	0.038121272
224	0x3d6cf7c5	0.05785348
225	0x3d590f64	0.052993193
226	0x3d505bcf	0.050868805
227	0x3c64eb5f	0.0139721325
228	0x3c5f7aaf	0.01364009
229	0x3ce0e81d	0.02745443
230	0x3d70823a	0.058717944
231	0xbd287fd8	-0.041137546
232	0x3d0aeb09	0.033915553
233	0x3bf06a1c	0.007336868
234	0xbd12186d	-0.035667825
235	0x3cd72316	0.026261847
236	0xbd29189c	-0.041283235
237	0x3d3bb93b	0.045830946
238	0xbc0da5f6	-0.008645525
239	0xbd645e22	-0.055753835
240	0xbd318b17	-0.043345537
241	0xbd0a87b0	-0.033820808
242	0xbd6f5b20	-0.058436513
243	0x3d47e6df	0.04880416
244	0xbd57a5af	-0.052648243
245	0xbd098bbf	-0.033580538
246	0xbb0894fb	-0.0020840752
247	0x3ca4c01c	0.020111136
248	0xbcc9fe9c	-0.02465754
249	0xbcf0633c	-0.029344194
250	0xbd720cf6	-0.05909439
251	0xbc34d66f	-0.011037453
252	0x3d4f17a2	0.050559647
253	0xbc6371bc	-0.013882097
254	0x3c8143ee	0.015779462
255	0xbcaa8916	-0.02081732

4.weight f4 [2, 256]
0	0x3c7d118a	0.015446076
1	0x39d42f06	0.00040470826
2	0xbcf94046	-0.030426156
3	0xbc86980e	-0.016429927
4	0xbba5a214	-0.0050547216
5	0x3cf41419	0.02979474
6	0x3cefb490	0.029260904
7	0x3d39bd7d	0.045346726
8	0xbce33a32	-0.02773771
9	0x3c7120cf	0.014717295
10	0x3c962983	0.018330341
11	0xba23e5f3	-0.00062522216
12	0xbd1a3c7b	-0.037655335
13	0x3d331400	0.043720245
14	0x3bc7a8a5	0.006093102
15	0xbc6c3e16	-0.014419099
16	0xbd9c88b1	-0.07643259
17	0x3c560ca0	0.0130645335
18	0xbc96f512	-0.018427406
19	0xbd72a6df	-0.059241172
20	0xbcf25964	-0.02958364
21	0x3caa53a6	0.02079184
22	0xbd74620a	-0.05966381
23	0x3d780ff6	0.060562097
24	0xbc034835	-0.008012821
25	0xbb0b7294	-0.002127801
26	0xbd2a5ade	-0.041590564
27	0xbc4623dc	-0.0120935105
28	0xbcdd8f97	-0.027046008
29	0xbd929115	-0.071565785
30	0xbd6f0612	-0.0583554
31	0x3d84b03d	0.06478927
32	0xbb97be15	-0.004630814
33	0x3d1c4ad5	0.038157303
34	0xbd3db4bb	-0.046314936
35	0x3c99c60f	0.0187712
36	0x3c98dfac	0.018661343
37	0x3d25b0dd	0.040451873
38	0x3c8cdb87	0.017194523
39	0xbd2870e8	-0.0411233
40	0xbd120544	-0.035649553
41	0x3c219cea	0.009864071
42	0xbc9ec7db	-0.019382408
43	0xbd57487b	-0.052559357
44	0x3d4c74c1	0.049916033
45	0xbd1ea06f	-0.03872722
46	0xbc9f9858	-0.019481823
47	0x3cf26b8e	0.029592302
48	0x3d421568	0.047383696
49	0x3c702188	0.014656432
50	0x3c5df32f	0.013546749
51	0x3d80d520	0.0629065
52	0x3d24741f	0.040149804
53	0xbceb1232	-0.0286952
54	0x3d08791e	0.03331863
55	0xbd2a85f9	-0.041631673
56	0x3d125a3c	0.035730585
57	0x3d1f5f05	0.038908977
58	0xbd62ebfc	-0.055400833
59	0x3d9b6d90	0.07589257
60	0x3d819d98	0.06328887
61	0xbc917e15	-0.017760316
62	0xbc95b706	-0.018275749
63	0xbd612a3b	-0.054971915
64	0x3cb07418	0.021539733
65	0xbcdae1f4	-0.026719071
66	0xbd2712fc	-0.04078959
67	0xbb0e8815	-0.0021748592
68	0xbb0220ad	-0.0019855902
69	0x3d65b237	0.056078162
70	0x3c080ccf	0.008303835
71	0xbce68b58	-0.028142616
72	0xbd0d0d5e	-0.034436576
73	0x3d297e4a	0.041380204
74	0xbcd75845	-0.026287207
75	0xbcfb8c0f	-0.030706434
76	0x3d263c4d	0.04058485
77	0xbd8ea137	-0.06964343
78	0xbcd44960	-0.025913894
79	0x3d494436	0.049137317
80	0xbd16a1f1	-0.036775533
81	0xbd49dcfc	-0.049283013
82	0xbc48b371	-0.012249813
83	0x3d375eaa	0.044768013
84	0xbcd09e49	-0.025466101
85	0x3d21c150	0.039490998
86	0xbcf3ee44	-0.0297767
87	0x3cd8ca1c	0.02646356
88	0x3b83ebaa	0.004025896
89	0xbc9fe903	-0.019520288
90	0x3d38891f	0.045052644
91	0xbd1e187e	-0.038597576
92	0x3d51fc9d	0.0512663
93	0x3d25d9c9	0.0404909
94	0x3d6d2d02	0.05790425
95	0xbd249795	-0.040183622
96	0x3d8bc030	0.06823766
97	0xbd932022	-0.07183863
98	0xbc89414a	-0.016754765
99	0xbcceb770	-0.025233954
100	0xbd2638ce	-0.040581517
101	0x3c819e99	0.015822696
102	0xbd2de33a	-0.04245303
103	0xbd1cafff	-0.03825378
104	0xbd00610f	-0.031342562
105	0x3c0a9715	0.008458872
106	0x3d9cbe3e	0.07653473
107	0x3d293a40	0.041315317
108	0x3d86a0f5	0.06573669
109	0xbd5ed14e	-0.054398827
110	0x3c8e0d25	0.017340252
111	0xbbda5605	-0.0066630864
112	0x3ce9d282	0.02854276
113	0x3c998bd8	0.01874344
114	0xbcc9419c	-0.024567418
115	0x3c12f9e1	0.008970709
116	0x3d0ef456	0.034900986
117	0xbbd3cf2b	-0.0064639053
118	0x3d9f1318	0.07767314
119	0x3caf1b76	0.0213754
120	0x3bbf383c	0.005835561
121	0x3be212e3	0.006899224
122	0xbce728cd	-0.028217698
123	0x3d62881c	0.055305585
124	0xbd1b037d	-0.037845124
125	0xbc66406f	-0.014053448
126	0x3d66ea2b	0.056375664
127	0x3caea634	0.021319486
128	0xbd3c3a6d	-0.045954157
129	0x3d9af814	0.075668484
130	0x3d10544e	0.03523665
131	0xbd836a64	-0.06416777
132	0xbc3c486c	-0.011491876
133	0xbd87191c	-0.06596586
134	0xbc1af9db	-0.009458984
135	0xbcab8d44	-0.020941384
136	0xbc073632	-0.008252667
137	0x3c2c15ad	0.010503215
138	0xbd551099	-0.052017782
139	0xbbbeac13	-0.0058188527
140	0xbd374ec9	-0.04475287
141	0xbc343a5e	-0.011000244
142	0x3d00f24d	0.031481076
143	0xbcb1406d	-0.021637166
144	0x3d09407c	0.033508763
145	0x3d2aa8b7	0.041664805
146	0x3d572db8	0.052533835
147	0xbc83a876	-0.01607154
148	0x3c882b6b	0.016622266
149	0x3d9c1977	0.076220445
150	0x3d4c9157	0.049943294
151	0x3c39f0b3	0.011348891
152	0x3cf75636	0.030192476
153	0xbbc5f0de	-0.0060406765
154	0x3d5629b7	0.052285876
155	0xbd08facb	-0.0334423
156	0xbcd1b1b5	-0.025597433
157	0xbd5a40f7	-0.05328461
158	0xbd9670bf	-0.07345723
159	0x3bff74e9	0.007795919
160	0x3cac91ad	0.021065557
161	0xbd30fe55	-0.0432113
162	0xbd936ead	-0.07198844
163	0xbd205cf8	-0.039151162
164	0x3d1c9de1	0.038236503
165	0x3cee1258	0.029061481
166	0x3d18a58d	0.037267257
167	0x3ce4b4ef	0.027918307
168	0xbcc914a2	-0.024545971
169	0x3a23876f	0.0006238138
170	0x3d29daff	0.041468617
171	0xbd32b066	-0.043625258
172	0xbcdce686	-0.02696539
173	0x3a163770	0.0005730307
174	0xbd921d56	-0.07134502
175	0x3ce094bf	0.027414678
176	0xbc22117d	-0.009891865
177	0xbcd986c6	-0.026553523
178	0xbc39c136	-0.011337569
179	0x3bb6a139	0.0055734185
180	0xbcf00999	-0.029301452
181	0xbcc42d7e	-0.023947474
182	0x3c980114	0.018555202
183	0xbcb3a9a7	-0.021931482
184	0x3cac18ef	0.021007983
185	0x3d7b6cb2	0.061382957
186	0xbc602b20	-0.013682157
187	0x3ca0e960	0.019642532
188	0xbd4069bb	-0.046975832
189	0x3d0b5cea	0.034024157
190	0x3b9a8bad	0.0047163577
191	0x3ceb31bf	0.028710244
192	0xbd228276	-0.0396752
193	0x3be2288c	0.006901806
194	0xbbb1f14b	-0.0054303757
195	0xbc846590	-0.01616171
196	0x3b80cb88	0.003930513
197	0x3cb3c723	0.021945542
198	0x3c09fcc8	0.008422084
199	0xbd2d5444	-0.04231669
200	0xbd7ed365	-0.06221332
201	0x3c3f11a6	0.011661923
202	0x3cb5195f	0.022106824
203	0x3b07e0c4	0.0020733336
204	0xbcc116f7	-0.02357052
205	0xbc5a5a09	-0.01332713
206	0xbc1ca742	-0.009561362
207	0xbc17ae42	-0.009257855
208	0x3ca736a7	0.020411802
209	0x3c838c33	0.016058063
210	0x3c41c3b9	0.011826449
211	0x3c8ee41d	0.017442757
212	0x3d0827a5	0.033240933
213	0xbd407d4e	-0.0469945
214	0x3d662a3a	0.056192614
215	0xbd1dd2c5	-0.038531084
216	0x3d114e14	0.03547485
217	0xbd6f1a17	-0.05837449
218	0xbc69ad19	-0.014262461
219	0x3d814289	0.06311519
220	0x3c65617b	0.014000292
221	0x3d61a966	0.05509319
222	0x3b7eda61	0.0038887488
223	0x3cca0d2d	0.024664486
224	0x3d8627fc	0.06550595
225	0x3d022ec2	0.031782873
226	0xbc964dc2	-0.018347625
227	0xbcaa72e2	-0.020806734
228	0xbd4ccabf	-0.04999804
229	0x3d6f4e55	0.058424313
230	0x3c5e7489	0.013577589
231	0x3c401469	0.011723616
232	0xbc683a96	-0.014174124
233	0x3d213822	0.039360173
234	0x3cd9497f	0.026524303
235	0xbd0b6653	-0.03403313
236	0x3d0be2f6	0.034151994
237	0x3d6276be	0.055289023
238	0x3d835546	0.06412749
239	0xbc9f596b	-0.019451817
240	0x3c944647	0.018099917
241	0xbd594be2	-0.053050883
242	0x3c69401a	0.014236474
243	0xbda784ed	-0.081796505
244	0xbc399b1e	-0.011328487
245	0x3cc24354	0.023713745
246	0xbca99677	-0.02070163
247	0xbd42d68b	-0.047567885
248	0x3d65ebb6	0.056132995
249	0x3cf14720	0.02945286
250	0x3b13cb44	0.0022551576
251	0xbb0d3fa9	-0.0021552837
252	0x3c545e3d	0.012961921
253	0x3c9b0925	0.018925259
254	0x3c9b1e22	0.018935267
255	0x3d186a29	0.037210617

4.bias f4 [2]
0	0xbd5b3e75	-0.05352636
1	0x3d53d32b	0.051715057

exp_avg f4 [256, 4]
0	0x3ab60fe6	0.0013890236
1	0x3afb7ebe	0.0019187552
2	0x3a85ed97	0.0010217902
3	0xba41c153	-0.0007391173
4	0xbab8e107	-0.0014105149
5	0xbada0b50	-0.0016635451
6	0xbb0a1490	-0.0021069385
7	0x3a1071dc	0.00055101304
8	0x3b2c6e41	0.0026310834
9	0x3b1da8ae	0.002405684
10	0x3aa6a1d4	0.0012713023
11	0xba3e8542	-0.0007267782
12	0x3c093293	0.008373874
13	0x3b6bceee	0.0035981494
14	0x3af2cf70	0.0018524956
15	0x3a352d1d	0.00069113245
16	0xbb866cbf	-0.004102319
17	0xbb533638	-0.0032228362
18	0xbb5c9f8b	-0.003366443
19	0x3a358105	0.00069238275
20	0xbc74a83a	-0.014932686
21	0xbb656e6b	-0.0035008441
22	0xbbe6478c	-0.007027572
23	0xbb9b9d51	-0.004748978
24	0xba50a526	-0.00079591793
25	0xbada19b1	-0.0016639737
26	0x3ba0b001	0.004903794
27	0x3b03c143	0.0020104207
28	0x3b91caea	0.004449238
29	0x3b457431	0.003012907
30	0x3a4a075e	0.0007706786
31	0xba608b1d	-0.00085656514
32	0x3b2d6444	0.0026457468
33	0x3986e8c0	0.00025731884
34	0x3a68b146	0.00088765135
35	0x3a961e6e	0.001145316
36	0xbb403823	-0.0029330335
37	0xbb1db9d2	-0.0024067056
38	0xba7d250c	-0.00096567045
39	0x39ab6982	0.0003269427
40	0x3c0da907	0.008646256
41	0x3ace5c57	0.0015744072
42	0x3b39a8e1	0.002832942
43	0x3b4621fd	0.003023266
44	0x3b775f30	0.0037745945
45	0x3b46fa21	0.003036149
46	0x3b2f4a2d	0.0026747093
47	0xba3397fd	-0.0006850956
48	0x3c10eb98	0.008845232
49	0x3b780710	0.0037846006
50	0xba2076f2	-0.000612124
51	0x388a3085	6.58939e-05
52	0x3b219172	0.0024653343
53	0x3ad3caaa	0.0016158421
54	0x391137de	0.0001384909
55	0xb9738db5	-0.00023227076
56	0xbae77309	-0.0017658185
57	0xbb09cd63	-0.002102696
58	0xbad9144a	-0.0016561833
59	0x3a8cf0f0	0.0010752957
60	0xba0cbc7b	-0.0005368662
61	0x3a7fc19a	0.0009756327
62	0x3a8b11c3	0.0010610152
63	0xba72f128	-0.00092675025
64	0x3a03427d	0.0005007161
65	0xbada75ac	-0.0016667149
66	0x399c4379	0.0002980491
67	0x3af17b69	0.001842362
68	0xbb8da5c5	-0.00432274
69	0xbb2f1943	-0.0026717938
70	0x3bc5635f	0.006023809
71	0x3b047c72	0.0020215777
72	0xbc62bd98	-0.013839148
73	0xbb9ce35a	-0.0047878446
74	0xbb96030d	-0.0045780004
75	0xbb28cbb3	-0.002575618
76	0xbaa00733	-0.0012209177
77	0x3ae30e9f	0.0017323083
78	0x39fbfa86	0.00048061105
79	0xbb193224	-0.0023375833
80	0xbc41e7e6	-0.011835074
81	0xbb382fa4	-0.0028104568
82	0xbb91a80e	-0.0044450825
83	0xbb6d99af	-0.0036254933
84	0xbc2de6ba	-0.0106140915
85	0xbb6952bd	-0.0035602294
86	0xbb216453	-0.0024626448
87	0xbadb0c1a	-0.001671198
88	0xbbd38bcd	-0.0064558745
89	0xbad2247f	-0.0016032605
90	0xbb117b42	-0.0022198712
91	0xbada7cbf	-0.0016669257
92	0xbc0dee92	-0.008662837
93	0xbaa2e40e	-0.0012427585
94	0xbb820c92	-0.0039687837
95	0xbb719664	-0.0036863321
96	0xbac13458	-0.0014740331
97	0xbb0c2586	-0.002138467
98	0xb95f76fb	-0.00021311261
99	0x3a8bd839	0.0010669298
100	0xbb2c83ba	-0.0026323632
101	0xbb2aeb5e	-0.0026080231
102	0xbaadd839	-0.0013263292
103	0x3a8f8088	0.001094834
104	0x3a3ebee7	0.00072763715
105	0xbaf764b2	-0.0018874614
106	0x3b068084	0.0020523379
107	0x3b30f7e9	0.0027003235
108	0xbb7d3a00	-0.0038639307
109	0xbb487298	-0.0030585881
110	0xba534089	-0.0008058628
111	0x3a5fb060	0.0008533057
112	0x3b85d4b3	0.0040841936
113	0x3b396227	0.0028287263
114	0x3b2e984d	0.0026641071
115	0xb9b408c6	-0.00034338812
116	0xbad6244e	-0.0016337724
117	0xbb00e48d	-0.0019667477
118	0xbaa01264	-0.0012212512
119	0x3a4e7236	0.0007875295
120	0x3ae96051	0.0017805194
121	0x3b392e2b	0.0028256278
122	0xbc3d0e7b	-0.011539097
123	0xbb8b64b7	-0.0042539495
124	0xbc0c226a	-0.008553127
125	0xbb579152	-0.0032893014
126	0xbadf45ce	-0.0017034353
127	0xba8ac48b	-0.0010587139
128	0x3b9890df	0.004655942
129	0x3b5d729b	0.0033790234
130	0xbae15abd	-0.001719318
131	0xbaa8f5ad	-0.00128906
132	0xbb44254c	-0.0029929457
133	0xbb198025	-0.0023422327
134	0xbb3600a1	-0.002777137
135	0x39ea9639	0.00044743883
136	0x39d859bb	0.00041265585
137	0xba831df1	-0.001000343
138	0xbabbd0a1	-0.0014329144
139	0x3a1a3b34	0.0005883456
140	0xba65a756	-0.0008760592
141	0xbac9352d	-0.0015350931
142	0x3a990855	0.0011675457
143	0x3a996eb9	0.0011705972
144	0xbc18f1d2	-0.009334998
145	0xbb102596	-0.002199506
146	0xbb96543f	-0.0045876796
147	0xbb3c86d1	-0.002876688
148	0xbb5f25c4	-0.003404961
149	0xbb1301a3	-0.0022431395
150	0xbb988a45	-0.004655155
151	0xb9a5c796	-0.00031619956
152	0x3b2d7f7b	0.002647369
153	0x3b2a1dff	0.002595782
154	0x3b0da7d0	0.0021614917
155	0xba1f51b0	-0.0006077541
156	0xbbb4835d	-0.005508824
157	0xbb03489f	-0.00200323
158	0x3a49fe4b	0.0007705434
159	0xb9aa3f4a	-0.0003247208
160	0xba9bb677	-0.001187994
161	0xbaed2dbd	-0.0018095296
162	0xb8994ff3	-7.3105e-05
163	0x3a74fe74	0.0009345778
164	0x3ad7a3ed	0.0016452052
165	0x3b062151	0.0020466635
166	0x3ac10735	0.0014726879
167	0xba7a56be	-0.0009549669
168	0xbb64cf91	-0.0034913758
169	0x39118f08	0.00013881561
170	0xbad509b9	-0.0016253508
171	0xbb093204	-0.0020934353
172	0x3a91d8b6	0.0011127207
173	0x3aaac19a	0.0013027668
174	0x3ab2a023	0.0013628047
175	0xb9bfa8d7	-0.00036556154
176	0xbc8ef424	-0.0174504
177	0xbbb9201b	-0.005649579
178	0xbba9d6c0	-0.005183071
179	0xbb62e397	-0.0034620517
180	0x3ac6ef54	0.0015177527
181	0x3b0c5eaa	0.002141873
182	0xbafe4c18	-0.001940134
183	0xbacb7612	-0.0015522859
184	0x3bc1358c	0.005896276
185	0x3a8eaf35	0.0010885956
186	0x3aee5ede	0.0018186232
187	0x3b07fe45	0.0020750922
188	0xbb1c11cf	-0.0023814326
189	0xbb0f0e71	-0.0021828676
190	0xbaf0a6c9	-0.0018360253
191	0x39ce32fc	0.00039329368
192	0x3b0ec4fa	0.0021784888
193	0x3b1edca4	0.0024240399
194	0x39db836d	0.00041868855
195	0xba9742e7	-0.0011540324
196	0x3b99bf84	0.00469202
197	0x3afefc3b	0.0019453833
198	0x3b8bf1a4	0.004270749
199	0x3a90d45d	0.0011049617
200	0xbb8ba149	-0.00426117
201	0xbb458b02	-0.003014267
202	0xbaad8750	-0.0013239179
203	0x39bf73fc	0.00036516774
204	0x3b85e654	0.004086295
205	0x3b3902ca	0.0028230422
206	0xbbb39224	-0.005480068
207	0xbb008d8d	-0.001961562
208	0x3c4c3d10	0.01246573
209	0x3b97c4b3	0.0046316027
210	0x3b76c5d6	0.003765454
211	0x3afeaece	0.0019430758
212	0xbc7b34df	-0.01533243
213	0xbb778ace	-0.0037771943
214	0xbbecaab5	-0.0072224983
215	0xbb9e6be7	-0.0048346403
216	0xbae84426	-0.0017720505
217	0xbae47e1a	-0.0017432601
218	0x3b9cf7b6	0.0047902716
219	0x3af07d83	0.0018347952
220	0x3c0cd3bf	0.008595406
221	0x3b865f03	0.0041006817
222	0xbbf865f8	-0.007580515
223	0xbafbf746	-0.0019223474
224	0x39ed6357	0.00045278177
225	0x391d94da	0.00015028138
226	0x3b23b999	0.002498245
227	0x3a206cc9	0.0006119726
228	0x3b8dbffb	0.0043258644
229	0x39ef17bb	0.00045603313
230	0x3b4976af	0.0030740907
231	0x3b10518c	0.0022021262
232	0x3c00e9cd	0.007868242
233	0x3ba4a08a	0.0050240206
234	0xbc31dbb1	-0.010855601
235	0xbb6fb84f	-0.0036578362
236	0xbb247e8b	-0.002509984
237	0xbb1d08e6	-0.0023961603
238	0xba197602	-0.00058540714
239	0x3a2d22ba	0.0006604601
240	0x3ba46480	0.0050168633
241	0x37e43f0d	2.7209078e-05
242	0x3ad0df29	0.0015935648
243	0x3b2f4b33	0.0026747703
244	0xbb0412fb	-0.0020152915
245	0xbb11fcd2	-0.0022275937
246	0xb99d636d	-0.00030019452
247	0x3a9dd59c	0.001204181
248	0x3b315bbe	0.002706274
249	0xb99409a6	-0.00028235948
250	0xba89566c	-0.0010478026
251	0x3ac0659c	0.001467872
252	0xbb23ff42	-0.0025023972
253	0xbb715216	-0.0036822609
254	0x3c236ccc	0.00997467
255	0x3b876ff6	0.00413322

exp_avg_sq f4 [256, 4]
0	0x378cfa9c	1.6806e-05
1	0x36df0baa	6.6472758e-06
2	0x377221d2	1.4432198e-05
3	0x37005441	7.649011e-06
4	0x37d2cc0c	2.5128968e-05
5	0x3719676a	9.143589e-06
6	0x37f4940c	2.9156006e-05
7	0x36844954	3.942443e-06
8	0x36d57da9	6.3625234e-06
9	0x3633b07d	2.6775808e-06
10	0x36f78a05	7.377241e-06
11	0x35fd167c	1.8856513e-06
12	0x378d67cd	1.6856846e-05
13	0x37421cf3	1.1570041e-05
14	0x380513a5	3.1727966e-05
15	0x37366d0e	1.0873437e-05
16	0x3804acb6	3.1632102e-05
17	0x37326e41	1.0635297e-05
18	0x37e6909c	2.7485476e-05
19	0x3699bb10	4.5815323e-06
20	0x38d44009	0.00010120875
21	0x3855df84	5.0991322e-05
22	0x392f3a84	0.000167111
23	0x38621831	5.390513e-05
24	0x371ae4f1	9.23242e-06
25	0x37059f8a	7.964563e-06
26	0x37ec9964	2.820482e-05
27	0x3757d2d9	1.286409e-05
28	0x3739e5f2	1.1080398e-05
29	0x36906bb5	4.304073e-06
30	0x37285797	1.0033974e-05
31	0x36894d22	4.0918976e-06
32	0x378c0a7e	1.6694186e-05
33	0x369a8e30	4.6061105e-06
34	0x37a96c97	2.0196936e-05
35	0x364c98db	3.0487342e-06
36	0x374b4d2a	1.2117709e-05
37	0x373b6fa5	1.1172063e-05
38	0x3791bcae	1.7373208e-05
39	0x374e6f41	1.230446e-05
40	0x38856406	6.360565e-05
41	0x381aeb22	3.6935446e-05
42	0x38c35139	9.3134535e-05
43	0x38130230	3.504957e-05
44	0x37e1f167	2.6934502e-05
45	0x371c390e	9.311609e-06
46	0x37ea0fd9	2.7902353e-05
47	0x36ca7793	6.0339894e-06
48	0x38297228	4.0399056e-05
49	0x37a5ec9c	1.9779713e-05
50	0x38bc20ef	8.970673e-05
51	0x37e29b46	2.7013604e-05
52	0x3698577a	4.5401366e-06
53	0x35cb1ece	1.5133644e-06
54	0x370350d3	7.827027e-06
55	0x365af5bc	3.2627568e-06
56	0x380646fb	3.2014195e-05
57	0x3745f125	1.1798261e-05
58	0x380c5f08	3.3467106e-05
59	0x36b9dae2	5.538911e-06
60	0x37eec0d9	2.8461613e-05
61	0x37028be8	7.781178e-06
62	0x37fd84c8	3.0221781e-05
63	0x369cdc72	4.6748255e-06
64	0x37c3d946	2.3346987e-05
65	0x36f84799	7.399311e-06
66	0x37d507fa	2.5395293e-05
67	0x36a88523	5.0222893e-06
68	0x38625daf	5.396985e-05
69	0x3804e97f	3.1688713e-05
70	0x390d73b1	0.00013489906
71	0x38266a64	3.9676568e-05
72	0x3883b495	6.280203e-05
73	0x381925ed	3.6513364e-05
74	0x38f44337	0.000116473464
75	0x383050d1	4.2036936e-05
76	0x38aa2d89	8.114713e-05
77	0x3833572f	4.275812e-05
78	0x38cfb682	9.904524e-05
79	0x381d6a91	3.7530965e-05
80	0x385b33aa	5.2261785e-05
81	0x37ecfc38	2.825084e-05
82	0x38c1e752	9.246044e-05
83	0x37dbe48d	2.6213262e-05
84	0x381fc7df	3.80947e-05
85	0x379c7a29	1.8653534e-05
86	0x3899ef1d	7.340147e-05
87	0x37a6009b	1.9789024e-05
88	0x37bf7154	2.2821747e-05
89	0x370e31f6	8.475492e-06
90	0x37fa9fad	2.9876677e-05
91	0x36fec4a7	7.5926832e-06
92	0x389ca908	7.470144e-05
93	0x382ea8dd	4.16421e-05
94	0x38e55608	0.000109355955
95	0x382c0dfc	4.102102e-05
96	0x3775e5d6	1.4656651e-05
97	0x36365723	2.7170834e-06
98	0x374aa272	1.20779605e-05
99	0x368be9f8	4.1697604e-06
100	0x37c2f851	2.3242234e-05
101	0x371628ea	8.950223e-06
102	0x37b2eab8	2.1328553e-05
103	0x37000110	7.629642e-06
104	0x3804c718	3.1656673e-05
105	0x3725dd13	9.886239e-06
106	0x37fac832	2.9895546e-05
107	0x36d4f6a5	6.3468055e-06
108	0x371c1fa6	9.305693e-06
109	0x36635687	3.3876001e-06
110	0x371ef8bf	9.47545e-06
111	0x3685166e	3.96632e-06
112	0x3720746b	9.563849e-06
113	0x367a9344	3.7338623e-06
114	0x37170645	9.001761e-06
115	0x36043ef1	1.970617e-06
116	0x378d8b11	1.6873268e-05
117	0x367290ce	3.6145098e-06
118	0x3774ac09	1.4583588e-05
119	0x369904d2	4.5603165e-06
120	0x389f6700	7.600896e-05
121	0x389680ca	7.176546e-05
122	0x39668f37	0.00021987861
123	0x389a2431	7.3500334e-05
124	0x380b50d0	3.3215445e-05
125	0x37661d5f	1.3715907e-05
126	0x38805796	6.11983e-05
127	0x37a5a9a1	1.9748522e-05
128	0x378104f5	1.5380307e-05
129	0x3736e263	1.0900755e-05
130	0x37e97260	2.7829024e-05
131	0x3785e015	1.5959182e-05
132	0x3785e119	1.5959655e-05
133	0x36ded113	6.640455e-06
134	0x37859be7	1.5927433e-05
135	0x360c447b	2.0901487e-06
136	0x3811ca29	3.475897e-05
137	0x3790216c	1.7181701e-05
138	0x3837cda3	4.3822114e-05
139	0x379f9b1a	1.9026502e-05
140	0x371d0633	9.359373e-06
141	0x3780beaa	1.5347574e-05
142	0x3786f79c	1.6089347e-05
143	0x37745d89	1.4565311e-05
144	0x37e64be2	2.7453472e-05
145	0x3730330e	1.0502305e-05
146	0x381f0d70	3.792107e-05
147	0x37527c6b	1.2545944e-05
148	0x378540b6	1.5884969e-05
149	0x36dca641	6.5758654e-06
150	0x378b15d9	1.6580265e-05
151	0x3692bb33	4.372932e-06
152	0x37a7a45f	1.9984493e-05
153	0x36c8cae2	5.984083e-06
154	0x379e1f0c	1.8849525e-05
155	0x36d40daa	6.319683e-06
156	0x379b3f6f	1.8506978e-05
157	0x36f83af1	7.3978376e-06
158	0x3814af85	3.5449415e-05
159	0x36e7d654	6.9092875e-06
160	0x3737b0a7	1.094878e-05
161	0x36dcf3f5	6.5849113e-06
162	0x37548b1f	1.2668576e-05
163	0x36cd2e3d	6.114859e-06
164	0x37bafb48	2.228994e-05
165	0x36d84677	6.445505e-06
166	0x37b8b613	2.2019294e-05
167	0x369a775c	4.603453e-06
168	0x38033942	3.128616e-05
169	0x3744487c	1.1699387e-05
170	0x3825c187	3.9519302e-05
171	0x37268a0a	9.926511e-06
172	0x36a9cb19	5.060236e-06
173	0x35a1b3a6	1.2047719e-06
174	0x36aedddc	5.211432e-06
175	0x35749b1a	9.1122786e-07
176	0x38ee5d1f	0.000113660695
177	0x3898754d	7.269774e-05
178	0x396108b8	0.0002146092
179	0x3893ff63	7.057076e-05
180	0x3732a468	1.0647906e-05
181	0x3722236d	9.664201e-06
182	0x37a092d1	1.9141853e-05
183	0x372f88c4	1.0462656e-05
184	0x37bcc908	2.2504959e-05
185	0x36e053c1	6.6854705e-06
186	0x3815d5fb	3.5723653e-05
187	0x36f6af7f	7.3518017e-06
188	0x36fa57db	7.4608083e-06
189	0x363b0f9d	2.787426e-06
190	0x36d6006c	6.377746e-06
191	0x364e6f07	3.0761018e-06
192	0x37207593	9.564118e-06
193	0x363ebddf	2.8422726e-06
194	0x37131c79	8.768512e-06
195	0x362880e0	2.5108966e-06
196	0x36cfa3ca	6.1881483e-06
197	0x35f5c56a	1.8311378e-06
198	0x36d1fa77	6.2578433e-06
199	0x35c914e2	1.4981745e-06
200	0x36ae4501	5.193637e-06
201	0x366bc4b8	3.5132234e-06
202	0x36fbcf0c	7.5044863e-06
203	0x36722444	3.608192e-06
204	0x3826cb07	3.9766568e-05
205	0x3808c81c	3.2611293e-05
206	0x38dd239f	0.00010544736
207	0x380c3d4b	3.3435685e-05
208	0x384ac53c	4.834424e-05
209	0x37e8b201	2.7739445e-05
210	0x38c5a675	9.424697e-05
211	0x380d5e1d	3.370467e-05
212	0x38ca38d9	9.642699e-05
213	0x384fbcd5	4.952851e-05
214	0x392775c5	0.00015970234
215	0x386250c6	5.3957825e-05
216	0x37582d8f	1.2885211e-05
217	0x3707e592	8.100078e-06
218	0x380e9122	3.3990604e-05
219	0x3700ac7d	7.669555e-06
220	0x390e546e	0.00013573628
221	0x38d00390	9.9188765e-05
222	0x39a11da0	0.00030730385
223	0x38def4a0	0.0001063135
224	0x36ec5498	7.043196e-06
225	0x36096c95	2.0477794e-06
226	0x37240fd2	9.778845e-06
227	0x3609a016	2.0507773e-06
228	0x376f87dd	1.4277143e-05
229	0x36c6494c	5.9093927e-06
230	0x3786406b	1.6004042e-05
231	0x36b22d13	5.3100607e-06
232	0x39643192	0.00021762241
233	0x3935cd21	0.00017337922
234	0x39fe389d	0.00048488835
235	0x39366c29	0.00017397165
236	0x36f4f56a	7.3003366e-06
237	0x36cf4323	6.1768965e-06
238	0x3746fedb	1.1861058e-05
239	0x36cf2a12	6.1739784e-06
240	0x386cb658	5.6436606e-05
241	0x37ec203d	2.8148404e-05
242	0x389c86aa	7.463743e-05
243	0x37ddde8e	2.6448888e-05
244	0x3744254a	1.1691192e-05
245	0x3691b309	4.342179e-06
246	0x3752236f	1.2525225e-05
247	0x362b4c58	2.5525424e-06
248	0x386f989a	5.712416e-05
249	0x38009110	3.0652678e-05
250	0x38b1c0f4	8.475958e-05
251	0x38079877	3.2328502e-05
252	0x3878bef4	5.9305647e-05
253	0x3890d9b9	6.907009e-05
254	0x3944325f	0.00018710781
255	0x388cc4f4	6.7124056e-05
