distributed_shared/worker_logs/worker_9/models/model_episode_40.pt (torch, 816842 bytes, 16 tensors)

0.weight f4 [256, 4]
00000000: 278e ccbe d961 8e3e 8bc0 b7be 32fc 883e
00000010: 84f4 cdbe 5744 e9be 6e61 333e ab43 d1bd
00000020: 0eaa 14be c230 1dbc 3c53 bc3e d6b4 84be
00000030: 3d31 b8bc 1b45 f53e a69d dd3e dc26 b4bd
00000040: a667 d8be 0814 d53e 0e7b e7be ccf7 2d3e
00000050: e81a e1be 0b3a 9d3e 1b0a 6b3e 9a47 30be
00000060: 8d4a a3bd a10a 69be 89ae 80bd fdd5 8cbe
00000070: 8092 67be e30c 583e b826 26be c312 efbe
00000080: aedb a13e 409e 67be 81db ff3d 0c51 03be
00000090: 650f bfbe 47e1 edbd ccca 733e cde2 013f
000000a0: eb45 40be d6a6 a0be 02a6 57be cada c33e
000000b0: 7c51 d93e 902d 483e d655 51bd b076 9cbe
000000c0: c3c9 a73c e8d1 923e 76ed 7d3e d9e3 193c
000000d0: 0817 febc 2c5e a4be e071 963d 0e75 e8bd
000000e0: c3ba 14bd 56b6 2d3e af2f 55be 7f9f d2be
000000f0: add4 d23e ae8a 25be c4c4 f0be 6439 f7be
00000100: 7baf 923e c254 29be df99 df3e 3c68 fabe
00000110: 57f7 e13e 26b5 e1be d788 0fbe b021 cdbe
00000120: 2d7f 6fbd f6e9 06bd 6fd2 863e 71e0 0ebe
00000130: 449d c93e 4dd7 013f 88a9 06be f0dc 29be
00000140: 5671 113e b652 873e 0b9e 54be 4a32 05bf
00000150: fe33 c73e aaf9 903e 183f fa3d b3f6 69bd
00000160: 1ec4 f03d e7ff b7bd ed1f 823d d746 7c3e
00000170: fbf4 da3e 32ee 9c3d 01d4 b9be 857c e23e
00000180: 2f7d e1be 66a9 c8be dbf7 553e 3108 89be
00000190: 13c6 d1bd 89ef 4b3e daa5 44be 1587 e7bd
000001a0: a76d cd3c 50d1 a5be 0120 1c3e 42d4 f8be
000001b0: 00d4 fa3d e721 3c3e 7bc5 33be 1d1c 4ebe
000001c0: baee b63e 37c5 cabe e896 b8bd 5328 a5be
000001d0: e973 f3be d8e2 74be bd4a 95be 193e d5be
000001e0: 4743 abbd ec66 943e 3c82 fb3e d24e c5be
000001f0: 779d 6b3c a0a7 183e 3a26 243e 5b37 9a3e
00000200: c15e f3be 87fd 56be 45c8 523e 289d 99be
00000210: 6172 4abd c74b 6b3e 3db8 71bc 3cfd 7b3e
00000220: 5c71 963d 664d d1be 2fbc 11be c962 d43e
00000230: 9589 b73e 6aeb 503d dd08 a8be b50b 72be
00000240: c952 7d3d 8dbb ce3e 7619 ca3e 6877 f6be
00000250: a80a 9fbe 1709 c73e b2db ab3e 62a3 423e
00000260: e225 90be 6b95 acbd 0c0f 22be b26c bfbe
00000270: 53d5 d2bc 383b fdbd 4d01 bebe 9192 8ebd
00000280: 7a98 9ebe 6e2d 8b3e c4ce 23be 0f94 55bd
00000290: a011 303e 7d95 5dbd b200 423d a055 c1bd
000002a0: 5475 44be e6c4 d83e 7152 54be 21d3 d43e
000002b0: 7afc 593e c1bd 93bd 5e05 8fbe b6d6 76bd
000002c0: 1b76 973e 5ede 11be 5a12 a7be b967 cabe
000002d0: 7757 ccbe c2e1 893d 2b9d 9fbe d894 29be
000002e0: 6e5d 173e 1809 793e a61d fd3d 138d d0be
000002f0: 51ee 873e 75d0 ff3e 2710 4fbe e035 dbbe
00000300: 890b e3be 4e05 983e b65d f8be 9cb7 d73e
00000310: 249c c33e 3bb4 2d3e 2678 583e 0e40 dcbd
00000320: 1bef d13e 6e15 bdbe ad7a 2e3e 6cdc b13d
00000330: 6fed e7bc 5fa5 f1be 33b5 fdbd 7318 003d
00000340: 4e84 943e b091 20be 7f4b 6cbd 548b a1be
00000350: e603 ee3e 92b6 7e3d 1628 1fbd 1651 1ebe
00000360: cc71 45be 636f 783e 0b66 963e cc6a 363d
00000370: 79b2 9ebe 7c02 9bbe 5af9 c4bd c458 823e
00000380: 9986 4d3e d197 8a3e 508f c33e 8a9a efbe
00000390: 7ca6 b13e e96b 1dbe 762a 9c3e 9188 d23e
000003a0: 2d11 b5bd 18ca c53e 18a1 6c3e 1530 f83c
000003b0: 9736 423e 7ef9 993e 1625 823e 4db7 733e
000003c0: a66e e03e 71f8 483e d3ad ce3e 0cd6 583e
000003d0: 8099 883e 941c a2be b5dc e8be c7af 4d3d
000003e0: 2fed 03be 727b f1be 4b1e 18be c4e4 2f3a
000003f0: 7585 8f3d 16b7 0c3e 28e1 e43e d845 f5be
-0.39952204 0.27809027 -0.35889086 0.2675491 -0.40225613 -0.45559952 0.17517635 -0.10217985
-0.14517996 -0.009594144 0.36782253 -0.25919217 -0.022484416 0.47904286 0.4328434 -0.08796474
-0.42266577 0.41616845 -0.4521107 0.16989058 -0.4396584 0.30708346 0.22953074 -0.17214814
-0.07973204 -0.22757961 -0.0628329 -0.2750701 -0.22614479 0.21098666 -0.16225708 -0.46694002
0.31612915 -0.22618961 0.12493039 -0.12823886 -0.37316433 -0.11615234 0.2380783 0.50736696
-0.18776672 -0.31377286 -0.2105942 0.3825286 0.4244498 0.1954863 -0.05110725 -0.305593
0.02048195 0.2867577 0.24797615 0.009392702 -0.031016842 -0.32103097 0.07345939 -0.113504514
-0.036310922 0.16964087 -0.20818971 -0.4113731 0.41177884 -0.16166183 -0.4702512 -0.48285973
0.28649506 -0.16536239 0.43672082 -0.4890765 0.44134018 -0.44083518 -0.14017044 -0.40064764
-0.058470894 -0.032937966 0.26332423 -0.13952805 0.39377797 0.5071915 -0.13150609 -0.16588187
0.1420339 0.2643029 -0.20763414 -0.5202986 0.38906854 0.2831548 0.122190654 -0.057120036
0.117561564 -0.089843564 0.063537456 0.24636398 0.4276503 0.0766262 -0.3629456 0.44235626
-0.4404082 -0.3919174 0.2089533 -0.26764062 -0.10242858 0.19915594 -0.19203892 -0.11305062
0.0250767 -0.32386255 0.15246584 -0.4859944 0.12247467 0.18372308 -0.17555802 -0.20127912
0.3572901 -0.39603588 -0.09013158 -0.32257327 -0.4754937 -0.23914659 -0.29158583 -0.4164894
-0.083624415 0.28984773 0.49122798 -0.38536698 0.014380804 0.14907694 0.16030207 0.30120358
-0.4753323 -0.2099515 0.2058421 -0.30002713 -0.049425486 0.22978126 -0.0147533985 0.2460832
0.0734584 -0.40879363 -0.14231943 0.41481617 0.35847154 0.05100576 -0.32819262 -0.23637278
0.06184653 0.40377465 0.3947255 -0.48137975 -0.31062818 0.38874123 0.33566052 0.19007638
-0.28153902 -0.08426937 -0.15826052 -0.37387615 -0.025736487 -0.12364811 -0.37110367 -0.06961549
-0.30975705 0.27183098 -0.15996844 -0.052143153 0.17194223 -0.05409764 0.047363944 -0.0944016
-0.19185382 0.42337722 -0.20734574 0.4156733 0.21287718 -0.07213927 -0.27933782 -0.060263358
0.29582295 -0.14244983 -0.3263119 -0.3953226 -0.3991048 0.06732513 -0.31174597 -0.16560686
0.14781734 0.24319875 0.123591706 -0.4073263 0.26549008 0.49963728 -0.20221005 -0.4281454
-0.44344738 0.29691547 -0.48508996 0.4213227 0.38205063 0.16963284 0.21139583 -0.10754405
0.41002735 -0.36930412 0.17038985 0.0868462 -0.02831146 -0.4719648 -0.12388077 0.031273317
0.2900719 -0.15680575 -0.057689186 -0.3155161 0.4648735 0.06218583 -0.03885659 -0.1546062
-0.19281691 0.2426124 0.29374728 0.044535443 -0.3099554 -0.30275333 -0.096178725 0.25458348
0.20070876 0.27068952 0.38195276 -0.4679759 0.3469733 -0.15373196 0.30501145 0.41119817
-0.08841167 0.38630748 0.23108327 0.030296365 0.18966137 0.3007316 0.2541892 0.23800392
0.43834418 0.19626023 0.40366992 0.21175402 0.2667961 -0.31662428 -0.45480886 0.050216462
-0.12883447 -0.47164494 -0.14855306 0.0006709809 0.07007877 0.13741717 0.4470303 -0.4790485

0.bias f4 [256]
00000000: 4022 eabc 9f0d 80be e499 2d3e 0f05 bebe
00000010: fd92 513e 40d8 12be e1a6 82be 9cfd 383e
00000020: 392b e43e 942d 643e d0a6 dc3e 58ed 7e3e
00000030: a344 dabe 6316 b8be 9b38 943e b008 cfbc
00000040: 2868 a43e 78e0 f23e 4200 f0be d094 4dbe
00000050: 2b1d e7be d63a 90be 0c5b 773d bab3 c6be
00000060: 0763 c6be 2cf9 ccbd ad20 ed3e 33f5 1c3e
00000070: 8a00 9c3e 1fc4 1cbe a78c 53be 09c0 bb3e
00000080: 9357 a8ba dfc4 d23e 08d4 eebe 061d acbe
00000090: a537 eabe 869b e13e e7fd e73e 52d9 0a3e
000000a0: b5ac 2fbe 5383 b63d cbe4 a4bd 859a 85be
000000b0: db89 84be 0a75 ea3e f48d a23e 0315 b1be
000000c0: df13 e63e 6866 2fbe ab73 49bd b4f8 f13e
000000d0: 97c5 663d b68e 88be 78b2 28be c854 a7be
000000e0: 2d2d ac3e 950d 713d 726e 713e eccc aa3e
000000f0: 91a1 b53e 4efb d6be 33a8 e23e dc93 e23e
00000100: 38ce 983e b4f7 bc3e 0819 2dbe 2585 ecbe
00000110: 5996 f0be 7f70 44bd 029a f73e a20a 973e
00000120: 68d2 473e dc5d 7cba 96e8 8f3e 54b8 843e
00000130: 52fa 033e f304 f73e 1612 013e 4cca f8be
00000140: ad1e 1a3e 188c a2be 8299 aebd 8127 debe
00000150: 971d 813e 9f44 bc3e 104a 40be a510 d13e
00000160: d5e1 6e3e bf1c 1f3e 047e 873d d3be 43bd
00000170: c208 dabe 3284 66be 53a1 a23d b3d6 c8be
00000180: a674 2a3d 167a 783e a2e3 22be 975f 2fbe
00000190: 423c b1bb cb31 b43e f944 f6bd 5999 e33e
000001a0: d947 e73d aa99 d9be bac2 b03e cf18 13be
000001b0: b892 ca3e 14e9 a23e 4c17 863e 5014 73bd
000001c0: 5f3e c3be efd3 da3e d659 92be 96c4 dcbd
000001d0: 73c4 1ebe 0d3c 603e ed18 c63e 290f c7be
000001e0: 7569 203e 2a5d 9ebc b805 013e 00b6 9ebd
000001f0: a47a aebc 96ad 773e bacf ad3e 1682 223e
00000200: 5b1e c03e 71ad 47be 2c96 bbbe 84b2 c7bd
00000210: 6446 163e 8152 903e bcab 6c3c bf53 7fbe
00000220: c873 b3bc 8ced c5be c8bd 9ebe 9901 ec3e
00000230: d8cf 80bd 2d68 debd b916 66be a75d 90bd
00000240: 86c2 95be 707f 143e ae9e 8f3d eb84 18be
00000250: a2be 68be 5a3c b63d 7cba 57bd eca6 653c
00000260: c4bd d3bc 2c21 70bd dc56 543d 1af7 c53d
00000270: 0dec 9b3e c21b 123e 06ba 94be e5c2 693e
00000280: bfca 413e aa6e f8be ba0e 46be c24b ad3e
00000290: 8fee 393e 2126 f63e 1f7b db3e 33b7 613e
000002a0: fa89 9abe 8550 72be 40ce b5be d1b0 37be
000002b0: 859f f6be 40a3 d23c c29d 383e 289d 8f3e
000002c0: 8dbc bcbd aadb 5a3e f13b cabb b2f3 fa3e
000002d0: 3fbd b4be f6ba f5be 11bf 703e 8508 b53e
000002e0: 0ba9 8b3e 5d26 21be af32 2a3e b74f 5c3e
000002f0: 604b 033e 0b12 ad3e 7dcc cbbd 5c7b a03e
00000300: 91c8 963e c772 7dbe ff7c a63e 74f1 d1bd
00000310: fc24 7bbb 75f5 aabd 067b 733e e944 b83e
00000320: 3cd3 32be 21ac 963d a527 84be bd7d 003d
00000330: 880c 683d 5a25 c6be ada5 99be 05dc 46be
00000340: 5581 ba3e 9702 ea3e 5a88 89bd 14db fb3e
00000350: 37c9 dcbe 5a15 fabe 1e50 e93d 43fc c9bd
00000360: 1abe 73be 0610 08bd 9ca7 3ebe 6b0a 29be
00000370: d3a8 d53e 73ab ed3d ec24 38bc 7c5e c4be
00000380: 5873 8a3d ba24 1b3e 2295 d5be 4ba2 db3d
00000390: 998d fbbe 45da 5cbe e672 773e de39 bc3e
000003a0: f914 55be ed63 bd3d 0d4f a23b 7a0d b0be
000003b0: b604 d53c 3eef d8be 6f0b 953e 5ead bf3e
000003c0: 9103 23be 4abb 973e 5fdf a13c 7a71 94be
000003d0: 747f d43e 7553 a1be 6b38 60bd 8b64 1bbe
000003e0: 59b1 90bd 072e 1ebe 6b6d cfbe 6906 8f3e
000003f0: 7a4c 85bc bb9b d83d 16b4 8f3e 6807 a4bb
-0.028580785 -0.25010392 0.16953236 -0.37113234 0.20466228 -0.14340305 -0.25517944 0.18065494
0.44564226 0.22283012 0.43096018 0.24895227 -0.4263049 -0.3595458 0.28949437 -0.025272697
0.32110715 0.4743688 -0.46875197 -0.20076299 -0.4513944 -0.28169888 0.060389563 -0.38808995
-0.38747427 -0.10008463 0.46313992 0.15327911 0.3046916 -0.1530919 -0.20659123 0.3666995
-0.0012843482 0.41165826 -0.46646142 -0.33615893 -0.45745578 0.44063967 0.453109 0.13559464
-0.17155726 0.08911767 -0.08051451 -0.26094452 -0.25886425 0.4579242 0.31748927 -0.34586343
0.44937035 -0.17128909 -0.049182575 0.47260058 0.05634078 -0.2667138 -0.1647433 -0.3268187
0.33628216 0.058850843 0.23577288 0.33359468 0.35474828 -0.41988605 0.4426895 0.44253433
0.29844832 0.36907732 -0.1690408 -0.4619533 -0.46989706 -0.047958847 0.48359686 0.295003
0.19513857 -0.0009627023 0.28107136 0.2592188 0.12888458 0.48245963 0.12604555 -0.4859184
0.15050764 -0.31747508 -0.08525373 -0.43389514 0.25217888 0.36771104 -0.18778253 0.4083301
0.23328336 0.1553831 0.066158324 -0.047789406 -0.42584807 -0.22511366 0.079409264 -0.39226303
0.04161515 0.24265322 -0.15907148 -0.17126308 -0.0054087946 0.3519424 -0.12024874 0.44452932
0.11293001 -0.4250005 0.34523565 -0.14364932 0.39565063 0.3181845 0.2618965 -0.059345543
-0.38133523 0.42739818 -0.28584164 -0.10779683 -0.15504627 0.21897908 0.38690892 -0.38878754
0.15665229 -0.019331533 0.12599838 -0.077495575 -0.021298714 0.24187312 0.33947545 0.15869936
0.3752316 -0.19499756 -0.3663801 -0.09750846 0.1467529 0.28187945 0.014445242 -0.2493429
-0.021905795 -0.38657796 -0.31004167 0.4609497 -0.06289643 -0.10859714 -0.22469606 -0.07049113
-0.29249972 0.14501739 0.070126876 -0.14894454 -0.2272897 0.0889823 -0.05266808 0.014016848
-0.025847323 -0.058625385 0.051840648 0.096662715 0.3045353 0.14268401 -0.29048175 0.22828253
0.18924998 -0.4852193 -0.19341555 0.3384686 0.18157409 0.48075965 0.4286737 0.22042541
-0.30183393 -0.23663528 -0.3550892 -0.17938544 -0.4816858 0.02571261 0.1802893 0.28049588
-0.09215651 0.21372858 -0.0061716964 0.4901405 -0.35300633 -0.47994202 0.23510386 0.35358062
0.27277407 -0.1573729 0.16620897 0.21514784 0.12821722 0.33802828 -0.099511124 0.31344116
0.29449895 -0.24750815 0.3251724 -0.10251132 -0.0038321605 -0.083475985 0.23777398 0.35990074
-0.17463392 0.0735705 -0.25811496 0.031369913 0.056652576 -0.38700372 -0.30009213 -0.19419868
0.36426798 0.457051 -0.0671546 0.4919058 -0.43122265 -0.48844415 0.11392234 -0.09862568
-0.23802987 -0.033218406 -0.18618625 -0.1650788 0.41730365 0.11604967 -0.011239272 -0.38353336
0.06760281 0.15150729 -0.41715342 0.10724314 -0.49131468 -0.21567638 0.24164924 0.367629
-0.20808782 0.09247575 0.0049532712 -0.34385282 0.026003223 -0.42370027 0.29110286 0.37436956
-0.15919329 0.29635078 0.019759832 -0.28992826 0.4150349 -0.31508985 -0.054741304 -0.15175073
-0.070650764 -0.15447246 -0.40513167 0.27934578 -0.016271818 0.10576578 0.28067082 -0.0050057657

2.weight f4 [256, 256]
00000000: 4bff debb 19cb 2f3d 3f95 45bd 3dee d23b
00000010: 7028 833c 407e 233d e809 2f3d 4855 23bc
00000020: 1cfe d5ba 357f 99bc f8a0 eb3c f643 493d
00000030: 4aa0 d2bc 9160 2d3d d8a0 1a3d 49c6 8ebc
00000040: 83f2 5abd 407f 583c dac2 813c dcc1 8bbc
00000050: 66b9 603d 2c8e 143d ba9f ef3c dd94 1abc
00000060: 26a3 483d e53f 7e3c 7eb7 5fbc 7d91 0dbd
00000070: 6518 1a3d b090 363b f481 2b3c f4c9 2c3d
00000080: a540 76bb 5150 f13c 0bcf bebc c0d6 013d
00000090: 962b e9bc 87ed 27bd 9448 d03c c425 153d
000000a0: f05a 7b3c 0a84 203d 7a30 9cbc b3b7 4b3d
000000b0: ed43 c5bc fe36 5f3d 50db 293d d563 043d
000000c0: 4ae4 45bd 93d5 0ebd 1360 cfbc ba8b 0fbd
000000d0: c478 70bd 4fac 173d 296c 1c3d 2c94 cf3c
000000e0: a238 92bc a6d2 9d3c a353 6a3c 1c4f 54bc
000000f0: 9bc7 663d e957 8b3a e772 24bd a6ff 393c
00000100: d4b0 0fbd 2b5b 1fbd edad 7abc af7f f83c
00000110: 8144 71bb 49e2 62ba a9ad 613d 2799 483d
00000120: 09cf 99ba 0e8c dbbc 60ec 3d3d 878a a93c
00000130: da2c ef3b 5dec 883b ab5a fd3c c69d 1f3d
00000140: 51b5 30bd d66b 0a3d 27e3 673d d909 443d
00000150: f6de 4b3d a83d 1ebc 489e 4b3d 28a6 163d
00000160: e01c 443d 597e bd3c ef93 3bbc 7ad0 1a3d
00000170: cbaf 76bd 6593 833c db7e 713a 2775 463c
00000180: 2f00 6ebd c4d2 043d 3887 653c 7eed 0fbd
00000190: d801 2f3d a6dd dbbc 1372 723d 71c2 5f3c
000001a0: c304 603d 310e acbc ffb8 07bb dced 503d
000001b0: 78e3 493d d3c5 2dbd 3122 66bd 3f62 8fbc
000001c0: 1bda 073d 61d2 6c3d 12f2 81bc 458a 52bd
000001d0: 3795 ad3c 705d f3bc 1613 80bc af27 8dbb
000001e0: 3d8e 073d ca46 b53b c8ee dfbb 7bc4 3e3c
000001f0: bc70 aa3c 56ff 683d 1288 c53b 2ae1 63bd
00000200: 72d4 b0bc 4f37 14bd 556d 34bd 2d41 6bbd
00000210: 5fc1 3ebd 7703 40bd 308e 18bd 669d b7bc
00000220: 9bba 5d3d 1ea4 4f3a 1a2a 00bc 6444 b4bc
00000230: 8308 0a3d 6bc4 7cbb 32f1 543d 62fd b23c
00000240: 634b 95bc 95fd c8b9 4e23 f93c b1dc b1bb
00000250: 9f93 d13c 8ef8 e6ba 4382 0b3d 4bbd 75bd
00000260: 79c8 fe3c 45dd 70bd 6c6d fcba 8ef8 863c
00000270: 27d7 31bd 27ce 4d3b 8ec4 e13b cefb 7fbd
00000280: 0dd7 123d 26b3 f13b 61f2 42bd 41b7 b03c
00000290: 5053 09bc 0fbe 863d 2642 85bb 3515 f13c
000002a0: 452c 33bd 9c66 78bc 0097 23bc 7f3e 61bd
000002b0: ed7e eebc 1879 ebbc 3a74 77bd 15b0 d6bc
000002c0: 5d2d 9b3c fbdf 66bd b4a0 d7bb 601d 08bd
000002d0: 1a2a 703d 3892 5cbc 86ca 1bbd 0b2b 3ebd
000002e0: bc3f 07bd e517 0abc ec0c e53c 0998 40bd
000002f0: 2006 b53c 0692 bc3c 9c7e 003d afa8 a13c
00000300: 7cc0 33bd a83a 53bd 14d5 763d d2c4 6d3c
00000310: b3ab d7bc 5a3d d43c 7ef1 83bc 50b2 e9bb
00000320: cabb 843d 00c3 1abd 4c48 31bd 26db 3c3d
00000330: 9bb6 9a3c 7ce0 1f3d c439 2abd 6530 73bd
00000340: 62cc 46bd 2e60 cbbc fb00 37bb 6d2f 293d
00000350: 9f15 1abc 9108 743a f9d6 78ba 9079 ebbc
00000360: 757b 98bc afee 27bd 4548 10bb 2943 38bd
00000370: 351b 393d c819 853c 269f 41bd 0ce0 14bd
00000380: 9346 573d 76c0 2fba 5f98 1f3d 2312 1dbc
00000390: 4622 18bd d094 d6bc daa6 4fbd 6de2 43bd
000003a0: c3e6 15bd b60d 8e3c f345 643d b6bc 6ebd
000003b0: 521a 72bc 17ca 843c a4f3 41bc facb 323d
000003c0: a1e3 08bd b3f3 3e3d 6be7 533c 061a 163d
000003d0: 9971 983c a11d 553d 380c 20bd aecd e73c
000003e0: d422 723d edc8 4a3d 3857 833d a8a9 e43c
000003f0: 0072 01bd b23a 59bd 01dc 083d d05a 04bc
-0.0068053356 0.0429183 -0.048238035 0.0064370916 0.016010493 0.039915323 0.042734057 -0.009969063
-0.0016326341 -0.018737415 0.02876328 0.04913708 -0.025711197 0.04232842 0.03775105 -0.017428534
-0.053453933 0.0132139325 0.015839983 -0.017060213 0.05486431 0.0362684 0.029250968 -0.009434906
0.048983715 0.015518163 -0.013654588 -0.034562577 0.03762092 0.0027857237 0.010467995 0.042184785
-0.0037575152 0.029457243 -0.023292085 0.031698942 -0.028463166 -0.040998008 0.025425233 0.03641297
0.015341505 0.039188422 -0.019066084 0.049735736 -0.024080241 0.054495804 0.04146892 0.03232177
-0.048313417 -0.03487165 -0.025314366 -0.035045363 -0.05870892 0.03702956 0.038189087 0.025339209
-0.01784927 0.019265484 0.014302167 -0.012958314 0.056342702 0.0010631058 -0.040148642 0.011352455
-0.035080746 -0.038905304 -0.015300256 0.030334322 -0.0036814513 -0.0008654935 0.055097256 0.048974182
-0.0011734675 -0.026800182 0.046368003 0.020695938 0.007299048 0.0041785673 0.030927023 0.038968824
-0.043141667 0.033794247 0.056613114 0.047860954 0.04977318 -0.009658255 0.049711496 0.036779553
0.0478791 0.023131536 -0.011448844 0.037796475 -0.060226243 0.016061494 0.00092123233 0.012112892
-0.058105644 0.032427564 0.014009289 -0.0351386 0.042726368 -0.026839089 0.05919082 0.013657198
0.05469204 -0.02100286 -0.0020709631 0.05100809 0.049289197 -0.042424988 -0.05618495 -0.017502902
0.033166986 0.05781782 -0.015862498 -0.051401395 0.021189315 -0.02970764 -0.0156341 -0.004307709
0.033094633 0.0055321204 -0.006833885 0.011643524 0.020805709 0.056884132 0.0060281837 -0.055634655
-0.021585677 -0.03618556 -0.04404958 -0.057435203 -0.04657113 -0.046878304 -0.037244976 -0.02241392
0.05413304 0.00079208787 -0.007822538 -0.022005267 0.033699524 -0.0038569223 0.051987834 0.021849338
-0.018224424 -0.00038335906 0.030412342 -0.00542792 0.025583087 -0.0017621682 0.034059774 -0.059994977
0.031101452 -0.05880477 -0.0019258684 0.016475942 -0.043418076 0.0031403394 0.006889886 -0.062496
0.03584962 0.0073760925 -0.04759443 0.021571757 -0.00838168 0.065792195 -0.0040667234 0.029429058
-0.04374339 -0.015161183 -0.009984732 -0.05499124 -0.029113257 -0.028744265 -0.060413577 -0.02620701
0.01894253 -0.05636595 -0.0065804366 -0.03323114 0.0586339 -0.013462596 -0.03803494 -0.046427768
-0.033019766 -0.008428548 0.027960263 -0.047019992 0.022097647 0.023018848 0.031370744 0.019733755
-0.04388474 -0.05156961 0.0602618 0.014512258 -0.02632699 0.025908161 -0.016106363 -0.007131852
0.064811304 -0.037783623 -0.04328184 0.046107434 0.018885901 0.039032444 -0.041558996 -0.059372324
-0.04853476 -0.024826135 -0.0027924168 0.041304994 -0.009404569 0.0009309138 -0.00094924826 -0.028744489
-0.018613556 -0.04099911 -0.0022015732 -0.044985924 0.045191962 0.016247645 -0.047270916 -0.03634648
0.05255754 -0.0006704399 0.03896367 -0.009586844 -0.03714206 -0.026194006 -0.05069623 -0.04782336
-0.036597025 0.017340522 0.05573077 -0.058285438 -0.014776783 0.016209645 -0.011837874 0.04365156
-0.03342021 0.04661913 0.012933592 0.03664591 0.018608855 0.05203021 -0.039074153 0.028296318
0.059115246 0.049508024 0.0641312 0.02791293 -0.03160286 -0.05303449 0.033412937 -0.008078292

2.bias f4 [256]
00000000: 148a 503d cc69 843d 684c d03c c5c1 c0bc
00000010: 42c7 1fbd b05d 573d 2c67 e1bc 5b2f 473d
00000020: 9804 e4bc 7e71 63bc 1ff5 483c fb4c 71bd
00000030: c733 56bd bdd9 37bd f05e a9bc f1cc 90bc
00000040: 6b3f 7d3d 6d0c 303d dce2 0dbd 0bda 373d
00000050: e138 69bd 909c 68bc f569 11bd 4675 95b9
00000060: 3012 02bd 66d6 4abd 2f38 70bd 2000 a2bc
00000070: d345 7b3d 753a 22ba a1ee 183d 6dec 063d
00000080: 44bf 10bd c5e0 853b e2b5 e5bc f7d9 f7bc
00000090: d371 2dbd b5de 443d ff3d 64bd 38f8 5dbd
000000a0: 2083 02bd 302d 9f3c b9b3 953c 88d8 4dbd
000000b0: 845b 453d 3880 20bd 79f0 2c3d 288c 573d
000000c0: 3ebf 683b 05ec 473d f0a4 5cbd 7ba7 f8bc
000000d0: b23b 093d 4e1c 823d 368c 3cbd 0856 623d
000000e0: 9c8e 34bd d14e 673d 844d 02bd c073 27bc
000000f0: 37bb 443b 2a86 1bbb 2d42 773d 2704 3c3d
00000100: fed4 213d 1584 c33c b6d0 30bc 2e1f cb3b
00000110: 6caf 3c3d 1df4 483d a11b 19bd 75f0 1bbc
00000120: 2664 863d deb3 13bd aad6 41bd a2ed 573d
00000130: c3b2 443d f6e0 543d 9fe4 863c d6dd 22bd
00000140: cca5 123d 7cc3 6a3d 92e2 733d 9d08 3bbd
00000150: ef32 91bc ca73 413d 3c77 6d3d 22c4 dbbc
00000160: a365 33bd 75bc 483d d152 bcba bb76 cfbc
00000170: 243b 55bd 1da3 36bd 7311 b73c c3f6 413d
00000180: 21a8 35bc 1820 133d b13c ed3c 15d3 213d
00000190: b881 49bc 14b8 57bd 86f7 c4bc 1b1f 1dbd
000001a0: 72ab 69bd 6ac5 c03b 0fc5 69bd 8ada 173c
000001b0: b1c0 2abd 8106 82bb 298e 4bbc 5302 bf3b
000001c0: f1f0 5abd 640f 3dbd ed42 323d dcf9 39bd
000001d0: c13b b0bc f60d 63bd 9620 963c 1712 67bb
000001e0: 334f 3a3d 2ab3 bfb9 fc56 4e3d 103f 3bbd
000001f0: 7b84 5a3d 1998 c4bc d383 86bc 31e4 373d
00000200: 0a57 163a a015 3c3c 9e47 02bc f937 063a
00000210: 759e 4abd dee7 033d 726f 183d 0e7d 28bd
00000220: db99 023d 163e cbbc e9c9 783d 4fef 69bd
00000230: ac8a e43c 7116 943c f386 123d d4f3 b93c
00000240: e7bf c6bc f778 663d 1e77 48bd e488 41bd
00000250: 1bd0 7abd 61a3 78bd 28f7 8cbb 1f85 cebc
00000260: e2b2 b13c 5c8e 81bc 3304 22bd 4504 87bc
00000270: 5b6f d7bb 2ead 393d 4175 5dbd a513 b73c
00000280: 7d5d 7cbc 3ec1 14bc ee15 503d 80cb ae3c
00000290: 0aa9 223b e817 d63c 4dc8 2a3d 03d9 573d
000002a0: 3efa f9bc 40e3 19bd 87c9 36bc 7744 733d
000002b0: 22df b6bc 13e0 fc3c 52f6 1cbd 799a 193d
000002c0: 0d84 6ebc 6cae abbc 8f37 c7bb 402b 6bbd
000002d0: 2518 68bd 7d86 c93c b2b4 55bc d96d 1fbd
000002e0: 0bee b1bc 85f7 dc3c 5862 ab3c a459 dbbc
000002f0: 9279 693d 14f1 473b 2d73 823b 957d 83bc
00000300: 5766 2ebd 9c6a 7b3d 1415 3cbd b5f3 1abd
00000310: d45d 843c 7c87 31bd ce1b 80bd 4baf 6a3c
00000320: cdd4 9e3c 20c6 3bbd 1e50 56bb 0f5d d2bc
00000330: 041a 31bd 36a7 fcbb 5ceb 783d 7e8c 2dbc
00000340: 7a81 bfbc 7aef f83b 29c5 403d 5dc1 323d
00000350: 0a7a 5bbb de09 0bbd b978 1a3b 52a7 4d3c
00000360: af4d 86bd 7db7 dcbc 6642 cd3c 47e7 f3bb
00000370: 428e 7ebd 3543 3d3d e419 b73c 7452 253d
00000380: 405c 5d3d 834d 533d 9e67 4c3d e5f2 713c
00000390: 2a20 8e3c e431 d13c 76dd 823d 44df 28bd
000003a0: 9fd0 0d3d 3322 d93b 2a93 1cbd 7fd7 f33c
000003b0: f302 36bd e269 453d 1bb6 50bc 2988 5abd
000003c0: 39e5 3dbd de78 22bd add9 7abd 79eb 443d
000003d0: 7547 48bd b91d 17bd 86f9 88bb 9e9c b13c
000003e0: 5516 e5bc 156d f8bc 321f 7ebd 749d 66bc
000003f0: 371f 493d f7e7 71bc e39b 783c bea2 bdbc
0.05091293 0.06465492 0.025427058 -0.023529897 -0.039008386 0.05257958 -0.027515016 0.048629146
-0.027834222 -0.013882039 0.012265473 -0.058911305 -0.052295472 -0.044885386 -0.020675153 -0.017675849
0.06182806 0.0429806 -0.034640178 0.044885676 -0.05693901 -0.014197484 -0.03550144 -0.0002850687
-0.031755626 -0.049520873 -0.05864733 -0.01977545 0.061345886 -0.00061885203 0.03733695 0.032940317
-0.035338655 0.0040856325 -0.02804083 -0.0302553 -0.04234488 0.048063952 -0.055723187 -0.054191798
-0.03186333 0.019430727 0.018274175 -0.05025533 0.04818298 -0.03918478 0.04222152 0.052623898
0.003551438 0.04880907 -0.053868234 -0.030353298 0.033504196 0.06353055 -0.046032153 0.055257827
-0.044081315 0.05647165 -0.031812206 -0.010220468 0.0030018815 -0.002373109 0.060365845 0.045902397
0.039509766 0.023866693 -0.010791948 0.0061987853 0.046065733 0.04906093 -0.037379865 -0.009517779
0.065620705 -0.036060207 -0.04732386 0.05271686 0.048022043 0.051972352 0.016466437 -0.03976234
0.035802647 0.057315335 0.059542246 -0.04566251 -0.017724482 0.047229566 0.05797504 -0.026826922
-0.0437981 0.04900785 -0.0014367943 -0.02532517 -0.052058354 -0.04458915 0.022347188 0.04735447
-0.011087448 0.03591928 0.028959604 0.039507944 -0.012298994 -0.052665785 -0.02404381 -0.038359743
-0.05704827 0.0058829086 -0.057072695 0.009268412 -0.04168767 -0.0039680605 -0.01242403 0.0058291345
-0.053452436 -0.046157256 0.043520857 -0.0454043 -0.021512868 -0.055433236 0.018326085 -0.0035258585
0.045485687 -0.00036563847 0.050375924 -0.045714438 0.053349 -0.023998307 -0.01642028 0.044895355
0.0005735016 0.011479765 -0.007951645 0.0005120035 -0.049467523 0.032203548 0.037215658 -0.041134886
0.03188501 -0.024809878 0.06073943 -0.057112988 0.027898155 0.018077107 0.03577323 0.022699274
-0.024261428 0.056267705 -0.048941724 -0.04724969 -0.06123362 -0.060702685 -0.0043019243 -0.025209961
0.021691743 -0.015814953 -0.039554786 -0.016481528 -0.006574554 0.045331173 -0.0540669 0.022348234
-0.015403149 -0.009079276 0.050802164 0.02133727 0.0024819993 0.026134446 0.041694928 0.052697193
-0.030514833 -0.037570238 -0.011156446 0.059391465 -0.022323195 0.030868566 -0.038320847 0.037500832
-0.014557851 -0.020957194 -0.006079621 -0.057414293 -0.05666365 0.024600262 -0.013043569 -0.03892312
-0.021719953 0.026973495 0.020920917 -0.026776142 0.057000704 0.0030508684 0.003981015 -0.016051093
-0.042578068 0.061380967 -0.04591854 -0.037830073 0.016158022 -0.0433421 -0.06255303 0.01432402
0.01938858 -0.045843244 -0.0032701562 -0.02567914 -0.0432377 -0.007710363 0.06077133 -0.010592578
-0.023377169 0.007596907 0.047063027 0.043641437 -0.003348949 -0.033944957 0.0023570491 0.012552099
-0.06557786 -0.026942963 0.025056075 -0.007443342 -0.062147386 0.04620667 0.022351213 0.040361837
0.054043055 0.051587593 0.049903505 0.014767383 0.017349321 0.025536485 0.063898966 -0.041228548
0.034622785 0.0066263913 -0.038226284 0.029765842 -0.044436406 0.04819668 -0.01273873 -0.05335251
-0.046361182 -0.03966605 -0.061242748 0.048076127 -0.04889627 -0.03689358 -0.004180136 0.021681126
-0.02796475 -0.030325452 -0.06204147 -0.014075626 0.049102034 -0.014764777 0.015173885 -0.02314889

4.weight f4 [2, 256]
00000000: 5eba 2f3c 3137 33bb c882 0fbd 4442 d9bc
00000010: 0d24 bdbb 8462 bb3c 275a d33c 0c8f f93c
00000020: df56 9ebc fc01 603c a15b ea3c 6568 923b
00000030: b417 04bd 9d83 383d 7ebf 023a 3c47 07bc
00000040: 8c4c 8dbd 5680 4e3c 8680 74bc ec1d 50bd
00000050: 5eaf e6bc 6e2c 3f3c 53d6 45bd ec93 6c3d
00000060: 4fae 9eba 5f40 d4ba 1a36 38bd 2071 55bc
00000070: 9178 dabc 0e3a 79bd a3f1 3ebd e26c 6f3d
00000080: 1bf6 8b3a b282 c83c 5314 1ebd e98b 723c
00000090: 5ded 9b3c 7b84 373d 8fe3 693c 6393 04bd
000000a0: 66d5 29bd 509a 8c3c 90df a9bc 79d0 4fbd
000000b0: 4559 353d 7b23 ddbc 7f2e ebbc 2ec7 7d3c
000000c0: 71aa 2a3d e218 093c d046 0b3c 5616 663d
000000d0: edca 013d 61a9 00bd 7b32 0d3d 27c5 fabc
000000e0: 92c4 003d 055b 103d 377d 3abd df8a 823d
000000f0: b19a 623d ead1 e2bc 287e 70bc 722a 4fbd
00000100: fb6a 473c 3a42 c4bc a26e 44bd a36d 8f3b
00000110: e043 d43b 01b9 543d f51a 473c 3168 d8bc
00000120: 0f85 0fbd 30ca 103d 5a55 e6bc a6a2 10bd
00000130: aae0 383d 5f9f 7fbd 5797 63bc 75ab 303d
00000140: d911 efbc 27d3 32bd 4025 93bc e9cc 483d
00000150: 514c c1bc 855a 073d a316 f1bc ccb3 d03c
00000160: 62eb a6bb 2385 babc 15e7 303d 9603 12bd
00000170: f76c 323d beb1 053d 7c31 463d 6fd4 f8bc
00000180: c25f 723d 9b4d 86bd 6d87 abbc 0d67 cfbc
00000190: 0db2 1ebd 3081 923c 2e39 12bd 8657 0cbd
000001a0: a466 e2bc 72c7 603c 95b9 933d da53 1b3d
000001b0: c5ca 783d 4684 3dbd d9e5 b73c 3ccd 53bc
000001c0: b8ec b93c 08df ab3c 2761 acbc 7bdb 9c3a
000001d0: d873 cd3c 60d3 73bb 0601 883d 0127 c83c
000001e0: 7ecf 493c de1d 1cb8 b2c1 a6bc 3305 7d3d
000001f0: bda0 1abd eb14 adbc 0bb6 473d 0c4b ac3c
00000200: 11a5 34bd a82d 773d 91c8 ca3c 3ac1 62bd
00000210: faf1 b1bc f48e 5cbd e962 febb 809c 85bc
00000220: 4f09 63bc ab88 553c 836b 41bd 32a2 ae3b
00000230: afa6 0ebd 3f01 adbb 606c c43c 18d6 09bd
00000240: 8018 b33c 1b88 f33c 4114 423d 9d67 63bc
00000250: d12c 863c a64f 8b3d 3725 1e3d 17d0 3d3c
00000260: 23ac 9a3c d895 873b c3f8 293d 3849 d9bc
00000270: e753 0cbd 7582 39bd b450 87bd e99c 733c
00000280: 4bbe 7d3c e424 16bd b487 6cbd 6441 4fbd
00000290: 8be6 3e3d 4100 9c3c 5f4b 023d 4823 ef3c
000002a0: c1cf dfbc 9995 48ba 26cc fc3c d250 25bd
000002b0: 7b0e c3bc 4f37 0e3c d683 70bd 1d83 b83c
000002c0: de39 adbb 7307 6dbc 5aaa 70bc 944c 2a3c
000002d0: 2343 15bd 9839 d1bc ee5b e53c 2c81 8ebc
000002e0: 15d3 ed3c c09f 5f3d dfdd 7abc 61c6 993c
000002f0: 29dc 48bd b474 0d3d 2c1d a03c e278 c63c
00000300: 5375 09bd 0367 223c b829 cb3b 2c37 dbbc
00000310: 3fbd 583c eaec 793c 9766 e93b 659f 1fbd
00000320: 1d25 60bd d035 243c a3a9 2c3c 99b4 3db9
00000330: e166 0bbc 2a6e 95bc 65a1 1dbb 7b4d 74bb
00000340: c592 ce3c d3ea 873c 31ee 613c 7fa6 6a3c
00000350: e4c9 053d ff82 1cbd 8813 463d 31c4 02bd
00000360: 8656 103d f599 6ebd bf15 c0bb b693 583d
00000370: b313 043c 081c 4d3d 8083 c63b 3e90 0d3d
00000380: 7c92 6d3d 677e aa3c 9bd9 9cbc 9fe2 7ebc
00000390: ddad 2ebd 293d 443d 7459 b33c 0e22 043c
000003a0: 24f9 88bc 1f67 433d 9ec1 ea3c 50b0 b5bc
000003b0: d841 cd3c 286e 623d 81ef 653d a0ef c5bc
000003c0: de76 943c f748 57bd 0c51 7f3c 3810 90bd
000003d0: bf61 8bbb 4f7b 843c 9ddc 8dbc 2618 61bd
000003e0: 8a67 633d 7021 d43c 8159 dabb d6a5 f3ba
000003f0: c1dd 1e3c e176 6c3c a6f9 973c 5a42 fb3c
0.010725586 -0.002734613 -0.035036832 -0.026520856 -0.00577212 0.022874124 0.025799824 0.030463718
-0.019328533 0.013672348 0.028608145 0.004468011 -0.032249168 0.04504739 0.0004987641 -0.00825673
-0.06899366 0.01260384 -0.0149232205 -0.050809786 -0.028159793 0.011668308 -0.0483001 0.057758257
-0.0012106391 -0.00161935 -0.04497347 -0.013027459 -0.026668819 -0.06084638 -0.04661716 0.058453448
0.0010678204 0.024476383 -0.0385936 0.014803865 0.019034082 0.044804078 0.014275446 -0.03236712
-0.04146328 0.017163426 -0.020736486 -0.050735924 0.044274587 -0.026994457 -0.028708695 0.015489383
0.04166645 0.008367749 0.00850077 0.056173645 0.031687666 -0.031411532 0.03447197 -0.030611588
0.031437464 0.035243053 -0.04552957 0.06374144 0.055323306 -0.027687985 -0.0146785155 -0.05057759
0.012171502 -0.02395736 -0.04795707 0.0043770834 0.006477818 0.051934246 0.012152423 -0.02641687
-0.035039004 0.03534907 -0.02811687 -0.035311364 0.04513613 -0.062407847 -0.013891063 0.043132264
-0.029183315 -0.0436584 -0.017962098 0.049023543 -0.02359596 0.03304531 -0.02942974 0.025476359
-0.005093978 -0.022768563 0.043189127 -0.03564795 0.04356095 0.03264021 0.048387036 -0.030374734
0.059173353 -0.06557771 -0.0209386 -0.025317693 -0.03874402 0.017883867 -0.035699062 -0.034263156
-0.027636833 0.0137194265 0.07213131 0.037921764 0.06074025 -0.046268724 0.022448467 -0.01292735
0.022695884 0.020980373 -0.02104242 0.0011967266 0.025079653 -0.0037204847 0.0664082 0.024432661
0.012317536 -3.7221114e-05 -0.020356033 0.061772536 -0.03775095 -0.021128139 0.048757594 0.021031879
-0.044102732 0.060346276 0.02475384 -0.055360056 -0.021721829 -0.05384727 -0.007763256 -0.016309977
-0.0138572 0.013033072 -0.04722167 0.005329394 -0.03482693 -0.0052796896 0.023977458 -0.03365144
0.021862268 0.029727986 0.047382597 -0.013879684 0.016378792 0.06802301 0.03860971 0.011585257
0.01888091 0.004137736 0.041497003 -0.026524171 -0.034259703 -0.04529043 -0.0660719 0.014868953
0.015487264 -0.036656275 -0.057746604 -0.05059947 0.04660658 0.01904309 0.03181016 0.029191628
-0.027320744 -0.00076516863 0.030859064 -0.04036028 -0.023810616 0.008680179 -0.05871948 0.022523457
-0.0052864393 -0.014467108 -0.0146890525 0.010394234 -0.03644098 -0.025540158 0.027997937 -0.017395578
0.029031316 0.05459571 -0.015311687 0.018771352 -0.049038086 0.034535125 0.01954516 0.024227563
-0.033559155 0.009912255 0.0062000416 -0.026759706 0.013228714 0.015254239 0.0071228254 -0.03897037
-0.054722894 0.0100225955 0.010538491 -0.00018091722 -0.008508415 -0.018241007 -0.0024052497 -0.0037277627
0.02521647 0.016591465 0.013789699 0.014321922 0.03266324 -0.038210865 0.04835847 -0.031925384
0.035238765 -0.058252294 -0.0058619673 0.052875243 0.008061337 0.05007556 0.0060581565 0.03456139
0.058001027 0.020812226 -0.019146731 -0.01555696 -0.042646278 0.04790989 0.02189324 0.00806476
-0.016720362 0.047705766 0.028656777 -0.022178799 0.02505581 0.055280834 0.05613661 -0.024162114
0.018123087 -0.05255982 0.015583288 -0.070343435 -0.0042535956 0.01617208 -0.01731711 -0.05495467
0.055518664 0.02589485 -0.0066635017 -0.0018588852 0.009696425 0.01443264 0.018551659 0.030671287

4.bias f4 [2]
00000000: 3e10 66bd f5a4 5e3d
-0.056167834 0.054356534

exp_avg f4 [256, 4]
00000000: 42ac 07ba 0524 93b9 7732 83b7 1f2f 6039
00000010: be2a 6e3a 4326 773a 8e17 1b3a 0a8b 8cb9
00000020: baed 53b9 0bb2 c239 ee25 363a c2e8 1239
00000030: c527 1b3a 0e11 223b d5eb a23a 1621 68ba
00000040: e6db 1d3a 65cd 373a b1f3 9438 95e4 e6b9
00000050: 0ecb 1aba 4a7b 73bb 1e32 0b3a d772 273b
00000060: 367a 82b9 2cb4 0fbb 8de7 f4ba edec b839
00000070: 4268 2b39 ef9c 223a 9e12 213a 5bfc 8f37
00000080: fa51 fe39 2667 4f3a 8dbe e0b8 980a 00ba
00000090: fe92 0b38 76d2 c2ba 65e3 a4ba 0630 6c39
000000a0: 5365 393a 9f0f 173b 713b 6fb9 4716 c7ba
000000b0: 684e 0bba 414d e8b9 acac c439 f2f9 fd39
000000c0: c838 d839 0b54 333b 8f21 9d3a 0300 67ba
000000d0: b796 9739 5780 6c3a 81c4 dc39 9d7c 3db9
000000e0: ef58 183a 9ef9 233a ebe4 50ba f49d 47ba
000000f0: 2b08 29ba e7a1 8bba e224 78b9 6ac1 153a
00000100: b252 e939 b747 fb39 7575 12ba 69e8 1dba
00000110: 205d 92b9 4e96 6dbb 4125 b6ba dd5c b73a
00000120: 532f c4ba cc90 1fbb 7524 05ba fc6c 373a
00000130: 73a3 2aba d883 ffba fad1 9b3a 6a94 ef3a
00000140: 2a5b 5aba e751 37bb ed0a 7839 329a ed3a
00000150: 0466 13ba bf69 32bb a3d8 2fba 7ff8 a73a
00000160: 3d80 fab9 f67a faba 3847 1eba c7c9 743a
00000170: 4e29 2eba faa5 38bb b4f9 f239 6dc4 013b
00000180: 3069 5739 4081 1bba 72aa 05ba e0d4 cb38
00000190: fbc1 9039 0366 0039 f049 fdb9 f8b9 b7b9
000001a0: f9d8 7c39 730f 8a39 efa7 83ba 38b4 3eba
000001b0: b9e6 c8b8 4466 9fba 5a0a 5fba 87e9 b039
000001c0: 6e7b bdb9 34ec 1837 2bfd 2639 5221 9f38
000001d0: f20f f239 31e6 cf39 bdd4 0939 2a41 72b9
000001e0: c89a 603a b8f2 ee3b 1baa 673b aee6 36bb
000001f0: 564d 66ba 36eb 01bb e103 00ba 2d25 243a
00000200: c7e8 843a bf28 2d3b d8a1 cc3a 19e3 25ba
00000210: 60eb 113a e0a8 1a3a 2198 0b39 33cf 98b9
00000220: 41b3 1d3a 96d7 393a aa82 93b9 962c 0eba
00000230: 8b70 2e38 b02d 14ba bf02 4cba 5082 36b8
00000240: 916f 9cb9 87f1 ebba 8503 ca38 99f2 9d3a
00000250: 1d66 8d39 2552 6b39 d1b8 18ba 35a2 e9b9
00000260: 799c 16ba bab2 1ab9 ce6b 6339 4255 6039
00000270: 4647 f3b9 0c02 d2ba 76df 50b9 9282 523a
00000280: 67d2 a439 df4b b1b9 17c1 30ba fdeb 34b9
00000290: fd2f 49ba cec2 35ba f5a5 4eb9 d6fe ae39
000002a0: 79df f8b9 69fc b0ba 5876 1b39 8a7a 743a
000002b0: 6ebe 72b9 d0da d238 a67a e139 5e7f 1239
000002c0: 733b d6ba 00dc 9bbb b3cc f4ba c15d e43a
000002d0: ac48 5939 4a88 fd3a 9413 923a c63b 1cba
000002e0: 6095 8639 71ea 823a 811f 47ba b92d 7bba
000002f0: 30f6 f839 98d5 0db8 e163 95b9 10a0 0eb9
00000300: 85cf 88b9 a575 6039 74fd 2739 89b1 2db8
00000310: 62bb 38b9 5dde ad38 3364 aa39 9cdd 1639
00000320: 93ba abb9 01b0 d6ba e30d 7fba c16d 0e3a
00000330: cdb1 ff39 adea 9a3b a72f ef3a 80f7 03bb
00000340: 3996 ae3a c939 093b 4580 613a d148 a8b9
00000350: 8fc6 3cba 1d37 71bb baf2 ee37 0ba3 113b
00000360: 9005 8ab9 4bd7 0fbb c44d 2eba 3393 793a
00000370: 35d1 ce39 8c84 e03b 8e70 aa3a 7ca8 6fbb
00000380: 29ac aeb9 a391 50ba 76a2 2039 44f1 0f3a
00000390: 8cbe 2139 1d3e c839 a18f 09ba 6bdb f6b9
000003a0: 0eca 053b 52f1 1a3c 00b9 8e3b 5454 5bbb
000003b0: dadb 1bb9 9ab0 ddba 23d4 d1ba fe46 5939
000003c0: 2615 1f3a c12b ed3a f4ce 43ba 9fb3 c1ba
000003d0: a907 a139 4302 cfb8 3c41 03ba 7747 57b9
000003e0: 7bbe 4c3a 5265 153b 7f63 f138 7d44 a7ba
000003f0: 3581 8fba 6ac3 06bc f1cc 9bbb 340d 433b
-0.000517551 -0.00028064862 -1.5639916e-05 0.00021379859 0.00090853486 0.00094280037 0.00059162907 -0.00026806473
-0.00020211088 0.00037135216 0.0006948401 0.00014010354 0.0005918707 0.0024729404 0.0012429903 -0.0008855028
0.0006021842 0.0007011502 7.102581e-05 -0.00044039325 -0.00059048913 -0.0037152343 0.0005309897 0.0025550628
-0.00024886586 -0.002192746 -0.001868473 0.00035271738 0.0001634667 0.00062031945 0.0006144437 1.716444e-05
0.00048507733 0.00079117937 -0.00010716645 -0.0004884391 3.327708e-05 -0.0014863748 -0.0012579976 0.00022524604
0.00070722884 0.0023050082 -0.0002281496 -0.0015189134 -0.00053141126 -0.00044308047 0.00037512684 0.00048442144
0.00041241036 0.0027363326 0.0011988151 -0.00088119524 0.00028913256 0.00090218097 0.00042108077 -0.00018070867
0.0005811592 0.00062551524 -0.0007968682 -0.00076147844 -0.00064480555 -0.0010653109 -0.00023664863 0.000571272
0.00044502836 0.00047927882 -0.00055869605 -0.00060237065 -0.00027916674 -0.0036252919 -0.00138966 0.0013989467
-0.0014967717 -0.002434778 -0.000507898 0.0006997136 -0.0006509341 -0.0019494249 0.0011888139 0.0018278484
-0.00083296245 -0.0027972402 0.00023655193 0.0018127619 -0.00056228065 -0.0027223674 -0.00067080016 0.0012815146
-0.0004777926 -0.0019110132 -0.0006037834 0.00093379285 -0.0006643728 -0.0028175102 0.0004634388 0.0019800917
0.00020543183 -0.00059320405 -0.00050989457 9.7194454e-05 0.00027610347 0.00012245034 -0.00048311008 -0.00035043037
0.00024113421 0.00026332922 -0.0010044555 -0.00072747795 -9.5797186e-05 -0.0012161215 -0.00085083174 0.00033743327
-0.0003614085 9.114901e-06 0.00015925306 7.587917e-05 0.00046169717 0.00039653623 0.0001314459 -0.00023103194
0.0008567986 0.007292118 0.0035349193 -0.0027908492 -0.00087853277 -0.0019824035 -0.00048833905 0.0006261643
0.0010140174 0.0026421992 0.0015612198 -0.00063280907 0.00055663846 0.0005899798 0.00013312745 -0.00029146075
0.00060157856 0.0007089315 -0.00028135377 -0.0005423514 4.1589647e-05 -0.000565256 -0.00077823916 -4.3513544e-05
-0.00029837762 -0.0018001058 9.632766e-05 0.0012050449 0.00026969696 0.00022441948 -0.00058258796 -0.00044562077
-0.0005745362 -0.00014753165 0.00021688567 0.00021394066 -0.00046401675 -0.0016022339 -0.00019919671 0.0008030321
0.0003143728 -0.000338166 -0.000674264 -0.0001725405 -0.00076746923 -0.000693363 -0.00019707515 0.00033377734
-0.00047468746 -0.0013502958 0.00014826038 0.0009326121 -0.00023149859 0.00010054337 0.00043006724 0.00013971093
-0.0016344622 -0.0047564507 -0.0018676728 0.001742296 0.00020721805 0.0019342985 0.0011144751 -0.00059598347
0.00025669765 0.0009988082 -0.0007595942 -0.00095817033 0.0004748567 -3.3815944e-05 -0.0002849391 -0.00013601803
-0.00026094556 0.0002140613 0.0001602078 -4.1411757e-05 -0.00017617413 8.290701e-05 0.0003249958 0.0001438767
-0.0003275467 -0.0016379358 -0.00097295473 0.0005433225 0.00048769862 0.0047276826 0.0018248454 -0.0020136535
0.0013319916 0.0020938984 0.00086021825 -0.0003209771 -0.00072012184 -0.0036806532 2.848484e-05 0.0022222425
-0.00026325556 -0.0021948393 -0.0006649161 0.00095205306 0.00039447253 0.0068517383 0.0013003515 -0.003656893
-0.00033316136 -0.0007956272 0.0001531931 0.00054909685 0.00015425141 0.0003819325 -0.00052475376 -0.00047084255
0.0020414623 0.009456949 0.00435555 -0.0033467012 -0.00014863853 -0.0016913593 -0.0016008656 0.0002072118
0.000606852 0.0018094705 -0.0007469498 -0.0014778263 0.0003071402 -9.8709505e-05 -0.0005006974 -0.0002053062
0.0007810366 0.0022795987 0.00011510308 -0.00127615 -0.0010948541 -0.008225301 -0.0047546555 0.0029762508

exp_avg_sq f4 [256, 4]
00000000: b3fd ac36 8e1a d136 80ae bc36 77fe bf36
00000010: 0ddc d936 b31b b936 3d8c 5137 dc85 5035
00000020: f7b3 0236 6a83 6d35 4d1d 2336 bed7 1635
00000030: ee32 1e37 2597 0f37 8206 a337 f938 c336
00000040: a16d 8c36 4f76 3936 768f 9836 b18c 5c35
00000050: 9401 9438 7d30 4a38 78cc 0c39 cf49 4638
00000060: 5db0 4236 8a7f 8536 5824 3a37 49f6 c136
00000070: 28e8 4135 d4d1 9935 7fa6 6635 1fe6 9235
00000080: 0529 c236 f619 2c36 732e 2637 75b2 9f35
00000090: 0767 c636 44d7 3137 1789 2237 6238 2c37
000000a0: 897c 2d38 2d9d 1338 7fae 9438 1c2c 0538
000000b0: 9e21 dd36 a3c3 9736 2ded 2337 9a55 4736
000000c0: cdc7 b137 1819 5937 7448 6338 df27 7537
000000d0: 56a3 c235 891c 1635 3407 5b36 0dab 9f35
000000e0: a64d 3337 14ee c936 e49c a337 162a 6036
000000f0: 73ee f336 64f0 9036 bde6 2137 7b03 c135
00000100: aa9e b736 51fe 6836 8f12 0a37 3bf0 0436
00000110: 282a 0e38 090d c037 edf3 bb38 35e9 c837
00000120: f890 2b38 1da3 0d38 e408 ab38 0570 0b38
00000130: d43c 3238 bf4b 1938 c21a 9238 6e20 1638
00000140: 35c4 f037 7b76 c037 a506 8438 85c8 9637
00000150: 416d b737 c745 6f37 2d2d 4c38 52ba 4437
00000160: d00e 7437 6091 f536 9f68 a537 cf41 b036
00000170: c6b8 4638 3b6b 2138 f9f6 b338 efbd 1f38
00000180: 5a90 5c35 bc97 7c35 d50b 8135 17c3 5835
00000190: 6b9f ad36 a81e a636 e1f2 bd36 c861 9f36
000001a0: afb9 b736 37d8 4536 ec31 d836 eb07 3436
000001b0: 0536 b934 0051 2e35 56f6 3935 da5e 0b35
000001c0: f39a 6135 606c 1f35 54b9 8435 6a8f 4334
000001d0: 969e b135 2620 cf35 1d94 b735 16eb ae35
000001e0: 8513 4338 c9f6 5a38 fc59 1539 004d 2938
000001f0: ae36 b337 005b 3337 3b08 2d38 6b74 5537
00000200: 2161 b536 ee7e d236 f57b 3837 fa19 f236
00000210: ee36 7536 d2e7 1a36 c991 bc36 7368 f434
00000220: a382 a337 51ba 9b37 7b25 0938 56c3 9637
00000230: 8335 1137 9ded 9337 d7bb 8337 ff7c 8937
00000240: 841b 7e37 c000 1a37 cfff c037 503e 2437
00000250: d38e 8736 3737 4636 ffc1 bd36 abcf 2436
00000260: ee52 a236 13ca 8b36 7124 ce36 106a 6336
00000270: 23ba 4537 c355 ce36 a09c d337 68cb 8a36
00000280: ec88 1437 3e23 d636 1323 2b37 b7cb c136
00000290: a8b3 4636 2918 2136 3bbe 9436 e8e6 8035
000002a0: 2ea5 6a37 42e8 0f37 4a59 c137 e737 ff36
000002b0: 0554 be34 ae65 ff33 64af e234 215a 8f33
000002c0: 3116 a338 5b3c 8a38 7e33 2c39 d828 6638
000002d0: 30fa 8336 c449 0037 baa4 0e37 3d1c f736
000002e0: c36f 6537 eb4d b336 b803 e337 d0e3 a436
000002f0: 234b fd35 cbf2 ea35 99bb ec35 8e2e c535
00000300: ebd8 1535 87c8 e934 ffd5 1e35 925a 4634
00000310: 57f1 2e35 caa7 6535 5b0b 3435 9db7 3d35
00000320: b394 3c35 d6b3 9935 76be c835 6086 3d35
00000330: 7ec5 cd37 c063 ce37 a277 9038 157c 9a37
00000340: f9bc 0538 c0c9 d837 8d76 8838 336b da37
00000350: c560 8c38 5c97 4038 f04a 0839 2ecf 4238
00000360: 4e74 d736 6727 bc36 1174 9837 c10a 4f36
00000370: 8cd6 c938 3c29 b738 fac2 6a39 a7a8 9d38
00000380: 3181 2a36 a812 b835 b5ed 9236 4f0a 8e35
00000390: 7a2e c036 4e0f 9a36 b97c 1a37 7266 a336
000003a0: 8b95 2639 d057 1939 126d bc39 818c ff38
000003b0: 8b4e 6336 da52 9236 73bf a736 7e7d 7a36
000003c0: 0d23 0738 bef6 d137 345e 6038 c0f5 c937
000003d0: b26d 5536 9ce0 af35 67cb 9836 8318 5735
000003e0: ca9d 1638 dcfa ea37 c030 8c38 6ef0 f737
000003f0: 1385 e337 38e8 3638 eecf d538 26db f637
5.155534e-06 6.2317768e-06 5.623151e-06 5.721867e-06 6.4927212e-06 5.5166543e-06 1.24900225e-05 7.768083e-07
1.9476263e-06 8.848061e-07 2.4305948e-06 5.61933e-07 9.429392e-06 8.558655e-06 1.9434145e-05 5.8180854e-06
4.1850876e-06 2.7636013e-06 4.546654e-06 8.216112e-07 7.057484e-05 4.820571e-05 0.00013427611 4.727562e-05
2.901091e-06 3.9785564e-06 1.1094926e-05 5.7805196e-06 7.2235935e-07 1.1460456e-06 8.592396e-07 1.0944822e-06
5.786426e-06 2.5645109e-06 9.905186e-06 1.1898361e-06 5.912854e-06 1.0600143e-05 9.687871e-06 1.0265127e-05
4.1362397e-05 3.5193912e-05 7.0896924e-05 3.175075e-05 6.590227e-06 4.522926e-06 9.770779e-06 2.9703137e-06
2.1193084e-05 1.29400505e-05 5.4188495e-05 1.4612421e-05 1.4501663e-06 5.592088e-07 3.2637736e-06 1.1896205e-06
1.068731e-05 6.0179827e-06 1.9504172e-05 3.3403098e-06 7.2697235e-06 4.3195196e-06 9.650071e-06 1.4380634e-06
5.472296e-06 3.4718726e-06 8.229762e-06 1.9809365e-06 3.38947e-05 2.2894254e-05 8.9622896e-05 2.3950453e-05
4.090459e-05 3.376893e-05 8.1555714e-05 3.324451e-05 4.2495158e-05 3.6548587e-05 6.9668065e-05 3.579299e-05
2.8701596e-05 2.2943355e-05 6.295488e-05 1.7974768e-05 2.1866175e-05 1.4261756e-05 4.8679463e-05 1.1725891e-05
1.4546982e-05 7.318493e-06 1.971825e-05 5.25287e-06 4.7378962e-05 3.8485257e-05 8.5813874e-05 3.8085444e-05
8.2166446e-07 9.409812e-07 9.614693e-07 8.0750164e-07 5.1743605e-06 4.9507544e-06 5.6609138e-06 4.7499525e-06
5.4754414e-06 2.9481141e-06 6.4431133e-06 2.68267e-06 3.449824e-07 6.493792e-07 6.9276336e-07 5.191956e-07
8.404451e-07 5.938982e-07 9.888704e-07 1.8212964e-07 1.3233682e-06 1.5432058e-06 1.3677669e-06 1.3032429e-06
4.6509802e-05 5.2205087e-05 0.00014243269 4.036445e-05 2.1363925e-05 1.0690419e-05 4.125408e-05 1.2722895e-05
5.4055276e-06 6.2732643e-06 1.0996116e-05 7.215186e-06 3.6539818e-06 2.3082725e-06 5.6198082e-06 4.5524538e-07
1.9491947e-05 1.85642e-05 3.269825e-05 1.7972354e-05 8.655133e-06 1.7634413e-05 1.5703887e-05 1.6389879e-05
1.5145986e-05 9.17929e-06 2.3007304e-05 9.78967e-06 4.0399404e-06 2.9536438e-06 5.655223e-06 2.4558783e-06
4.8376305e-06 4.1660473e-06 6.1435207e-06 3.3887372e-06 1.1785453e-05 6.1492624e-06 2.5226094e-05 4.1364e-06
8.853367e-06 6.3817997e-06 1.0200561e-05 5.7755637e-06 2.9608873e-06 2.4004933e-06 4.4328895e-06 9.603946e-07
1.3985946e-05 8.577541e-06 2.3048971e-05 7.6061e-06 3.545139e-07 1.1892858e-07 4.2223394e-07 6.675351e-08
7.776579e-05 6.591595e-05 0.0001642238 5.4874312e-05 3.93323e-06 7.646569e-06 8.502213e-06 7.364461e-06
1.3675485e-05 5.3436866e-06 2.706224e-05 4.9141017e-06 1.8871837e-06 1.7505021e-06 1.7637968e-06 1.4691193e-06
5.582248e-07 4.3545535e-07 5.917099e-07 1.8473136e-07 6.5171247e-07 8.5553313e-07 6.707175e-07 7.067518e-07
7.0251843e-07 1.1451727e-06 1.4956593e-06 7.060353e-07 2.4529869e-05 2.4603563e-05 6.8887384e-05 1.841601e-05
3.1885666e-05 2.5843154e-05 6.507067e-05 2.6037544e-05 6.693745e-05 4.591733e-05 0.00012997887 4.6446155e-05
6.421039e-06 5.6074236e-06 1.817386e-05 3.0851663e-06 9.624389e-05 8.7338005e-05 0.00022388613 7.517757e-05
2.5407173e-06 1.3714498e-06 4.378812e-06 1.0582825e-06 5.7274565e-06 4.5913393e-06 9.208155e-06 4.8697048e-06
0.00015886703 0.0001462393 0.00035939418 0.000121855184 3.3871354e-06 4.3607843e-06 4.9992755e-06 3.732595e-06
3.221915e-05 2.502964e-05 5.3493495e-05 2.4075503e-05 3.1803324e-06 1.3103886e-06 4.553632e-06 8.012941e-07
3.590974e-05 2.801179e-05 6.6848006e-05 2.9556653e-05 2.7122476e-05 4.3608452e-05 0.000101953614 2.9427534e-05
