distributed_shared/worker_logs/worker_4/models/model_episode_80.pt (torch, 816842 bytes, 16 tensors)

0.weight f4 [256, 4]
00000000: bc97 223e 4d00 8bbe 8773 58be 9916 8bbe
00000010: f26e f13e 77e4 5cbe 522d de3e c185 ebbe
00000020: b191 e93e 6ca4 d43d ef66 f43e f9ac 8d3e
00000030: 5d86 553e 00b3 f33e 01a8 b03e a903 a53e
00000040: 7069 673d 7b2a e83e c468 7d3e 32f2 1d3d
00000050: b4f3 babd b3ae 90be 6d58 533e a259 2fbe
00000060: 4cf2 993d 8caa c13e 1c82 383d b0d6 90be
00000070: c788 4c3e b1a1 9f3e 7170 90bd ef76 48bd
00000080: 40ef b43e 9026 503e db15 a93e d5d6 5b3c
00000090: 134f fb3e 20c4 963d 55d6 533e 51d4 3e3d
000000a0: a35b 473e 61e5 a93d 7c9f c2bc 8af3 5e3e
000000b0: 7e71 033d a5f9 24bd ab75 cabe 5fb1 db3d
000000c0: 650d 4ebd 8998 183e b23e debd 3369 4fbe
000000d0: 70da f4be c68e de3e 1199 573e e623 f2bd
000000e0: 49fe c6bd 0329 813e ea32 a03e 5eea a3be
000000f0: 5f79 b2be 983f 9fbe 7aea e33e 18a3 6d3e
00000100: 919c d3be c3f2 6dbe e754 dfbe 1360 81be
00000110: fba4 073e 5134 eebe fb44 ff3e 6176 84be
00000120: 9698 6ebe 96c8 87be b807 93be d277 c8be
00000130: 493f b8be 26f6 863e ba5a 783d ff93 b6bd
00000140: 21a1 e8bd 53f6 1abe db66 233e e61f e3be
00000150: df8c d13e 7f9b b2be 929c c13d 65c2 42be
00000160: b731 8abe 9618 6cbe 02be 95bd cacb d2be
00000170: c056 98bd bfb9 d0be d377 8c3e 877d e43e
00000180: fbd8 10bd 675f d4be 5c04 f03d a309 b3be
00000190: 65c4 88be 5fcf 1d3d 11d6 d13e f4dd 0e3e
000001a0: 0425 bf3e 700e 84be c143 67be 48ac 49be
000001b0: cef9 1a3e 6f09 763e 8565 483d f260 9fbe
000001c0: f9f7 4dbe b038 543e c506 fd3d 7542 00bf
000001d0: 109d 2a3e 7e77 e83e ba3c fb3c d72a 00bf
000001e0: 67e9 d53e 8145 f53e 44f5 b83e 3343 993e
000001f0: cb02 ae3e 741a babe d5c1 ddbe 0547 163e
00000200: 2f26 863c 4604 923e 4716 e8be 412d 10bf
00000210: 4237 ecbe 92b0 3b3c e16e c53d 5105 a8bd
00000220: bdbf 243e 2c0f f1bd 5d39 bfbe 3b81 bb3a
00000230: edfb c93e 80c0 b1be 165f 833c fe8c f5be
00000240: 2294 c1be 5df9 a53e cdb9 153e 4f02 b23e
00000250: d079 623e fa8d 003f 20b8 7fbe 0b6d c4be
00000260: d4fa 343e f19b ec3e 2830 c5be 203b 9dbe
00000270: 7644 adbe 0f42 d8be 0dca fabe 7689 7cbe
00000280: 371e cfbe e0fc f03e baae ecbb e3b3 983d
00000290: c99f 9abc dab3 d8be 6123 d93b 7b4c b13e
000002a0: 51a7 923e ae92 1a3d 072c 40be dbf6 39be
000002b0: 57e9 97be 9467 883b 2e0d e5be c7a6 80be
000002c0: 2ac4 2a3e e025 a3be 8147 90be 40a9 75be
000002d0: 6feb e0be 4677 c8be 84d1 3abe 8da7 cd3e
000002e0: 3879 a43e d9c9 23be ff82 a0be b729 9bbe
000002f0: 38b3 d43e 9007 6cbe df72 b0be 2126 f33e
00000300: aec5 de3c 0b64 f13e e39a 05bf ac11 613e
00000310: d9a8 a4be aec7 4ebe f5e3 a1be 94b2 983e
00000320: 0360 acbe cb95 d5bd 48d7 723d 9cba 9b3d
00000330: b28e d13d 8520 e33e 070f b23e b576 05bf
00000340: 8c6c 053e c512 fd3d 87fd 64be dff6 a7be
00000350: 3338 1d3e 8125 f3bd 9339 ed3e 14dd ff3e
00000360: f278 b03e 6796 6a3e 0241 d6be 08d9 5f3e
00000370: 2470 a93d 5a93 3cbe 58e1 8c3b f87e c2be
00000380: 4965 f4be fc7a ba3e 5659 42be 7d65 a83e
00000390: 787f 57be 2651 b33c 3db3 72bd 5e51 97be
000003a0: 2a11 e9bd 957d 8f3e aa7a ce3e eddd 063f
000003b0: 5170 c2be 4f30 14be 62ce cb3e 2eae ae3d
000003c0: da39 843d 3f33 2c3e 7c8e a43e e2e7 59be
000003d0: 332b ca3e 4409 aa3e 113a c03e 4df8 a93e
000003e0: ca79 803d 8d65 d33d 11c7 85be 5688 443e
000003f0: b274 21be b40c a43e 0f4d 47be e907 333c
0.15878195 -0.27148667 -0.2113782 -0.27165678 0.47154957 -0.21571527 0.43393952 -0.46000484
0.45618966 0.103829235 0.47734782 0.2767103 0.20852037 0.47597504 0.34503177 0.32229355
0.056497037 0.4534491 0.24746996 0.038561054 -0.09128514 -0.28258285 0.206392 -0.17124036
0.075169176 0.3782543 0.045045957 -0.28288794 0.19974051 0.31178048 -0.070526965 -0.04894155
0.35338783 0.2032721 0.33024487 0.013417919 0.49083766 0.073616266 0.2068723 0.0465892
0.1946855 0.08295704 -0.023757689 0.2177259 0.032090656 -0.040277142 -0.395429 0.1072719
-0.050305743 0.14901938 -0.10851802 -0.20254974 -0.47822905 0.43468302 0.21054484 -0.11823253
-0.0971647 0.25226602 0.31288844 -0.32014745 -0.34858224 -0.31103206 0.4451483 0.23206747
-0.41330388 -0.23237137 -0.43619463 -0.2526861 0.13246529 -0.4652429 0.49857315 -0.25871566
-0.23300394 -0.26520222 -0.28716826 -0.39153916 -0.35985783 0.2635967 0.0606334 -0.08914947
-0.11358858 -0.15133028 0.15957205 -0.44360274 0.4092779 -0.3488426 0.094536915 -0.19019468
-0.26991054 -0.23056254 -0.07311632 -0.41171104 -0.07438421 -0.40766713 0.2743517 0.4462702
-0.03536318 -0.41479036 0.117195815 -0.3496829 -0.26712337 0.038527843 0.40983632 0.13951856
0.37332928 -0.25792265 -0.2258444 -0.19694626 0.15134355 0.24027036 0.04892494 -0.3112865
-0.20114125 0.2072475 0.12354807 -0.50101405 0.16661477 0.45403665 0.030668605 -0.5006537
0.41779634 0.4790459 0.36124623 0.2993408 0.33986506 -0.36348307 -0.43311945 0.1467553
0.01637563 0.28518885 -0.45329496 -0.5631905 -0.46135908 0.011455672 0.09640289 -0.08204139
0.16088767 -0.11770472 -0.37348452 0.0014305481 0.39450017 -0.34717178 0.016036551 -0.4795913
-0.3780833 0.32416812 0.14621659 0.34767386 0.2211678 0.5021664 -0.24972582 -0.38364443
0.17673808 0.46212724 -0.38513303 -0.3070917 -0.33841294 -0.422379 -0.48982278 -0.24661812
-0.4045274 0.47067928 -0.0072229775 0.07456186 -0.01887502 -0.42324716 0.006626532 0.34628662
0.28643277 0.03773754 -0.18766795 -0.18160574 -0.29670212 0.004162738 -0.44736618 -0.2512724
0.16676393 -0.31864834 -0.28179553 -0.23990345 -0.43929622 -0.39153498 -0.18243986 0.40166894
0.32123733 -0.15994968 -0.31349942 -0.30305263 0.41542983 -0.2304976 -0.3446264 0.47490028
0.02719387 0.4714664 -0.52189463 0.21979398 -0.3216007 -0.2019336 -0.3161923 0.29823744
-0.33667 -0.10428961 0.05928734 0.07603952 0.10232295 0.44360748 0.3477709 -0.5213426
0.13029689 0.12357096 -0.22362338 -0.32805535 0.1535347 -0.11872388 0.46332988 0.49973357
0.34467274 0.22908936 -0.41846472 0.21860135 0.08273342 -0.18415585 0.004299324 -0.37987494
-0.47733524 0.36421955 -0.18979391 0.3288993 -0.21044719 0.02188928 -0.059252966 -0.29554266
-0.11380227 0.280255 0.4032796 0.5268238 -0.37976316 -0.14471553 0.39805895 0.08529316
0.06456347 0.16816424 0.32139957 -0.21279863 0.39486083 0.33210194 0.375443 0.3319725
0.062732294 0.10322104 -0.26128438 0.19192633 -0.15767172 0.32040942 -0.1946299 0.010927179

0.bias f4 [256]
00000000: 061f 773e c7ff 7c3a 9187 85be 01fe c53d
00000010: 2565 ca3d 8021 c13e 46be 38be 195d 253b
00000020: 1a3e 3e3b 138f c6be 1582 37bc 028b e6be
00000030: 20fa 17be 74d7 86bd 20d3 cd3e 24f8 edbe
00000040: 0413 29bd cd68 93bc 560e 99be d6bf ac3e
00000050: 4b43 afbe bba4 03bc 46c0 f73e a423 6bbe
00000060: 2811 8e3e fce8 3c3e 320c d93e 6018 d23e
00000070: 3303 823e 30f5 90be 93bf a43d 574d ebbe
00000080: 7207 983e 56d1 18bd 01bf 283b 6461 ec3e
00000090: de3f 98be 5c75 2d3d e185 bb3d 4633 b5be
000000a0: cb0d 00bf b623 9c3e cfde 733e 9672 e5bd
000000b0: 1394 fcbe 1975 073e ffaa f2bd c10c bf3d
000000c0: 63b1 da3c 2b8d e93d 04a4 e23e 4800 f73d
000000d0: f796 9b3e c9f8 d83c b650 c9be 92aa 7f3d
000000e0: d868 cf3d 2b59 d83e 8a85 4f3d de07 9d3e
000000f0: b0ab 9e3e 3049 a63e cc98 c1be 8ca6 80be
00000100: d5a4 b9be 1436 86be f19c bb3e 6837 bebd
00000110: 2860 ba3e 5d4b e3be 0560 103e 110f 08be
00000120: e25b c33e b893 fe3d c4aa 9dbe 7e8c e03e
00000130: 5ecd 93be a51d 99bd 7c93 86be e607 ad3e
00000140: 0d1b a3be 0b9a e63e 6c1c bbbe 1a4f 013f
00000150: e6dc 4f3e d66b 023f d4ca 86be defd 4e3e
00000160: fbf4 be3e 5e33 51be 8ea1 583e c31b 54bd
00000170: 4f23 08be 2e9a b7bd adfd bd3e 18f8 b1bd
00000180: 6b23 e9be 8008 a43e 43fb e33d 7d52 85bd
00000190: 5dfb 0dbe c797 f53e e53c 813e cefa 9fbe
000001a0: 4a2f 4cbe fdaa ba3d 2f48 af3e 0651 5abe
000001b0: 3b94 d0be 8714 923c db01 dd3c 014b 3a3d
000001c0: 4cf6 a1bc a71d 22be 6d1e 453d 9da3 e93b
000001d0: 44e9 923e acfb 4dbd 44d5 73be 0564 b13e
000001e0: 4ef0 303e 95f2 73be 651e 753e e05f ba3e
000001f0: 759b 613e 09b0 eabd 0511 9f3e 0a0a cf3e
00000200: 83c3 76be 7b8f d2be 66b2 b4bd b017 6dbe
00000210: 606e e53e 0d16 51bd ef74 24be be06 883e
00000220: 4efa 2abe 215a 01bd 8833 c93e 139e b73e
00000230: ea20 cb3d f744 94be aba3 93be cd3c f2be
00000240: f5a0 e6be 471c de3e 2bfa f0be de6d aebc
00000250: b179 a23e 1403 84be f7b7 d3be 81de a0be
00000260: 9313 af3e 7183 8b3e 38fe 743e 6afb 00be
00000270: 588a b1bd 2f9a f13d 7341 d83e 12e3 dfbc
00000280: f856 013e 7f2c 893d bf7f 4a3e e90e a4be
00000290: 00f9 f9be 1483 953e 89c1 823d cd77 d43e
000002a0: 111f b83e 908b d33e 15c0 3abe d9d6 ef3e
000002b0: 2da5 0ebd 6a03 bbbd 0222 99be a896 ad3e
000002c0: 8828 8bbd a1a5 583d 873d f5be f9fc b8be
000002d0: 8e89 06be fa47 9b3e 0abb 3dbe b8b2 f93e
000002e0: cb66 8abe 16e4 34be 0728 763e 21f1 ff3e
000002f0: ea9d e9be 6042 d5bd b545 e4bb 1b02 babd
00000300: 4512 63bd 2cde 22be e643 f03e b2e7 893e
00000310: 3d5a e03d 6039 963e 722b aabd e6b6 a03e
00000320: 8c20 5cbe 0645 afbd eba4 7ebe 508c 8c3e
00000330: 3737 c3be c2af e33d 3e85 c13e e6f0 2b3e
00000340: 27a2 e7be 23ff a03e 630c 7cbe 96db 0d3e
00000350: 8dd2 c03e 5e7c b9bd 42fc 643e a5e8 9e3e
00000360: 566e 853e d9ec 033d b9f6 9d3e cdda 9d3e
00000370: f65b 943e b72d f13e 2593 ef3d f7b6 4abe
00000380: 7b02 e43e 3dbc 483d c05b fa3e 5231 f53e
00000390: 26d8 a73e d128 c93e be19 ae3e d1f7 df3e
000003a0: 4b5a e23e 2848 0e3e d676 493d 4bc9 e73e
000003b0: 355b 283e 4136 a93e f299 f8bd 9883 ba3e
000003c0: 49b5 89bd a43b b23d af8c a93e 3077 18be
000003d0: 3d41 d13d c6e7 9f3e dfef 4a3e b585 663e
000003e0: e4b0 52be fefa 80be 2487 cfbd 3085 b23d
000003f0: 5115 27be 5fa4 ea3e 2d8f 8f3e 4e13 b8be
0.24132928 0.0009651151 -0.2607999 0.09667588 0.09882573 0.3772087 -0.18041334 0.0025232492
0.0029028715 -0.38781032 -0.011200448 -0.4502793 -0.14841509 -0.06584063 0.40200138 -0.4647838
-0.0412779 -0.017994309 -0.2989375 0.3374011 -0.34231028 -0.00803488 0.4838888 -0.22962815
0.27747464 0.18448251 0.42392117 0.41034222 0.25393066 -0.28312063 0.080443524 -0.45957443
0.2969318 -0.037309013 0.0025748613 0.46168053 -0.29736227 0.04234825 0.09156395 -0.3539068
-0.50021046 0.30495995 0.23815463 -0.11203496 -0.49331722 0.13228263 -0.11849021 0.093286045
0.026695913 0.11403879 0.4426576 0.120606005 0.30388615 0.026485818 -0.3931939 0.062418528
0.10127419 0.4225553 0.050664462 0.30670065 0.30990362 0.32477713 -0.37811887 -0.25127065
-0.3625857 -0.26213133 0.36643174 -0.09287912 0.36401486 -0.44393435 0.14099129 -0.13286997
0.3815604 0.12430519 -0.30794346 0.43857187 -0.2886762 -0.07476357 -0.26284397 0.3379509
-0.31856576 0.450394 -0.36545122 0.50511324 0.2029911 0.50945795 -0.2632662 0.2021403
0.3729628 -0.20429751 0.21155378 -0.05178429 -0.13294719 -0.08964954 0.37107602 -0.08689898
-0.45534834 0.32037735 0.11131909 -0.06509874 -0.13865419 0.4796736 0.2524177 -0.31246036
-0.19939914 0.09114645 0.3423476 -0.2131997 -0.4073809 0.017832054 0.026978424 0.045481686
-0.019770764 -0.15831624 0.04812472 0.0071301 0.28693593 -0.05028884 -0.23811823 0.3464662
0.17279169 -0.23823006 0.23937376 0.36401272 0.22031958 -0.11459357 0.31067672 0.40437347
-0.2409802 -0.41125092 -0.08823089 -0.23153567 0.44810772 -0.05104642 -0.16060232 0.26567644
-0.16697046 -0.031580094 0.39297128 0.3586279 0.09918387 -0.28958866 -0.28835806 -0.47312012
-0.45044675 0.4338095 -0.47065863 -0.021292623 0.31733468 -0.25783598 -0.41351292 -0.31419757
0.3419462 0.2724872 0.23925102 -0.12595907 -0.08668965 0.11796986 0.42237434 -0.027329955
0.12630832 0.0669794 0.19775294 -0.32042626 -0.48822784 0.29201567 0.0638457 0.4149765
0.35961202 0.41317415 -0.18237336 0.46843603 -0.034825493 -0.091315106 -0.29908758 0.33904004
-0.0679484 0.05289233 -0.47898504 -0.36130503 -0.1313841 0.3032835 -0.18528381 0.48769164
-0.2703155 -0.17665133 0.24038707 0.49988654 -0.4562829 -0.10413051 -0.0069663175 -0.09082433
-0.055437345 -0.15905064 0.46926802 0.26934582 0.109547116 0.2934065 -0.08309068 0.3138954
-0.2149679 -0.08558087 -0.24867599 0.274508 -0.38128063 0.111175075 0.37796968 0.16791114
-0.452409 0.31444654 -0.246141 0.13853297 0.37660637 -0.09056924 0.22361854 0.3103687
0.26060742 0.032208297 0.30852297 0.30830994 0.2897641 0.4710519 0.116979875 -0.19796358
0.44533142 0.049007643 0.48898125 0.4788919 0.32782096 0.39288953 0.34004015 0.43743756
0.44209513 0.13894713 0.049185596 0.45270762 0.16441043 0.33049205 -0.12138738 0.36428523
-0.067240305 0.08702782 0.33115146 -0.14889216 0.10217521 0.31231517 0.19818066 0.22511943
-0.20575291 -0.25191492 -0.10133198 0.0871681 -0.16316725 0.4582853 0.28038922 -0.35952228

2.weight f4 [256, 256]
00000000: 6bdf 563d e8e5 d1bc 1711 ca3c 58ae 6abc
00000010: 2a3a 4f3c e06f ea3c 85ac de3c 3469 67bb
00000020: 42d4 103c f646 24bd 40ff d93b 092e 2f3d
00000030: 83b3 79bb c741 1cbd 27ba c1bc f253 fdbc
00000040: ef3f 8bbc c250 1c3b 497f 9f3b 8ad3 55bd
00000050: e95b 7b3d 6842 2dbd 54fc 3fbc 499c 64bd
00000060: cddb 593d d8b4 46bd 81d1 5a3d a960 b53c
00000070: 19e6 493d 02f6 683d a86b c5bc 3089 223d
00000080: 0b7b 783d 8857 fdbc 5b0d 61bd 8fba b73c
00000090: 4e23 20bd e1bd 6a3d db78 3d3d 45cc 163d
000000a0: 3ea5 5cbd ac94 30bc bf7a 293b 41d7 03bd
000000b0: c7f4 ff3c d943 193c dc6d 743d 7cea d3bb
000000c0: 6c71 3c3c 1714 653d 08c4 153d a6e7 39bd
000000d0: 08a1 edbc 472c c73b 8984 efbb bd4d c3bc
000000e0: 6556 833d 989e 21bd eadc 293c cf89 a3ba
000000f0: 280e 1b3c 62af c63c bd3c 893d 197e 363d
00000100: db69 32bd b231 5fbd 189a 33bb 7848 4abd
00000110: fede e93c d4dc 2a3d a38d 7d3d 771c 1abc
00000120: da5e 8ebc c9dd 62bd b44f debc 8759 8cbc
00000130: eb9b 8cbc 9c23 323d 4579 2f3d 045e 073c
00000140: 3ec9 8cbd e0b3 fabc 76c5 103d 1986 2b3d
00000150: 3b25 18bd c0bf 04bd bb20 2fbd c234 4ebd
00000160: e687 6c3a 6ecf cdbc 8266 5e3d 2457 99bc
00000170: eeb3 48bc f2ed 7d3d 9599 773d 7e38 253c
00000180: cc0f 13bd f677 24bd c414 0bbd 9e07 473d
00000190: eec0 043d 0251 e23c ed32 b03c 384d 773d
000001a0: 78f7 5c3d 8972 0abc d4f2 163d 999a 283d
000001b0: 492f 643b e846 233c 7c1e 223d f1c1 03bc
000001c0: b29d a5bc 55a6 093d 1789 04bc bb8e d03c
000001d0: ad91 ef3c 3226 4b3c ff0d 5f3d dd64 68bd
000001e0: 7a5b 6c3b ec4e c4bc 69f0 fcbb c569 723d
000001f0: 745a fcbc 9462 9e3b 2008 98bb b676 603b
00000200: 17a0 09bd 54cd c5bb b0f8 30bd 13df 2cbd
00000210: 5892 3f3d 3a36 27bb 344f 5ebd 75ce 76bd
00000220: 2dd8 53bd 236a 80bc 585c 62bd a199 f7bc
00000230: 5568 47bd 9c07 303c 4635 43bd f7ba a6bb
00000240: 2c5c 793a 475a e13b b670 cdbc 1588 8cbd
00000250: 6cfc 7cbd 26fd d13c e958 593b 5ada d13c
00000260: 457e d1bb e46f 75bd 727d 0bbd 98d0 7ebd
00000270: 1358 b5bb ba63 9fbc 43b1 92bc c7ca 29bd
00000280: 3c4d 20bd 71c5 81bc 6d3d b13c 494c 013d
00000290: 551d 143d 74f6 f13c 1d0b 173b 69d5 4ebc
000002a0: 7564 33bd 4513 403b cf99 4abd fdc6 203c
000002b0: 8e37 9f3b 9ad6 203d 794e fa3c 3e2a 713c
000002c0: e903 743d 1f4b 183d 9f60 263d badf ca3c
000002d0: f3a7 0dbc 5c70 613c 488a 98bc e866 e33c
000002e0: b1e1 37bd a982 20bc 2c1a 78bd 46e6 b9bc
000002f0: 6ce7 c1bc 4600 c0bc 9cb1 e0bc c6b1 193d
00000300: 277d 0a3d 18ab 7f3d 5e65 19bd 2e1e 41bd
00000310: 0f52 feba 3464 043c a852 46bd 366d 30bd
00000320: ba85 adb8 720b e6bc 289d 2bbd 0c19 6f3c
00000330: 3f9f 2c3d 20c2 d8bc 3cc4 bc3c 8cf9 723d
00000340: 654d fe3a da46 f1bc 859d 213d 69c2 423d
00000350: 36da 28bd 44f2 1dbd 14f7 cc3c f7a3 febb
00000360: daa3 63bd c62b 4f3c 2def dd3c 6c55 253c
00000370: 8000 8ebd 8169 213c 034d eebb b905 b83c
00000380: cc0f 5f3d 3413 84bc 66d9 c63c 1928 473d
00000390: f958 1bbd ff6e ed3b 9110 3c3d 8b32 5e3b
000003a0: 43a4 f53c 1fbe 48bd 6459 0d3c 0b41 9abb
000003b0: 28f3 b3bb 013c f03c f0bd c4bc ed20 22bd
000003c0: 3e4f 363d d2f2 3dbd c8d9 e73c a42e 9e3c
000003d0: 2058 9a3b f64e 663c 345f f5bc b33d 763d
000003e0: c681 823d 04ba 7dbd 7a08 5bbd ac4d 56bd
000003f0: 4681 213d 4158 273d e2ce f63c 9cd7 5e3d
0.05245916 -0.025622323 0.024666352 -0.014323793 0.012648145 0.0286178 0.027181873 -0.0035310509
0.008839669 -0.040106736 0.0066527426 0.042768512 -0.0038101382 -0.038148668 -0.023648335 -0.030923817
-0.01699826 0.0023851846 0.0048674685 -0.052203692 0.06136695 -0.042299658 -0.011717875 -0.055813108
0.053188134 -0.04851231 0.053422455 0.022140818 0.049291704 0.056875236 -0.024099186 0.039681613
0.060664218 -0.030925527 -0.054944377 0.022427825 -0.03909617 0.05730999 0.046257835 0.0368159
-0.053868525 -0.010777634 0.0025860516 -0.032187704 0.031244649 0.009354555 0.059675083 -0.0064671617
0.011501651 0.055927362 0.036563903 -0.045386933 -0.02900745 0.0060782763 -0.0073095006 -0.02384078
0.06412963 -0.039457887 0.010367611 -0.0012476983 0.009463824 0.02425355 0.06701038 0.04455385
-0.043557983 -0.054490753 -0.002740508 -0.049385518 0.028548714 0.041714504 0.061902653 -0.009406201
-0.017379213 -0.055387292 -0.027137615 -0.017132534 -0.017164191 0.04349099 0.04284026 0.008262161
-0.068743214 -0.03060335 0.035344563 0.041875932 -0.03714488 -0.03240943 -0.042755824 -0.050343283
0.0009022936 -0.025123324 0.054296978 -0.01871831 -0.01224993 0.0619945 0.0604492 0.01008427
-0.035903737 -0.040153466 -0.03395535 0.04859125 0.032410555 0.027626518 0.021508658 0.060376376
0.053946942 -0.008450159 0.036852673 0.04116306 0.0034818223 0.009965636 0.039579853 -0.008041845
-0.020216797 0.033605892 -0.008089325 0.025458684 0.029244268 0.012399243 0.054456707 -0.056736816
0.0036065266 -0.023963414 -0.007719089 0.0591829 -0.03080485 0.004833529 -0.0046396405 0.0034250445
-0.03359994 -0.00603644 -0.043205917 -0.042204928 0.046770424 -0.00255145 -0.054274753 -0.060255487
-0.051719833 -0.01567561 -0.055263847 -0.030224623 -0.048683483 0.010744002 -0.047658227 -0.005088206
0.0009512331 0.006877217 -0.025078159 -0.06861893 -0.061764166 0.025633406 0.0033164567 0.025616813
-0.0063932263 -0.05992116 -0.03405518 -0.06221065 -0.005534181 -0.019456733 -0.01790679 -0.04145315
-0.039136156 -0.015841218 0.021635735 0.03156689 0.036160786 0.029536463 0.0023047396 -0.012624123
-0.043796975 0.002930836 -0.04946309 0.0098130675 0.0048589176 0.03926716 0.030554997 0.014719544
0.05957404 0.037181016 0.04061949 0.024764884 -0.008645999 0.013759699 -0.018620625 0.02775903
-0.04489297 -0.009796777 -0.060571834 -0.02269281 -0.02366992 -0.02343763 -0.02742844 0.037523054
0.03381076 0.062419027 -0.037450187 -0.047147922 -0.0019403117 0.008080531 -0.04841867 -0.0430729
-8.274191e-05 -0.02808163 -0.041897923 0.014593374 0.042144056 -0.026459754 0.02304279 0.059320018
0.0019401727 -0.02945273 0.039456863 0.047548685 -0.041223727 -0.03856112 0.02502016 -0.007771011
-0.055576183 0.012644714 0.027091587 0.010091167 -0.06933689 0.009851814 -0.007272364 0.022463666
0.054458424 -0.016122438 0.024273586 0.048622224 -0.037926648 0.007245898 0.045914236 0.0033904638
0.029985553 -0.04900944 0.008627269 -0.0047074608 -0.005491633 0.029325487 -0.02401635 -0.03958218
0.044509165 -0.04637415 0.028302088 0.01930935 0.0047102123 0.014056912 -0.029952623 0.060117435
0.063724086 -0.061944976 -0.05347488 -0.052320167 0.039429925 0.04085565 0.030127946 0.05440484

2.bias f4 [256]
00000000: 6a2f 393d 9c38 3abd c74e e53c 64c4 2bbc
00000010: b68c f43c 3604 98bc abf7 373d c3c4 49bd
00000020: fac2 6ebc b158 5abd d414 e03c 652c 1d3d
00000030: 6bb1 b2bb a47d 573d 0315 de3c a422 193d
00000040: 3c2a 34bc d1ec e03c 7177 99bc 0dd9 d03c
00000050: e5bf 633d 402f 563c 444b 84bd 4cf5 7dbc
00000060: 54b9 83bc 9051 d73c c677 643d dafd 1dbd
00000070: 379b d53c 2892 abbc 66bd 6bbb 3489 3abd
00000080: 42a9 1a3d 87f2 f6bc 68e4 53bd db4c 513d
00000090: 39a2 88bd e572 22bb e98e 0ebc ec53 77bd
000000a0: 7976 28bc 3d72 21bd a501 423d e86e 713d
000000b0: 5417 8cbd 6c88 89bd d34d ab3c 0b8a 3dbd
000000c0: efe0 863d 4ffc ad3b 7425 393d 6ed2 2739
000000d0: a055 7e3b b851 45bd 4dec bfba c36d 553d
000000e0: a3e9 76bd 5cba 633d a0f7 5c3c 4531 b53c
000000f0: 9bb5 a03b 54c7 453d 47f3 15bd ce9b 273d
00000100: 52ba 81bd be54 923c d4da 29bd df6b 1d3c
00000110: 498a 433d 848a 8cbd abef 3cbd 8324 fbbc
00000120: 261c 10bd 5135 45bc 9d98 313d fdb2 ebbc
00000130: cbe0 1fbc 8876 2f3c 529f 213d f02b 6a3d
00000140: d0d5 efbc 168c 153d c685 30bd f44f f1bc
00000150: fc01 9bbc 0a41 0abd 7eb5 6cbd 0c29 023d
00000160: d36b 353c a344 943c 0bfb 613d f727 d03c
00000170: 0f65 6d3d 1ad0 c63c b41f 433d 4f71 0e3d
00000180: 6e4b 01bd 014e 113c 857c 703d 878f 4f3a
00000190: 8322 5cbd 4911 e7bc 04cb 7bbd 9a0c 683c
000001a0: ad6e 7c3d 4bac ddbc a4a7 56bc 198f cebb
000001b0: 4243 b83b 074d eebc 6768 08bd 8f58 9f3c
000001c0: 7046 f539 5cf6 4abd 8d06 5cbc 4dc1 38bc
000001d0: a05a 89bc ae82 04bd 7cff 0d3d 1c90 75bc
000001e0: 26c7 953c ed2f 983c a23b 513d d58c d3bc
000001f0: d615 15bd 0600 aabc 93a6 5abb 0f4b 50bd
00000200: a0b3 2cbd 8dbf b9bc 1188 85bd 0a45 91bc
00000210: 5729 3bbd e0e5 b53c eee1 213d ec31 2bbd
00000220: e07d fe3c a206 8c3c e070 0cba 80bb 273c
00000230: 404a 85bd 7ce3 d53a a6eb e03c 16c6 34bd
00000240: 1361 503c fef5 133d af03 08bd 3196 00bd
00000250: a3fe c63c 2518 86bc 962b 993c 0da8 4f3d
00000260: 06a1 bebc 98c2 14bd ab6c 53bd 6669 efba
00000270: 62da af3b 9277 d53c 6622 353c 8ec4 343c
00000280: 29ee 65bc 3439 f9bb 8c30 1dbd 2675 6cbd
00000290: b5cd 2f3c c4ff d3bc 698b 8dbc 8204 b9bc
000002a0: 0100 86bd cfb2 393d 2430 6e39 b6ee 1ebc
000002b0: a1cf ddbb 62be 31bd 2eac 0a3b fd91 3f3c
000002c0: c2fc 54bd 72bc 483b aa1b f73c 9d55 7ebd
000002d0: 8591 1dbc 5638 ddbc dd25 8fba 8dc2 8f3b
000002e0: 4f65 f6bc 4a2d 8a3d 52b8 bb3c 2846 403d
000002f0: 9767 c7bb cf06 ddbc 7c20 8bbd fb30 2bbd
00000300: 2733 92bc a1fc 543d 026c f43c dfad 6d3d
00000310: e223 bc3c 94e4 5bbc 3b9b 983d 5636 9ebc
00000320: 3357 55bd bd09 00bd e6ad e7bc 77f1 3e3d
00000330: 64bd 2ebb f3bf 503d 327b dd3c 58ab edbc
00000340: 8d01 873c beb1 5bbc fe9a b3bc 27e6 123d
00000350: 2b42 9abc 1bc6 2fbd 0a0d 3a3c 593d 35bd
00000360: c5bc 30bc 39c1 793d 88ec 063d 7a3e 4f3d
00000370: c0ad 2fbc 5f8b 833d 38ff 99ba f804 cd3c
00000380: 6011 7b3d 8e5e 083d d618 adbc 59f6 fbbb
00000390: 1daa 833c 0995 143d d4e0 843c 7658 013a
000003a0: 35aa 453d 6a49 45bd 66ad 62bd 81cd 2fbd
000003b0: b809 4b3d df01 e63c 6e65 143d f4bf 363d
000003c0: 89c8 913d 27e3 69bd ef99 babc dbee 81bd
000003d0: 328e 8c3b 16f2 aebc abd2 a73c e451 91bc
000003e0: 4996 73bc f6d5 7ebd e46b 023d c5a9 f8bc
000003f0: 06c2 bbbc 4c48 1fbd 5794 99bd 3988 bcbc
0.045211233 -0.045464143 0.027991666 -0.010483835 0.029852252 -0.018556695 0.04491393 -0.049259912
-0.014572853 -0.05330724 0.027353682 0.038372416 -0.005453279 0.052610055 0.027109629 0.03738655
-0.010996398 0.027456673 -0.018733712 0.025494123 0.055602927 0.013072789 -0.06459668 -0.015500378
-0.016079582 0.02628401 0.055778287 -0.03857217 0.026074989 -0.020943716 -0.0035971045 -0.045541003
0.037759073 -0.030144943 -0.051731497 0.051098686 -0.066715665 -0.002478772 -0.008701065 -0.06038277
-0.010282152 -0.039415587 0.04736485 0.05894366 -0.06840387 -0.067154735 0.020911133 -0.046274226
0.065858714 0.0053096185 0.045201734 0.00016004752 0.003880836 -0.048173636 -0.0014642567 0.05210663
-0.060281407 0.055597648 0.013486773 0.02211822 0.0049044616 0.048285797 -0.03660896 0.04092007
-0.06334366 0.017862674 -0.041468456 0.009608238 0.0477393 -0.06862357 -0.046127003 -0.030657059
-0.035183094 -0.012036637 0.043358434 -0.028771872 -0.009758185 0.010709412 0.03945858 0.05717081
-0.029276758 0.03651055 -0.043096326 -0.02945707 -0.018921845 -0.033753432 -0.057790272 0.031777427
0.011073071 0.018099135 0.055171054 0.025409682 0.057957705 0.024269152 0.047637656 0.03477603
-0.031566076 0.008868695 0.0587125 0.00079178106 -0.05374385 -0.028206484 -0.061472908 0.014163161
0.061628986 -0.027059695 -0.013101492 -0.0063036797 0.005623252 -0.029089464 -0.03330269 0.019451408
0.00046782522 -0.049551353 -0.013429296 -0.011276555 -0.016766846 -0.03235119 0.034667477 -0.014987972
0.018283438 0.01857754 0.05108226 -0.02582399 -0.036397777 -0.020751964 -0.0033363446 -0.05085283
-0.04216349 -0.022674346 -0.06520093 -0.017733116 -0.04569372 0.02220434 0.039522104 -0.041795656
0.031065881 0.017093007 -0.0005357396 0.010237575 -0.06508303 0.0016318406 0.027456116 -0.044134222
0.012718457 0.03612327 -0.033206638 -0.031393234 0.024291342 -0.016368935 0.018697541 0.050697375
-0.023270141 -0.03631839 -0.051617306 -0.0018265664 0.0053666094 0.026057992 0.0110555645 0.01103319
-0.014033833 -0.007605696 -0.038376376 -0.05772891 0.010730197 -0.025878794 -0.01727839 -0.022585157
-0.065429695 0.04533654 0.00022715383 -0.009700468 -0.006769136 -0.043394454 0.0021159756 0.011692521
-0.05199886 0.00306299 0.030164558 -0.062093366 -0.009617214 -0.027004402 -0.0010921318 0.004387206
-0.030077605 0.067469195 0.02291504 0.046941906 -0.006085347 -0.026980786 -0.06793305 -0.04179476
-0.017846657 0.05199874 0.029836658 0.058027145 0.022966329 -0.0134211965 0.07451483 -0.019313019
-0.052085113 -0.031259287 -0.028281163 0.046616998 -0.0026663179 0.050964307 0.027036283 -0.029012367
0.016480232 -0.013409076 -0.021924492 0.03586402 -0.01883038 -0.042913537 0.011355648 -0.04424796
-0.010787194 0.060975287 0.032940418 0.05059669 -0.010722578 0.06423067 -0.0011749035 0.025026783
0.061295867 0.0332933 -0.021130007 -0.007689279 0.016072327 0.036274944 0.016220488 0.0004934141
0.048258025 -0.048165716 -0.055341147 -0.042920593 0.049569815 0.028077064 0.036229543 0.044616655
0.07118327 -0.057101395 -0.02277848 -0.06344386 0.004289412 -0.02135567 0.020486197 -0.017739244
-0.014867374 -0.062215768 0.031841174 -0.03035439 -0.022919666 -0.038887307 -0.07498997 -0.023014175

4.weight f4 [2, 256]
00000000: b44b 333c 9ba9 50bd 097f 2f3d 0acc 403b
00000010: fcbe d2ba 394a 2abd e678 01bd 3154 013d
00000020: 4ad3 56bc aa54 243d 0a72 583d 84f7 3cbd
00000030: 25d1 2bbd cb8e 39bc 0100 a83d 910d f9bc
00000040: dac6 22bd 8aad 50bd e2d0 11bd 788e b5bc
00000050: 1429 92bc 42b5 15bc eaab 213d 2f5a 433d
00000060: 4788 4d3c e79c acbb d734 8cbd 4226 753a
00000070: 7588 e03c 2403 c43c 7962 013d 7335 8a3d
00000080: baa8 2cbd c43f 093d 586f 1cbd cae9 423d
00000090: 59a8 2d3c bd52 59bd 7fc2 a3bc 9c28 0a3d
000000a0: ce35 5bbd 1cb5 0ebd 55f9 42bd d60f 86bc
000000b0: 857f 2a3d 8197 ea3c ba3b d23c 02c5 4fbd
000000c0: 3c68 1cbd aa76 b53c 970c 7b3d f514 10bb
000000d0: e517 10bd 469f a63c fc52 883c 4c2a 86bd
000000e0: 53e8 873c ea1c 3f3d 99d2 32bd 9afd 3bbd
000000f0: c9d5 30bd 6feb b7bc e932 cf3c fa9f 87bd
00000100: 8ea5 703c 73fa c63c 56bd 223a 2993 d7ba
00000110: ad68 243d a85a e63b fbbb 58bd cd13 383d
00000120: 1c65 b8bc 02d9 adbc 0fee 023c 98a4 fbbb
00000130: 7ccc 313a ce20 a33a aa53 a83c 8bde df3c
00000140: 2fe1 80bb acae c83c 7a89 f03c eea9 9b3b
00000150: 3d39 e8bc f837 183d 048a 453d 404e 17bd
00000160: e0c4 cbbc 1ed2 6c3d 8122 15bc e55f 32bc
00000170: 75e9 5dbd 57aa 01bd 69c8 60bd fe4e 0ebb
00000180: b4c3 233d bad4 c73c 984b 20bd 8073 cfbc
00000190: 67c4 2dbb ab4b 893c b629 50bd b769 8cbd
000001a0: 78e8 49bd f6ab 423d 870f 48bd c64f 3f3d
000001b0: baa7 44bc 05e1 383d 16fc 323d e155 c6bb
000001c0: be9a a4bc 9871 9ebc 8a93 0dbd 05c4 543c
000001d0: ec32 d43b 02e7 5ebd d0e6 14bb 7e6e 36bd
000001e0: 120b 373d 0c30 143d ee9e 91bc 40d9 623d
000001f0: 09b6 27bd 1620 aebc 21d2 02bd 38b6 a33c
00000200: 0d55 bc3c 01df 28bc 3a64 063d 9c58 c13a
00000210: 452a 2bbd 8399 763b 8706 51bd 2001 9d3c
00000220: 1e55 873c 01be 1ebd e67d 5abd 3ec0 c03c
00000230: d333 e83c 497f 1abc e50e 6ebd b073 88bd
00000240: 22e2 843d 5b57 54bd d191 253d 0bfa bd3a
00000250: 3c74 283d 1ceb 463d 5011 93bc 852b 4fbc
00000260: 583d 1cbd 9a74 6b3d 51cd f1ba c5de 183d
00000270: a635 093d d467 703c 39a9 2a3d 40f8 1a3c
00000280: 5f2e f8bc 0fb1 5fbd f651 dabc dc54 1e3d
00000290: bf39 45bd fe4d adbc b01c d03c fece 02bd
000002a0: c910 893c 3f74 b73b acf6 103d 3c0a 593d
000002b0: 06d5 1c3c 8b83 2d3c 5cb1 dc3c c4cf 33bd
000002c0: 303b 603c 2129 6cbd 7d3a fa3c 08f0 1f3d
000002d0: 0ce3 cd3b b19b 413c 6f96 163d 40de 28bd
000002e0: c1ca 6abc b020 1ebd 7d25 a03c 7ba8 ecbc
000002f0: d68f 04bd 4745 11bd 5db0 053c 365b b9bb
00000300: da0f edbb 64ec 98bc 26a7 423d 9f75 01bd
00000310: d45b e5bb a4f7 583d db0d 233d 5bfa 933c
00000320: 8524 fb3c 7d93 573d e5cc 173d 3749 1dbd
00000330: 56ed b5bb cb65 483d d078 67bd fb03 b43b
00000340: af78 a1bb ff09 24bd aaf3 54bd 49ab 603d
00000350: e54d 813d e954 5e3b d15a 303d 24c5 18bd
00000360: 7851 173d a4b8 b43c 75e7 893c 8be1 32bd
00000370: 609c 423d c456 71bd 41f2 0d3d 8ef4 94bd
00000380: 4057 83bb bd01 82bc 1beb 01bd f8e4 dd3c
00000390: c203 efba 64df 083c 80c9 143d 5222 0bbd
000003a0: 73fe 39bd d8ec bb3c 5fef 4a3d 2e0e 453d
000003b0: 0d4b 193d 37a6 2a3d 6e77 e8bc b056 efbb
000003c0: bfd2 6dbc b81b 52bd 5d73 9abd d30e 6dbd
000003d0: d7b0 50bd 0178 39bd 3f21 71bc 09fd 683d
000003e0: 817e f2bc 581f 3e3d 5430 283c 0e4f 1abc
000003f0: ac4c 48bd 4db5 353d af0a 9bb9 b4d0 393c
0.010943342 -0.050943 0.04284576 0.0029418492 -0.0016078646 -0.04157469 -0.03160944 0.03157443
-0.013111899 0.040119804 0.05284313 -0.046134487 -0.041947503 -0.011325548 0.08203126 -0.030401977
-0.03974042 -0.05094675 -0.035599597 -0.022162661 -0.017841853 -0.0091374535 0.03947059 0.047693428
0.012544698 -0.0052677277 -0.06846016 0.0009351709 0.027408818 0.023927279 0.03158805 0.06748476
-0.042153098 0.033508077 -0.038192123 0.04758624 0.010599219 -0.05305742 -0.019990204 0.033730134
-0.05351811 -0.034840688 -0.047601063 -0.016364973 0.04162552 0.028636696 0.025663245 -0.05072499
-0.038185343 0.02215131 0.061291303 -0.0021985148 -0.035179038 0.02033962 0.016641133 -0.06551036
0.016590273 0.046658434 -0.043657873 -0.04589615 -0.04317263 -0.02245113 0.02529283 -0.0662231
0.014687909 0.024289345 0.0006208023 -0.0016447055 0.04013889 0.00702985 -0.052913647 0.04494076
-0.02250915 -0.021221641 0.007991328 -0.007679533 0.00067824847 0.001244569 0.020547707 0.027327796
-0.003933094 0.024497353 0.029362429 0.004750482 -0.028347606 0.03716275 0.048227325 -0.03693986
-0.02487415 0.05781757 -0.009102465 -0.010887121 -0.05417772 -0.03165659 -0.054878626 -0.0021714563
0.03998156 0.024393428 -0.03913459 -0.02532363 -0.002651477 0.016759714 -0.05082103 -0.06856101
-0.049293965 0.047527276 -0.048842933 0.046706937 -0.01200288 0.04513647 0.04369744 -0.006052718
-0.020093318 -0.019341275 -0.034564532 0.012986188 0.006475797 -0.054419525 -0.0022720583 -0.044538967
0.04468829 0.036178634 -0.017775979 0.055382967 -0.040945087 -0.021255534 -0.031938676 0.01998435
0.022989774 -0.0103070745 0.032810427 0.0014751139 -0.04178836 0.0037628121 -0.051031616 0.019165576
0.01652008 -0.03875542 -0.053342722 0.023529168 0.028345024 -0.009429761 -0.058119673 -0.06662691
0.06488444 -0.05184112 0.040422264 0.0014494074 0.041126475 0.04856406 -0.017952591 -0.012644653
-0.03814444 0.057484247 -0.001844803 0.037321825 0.03349843 0.014673192 0.04166529 0.0094586015
-0.030295549 -0.054612216 -0.02665041 0.038655147 -0.048150774 -0.021155354 0.025404304 -0.031935684
0.016731637 0.0055985744 0.035391495 0.052988276 0.009572273 0.010590444 0.02694004 -0.043899313
0.013685986 -0.05765641 0.030545468 0.03904727 0.0062831696 0.011816905 0.03676456 -0.04122758
-0.014330567 -0.038605392 0.019549126 -0.028888931 -0.032363735 -0.03546646 0.008159724 -0.005656625
-0.0072345557 -0.018667407 0.047522686 -0.031606313 -0.006999472 0.052970544 0.039808135 0.018063715
0.030657062 0.05263089 0.037060637 -0.0383999 -0.0055519743 0.048925202 -0.0565117 0.0054936386
-0.0049277167 -0.040048596 -0.05199019 0.05485085 0.06313685 0.0033925122 0.04305536 -0.037297383
0.03694293 0.0220607 0.016834 -0.043672126 0.047512412 -0.058920637 0.03465486 -0.072732076
-0.0040082037 -0.01586997 -0.031718355 0.02708672 -0.0018235373 0.008354042 0.036324978 -0.033968277
-0.045408677 0.022940084 0.04954469 0.048109226 0.03742509 0.04166242 -0.028377261 -0.007304035
-0.014515578 -0.051295966 -0.07541535 -0.057875466 -0.050949898 -0.04528046 -0.014717399 0.056881938
-0.029601337 0.04641661 0.010265429 -0.009418262 -0.048901245 0.044362355 -0.00029571864 0.011341263

4.bias f4 [2]
00000000: 3857 81bd de3b 0ebd
-0.06315464 -0.034725063

exp_avg f4 [256, 4]
00000000: 5249 e539 faf5 0c3a 2dba ce38 0583 86b8
00000010: b7d3 7438 b26f d4b9 672d 06b9 25b2 9438
00000020: 6e2b 7dbd 7a8b c6bc ae98 923b bacf 0b3c
00000030: 4b2d 1838 313b 42ba ac9f 90b9 6def bd37
00000040: 0075 cd3c ee06 213c 5012 dab9 8eab 46bb
00000050: bf69 2abc ca84 9d38 23a6 9b3a 8ea7 98b8
00000060: de62 283b 9cd8 a93a b410 c538 1dce f5b8
00000070: 8f7f 543b a0a5 a13a 00de 85b9 3840 bdb9
00000080: 9339 413c f9ae 9d3a 3469 a1ba 5303 16ba
00000090: 5f51 693a a6e6 0abb 1178 923a 7340 9e3a
000000a0: cd26 cf3a 1d9c 12ba dbaa dab9 955c 0db9
000000b0: 0c83 aa3d 577c a83c 61f2 0bbc 424a fbbb
000000c0: db43 fc3b 2df1 21ba bcc6 80ba 324c fe38
000000d0: ebc9 023c b48b 243b d0e1 14ba d927 86ba
000000e0: d217 1f3c a1ca 79b9 94a7 a1ba c848 12b9
000000f0: 38a7 12ba 053d 613a 5510 aa39 1fde 1f36
00000100: 7cea a539 f84e 3b3a ef3e 5738 b316 acb8
00000110: bf6d 0bbc 4184 0b3a 7381 3e3b cebb 4c3a
00000120: edea 8ebb a28b 5239 6d95 193a ce33 5e39
00000130: 8da5 3ebd 0975 cabb 491b c33b de27 f43a
00000140: 97c3 8bbb 0e70 cfba bd57 d039 b105 093a
00000150: 3491 493b 66aa 803a 4f55 a4b8 2109 1739
00000160: 183c e8ba 1077 83ba 0fcf 01b9 5e85 3f38
00000170: a9ad 87b8 ac86 553a bf37 8339 0036 cdb8
00000180: e1bd 29bb 229e 9939 aefa cd39 83ae 0239
00000190: e72d afbc 5bcd 49bb 3b56 0a3b 725c a53a
000001a0: 0a72 dc39 6780 e5b7 60ce acb7 245c 4bb8
000001b0: bf21 a3b9 46ba 4639 fb43 8e38 da23 45b7
000001c0: b59e 58bb 1853 49ba 0b5c a239 e083 f639
000001d0: cca3 f0ba 938a caba 57c8 ee39 5d0c 0b3a
000001e0: 5779 973c c60c 563b 6125 1dbb cf38 52ba
000001f0: 5a88 f3bb 6f93 13bb b3cd 123a c226 e839
00000200: 1ec8 92bb dcaf 9b3a a99f 583a d24a 50b9
00000210: 0498 5dbc e15a 80bb dcb6 813a 9516 c63a
00000220: 7651 12bb 23df be3a 396d 3b3a 7aae c4b8
00000230: f6f8 3db9 dbd9 04ba 39f6 1eb9 79af 7338
00000240: 6166 43bc ff02 d0ba c975 083b e9d6 453a
00000250: 2d40 0dbd bf0c 12bc 9b22 683b 944d fe3a
00000260: aa97 b7bd 0fbf b8bc a9fa 143c 16bd ea3b
00000270: e83a ca3c 6003 253c 0f71 a5ba cc6b 69bb
00000280: eeca 893a 8afa 7aba 38ad f5b9 d0cf 6f38
00000290: 9a35 dd3c efeb 9e3a 24c7 d8bb 6760 b9ba
000002a0: 28d0 8fb9 f312 da39 ba87 2c39 fc80 84b8
000002b0: df45 a63c 8029 373b 8e00 f5ba c087 8cb9
000002c0: 42b9 febc 3479 19bb c8c9 823b 8b89 3e3a
000002d0: a3f1 81bc 8f37 40ba f9e2 e33a 5af1 3539
000002e0: 412d b53b 17e3 64ba 3cdf 5fba e34c bd37
000002f0: ea56 67bd c4e8 afbc 7407 733b 4f0f e73b
00000300: 51f1 813b d42a 1f3a e4c3 84b9 b8eb b3b9
00000310: 513b 9f3b f333 8f3a f19e b4b9 fc44 bab9
00000320: d3d8 afb9 8b65 43b9 3b29 beb7 b2c9 e237
00000330: b04b 683a 1b4a 70ba a468 b3b9 dfad 0239
00000340: da59 25bd d6d2 5cbc 0681 a33b 33b6 9c3b
00000350: a5eb cb3c 1775 88ba 43ae a5bb 9fe9 dab9
00000360: 26b1 3bbd e9d0 93bc 889b 883b f808 d63b
00000370: 773d 533d 0b46 473c 324b 9abb 23ab 53bb
00000380: 62a2 093b 34a8 4c3a 44df 75b8 9e69 f7b9
00000390: e427 153d e2fb 683c 1ee0 e8ba e89f b0bb
000003a0: 1c31 2cbd a644 d2bb 7893 9c3b fac3 d23a
000003b0: f012 c1bc 893b 1abc e261 bd3a df7e 6b3b
000003c0: 68b2 eaba d819 e0b9 3f43 8837 9a6c 2b39
000003d0: 7dad cc3a edc4 a63a f559 4a39 a529 0ab9
000003e0: ddc0 94bc 2aab 7abb 9311 df3a f23b d83a
000003f0: f909 08ba 5ced 86ba 302e 8439 32b6 ab39
0.00043732912 0.00053772295 9.8575234e-05 -6.414022e-05 5.8371308e-05 -0.0004051901 -0.0001279615 7.090372e-05
-0.061808996 -0.02423643 0.0044737672 0.008533413 3.6281806e-05 -0.0007409333 -0.00027584785 2.2642047e-05
0.025080204 0.009828312 -0.00041593844 -0.0030314657 -0.010401188 7.511077e-05 0.0011875074 -7.279134e-05
0.0025693695 0.0012958231 9.396803e-05 -0.00011720902 0.0032424664 0.0012332685 -0.0002553314 -0.00036096736
0.011793512 0.0012030295 -0.0012314678 -0.0005722541 0.000890037 -0.0021194606 0.0011174699 0.0012073651
0.001580441 -0.00055927207 -0.00041707497 -0.00013481297 0.083257765 0.020567102 -0.008541674 -0.0076687643
0.0076985187 -0.00061776006 -0.0009824852 0.00012125856 0.007982711 0.0025107684 -0.00056794006 -0.0010235264
0.009710269 -0.00023821976 -0.0012333267 -0.00013950758 -0.00055943755 0.00085921615 0.00032437095 2.3822138e-06
0.00031645957 0.0007145251 5.1318606e-05 -8.205827e-05 -0.008510052 0.00053221366 0.0029068857 0.00078099675
-0.0043615014 0.00020079178 0.0005858753 0.00021190869 -0.0465446 -0.0061785025 0.0059541804 0.0018627604
-0.0042652595 -0.0015826242 0.00039738222 0.00052269833 0.0030756714 0.0009816408 -7.836019e-05 0.00014403883
-0.0017718105 -0.001002999 -0.00012379534 4.5662156e-05 -6.469648e-05 0.0008145373 0.000250278 -9.78522e-05
-0.002590053 0.00029300252 0.00039287418 0.00012462777 -0.021384193 -0.0030792567 0.0021108526 0.0012616052
0.00042046636 -2.735872e-05 -2.0600099e-05 -4.8484784e-05 -0.00031114926 0.00018952144 6.78375e-05 -1.1750462e-05
-0.003305358 -0.00076799234 0.00030967625 0.0004701903 -0.0018359362 -0.0015452675 0.00045544162 0.00053042715
0.018490477 0.0032661422 -0.0023978578 -0.00080193294 -0.007432026 -0.0022518297 0.00056001096 0.00044279365
-0.0044794222 0.0011877972 0.00082635373 -0.00019864299 -0.013525013 -0.0039170836 0.0009896415 0.0015112931
-0.0022326387 0.001456235 0.00071497593 -9.378507e-05 -0.0001811719 -0.00050678634 -0.0001515978 5.8099136e-05
-0.0119262645 -0.0015870034 0.0020822159 0.0007546978 -0.03448503 -0.008914172 0.0035421017 0.0019401782
-0.089644745 -0.022552041 0.009092965 0.007163654 0.024686292 0.010071605 -0.0012622195 -0.003561723
0.0010512748 -0.00095740764 -0.000468591 5.717558e-05 0.027003098 0.0012124757 -0.0066155363 -0.001414311
-0.00027430174 0.00041594318 0.0001645376 -6.318276e-05 0.020296989 0.002794832 -0.0018692182 -0.00026804022
-0.031094197 -0.002341819 0.0039913394 0.00072684203 -0.015862292 -0.00073324976 0.0017386369 0.00017351416
0.0055290763 -0.0008731349 -0.00085400394 2.2566359e-05 -0.056479372 -0.021473296 0.00370833 0.0070513855
0.0039655347 0.00060717505 -0.00025322952 -0.00034317165 0.004859366 0.0010925516 -0.00034450696 -0.00035528082
-0.00033540148 -0.00018634477 -2.2668964e-05 2.7035221e-05 0.0008861376 -0.0009166316 -0.00034219504 0.00012462538
-0.040368892 -0.013478002 0.004989746 0.004782462 0.024892638 -0.0010410872 -0.005056174 -0.00041754261
-0.04582324 -0.018043952 0.0041689314 0.006531831 0.05157229 0.012162696 -0.004708671 -0.003229805
0.0021001329 0.00078070466 -5.8620484e-05 -0.00047190202 0.036414996 0.01422021 -0.0017766987 -0.005390156
-0.04203902 -0.006416875 0.004778322 0.0016080134 -0.0235686 -0.009413608 0.0014448727 0.0035933775
-0.0017905952 -0.00042743864 1.6243777e-05 0.00016348288 0.0015615668 0.0012723483 0.00019297733 -0.0001317622
-0.01815837 -0.0038248994 0.0017018787 0.0016497357 -0.00051894743 -0.0010294127 0.00025211414 0.00032751408

exp_avg_sq f4 [256, 4]
00000000: 21cd 3e38 7474 2e38 5de8 3c38 b162 c737
00000010: 40a7 f335 580c 4a36 126b d536 1e5f 0336
00000020: 31ba 823a 353b 3839 4b47 8138 aabb 8538
00000030: c3c0 af36 81f2 b636 1e94 3636 e9c2 8436
00000040: 32f0 0d3a 8514 0a39 437f 8338 b5c8 6338
00000050: 3a1f 7637 2d74 8837 9470 d236 7f27 a637
00000060: d093 fa38 13d3 0d39 6c5b 0e39 3333 b438
00000070: d07b 3637 2a4b a537 013e 2f37 cea7 8537
00000080: 0d80 8338 8d8b 0038 d4af 0f37 9b26 2337
00000090: ac90 4638 27d6 a636 157a d435 20c0 8f35
000000a0: db81 9f38 993a ad38 c9ea 8438 d5f4 4a38
000000b0: ce61 6d3a 0b3a 1239 a946 f638 eb3a 7d38
000000c0: 195d 8c37 fb87 bb37 0904 6637 aaff c437
000000d0: 2290 3f37 c63d 7136 10c7 d535 2818 ca35
000000e0: f053 9038 77f6 2338 1824 fa37 ead8 be37
000000f0: 6a21 ee37 cc2c 1c37 3a84 1837 7f12 ad36
00000100: b285 4e38 0289 6a37 c5aa 1738 0e8d 0a37
00000110: 0a97 0c39 3c5e 9d37 48e2 f137 0a1e 1937
00000120: db80 0138 9cae 8d37 2aec 4537 6287 a736
00000130: 9c69 fb39 021a de38 d83b c438 3f49 5738
00000140: e0f0 5037 02e3 ef36 1f71 4c36 8dc0 a336
00000150: 75c3 1e39 f448 fa38 cd30 d938 79b6 b038
00000160: c814 3b39 7f5f 3339 93be 2a39 bacb f138
00000170: bc4b 6937 07ab e637 ff06 eb37 64b5 b737
00000180: 7d69 9137 11e9 1e37 c57f ee36 a525 4036
00000190: 7bc9 cc38 be9f 1e38 096e 8237 35fb 3637
000001a0: d053 2a39 5dee f238 df22 a238 2cc0 8d38
000001b0: 2482 1738 7552 0d38 2893 1738 38e0 a737
000001c0: b4f7 0439 406d b438 68ae a038 47a3 8238
000001d0: e24c ad37 1c51 a736 1509 1e36 fb6e 0b36
000001e0: db94 4a39 9b5a a237 b84c 8f37 d17b 1e36
000001f0: 07c3 1338 6753 7237 46f5 cf36 d8b8 4a37
00000200: 302d 8e37 1d13 0b37 1f43 5b37 db72 c336
00000210: 0a64 fd37 cd90 0237 1cd9 4736 036d 0b36
00000220: 4202 0c38 8b9b 6837 23ab 9437 76a8 f936
00000230: aec1 b836 969b 3437 d7d8 a736 1993 d636
00000240: ef05 c238 ef31 7f37 b9e1 6037 b6ab 2537
00000250: f06b 123a d5d0 bd38 2dc7 5e38 25be 9738
00000260: fbde 2c3a fe57 d738 a4e9 3d38 5df1 0238
00000270: baff 7839 7e16 6538 b647 b737 90e9 eb37
00000280: 2767 3637 0924 9f37 5c61 2437 fbe3 6837
00000290: d8c6 0b3a 33d6 dc38 a9c3 f338 e075 8638
000002a0: 7651 ef35 9725 6d35 c635 c735 ea33 3a35
000002b0: f48a 1f39 5f55 6f37 87f6 8837 ebd2 9836
000002c0: efe3 8939 f623 9038 5621 8838 1ccc 1638
000002d0: a053 6039 4d95 0c38 3f8a 8438 70f7 2b37
000002e0: 3ce3 2238 91c0 0438 bea3 dc37 c4e0 cd37
000002f0: 1329 323a 1b5a e838 26d0 1338 f764 df37
00000300: b619 0b37 9592 d936 468d 9636 56e8 ab36
00000310: 19c9 e037 f184 5137 5378 0036 2964 8136
00000320: b226 ba36 e3ab f036 083c 4d37 10db ab36
00000330: 487e 8d37 1ac6 4f37 daac a437 abcd 3337
00000340: a5dc 8239 f61e e137 99ac 0b37 b8f1 9b36
00000350: ad6f 0a3a fdef fc38 b82e 1439 19b9 7638
00000360: 4ba1 f939 5680 b138 bf51 1238 c655 3238
00000370: 0c30 a539 6ed0 2738 402e 7237 8df2 6c37
00000380: 830c 9239 06e1 2739 8c90 0839 0867 bd38
00000390: 3b4e 673a c4d6 9739 7e71 8639 bd8e 2a39
000003a0: 837a 253a ff66 ae38 8cc5 bb38 5e9a 1538
000003b0: 2bf6 9939 d212 f138 2b4e d638 654c 7f38
000003c0: db36 7f39 2480 1239 2206 c138 3804 b538
000003d0: 69e3 6838 739d 8e38 515f 9f38 84b4 7c38
000003e0: e9fc b738 9bfc 6838 9345 3438 9f06 0d38
000003f0: 75e6 a137 ca01 0d37 2c69 8e36 0c72 ef36
4.549057e-05 4.159329e-05 4.5039098e-05 2.3768605e-05 1.8153587e-06 3.010753e-06 6.3603593e-06 1.9575887e-06
0.0009973702 0.00017569664 6.164479e-05 6.376889e-05 5.237847e-06 5.452254e-06 2.720633e-06 3.956597e-06
0.0005414515 0.0001316835 6.270271e-05 5.430794e-05 1.4670013e-05 1.6266562e-05 6.2715935e-06 1.9807134e-05
0.00011948461 0.00013525439 0.00013576233 8.5926054e-05 1.0876873e-05 1.9704534e-05 1.0445249e-05 1.5932976e-05
6.270418e-05 3.0647545e-05 8.564402e-06 9.724546e-06 4.7341615e-05 4.972116e-06 1.5830761e-06 1.0710246e-06
7.605898e-05 8.2601975e-05 6.3379826e-05 4.838857e-05 0.00090554066 0.00013945268 0.000117433556 6.0374772e-05
1.6732653e-05 2.2355458e-05 1.3710008e-05 2.3484074e-05 1.1418046e-05 3.5947755e-06 1.5927671e-06 1.5057203e-06
6.88209e-05 3.9091767e-05 2.981913e-05 2.2750773e-05 2.838737e-05 9.308755e-06 9.090692e-06 5.157955e-06
4.923874e-05 1.39793865e-05 3.6160247e-05 8.258283e-06 0.00013407707 1.875974e-05 2.883481e-05 9.126505e-06
3.0876003e-05 1.6889819e-05 1.1797101e-05 4.9927485e-06 0.00047953136 0.00010590629 9.357155e-05 5.132821e-05
1.2453849e-05 7.1491822e-06 3.0464214e-06 4.8801944e-06 0.00015140868 0.000119345175 0.00010356456 8.426322e-05
0.00017841451 0.00017106345 0.00016283458 0.000115297225 1.39055155e-05 2.7497777e-05 2.801744e-05 2.1899767e-05
1.7334469e-05 9.471799e-06 7.107827e-06 2.8632141e-06 9.765007e-05 3.7818907e-05 1.5548447e-05 1.0906534e-05
0.00016243686 0.00011583858 7.731257e-05 6.759199e-05 3.612241e-05 3.3693814e-05 3.6138255e-05 2.0012361e-05
0.00012680778 8.603418e-05 7.66188e-05 6.229296e-05 2.0659008e-05 4.98643e-06 2.354912e-06 2.0777213e-06
0.00019319674 1.9354096e-05 1.7082653e-05 2.3615905e-06 3.5229164e-05 1.4443743e-05 6.1976343e-06 1.20831755e-05
1.6948761e-05 8.289496e-06 1.3069045e-05 5.824824e-06 3.0206535e-05 7.782318e-06 2.9779685e-06 2.0776067e-06
3.3380704e-05 1.3864493e-05 1.7722667e-05 7.4403897e-06 5.5061746e-06 1.0765061e-05 5.0022313e-06 6.3948214e-06
9.251746e-05 1.52108105e-05 1.3403996e-05 9.874746e-06 0.0005585542 9.05112e-05 5.311442e-05 7.235658e-05
0.0006594506 0.00010268389 4.5278706e-05 3.1219202e-05 0.00023746389 5.4618802e-05 2.1848693e-05 2.8122944e-05
1.0872062e-05 1.8971057e-05 9.79783e-06 1.3881358e-05 0.0005332059 0.00010530315 0.000116235875 6.411574e-05
1.7830596e-06 8.834408e-07 1.4842306e-06 6.9365944e-07 0.00015215186 1.4265387e-05 1.6327262e-05 4.554507e-06
0.000263005 6.873153e-05 6.491195e-05 3.595288e-05 0.00021393457 3.351765e-05 6.320001e-05 1.0250005e-05
3.883544e-05 3.1650594e-05 2.6302292e-05 2.4542569e-05 0.00067962817 0.000110794055 3.5241384e-05 2.6630687e-05
8.291032e-06 6.4841684e-06 4.4867948e-06 5.1232446e-06 2.6796524e-05 1.2488324e-05 1.9143524e-06 3.8561598e-06
5.5477367e-06 7.1725676e-06 1.2232929e-05 5.1216994e-06 1.6867314e-05 1.2384286e-05 1.9630814e-05 1.0717117e-05
0.00024959925 2.6836507e-05 8.325232e-06 4.6474997e-06 0.0005280923 0.00012060998 0.00014131784 5.8823356e-05
0.00047613154 8.463922e-05 3.4885245e-05 4.251839e-05 0.0003150705 4.0010018e-05 1.4435092e-05 1.4123169e-05
0.00027856612 0.00016010189 0.00013023819 9.031413e-05 0.0008823608 0.00028960977 0.0002564303 0.00016265638
0.0006312506 8.316151e-05 8.953651e-05 3.5668134e-05 0.00029365844 0.00011495281 0.00010218875 6.0867886e-05
0.0002433913 0.00013971381 9.2040995e-05 8.6315384e-05 5.5524903e-05 6.800415e-05 7.599465e-05 6.02496e-05
8.773228e-05 5.5548368e-05 4.298014e-05 3.3623186e-05 1.930001e-05 8.4046715e-06 4.2441734e-06 7.136032e-06
