distributed_shared/worker_logs/worker_4/models/model_episode_0.pt (torch, 816814 bytes, 16 tensors)

0.weight f4 [256, 4]
000000 75 cf 1d 3e 46 35 90 be bc 87 51 be 50 6f 84 be
       0.1541117 -0.28165644 -0.20461935 -0.25866175
000010 1a fc f3 3e 51 28 4f be 83 ea d5 3e 1f d4 f4 be
       0.47653276 -0.20230223 0.4178048 -0.47818086
000020 e9 2d e4 3e 84 18 e3 3d 8a d9 f1 3e 61 34 86 3e
       0.44566277 0.1108866 0.47236282 0.26211837
000030 34 ff 4e 3e e7 fc f9 3e 54 f1 ad 3e d8 21 9d 3e
       0.2021454 0.48825762 0.3397318 0.30689883
000040 60 fe 96 3d 78 81 f3 3e 9b d0 78 3e ca 15 b6 3c
       0.07372737 0.47559714 0.24298327 0.022227187
000050 f7 f2 d9 bd c9 6d 99 be 5b 0a 70 3e 50 5e 1d be
       -0.10642045 -0.29966572 0.2344145 -0.15368009
000060 bd 80 d5 3d 2a c2 d1 3e 34 e3 2c 3d 42 77 92 be
       0.104249455 0.40968448 0.042208865 -0.28606611
000070 7d 52 59 3e f7 c6 93 3e 24 a9 3c bd eb 49 0e bc
       0.21222873 0.28862736 -0.046059743 -0.008684616
000080 87 88 b5 3e 42 41 5d 3e 11 a6 a2 3e 87 41 83 bb
       0.35455725 0.21606925 0.31767324 -0.004005614
000090 36 af fe 3e d6 6a ad 3d 43 c9 44 3e 56 d3 f8 3c
       0.4974305 0.08467643 0.192174 0.03037421
0000a0 38 6c 44 3e a5 ee a4 3d e3 53 b5 bc c3 41 5e 3e
       0.19181907 0.0805333 -0.022134727 0.21704774
0000b0 c2 28 06 3c 24 fd 86 bd f2 04 c7 be 8a 43 03 3e
       0.008188428 -0.065912515 -0.3887096 0.12818733
0000c0 25 9e 30 bd b4 fa 1a 3e bc 9a fd bd 39 44 48 be
       -0.04311957 0.15134698 -0.12383029 -0.19557275
0000d0 a6 e6 f4 be a5 d2 df 3e 0c 5e 5d 3e 2f 47 ed bd
       -0.4783222 0.43715397 0.21617907 -0.11585843
0000e0 14 dc 97 bd e3 19 8d 3e 20 b8 a9 3e aa 65 a5 be
       -0.074150234 0.27558812 0.3314829 -0.32304126
0000f0 69 19 ae be 7f 78 8c be a9 31 ce 3e 97 a6 3e 3e
       -0.3400376 -0.2743568 0.40272263 0.18618236
000100 d0 8d d0 be df f2 78 be 57 d2 d9 be bb bd 71 be
       -0.40733194 -0.24311398 -0.4254329 -0.23607533
000110 9c 51 00 3e 82 de eb be 55 68 fd 3e aa 0a 8c be
       0.12531132 -0.46068197 0.49493662 -0.27351886
000120 12 a4 60 be 22 10 8e be 91 a6 8d be 65 09 bd be
       -0.21937588 -0.27746683 -0.27666143 -0.3692123
000130 bc ec af be c8 1d 86 3e a8 e1 80 3d 7a a0 a0 bd
       -0.34360301 0.26194596 0.062930405 -0.078431085
000140 da b8 fd bd be 64 19 be ec 04 18 3e 2d e7 e3 be
       -0.12388773 -0.14979836 0.14845628 -0.4451231
000150 3f 35 d0 3e 2b 1f ad be 42 37 bd 3d bb 79 52 be
       0.40665624 -0.33812842 0.09239055 -0.20554249
000160 35 9b 84 be 17 f0 6a be 8b 85 8d bd ba ac cf be
       -0.25899664 -0.2294315 -0.06910237 -0.40561467
000170 f4 79 b4 bd 1e 3d c6 be 73 51 8b 3e 38 a0 ce 3e
       -0.08812323 -0.38718504 0.27210578 0.40356612
000180 5b 82 28 bd 9f c4 d6 be 0c 05 07 3e 0c fa ad be
       -0.04113994 -0.41946885 0.13185519 -0.33979833
000190 bc 32 91 be 56 4a 6a 3d 33 1e c8 3e a5 ad cb 3d
       -0.2835902 0.0571998 0.3908554 0.099452294
0001a0 6c 4f be 3e ed 9d 88 be ff 0a 5a be c2 98 3c be
       0.3716997 -0.26682988 -0.21293257 -0.18417647
0001b0 d0 60 1b 3e e4 14 59 3e 26 cb 93 3d 5b 62 8e be
       0.1517365 0.21199375 0.07216482 -0.27809414
0001c0 aa e2 43 be a1 16 55 3e 8f af 03 3e e6 99 f9 be
       -0.19129434 0.20809413 0.12859939 -0.48750228
0001d0 d8 bd 53 3e 7e 23 f3 3e db 8c cd 3c 78 68 fb be
       0.20677888 0.47488016 0.02509158 -0.4910314
0001e0 4a d8 d4 3e cd 2e fd 3e 1e 93 b1 3e 95 c6 8e 3e
       0.41571265 0.4944977 0.34682554 0.2788588
0001f0 57 f6 a8 3e a5 38 b7 be d2 96 da be b7 94 08 3e
       0.33000442 -0.35785404 -0.42693192 0.1333798
000200 83 15 97 3c 64 f4 82 3e 7e ef d8 be fa 1e fc be
       0.018442875 0.2557708 -0.42370218 -0.49242383
000210 db dd f2 be d5 c5 0e 3c 56 2c c7 3d 0e 40 9c bd
       -0.47434887 0.008714159 0.09725253 -0.07629405
000220 ef b8 24 3e 70 67 05 be d3 68 c8 be 24 9c 06 3b
       0.16086172 -0.1302774 -0.39142475 0.0020539844
000230 4c 95 cd 3e 6d e0 b3 be 27 0a 08 3d 7e 3d f0 be
       0.40152967 -0.3513216 0.033212807 -0.46921915
000240 e4 5c c4 be 0b 66 ab 3e b6 71 0a 3e 80 3e ab 3e
       -0.3835212 0.3347629 0.1351994 0.3344612
000250 c8 a5 6b 3e f9 f2 ef 3e 1e d0 70 be a6 c5 ad be
       0.2301246 0.4686506 -0.2351689 -0.33939856
000260 5e ba 46 3e 9c 83 dd 3e 3f 8f ba be 74 55 87 be
       0.19407031 0.43264472 -0.36437413 -0.26432383
000270 d9 83 a8 be 87 c8 df be 47 cb f6 be b5 37 6a be
       -0.32913092 -0.43707678 -0.48201963 -0.22872813
000280 e6 94 cf be 84 16 f2 3e f4 4e bb bc 25 80 8d 3d
       -0.40543288 0.47282803 -0.022864796 0.06909207
000290 8d d8 63 bc dd 4a e0 be e1 32 96 bc 83 3f a1 3e
       -0.01390661 -0.43807116 -0.018334808 0.31493768
0002a0 b7 86 99 3e 57 a2 b6 3c c8 32 38 be 74 6b 1f be
       0.29985592 0.022294207 -0.17988122 -0.15568334
0002b0 f2 6e 8e be fb 46 75 39 b7 bc dc be 0e d0 6d be
       -0.2781902 0.00023391463 -0.43112728 -0.23223898
0002c0 67 3a 29 3e df bc a2 be 5a 31 8d be 7e 5e 78 be
       0.16526185 -0.31784722 -0.27576715 -0.24254796
0002d0 81 f1 e2 be c7 23 c1 be 01 2c 43 be fa c9 c2 3e
       -0.44324878 -0.37722608 -0.19059755 0.3804472
0002e0 42 59 ac 3e 61 bd 37 be 83 a4 96 be 81 c9 86 be
       0.33661848 -0.17943336 -0.29422387 -0.2632561
0002f0 68 9a c9 3e b6 b5 7e be 25 34 ae be f9 d8 f3 3e
       0.39375615 -0.24874005 -0.34024158 0.47626474
000300 93 c6 dc 3c 93 16 e6 3e 17 66 fd be 35 ca 85 3e
       0.026950156 0.44939098 -0.4949195 0.26130834
000310 94 05 b2 be 58 b3 66 be d0 60 98 be 45 e1 a3 3e
       -0.3476988 -0.22529352 -0.29761362 0.32007805
000320 c2 0a c2 be a2 43 ee bd 82 9a a9 3d 7b 9b a8 3d
       -0.37898833 -0.11633994 0.08281423 0.082327805
000330 8f cd e9 3d 11 a9 dd 3e 84 29 b2 3e 3d ef fd be
       0.1141616 0.4329305 0.347973 -0.49596587
000340 7f 74 03 3e 2f 89 cc 3d 52 a5 4b be ef 9d 95 be
       0.12837408 0.09987103 -0.19887283 -0.29222056
000350 67 1b 21 3e 2c 64 dd bd 9c 79 e0 3e ea c7 f0 3e
       0.1573311 -0.10810122 0.4384278 0.47027522
000360 cf 2f bc 3e 02 19 60 3e c7 a0 d7 be 5d fc 67 3e
       0.36755225 0.2188454 -0.4211485 0.22654863
000370 1b 01 96 3d cc 2d 49 be 2b 3c d8 ba 91 9b bc be
       0.073244296 -0.19646376 -0.0016497424 -0.36837438
000380 36 a8 f7 be 56 4c b7 3e 43 65 43 be 28 26 ad 3e
       -0.48370522 0.35800427 -0.19081597 0.33818173
000390 f2 c1 4b be 42 4f e8 3c 35 2e 71 bd 3f 46 97 be
       -0.19898203 0.028358106 -0.058881957 -0.2954578
0003a0 62 b4 ca bd 98 d8 9e 3e 73 5b c6 3e 1a 20 f7 3e
       -0.098976865 0.31024623 0.38741645 0.4826668
0003b0 2e bb cc be ce bf 02 be ea c4 d1 3e bf fd 7f 3d
       -0.39986557 -0.1276848 0.40970546 0.06249785
0003c0 27 50 a2 3d 60 7d 3f 3e 79 1d a6 3e b1 95 65 be
       0.07925444 0.1870017 0.3244436 -0.22420384
0003d0 90 df c7 3e 76 38 b2 3e c0 6b b9 3e 6c 27 9f 3e
       0.39037752 0.348087 0.3621502 0.31084764
0003e0 ba df 82 3d 2c 2e d3 3d 75 e7 87 be 14 da 42 3e
       0.06390329 0.10311541 -0.26543775 0.19028503
0003f0 6c 91 1a be be d8 a4 3e e4 67 56 be 1c 78 93 3c
       -0.15094537 0.3219661 -0.20938069 0.018001609

0.bias f4 [256]
000000 98 cf 81 3e 8a 10 70 bb a3 0e 95 be 84 a9 ba 3d
       0.25353694 -0.0036630952 -0.2911273 0.09114364
000010 f7 59 d9 3d e0 1b bf 3e 84 12 2a be 22 89 d4 3b
       0.106128626 0.37325954 -0.16608626 0.006486074
000020 11 21 87 bb 85 a9 cb be 6a a0 e5 bc e9 00 ed be
       -0.004123815 -0.3977777 -0.028030593 -0.46289757
000030 0f e4 15 be fa c8 5c bd b5 8a cd 3e b0 35 f1 be
       -0.14637779 -0.053902604 0.40144888 -0.47111273
000040 53 6e fb bc f6 db cf bc e6 45 93 be 63 9a b1 3e
       -0.030692255 -0.02537344 -0.28764266 0.346881
000050 ed c8 a9 be 9f 2b 0e bd 1b 43 ff 3e 90 b5 7c be
       -0.33161107 -0.03470957 0.49855885 -0.24678636
000060 79 0b 90 3e 51 a4 38 3e 28 e8 db 3e b0 01 d8 3e
       0.28133753 0.18031432 0.4295056 0.42188787
000070 71 ce 8e 3e 37 ad 85 be b6 65 99 3d 6c 78 fa be
       0.27891877 -0.26108715 0.07490103 -0.4892
000080 a5 9b a7 3e aa d1 79 bc ef 6e bf bb d2 62 ef 3e
       0.32735935 -0.015247742 -0.0058420817 0.4675508
000090 a3 97 99 be ba 0d 41 3d 00 d4 b0 3d 31 70 b3 be
       -0.29998502 0.04713223 0.08634186 -0.35046533
0000a0 af b3 fd be ea 8d 9d 3e 99 55 82 3e db 14 cc bd
       -0.4955115 0.30772334 0.2545593 -0.09964915
0000b0 10 aa fe be 59 52 04 3e ad d0 f0 bd b9 63 a1 3d
       -0.49739122 0.12922038 -0.11758552 0.07880349
0000c0 c7 76 10 3d 91 07 e4 3d d4 cc de 3e 57 b5 07 3e
       0.035269525 0.11134256 0.43515646 0.1325277
0000d0 4d 7c a3 3e fe 0b c2 3c 60 a6 cf be 4d 91 96 3d
       0.3193077 0.023687359 -0.40556622 0.07351933
0000e0 76 49 01 3e 12 bf e0 3e 9c c4 29 3d 61 f0 9a 3e
       0.1262568 0.43895775 0.041447267 0.3026152
0000f0 a8 df a1 3e 08 b1 a3 3e 65 1a c4 be eb 1c 7e be
       0.3161595 0.31971002 -0.38301387 -0.24815719
000100 0f 89 bd be 01 8f 95 be b4 73 c0 3e 70 ba af bd
       -0.3701863 -0.29210666 0.37588274 -0.08580482
000110 e9 27 c3 3e b6 9b e5 be af 73 10 3e d2 43 fb bd
       0.38116387 -0.4484536 0.1410663 -0.12268795
000120 6c 99 d4 3e ff ad 0c 3e d0 11 9b be ab 1b e3 3e
       0.41523302 0.13738249 -0.30287027 0.44357046
000130 99 13 9c be 77 07 93 bd 56 7e 8e be bc 7a bc 3e
       -0.30483702 -0.07179158 -0.27830762 0.3681239
000140 eb c9 a4 be a9 1d ea 3e 95 b8 b0 be b4 9e ff 3e
       -0.321853 0.45725754 -0.34515825 0.49925768
000150 e2 28 43 3e 80 45 ff 3e 27 00 87 be 4c 4a 67 3e
       0.19058564 0.49857712 -0.26367304 0.22586936
000160 3e 21 c1 3e 08 3d 4c be fc ca 58 3e ba fe 44 bd
       0.37720674 -0.19945157 0.21171182 -0.04809449
000170 93 ca 00 be 41 4a a4 bd 36 ec cd 3e 50 e2 d3 bd
       -0.12577276 -0.08021975 0.40219277 -0.103459
000180 e4 fc f4 be bc 9e a3 3e 6f a1 d8 3d 42 c6 77 bd
       -0.4784919 0.31957042 0.10577666 -0.060491808
000190 db ba 17 be 93 b8 f3 3e 6d 06 7f 3e a1 0c 9f be
       -0.14817373 0.47601756 0.24904795 -0.31064323
0001a0 ad 88 4d be a7 a3 ac 3d 3f 17 bb 3e 20 a3 62 be
       -0.20071669 0.08429652 0.36541173 -0.2213254
0001b0 52 36 e1 be d3 1f 0c 3d ad 28 0c 3d 36 b6 26 3d
       -0.43986756 0.034210037 0.03421848 0.040701114
0001c0 d5 38 28 bd 88 a2 1e be 4c 3b 75 3d fe 96 a7 ba
       -0.041069824 -0.15491688 0.059871003 -0.0012786088
0001d0 88 84 99 3e 5a ac 77 bd 13 97 64 be 3a 14 bb 3e
       0.29983926 -0.0604671 -0.22323255 0.3653887
0001e0 f3 3c 33 3e 97 bc 83 be a9 b6 8a 3e e7 36 c0 3e
       0.17503719 -0.2572982 0.27092484 0.37541887
0001f0 80 04 53 3e 57 88 06 be 67 6c a5 3e 22 bc d7 3e
       0.20607185 -0.13137947 0.32309267 0.4213572
000200 cb 46 6f be d4 c9 df be e1 b6 c4 bd 39 25 65 be
       -0.23366849 -0.4370867 -0.09605194 -0.2237748
000210 2c 28 ef 3e 3c c4 27 bd c4 fb 25 be 5b 59 86 3e
       0.46710336 -0.040958628 -0.16209322 0.26240048
000220 66 4d 1b be a8 67 fe bc 24 49 be 3e cd c1 bb 3e
       -0.15166244 -0.031055287 0.37165177 0.36671296
000230 d2 20 c1 3d 7e ab a2 be 63 b0 91 be 47 d9 f0 be
       0.09430088 -0.31771463 -0.28454885 -0.4704077
000240 a8 f2 e2 be d8 49 e0 3e 4b 98 ec be f4 b8 1d bd
       -0.44325757 0.43806338 -0.4620994 -0.038506463
000250 04 98 a3 3e 8b bb 8f be 24 81 d5 be 1a d7 a9 be
       0.31951916 -0.2807277 -0.4170009 -0.33171922
000260 ba f7 af 3e fa d5 8c 3e f2 11 6c 3e 19 88 12 be
       0.34368688 0.27507 0.2305372 -0.1430973
000270 3c 70 85 bd 3e 10 db 3d 8f b8 dd 3e 02 26 11 bd
       -0.06515548 0.10696457 0.4330487 -0.035436638
000280 d2 dd 1f 3e 2c 32 72 3d 38 b6 3d 3e 0a db a6 be
       0.15611961 0.05912988 0.18526542 -0.3258899
000290 79 3d f5 be 5c d5 96 3e 33 96 9f 3d b3 c8 d9 3e
       -0.47898462 0.29459655 0.0779232 0.42535934
0002a0 64 bc bb 3e 7f aa dd 3e e8 93 57 be 49 0b f1 3e
       0.36667168 0.4329414 -0.21052516 0.47078922
0002b0 0d 0e 44 bd a6 95 ad bd b5 65 97 be 12 c8 af 3e
       -0.047864962 -0.08475809 -0.29569784 0.3433233
0002c0 1b a8 bd bd 4d 3f 9e 3d 9d 97 fd be c1 8b b0 be
       -0.09260579 0.077269174 -0.49529734 -0.34481624
0002d0 c0 3b 03 be bb 83 96 3e 2b dd 3a be 9a 66 f8 3e
       -0.12815762 0.29397377 -0.18248431 0.4851578
0002e0 a2 37 95 be 0c 51 2d be be 1f 6c 3e c2 98 fe 3e
       -0.29144007 -0.16925448 0.23058984 0.4972592
0002f0 16 9d e7 be ba 66 d9 bd 52 bf ea bb 6f 42 bc bd
       -0.45237035 -0.10615297 -0.0071639204 -0.09192359
000300 c4 15 95 bd b9 fc 39 be 6f 01 fa 3e 40 0b 96 3e
       -0.07279542 -0.18162812 0.4882922 0.29305458
000310 eb 93 f7 3d 74 ff 9f 3e 8e ee ce bd e9 2a a7 3e
       0.1208876 0.31249583 -0.101040944 0.32649925
000320 1a 19 73 be f1 92 c4 bd 3e 4a 78 be 01 96 8f 3e
       -0.23740044 -0.09598339 -0.24247071 0.2804413
000330 ad 69 c1 be 0c 9f 00 3e 97 6f be 3e ea 66 3a 3e
       -0.37775937 0.12560672 0.3719451 0.18203321
000340 2f 3b e6 be bc 74 a2 3e 65 c1 63 be db f0 16 3e
       -0.44967028 0.31729686 -0.22241743 0.14740317
000350 a8 4b c0 3e 8e f1 9a bd ec 43 56 3e ef 92 a8 3e
       0.3755772 -0.07565604 0.20924348 0.329246
000360 cb ab 77 3e f0 17 21 3d a7 b0 9d 3e b9 4e a5 3e
       0.24186628 0.03932947 0.30798838 0.32286623
000370 88 36 8f 3e fe 68 f1 3e 52 c4 e9 3d ed 99 54 be
       0.27971292 0.47150415 0.11414398 -0.20761843
000380 1a 80 eb 3e 78 92 a8 3c 35 9a fd 3e 15 01 f3 3e
       0.4599617 0.020577654 0.49531713 0.47461763
000390 a7 92 ab 3e a4 80 d0 3e 32 ce b1 3e 8c 2f e8 3e
       0.33510324 0.40723145 0.34727627 0.45348775
0003a0 f0 6f e5 3e 7e b2 f3 3d d1 17 43 3d eb 4f e3 3e
       0.44811964 0.11899279 0.047630135 0.4439691
0003b0 54 81 34 3e 11 e7 ac 3e c5 ee de bd 2b 44 c1 3e
       0.1762746 0.3377004 -0.108853854 0.3774732
0003c0 1e 5f 63 bd b2 4b ae 3d 5e 1d ae 3e 8c c2 01 be
       -0.055510633 0.085105315 0.3400678 -0.1267187
0003d0 b0 7d ca 3d 6a 05 9e 3e 35 c7 4e 3e dd a6 60 3e
       0.09887254 0.30863506 0.20193179 0.21938653
0003e0 ba ee 56 be 39 ca 8c be 8f 64 ab bd dc 38 a4 3d
       -0.20989504 -0.27498034 -0.083687894 0.080186576
0003f0 90 79 26 be 84 e8 ee 3e 78 08 88 3e b1 ae c4 be
       -0.1625731 0.4666177 0.2656896 -0.3841453

2.weight f4 [256, 256]
000000 37 af 5f 3d 26 d6 b6 bc cd 9f 0f 3d 0c 74 09 bc
       0.054610457 -0.02231891 0.035064507 -0.008389484
000010 41 d9 3f 3c f2 d2 0f 3d b7 29 a2 3c ba 70 0c bc
       0.011709512 0.035113283 0.019795282 -0.008571798
000020 79 49 50 3c 48 88 1c bd 23 70 8c 3c cf a1 0f 3d
       0.01271283 -0.038215905 0.017143315 0.035066422
000030 06 6e 2c bb f7 e5 33 bd ee 22 63 bc 12 f2 a9 bc
       -0.0026310696 -0.043920483 -0.013863308 -0.020745311
000040 7a 71 f7 bc 01 40 c4 ba 7e 5c 80 bb 54 d7 72 bd
       -0.030205477 -0.0014972688 -0.003917276 -0.059287384
000050 d5 82 6b 3d ad 5c 08 bd bc ff 67 bc 3b 24 2e bd
       0.057497818 -0.033291508 -0.014160093 -0.04251502
000060 75 73 67 3d a8 ca 2a bd 40 1f 65 3d 13 67 93 3c
       0.056506593 -0.041697174 0.055938005 0.017993486
000070 55 c9 55 3d 12 43 46 3d 86 96 98 bc c3 0a 27 3d
       0.05219396 0.048403807 -0.018626463 0.040781748
000080 fa 52 3c 3d 9e 36 02 bd c9 f2 67 bd 46 0f c8 3c
       0.04597757 -0.03179037 -0.056628022 0.024421345
000090 44 7e 22 bd 03 f6 39 3d be 55 08 3d 63 42 e7 3c
       -0.039671198 0.04540063 0.033284895 0.028229898
0000a0 91 58 71 bd e6 c3 9a bb 29 b3 dd ba c7 10 31 bd
       -0.058922354 -0.00472306 -0.0016914356 -0.04322889
0000b0 ec f5 c5 3c be e1 66 3c 32 70 5b 3d 0a 26 11 bb
       0.024165116 0.014091907 0.053573795 -0.0022147917
0000c0 4b b6 28 3b 9b a6 6d 3d 96 d2 23 3d 92 b8 51 bd
       0.002574342 0.058020215 0.039995752 -0.05120141
0000d0 94 38 12 bd df f0 37 3c df 67 44 bc 1c 5b ce bc
       -0.03569849 0.011226862 -0.011987655 -0.025189929
0000e0 c3 5c 74 3d c3 e6 1c bd 12 0d 7c 3c 51 f4 b4 3b
       0.059658777 -0.03830601 0.015383976 0.005522289
0000f0 66 1e 28 3c 9c f9 1a 3d 7b ee 73 3d 66 8b 2c 3d
       0.010261154 0.037835702 0.059553605 0.04212513
000100 bb 1c 2d bd ee ac 47 bd f5 a5 32 bc 46 0f 61 bd
       -0.042263728 -0.048748903 -0.010903825 -0.054946207
000110 6a 60 cf 3c 76 f4 20 3d d9 7a 7c 3d 17 62 b8 bc
       0.025314528 0.039295636 0.061640594 -0.02250771
000120 82 57 a4 bc 5f e1 3a bd a6 4d 26 bd e9 51 56 bc
       -0.020061258 -0.045625087 -0.040601395 -0.013081052
000130 76 d8 73 bc 0f 35 1d 3d 70 b7 4e 3d 4e 89 44 3b
       -0.014883151 0.03838068 0.05046791 0.0029989067
000140 10 1a 7b bd 50 3a 0a bd 4e 70 c0 3c 75 68 d8 3c
       -0.061304152 -0.033747017 0.023491051 0.026416996
000150 23 f2 fd bc 8c 24 e1 bc 8a 44 31 bd a6 d4 73 bd
       -0.030999249 -0.027483247 -0.043278255 -0.05952897
000160 dc d8 71 3b 0e 53 c1 bc 84 c7 5c 3d ce bd 9f bc
       0.003690294 -0.023599174 0.05390121 -0.019499686
000170 45 36 8b bc 30 f1 60 3d e3 bc 66 3d e2 3f a0 3c
       -0.016993651 0.054917514 0.05633248 0.019561712
000180 10 3a 0b bd 56 ff 08 bd 8e 1b 01 bd 41 ce 37 3d
       -0.03399092 -0.033446632 -0.03152042 0.044874433
000190 cc b3 01 3d e2 94 f9 3c c6 31 d5 3c 39 51 65 3d
       0.03166561 0.0304665 0.02602471 0.055985663
0001a0 90 03 61 3d 7c 2e 01 bc 3b 41 0a 3d 54 68 32 3d
       0.054935038 -0.007884618 0.033753615 0.043556526
0001b0 f4 90 87 3b 81 34 b5 3b 9b cc 45 3d a7 bd e5 bb
       0.004137153 0.0055299406 0.04829083 -0.0070111337
0001c0 84 de 89 bc c3 61 07 3d 67 93 ad bc 48 04 d7 3c
       -0.016829737 0.033052217 -0.021188451 0.026247159
0001d0 35 bc 12 3d e7 a9 7e 3c a7 8a 3e 3d 1d 03 56 bd
       0.03582402 0.015543438 0.046518948 -0.052249063
0001e0 55 65 95 3a a8 38 81 bc 6e 2c 3d bc e3 fb 78 3d
       0.0011397997 -0.015774086 -0.011546237 0.060787093
0001f0 69 59 ac bc 40 52 ee 3b 74 08 0a bc 2e 0c 11 3c
       -0.021038728 0.0072729886 -0.008424867 0.0088530015
000200 fa 04 0a bd 36 5b 04 bc 43 d5 1f bd 00 50 47 bd
       -0.033696152 -0.008078387 -0.03902174 -0.04866028
000210 a7 86 3c 3d c6 86 9f bb 9e fa 2c bd 31 d1 6b bd
       0.046026852 -0.004868361 -0.042231195 -0.057572547
000220 19 a1 79 bd 77 af f0 bc 85 83 3a bd 0b a5 e3 bc
       -0.06094465 -0.029380543 -0.045535583 -0.02778866
000230 a4 52 40 bd 50 f3 70 3c cb 9b 4a bd e3 9b c5 bc
       -0.046953812 0.014706448 -0.049464982 -0.024122184
000240 3f 99 8b ba 92 e5 ee 3b b5 1b ee bc 49 82 7b bd
       -0.0010650529 0.0072905505 -0.029065946 -0.061403546
000250 92 4e 6a bd 98 d4 c3 3c 3a ce 82 bb ef 65 ef 3c
       -0.057203837 0.023905084 -0.0039918693 0.02922341
000260 0f 07 b4 bb 72 f2 6a bd 15 9a e5 bc e4 8f 62 bd
       -0.0054940055 -0.05736012 -0.028027574 -0.055313006
000270 7c 5f 3d bc 4d 90 aa bc 5c af 0e bc fc 0f 35 bd
       -0.01155841 -0.020820761 -0.008708801 -0.044204697
000280 be d9 25 bd 1c b4 69 bc 6d e9 f7 3c ab e0 10 3d
       -0.04049086 -0.014264133 0.030262673 0.03537051
000290 89 94 dd 3c 2b 79 22 3d d1 a5 b3 ba 84 70 bb bc
       0.027048366 0.039666336 -0.0013706033 -0.0228808
0002a0 c0 30 29 bd a2 03 01 3c 44 de 45 bd 79 42 42 3c
       -0.041306257 0.007874401 -0.048307672 0.011856669
0002b0 65 5f 31 3c 30 84 48 3d ab ae bf 3c e3 56 25 3b
       0.0108259665 0.04895419 0.023398718 0.002522879
0002c0 3d 4d 75 3d 49 dc 11 3d 75 3f 39 3d 48 ad c2 3c
       0.059888113 0.03561047 0.045226533 0.023764268
0002d0 82 61 fb bb 17 99 aa 3c a3 10 85 bc 76 fd 06 3d
       -0.007671536 0.020824952 -0.016243285 0.032956563
0002e0 30 3a 3c bd 39 9d 5f bc 03 bf 53 bd 86 01 8a bc
       -0.04595393 -0.013648325 -0.051695835 -0.01684643
0002f0 8c fc e6 bc 87 dc 88 bc fa 06 de bc f3 a0 0f 3d
       -0.028196596 -0.016706718 -0.027102936 0.035065603
000300 c2 96 01 3d 35 d1 80 3d 8e b6 24 bd a4 20 3b bd
       0.031637914 0.06289903 -0.04021316 -0.045685425
000310 34 bf 0e bb 03 5e e6 3b e1 88 2c bd 5d 24 4d bd
       -0.0021781446 0.00703025 -0.042122725 -0.050083507
000320 a0 94 0f 3b 01 06 c8 bc 87 ce 48 bd 46 c6 80 3b
       0.0021908656 -0.024416925 -0.049025085 0.003929886
000330 42 56 1b 3d 1e 6d c9 bc 9f b9 fa 3c ce 40 6b 3d
       0.03792406 -0.024588164 0.03060609 0.05743485
000340 03 91 92 ba 4f 65 eb bc c1 04 f4 3c 16 e6 3a 3d
       -0.0011182133 -0.028734831 0.029787423 0.045629583
000350 b9 ef 15 bd e9 78 32 bd 5d b5 e4 3c 9b 14 ba bb
       -0.03660557 -0.04357234 0.027918512 -0.005678726
000360 2d 68 2f bd 70 47 1f 3c ad 14 0e 3d 18 08 51 3c
       -0.04282396 0.009721622 0.034687687 0.012758277
000370 32 12 6f bd 03 18 63 3c c5 de 63 bb 6a a0 dd 3c
       -0.05836696 0.013860705 -0.0034770232 0.02705403
000380 9a 14 6c 3d 96 b3 2a bc 43 76 9e 3c 68 bd 46 3d
       0.057636835 -0.010418793 0.019343501 0.048520476
000390 1f ab 06 bd 95 9f 34 3c 4f f1 36 3d 97 52 61 ba
       -0.032878038 0.011024375 0.044663724 -0.00085953757
0003a0 57 78 0a 3d 91 f9 23 bd 80 70 bf 3b dc 65 2e 3b
       0.03380617 -0.040032927 0.0058422685 0.0026611006
0003b0 98 18 9c bb 65 6b 02 3d 77 79 11 bd 1d 5c 28 bd
       -0.004763674 0.0318407 -0.03551623 -0.04110347
0003c0 6e e6 28 3d 0c 2a 63 bd 47 12 cf 3c e7 c7 20 3c
       0.04123538 -0.05546002 0.02527727 0.009813285
0003d0 0d c3 89 3c fb e2 58 3c ee e9 3c bd 66 c6 6e 3d
       0.01681664 0.01323771 -0.04612153 0.058294676
0003e0 8c 56 74 3d 68 5f 6d bd 79 4a 78 bd f2 7e 4e bd
       0.05965285 -0.057952315 -0.060617898 -0.050414033
0003f0 5e 71 06 3d 76 63 3b 3d 8c 2e 19 3d c0 7d 79 3d
       0.03282296 0.04574915 0.037397906 0.06091094

2.bias f4 [256]
000000 80 3b 5a 3d bd df 6b bd 5d 46 09 3d 8d f5 b7 bc
       0.0532794 -0.05758642 0.03351437 -0.022455955
000010 87 28 12 3d 3c ae f1 bc b4 1d 4b 3d 95 78 19 bd
       0.03568318 -0.029502027 0.049588874 -0.03746851
000020 c1 ab 37 bc a0 e6 4e bd 90 1f d6 3c 61 aa 4d 3d
       -0.011210383 -0.05051291 0.026138097 0.050211314
000030 70 ef 01 bc 23 0c 74 3d 67 70 2f 3d 44 43 45 3d
       -0.0079306215 0.059581887 0.042831805 0.048159853
000040 6f 8d 8f bc 2b 0a 13 3c 1a 1f d2 bc d8 f5 8b 3c
       -0.017523495 0.008974592 -0.025649596 0.017085
000050 21 08 58 3d 02 96 d3 3b 13 19 56 bd f1 16 c9 bb
       0.052742127 0.0064570913 -0.052270006 -0.006136768
000060 ca 78 df bb 2f bf 8c 3c 2e 65 21 3d fb 6f fe bc
       -0.006819819 0.017181007 0.039403133 -0.031059256
000070 1f 21 24 3d 23 34 80 bc 7c ea 15 3c 22 e4 f5 bc
       0.04007065 -0.01564986 0.009150144 -0.030016009
000080 be 72 41 3d be 07 b2 bc bb 36 6d bd 87 83 6e 3d
       0.047228567 -0.021732207 -0.057913523 0.058230903
000090 18 17 65 bd 30 ad 4e bc ec d1 81 bb dc 37 5d bd
       -0.055930227 -0.012614533 -0.003961792 -0.05400835
0000a0 e0 fd 83 bc 14 dc 2c bd d2 a9 30 3d f7 32 6d 3d
       -0.016112268 -0.04220207 0.043130703 0.057909932
0000b0 de 82 5f bd a5 1c 70 bd 0c cc e1 3c 36 a5 56 bd
       -0.054568164 -0.058621068 0.027563117 -0.05240365
0000c0 22 0a 70 3d dc f7 4c 3c 4d 21 70 3d 26 a8 00 3c
       0.058603413 0.012510266 0.058625508 0.00785259
0000d0 05 76 31 ba 2f 00 3e bd 17 dd 2b bc 6d 35 27 3d
       -0.00067696004 -0.046386894 -0.010489724 0.040822435
0000e0 1e d7 5f bd ae f2 7b 3d 62 ea fa 3c b9 31 81 3c
       -0.05464851 0.061510734 0.03062934 0.01577078
0000f0 74 f2 ba bb b0 7c 1c 3d 33 56 da bc 93 ca f9 3c
       -0.005705172 0.03820485 -0.026652431 0.030492103
000100 c3 9f 57 bd 5a 49 db 3c a0 52 53 bd bd 2e e6 3b
       -0.052642595 0.026768375 -0.05159247 0.0070246146
000110 9f 31 77 3d e7 fa 66 bd 67 7b 5c bd d1 5b fe bc
       0.060350057 -0.056391623 -0.053828623 -0.03104964
000120 45 c2 10 bd dd 4e e1 bc bc 61 1d 3d be bc e0 bc
       -0.03534152 -0.027503425 0.038423285 -0.02743375
000130 7d db 92 bc e3 d2 8f 3c 14 c8 11 3d e7 f2 56 3d
       -0.017926926 0.017556613 0.0355912 0.052477743
000140 69 64 02 bd 75 a6 33 3d d7 da 1f bd 77 dc c0 bc
       -0.03183404 0.043859918 -0.03902706 -0.023542626
000150 f9 72 eb bc 7e a1 05 bd f8 55 5b bd c8 b0 cf 3c
       -0.028741347 -0.032624714 -0.053548783 0.02535285
000160 71 1c 9a 3c e1 6d c9 3c 23 09 45 3d 38 04 c6 3c
       0.01881239 0.024588527 0.048104417 0.024171934
000170 dc c0 3f 3d 1b 7b 93 3c e3 eb 2e 3d e2 e9 23 3d
       0.046814784 0.018003037 0.042705428 0.04001797
000180 4d d9 c6 bc 87 85 c3 3c ae b2 50 3d 54 8f 0c bc
       -0.024273539 0.023867382 0.050951652 -0.008579094
000190 ec 53 61 bd 1b ed af bc fc f8 7f bd 8f e6 6f 3b
       -0.055011675 -0.021475365 -0.06249331 0.003660593
0001a0 6a 20 55 3d d8 03 7c bc 44 9a 9d bc f8 6a 21 bc
       0.052032866 -0.015381776 -0.019238599 -0.0098521635
0001b0 59 44 a1 3a 09 fa bb bc 5f 90 13 bd a4 7e e7 3c
       0.0012303694 -0.022946374 -0.036026355 0.02825863
0001c0 ad 76 fd ba 5e 6f 6e bd c7 0b ad bc b5 97 d1 bb
       -0.0019337736 -0.058211677 -0.02112378 -0.0063962587
0001d0 27 99 a2 bc 2a df 33 bd c6 58 f7 3c 51 d7 a1 bc
       -0.01984842 -0.043913998 0.030193698 -0.019755991
0001e0 9d b1 a8 3c 54 6b 19 3d 88 e9 30 3d 6d cc b6 bc
       0.020592505 0.03745587 0.043191463 -0.022314275
0001f0 9f 75 28 bd 3c e6 97 bc 5a 40 06 3a d6 ee 5d bd
       -0.041127797 -0.018542401 0.00051212835 -0.05418285
000200 5d c7 4f bd d4 ce c1 bc bf dc 6f bd 8d 7b 2e bc
       -0.050727237 -0.023658194 -0.05856013 -0.010649574
000210 45 ca 64 bd 5b 4e de 3c 39 9b f3 3c 65 19 10 bd
       -0.05585696 0.027136972 0.029737102 -0.035180468
000220 31 a2 21 3d b5 5a c2 3b ad 06 ba bb 32 19 c0 3b
       0.03946132 0.0059312233 -0.0056770653 0.0058623785
000230 12 bb 6b bd 05 ff 3e 3c 30 85 84 3c b8 a0 4e bd
       -0.05755145 0.011657481 0.01617679 -0.050446242
000240 48 c2 ba 3c d9 3e 6c 3d 29 a6 d4 bc 7d 38 1c bd
       0.022797719 0.057677124 -0.025958138 -0.03813981
000250 08 75 f3 3c 46 49 90 bc 03 70 18 3b 24 5f 1f 3d
       0.02971889 -0.017613064 0.0023260124 0.038909093
000260 90 19 d4 bc a0 a3 fc bc 23 96 22 bd d2 ce 99 3b
       -0.025891095 -0.030839741 -0.039693963 0.0046938444
000270 20 cc 52 3c c7 95 06 3d 9f c4 9b 3c 95 07 0c 3c
       0.01286605 0.032857683 0.019014655 0.00854673
000280 8b 30 d5 bc 2f 2e 06 bd 13 ab 39 bd cb cf 2a bd
       -0.026024124 -0.032758888 -0.045329165 -0.041702073
000290 14 01 db 3a 37 33 00 bd e1 70 8a bc 36 f5 b2 bc
       0.0016708695 -0.031298842 -0.016899528 -0.021845441
0002a0 6e 5f 6b bd 62 d2 6a 3d 51 d4 49 3c 1f dc 9e bb
       -0.057464056 0.057329543 0.012318687 -0.004848018
0002b0 b6 8c 6c bc e7 66 3c bd f9 b5 b6 3a cd b9 1c 3c
       -0.014437845 -0.045996573 0.001393973 0.009565783
0002c0 1c a2 34 bd 13 58 e8 bb dd 8c 28 3d 75 d2 6c bd
       -0.044099912 -0.0070905774 0.041149963 -0.057817895
0002d0 52 b4 5e bb 22 93 08 bd 60 3a 9a 3c 0f 9f eb b9
       -0.003398199 -0.03334344 0.018826663 -0.000449412
0002e0 dc ad 26 bd 3d d1 79 3d b4 69 f1 3c 53 28 35 3d
       -0.04069315 0.06099056 0.029469348 0.04422791
0002f0 f9 f3 04 bc be 49 21 bd d5 88 77 bd 18 87 28 bd
       -0.008114808 -0.039376967 -0.060433228 -0.04114446
000300 56 47 0c bc 47 62 26 3d 39 08 13 3d 45 78 3e 3d
       -0.00856193 0.04062107 0.035896514 0.046501417
000310 cf bd 68 3c 2e 77 82 ba ce de 77 3d 65 a3 64 bc
       0.01420541 -0.0009953731 0.060515217 -0.013954972
000320 d0 0a 45 bd d8 cf c6 bc 47 71 9a bc 18 3b 3b 3d
       -0.048106015 -0.02426903 -0.018852843 0.045710653
000330 32 5a 59 ba dc cf 62 3d 02 89 94 3c 38 c6 80 bc
       -0.0008291333 0.05537401 0.018131737 -0.015719518
000340 2b b2 3f 3c c6 f4 87 bc cd 48 44 bc 21 8a 40 3d
       0.011700193 -0.01659621 -0.011980248 0.04700673
000350 65 70 ca bb 33 01 fe bc 56 a6 54 3c 5b 74 4f bd
       -0.0061779493 -0.031006431 0.012979111 -0.050648075
000360 37 cf 51 ba 95 11 30 3d bc 1b 17 3d b2 3a 3f 3d
       -0.00080035947 0.042985518 0.036891684 0.046686836
000370 27 ca e2 bb ee 3e 5c 3d 58 6c 7b bc 05 86 77 3c
       -0.006921071 0.053770952 -0.015345655 0.015107636
000380 64 20 60 3d b9 18 f6 3c 9a d4 e2 bc d0 9b a7 ba
       0.05471839 0.030041086 -0.027689267 -0.0012787525
000390 ce 71 98 3c 2a bc 1b 3d 66 15 34 3c 15 4c 63 bb
       0.018608954 0.038021244 0.01099143 -0.00346828
0003a0 df 0e e0 3c 11 9e 3c bd 23 96 61 bd d5 1e 06 bd
       0.027350841 -0.04604918 -0.055074822 -0.032744247
0003b0 20 a4 60 3d 46 f8 14 3d dc de e7 3c db 0e 4d 3d
       0.05484402 0.036369585 0.02830451 0.050062995
0003c0 26 d7 68 3d e1 3e 80 bd fa bc 07 bd 16 e7 80 bd
       0.056845807 -0.06261993 -0.033139206 -0.06294076
0003d0 84 5c f8 bb c4 85 fd bc 2b db be 3c f4 1b 2c bc
       -0.007579388 -0.030947573 0.023297867 -0.010504711
0003e0 4d 72 d0 bb 5e c1 62 bd 9f 63 b0 3c c6 88 ba bc
       -0.006361282 -0.05536019 0.021531878 -0.022770297
0003f0 73 b3 f7 bc ba 15 fb bc f0 95 80 bd e7 94 6f bc
       -0.030236935 -0.030650008 -0.06278598 -0.014622903

4.weight f4 [2, 256]
000000 11 59 59 3c d9 35 1d bd 46 7f 4c 3d 5a 06 a5 3c
       0.013265864 -0.03838143 0.049926065 0.02014463
000010 ee aa 84 3c 47 2a 25 bd e7 d7 99 bc 8a b1 cd 3c
       0.016194787 -0.040323522 -0.018779708 0.025109071
000020 97 15 c0 39 09 eb 71 3d 08 37 55 3d 71 4a 5a bd
       0.0003663718 0.059062038 0.052054435 -0.05329365
000030 d5 e4 80 bd df ac 29 bb 93 38 76 3d 16 4d 46 bd
       -0.06293646 -0.0025890393 0.060112547 -0.04841336
000040 7d 5d 0f bd e5 db 25 bd cf d6 6f bd da c7 09 bd
       -0.035001267 -0.04049291 -0.058554467 -0.03363786
000050 f5 fe d9 bc ac 91 c9 bb 87 35 cd 3c 1a 8b 65 3d
       -0.02661083 -0.0061513986 0.025049938 0.05604086
000060 5f 2f 9e 3c 37 c0 1f 3c 75 28 54 bd 8e 1d ce ba
       0.019309698 0.009750417 -0.051796395 -0.0015725361
000070 03 83 a2 3c 73 98 36 3b 19 6a e1 3c d8 1d 46 3d
       0.019837862 0.0027861863 0.027516412 0.048368305
000080 bd 4d 1e bd 5d 49 12 3d df b1 40 bd 73 28 69 3d
       -0.038648356 0.035714496 -0.04704463 0.05692334
000090 d8 28 de 39 c0 6f 37 bd 19 69 4d bb 2e 06 17 3d
       0.0004237357 -0.044784307 -0.003134316 0.036871128
0000a0 9a 25 2b bd dd d4 58 bd 99 87 32 bd a2 39 2b bd
       -0.041783907 -0.052937377 -0.043586347 -0.04180301
0000b0 7b 29 06 3d 6d e4 f3 3c 85 0b 15 3d a8 1a 38 bd
       0.032754403 0.029772008 0.03638794 -0.044947296
0000c0 da 75 17 bd 70 ea e8 3c a0 f5 7b 3d b1 7d 51 bc
       -0.036977626 0.028432101 0.061513543 -0.012786315
0000d0 b9 39 c8 bc 07 68 37 3d 1f b9 a2 3c 1a 40 6d bd
       -0.024441587 0.044776943 0.019863663 -0.05792246
0000e0 29 c8 10 3d 12 43 5f 3d a7 17 49 bd cb 19 5f bd
       0.035347138 0.054507323 -0.049094822 -0.054467957
0000f0 e1 ad 24 bd ec 66 bc bc 9c 76 9f 3c 6b 31 82 bd
       -0.040204886 -0.022998296 0.019465737 -0.06357082
000100 c3 48 37 3c 7d a5 b2 3c 81 45 24 bc 8e 05 d1 38
       0.011186781 0.021807427 -0.010026337 9.966931e-05
000110 46 07 92 3c e6 a8 2b bc 26 bb 14 bd 96 c9 7e 3d
       0.017825734 -0.01047728 -0.03631129 0.062203966
000120 98 e2 33 bd e9 0e e1 bb d6 a6 83 3c 4e 8a ae bc
       -0.04391727 -0.0068682325 0.016070765 -0.021306183
000130 0b ec a5 3c dc 50 15 3c f6 99 50 3c 82 75 0b 3d
       0.020254156 0.009113517 0.01273202 0.03404761
000140 bc 58 6c 3c 05 5b 24 3d 3f 4e 25 3d 02 e4 96 3b
       0.014425453 0.040125865 0.040357824 0.0046048174
000150 d1 7b 81 bc 34 4d b9 3c ac d5 70 3d 49 61 43 bd
       -0.01580611 0.022619821 0.058797523 -0.0477002
000160 46 c0 c8 bc 30 79 74 3d a1 91 9d bc d6 d1 dc ba
       -0.024505746 0.059685886 -0.01923448 -0.0016847204
000170 3f 5c 56 bd 60 5c 0d bd 5d 28 3e bd a2 6a 66 bc
       -0.052334066 -0.034511924 -0.046425212 -0.014063509
000180 b3 5c 08 3d 11 2a 61 3c 06 5d 46 bd b0 86 7b bc
       0.03329153 0.01374294 -0.048428558 -0.015351936
000190 76 68 2f bc 06 91 a5 3c e1 2f 0d bd 79 81 58 bd
       -0.010706058 0.020210754 -0.03446949 -0.05285785
0001a0 99 95 48 bd 69 7d f7 3c 34 ec 76 bd 67 ca 7d 3d
       -0.048970792 0.030211167 -0.060283855 0.061960604
0001b0 21 d0 17 3b d5 8e 0c 3d 63 e6 1f 3d 86 a0 be bb
       0.0023164826 0.034315903 0.039038073 -0.0058174757
0001c0 2b 09 36 bd 0c a6 f9 bc e9 cd 3f bd 51 76 99 3c
       -0.044442337 -0.030474685 -0.04682723 0.018733175
0001d0 d7 2e b9 3c fa f1 63 bd 31 1f 1d bc 78 48 54 bd
       0.022605343 -0.05565069 -0.009589956 -0.051826924
0001e0 a4 4b 63 3d 46 b2 0e 3d 71 c0 32 bc d4 d8 77 3d
       0.05549206 0.034837984 -0.010910139 0.060509518
0001f0 86 66 60 bd 9f fe 09 bd ed 6f a2 bc 8c f9 2f 3a
       -0.054785274 -0.03369009 -0.019828761 0.00067129056
000200 20 84 cf 3c e8 ac c1 bc 79 e2 6e 3d e5 ea 2b 3c
       0.025331557 -0.023642018 0.05832145 0.010493015
000210 82 de 23 bd ec 74 87 3c 29 0a 5e bd d6 ed 02 3d
       -0.04000712 0.016535245 -0.05420891 0.0319651
000220 67 a6 3d 3b 67 ee dd bc a3 45 72 bd 99 fa 63 3c
       0.0028938295 -0.027091218 -0.059148442 0.013914728
000230 db 48 b8 3c de 08 38 bc 36 f5 67 bd f9 41 53 bd
       0.022495678 -0.011232583 -0.056630336 -0.05157659
000240 df cd 4b 3d 16 25 67 bd 8e 56 2f 3d ab c5 4b bc
       0.04975688 -0.056431852 0.042807154 -0.012437264
000250 f2 9b e9 3c f5 ca 03 3d 6f 57 34 bc 66 9b bb bb
       0.028516743 0.032175977 -0.011007174 -0.005725312
000260 9b fa c3 bc 2e 75 74 3d 46 74 54 3a 58 f4 50 3d
       -0.023923209 0.059682064 0.00081044843 0.051014274
000270 7a 06 3e 3d 8d 58 eb 3c a0 f1 3f 3d 69 33 49 bc
       0.046392895 0.028728748 0.04686129 -0.012280324
000280 5a 62 ca bc ed 5d 2b bd 2f 29 ec bc 86 94 f5 3c
       -0.0247051 -0.04183762 -0.028828232 0.029978048
000290 cc 49 2b bd f2 f3 01 bd ec c7 fd 3b aa 30 dc bc
       -0.041818425 -0.031726785 0.00774478 -0.026878674
0002a0 94 9c c3 3c 81 40 5c 3b 9f e4 91 3c df 30 66 3d
       0.023878373 0.0033607783 0.01780921 0.05619895
0002b0 f1 71 c4 3b c5 50 ea 3c b3 c5 0e 3d 3a dc 75 bd
       0.005995028 0.028602967 0.03485651 -0.060024478
0002c0 7b 68 ac 3b 37 0f 70 bd 8d 60 83 3c 50 19 73 3d
       0.0052614785 -0.05860826 0.01603725 0.05935031
0002d0 24 6c 0b bc 79 54 99 3b a1 6b ad 3c 35 5b 3f bd
       -0.008509669 0.0046792594 0.021169486 -0.04671784
0002e0 eb 79 81 bc 4b bc cb bc 5d 70 09 3d c4 1b 21 bc
       -0.015805205 -0.024870059 0.033554424 -0.00983328
0002f0 81 c8 bc bc da e0 0e bd d1 3f a3 bb f8 df 0a 3b
       -0.023044826 -0.034882404 -0.0049819727 0.0021190625
000300 54 c2 0f bc bc c6 7d bc 1f e9 42 3d 13 f1 bc bc
       -0.008774359 -0.0154892765 0.047585603 -0.023064172
000310 08 c5 69 3b a1 76 23 3d f6 b7 6e 3d b6 8f 05 3d
       0.0035670418 0.039908055 0.058280908 0.032607757
000320 e4 1e 4c 3d 42 b9 5c 3d b6 7b d0 3c 86 62 34 bd
       0.049834147 0.053887613 0.025449615 -0.04403927
000330 25 ee c3 3b 78 15 0d 3d 84 f4 7e bd a9 18 02 bc
       0.005979317 0.034444302 -0.062244907 -0.00794045
000340 71 ad a5 bb 64 d8 43 bd 84 19 5f bd 37 3c 76 3d
       -0.005056076 -0.047813788 -0.054467693 0.06011602
000350 6e 15 46 3d 1f 5f 4b 3b 83 7f 68 3d 6f 6e 46 bd
       0.04836028 0.0031032038 0.05676223 -0.04844516
000360 92 03 21 3d f3 84 07 3d 3f fa e9 3c 5d 97 29 bd
       0.039310046 0.033085775 0.02856171 -0.041404117
000370 40 5f 20 3d 01 c2 5f bd c5 60 54 3d 79 3c 70 bd
       0.039153337 -0.054628376 0.0518501 -0.05865142
000380 62 76 5b bb 3f 38 d9 bc 61 ca a3 bc 56 0a db 3c
       -0.003348731 -0.026516078 -0.019993963 0.026738327
000390 5e e5 82 3c 39 81 df 3c 59 8b 34 3d 4c e2 87 bc
       0.015978511 0.027283298 0.044078205 -0.016587399
0003a0 27 6c 05 bd 94 3a 1c 3d 3e b9 30 3d 40 63 57 3d
       -0.032573845 0.038141802 0.04314541 0.052584887
0003b0 1c dc 5f 3d ca e1 44 3d 01 e7 ab bc d8 60 b1 3b
       0.054653272 0.04806689 -0.020984175 0.005413156
0003c0 fe c3 a5 bb b1 a5 7f bd b5 45 6e bd bc 63 3c bd
       -0.0050587645 -0.062413875 -0.058171947 -0.04599355
0003d0 5a e0 37 bd 34 6f ff bc 96 f9 20 bd f6 3c 4a 3d
       -0.044891693 -0.031180955 -0.039300524 0.049374543
0003e0 eb 6b f2 bc 33 69 7a 3d 57 e1 c9 3b 72 13 d2 bb
       -0.029592475 0.061135482 0.006160896 -0.0064110095
0003f0 ea 45 3e bd 9d 96 26 3d d3 49 69 bc a5 4b d8 3b
       -0.046453394 0.04067098 -0.0142387925 0.0066008144

4.bias f4 [2]
000000 d9 5e 62 bd 73 8b 2e bd
       -0.055266235 -0.042613458

exp_avg f4 [256, 4]
000000 2e bb e0 3a 77 40 07 3b 2b 21 48 3a 90 27 c0 ba
       0.0017145628 0.002063779 0.0007634337 -0.0014660228
000010 fd 91 6f 3a a0 c5 38 3a 86 0f 3d 3a d0 36 bf b9
       0.00091388804 0.00070484914 0.0007212091 -0.00036471197
000020 a1 19 ac ba a0 31 c0 ba 5e 75 e0 b9 22 e0 88 3a
       -0.0013130197 -0.0014663227 -0.00042812055 0.0010442773
000030 78 9c b3 ba 6f b9 b5 ba 79 1f 2d ba 82 2d 71 3a
       -0.0013703248 -0.0013864468 -0.0006604116 0.00092002016
000040 1d 0e 2b 3b 62 4a 2b 3b c0 1e 8d 3a b8 b1 e6 ba
       0.0026100941 0.0026136865 0.001076661 -0.0017600572
000050 38 c5 83 b9 35 5d a1 b9 6d f2 2e 38 ab 41 82 39
       -0.00025133207 -0.00030777758 4.171061e-05 0.0002484446
000060 fc 3d 13 ba df 14 2f ba 04 79 88 b9 90 55 f7 39
       -0.00056168414 -0.000667883 -0.00026030105 0.0004717526
000070 97 34 8d b9 af b6 51 b9 75 7e e6 b8 e9 a0 f2 38
       -0.00026932798 -0.00019999848 -0.00010990809 0.00011569431
000080 30 66 65 3b 2a 7c 29 3b 60 6f 8d 3a 3e e6 cf ba
       0.0035003535 0.002586136 0.0010790639 -0.0015861464
000090 3d 7e 31 3a c7 d1 2f 3a 71 6f cd 39 b2 da e2 b9
       0.0006770825 0.00067069795 0.00039183677 -0.0004326902
0000a0 5c 83 fe 3a ab b7 04 3b b4 ba 03 3a 67 84 bc ba
       0.001941781 0.0020251076 0.00050250744 -0.0014382721
0000b0 68 b8 ca 3a 5f a3 99 3a 5e 20 dd 38 a0 8a 4e ba
       0.0015466334 0.0011721662 0.0001054413 -0.0007878933
0000c0 2a 16 7a ba 71 d4 95 ba 51 5e 0f b9 5d e9 61 3a
       -0.0009540046 -0.001143111 -0.00013672678 0.00086178427
0000d0 c7 25 04 3b 04 e5 d4 3a 6f 00 c1 39 4d 05 8e ba
       0.0020164119 0.0016242568 0.00036812152 -0.001083532
0000e0 75 bf df 3a dd 3e d6 3a f5 db b3 39 c2 13 96 ba
       0.0017070608 0.0016345639 0.0003430542 -0.001144998
0000f0 b7 dc 1e 3b 34 16 25 3b a7 7d 89 3a 72 e5 df ba
       0.0024240443 0.0025190236 0.0010489718 -0.001708193
000100 a4 20 1e ba 49 0c c1 b9 61 96 53 b9 75 19 50 39
       -0.00060320855 -0.00036820982 -0.00020178549 0.00019845909
000110 8f e4 5b 3a 0e 18 5d 3a b5 1d 05 3a 90 e1 0e ba
       0.0008388245 0.00084340654 0.0005077974 -0.00054504815
000120 a6 46 db ba b0 3e 86 ba f7 b6 9c b9 f6 41 1d 3a
       -0.0016729429 -0.0010242071 -0.00029890958 0.00059989037
000130 80 e0 9d ba 94 70 83 ba 8f a4 a3 b9 d7 2d 2c 3a
       -0.0012045056 -0.0010028058 -0.00031212388 0.000656811
000140 c4 1c 03 bb b9 f4 f2 ba c2 4a d9 b9 a1 b8 a8 3a
       -0.002000616 -0.0018536068 -0.00041445164 0.0012872407
000150 89 e0 c5 ba 11 ae f9 ba e6 8a 77 38 7e 54 c4 3a
       -0.0015096824 -0.0019049068 5.901875e-05 0.0014978794
000160 92 8c 33 3b b0 f7 5f 3b ee 6f 79 3a 98 ef 23 bb
       0.002739702 0.0034174733 0.0009515275 -0.0025014635
000170 28 53 34 b9 7d 73 9d b8 be 11 ac b9 0b 8a 9f b7
       -0.00017197116 -7.507855e-05 -0.00032819615 -1.9018558e-05
000180 ef 7a ec b9 a2 08 9d b9 cd 36 d1 37 5e 57 52 39
       -0.0004510502 -0.00029951805 2.494026e-05 0.00020059707
000190 c3 4f 32 3a 0b cf c8 39 0b a2 10 39 1a c4 5d b9
       0.00068020466 0.00038301232 0.00013793276 -0.00021149256
0001a0 f5 7c 48 3b 00 0f 59 3b 0c 70 83 3a e8 05 19 bb
       0.0030592058 0.0033120513 0.0010027899 -0.0023349468
0001b0 84 9d 22 3a c9 1c 1e 3a 5a c1 23 39 76 eb db b9
       0.0006203281 0.0006031511 0.0001561692 -0.00041946367
0001c0 93 d4 42 bb dd a9 32 bb 2f bf 53 b9 77 27 00 3b
       -0.0029728755 -0.002726189 -0.0002019375 0.0019554773
0001d0 2d a8 4b ba 03 91 fd b9 7e 96 e2 b9 6b a0 75 39
       -0.00077688956 -0.00048363963 -0.00043218205 0.00023424781
0001e0 de 84 49 3b 70 30 f6 3a 9c 3f fa 3a bb 9d 63 ba
       0.003074936 0.0018782746 0.0019092443 -0.00086828665
0001f0 bf 1d 14 3b 8a dd 11 3b 71 6e 2d 3a e7 3f c9 ba
       0.0022600738 0.0022257292 0.00066158833 -0.0015354127
000200 8c 69 98 3a db 05 82 3a 36 a1 5c 3a 06 e3 14 ba
       0.0011628135 0.0009919958 0.0008416356 -0.0005679581
000210 c7 21 a8 ba 77 cd 94 ba 23 0a ba b9 81 3e 47 3a
       -0.0012827449 -0.0011352737 -0.00035484237 0.00076005614
000220 08 29 55 3a 53 b5 78 3a 51 49 d2 39 f4 2c 2d ba
       0.00081314193 0.00094874686 0.00040108946 -0.0006606125
000230 de 65 10 ba 41 d4 fc b9 75 03 5a b9 f3 9c a4 39
       -0.00055083435 -0.00048223327 -0.00020791388 0.00031397454
000240 e5 54 bc 3a 34 48 bb 3a 74 6c bb 39 22 9d 83 ba
       0.0014368562 0.0014288486 0.00035748223 -0.0010041336
000250 0a 0f 9a ba b0 aa 91 ba 36 ef 8f b9 f1 ba 49 3a
       -0.001175375 -0.0011113491 -0.00027453311 0.0007695398
000260 dd 77 85 3a 67 f2 83 3a c3 b6 92 39 d9 f0 37 ba
       0.0010182817 0.0010066748 0.00027983458 -0.0007016785
000270 87 28 e2 b9 3a 50 b2 b9 8c dd 86 b9 f9 08 4d 39
       -0.00043136274 -0.0003401058 -0.00025723537 0.00019553666
000280 2c 10 15 3a e2 a2 0f 3a de 4a a5 38 28 ac cc b9
       0.0005686309 0.00054792885 7.881758e-05 -0.00039038179
000290 14 38 fe 3a 93 4d 06 3b fa b5 ff 38 fb d2 c7 ba
       0.0019395375 0.0020493015 0.00012193243 -0.0015245372
0002a0 b7 aa d9 ba 24 eb 79 ba 4c 9b 31 ba e6 75 f8 39
       -0.0016606663 -0.0009533635 -0.0006775155 0.00047390087
0002b0 b2 be 32 ba 6f d1 17 ba 0b 96 cd b9 6e 86 b7 39
       -0.0006818577 -0.0005791401 -0.00039212438 0.00035004638
0002c0 c8 62 84 b9 45 d3 b2 b8 80 f6 56 b9 af 84 35 b6
       -0.000252506 -8.5270534e-05 -0.00020500459 -2.7048334e-06
0002d0 c4 a8 25 b9 9a 7c 4f 37 4e 19 38 b9 a8 71 94 b8
       -0.00015798496 1.23671725e-05 -0.00017557034 -7.07836e-05
0002e0 8f 35 d3 3a 15 a3 f4 3a 55 28 0f 3a ec 42 af ba
       0.0016113984 0.0018664325 0.0005461027 -0.0013371385
0002f0 fa d9 90 ba 8e e0 67 ba 49 f0 0b ba 8c 46 0a 3a
       -0.001105129 -0.0008845412 -0.00053382345 0.00052747945
000300 89 b2 4f 3b 89 47 35 3b 1f 42 3f 3a 4c b7 f3 ba
       0.0031692109 0.0027661046 0.00072959246 -0.0018594055
000310 a8 96 18 3b 7a 7a 02 3b 03 c1 66 3a 70 be a7 ba
       0.0023283157 0.0019909428 0.00088025647 -0.0012797844
000320 11 f2 9e ba b7 68 a4 ba 26 da 0a ba f9 f7 5e 3a
       -0.0012126585 -0.0012543414 -0.0005296789 0.0008505579
000330 b7 e1 23 b9 8d 33 19 b9 d1 b9 e7 b8 21 cf ba 38
       -0.00015628977 -0.00014610421 -0.00011049549 8.907752e-05
000340 35 62 dc 3a f8 65 c8 3a 57 c6 dd 39 bf bf 88 ba
       0.0016813936 0.0015289178 0.0004230018 -0.0010433121
000350 01 42 ed 3a a0 58 0b 3b 10 9f aa 39 ed 75 cf ba
       0.0018101336 0.0021262541 0.00032543438 -0.0015827991
000360 1d b7 85 ba 4a 8a 82 ba 8b f9 b4 b9 3d a7 31 3a
       -0.0010201667 -0.0009959426 -0.000345182 0.00067769346
000370 71 fa c3 3a f2 64 b2 3a 64 91 09 3a 68 43 6c ba
       0.0014951957 0.0013610406 0.00052478 -0.000901273
000380 7e 9c 20 3b 29 b5 3a 3b 09 46 f5 39 3d 6d 0a bb
       0.002450734 0.0028489328 0.00046782222 -0.002112224
000390 56 30 57 3b b4 eb 7d 3b 93 6d 33 3a 7f 6e 3c bb
       0.0032835207 0.0038745226 0.0006844636 -0.0028752384
0003a0 54 66 8e ba 84 77 83 ba 0f 00 9b b9 ba 7c 33 3a
       -0.0010864236 -0.0010030125 -0.00029563947 0.0006846894
0003b0 af 74 20 3a c9 a6 43 3a 69 1f 58 b8 0d 2e 1b ba
       0.0006120903 0.00074635126 -5.1527666e-05 -0.0005919643
0003c0 04 01 7c bb f8 83 85 bb 05 a6 8e ba 57 2e 3d 3b
       -0.0038452754 -0.00407457 -0.0010883218 0.0028866732
0003d0 b9 bb 5b ba 9a 41 52 ba 3c 93 8d b9 f0 d1 0e 3a
       -0.000838216 -0.00080206397 -0.00027003314 0.0005448153
0003e0 4f f2 f0 ba ee f7 fd ba ba be 86 b9 a3 c2 b9 3a
       -0.001838276 -0.0019376257 -0.00025700574 0.0014172386
0003f0 93 e2 29 3a 4c f6 25 3a c8 b0 d9 b8 57 d8 fe b9
       0.00064806006 0.00063309516 -0.000103802944 -0.0004860784
