scripts/experiments/simple_rl_experiment_20250711_211615/models/checkpoint_000999.pt (torch, 545490 bytes, 11 tensors)

0.weight f4 [256, 4]
000000 cc b8 c3 3e 66 7b d4 3e 20 e5 ef bd 1c 2a eb 3e
       0.38226926 0.41500396 -0.11713624 0.45930564
000010 b0 5c e0 bd 38 a2 ce 3d 10 45 79 be 28 58 96 3e
       -0.10955179 0.100895345 -0.24342752 0.29364133
000020 cc ac e1 3e 0e cf bb be a4 83 de 3e b0 a6 bf 3d
       0.44077146 -0.36681408 0.4345981 0.09357965
000030 94 22 bd 3e 50 ae 8a 3d 5c e1 76 3e 60 94 90 bd
       0.36940444 0.06771529 0.24109405 -0.0705955
000040 c6 58 c5 3e 38 5b 97 3d a4 05 6f be 08 82 02 3e
       0.3854429 0.073904455 -0.23341995 0.12744915
000050 ac e5 6b be c0 2c 70 bd fc f3 4f be ae d2 a9 3e
       -0.23036832 -0.058636427 -0.20307916 0.33168548
000060 2a 14 ca be 8c 09 6c be 6c 93 10 be fe ec 99 be
       -0.3946851 -0.23050517 -0.14118737 -0.30063623
000070 f0 4b 41 3d 8a d8 fc be 28 32 e7 3e c0 76 d9 be
       0.04719156 -0.49383956 0.45155454 -0.42473412
000080 96 a3 c5 3e c8 69 aa 3d ac 3f 26 be f8 31 9e 3e
       0.3860137 0.083209574 -0.16235226 0.30897498
000090 58 97 9f 3d b0 d6 ce 3e 00 e3 5f 3d 98 78 21 be
       0.077925384 0.4039817 0.054659843 -0.15768659
0000a0 e8 90 09 3e 08 d8 0a be a4 7a 57 3e fe 8f e4 3e
       0.13434184 -0.13558972 0.21042877 0.44641107
0000b0 b6 fb 93 3e 14 d5 5f be 9e c7 93 3e 70 38 b7 3d
       0.28902978 -0.21858627 0.28863233 0.089463115
0000c0 7a 01 82 3e 86 08 9c be a4 6a fd be 0c d1 45 be
       0.25391752 -0.30475253 -0.49495423 -0.19318026
0000d0 9c 5b c4 be d6 0e d2 3e d8 78 13 3e cc 13 54 3e
       -0.38351142 0.41026944 0.14401567 0.20710677
0000e0 fc ec 21 3e 00 82 0e bc 04 59 c8 3e 38 e4 b5 be
       0.15813059 -0.008697987 0.39130414 -0.3552568
0000f0 20 f3 00 3d f4 ba ae be 50 e0 1d 3e e0 52 30 be
       0.031481862 -0.3412701 0.154176 -0.17219114
000100 98 e2 1c 3e 78 57 d5 bd 06 53 d4 3e 50 bb 97 be
       0.15320814 -0.10417074 0.41469592 -0.29635096
000110 8a ad 98 be e6 af 98 be e2 41 e6 3e e4 9f 2a 3e
       -0.298199 -0.298217 0.4497214 0.16662556
000120 10 56 f6 3e 4e 45 d3 be 98 eb fd be fe 48 c8 be
       0.48112535 -0.41263813 -0.49593806 -0.3911819
000130 5a 35 ac be 6c 61 4f 3e b8 55 37 3e 76 b7 d4 3e
       -0.33634454 0.20252007 0.17903793 0.4154622
000140 74 34 84 be aa 84 ae be f8 d3 87 3e e4 f3 4e be
       -0.2582127 -0.3408559 0.26528907 -0.20210224
000150 5c 5f 9b 3e f0 fe f2 bd 9a 71 92 3e 60 e7 c6 be
       0.3034619 -0.11865032 0.28602296 -0.388484
000160 ba 30 81 be c4 18 1c 3e 38 7b d8 3d f4 89 02 be
       -0.25232488 0.15243822 0.10570377 -0.12747937
000170 02 98 98 3e fa 07 ae 3e f6 a4 b9 be 96 ab 88 be
       0.29803473 0.3399046 -0.36258668 -0.2669341
000180 d2 68 ea 3e f4 c3 2c be 2c 83 35 be 48 b4 f7 be
       0.45783097 -0.16871625 -0.1772582 -0.4837973
000190 84 9a 92 be 88 cc ff 3d 38 29 87 bd aa d3 b9 be
       -0.2863351 0.12490183 -0.06599659 -0.362943
0001a0 40 28 40 3c 6e de ae be 86 30 d9 be 3a f8 8c be
       0.011728346 -0.34154075 -0.42419833 -0.27533132
0001b0 e6 0d e0 be 44 01 a3 be 5e e6 ff 3e 70 68 c1 3d
       -0.43760604 -0.31836903 0.49980444 0.09443748
0001c0 1c c7 1d 3e 66 c4 ee be 54 22 a8 be 14 6c 2a be
       0.15407985 -0.46634215 -0.3283869 -0.16642791
0001d0 c0 1f a0 3d 86 42 e1 be 64 9b 5c be 58 42 99 be
       0.07818556 -0.43996066 -0.21543652 -0.2993343
0001e0 00 9e b5 3a 50 84 3e be f0 ea 0d bd 24 79 ad be
       0.0013856292 -0.1860516 -0.034647882 -0.33881485
0001f0 98 b7 af be d2 59 95 be 9c 41 2f be 50 0e ca be
       -0.34319758 -0.2917009 -0.17114872 -0.39464045
000200 f6 a5 d6 3e 28 3a cb bd f6 42 dc 3e b0 87 1f 3e
       0.41923493 -0.09923202 0.43019837 0.15579104
000210 b0 c7 d8 be 38 29 b1 3e c8 df 0c be 50 43 44 be
       -0.4233985 0.3460176 -0.13757241 -0.19166303
000220 80 7f d4 be 50 81 fe be 18 7d 12 3e c0 af df bd
       -0.41503525 -0.49708033 0.14305532 -0.109221935
000230 5c 55 47 3e 00 17 d2 be d6 0f be 3e f2 ea bb be
       0.19466156 -0.41033173 0.37121457 -0.36702687
000240 48 d1 b0 bd f0 e1 d5 3d 14 29 84 3e e4 ab ce 3e
       -0.08633667 0.10443485 0.2581259 0.40365517
000250 a0 34 e9 3e f2 fc ca be 88 da 00 3e 78 39 5c be
       0.45547962 -0.39646107 0.12583363 -0.21506298
000260 00 6e 60 bd 0c 9d bf be 08 2e e9 3e 2e e4 bb be
       -0.054792404 -0.37424505 0.45542932 -0.36697525
000270 cc d1 88 3e e4 ef 33 3e a0 60 26 3e ca 67 8a be
       0.26722562 0.1757198 0.16247797 -0.2703231
000280 0c b1 e8 3e 40 06 e1 3d 38 ba 83 3d ea 99 e1 be
       0.45447576 0.1098752 0.06432003 -0.4406274
000290 84 ee 56 3e 00 9f 99 bd 44 8f 6a be ec e3 db 3e
       0.20989424 -0.0750103 -0.22906214 0.42947328
0002a0 b0 4c e4 3d 86 a3 8d be 52 92 81 be 80 9b c3 bc
       0.111474395 -0.2766382 -0.25306946 -0.02387786
0002b0 c4 f0 8e 3e 54 d5 02 be 32 11 92 be ac 54 2f be
       0.27918065 -0.1277669 -0.28528744 -0.17122144
0002c0 4c 40 bf be 88 98 36 3e 80 27 c6 3e 3c 02 f1 be
       -0.37353742 0.17831624 0.3870201 -0.47072017
0002d0 20 d3 ed 3d 5c 3f 84 3e 68 ae b9 3d f8 55 36 be
       0.116125345 0.2582959 0.090664685 -0.17806232
0002e0 00 9e 85 3e 08 88 86 3e 64 73 3f 3e 50 f0 b3 bd
       0.26097107 0.2627566 0.18696362 -0.0878607
0002f0 08 94 07 be d0 18 5b 3d d0 e4 b4 bd 98 93 18 be
       -0.13240063 0.05349046 -0.08832705 -0.14900053
000300 10 a3 a3 3e 9c 01 dc 3e 20 bf 4a bd 38 45 e5 bd
       0.31960344 0.42969978 -0.049498677 -0.11194843
000310 80 14 ef 3b a0 90 f4 bc 60 2e f6 3d c8 7a 0f 3e
       0.007296145 -0.029854119 0.12020564 0.14011681
000320 84 83 e8 be 84 f2 3c be cc 95 d7 3e c0 73 47 3e
       -0.45412838 -0.18451887 0.42106473 0.19477749
000330 a0 b9 cb bc 08 58 9a be 42 9f 9c be fa 50 e5 be
       -0.024868786 -0.30145288 -0.30590254 -0.44788343
000340 8c e4 26 be 90 e7 2c 3e 2c 3b a3 3e 98 63 6c 3e
       -0.16298121 0.16885209 0.31881082 0.23084867
000350 28 4a e2 be e4 f2 99 be b0 9a a1 bd 38 a4 f7 3e
       -0.44197202 -0.30068123 -0.078908324 0.48367476
000360 18 21 94 3d d0 97 04 be 7c d2 53 3e e8 02 43 be
       0.07232875 -0.12948537 0.20685762 -0.19044077
000370 8c b2 a5 be e4 d9 ba 3e ac ce 68 be 28 47 cd bd
       -0.32362783 0.36494362 -0.22735089 -0.100233376
000380 7e ab fe be 52 55 ab 3e 58 f4 c1 3e f4 98 3a 3e
       -0.49740213 0.33463532 0.37881732 0.1822241
000390 90 80 b2 be 18 a8 fc be f6 ea cf be 36 e6 be 3e
       -0.3486371 -0.49346995 -0.40608948 0.37285012
0003a0 6c d0 75 3e d6 6c d7 3e 56 1c 86 3e 4c 95 01 3e
       0.24005288 0.42075223 0.26193494 0.12654608
0003b0 80 71 a0 bb 86 b0 c2 be 6c 55 db be 02 73 ef be
       -0.0048963428 -0.38025302 -0.4283861 -0.46767431
0003c0 e4 97 51 3e 28 60 7b be 28 15 ce bd 50 54 93 be
       0.20468098 -0.245484 -0.10062629 -0.28775263
0003d0 d0 98 ba bd 86 2e b4 be 40 46 a7 be 00 d6 29 3e
       -0.09111178 -0.35191745 -0.32670784 0.16585541
0003e0 20 2a 18 be 34 0a 9e 3e 0c 41 24 be 10 cb bb be
       -0.1485982 0.3086716 -0.16040438 -0.36678362
0003f0 68 ac b4 bd d0 30 78 be 60 a4 1c be fc b5 f3 be
       -0.088219464 -0.2423737 -0.15297079 -0.4759978

0.bias f4 [256]
000000 6e 96 8e 3e 18 e7 98 bd c4 73 59 3e 0c 46 96 be
       0.27849144 -0.07465953 0.21235567 -0.29350317
000010 60 9b 9b 3d f8 d7 9a be d8 f1 7f 3e 24 f0 5f be
       0.07597995 -0.30242896 0.249946 -0.2186895
000020 80 63 00 be 16 1d de be 00 80 d8 3a 22 11 f3 3e
       -0.12537956 -0.43381566 0.0016517639 0.4747401
000030 7c 83 78 3e 24 96 88 be 00 58 dc 3b 60 8f 60 bd
       0.24268907 -0.26677048 0.0067243576 -0.054824233
000040 58 19 ce be 32 ba c8 3e 80 0f 04 3c c0 a6 d7 3d
       -0.4025371 0.39204556 0.008060336 0.10529852
000050 ac c2 4e be 18 93 6f be d0 d8 a8 3d c0 4a 3d 3e
       -0.20191449 -0.23395956 0.08244479 0.18485546
000060 60 ae e5 3d 80 c1 76 be c2 8c f8 3e c0 bc 96 bd
       0.112149 -0.24097252 0.4854489 -0.0736022
000070 3c c7 9c be 08 78 6f be 00 03 fc 3e 00 00 ca 37
       -0.30620754 -0.23385632 0.4922104 2.4080276e-05
000080 88 00 8b bd 28 13 55 be ec 37 06 be 4a 9c d7 be
       -0.06787211 -0.20808089 -0.1310727 -0.42111427
000090 60 70 cb be 88 d5 95 3e bc fe da 3e 08 4d f4 3e
       -0.39734173 0.29264474 0.42772472 0.4771502
0000a0 36 d1 b8 be 04 76 8a 3e 98 74 9e be 2c b8 98 3e
       -0.36097115 0.27043164 -0.3094833 0.29828012
0000b0 c8 b7 b8 3e 68 1c c6 3e 48 55 b8 3e 92 25 a0 3e
       0.36077714 0.38693547 0.36002564 0.31278664
0000c0 40 72 1f 3c 48 41 6b 3e c0 2d 37 be 50 f1 5e 3e
       0.009731829 0.22974122 -0.17888546 0.21771741
0000d0 cc 8e 24 be 00 8e 09 bc 26 d1 de be 00 e0 05 be
       -0.16070098 -0.008395672 -0.43518943 -0.1307373
0000e0 9c 9f 86 be 50 b5 2c be 68 7a a3 be fa 41 e6 be
       -0.26293647 -0.1686604 -0.31929326 -0.4497221
0000f0 d0 5b 05 3d 80 23 a6 3e e0 26 e9 3e ce 63 95 3e
       0.032558262 0.3244896 0.45537472 0.29177707
000100 c2 b1 84 be be 2f fd be 6c 35 42 3e bc 70 8f 3e
       -0.25916868 -0.49450487 0.18965691 0.28015697
000110 72 c7 db be 98 98 37 3e 32 71 d8 3e 20 1f f8 3c
       -0.42925602 0.17929304 0.4227386 0.030288279
000120 be 3a 9a be 6a e3 d1 3e d4 a1 5a 3e 04 86 a9 3e
       -0.30122942 0.40993816 0.21350795 0.33110058
000130 0c 21 ad be 62 fa 94 3e ea dd ae be 80 4f fd 3e
       -0.33814275 0.29097277 -0.34153682 0.49474716
000140 2c ef 58 be d6 41 9a 3e 20 0c cd 3d 74 af 07 3e
       -0.21184987 0.30128354 0.10012078 0.13250524
000150 18 09 9d bd e8 4b 52 3e 20 63 55 be e0 4c f1 be
       -0.0766775 0.20536768 -0.20838594 -0.47128963
000160 44 b6 44 be fc 95 c8 3e 48 cb 06 be 58 ee 20 3e
       -0.19210154 0.3917693 -0.13163483 0.15715921
000170 c8 4c 3d be c8 09 c0 3e a8 36 99 3e 34 be 34 3e
       -0.18486321 0.37507463 0.29924512 0.17650682
000180 7e db 82 be 6c 2f d1 be 40 36 9a 3c 34 2f 96 be
       -0.25558084 -0.40856493 0.018824697 -0.29332888
000190 4a 7b d2 3e 82 02 f6 be ec cb 64 3e c2 35 ff 3e
       0.41109687 -0.48048788 0.22343415 0.498457
0001a0 4a 36 80 3e c4 94 2e 3e 3e 4f f6 be a2 3e f6 3e
       0.2504142 0.17048937 -0.48107332 0.4809466
0001b0 18 27 af bd 64 35 ef be b4 b6 fc 3e 38 59 50 be
       -0.085523784 -0.4672042 0.4935814 -0.20346534
0001c0 20 e4 10 bd c2 4f ea 3e 9a 75 b1 be 10 1e b5 be
       -0.035373807 0.45763975 -0.34660035 -0.35374498
0001d0 28 85 a6 3d 00 11 89 bd b8 de eb 3d 64 b5 d6 be
       0.08130866 -0.066926956 0.115170896 -0.41935265
0001e0 c0 fe 74 3c 8c b7 63 be 28 b4 7b be 2e 67 ea be
       0.014953315 -0.22237986 -0.24580443 -0.45781845
0001f0 64 bc 87 3e 80 42 c5 3d f8 6e d8 be 38 26 cb 3e
       0.26510918 0.096318245 -0.42272162 0.39677596
000200 0c 6e 1a 3e 48 04 be 3d 92 4e 96 be 80 6c 9a 3d
       0.15081042 0.0927816 -0.2935682 0.07540226
000210 92 aa f6 3e 20 96 af 3e 0a 64 c7 be a6 ae e9 3e
       0.4817701 0.34294224 -0.3894351 0.4564106
000220 70 bd 1e 3d 10 41 76 3e 42 d4 c6 3e 0a 3e da 3e
       0.03875488 0.24048257 0.38833815 0.42625457
000230 98 8f c7 be 82 2b e0 3e 68 de ad be d0 87 19 3d
       -0.3897674 0.43783194 -0.33958745 0.037483037
000240 2c e2 b2 be b0 7e e0 bd 20 22 ba bc 60 03 75 bd
       -0.3493818 -0.10961664 -0.02272135 -0.05981767
000250 70 c4 a1 bd e0 86 21 3d f0 85 fc 3e 2c bd 94 3e
       -0.078987956 0.039435267 0.49320936 0.29050577
000260 6c 39 8f 3e 3c ed 4c 3e bc 30 c6 3e c0 06 bd bc
       0.27973497 0.20012373 0.38709056 -0.023074508
000270 50 d7 22 3d 78 bc d2 3d f2 43 df be fa 38 ce be
       0.03975612 0.10289854 -0.43606526 -0.40277845
000280 70 16 7b 3d f4 51 48 be 40 52 16 bc 40 f7 ea bd
       0.061300695 -0.19562513 -0.009174883 -0.114729404
000290 10 66 9f 3d be 8e a6 3e f8 cc 29 be 34 05 cd 3e
       0.07783139 0.3253078 -0.16582096 0.40043032
0002a0 b8 20 ca 3e c2 7a c4 be 9e b0 c5 be 88 1f cf be
       0.39478087 -0.38374907 -0.3861131 -0.40453744
0002b0 0e 4b 8c be 38 4f 47 be e0 26 1a bd 60 07 f9 bd
       -0.27401012 -0.19463813 -0.03763473 -0.1215961
0002c0 f8 57 81 be bc a8 22 be 94 36 39 be 52 25 fb 3e
       -0.25262427 -0.1588468 -0.18087226 0.4905191
0002d0 10 c3 3d be d6 4b b7 be 50 d6 54 3e 60 97 ec bc
       -0.18531442 -0.35800046 0.20784879 -0.028880775
0002e0 00 fc c3 3e 08 f5 9f 3e d0 31 eb 3e ea 7b bb be
       0.38278198 0.31241632 0.4593644 -0.36617976
0002f0 b2 92 a4 3e 5a d8 d6 3e 7c d7 7c be 60 4f eb 3e
       0.3214317 0.41961938 -0.24691576 0.45958996
000300 9a e8 bf 3e 80 6c b3 3b b0 dc 76 3e 98 01 33 be
       0.37482148 0.0054755807 0.24107623 -0.17481077
000310 70 47 df be 64 6c 01 3e e0 a3 18 3e a4 4f a7 be
       -0.4360919 0.12639004 0.14906263 -0.32677948
000320 e0 51 78 3e 56 ae da be dc 51 dc 3e 6e e8 f7 3e
       0.24249983 -0.42711133 0.43031204 0.48419517
000330 74 65 0b 3e 2c 9f a0 be f8 2c 79 3e 78 81 ae 3d
       0.1361292 -0.31371439 0.2433356 0.08520788
000340 f0 38 0b 3e 40 45 28 3e 32 e8 c2 3e 74 13 5c be
       0.13595939 0.16432667 0.38067776 -0.21491796
000350 00 58 e6 bd 1c a0 0b 3e 00 27 5f 3d c4 6e ce 3e
       -0.112472534 0.13635296 0.054480553 0.40318882
000360 08 76 86 be a0 29 95 bc 70 56 bf 3d 48 fb 07 be
       -0.26261926 -0.018208325 0.093426585 -0.1327945
000370 fc 84 ae 3e 70 03 60 3d 56 9a ec be 30 df 5d bd
       0.34085834 0.05469078 -0.462115 -0.054167926
000380 9c 38 68 be b0 01 47 3d a0 02 6e bd 66 ef fd be
       -0.22677845 0.048585594 -0.058107972 -0.4959671
000390 48 99 ba bd f0 27 44 bd 50 fa 16 be 32 35 eb 3e
       -0.09111267 -0.04788965 -0.14743924 0.45939022
0003a0 98 6f df bd 74 75 a4 3e b8 a9 fd 3d 1c 19 d8 be
       -0.10909957 0.3212086 0.12385887 -0.42206657
0003b0 30 a0 f0 3d 04 28 d4 3e 24 73 a7 be d4 78 a5 be
       0.11749303 0.4143678 -0.32705033 -0.32318747
0003c0 da 95 fa 3e d4 b2 cd 3e 24 d2 8e be f6 0b 9a 3e
       0.48942453 0.40175498 -0.278947 0.3008725
0003d0 a0 00 83 bd de 65 fc be 90 df 19 3d 94 6c 25 3e
       -0.063966036 -0.49296468 0.03756672 0.161547
0003e0 78 94 19 be c8 1d 32 3e e4 e7 da be 7e 69 b1 3e
       -0.14998043 0.17394173 -0.42755044 0.34650797
0003f0 b0 3f da 3e ec 2c 8d 3e 20 8f ad 3d 6c a0 28 3e
       0.42626715 0.27573335 0.084745646 0.16467446

2.weight f4 [256, 256]
000000 6e 3a 39 bd d0 de 7f bc 80 84 c3 bb e0 75 0e bd
       -0.04522174 -0.0156170875 -0.005966723 -0.034780383
000010 34 16 3d bd aa 30 2c 3d b2 bb 2d 3d 06 7f 68 bd
       -0.046163753 0.042038597 0.04241533 -0.056761764
000020 ac ec a2 3c 60 48 d0 3c 20 31 73 3d 18 1c 14 3d
       0.019888245 0.025425136 0.05937302 0.036159605
000030 a6 59 6b 3d a0 9f a7 bc 86 4c 33 3d 12 3b 50 3d
       0.057458542 -0.020461857 0.04377415 0.050837584
000040 7c bf 71 bd 30 7e 4d bd 60 43 4f 3c 22 c9 0b 3d
       -0.059020504 -0.05016917 0.012650341 0.034127362
000050 48 5e fe bc 30 8e e1 3b 00 48 be b8 54 97 81 3c
       -0.031050816 0.006883405 -9.073317e-05 0.01581923
000060 be 8f 09 bd dc 64 10 3d 0e 3e 2a 3d b2 a0 31 bd
       -0.03358435 0.035252437 0.041563086 -0.04336614
000070 00 b8 1e 3a 00 d6 35 39 48 69 a4 3c 52 7c 6e 3d
       0.000605464 0.00017341226 0.020069733 0.05822403
000080 a0 26 96 3c e0 ac 68 bc 0a ec 65 3d 34 d5 c2 bc
       0.018328965 -0.014201373 0.056133308 -0.023783304
000090 9c ab 94 bc f0 d3 8b 3b 3e f2 42 bd a0 db de 3b
       -0.018148236 0.0042672083 -0.0475943 0.0068010837
0000a0 92 b0 2d bd a0 93 d2 3b c0 36 c4 3b 28 be 0d 3c
       -0.04240472 0.0064262897 0.005987972 0.008651294
0000b0 38 e2 57 bd 10 25 73 bd 80 94 eb 3c 68 8b 5b 3d
       -0.052705973 -0.059361517 0.028757334 0.053599745
0000c0 d6 2a 63 bd 50 a4 bd 3c 76 72 3c bd 50 64 80 3b
       -0.055460773 0.02314964 -0.046007596 0.003918208
0000d0 ec 2b 6e 3d de 34 42 3d fa 2b 3b bd ba 5a 1e 3d
       0.058147356 0.0474137 -0.045696236 0.038660742
0000e0 94 b6 05 3d 00 0c c9 b8 7a fe 77 3d 8c 5a cb bc
       0.032644823 -9.586662e-05 0.060545422 -0.02482345
0000f0 10 4d 6e bc d2 62 01 bd b0 59 13 3c 20 92 87 3c
       -0.01454474 -0.031588383 0.008993551 0.01654917
000100 60 2f a3 3b fc 08 10 bd 38 7c e6 bc 78 28 ae 3c
       0.004980013 -0.03516482 -0.028135404 0.021259531
000110 b2 77 60 bd e0 78 1f bc 40 77 b5 ba a4 71 cf bc
       -0.05480165 -0.009733409 -0.0013844743 -0.025322743
000120 78 53 ba 3c 50 00 84 3b 82 ba 33 3d d0 e2 b5 bb
       0.02274488 0.0040283576 0.04387904 -0.00555072
000130 4a 92 21 bd 94 e0 34 3d 18 00 0f 3c c8 a2 92 bc
       -0.039446153 0.044159487 0.00872805 -0.017899886
000140 f6 ba 28 bd a8 03 70 3c 20 29 74 bd 74 d9 86 3c
       -0.041193925 0.014649309 -0.059609532 0.016461112
000150 dc 27 fd 3c 36 90 60 bd 9c 98 27 bd 86 0b 38 bd
       0.030902795 -0.05482503 -0.040917024 -0.044932865
000160 70 2b 57 3d 82 a1 59 3d e0 34 80 3b 94 55 70 3d
       0.05253166 0.05313254 0.003912553 0.058675364
000170 e4 29 ab bc ce 87 78 bd c8 d6 b2 3c b0 62 b5 3c
       -0.020893998 -0.06067639 0.021830931 0.022141784
000180 56 fa 7a 3d 00 c0 97 b7 8a 32 44 3d 32 eb 1c 3d
       0.061273895 -1.809001e-05 0.04789976 0.038310237
000190 ea 48 39 3d 7a 09 7e bd 24 ce 52 3d 5a 3a 5a bd
       0.045235552 -0.062020756 0.051466122 -0.053278305
0001a0 c0 81 65 3d a0 bd 29 bb 20 df 62 bd 2c 62 8e 3c
       0.056031942 -0.0025900379 -0.05538857 0.017380796
0001b0 90 6e 50 bc 00 f0 65 bd 9c 9e b9 bc d0 28 d3 3b
       -0.012721673 -0.056137085 -0.022658639 0.006444074
0001c0 7e 62 47 3d 6c 67 9d bc 48 0e 18 3d e8 3b 00 3c
       0.048677914 -0.019214354 0.037122995 0.007826783
0001d0 40 11 0a 3b f0 ef 43 3c 3a 01 28 bd 68 c9 54 bd
       0.002106741 0.011959061 -0.041016795 -0.05194989
0001e0 58 e0 a0 bc fc 8d 6e bd 80 c5 ee bc a0 70 3c 3b
       -0.019638225 -0.058240876 -0.02914691 0.0028753653
0001f0 9e 9a 28 bd 24 60 d4 bc b8 ff 37 bc c0 ef eb bb
       -0.04116308 -0.02592475 -0.011230402 -0.0072002113
000200 d4 50 0d bd 20 d1 44 3b a8 ba 0f bc 04 6e 92 3c
       -0.03450091 0.0030031875 -0.00877253 0.017874725
000210 80 01 39 3b 64 ad ff bc fc 45 b0 bc 80 d6 3c ba
       0.0028229654 -0.031210609 -0.021517746 -0.0007203594
000220 80 bd 1f bd e0 53 a0 3b c0 99 90 bb 20 a5 c6 3c
       -0.03899908 0.004892811 -0.0044128597 0.02424866
000230 80 58 72 3c 10 96 3f 3d c0 06 07 bb e4 28 3d bd
       0.014791608 0.04677397 -0.0020603389 -0.046181574
000240 5c de e4 3c b6 03 2d bd 50 c0 0c bc 78 c9 a5 bc
       0.02793806 -0.042239867 -0.008590773 -0.02023767
000250 8c 46 c2 bc 88 6e bd bc 60 3e 6b 3d 88 8c 12 3d
       -0.02371528 -0.023123994 0.057432532 0.035778552
000260 f4 e4 8d 3c 76 5f 70 3d 2a fe 67 bd 88 3d 25 3c
       0.017321087 0.05868479 -0.056638874 0.010085471
000270 9a e2 23 3d e8 0e 2a 3d 12 bd 4b bd 28 37 b6 3c
       0.040011026 0.041518122 -0.04974086 0.022243097
000280 f0 d6 11 bd e0 0b 20 bb a8 ad 55 bc 3c c0 55 bd
       -0.03560537 -0.002442114 -0.013041891 -0.052185282
000290 bc 33 74 bd 00 6c 28 bd 9c 54 e8 3c fc 34 ea 3c
       -0.05961965 -0.04111862 0.028360657 0.028589718
0002a0 d6 a8 5e bd 14 47 c0 bc c0 cf 85 3a 48 55 5d bd
       -0.054360233 -0.023471393 0.0010209009 -0.05403641
0002b0 8e 3e 10 3d 14 de 67 3d 40 1b 35 3c 38 36 3e bd
       0.035215907 0.056608275 0.01105386 -0.046438426
0002c0 68 c8 6e 3c ec dc b9 3c 3a b6 4a 3d bc 35 08 bd
       0.014574148 0.022688352 0.04949019 -0.03325437
0002d0 58 5a 65 bd 90 f2 e0 3c 80 00 7f 3b b8 d2 a6 bc
       -0.05599436 0.027459413 0.003891021 -0.02036415
0002e0 18 8a d6 bc 66 ff 03 bd 32 3b 4f 3d 18 ae 30 bc
       -0.026188895 -0.03222599 0.050593562 -0.010783695
0002f0 06 a1 38 3d b0 84 64 3d 60 b7 01 3c 48 21 5a 3c
       0.04507544 0.055790603 0.007917255 0.013313599
000300 80 7a 8b bb 22 d3 2f 3d b2 ad 66 bd 1c 9d cb 3c
       -0.0042565465 0.04292596 -0.056317993 0.024855189
000310 d0 d6 26 bc 9c c9 e9 3c 00 f3 91 b9 84 93 bd bc
       -0.010183051 0.028538518 -0.00027837604 -0.02314163
000320 e0 14 dd bb f8 3c 0a 3d b6 cc 31 bd 40 d1 21 bd
       -0.0067468733 0.03374955 -0.04340812 -0.039506197
000330 50 5f 65 bc 08 b7 b9 bc 38 22 c9 3c c0 47 2c 3d
       -0.013999775 -0.022670284 0.02455245 0.042060614
000340 80 56 db bb 20 11 72 3d 80 ec d5 bc 24 a8 0f bd
       -0.006693661 0.059098363 -0.026113749 -0.03507246
000350 28 38 e5 bc 7e 60 30 bd 66 70 33 bd 98 19 64 bd
       -0.027980879 -0.043060772 -0.043808363 -0.05568847
000360 32 e3 62 bd 9c a1 85 3c 64 1f 1c 3d 4c 58 70 3d
       -0.05539245 0.016312413 0.038115874 0.058677956
000370 64 0f 5a 3d 60 e7 6b bb 28 b4 46 3c 7c 2b 19 bd
       0.053237334 -0.0035996065 0.012127914 -0.037394986
000380 18 e6 c5 3c 9c 76 75 bd 1c 7f f1 3c 48 d1 3b 3c
       0.024157569 -0.059927568 0.029479556 0.011463471
000390 fc 56 9d 3c cc 77 bb 3c c8 0f eb bc dc ac 5b 3d
       0.019206516 0.022884272 -0.028694049 0.05363165
0003a0 70 5a f4 3c 40 2a 28 3d 98 3f 07 3c ba c3 20 3d
       0.02982828 0.041055918 0.008254908 0.03924916
0003b0 cc 49 2c 3d 68 0e e8 3c 46 03 43 3d 20 bb 39 bc
       0.042062566 0.028327182 0.047610544 -0.011336118
0003c0 4a 54 28 3d c0 ed 6b 3c c0 08 1a 3d f8 57 79 3d
       0.04109601 0.014399946 0.037606 0.06087491
0003d0 20 df 67 3c 98 09 be bc a0 c4 cb bb 80 24 90 3c
       0.014152318 -0.023197934 -0.006218508 0.01759553
0003e0 e8 a7 2c 3c f4 dc 8b bc aa 94 48 3d 82 ce 19 3d
       0.010538079 -0.017073132 0.048969902 0.037550457
0003f0 ee 03 1f bd c0 df a6 bb 60 98 c4 bb 6e 71 20 bd
       -0.038822107 -0.005092591 -0.00599961 -0.039170675

2.bias f4 [256]
000000 4c 05 ed 3c 50 15 50 3d 92 73 15 bd ba 42 71 bd
       0.02893319 0.050801575 -0.03648717 -0.058901526
000010 d2 52 4f bd 9c ce d5 bc c8 b5 69 bd 20 02 5c bb
       -0.050616093 -0.026099496 -0.057058126 -0.0033570603
000020 a8 90 54 3c 14 da 6b 3d a0 cc ab 3c 60 73 45 3d
       0.012973942 0.057581022 0.020971596 0.048205733
000030 58 28 17 bc d8 55 ab bc 66 58 62 3d 7c 87 1d bd
       -0.009225927 -0.020914957 0.055260085 -0.038459286
000040 a8 f4 7c 3d 0e ee 46 bd d8 aa e8 bc f2 88 41 bd
       0.06175676 -0.04856687 -0.028401777 -0.04724974
000050 40 cc 58 bb 0c 47 47 bd dc 2c c3 bc f6 2f 58 bd
       -0.0033080727 -0.04865174 -0.023825102 -0.052780114
000060 a0 a6 6b 3d 36 34 7f bd e8 ac ed bc be 9d 17 3d
       0.057531953 -0.06230565 -0.029013112 0.03701567
000070 18 80 1b 3d ec 1f dc bc f0 81 09 bc 98 a9 80 bc
       0.037963957 -0.02687069 -0.008392796 -0.015705869
000080 e0 f1 e2 3c a0 ce 7c bc b8 94 65 bc ce db 29 bd
       0.027703226 -0.015430123 -0.014012508 -0.041469388
000090 fa ef 44 bd 48 1e 14 3d 28 2e 26 3d 1c 50 7a bd
       -0.048080422 0.03616169 0.04057136 -0.061111555
0000a0 60 23 23 3b a2 65 4d 3d b8 df 05 3c 3e 0e 0e 3d
       0.0024892911 0.050145753 0.0081710145 0.03468155
0000b0 60 d6 fc 3b 68 15 1b 3d 20 c8 53 bc 80 1e 97 3c
       0.007715985 0.03786221 -0.0129261315 0.01844716
0000c0 64 f4 88 3c e0 aa 2d bd 92 38 32 bd e6 64 42 3d
       0.016718097 -0.042399287 -0.04351098 0.047459505
0000d0 70 35 a5 3c 5a 68 57 bd c6 e7 43 bd f0 de 58 3d
       0.020167083 -0.05258975 -0.04782846 0.052946985
0000e0 e2 2d 67 3d f8 e3 77 bd 16 8d 2b bd 28 78 3a 3c
       0.05644024 -0.060520142 -0.041882597 0.011381187
0000f0 2e 53 15 bd 50 b8 c9 bb d0 db b2 3b e4 d7 67 3d
       -0.03645628 -0.006156005 0.0054583326 0.056602374
000100 b8 d3 4f bc 8a 9e 08 3d 90 28 cd 3b d2 5c 71 3d
       -0.012684755 0.03335432 0.006260939 0.05892641
000110 a0 56 24 3c aa 19 66 bd dc 50 f7 3c fa 4e 6a bd
       0.010030419 -0.05617682 0.030189924 -0.057204224
000120 80 9e 22 bb f2 d0 0e 3d 24 23 f2 3c 9e 7d 43 3d
       -0.0024813712 0.034867235 0.029557772 0.04772722
000130 48 3c a1 3c 76 10 4a bd b2 8c 23 3d 86 ea 11 bd
       0.019682065 -0.049332105 0.0399291 -0.03562405
000140 e0 0b fa bc 5a 94 16 3d 92 f1 7c bd dc 22 b9 bc
       -0.03052324 0.036762573 -0.061753817 -0.02259963
000150 c8 1e 41 bc 84 44 70 3d 40 ee e7 bc b8 4a df bc
       -0.011787124 0.05865909 -0.028311849 -0.027257308
000160 0c cf 99 bc 3c ae 0f bd a0 15 45 3b 0a 98 3a bd
       -0.018775485 -0.035078272 0.0030072704 -0.045555152
000170 ec ed a7 bc 38 3a 74 3d 48 bc dc 3c 88 33 23 3c
       -0.020499192 0.059625834 0.026945248 0.0099610165
000180 2a c7 1e bd 1c 71 6c 3d 80 23 b7 3b 94 54 85 3c
       -0.038764156 0.057725057 0.0055889487 0.016275682
000190 50 44 da 3c 2a d4 0b bd 38 e7 92 bc 98 9e 9f 3c
       0.026643902 -0.034137882 -0.01793252 0.019484803
0001a0 ac eb 64 3d 26 92 44 3d 48 07 50 3c 88 27 17 3c
       0.055888817 0.04799094 0.0126970485 0.009225734
0001b0 fc 0b b2 bc 60 f7 74 3c c2 ff 5d bd b8 b5 d9 3c
       -0.02173423 0.014951557 -0.054198988 0.026575908
0001c0 b6 ca 32 3d 24 74 9f bc 18 64 78 3c 30 b8 1c 3c
       0.04365035 -0.01946456 0.015160583 0.009565398
0001d0 fc f1 55 bd 60 cc ce 3c 44 2a dc bc e4 0b fc 3c
       -0.052232727 0.025243938 -0.026875623 0.030767389
0001e0 10 e2 60 3d 58 e3 fb 3c 54 86 3f bd 00 02 06 bb
       0.05490309 0.030748054 -0.046758965 -0.002044797
0001f0 64 04 d6 3c 64 c0 97 bc f8 79 19 3c 22 a4 6c 3d
       0.02612514 -0.018524356 0.0093674585 0.057773717
000200 52 20 1b bd 4c 51 07 bd d8 ef 04 3d fe 8f 26 bd
       -0.03787262 -0.033036515 0.032455295 -0.040664665
000210 00 d0 13 3c 5e 46 59 3d 62 5c 22 bd 84 74 27 bd
       0.009021759 0.053045623 -0.039638884 -0.040882602
000220 d4 ea 1b 3d 52 e6 4d bd e8 7a 41 bc 10 4a 7a bc
       0.038065746 -0.05026848 -0.011809088 -0.015276447
000230 94 ac 58 3d 70 5e b9 bb f8 07 99 3c 0a 6e 4f 3d
       0.05289896 -0.00565701 0.018680558 0.05064205
000240 64 7c a6 3c e0 a6 05 3c b0 ee 54 bc 0e a3 5e bd
       0.020322986 0.008157462 -0.012996361 -0.05435472
000250 00 35 15 3d f0 01 4a bd cc 35 52 bd 18 b1 f5 3c
       0.036427498 -0.049318254 -0.051320836 0.029991671
000260 c0 88 c4 bb 58 54 19 bc fc 7d 6c bd 10 99 e5 bc
       -0.005997747 -0.009358488 -0.057737336 -0.028027087
000270 00 ce d6 ba fc e5 ac bc d8 2b 3f 3c 92 0e 69 3d
       -0.0016388297 -0.021105759 0.011668168 0.05689866
000280 80 0d 5a bc fa 05 7a 3d 88 09 c2 bc 80 c0 14 3d
       -0.013308883 0.061040856 -0.023686185 0.036316395
000290 1c ca d1 bc e0 ad 66 bb 50 68 81 3b ca 78 1e 3d
       -0.025609069 -0.0035198852 0.0039492026 0.038689412
0002a0 40 df 29 3c ae 0f 2f bd b8 4d 92 3c 7a 7e 68 bd
       0.010368168 -0.042739563 0.017859325 -0.056761242
0002b0 32 f5 4b bd fa 11 32 bd 10 e3 21 3c 06 13 04 3d
       -0.049794383 -0.043474175 0.009880796 0.032244705
0002c0 00 c1 89 3c 50 ea 60 3d 54 0b 0f 3d 44 3e 56 bd
       0.016815662 0.054910958 0.034922913 -0.052305475
0002d0 e8 3d 3d 3d 6c 7d 03 3d 48 6e e9 3c 50 72 f1 3c
       0.046201617 0.032102033 0.028494969 0.029473454
0002e0 10 a8 99 bc 8e 7c 21 bd c6 34 31 bd 34 4e fe bc
       -0.018756896 -0.039425425 -0.04326322 -0.03104315
0002f0 f4 18 41 bd e0 31 2a bc 7e 12 56 3d fe d9 5b bd
       -0.047142938 -0.010387868 0.05226373 -0.05367469
000300 38 72 95 bc dc 6f da 3c 84 83 31 3d fc 6d 97 3c
       -0.01824294 0.026664667 0.043338314 0.018485062
000310 70 a2 58 3c 30 17 1f 3c c8 f2 7c 3d 28 8e c3 bc
       0.013222322 0.009710118 0.06175497 -0.023871496
000320 dc 26 f2 bc 20 98 df 3c 40 5d 76 bb e6 e9 37 bd
       -0.029559545 0.027294219 -0.0037592202 -0.044900797
000330 96 eb 28 bd 0a f1 17 bd b0 70 82 3c 40 b6 5f bd
       -0.041240297 -0.037095107 0.015922874 -0.054617167
000340 3c 08 ff 3c a6 25 34 3d 72 c2 7d bd e0 c1 72 3d
       0.031131856 0.043981217 -0.061953016 0.059266925
000350 6c 16 a0 bc c2 fb 38 3d 10 bd 0e bc d8 42 63 3d
       -0.019541942 0.04516197 -0.008712068 0.05548367
000360 c0 25 1a 3c 0e e9 6a 3d 80 fe ae bb b0 10 68 bd
       0.009408414 0.057351165 -0.0053403974 -0.05665654
000370 7a 52 2e 3d 68 cd 44 bd 88 5c 60 3c c4 c8 94 3c
       0.042559125 -0.048047453 0.013693936 0.018162139
000380 b0 5a 39 bd f8 06 1c bc c6 50 76 3d e2 92 01 3d
       -0.045252502 -0.009523146 0.060135625 0.03163422
000390 00 36 3f bb 2c 90 c7 3c 78 16 09 3c 68 0f 30 bd
       -0.0029176474 0.024360739 0.008367173 -0.042983443
0003a0 6c 5b 6a bd 9a c7 68 3d 5c 95 9b bc 94 71 37 bd
       -0.057216093 0.05683098 -0.018992119 -0.04478605
0003b0 4a 75 20 bd 8c 74 6e bd 30 00 c9 bc 80 53 f7 ba
       -0.039174356 -0.058216617 -0.024536222 -0.001886949
0003c0 52 ff 70 bd a0 fd 49 3c c0 d8 88 bc c0 87 4a bc
       -0.058837242 0.012328535 -0.016704917 -0.012361467
0003d0 b4 87 dd 3c 46 76 7c bd c8 af 28 3d 08 f8 94 3c
       0.027042247 -0.06163623 0.041183263 0.018184677
0003e0 40 1d 89 3a 70 08 cd 3b 5e f8 7d bd 74 d1 64 3d
       0.0010460988 0.0062571093 -0.06200444 0.055863813
0003f0 c6 3b 2b bd 84 34 42 3d 28 0b b3 bc 84 ce 90 3c
       -0.04180505 0.047413364 -0.021855906 0.0176766

4.weight f4 [2, 256]
000000 e8 95 8f 3c b0 e6 4a bc 6c 46 a5 3c c0 25 87 bb
       0.017527536 -0.012384102 0.020175181 -0.004124373
000010 60 c3 82 3c 8c 15 c0 bc 8c f8 3e 3d d0 33 f1 3b
       0.015962303 -0.023447774 0.04662375 0.007360913
000020 26 77 5d bd 90 3b cc bc 38 12 a7 bc fe d9 3e bd
       -0.054068707 -0.024930745 -0.02039443 -0.046594612
000030 4e 43 61 bd a0 dd fe 3c 80 23 ca 3b 90 68 3a bd
       -0.054995827 0.031111538 0.0061687827 -0.045509875
000040 ae b5 07 bd e4 3b 6d 3d 60 b4 3e 3d c0 55 15 3c
       -0.033132248 0.057918444 0.046558738 0.009114683
000050 8c f5 76 3d 22 64 6e 3d b0 33 ae bb f4 db 29 3d
       0.060292765 0.058200963 -0.00531622 0.04146953
000060 d0 33 53 3d ce 0d 7b 3d 68 20 e6 3c 0a 30 10 bd
       0.051563084 0.061292462 0.028091624 -0.035202064
000070 60 71 67 bb 96 f7 04 bd ee a3 0e 3d a0 5f c3 3c
       -0.003531538 -0.03246268 0.034824304 0.023849308
000080 a4 7d e0 bc c0 25 66 3d f0 0e 61 3c 10 ca c6 3b
       -0.02740366 0.056188345 0.0137364715 0.006066568
000090 ac e5 ae bc a4 2c fa bc 7c 76 06 3d e8 92 51 bc
       -0.02134975 -0.030538864 0.03282784 -0.012791373
0000a0 b6 0a 13 3d 98 aa 70 3c f0 bc f9 3c a2 e6 61 3d
       0.035898887 0.01468911 0.0304856 0.05515159
0000b0 20 45 0d 3b f0 d5 c0 3b 00 a8 e9 3a 92 dc 09 3d
       0.0021556094 0.0058848783 0.0017826557 0.033657618
0000c0 00 f1 49 3b b0 2b 38 3c 40 4f 2c bc 80 0e 6a bb
       0.0030813813 0.011240885 -0.010516942 -0.003571421
0000d0 48 2b c1 bc 1e d6 2b bd f2 0a 38 3d a8 32 19 bd
       -0.023580208 -0.041952245 0.044932313 -0.037401825
0000e0 10 16 e4 3c 3c b2 10 3d c4 e6 4f bd 7c 8a b9 bc
       0.027842551 0.035326228 -0.050757185 -0.022649042
0000f0 64 5b f6 3c d0 b1 72 bc 50 2f 51 3d e4 a4 63 3d
       0.030072875 -0.014812902 0.05107051 0.055577174
000100 68 fd 3e 3c 20 76 36 bd 9a 81 51 bd a6 11 2b 3d
       0.011657096 -0.044546247 -0.05114899 0.041764878
000110 58 fa c0 bc aa d4 65 3d 10 62 a4 3c d4 03 94 bc
       -0.023556873 0.056111015 0.020066291 -0.018068232
000120 c0 5f 8e 3b a0 c8 46 3c 10 aa 02 3d b8 b4 72 3d
       0.0043449104 0.012132794 0.031900465 0.059254378
000130 68 f9 86 3c 20 e5 5d 3d 9c 95 84 3c a4 85 cb bc
       0.016476348 0.05417359 0.01618462 -0.024843998
000140 98 f5 94 bc 0e f1 15 3d f8 15 22 3d aa ec 62 bd
       -0.018183514 0.03660684 0.039571732 -0.05540148
000150 7a b6 28 3d 40 3e 8f bb 48 e9 f6 3c 92 9a 7a 3d
       0.04118965 -0.0043714345 0.030140534 0.061182566
000160 2e 27 71 3d 08 61 4f 3c 20 c1 66 bb 8a a1 68 bd
       0.058875255 0.012657411 -0.0035210326 -0.05679468
000170 ce 90 5b 3d 10 43 22 bc da b3 1a 3d 1c 05 0a bd
       0.053604893 -0.009903684 0.037769176 -0.03369628
000180 fa fc 6d bd 40 b7 12 3c 28 06 46 bd 78 eb a9 3c
       -0.058102585 0.008954823 -0.048345715 0.020742163
000190 40 9c 69 3c 4e 67 74 bd 98 12 70 3d e0 85 a7 3c
       0.014258444 -0.05966883 0.058611482 0.020449579
0001a0 22 de 1a bd 90 ad bb 3b d4 c2 e5 3c 00 0a 17 3d
       -0.0378095 0.0057274774 0.028047003 0.03687477
0001b0 38 17 40 3c e0 e5 04 3c 20 cd a8 3c 3c 9b 33 3d
       0.011724286 0.008111447 0.020605624 0.043849215
0001c0 52 c1 60 bd 04 96 31 bd 50 ef d4 bc e0 c7 2d 3d
       -0.054871865 -0.043355957 -0.02599302 0.042426944
0001d0 76 b6 37 3d ac 36 fd bc 10 98 66 bd c0 79 62 bc
       0.044851743 -0.030909859 -0.05629736 -0.013822973
0001e0 34 45 04 bd 58 85 82 3c b4 4c cb bc 00 8a bd b9
       -0.03229256 0.015932724 -0.024816848 -0.00036151707
0001f0 ae fd 68 bd 58 c0 24 bd 68 f2 d1 3c 8e ba 10 bd
       -0.056882553 -0.040222496 0.025628284 -0.035334162
000200 c0 b3 e6 bb a0 ee 1e 3d f0 a1 bb bb 90 55 54 3d
       -0.007040471 0.03880179 -0.0057260916 0.05183941
000210 08 9d 65 3c 12 96 5d 3d d0 0b 49 3c 2a 2a 36 bd
       0.01401449 0.054098196 0.012270883 -0.044473805
000220 7e ba 67 bd 24 6d 47 bd 30 2c 50 3d 04 c6 7c 3d
       -0.056574337 -0.04868807 0.05082339 0.06171228
000230 84 be 80 3c 8c 48 1f 3d 36 28 0c 3d 10 5b 06 3d
       0.015715845 0.038887545 0.034218036 0.032801688
000240 b0 8f 70 bc 00 ae 48 3a ea 68 14 3d ec 75 8e 3c
       -0.014682695 0.00076553226 0.036232866 0.017390214
000250 3c 93 fa 3c 60 5a d4 3b 48 1f 5b bd e8 0e 1e bd
       0.030587785 0.0064805 -0.05349663 -0.038588434
000260 78 da e7 bc 14 2c 30 3d 88 1c 85 3c 24 c2 57 bd
       -0.028302416 0.043010786 0.016248956 -0.05267538
000270 38 78 2e 3c 18 fc b6 3c 10 11 99 3c 76 5b 47 bd
       0.01064878 0.022337005 0.018684894 -0.04867121
000280 40 ca 71 bc e4 86 15 3d f6 00 67 3d 80 68 b3 3a
       -0.014757693 0.036505595 0.0563974 0.001368776
000290 e8 b6 73 3c d8 47 f2 bc 6c a5 85 bc d0 12 7c 3c
       0.014875151 -0.029575273 -0.01631423 0.015385345
0002a0 ee 9d 18 3d a8 aa 4b 3d 68 de 2d 3c c0 84 8a 3c
       0.03725999 0.049723297 0.010612108 0.016909003
0002b0 88 6c d3 3c 70 32 84 3c ae d8 6a 3d 18 27 51 3c
       0.025808588 0.016137332 0.057335548 0.012765668
0002c0 b0 38 1c bd 60 cb 44 3c 42 08 5f bd 14 ba ca 3c
       -0.03814 0.012011379 -0.054451235 0.024746932
0002d0 b8 b7 21 bc 5a 2f 72 bd 5a a6 61 bd b2 19 25 3d
       -0.009870462 -0.05912719 -0.055090286 0.040307708
0002e0 a8 36 11 3d 28 da 7f bd 50 bb 21 bc 5a 45 33 3d
       0.035452515 -0.06246391 -0.009871319 0.04376731
0002f0 b0 08 d9 3b 60 03 c6 3b 18 99 1a 3d 48 82 32 3c
       0.00662335 0.006042883 0.037743658 0.010895319
000300 0c 19 53 3d c8 e7 76 3d 80 3a 2a ba 78 76 64 3d
       0.05153756 0.060279638 -0.00064937025 0.055777043
000310 d0 30 5a bd fe 7a 47 bd 32 da 77 bd 32 30 11 3d
       -0.053269207 -0.04870128 -0.06051082 0.035446353
000320 ce 3b 36 3d 38 19 c9 bc 20 b2 65 3c 60 f8 1f bb
       0.044490628 -0.024548158 0.014019519 -0.0024409518
000330 90 b3 e3 bb 2e 2c 30 bd 28 fc 26 bd 20 df d5 3c
       -0.0069488958 -0.043010883 -0.04076782 0.02610737
000340 98 6a b1 3c d0 62 b2 bb 34 ee fa bc 1c 55 1b bd
       0.021657273 -0.0054439083 -0.030631162 -0.037922964
000350 ec ca 37 bd 32 76 2b bd 7e 13 3d 3d 56 66 04 bd
       -0.044871256 -0.041860767 0.046161167 -0.032324158
000360 3c 23 9b 3c c0 05 d7 ba 6c ee f3 bc 52 9e 2a 3d
       0.0189377 -0.0016404912 -0.029776774 0.041654892
000370 24 40 eb 3c b0 5b 10 3d e8 11 ea 3c 24 86 6d 3d
       0.028717108 0.03524369 0.028572991 0.057989255
000380 06 d0 09 3d 5c 8c 0d bd f8 fb d8 bc a0 f5 4d 3d
       0.033645652 -0.034557685 -0.026487336 0.050283074
000390 1a 6f 1a 3d ee e1 4d bd 0a fe 21 3d 88 9b f6 bc
       0.03770361 -0.05026429 0.03954891 -0.03010346
0003a0 3c b0 73 3d a2 92 22 bd 20 48 88 3c e8 bf 12 3d
       0.059494242 -0.03969062 0.016635954 0.035827547
0003b0 96 05 7e 3d 00 2a 73 b9 d8 03 68 3c 98 c8 05 bc
       0.062017046 -0.00023189932 0.014161073 -0.008165501
0003c0 ce 38 69 bd 02 11 02 3d 20 5d 5b 3b fa 0b 52 bd
       -0.05693894 0.0317545 0.0033472255 -0.051280953
0003d0 42 74 5b bd 4a 92 3e bd 0a 76 14 3d 3a 2c 27 3d
       -0.05357767 -0.04652623 0.036245383 0.040813662
0003e0 6c b7 4d 3d ca 10 76 bd 10 63 82 bc 98 10 4c 3d
       0.050223753 -0.060074605 -0.015916377 0.049820513
0003f0 94 e6 6c bd a0 2d 21 3b ba 5d 6b bd 6e d0 2f bd
       -0.057837084 0.0024593845 -0.05746243 -0.042923383

4.bias f4 [2]
000000 00 cb c3 bc 72 94 34 3d
       -0.023900509 0.04408688

0.weight f4 [256, 4]
000000 60 c0 21 3e a2 51 9f be 06 22 e9 3e 30 82 13 bd
       0.15796041 -0.31116968 0.4553377 -0.03601283
000010 e0 f0 c8 3c e0 d3 9c 3e a8 29 d7 3e 1c 4f ff be
       0.02452892 0.30630398 0.4202397 -0.49865043
000020 40 8f 3b bc 28 6a 8c bd fa c9 8c be f2 62 fd be
       -0.011447728 -0.06856185 -0.27497846 -0.49489552
000030 e0 42 88 bc 4e a3 c9 be c0 ed 6f 3d e2 b3 b5 be
       -0.016633451 -0.39382404 0.058576345 -0.35488802
000040 b8 e5 75 be 00 83 a6 3e c8 a4 e6 3e be 94 bc be
       -0.24013412 0.3252182 0.45047593 -0.3683223
000050 b8 17 c7 3e 4c ae d1 be 78 db a2 3d a0 6e a7 bd
       0.38885283 -0.4095329 0.079520166 -0.08175397
000060 84 07 a0 be 8c ba 0f be ec f9 12 be ba 89 8c be
       -0.31255734 -0.14036006 -0.1435315 -0.27448827
000070 40 34 cc bd 80 26 0d bc fc de 58 be 50 dc 8f bd
       -0.099709034 -0.008615136 -0.21178812 -0.07024443
000080 b8 e8 99 bd cc 00 74 be e4 9f 6a be 08 1b 14 3e
       -0.07515091 -0.23828429 -0.22912556 0.14463437
000090 c4 ed 8d 3e 68 c0 23 3e f8 76 c5 bd ca df fb be
       0.27720463 0.15991366 -0.09641832 -0.49194175
0000a0 c0 93 e1 3c 00 24 6b 3c 5c 6c 9f be d2 8d bb 3e
       0.027536273 0.014351845 -0.3113736 0.36631638
0000b0 2a bf b2 be f4 66 e9 3e c0 36 b9 3c 60 f3 42 bd
       -0.34911472 0.4558636 0.022609115 -0.04759538
0000c0 10 46 ca 3e ba e7 9d 3e 70 3e e4 3e b0 64 47 3e
       0.39506578 0.30840856 0.44578886 0.19472003
0000d0 ec a1 6c be 1a 4f d0 3e 78 5e 29 3e d4 86 24 3e
       -0.23108643 0.4068535 0.16539943 0.16067058
0000e0 ec b7 d7 be c0 cb 1b bd 10 6d 9f bd 02 05 ac 3e
       -0.4213251 -0.038036108 -0.07784474 0.3359757
0000f0 cc 18 c9 3e e0 71 b9 be ca bb f3 3e 60 f2 a4 bc
       0.3927673 -0.36219692 0.4760421 -0.020135105
000100 ba e1 d7 be f0 eb 8a bd 10 ea a6 bd 58 03 04 be
       -0.42164403 -0.06783283 -0.08150113 -0.128919
000110 00 e9 00 bc 40 16 ae 3e cc 04 57 be 6c 52 48 be
       -0.0078680515 0.3400135 -0.20997924 -0.19562691
000120 38 1c f4 3e a8 91 5b be 8c b2 f0 be 40 8d 7b 3e
       0.4767778 -0.21442282 -0.4701122 0.24565601
000130 f4 13 ef 3e 60 b1 ca 3e 94 f4 9d be d8 a2 24 be
       0.4669491 0.3958845 -0.3085066 -0.16077745
000140 ca ca 9a be a8 77 f3 3d 60 ec 12 3d 04 fc a4 be
       -0.3023284 0.11888057 0.035869956 -0.32223523
000150 d8 10 e9 3e ce 16 9c 3e 20 77 95 bc 60 98 2b be
       0.45520663 0.3048615 -0.01824528 -0.16757345
000160 90 74 4b be d0 0d c2 be 18 ae 22 3e c0 7b dd 3d
       -0.19868684 -0.37901163 0.15886724 0.10814619
000170 56 f6 c6 be e0 e8 7a be 50 f2 ef 3d be ac 8f be
       -0.38859814 -0.24502897 0.11716139 -0.2806148
000180 68 1f 41 3e 10 af 51 3d 18 50 bb bd 2a a5 fb 3e
       0.18859637 0.051192343 -0.09146136 0.49149448
000190 84 ba f0 3e c4 d2 49 3e 44 d5 02 be 32 5f 90 be
       0.470173 0.19709307 -0.12776667 -0.28197628
0001a0 ec b8 80 3e 38 56 91 3d 14 e9 0b 3e 90 4f ea be
       0.25141084 0.07096523 0.13663131 -0.45763826
0001b0 d0 84 8b be 7e fb 89 be 1e bf dc 3e 1c 2f 1b be
       -0.27249765 -0.26949686 0.4311456 -0.1515469
0001c0 d0 e1 41 3e 50 5b f4 3e 90 19 e2 3d 00 a0 e0 39
       0.18933797 0.47725916 0.11040032 0.0004284382
0001d0 64 5f c6 be 92 91 eb be 3e f1 96 be a4 fb db be
       -0.38744652 -0.460095 -0.29480928 -0.42965424
0001e0 ea 96 b5 3e a8 da 0e 3e 00 a6 cc 3a d6 70 e0 3e
       0.354667 0.13950598 0.0015613437 0.43836087
0001f0 c4 09 a2 be 1c fa de 3e 5e b5 b0 3e f4 5c 00 3e
       -0.31648076 0.43550193 0.34513372 0.12535459
000200 4a c4 d6 be 76 7f ba be f8 19 30 be b6 76 b4 be
       -0.41946632 -0.3642537 -0.17197406 -0.3524682
000210 ac 16 b2 3e 20 87 9e 3c f8 28 03 be 18 5e cb be
       0.34782922 0.019351542 -0.12808597 -0.39720225
000220 60 61 99 3d 56 c5 d6 3e 1c 5c 24 3e 04 c5 cc be
       0.07489276 0.4194743 0.16050762 -0.3999406
000230 04 59 11 3e 8c 1e bf 3e 78 5d f1 3e 40 ec 07 3e
       0.14194113 0.37327993 0.47141623 0.13273716
000240 8c c0 ea 3e 80 a2 4a be 46 bc dd 3e 24 36 8d be
       0.45850027 -0.19788551 0.43307704 -0.2758037
000250 0c 79 3b 3e 2a ef d3 be 9e e9 9c 3e 50 7c 2e 3e
       0.18307894 -0.41393405 0.30646986 0.17039609
000260 5e 1a 93 be 80 96 f8 3b a6 94 ba be b6 4a d7 3e
       -0.28731054 0.0075863004 -0.36441535 0.42049187
000270 2c 87 9a be 14 e2 62 be 78 d0 bb 3d 24 42 a4 be
       -0.30181253 -0.22156554 0.09170622 -0.3208171
000280 ac 29 06 be 0a 6f f4 3e 46 22 c8 be 48 62 f0 bd
       -0.13101834 0.47740966 -0.3908865 -0.11737496
000290 fc 43 38 3e a0 16 9b bd c8 9d c1 3d 36 b7 ba 3e
       0.17994684 -0.07572675 0.094539225 0.36467904
0002a0 e0 56 b8 be ba 52 bb be 16 cc 9a 3e 88 d1 c5 3d
       -0.3600378 -0.36586553 0.3023383 0.096591055
0002b0 74 de e1 3e 64 ba 1f be ea c3 be be 74 48 3c be
       0.4411503 -0.15598446 -0.37258846 -0.18387014
0002c0 86 76 ff be 40 b6 49 bc b8 50 cf 3e 04 d2 72 3e
       -0.49895114 -0.012311518 0.4049127 0.23712927
0002d0 b8 46 a8 3e 18 e1 e2 bd 8c c7 1e 3e 54 d2 1d be
       0.32866454 -0.110780895 0.15505809 -0.15412265
0002e0 d0 74 8f be 50 05 34 3e aa b9 c9 3e 48 4a 8d 3d
       -0.28018808 0.17580152 0.39399463 0.06898934
0002f0 08 22 7f be c4 09 8b be 90 da 8f bd 8a 34 a0 be
       -0.24915326 -0.27155888 -0.07024109 -0.31290084
000300 90 21 bd 3e d0 7c cd 3e cc 65 aa 3e 80 01 08 bc
       0.3693967 0.40134287 0.3328079 -0.008301139
000310 7c be 06 be 34 87 8a be c0 4e 8c bd 10 fb 3d 3d
       -0.13158602 -0.27056277 -0.06850958 0.04638201
000320 a8 0d 03 be 2c 94 76 3e 18 4d 10 3e f8 0a d3 3d
       -0.12798178 0.2407996 0.14091909 0.103048265
000330 48 67 37 3e 54 94 31 3e dc b8 4c 3e 1e 98 98 3e
       0.17910492 0.17341739 0.19992393 0.29803556
000340 72 2f fd 3e 8e 83 8e 3e 8c a4 1f be c8 32 52 3e
       0.4945026 0.27834743 -0.15590113 0.20527184
000350 f6 36 86 be 08 08 c0 3d 86 2f d9 be 84 07 57 3e
       -0.26213807 0.09376532 -0.4241907 0.2099896
000360 48 14 f9 be 32 18 93 be f4 24 bc 3e 52 58 b0 3e
       -0.48648286 -0.28729397 0.36746943 0.34442383
000370 18 75 da be 30 0a 46 be 54 2a b7 3e 9a d7 c8 be
       -0.4266746 -0.19339824 0.3577448 -0.3922699
000380 80 5e 7d 3c 8e 50 9c be 26 b7 f2 3e 48 36 ed bd
       0.015464425 -0.30530208 0.47405356 -0.11582619
000390 00 08 29 3a 18 9f 7f be 44 1b 71 be 10 c1 84 3d
       0.00064480305 -0.24963033 -0.23545557 0.06482136
0003a0 0e 85 c8 3e 1c 98 b3 be d4 e6 11 be c0 43 04 bc
       0.39164013 -0.35076988 -0.1424821 -0.0080727935
0003b0 d8 e3 fe 3e 2c 1c a1 be c2 01 b2 be b8 d1 ad 3e
       0.49783206 -0.31466806 -0.34766966 0.33949065
0003c0 c0 f2 7c 3d 50 d9 06 3e 0c 0f d3 be 7c 2a c2 be
       0.061754942 0.13168836 -0.41222417 -0.37923038
0003d0 40 19 5d 3c a0 71 77 3d 60 37 25 3d f8 c7 09 be
       0.01349479 0.060411096 0.040336013 -0.13455188
0003e0 40 96 d4 bd f2 bb bc 3e 00 be b0 3d 68 8f 99 3d
       -0.103802204 0.3686214 0.086299896 0.07498056
0003f0 14 7a fc be 4c da 1e 3e e8 0c 2e be f0 84 d0 3e
       -0.49311888 0.15512961 -0.16997111 0.40726423

0.bias f4 [256]
000000 9a d0 ad 3e 1c e7 73 be e0 c7 c8 bc de df ea 3e
       0.33948213 -0.2381863 -0.02450937 0.45873922
000010 aa 8b df 3e dc cf da 3e 98 a6 ac be 50 e4 43 3d
       0.43661243 0.4273671 -0.3372085 0.047825158
000020 00 df 99 bc c0 b2 17 3c 52 25 f6 3e 4c b2 91 3e
       -0.018783092 0.009258926 0.48075348 0.28456342
000030 78 c8 de be f2 f6 fb 3e ec 41 ee 3e b2 1c c5 be
       -0.4351232 0.49211842 0.4653467 -0.38498455
000040 8c 77 d4 be 56 ee cc 3e 00 33 23 be 6e 34 cb be
       -0.41497457 0.40025586 -0.15937424 -0.39688438
000050 28 00 56 3e a0 95 17 3d ac 8f 9a 3e 5a 09 b4 be
       0.20898497 0.037007928 0.30187738 -0.35163385
000060 08 e8 e9 3e d0 24 2c be 1e 25 98 be 24 37 3c 3e
       0.45684838 -0.16810918 -0.29715818 0.1838041
000070 18 6e d0 be 10 8e cb be 80 e2 c1 bd 20 1b 2e 3d
       -0.40708995 -0.39756823 -0.094670296 0.042506337
000080 74 49 38 be 80 79 1a bd 1e 6e ef be 1e 1a b4 3e
       -0.1799677 -0.037713528 -0.467637 0.35176176
000090 a0 5f 3b bd f8 36 9c 3d b0 75 9a 3e 56 a8 88 3e
       -0.045745492 0.07627672 0.30167913 0.2669093
0000a0 32 f8 d2 3e 46 9e 91 3e d0 22 06 3e 4a 0b 9a be
       0.41204983 0.28441066 0.13099217 -0.30086738
0000b0 56 73 b5 3e a8 f7 ca bd 64 ed 5f 3e 86 74 f5 3e
       0.35439557 -0.09910518 0.21867901 0.47940463
0000c0 2a 49 92 be a0 76 5d bd 32 a3 b3 be 90 5a 1c bd
       -0.28571445 -0.054068208 -0.35085446 -0.038172305
0000d0 88 1e 00 be 06 5d b2 be 8c a3 28 be f8 fc 41 3e
       -0.12511647 -0.34836596 -0.16468638 0.18944156
0000e0 fc 7b ba be 10 93 6b bd 42 47 ba 3e ca ec d7 3e
       -0.36422718 -0.057513297 0.3638249 0.42172843
0000f0 4a 21 f3 be 60 bd 9b 3e 58 ed 95 3d a0 16 26 3e
       -0.47486335 0.3041792 0.0732066 0.16219568
000100 5e 9e 9f 3e 8c 81 cc 3e e4 5f 7e be 0c ef cb 3e
       0.31175512 0.39942586 -0.24841267 0.39830816
000110 80 21 b7 bc 20 99 aa 3d d8 de 31 3e 74 5d e3 be
       -0.022354841 0.083299875 0.17370164 -0.44407237
000120 3c 65 64 be 5e 53 fd be 78 b3 b6 3d cc 76 85 3e
       -0.22304243 -0.49477667 0.0892095 0.26067197
000130 b0 4f 47 be 84 d8 08 3e 10 38 b0 bd 40 c9 1a be
       -0.19463992 0.13363844 -0.08604443 -0.15115833
000140 10 c4 b2 be 68 d0 3a 3e 90 5f 3b bd 84 8e 5e 3e
       -0.3491521 0.18243563 -0.045745432 0.21734053
000150 22 a4 f0 3e 9c 48 c9 be a0 c1 f8 bc 60 ac 13 be
       0.47000223 -0.3931321 -0.030365765 -0.14421225
000160 16 8b 9f 3e aa cf de 3e 64 4a d1 3e 60 c0 b6 bc
       0.31160802 0.4351781 0.40877068 -0.022308528
000170 f8 7a 16 3e 64 f9 39 be d6 fe fa be f2 24 ff be
       0.14695346 -0.18161541 -0.4902255 -0.49832875
000180 a4 97 39 3e ca 2a be be 9e 28 94 be b8 d0 15 3e
       0.18124253 -0.3714202 -0.28937238 0.14630401
000190 92 8d e4 be 3e bf a1 3e 14 81 b3 3e c0 26 00 bd
       -0.4463926 0.3159122 0.35059416 -0.031286955
0001a0 64 6e 12 3e 1a 5d aa 3e 38 1d 41 3e e6 6f f5 be
       0.14299923 0.33274156 0.18858802 -0.47936934
0001b0 2c 9f 3d 3e 3a 01 ff be fc a9 9c be 2a 92 fe be
       0.1851775 -0.49805623 -0.30598438 -0.4972089
0001c0 90 40 8a be 80 43 8c bb 60 60 03 3d c0 c4 f6 3c
       -0.27002382 -0.0042805076 0.032074332 0.030123115
0001d0 a0 fe b3 3c 90 de d8 be 90 a3 bf 3d 4c 1e 19 be
       0.021972 -0.42357302 0.09357369 -0.14952964
0001e0 80 2c a0 3e cc 05 da 3e 80 6e 02 bd e0 a1 27 3d
       0.3128395 0.42582548 -0.031843662 0.04092586
0001f0 56 df 92 be 24 c2 58 3e a2 5b d5 3e 30 81 03 3e
       -0.28686017 0.21167809 0.41671473 0.1284225
000200 1c 1f 0e 3e 00 6f b5 bc 0e e3 a8 be 90 a1 a0 bd
       0.13879055 -0.022147655 -0.3298573 -0.078433156
000210 f2 99 a8 be f0 07 cb 3e 40 bf 91 be 3c 78 c1 be
       -0.3292995 0.39654493 -0.28466225 -0.37787044
000220 48 98 07 3e 8c 93 34 be c0 df 90 bd a4 40 fb 3e
       0.13241684 -0.1763441 -0.07073927 0.49072754
000230 5c 70 81 3e fe cb c4 3e 98 72 eb bd 9c ae 19 be
       0.25281036 0.38436884 -0.114964664 -0.15008014
000240 00 7c aa be 10 3c e2 3d 42 0d af 3e d0 12 9d be
       -0.3329773 0.11046612 0.34189802 -0.30678415
000250 8c 49 33 be 00 d4 ca 3e 18 e2 46 be 44 4a 70 3e
       -0.17508525 0.39614868 -0.19422185 0.2346583
000260 40 35 be 3e 10 5f a2 3e f4 ba 8d be 80 71 be bb
       0.37150002 0.31713152 -0.27681696 -0.00581187
000270 98 c0 b4 3e a0 b0 ea 3e 18 7e 96 3e e8 91 99 be
       0.35303187 0.4583788 0.29393077 -0.2999413
000280 52 b4 9a 3e 14 56 1f be ca c5 f2 3e 38 81 9e be
       0.30215698 -0.1556018 0.47416526 -0.3095796
000290 92 09 f5 3e 9a f6 da 3e 20 a4 1e bd 58 3e 69 be
       0.47858864 0.42766267 -0.03873074 -0.22777689
0002a0 78 38 e0 be d0 ad 6c bd bc d1 86 be 30 d5 14 bd
       -0.43793082 -0.057782948 -0.2633189 -0.036336124
0002b0 a8 d8 dc be dc 84 1b 3e ac 14 b0 3e 20 f0 ce 3d
       -0.43134046 0.151874 0.3439077 0.10104394
0002c0 ac 2a 0d 3e f0 44 b1 3e 6c ca 41 3e 54 db a0 be
       0.1378581 0.34622908 0.18924874 -0.31417334
0002d0 a4 56 06 3e f8 8c 8b bd 10 f3 f3 bd e8 4d 39 be
       0.13118988 -0.06813997 -0.11911595 -0.18096125
0002e0 18 98 6d 3e fa 39 ed be 2a 05 f0 be fc 45 2b 3e
       0.2320255 -0.46333295 -0.4687894 0.16725916
0002f0 c2 c7 de be 6c a8 2a 3e 24 01 3c be 60 e0 96 3c
       -0.43511778 0.1666581 -0.1835981 0.018417537
000300 68 78 5e be e6 cd 91 3e 50 8a 13 be e4 9b 22 be
       -0.21725619 0.284774 -0.14408231 -0.1587978
000310 34 72 75 3e 30 fe 1d bd 04 77 c0 3e 02 41 bc 3e
       0.23969346 -0.03857249 0.37590802 0.36768347
000320 20 e1 83 3c ec ae 4f be d8 41 26 3e 8c 12 dc 3e
       0.016098559 -0.20281571 0.16236055 0.429829
000330 20 0e 9e bc 14 b1 18 3e 62 fe 99 be b4 e0 83 3e
       -0.019293845 0.149113 -0.3007689 0.25757372
000340 48 7c f2 bd 6a c0 ea be 58 e1 be bd 38 43 58 3e
       -0.11840111 -0.45849925 -0.09320325 0.21119392
000350 ac 39 09 be 04 94 55 be f0 2e 99 bd f6 d0 9c 3e
       -0.13400906 -0.20857245 -0.07479656 0.30628175
000360 22 ff a3 be 1e 48 e4 be 64 86 85 be 54 08 e9 be
       -0.32030588 -0.4458627 -0.26079094 -0.45514166
000370 ca 24 e3 3e 80 9d b2 3d 04 16 0d 3e 04 8b 28 3e
       0.44364005 0.08721447 0.1377793 0.1645928
000380 80 b7 e4 3d e0 76 3c bd 10 7f 55 3e fa 4e fc be
       0.11167812 -0.046011806 0.20849252 -0.49279004
000390 80 92 ca bb 5e 49 ee be c8 7c ad bd b0 6b e4 be
       -0.006182015 -0.4654035 -0.08471066 -0.4461341
0003a0 70 a3 3a 3d 6c 7e f2 3e f2 25 e0 3e e2 f9 96 3e
       0.045566022 0.47362077 0.4377895 0.2948752
0003b0 3c 57 a0 3e 04 43 e4 be 2a b5 c7 3e 94 3a a8 3e
       0.31316555 -0.4458238 0.39005405 0.32857192
0003c0 88 62 ab bd 3c 8d 09 3e 08 a4 c9 bd 0c 7e 46 3e
       -0.08368403 0.13432783 -0.098457396 0.1938402
0003d0 a0 64 c5 3d a0 82 12 3e b0 68 65 3e 50 f8 e8 be
       0.09638333 0.14307642 0.22403216 -0.45501947
0003e0 4c 11 46 3e e4 57 5c be b0 fc b8 bd 18 99 de be
       0.19342536 -0.21517903 -0.09032571 -0.43476176
0003f0 f0 45 be be 22 d5 ad 3e e0 81 22 3d 30 ef 3f 3d
       -0.37162733 0.3395167 0.03967464 0.046858966
