distributed_shared/worker_logs/worker_2/models/model_episode_60.pt (torch, 816842 bytes, 16 tensors)

0.weight f4 [256, 4]
-0.4606058 -0.16016755 0.049884986 0.022366427 -0.49560887 0.3040589 0.08873616 0.45063242
-0.3350415 -0.23392788 0.27873576 0.3995194 -0.22159368 -0.22137968 0.09153119 0.40252787
-0.11718201 -0.47216874 0.5563135 0.06695827 0.50148124 0.4214642 -0.3298469 0.124273986
0.3835667 -0.25643435 0.15266895 -0.14710249 0.06617068 0.433582 0.051719133 -0.44427836
-0.36393404 -0.0015586561 -0.11369196 -0.24169618 0.14147507 -0.31695187 -0.4207591 0.03178952
0.39897075 -0.10879941 0.43735957 -0.18574135 0.32672766 0.16617805 -0.22127897 0.29656544
0.17522219 0.282402 -0.43605095 0.2520385 0.31153616 -0.07561016 0.42695406 0.08055922
-0.014317865 -0.033858683 -0.40455326 0.045806147 0.3738397 -0.27664435 0.45401788 -0.4605446
-0.049247663 0.2788936 -0.4063198 -0.19467656 0.020128312 0.11786323 -0.4317525 -0.18669493
-0.4556048 0.17812242 -0.44584408 -0.3359125 0.3087396 -0.30281422 0.35191706 -0.38869235
-0.4503807 -0.41563845 0.279724 0.13257347 -0.24398181 -0.051294293 0.22630748 0.09416862
0.43560278 -0.17693603 0.4424094 -0.07930107 0.24408616 0.21369207 0.49854305 -0.21835777
0.36589542 0.30956712 0.24162398 -0.27007106 -0.37229937 -0.30088624 0.2045095 0.43818972
0.1944962 0.44909894 0.49996933 0.47145486 -0.24545515 -0.010001511 -0.38883772 -0.21615814
-0.3675448 -0.46557343 0.006353593 -0.059012678 -0.0024745695 -0.4398871 -0.34509397 -0.18534845
-0.06478892 -0.041977778 -0.40358958 0.38465232 -0.3854163 0.45688415 0.15415098 -0.13375136
0.47638464 0.021544566 -0.03243859 0.23523453 -0.35357723 -0.14947355 -0.32069758 0.20812325
0.045863103 0.45897362 -0.30697685 -0.429579 -0.45788634 -0.019116692 0.2393309 0.31910315
0.1850987 -0.021887803 -0.21472394 -0.11461593 0.29210398 -0.28880218 -0.36641347 -0.18782127
0.15525222 -0.35418206 -0.0980932 0.32327646 0.40301323 0.2413231 0.10975412 0.09990064
0.35709837 0.4060497 0.45668796 -0.3832626 -0.007857394 -0.41489655 -0.15082766 -0.33763555
0.02225902 0.18003024 0.46333796 0.32096773 0.40918005 -0.040971376 -0.31677625 0.012821066
0.018185832 0.3739827 -0.37427893 -0.45189282 -0.12541933 0.28106555 -0.2119824 0.116881974
-0.0526926 0.40366843 0.22603005 -0.4457168 0.3329837 -0.1683785 0.21366209 -0.24732256
-0.45968586 -0.04320695 0.13020469 -0.079181746 -0.072558 -0.3606108 -0.3055214 -0.058073726
0.114152156 0.2825926 0.25733295 0.47411212 0.4456909 0.25642928 -0.5450471 -0.17751275
0.23727684 -0.00395877 -0.40743226 -0.09674773 -0.06677176 -0.06654158 -0.24990281 -0.02530942
-0.22956452 0.09089968 0.21312997 0.44780463 0.060025387 -0.19039817 0.52690566 0.5517364
0.13915192 -0.41862363 -0.052259177 -0.4083721 0.28329974 -0.20222662 0.40147552 0.1366434
0.3049228 0.014364639 -0.2568722 -0.32402125 0.19637522 -0.3586938 0.31355196 0.48087543
0.41128945 -0.3495802 0.27860722 -0.35468552 -0.21303783 0.26057366 -0.5297516 -0.26770902
0.2615086 0.09586007 0.008325471 0.5094402 -0.36326292 0.14573412 -0.11725926 0.25017637
00000000: 86d4 ebbe f602 24be 3354 4c3d cc39 b73c
00000010: 72c0 fdbe 9cad 9b3e 4ebb b53d 4bb9 e63e
00000020: 8f8a abbe ca8a 6fbe 74b6 8e3e cf8d cc3e
00000030: 74e9 62be 5bb1 62be b474 bb3d 2218 ce3e
00000040: 1ffd efbd 1ac0 f1be 906a 0e3f 6b21 893d
00000050: 1361 003f 28ca d73e b1e1 a8be 5c83 fe3d
00000060: db62 c43e 5d4b 83be 4055 1c3e 09a2 16be
00000070: 7e84 873d 76fe dd3e 71d7 533d 7478 e3be
00000080: 9055 babe d24b ccba 55d7 e8bd 347f 77be
00000090: d7de 103e 8447 a2be bd6d d7be ba35 023d
000000a0: e545 cc3e 3ad2 debd 98ed df3e fb32 3ebe
000000b0: d948 a73e 942a 2a3e f496 62be 6dd7 973e
000000c0: 726d 333e ff96 903e 1242 dfbe 310b 813e
000000d0: ab81 9f3e 80d9 9abd b999 da3e 3bfc a43d
000000e0: 7a95 6abc 67af 0abd 9b21 cfbe 3a9f 3b3d
000000f0: eb67 bf3e 54a4 8dbe 0875 e83e 80cc ebbe
00000100: ebb7 49bd 24cb 8e3e 2609 d0be 4b59 47be
00000110: 21e4 a43c 4762 f13d aa0e ddbe f52c 3fbe
00000120: 0845 e9be b965 363e ad45 e4be b9fc abbe
00000130: 1e13 9e3e 770a 9bbe 792e b43e af02 c7be
00000140: 4d98 e6be 90ce d4be fc37 8f3e 57c1 073e
00000150: 5ed6 79be f719 52bd 26bd 673e 7adb c03d
00000160: 5407 df3e b82e 35be 7c83 e23e 9968 a2bd
00000170: b9f1 793e 18d2 5a3e 0941 ff3e 2e99 5fbe
00000180: a556 bb3e 957f 9e3e 476c 773e c146 8abe
00000190: 069e bebe c30d 9abe f06a 513e 675a e03e
000001a0: 032a 473e 4cf0 e53e fbfb ff3e 8862 f13e
000001b0: 9858 7bbe 61dd 23bc bd15 c7be 8f58 5dbe
000001c0: d52e bcbe a45f eebe cd31 d03b 47b7 71bd
000001d0: 632c 22bb e238 e1be 28b0 b0be fccb 3dbe
000001e0: 0eb0 84bd e4f0 2bbd 4ba3 cebe 26f1 c43e
000001f0: 4955 c5be b8ec e93e c1d9 1d3e 1ef6 08be
00000200: b0e8 f33e 3b7e b03c 54de 04bd 52e1 703e
00000210: 1308 b5be 980f 19be 7932 a4be 431e 553e
00000220: f3da 3b3d 97fe ea3e 122c 9dbe c7f1 dbbe
00000230: 1470 eabe 9c9a 9cbc 2913 753e 7d61 a33e
00000240: 838a 3d3e 0d4e b3bc 98e0 5bbe c2bb eabd
00000250: a78e 953e e1dd 93be 8c9a bbbe 3854 40be
00000260: 70fa 1e3e 5a57 b5be 16e5 c8bd 7e84 a53e
00000270: c057 ce3e 671d 773e c5c6 e03d b598 cc3d
00000280: 99d5 b63e bfe5 cf3e 01d3 e93e ff3a c4be
00000290: 4dbc 00bc 526d d4be 9172 1abe 91de acbe
000002a0: 8c58 b63c d959 383e a23a ed3e e255 a43e
000002b0: 0c80 d13e 9ad1 27bd 7f30 a2be 730f 523c
000002c0: 74fa 943c a97a bf3e 7da1 bfbe 7f5e e7be
000002d0: ed6d 00be d3e7 8f3e ea11 59be d15f ef3d
000002e0: 32d4 57bd a1ad ce3e 6c74 673e fe34 e4be
000002f0: d77c aa3e 6a6b 2cbe 3cca 5a3e 2042 7dbe
00000300: f25b ebbe c5f9 30bd 6154 053e 0a2a a2bd
00000310: 4a99 94bd fba1 b8be 4d6d 9cbe b7de 6dbd
00000320: 9bc8 e93d faaf 903e 25c1 833e d3be f23e
00000330: 9931 e43e b34a 833e 3588 0bbf e7c5 35be
00000340: b3f8 723e 92b8 81bb f69a d0be ad23 c6bd
00000350: a2bf 88bd f446 88bd 86e6 7fbe b355 cfbc
00000360: f612 6bbe 9d29 ba3d be3e 5a3e a646 e53e
00000370: 2edd 753d bdf7 42be 4ae3 063f 993e 0d3f
00000380: d77d 0e3e d655 d6be b80d 56bd 2616 d1be
00000390: aa0c 913e 7f14 4fbe 338e cd3e 3fec 0b3e
000003a0: d71e 9c3e aa59 6b3c c184 83be 1de6 a5be
000003b0: 9616 493e b7a6 b7be e289 a03e 4e35 f63e
000003c0: 8894 d23e 2dfc b2be 9ba5 8e3e 5799 b5be
000003d0: 9726 5abe e969 853e cd9d 07bf 2811 89be
000003e0: 75e4 853e 4952 c43d 8e67 083c ac6a 023f
000003f0: 99fd b9be 533b 153e 9f25 f0bd 1e17 803e

0.bias f4 [256]
0.10488481 0.064888395 0.17177042 0.1524922 0.18985547 -0.21001768 0.11494995 -0.24252589
-0.16218968 0.0099043865 -0.21743475 -0.03850408 -0.14831036 -0.06276598 0.1141565 0.02197986
-0.02570101 0.10281199 0.23148872 0.22416942 -0.1043774 -0.06707788 -0.1959509 0.065781884
0.12594971 -0.1488126 -0.095220305 -0.18411824 -0.1616759 -0.1765628 -0.11892985 0.0048863855
-0.21462344 -0.19855088 0.14035138 0.035390902 -0.1289627 0.0826246 0.24131195 -0.23735753
0.13652585 0.11404199 -0.13281943 0.17348991 -0.01219029 -0.11030149 0.19113031 0.19355144
-0.17505042 -0.02993673 -0.016343508 0.18514602 -0.13946255 0.109126024 0.19464114 -0.13033174
-0.009147429 -0.06684931 0.2169302 -0.1755216 -0.09389588 -0.07113611 -0.21413529 0.16655792
0.15563616 0.1960815 0.16560072 0.09830181 -0.21263094 0.13904534 -0.16475783 -0.046316337
-0.22377846 -0.20957786 0.073010325 0.21854326 0.1103521 -0.17193182 0.17787427 0.029962353
0.20171541 0.07754909 -0.21929438 -0.040023677 -0.12208698 0.23445256 0.2240521 -0.18609698
-0.036421794 -0.038833573 -0.22918743 0.055655938 -0.12940486 0.036713928 0.0059704324 -0.031613562
0.09606454 -0.20789804 0.0100559825 0.10724303 -0.018021163 -0.17295435 -0.20769502 0.14277495
0.16502653 0.17426462 -0.11139004 0.037945095 0.13524456 0.028513385 0.24586982 -0.14740221
-0.1744363 0.07602598 0.08065767 -0.20242028 0.118418835 -0.1331972 0.09362138 -0.16775565
-0.033110164 -0.17934564 0.08930003 -0.12570933 -0.12986827 0.19985531 -0.05658096 0.21177493
0.0720366 -0.19955054 -0.24233922 -0.050928775 0.20058274 -0.17628126 -0.21858807 -0.13725644
0.17660157 0.08364437 -0.1056794 0.030034978 -0.03367409 0.020553047 -0.042265218 -0.07092008
-0.19268893 -0.21357273 -0.21257216 -0.19591285 0.1556158 0.19466151 0.089843415 0.15104829
-0.1385563 -0.1726412 0.18287192 -0.20151114 0.16005386 -0.015858546 0.0022255173 -0.059001047
0.21784727 -0.17245865 -0.18523748 0.16822718 0.17393287 0.21620388 0.18666126 -0.23332444
-0.019980662 -0.16866429 0.0027423596 0.08988995 0.09500449 -0.14188327 0.0073105246 -0.093934864
-0.0005811812 -0.08800123 0.21655042 0.049833257 -0.122575834 0.1444785 -0.21359909 -0.102862686
0.05390899 0.14837894 -0.046253268 -0.17064531 -0.07934783 -0.1883001 0.101028435 -0.16482954
0.12058337 -0.05072845 -0.1114601 0.19188872 -0.17681208 0.12244529 0.037029188 0.21497966
-0.1921432 0.21002644 0.0060358495 -0.09023487 0.06054042 -0.23336478 0.118911505 -0.031144397
0.06248656 0.061600123 0.1567669 -0.12549439 -0.04024956 -0.15886967 0.068138555 -0.09611743
0.09155153 -0.025475306 0.044056777 -0.13860951 0.111638345 0.25264433 0.069830775 0.20338804
0.23327564 -0.10176975 0.011661246 0.04745205 -0.034555934 0.07413077 -0.16968706 0.06755595
0.16273011 0.033316236 0.22728512 0.055774596 -0.23296845 0.05879367 0.036189318 0.109210186
0.115578674 0.19435418 0.042174302 -0.25264123 -0.082439676 -0.1706765 0.19411047 0.1187497
-0.0310885 -0.20618583 -0.058131263 0.17102316 -0.022333255 -0.14726953 0.119489655 -0.024605
00000000: d9cd d63d 35e4 843d 96e4 2f3e ea26 1c3e
00000010: 7969 423e e00e 57be e16a eb3d b558 78be
00000020: 0d15 26be 0246 223c 37a7 5ebe 74b6 1dbd
00000030: acde 17be 738b 80bd e2ca e93d 1b0f b43c
00000040: ed8a d2bc 188f d23d 610b 6d3e ab8c 653e
00000050: d1c3 d5bd 2160 89bd 5aa7 48be a7b8 863d
00000060: f6f8 003e 5562 18be dd02 c3bd 7e89 3cbe
00000070: 5e8e 25be e1cc 34be 7e91 f3bd f91d a03b
00000080: 3fc6 5bbe ec50 4bbe 46b8 0f3e 0df6 103d
00000090: cc0e 04be 1637 a93d 7b1a 773e da0d 73be
000000a0: 6fcd 0b3e d98e e93d d101 08be 57a7 313e
000000b0: c8b9 47bc bfe5 e1bd aab7 433e 5932 463e
000000c0: 6b40 33be e03d f5bc d2e2 85bc eb96 3d3e
000000d0: 45cf 0ebe 777d df3d 0250 473e af75 05be
000000e0: 19df 15bc 4be8 88bd f322 5e3e efbb 33be
000000f0: 7c4c c0bd cfaf 91bd 4846 5bbe 298e 2a3e
00000100: 165f 1f3e 97c9 483e 3c93 293e 7652 c93d
00000110: edbb 59be e761 0e3e 47b6 28be 33b6 3dbd
00000120: 2e26 65be 949b 56be 7086 953d cec9 5f3e
00000130: 4800 e23d e50e 30be ac24 363e 9c73 f53c
00000140: 7c8e 4e3e 0fd2 9e3d b58e 60be deef 23bd
00000150: bd08 fabd 5514 703e ea6d 653e 3590 3ebe
00000160: 052f 15bd f40f 1fbd 1cb0 6abe 7bf7 633d
00000170: b582 04be 5861 163d 9ea3 c33b 397d 01bd
00000180: 7cbd c43d 39e3 54be d9c1 243c 3ca2 db3d
00000190: 1ea1 93bc f21a 31be 01ae 54be 9933 123e
000001a0: b7fc 283e 6d72 323e 7620 e4bd 516c 1b3d
000001b0: 8d7d 0a3e e794 e93c 4cc5 7b3e 9bf0 16be
000001c0: 6e9f 32be 82b3 9b3d d92f a53d 4347 4fbe
000001d0: 9385 f23d d964 08be 91bc bf3d 23c8 2bbe
000001e0: 869e 07bd 62a6 37be efe2 b63d f2b9 00be
000001f0: 30fc 04be dfa6 4c3e 70c1 67bd 87db 583e
00000200: ed87 933d fa56 4cbe c627 78be b19a 50bd
00000210: 9065 4d3e 1383 34be 8dd5 5fbe f48c 0cbe
00000220: 0bd7 343e bd4d ab3d 716e d8bd ea0b f63c
00000230: d8ed 09bd dd5e a83c 4b1e 2dbd 8c3e 91bd
00000240: 3f50 45be cfb2 5abe 84ac 59be 619d 48be
00000250: c059 1f3e 5955 473e d3ff b73d 67ac 1a3e
00000260: b4e1 0dbe dbc8 30be c742 3b3e f058 4ebe
00000270: 29e5 233e c8e9 81bc fcd9 113b 15ab 71bd
00000280: 5b13 5f3e 0099 30be e5ae 3dbe bf43 2c3e
00000290: 751b 323e 8d64 5d3e 2124 3f3e 9aec 6ebe
000002a0: 7cae a3bc 55b6 2cbe 29b9 333b 3918 b83d
000002b0: b791 c23d d949 11be 208d ef3b ec60 c0bd
000002c0: 695a 18ba fd39 b4bd 65bf 5d3e f51d 4c3d
000002d0: 0a09 fbbd 2cf2 133e b8b9 5abe aca9 d2bd
000002e0: accf 5c3d a6f0 173e 1174 3dbd a5bd 2ebe
000002f0: 1d81 a2bd bed1 40be ffe7 ce3d 13c9 28be
00000300: 6af4 f63d a3c8 4fbd 3145 e4bd 7a7e 443e
00000310: 3a0e 35be 99c4 fa3d ebab 173d a123 5c3e
00000320: 30c1 44be 2c11 573e 60c8 c53b 0fcd b8bd
00000330: 3bf9 773d 2df7 6ebe e087 f33d 8922 ffbc
00000340: e8f1 7f3d 6950 7c3d 8187 203e 9a81 00be
00000350: b9dc 24bd bbae 22be 3a8c 8b3d 37d9 c4bd
00000360: 5e7f bb3d 97b1 d0bc e174 343d a7ef 0dbe
00000370: a5a2 e43d 995a 813e 7003 8f3d f444 503e
00000380: cfdf 6e3e a96c d0bd d00e 3f3c 155d 423d
00000390: 868a 0dbd e0d1 973d 72c2 2dbe c65a 8a3d
000003a0: b9a2 263e 9b76 083d 6ebd 683e e773 643d
000003b0: 488f 6ebe a2d1 703d 403b 143d 97a9 df3d
000003c0: 83b4 ec3d c804 473e f6be 2c3d 315a 81be
000003d0: 22d6 a8bd d2c5 2ebe e5c4 463e 0b33 f33d
000003e0: 4fad febc 6122 53be 0c1b 6ebd b220 2f3e
000003f0: 3bf4 b6bc d3cd 16be feb6 f43d 6d90 c9bc

2.weight f4 [256, 256]
0.04462256 0.057735924 0.043299742 -0.012650187 -0.010500311 -0.044890102 0.04699195 0.04244532
-0.0025692922 -0.010710671 -0.028891478 0.045410603 -0.048265465 0.05463686 -0.05006793 -0.040777877
-0.047047507 0.04549156 0.0016701486 0.028170153 0.038830865 0.006892036 -0.0039744815 -0.02750944
0.020235958 0.038433876 0.027969308 0.0014642457 0.006941121 -0.072358675 0.05285251 -9.2777715e-05
0.040072132 -0.03778236 -0.012903759 -0.06048629 0.03306686 0.06185866 0.044018585 0.047169223
0.013518276 0.028801858 0.03409184 0.0587411 -0.058292992 -0.030168448 0.016920822 -0.034895543
0.014006819 -0.035151716 -0.008860924 0.029455706 -0.021380411 0.014700712 -0.05289499 0.035065122
-0.06345396 0.023144687 0.06951342 0.042499866 -0.068606414 -0.018829247 0.01478084 -0.070504986
-0.055830166 -0.0027451238 0.04869584 -0.0031055927 0.044141445 0.019109592 -0.0090584615 -0.045008544
0.030166188 -0.012781064 0.04111052 0.00023671155 0.027848748 0.027167816 0.04576928 0.03550282
0.023735646 0.011323891 -0.0039501577 0.027132936 0.051236007 -0.035733033 0.04026702 0.0052136285
-0.037960485 0.034015898 0.043046337 -0.069940306 -0.00169435 0.044585172 0.041154735 0.03778707
0.025179876 -0.010768132 0.0635286 -0.041873097 -0.03301318 -0.020576423 0.031485662 -0.042360142
-0.030475708 -9.135803e-05 -0.06049694 -0.06657712 0.027170941 0.019406563 -0.011509284 0.017631218
0.03112993 0.073188595 -0.037237052 0.06306517 0.05032804 0.058209788 -0.046317607 0.019285643
-0.017150236 -0.042499874 -0.028828291 0.039652247 -0.04599637 0.011880934 -0.03947098 0.053468607
-0.003906481 0.043464098 -0.017233439 -0.044254184 -0.030613463 -0.07194841 -0.038352955 0.02781812
-0.033372607 -0.020787181 -0.0002226366 0.05368576 -0.049098466 0.033774234 0.010460433 0.051167868
-0.041310873 0.00033148396 -0.007306264 -0.0023017908 -0.030522926 -0.038502734 -0.04168006 0.04040936
-0.03212928 -0.02382597 0.007866322 -0.0389064 -0.016277807 0.04373876 -0.012550713 -0.008010448
0.03668258 -0.025445897 -0.028621126 -0.02322893 -0.036529094 -0.020655738 -0.014100339 0.045456387
0.045744214 -0.0078100637 -0.010019384 -0.031742882 0.050655305 0.03548304 -0.0042632306 0.070979945
-0.06602048 0.018617284 -0.056526057 0.0055536013 -0.0057453522 -0.01647514 0.017552907 0.012147043
-0.019439682 0.031601157 0.008518133 0.027170902 0.060694244 0.03384913 -0.064780824 -0.0004104824
0.03850661 -0.036463648 -0.024736095 -0.03636525 0.00469637 0.009668719 -0.057337467 0.05353852
0.008448875 -0.056302972 -0.052660108 -0.01415259 -0.049314957 -0.055040862 -0.0118949 0.037515808
0.03881799 -0.014648151 0.043669913 -0.03703213 -0.031837817 0.0060650525 0.045934744 0.03845391
0.025052436 -0.0449877 -0.036771536 0.02193668 0.061403874 0.04205077 0.0026313413 -0.0086599635
0.03718957 0.01963358 -0.042962704 -0.028328972 0.069657065 -0.059796076 -0.059633672 0.0049657766
0.016002573 -0.006387234 -0.009150875 0.0038162512 0.027429597 0.0036056528 0.0077629974 0.016643835
0.011644604 0.03805909 0.077223875 0.03367287 0.036742304 0.02670519 -0.006314109 -0.019066337
0.016408516 -0.049179852 -0.0068887156 -0.029121103 0.0015544917 0.062134426 0.011636914 0.04565307
00000000: 25c6 363d 817c 6c3d 125b 313d bb42 4fbc
00000010: 7f09 2cbc afde 37bd a27a 403d 25db 2d3d
00000020: 9261 28bb cf7b 2fbc d2ad ecbc 7800 3a3d
00000030: 02b2 45bd e6ca 5f3d 0814 4dbd b406 27bd
00000040: e3b4 40bd 5c55 3a3d e3e8 da3a 18c5 e63c
00000050: 1d0d 1f3d 97d6 e13b 5e3c 82bb 7a5b e1bc
00000060: e1c5 a53c d76c 1d3d e41f e53c efeb bf3a
00000070: 5872 e33b c930 94bd e07b 583d a891 c2b8
00000080: ad22 243d adc1 1abd 4a6a 53bc 79c0 77bd
00000090: 1e71 073d 825f 7d3d d54c 343d 8434 413d
000000a0: c27b 5d3c e0f1 eb3c e3a3 0b3d 829a 703d
000000b0: a2c4 6ebd d223 f7bc 899d 8a3c a1ee 0ebd
000000c0: db7c 653c 3ffb 0fbd 692d 11bc 184d f13c
000000d0: f925 afbc 41db 703c 6ba8 58bd 72a0 0f3d
000000e0: 26f4 81bd ed99 bd3c 0d5d 8e3d 5714 2e3d
000000f0: 8581 8cbd cb3f 9abc 562b 723c eb64 90bd
00000100: 2cae 64bd 89e7 33bb 4a75 473d 3387 4bbb
00000110: a9cd 343d b88b 9c3c f169 14bc e15a 38bd
00000120: 151f f73c ab67 51bc 8163 283d c635 7839
00000130: 0f23 e43c 0a8f de3c 9278 3b3d 686b 113d
00000140: 4271 c23c d787 393c 5370 81bb e445 de3c
00000150: d9dc 513d cd5c 12bd 08ef 243d 16d7 aa3b
00000160: 747c 1bbd 4154 0b3d 5b51 303d dd3c 8fbd
00000170: f414 deba f19e 363d de91 283d 9dc6 1a3d
00000180: 0746 ce3c d26c 30bc 481b 823d 2083 2bbd
00000190: d438 07bd e38f a8bc 1cf7 003d d481 2dbd
000001a0: 31a8 f9bc 7897 bfb8 a4cb 77bd 9659 88bd
000001b0: 9895 de3c 83fa 9e3c 7091 3cbc 586f 903c
000001c0: 3204 ff3c e7e3 953d e185 18bd 5028 813d
000001d0: c624 4e3d 636d 6e3d 88b7 3dbd edfc 9d3c
000001e0: a77e 8cbc 5914 2ebd 4f29 ecbc 656a 223d
000001f0: b166 3cbd 40a8 423c 53ac 21bd e601 5b3d
00000200: f001 80bb 6907 323d 242d 8dbc e043 35bd
00000210: 16c9 fabc b059 93bd fd17 1dbd d3e2 e33c
00000220: b7b1 08bd e149 aabc 8f73 69b9 99e5 5b3d
00000230: 791b 49bd da56 0a3d 3c62 2b3c 6695 513d
00000240: 9735 29bd 06cb ad39 6269 efbb a4d9 16bb
00000250: 370b fabc 0bb5 1dbd b6b8 2abd 4984 253d
00000260: fe99 03bd ae2e c3bc bfe1 003c 515c 1fbd
00000270: 0959 85bc 6a27 333d 81a1 4dbc 413e 03bc
00000280: 7940 163d ea73 d0bc da76 eabc 994a bebc
00000290: 889f 15bd 3936 a9bc 1c05 67bc 7a30 3a3d
000002a0: 495e 3b3d 90eb ffbb 5828 24bc d304 02bd
000002b0: f07b 4f3d aa56 113d 92b2 8bbb ef5d 913d
000002c0: bf35 87bd 4683 983c de87 67bd fcfa b53b
000002d0: 8243 bcbb dff6 86bc 1dcb 8f3c 6404 473c
000002e0: f83f 9fbc 3770 013d a48f 0b3c 8395 de3c
000002f0: 879a 783d 63a5 0a3d cfab 84bd 0436 d7b9
00000300: 1bb9 1d3d e85a 15bd 5aa3 cabc baf3 14bd
00000310: 02e4 993b 8c69 1e3c b1da 6abd 354b 5b3d
00000320: 266d 0a3c f29d 66bd 20b2 57bd 44e0 67bc
00000330: 7bfe 49bd 8772 61bd d4e2 42bc 2daa 193d
00000340: 9dff 1e3d ccfe 6fbc 39df 323d 01af 17bd
00000350: 5f68 02bd 59bd c63b 1226 3c3d d981 1d3d
00000360: c43a cd3c 0645 38bd c09d 16bd 8db4 b33c
00000370: a182 7b3d 6e3d 2c3d 9572 2c3b 85e2 0dbc
00000380: 1754 183d 9ad6 a03c a9f9 2fbd 2912 e8bc
00000390: 5da8 8e3d bbec 74bd 7042 74bd f4b7 a23b
000003a0: d417 833c 014c d1bb 8ded 15bc 121a 7a3b
000003b0: 09b4 e03c d14c 6c3b be60 fe3b a758 883c
000003c0: 02c9 3e3c d9e3 1b3d 8d27 9e3d 90ec 093d
000003d0: 197f 163d d8c4 da3c 96e6 cebb 0231 9cbc
000003e0: 276b 863c d070 49bd bcba e1bb 618f eebc
000003f0: 16c0 cb3a ab80 7e3d c1a8 3e3c b7fe 3a3d

2.bias f4 [256]
-0.052147035 0.027000401 0.01065433 -0.078149356 -0.041528866 -0.012753549 0.012414201 0.002362434
-0.06453237 -0.0363573 0.029890923 -0.055700917 0.02064512 -0.03171841 0.031528268 -0.04809074
-0.022350682 -0.07012194 0.0022407917 0.016858831 0.045108065 0.05494315 0.044926677 -0.008245366
-0.045768168 -0.011347513 -0.033085197 0.012147186 -0.027734928 -0.024321781 -0.03339985 0.038722545
0.01271687 0.04293411 -0.028271908 0.020301126 0.032346636 0.03927123 -0.06159018 0.039943527
0.018634832 -0.048181787 0.05984959 0.020135554 0.06640465 0.033768777 0.0603963 0.025269207
-0.029716998 -0.0320055 0.047016494 -0.06097684 0.005785224 -0.06005875 0.033924263 -0.04558998
0.061957043 -0.017049348 -0.039277542 0.02565394 0.0192877 0.037802827 0.045090847 -0.05761722
0.018115232 0.031807385 -0.014406787 0.023853311 0.05658715 0.046417896 0.07521535 -0.0582362
-0.029641332 0.048451502 -0.03975517 0.042272434 -0.049223807 0.0094898185 0.045433484 0.019836357
-0.028780833 0.00028735815 0.046963338 0.06789488 -0.035098802 -0.0041778535 0.034702994 0.025263915
0.05468636 -0.008190616 -0.03691919 -0.030760022 -0.03760685 -0.04563728 0.0011151487 0.007519503
0.01834275 0.059415583 0.003676062 0.04380686 0.010257068 0.028341698 -0.009775771 -0.06912869
0.036307745 -0.052069303 0.046236254 0.0007101766 0.05272652 0.0143102845 0.057521284 -0.013668057
-0.039817907 0.033028655 -0.04847906 -0.0019302627 -0.03399995 -0.030168856 0.044449132 0.027889015
0.010138564 0.036050472 -0.03617491 -0.0285525 0.002597977 -0.06348375 0.028746825 -0.0034132935
0.03792842 -0.04828641 0.05797428 -0.00057042006 -0.026204785 -0.021039676 -0.0342773 0.02229704
-0.0008948478 -0.043834496 0.013530259 -0.044655032 0.048574477 -0.056814477 0.009669193 0.015556974
0.012599741 -0.030298788 -0.027070565 -0.03952167 -0.0002530154 -0.025203003 0.012779644 -0.01839518
0.03870153 0.0368675 0.022429343 -0.03818168 -0.009579152 0.058721032 -0.056180358 0.058835175
-0.041632514 0.024122683 0.03837523 -0.042598482 -0.035061624 0.01267134 0.020906368 -0.037278168
0.0010571817 -0.022601187 -0.012232748 0.032918576 0.008352871 0.013346867 0.023785759 0.035334677
0.076514214 0.051494095 -0.020050844 -0.057944216 0.016023964 0.032989863 0.010158162 0.0009698862
0.03204889 0.03386288 0.01044848 -0.013145615 0.04954038 -0.06718684 0.055098105 -0.026768904
-0.015299642 0.022449756 0.057074063 -0.035171576 -0.06893452 -0.03326835 -0.038327057 0.0324008
0.0015440013 0.023836557 0.02582216 -0.020288158 -0.005558885 -0.072419636 0.014881012 0.017855735
0.015874704 0.006447099 0.021767542 0.053299777 0.017614132 0.008560878 -0.04595809 0.0668593
0.00828025 0.0012275499 -0.0322707 -0.017049631 -0.031693522 -0.03663094 0.02848637 -0.002041361
0.056076232 0.037712704 -0.013554898 0.036992397 0.0640256 0.058332443 0.00071183173 -0.022773715
0.0038978984 -0.06208105 0.055636536 -0.009047586 -0.03280222 -0.071795486 -0.017153218 0.024255285
0.0421127 -0.0124023445 -0.018581875 0.038035206 -0.055575784 0.05624906 0.049221188 -0.024840474
0.01874609 0.028049158 0.0054148682 -0.0067244163 0.051631324 0.01518365 0.017713448 0.04686648
00000000: 2198 55bd f22f dd3c 808f 2e3c c50c a0bd
00000010: 2c1a 2abd 43f4 50bc ef64 4b3c 11d3 1a3b
00000020: 8c29 84bd 64eb 14bd cfdd f43c a526 64bd
00000030: f41f a93c 2aeb 01bd c923 013d ccfa 44bd
00000040: c718 b7bc 179c 8fbd 3fda 123b 881b 8a3c
00000050: 3cc3 383d 120c 613d 0905 383d 9217 07bc
00000060: 6777 3bbd ebea 39bc 5884 07bd fe04 473c
00000070: 5c34 e3bc 793e c7bc 48ce 08bd 889b 1e3d
00000080: 6b5a 503c addb 2f3d 7d9a e7bc 8c4e a63c
00000090: e87d 043d dfda 203d fc45 7cbd d39b 233d
000000a0: 13a8 983c 445a 45bd d824 753d 51f3 a43c
000000b0: 29ff 873d 2151 0a3d 1c62 773d 5e01 cf3c
000000c0: 1071 f3bc 3318 03bd 5e94 403d dac2 79bd
000000d0: fa91 bd3b 2a00 76bd 2bf4 0a3d 8fbc 3abd
000000e0: abc6 7d3d 13ab 8bbc 7de1 20bd 3628 d23c
000000f0: 3d01 9e3c 23d7 1a3d 2eb1 383d 0900 6cbd
00000100: 6566 943c 7648 023d 720a 6cbc 0568 c33c
00000110: edc7 673d b120 3e3d 810a 9a3d 1589 6ebd
00000120: 61d2 f2bc 1575 463d 51d6 22bd dc25 2d3d
00000130: e79e 49bd 2f7b 1b3c 7618 3a3d db7f a23c
00000140: c8c5 ebbc 8fa8 9639 a15c 403d 790c 8b3d
00000150: c3c3 0fbd 60e6 88bb ba24 0e3d 45f6 ce3c
00000160: cefe 5f3d ef31 06bc 9438 17bd 71fc fbbc
00000170: a409 1abd 28ee 3abd 2e2a 923a 2a66 f63b
00000180: 8943 963c c15d 733d 16ea 703b d26e 333d
00000190: 430d 283c d92c e83c 8e2a 20bc 5893 8dbd
000001a0: 6eb7 143d 9f46 55bd 3a62 3d3d 252b 3a3a
000001b0: c3f7 573d af75 6a3c 709b 6b3d fcef 5fbc
000001c0: 1a18 23bd 0e49 073d fb91 46bd de00 fdba
000001d0: 8843 0bbd ad24 f7bc 4b10 363d 8177 e43c
000001e0: 381c 263c a9a9 133d 242c 14bd efe6 e9bc
000001f0: d242 2a3b c503 82bd 767e eb3c 90b1 5fbb
00000200: d55a 1b3d f8c7 45bd 7076 6d3d 3e88 15ba
00000210: 6bab d6bc 665b acbc 5b66 0cbd 48a8 b63c
00000220: 3894 6aba cd8b 33bd 05ae 5d3c 32e8 36bd
00000230: 08f6 463d 4cb6 68bd 896b 1e3c aee2 7e3c
00000240: 256f 4e3c 2a35 f8bc 17c3 ddbc 7ae1 21bd
00000250: 27a7 84b9 8776 cebc b661 513c 7db1 96bc
00000260: 7f85 1e3d 6002 173d bebd b73c 6564 1cbd
00000270: e0f1 1cbc 7785 703d 601d 66bd 27fd 703d
00000280: db86 2abd ef9c c53c 582f 1d3d bf7b 2ebd
00000290: c79c 0fbd 749b 4f3c d543 ab3c feb0 18bd
000002a0: 2291 8a3a 2026 b9bc dd6b 48bc a1d5 063d
000002b0: 7bda 083c d1ac 5a3c 5ada c23c 18bb 103d
000002c0: 7cb3 9c3d 79eb 523d ab41 a4bc ea56 6dbd
000002d0: b044 833c 6120 073d 6b6e 263c f63f 7e3a
000002e0: b245 033d ceb3 0a3d 1a30 2b3c b560 57bc
000002f0: daea 4a3d 4199 89bd 8dae 613d 764a dbbc
00000300: 5aab 7abc 8de8 b73c 7ec6 693d 1210 10bd
00000310: 8b2d 8dbd 6544 08bd d5fc 1cbd b4b6 043d
00000320: 1660 ca3a e244 c33c ff88 d33c 5a33 a6bc
00000330: 4f27 b6bb bf50 94bd 7dcf 733c 3146 923c
00000340: ab0b 823c 3042 d33b d851 b23c de50 5a3d
00000350: 834b 903c ed42 0c3c 8d3e 3cbd 87ed 883d
00000360: e3a9 073c bde5 a03a 482e 04bd abab 8bbc
00000370: 11d1 01bd 530a 16bd 3f5c e93c 5bc8 05bb
00000380: 31b0 653d a378 1a3d 5d15 5ebc 5785 173d
00000390: db1f 833d 00ee 6e3d 389a 3a3a f18f babc
000003a0: e273 7f3b b348 7ebd 23e3 633d 533c 14bc
000003b0: 9f5b 06bd 8309 93bd e884 8cbc 05b3 c63c
000003c0: 5e7e 2c3d 3433 4bbc 0439 98bc ceca 1b3d
000003d0: 6fa3 63bd 6a65 663d 289c 493d 407e cbbc
000003e0: 6691 993c 59c7 e53c 356f b13b 7e58 dcbb
000003f0: 5e7b 533d d8c4 783c cb1b 913c 11f7 3f3d

4.weight f4 [2, 256]
0.025086509 0.033192553 0.038706217 0.052689172 -0.050376073 -0.026809633 0.009857858 -0.055922393
-0.062215947 -0.022307169 -0.047836397 -0.042517867 -0.004032317 0.015012131 0.010979447 -0.0018485228
0.074756555 -0.025155902 -0.00034075038 -0.020347051 3.8012797e-05 0.056129977 -0.07214958 0.030276066
0.032446567 0.05322861 -0.0077504576 0.021290764 -0.040391754 -0.05071883 -0.03303832 0.026731009
0.0021750883 -0.011607708 0.014529358 0.0028234718 -0.057489116 -0.078990124 -0.043876637 -0.036252413
-0.014737309 -0.032921 0.013147465 -0.03235373 0.044207487 -0.0018614806 0.044425864 0.010529545
0.055590477 -0.0065963035 0.020941783 0.028065657 -0.026173495 0.002940058 0.048882015 -0.0168424
-0.05689503 0.027384145 -0.05338395 0.08031257 -0.04650241 -0.08420758 0.06273104 -0.06840206
-0.004889654 -0.0546376 -0.07214788 -0.03455216 0.008629999 0.049678307 -0.0038248915 0.014095132
-0.04371843 0.04384157 -0.046967268 0.022677504 -0.011014083 -0.05347384 0.004089338 0.011185835
0.018337196 -0.0349147 -0.0036262101 0.010819743 0.0062966766 -0.031734776 0.042157546 0.018870726
0.03779698 -0.032145858 -0.013870012 -0.04389559 -0.03015405 0.019961786 -0.028989201 0.056809504
0.03710939 -0.033834502 -0.045323666 0.062478483 0.012181925 -0.039322536 0.0061454372 -0.024217272
0.048726387 0.04976498 0.0071323104 0.006122826 0.014940284 0.030952366 -0.06593154 0.032540683
0.02513107 -0.023683814 -0.029703295 -0.0037285003 -0.029008536 0.04049023 0.053744905 -0.058533218
-0.023396816 -0.004554585 -0.01933274 0.05365584 -0.046174616 0.0560695 -0.050230436 0.011708375
0.04618946 0.011721287 0.04843503 0.07348183 0.007278633 -0.046544805 0.0032438515 0.030476913
0.061052687 -0.012392674 0.0103437975 -0.042683028 0.032624673 -0.0012930202 -0.006436763 -0.024108866
-0.06529291 -0.07505932 -0.072303936 0.0457418 -0.016863376 0.07310216 0.040144578 0.009949939
0.03150091 -0.06099653 -0.027167141 -0.006465917 0.027365906 -0.03327096 0.021319883 -0.030078104
-0.04253135 0.02774069 -0.05019261 -0.022290612 -0.016670858 0.023234254 -0.041793212 -0.024783999
0.06593325 -0.028617285 -0.008360436 0.07393123 -0.043641552 -0.059474826 -0.045400072 0.026983049
-0.04000631 -0.059282474 -0.009939093 0.029779075 0.031109214 -0.05898242 -0.01885094 -0.015917674
-0.05750728 0.040823285 0.014476959 0.050585605 0.066170536 -0.024650248 -0.031938747 -0.043167997
-0.019873157 -0.019412367 -0.00278428 0.0071233483 0.017725162 0.0008933077 0.019777646 0.030639218
0.028437365 -0.044090897 0.035076912 -0.011948434 -0.00051751983 0.027374947 -0.005260877 0.031390633
-0.019209903 0.036181454 0.013505452 -0.042993996 0.040753163 0.02259322 0.079284444 0.014817929
-0.04082831 0.015235385 0.03816927 -0.040674023 0.018440926 -0.029639926 0.06784068 -0.045945633
-0.031925004 -0.048437607 -0.041019004 -0.026789248 -0.043630727 0.045116745 0.037718967 0.034170225
0.09375271 0.013465582 -0.06954998 0.044218004 0.030038966 0.03497934 -0.019106949 -0.0053154593
-0.018733365 -0.0062625487 -0.022310872 -0.0054861363 -0.045634676 -0.029735731 -0.023501055 -0.005613058
0.04736651 -0.092556566 -0.084530815 -0.020958701 -0.008588021 -0.01427878 0.004225499 -0.026235461
00000000: 3982 cd3c eaf4 073d 698a 1e3d 9ad0 573d
00000010: 2457 4ebd e09f dbbc da82 213c e10e 65bd
00000020: 26d6 7ebd 86bd b6bc 19f0 43bd 3727 2ebd
00000030: 8721 84bb 71f5 753c 23e3 333c 224a f2ba
00000040: f719 993d c013 cebc bea6 b2b9 dcae a6bc
00000050: ee6f 1f38 8ce8 653d 29c3 93bd 8305 f83c
00000060: b1e6 043d 3e06 5a3d 8df7 fdbb f869 ae3c
00000070: d371 25bd 8cbe 4fbd 3053 07bd fdfa da3c
00000080: ed8b 0e3b 422e 3ebc 8b0c 6e3c ff09 393b
00000090: b579 6bbd 93c5 a1bd fdb7 33bd 697d 14bd
000000a0: c174 71bc 2cd8 06bd 7768 573c 5885 04bd
000000b0: e912 353d edfc f3ba e5f7 353d 1d84 2c3c
000000c0: d7b2 633d ce25 d8bb 1a8e ab3c f3e9 e53c
000000d0: cc69 d6bc fdad 403b 8238 483d 13f9 89bc
000000e0: c30a 69bd b754 e03c 21a9 5abd eb7a a43d
000000f0: 5079 3ebd 0675 acbd 2279 803d 6116 8cbd
00000100: 6439 a0bb adcb 5fbd 45c2 93bd 9186 0dbd
00000110: d764 0d3c 7b7b 4b3d 08ab 7abb 45ef 663c
00000120: 1912 33bd 3893 333d c060 40bd 2cc6 b93c
00000130: 6a74 34bc 6307 5bbd daff 853b cb44 373c
00000140: e337 963c b702 0fbd b6a5 6dbb 4b45 313c
00000150: 5a54 ce3b 53fc 01bd 64ad 2c3d c896 9a3c
00000160: 02d1 1a3d 60ab 03bd 0c3f 63bc ddcb 33bd
00000170: a005 f7bc e686 a33c c37a edbc 15b1 683d
00000180: 0400 183d 0c96 0abd 4fa5 39bd 70e9 7f3d
00000190: b296 473c ab10 21bd aa5f c93b 4d63 c6bc
000001a0: 5295 473d 5dd6 4b3d 28b6 e93b fda1 c83b
000001b0: 18c8 743c d18f fd3c 1e07 87bd 6149 053d
000001c0: acdf cd3c 8f04 c2bc 5354 f3bc db59 74bb
000001d0: 4fa3 edbc 15d9 253d 9e23 5c3d 87c0 6fbd
000001e0: aeaa bfbc a13e 95bb b25f 9ebc 3ac6 5b3d
000001f0: 9821 3dbd 22a9 653d 6ebe 4dbd 7cd4 3f3c
00000200: 2931 3d3d a40a 403c cf63 463d a47d 963d
00000210: 9981 ee3b c4a5 3ebd cc96 543b b8aa f93c
00000220: 6212 7a3d a40a 4bbc 0879 293c 66d4 2ebd
00000230: 73a1 053d 8f7a a9ba 7beb d2bb f57f c5bc
00000240: 4ab8 85bd b3b8 99bd 1614 94bd c15b 3b3d
00000250: 1025 8abc 96b6 953d a46e 243d 1205 233c
00000260: 1907 013d 7fd7 79bd a08d debc 0be0 d3bb
00000270: 772e e03c 2147 08bd 09a7 ae3c 5b66 f6bc
00000280: 5a35 2ebd 7240 e33c c496 4dbd cd9a b6bc
00000290: 5391 88bc c355 be3c 5c2f 2bbd d007 cbbc
000002a0: 0308 873d cc6e eabc 36fa 08bc 4269 973d
000002b0: 7cc1 32bd e09b 73bd 6df5 39bd 8e0b dd3c
000002c0: a8dd 23bd 2ed2 72bd 94d7 22bc 3ff3 f33c
000002d0: c0d8 fe3c 8d97 71bd 496d 9abc c865 82bc
000002e0: c18c 6bbd 5136 273d c430 6d3c da32 4f3d
000002f0: 6b84 873d 51ef c9bc 34d2 02bd edd0 30bd
00000300: 08cd a2bc af06 9fbc 7878 36bb fa6a e93b
00000310: 5c34 913c dd2c 6a3a bb04 a23c 19ff fa3c
00000320: 7af5 e83c a898 34bd cfac 0f3d 5dc3 43bc
00000330: 2baa 07ba 6d41 e03c 6f63 acbb 7793 003d
00000340: 165e 9dbc 0133 143d f945 5d3c 791a 30bd
00000350: caec 263d 6b15 b93c e25f a23d e6c6 723c
00000360: 963b 27bd d69d 793c 6157 1c3d ce99 26bd
00000370: 6d11 973c 6ecf f2bc 0ef0 8a3d 7d31 3cbd
00000380: cbc3 02bd 8366 46bd 8b03 28bd 2075 dbbc
00000390: 22b6 32bd 56cc 383d 347f 1a3d 14f6 0b3d
000003a0: 6c01 c03d bf9e 5c3c 3870 8ebd f01d 353d
000003b0: 4714 f63c 7f46 0f3d 2d86 9cbc 4e2d aebb
000003c0: b776 99bc 1136 cdbb 4ac5 b6bc 0cc5 b3bb
000003d0: 6deb 3abd 5998 f3bc 4985 c0bc beed b7bb
000003e0: 6303 423d 4c8e bdbd 7e1e adbd 95b1 abbc
000003f0: c5b4 0cbc 8bf1 69bc 0e76 8a3b c0eb d6bc

4.bias f4 [2]
-0.020202504 0.022262573
00000000: b97f a5bc 0060 b63c

exp_avg f4 [256, 4]
-0.0023750497 -0.0005079278 -0.0006680419 0.0002692755 -0.0041480176 -0.0004297373 -0.00016940813 -8.394189e-05
0.0033402625 0.00041498351 8.234923e-05 9.647816e-05 0.010185714 0.0009795646 -3.949062e-05 0.0002630557
0.0039984137 0.00045059188 0.00020248281 0.00012637992 -0.004462676 -0.00021529812 0.00070427207 -0.00044343408
0.0034517494 0.00038072292 0.0001955184 0.00010889142 -0.004287246 -0.00089470146 -0.0016333635 0.0005486921
0.045258198 0.0080761295 0.007999632 -0.0017620404 -0.002098477 -5.6764544e-05 -0.00014295962 -0.00010558491
-0.029064484 -0.005138964 -0.0046767583 0.0016743491 -0.0048061684 0.00013020371 -0.00039196637 -0.0003948009
0.019040914 0.004233832 0.005956787 -0.0008019629 -0.0074321614 0.0010673715 0.0028377878 -0.0012302856
0.00023160283 1.0377465e-05 1.6008586e-05 1.5650554e-05 0.006279974 0.0006692128 0.00023648827 0.00013945057
-0.012213506 -0.00037224457 -3.8077826e-05 -0.00037265616 -0.00084847794 -0.0014507137 -0.0027301435 0.00062563084
-0.0008599763 -0.00016116744 -1.5467918e-05 1.0525033e-05 -0.00092306477 -0.000115646704 -5.6392753e-05 -2.3592162e-05
0.0006088938 0.00011969747 3.1922525e-06 -8.546859e-06 -0.0016801506 -0.00014467275 2.6492138e-05 -9.841782e-05
-0.0026549608 -0.00014708702 -6.1509876e-05 -0.00011341873 0.047429584 0.0065104035 0.0059527606 -0.00071465503
-0.00047529832 -6.416013e-05 -4.455176e-05 -9.844493e-06 -0.0025101472 -0.00024252215 -8.707295e-05 -7.888976e-05
-0.035221606 -0.0022863424 -0.00024934212 -0.00085049716 0.0072440845 0.0007495349 1.1311526e-05 0.00027277082
-0.0025053248 -0.00023750594 -0.00010083052 -9.651567e-05 -9.1784845e-05 -1.3103598e-06 -2.267171e-05 -1.06867865e-05
0.008468229 0.0045535457 0.0046051857 -0.0011337945 -5.3140273e-05 -2.2364055e-05 -3.2558814e-06 1.7848444e-06
-0.050107554 -0.008169023 -0.008649885 0.00115484 -0.039730992 -0.002334731 0.00028954516 -0.0012211556
0.042121854 0.002953778 3.6488465e-05 0.0010340089 -0.00017565554 -7.19801e-06 -2.8091774e-05 -9.242222e-06
0.014894933 0.0011162116 -5.0137813e-05 0.00046471675 0.0022633113 0.00033242107 1.5723615e-05 2.2300844e-06
-0.000447236 -5.9300834e-05 -2.3383134e-05 -8.6694545e-06 0.0067444784 0.0011250863 0.0010688327 -0.00035383226
-0.017646998 -0.0009802857 0.00032726742 -0.00068991253 -0.00012439364 -1.1318261e-05 -1.3684052e-05 -5.1051297e-06
-0.06290057 -0.008379652 -0.0068105445 0.00060212443 -0.0019232698 -0.0015378363 -0.003279732 0.0010483401
-0.0016023832 0.0016215716 0.002841399 -0.0010137238 -0.00084375683 -0.00013260762 -5.963927e-05 -1.6421023e-05
0.003479438 -0.00025160253 -0.00069360767 0.00027112398 -0.02570183 -0.005680123 -0.0065847132 0.0015560732
-0.0027471094 -0.00016671607 -6.880335e-05 -8.197291e-05 0.0027142416 0.00026920318 0.00015537233 0.000118793396
-0.0050817025 -5.095749e-06 -0.0004189832 -0.00036629676 -0.008341336 -0.000768996 6.4873486e-05 -5.764142e-05
-0.10966741 -0.01652808 -0.0139334705 0.0018923652 -4.634119e-06 1.153647e-05 -1.4674132e-05 -7.315617e-06
0.019839494 0.002506294 0.0015956786 -0.0004833978 0.061899256 0.009148857 0.008370487 -0.00059325417
-0.0012732982 -0.00016680965 -6.489893e-05 -1.9624915e-05 -0.00032270578 -3.0680152e-05 -3.0603296e-05 -1.8630551e-05
0.0030700143 0.00031665878 9.922137e-05 5.6361743e-05 0.0009042453 6.3849504e-05 5.5431843e-05 5.7443965e-05
-0.00045709452 -7.0945665e-05 -3.6969115e-05 -1.7448736e-05 0.059758823 0.007882095 0.0065963133 -0.00057651056
0.0001895221 3.0848598e-05 3.4192828e-05 1.1876568e-05 -7.6552125e-05 8.933345e-07 -2.753678e-05 -1.4160471e-05
00000000: b9a6 1bbb 7526 05ba 881f 2fba 8c2d 8d39
00000010: 18ec 87bb 5d4e e1b9 26a3 31b9 f609 b0b8
00000020: 4ee8 5a3b 2592 d939 e8b2 ac38 5154 ca38
00000030: fbe1 263c bc64 803a bba2 25b8 bdea 8939
00000040: 2005 833b 6b3d ec39 9151 5439 da84 0439
00000050: a43b 92bb a6c1 61b9 e69e 383a b77c e8b9
00000060: bf36 623b c49b c739 1204 4d39 a35c e438
00000070: 077c 8cbb 668a 6aba 9616 d6ba 1bd6 0f3a
00000080: a960 393d be51 043c e310 033c 44f4 e6ba
00000090: 9a86 09bb 7716 6eb8 6ee7 15b9 786d ddb8
000000a0: a418 eebc c164 a8bb 7e3f 99bb d575 db3a
000000b0: 107d 9dbb 4b87 0839 d680 cdb9 48fd ceb9
000000c0: b1fb 9b3c f5bb 8a3b 2731 c33b d23a 52ba
000000d0: 7d89 f3bb 0be7 8b3a 2efa 393b 8941 a1ba
000000e0: 69da 7239 df1a 2e37 2d4a 8637 4f49 8337
000000f0: 3dc8 cd3b 1c6e 2f3a d6f9 7739 7a39 1239
00000100: 281b 48bc d229 c3b9 c1b5 1fb8 1061 c3b9
00000110: 646c 5eba e025 beba 35ec 32bb 6001 243a
00000120: 0870 61ba 0eff 28b9 1ac1 81b7 ac94 3037
00000130: d4f9 71ba 5a87 f2b8 4287 6cb8 c8e7 c5b7
00000140: 2c9e 1f3a 1706 fb38 7b3a 5636 7b64 0fb7
00000150: 8038 dcba 4cb3 17b9 6f3b de37 aa65 ceb8
00000160: dafe 2dbb 5f3b 1ab9 ddfe 80b8 38db edb8
00000170: 8645 423d 3955 d53b 600f c33b b057 3bba
00000180: 7631 f9b9 b58d 86b8 17dd 3ab8 c729 25b7
00000190: 4881 24bb 8b4d 7eb9 ef9a b6b8 9e71 a5b8
000001a0: 8844 10bd 76d6 15bb 22ba 82b9 e6f3 5eba
000001b0: c95f ed3b 707c 443a a2c6 3d37 ae02 8f39
000001c0: 6030 24bb 040b 79b9 f974 d3b8 7568 cab8
000001d0: 9d7c c0b8 9fdf afb5 202f beb7 664b 33b7
000001e0: 54be 0a3c e935 953b 19e7 963b d59b 94ba
000001f0: efe2 5eb8 719a bbb7 9e7f 5ab6 c98e ef35
00000200: 943d 4dbd 5ed7 05bc 3fb8 0dbc 005e 973a
00000210: f7bc 22bd 4902 19bb 18ce 9739 2f0f a0ba
00000220: f787 2c3d 2c94 413b 310b 1938 9587 873a
00000230: 2d30 38b9 6f86 f1b6 a0a6 ebb7 0b0f 1bb7
00000240: e109 743c d94d 923a 114b 52b8 3aa5 f339
00000250: 1054 143b cd48 ae39 35e6 8337 8fa8 1536
00000260: 007b eab9 c9b9 78b8 e626 c4b7 0673 11b7
00000270: c900 dd3b a277 933a 1318 8c3a 9082 b9b9
00000280: 7090 90bc ee7c 80ba 1795 ab39 3fdb 34ba
00000290: aa6f 02b9 90e3 3db7 8e94 65b7 bb4c abb6
000002a0: 04d2 80bd cf4a 09bc fd2a dfbb e3d7 1d3a
000002b0: 3a16 fcba 3991 c9ba c6f0 56bb 7568 893a
000002c0: 0f07 d2ba ea8a d43a c436 3a3b edde 84ba
000002d0: 902f 5dba 960c 0bb9 2e25 7ab8 e1bf 89b7
000002e0: 4807 643b 85e9 83b9 39d3 35ba a525 8e39
000002f0: a58c d2bc 5320 babb 94c4 d7bb 27f5 cb3a
00000300: d908 34bb 81d0 2eb9 844a 90b8 dfe8 abb8
00000310: 6be1 313b d723 8d39 71eb 2239 b820 f938
00000320: 6984 a6bb 27fc aab6 f9aa dbb9 850b c0b9
00000330: 19aa 08bc 7396 49ba b00c 8838 01c4 71b8
00000340: 4f99 e0bd e565 87bc 3649 64bc 3d09 f83a
00000350: c77e 9bb6 c38c 4137 eb30 76b7 ac78 f5b6
00000360: 6f86 a23c a340 243b 1726 d13a 8e70 fdb9
00000370: 138a 7d3d 16e5 153c 5e24 093c 9d84 1bba
00000380: cce4 a6ba a0e9 2eb9 591a 88b8 2fa0 a4b7
00000390: d630 a9b9 90ae 00b8 0a5c 00b8 ce48 9cb7
000003a0: 4b32 493b 3905 a639 1115 d038 f665 6c38
000003b0: e00a 6d3a f1e6 8538 7d7f 6838 fdef 7038
000003c0: 30a6 efb9 aac8 94b8 490f 1bb8 e05e 92b7
000003d0: abc5 743d e723 013c e325 d83b f820 17ba
000003e0: 74ba 4639 6e63 0138 456a 0f38 7941 4737
000003f0: 9c8a a0b8 7bcd 6f35 c9fe e6b7 c392 6db7

exp_avg_sq f4 [256, 4]
0.00013547103 2.0516938e-05 1.1166218e-05 3.0132635e-06 0.00010728621 7.2117828e-06 9.287589e-06 2.4579529e-06
0.00022951508 3.3069617e-05 1.5352487e-05 4.414314e-06 0.00019106375 1.44388905e-05 9.100511e-06 2.749055e-06
0.00015085199 1.2994301e-05 1.3693615e-05 4.016939e-06 0.00033918125 2.8405502e-05 1.596453e-05 6.6187126e-06
0.00012226618 1.2882127e-05 8.720994e-06 2.796271e-06 0.0005396977 3.726235e-05 2.7179522e-05 9.064503e-06
0.0025483847 0.00012246346 0.0001097744 3.4379344e-05 0.0002551531 3.4513454e-05 2.3882052e-05 8.891622e-06
0.0004366238 2.3493096e-05 1.753562e-05 3.190326e-06 0.000321 1.6855462e-05 1.8451474e-05 5.6045606e-06
0.0021096624 5.6490222e-05 6.3124346e-05 2.0495538e-05 0.0017209146 9.034861e-05 6.191981e-05 1.8461873e-05
2.9682215e-06 5.30817e-07 9.903408e-07 4.2131038e-07 0.00017390373 1.1228841e-05 1.3646281e-05 2.832949e-06
0.0006706616 2.9932948e-05 3.508769e-05 1.06325515e-05 0.00052563444 3.5734167e-05 2.3639988e-05 8.950732e-06
1.0773372e-05 1.3801143e-06 1.1204563e-06 3.6654e-07 1.9310472e-05 2.3292318e-06 2.0998937e-06 5.020556e-07
1.28758875e-05 2.8049556e-06 1.3862243e-06 4.83076e-07 0.000111003545 8.324233e-06 5.6760678e-06 1.1576577e-06
3.9149985e-05 1.1279514e-06 2.5732172e-06 7.2110697e-07 0.00051467295 3.6151127e-05 2.294291e-05 6.4846527e-06
7.273154e-05 2.2498196e-05 1.0072136e-05 3.6657946e-06 7.330755e-05 3.828e-06 6.0535845e-06 1.353393e-06
0.0008345449 2.0142406e-05 2.7861239e-05 7.0456813e-06 0.00021484551 3.3826956e-05 1.5388425e-05 4.952792e-06
8.053838e-05 4.256542e-06 7.948127e-06 2.5180618e-06 2.3807517e-05 3.1706113e-06 2.6405019e-06 1.2002599e-06
0.0022941947 0.00014790562 0.00011690647 3.916337e-05 5.7278007e-06 1.5301945e-06 1.4062996e-06 6.231506e-07
0.0018618981 8.114666e-05 6.938059e-05 2.3082872e-05 0.00097447797 1.942246e-05 3.823217e-05 1.3277963e-05
0.0012025455 3.976265e-05 3.7385842e-05 1.0038524e-05 5.2965148e-05 1.1456277e-05 4.8726865e-06 2.619382e-06
0.0004772369 2.637547e-05 2.4270685e-05 6.0686443e-06 1.3584665e-05 1.6991664e-06 1.2845151e-06 5.0915844e-07
1.2592475e-05 1.2861927e-06 1.7666677e-06 4.6258407e-07 0.00015972737 1.4814196e-05 9.50569e-06 2.1859744e-06
0.0004430281 1.438435e-05 2.2464676e-05 6.2998e-06 8.545004e-06 3.2514654e-06 1.3280242e-06 7.18224e-07
0.0003671873 1.4483784e-05 1.2364473e-05 3.80312e-06 0.0007693078 3.7460573e-05 1.9601202e-05 7.4136638e-06
0.0013502872 7.023518e-05 5.0498118e-05 1.565314e-05 2.8951554e-05 3.3938002e-06 3.8041171e-06 8.4497844e-07
0.00022973541 1.4363227e-05 1.1845295e-05 3.2354021e-06 0.0026220572 0.0001426863 0.00012316319 3.8236372e-05
0.00029381865 3.869487e-05 2.3975661e-05 8.627771e-06 0.00013917215 1.5138219e-05 1.0143017e-05 2.838159e-06
0.00050080736 4.7167054e-05 3.8360984e-05 1.2417211e-05 8.867762e-05 2.4693416e-06 3.6291003e-06 7.072281e-07
0.004055452 0.00013590403 9.0858644e-05 2.4884346e-05 1.910492e-05 6.8687596e-06 3.6871322e-06 1.2539825e-06
7.4859854e-05 2.8511895e-06 4.24581e-06 8.2887067e-07 0.0012664457 5.5631936e-05 4.343361e-05 1.5906926e-05
3.3678647e-05 3.4610453e-06 3.8575254e-06 8.366793e-07 1.9948186e-05 6.4531773e-06 2.9996e-06 1.4836313e-06
5.5640998e-05 3.5603152e-06 4.1740705e-06 9.856126e-07 1.812517e-05 2.5369773e-06 3.242904e-06 7.87288e-07
2.050151e-05 6.959828e-06 3.0050574e-06 1.3253157e-06 0.0009627443 4.1260057e-05 2.7790684e-05 7.80279e-06
6.442298e-05 2.2114833e-05 1.0185809e-05 3.6754911e-06 3.1035976e-05 4.6785995e-06 3.740585e-06 1.38849e-06
00000000: 3a0d 0e39 ca1b ac37 8b56 3b37 7937 4a36
00000010: d8fe e038 befc f136 e4d1 1b37 4ff3 2436
00000020: fca9 7039 3bb4 0a38 37c9 8037 ab1e 9436
00000030: 4958 4839 903e 7237 66ae 1837 687c 3836
00000040: 062e 1e39 1902 5a37 a1bd 6537 3ec9 8636
00000050: 23d4 b139 5a48 ee37 91eb 8537 4f16 de36
00000060: 9434 0039 5020 5837 6250 1237 92a7 3b36
00000070: 807a 0d3a 254a 1c38 94ff e337 be13 1837
00000080: cd02 273b 8969 0039 af36 e638 8a32 1038
00000090: 12c6 8539 8ac2 1038 5156 c837 3a2d 1537
000000a0: a8ea e439 0a13 c537 7519 9337 6219 5636
000000b0: e44b a839 d464 8d37 3dc8 9a37 cf0e bc36
000000c0: 4342 0a3b eaef 6c38 a061 8438 d5ed ab37
000000d0: 5090 e13a 8a79 bd38 f2da 8138 92de 9a37
000000e0: a831 4736 777d 0e35 daeb 8435 7530 e234
000000f0: ed59 3639 8163 3c37 55f2 6437 b11d 3e36
00000100: 57cf 2f3a 8418 fb37 1f2b 1338 7662 3237
00000110: bbca 093a 45e1 1538 7d4e c637 1a2b 1637
00000120: 48bf 3437 5e3c b935 9662 9635 e0c8 c434
00000130: ecfc a137 e64f 1c36 e6eb 0c36 00c5 0635
00000140: 8405 5837 c53c 3c36 4e0e ba35 bbac 0135
00000150: 93ca e838 4fa8 0b37 0d75 be36 d160 9b35
00000160: fa34 2438 1d64 9735 89af 2c36 1892 4135
00000170: 1eeb 063a faa0 1738 8675 c037 be96 d936
00000180: 7387 9838 82ba bc37 7ffb 2837 df01 7636
00000190: b1bc 9938 4572 8036 e51f cb36 3ba6 b535
000001a0: 5cc5 5a3a 7df7 a837 8eb7 e937 f169 ec36
000001b0: 2748 6139 6be1 0d38 6416 8137 2930 a636
000001c0: b7e6 a838 6bd3 8e36 f258 0537 f9fb 2836
000001d0: 41b6 c737 b0c6 5436 7a33 3136 9e18 a135
000001e0: 335a 163b 1d17 1b39 af2b f538 5943 2438
000001f0: 6f31 c036 1561 cd35 16c0 bc35 9546 2735
00000200: ef0a f43a 482d aa38 6c80 9138 17a2 c137
00000210: 1c74 7f3a 6aed a237 7b5b 2038 6bc4 5e37
00000220: bb9e 9d3a d2c6 2638 bece 1c38 226b 2837
00000230: e526 5e38 5634 4037 0f80 a336 a4c8 2f36
00000240: a735 fa39 e440 dd37 e698 cb37 42a1 cb36
00000250: b1e9 6337 ea0e e435 9a67 ac35 1aad 0835
00000260: 4544 5337 3fa1 ac35 3d1e ed35 1259 f834
00000270: 7d7c 2739 7d8a 7837 a17a 1f37 c1b2 1236
00000280: 3a46 e839 5054 7137 8672 bc37 df62 d336
00000290: 835c 0f37 c033 5a36 903e b235 facb 4035
000002a0: 0c83 c039 61ff 7237 0271 4f37 1b39 7f36
000002b0: 5fab 493a fc1e 1d38 436d a437 e3c2 f836
000002c0: 1ffc b03a 3a4b 9338 f1cd 5338 dd4e 8337
000002d0: fddc f237 0bc1 6336 3c4a 7f36 7ad2 6235
000002e0: 21e5 7039 97f9 7037 28bb 4637 c91f 5936
000002f0: d2d6 2b3b 109e 1539 5e25 0139 fe5f 2038
00000300: ac0b 9a39 4d4c 2238 571f c937 ffbf 1037
00000310: bdee 1139 28fa 7d37 ed2b 2a37 3377 3e36
00000320: 9d48 033a 3dd5 4538 cbe5 2038 8453 5037
00000330: 6ff8 b938 f7b6 2536 788b 7336 58d8 3d35
00000340: 99e3 843b 7681 0e39 5d8b be38 babe d037
00000350: 8143 a037 327a e636 7370 7736 834e a835
00000360: 14fe 9c38 1057 3f36 3b77 8e36 8f7f 5e35
00000370: defe a53a 5656 6938 7c2c 3638 dd6f 8537
00000380: 2c42 0d38 4e44 6836 e46f 8136 2a98 6035
00000390: 6756 a737 5f88 d836 bc4c 4936 2f21 c735
000003a0: 1160 6938 c0ed 6e36 fe0e 8c36 6449 8435
000003b0: 820b 9837 f040 2a36 aba0 5936 0556 5335
000003c0: a8fa ab37 7888 e936 7eaa 4936 80e1 b135
000003d0: ad60 7c3a a60e 2d38 0a20 e937 bae8 0237
000003e0: d31a 8738 3e83 b937 b7e3 2a37 75a8 7636
000003f0: a02c 0238 ddfc 9c36 c306 7b36 275c ba35
