distributed_shared/worker_logs/worker_2/models/model_episode_20.pt (torch, 816842 bytes, 16 tensors)

0.weight f4 [256, 4]
0	0xbeebbcab	-0.4604238
1	0xbe2363a8	-0.15955985
2	0x3d4b9180	0.049699306
3	0x3cb5b149	0.022179263
4	0xbefca032	-0.4934097
5	0x3e9ad928	0.30243802
6	0x3db6d49b	0.0892727
7	0x3ee762ed	0.45192662
8	0xbeaad143	-0.3336278
9	0xbe6f44b0	-0.23366046
10	0x3e8f3d05	0.27976242
11	0x3ecd5741	0.40105632
12	0xbe5ffdf7	-0.21874224
13	0xbe624e3a	-0.22100154
14	0x3dbd99fc	0.09257886
15	0x3ece983d	0.40350524
16	0xbdee225e	-0.11627649
17	0xbef15e8d	-0.4714245
18	0x3f0eb838	0.55749846
19	0x3d8c0f5b	0.06838866
20	0x3eff83d6	0.4990527
21	0x3ed77a87	0.42085668
22	0xbea9298c	-0.3303951
23	0x3dfc8af8	0.12331194
24	0x3ec544a9	0.38528946
25	0xbe834411	-0.25637868
26	0x3e1ca8dd	0.15298791
27	0xbe15c393	-0.14625387
28	0x3d8e3e4d	0.06945477
29	0x3ede6be9	0.43441704
30	0x3d56de0a	0.052457847
31	0xbee3df49	-0.4450629
32	0xbeba7cdf	-0.36423394
33	0xbb2005cd	-0.002441752
34	0xbde8d41c	-0.11368582
35	0xbe774a4c	-0.24149436
36	0x3e0e5d9e	0.139029
37	0xbea2dcc3	-0.31809053
38	0xbed8f2fe	-0.42372888
39	0x3d003f91	0.03131062
40	0x3ecc46a8	0.39897656
41	0xbde1aafe	-0.11018942
42	0x3ee084d9	0.43851355
43	0xbe3c5743	-0.18392663
44	0x3ea5e957	0.32404587
45	0x3e28cce8	0.16484416
46	0xbe634142	-0.22192863
47	0x3e9768ce	0.29572147
48	0x3e31b6a9	0.17354836
49	0x3e8f8d1b	0.28037342
50	0xbedfe9e5	-0.43733135
51	0x3e80df06	0.25170153
52	0x3ea037b9	0.31292513
53	0xbd9c83c7	-0.07642322
54	0x3edb7612	0.42863518
55	0x3da832bc	0.08212802
56	0xbc5bb9f1	-0.013411031
57	0xbd117255	-0.035509426
58	0xbecf7d61	-0.40525344
59	0x3d51a0d2	0.05117876
60	0x3ec047b5	0.37554708
61	0xbe8cb817	-0.274842
62	0x3ee86651	0.4539056
63	0xbeebf284	-0.46083462
64	0xbd51d0bd	-0.05122446
65	0x3e8d7b90	0.27633333
66	0xbed1ddcc	-0.4098953
67	0xbe42ffbc	-0.19042867
68	0x3cb17a73	0.021664834
69	0x3ded7c5d	0.11595986
70	0xbedd8d49	-0.43271855
71	0xbe383f8f	-0.17992996
72	0xbee98a91	-0.4561353
73	0x3e3832e4	0.17988163
74	0xbee4980d	-0.44647256
75	0xbeac5e37	-0.3366563
76	0x3e9f3a03	0.31098947
77	0xbe9a939d	-0.30190745
78	0x3eb43fbd	0.35204878
79	0xbec6d09b	-0.38831028
80	0xbee4e805	-0.44708267
81	0xbed4f0b7	-0.415899
82	0x3e8fa52f	0.28055713
83	0x3e09b8f5	0.13449462
84	0xbe77f710	-0.2421534
85	0xbd56d7ab	-0.05245177
86	0x3e6907ac	0.22756833
87	0x3dc3f92f	0.095690124
88	0x3edfd5a8	0.43717694
89	0xbe375596	-0.17903742
90	0x3ee34bf2	0.4439388
91	0xbd9d9f29	-0.07696373
92	0x3e7b19fd	0.24521632
93	0x3e59d180	0.21271324
94	0x3f001526	0.5003227
95	0xbe5bd5af	-0.21468233
96	0x3ebb76e1	0.36614135
97	0x3e9e72db	0.30947003
98	0x3e779126	0.24176463
99	0xbe8a23d0	-0.26980448
100	0xbebd66df	-0.36992547
101	0xbe9a798e	-0.30170864
102	0x3e5249a4	0.20535904
103	0x3ee1350a	0.43985778
104	0x3e48455e	0.19557711
105	0x3ee4ce91	0.44688848
106	0x3f007b47	0.50188106
107	0x3ef3705a	0.47546655
108	0xbe7b88d9	-0.24563922
109	0xbc1289ba	-0.008943969
110	0xbec7dfe7	-0.3903801
111	0xbe5f8040	-0.21826267
112	0xbebb7088	-0.36609292
113	0xbeee7ece	-0.4658112
114	0x3be1a344	0.006885918
115	0xbd6e7f1d	-0.058226693
116	0xbab1a1ec	-0.0013552285
117	0xbee148cf	-0.4400086
118	0xbeb0f840	-0.345644
119	0xbe3d2f8c	-0.18475169
120	0xbd8979a6	-0.06712656
121	0xbd346218	-0.044038862
122	0xbecdf313	-0.40224513
123	0x3ec5a238	0.38600326
124	0xbec67254	-0.387591
125	0x3ee9d7ff	0.45672604
126	0x3e1d467f	0.15358923
127	0xbe0925fd	-0.13393398
128	0x3ef26cc4	0.47348607
129	0x3ca2b56e	0.019861903
130	0xbd04acf4	-0.032391503
131	0x3e707aca	0.2348434
132	0xbeb554ad	-0.35416165
133	0xbe18d396	-0.14924464
134	0xbea447d8	-0.32086062
135	0x3e5501ec	0.20801514
136	0x3d4e1760	0.05031526
137	0x3eeb7088	0.45984292
138	0xbe9d4dec	-0.30723512
139	0xbedc5b3b	-0.43038353
140	0xbee8ede8	-0.45494008
141	0xbca2022e	-0.01977643
142	0x3e758c47	0.23979293
143	0x3ea3c9c8	0.31989884
144	0x3e3b8f21	0.18316318
145	0xbcb1e942	-0.021717671
146	0xbe5d213c	-0.21594709
147	0xbdeec555	-0.11658732
148	0x3e94df51	0.29076627
149	0xbe9320fd	-0.28736106
150	0xbebc00cd	-0.3671936
151	0xbe41aa3c	-0.18912596
152	0x3e1fd83c	0.1560983
153	0xbeb4ddb4	-0.35325396
154	0xbdca4698	-0.09876746
155	0x3ea54d27	0.32285425
156	0x3ecdf08e	0.4022259
157	0x3e75d446	0.24006757
158	0x3de0ee89	0.10982997
159	0x3dcce531	0.10004652
160	0x3eb6eca2	0.35727412
161	0x3ed0120f	0.40638778
162	0x3ee9bff0	0.4565425
163	0xbec440d1	-0.383307
164	0xbbf59b84	-0.0074953455
165	0xbed55ad9	-0.41670874
166	0xbe1bb178	-0.15204418
167	0xbeabe103	-0.33570108
168	0x3cbbfc3b	0.022947421
169	0x3e3a0d84	0.18169218
170	0x3eee0766	0.4649002
171	0x3ea31f69	0.31859902
172	0x3ed0c383	0.40774164
173	0xbd20d02e	-0.039261036
174	0xbea25c00	-0.31710815
175	0x3c48e506	0.012261635
176	0x3cc3e85c	0.023914509
177	0x3ebfce64	0.3746215
178	0xbebf9be5	-0.37423626
179	0xbee4e75d	-0.44707766
180	0xbe029132	-0.127507
181	0x3e8eedf4	0.2791592
182	0xbe5a2f8e	-0.21307203
183	0x3dede794	0.11616436
184	0xbd53d95e	-0.05172097
185	0x3ecff76f	0.40618464
186	0x3e6676e9	0.22506298
187	0xbee53163	-0.44764242
188	0x3eab79f3	0.33491477
189	0xbe2b82bc	-0.1674909
190	0x3e5b25d1	0.21401145
191	0xbe7b9a2c	-0.2457053
192	0xbeeb7a8e	-0.4599194
193	0xbd3236fa	-0.04350946
194	0x3e053e4e	0.13012049
195	0xbda223f3	-0.07917013
196	0xbd932181	-0.07184125
197	0xbeb85afc	-0.36006916
198	0xbe9d213f	-0.30689427
199	0xbd7984c1	-0.06091762
200	0x3dea6468	0.11444932
201	0x3e8fc3cd	0.28079072
202	0x3e84797a	0.2587393
203	0x3ef30b35	0.47469488
204	0x3ee2942b	0.44253668
205	0x3e83d502	0.2574845
206	0xbf0bb511	-0.5457316
207	0xbe37975c	-0.17928833
208	0x3e713c8c	0.23558253
209	0xbb858a36	-0.004075314
210	0xbed0e075	-0.40796247
211	0xbdc79b72	-0.09746446
212	0xbd8a1aab	-0.06743368
213	0xbd87409e	-0.066041216
214	0xbe805ac3	-0.25069246
215	0xbcced330	-0.025247186
216	0xbe6a6e63	-0.22893672
217	0x3dba0f14	0.09084907
218	0x3e5aa48b	0.2135183
219	0x3ee5844f	0.44827506
220	0x3d833e88	0.06408411
221	0xbe3fe466	-0.18739471
222	0x3f0814f1	0.53156954
223	0x3f0c4d6a	0.54805624
224	0x3e0d849a	0.13820115
225	0xbed60ed3	-0.41808185
226	0xbd5f46a4	-0.054510728
227	0xbed1e7ec	-0.40997255
228	0x3e91fb94	0.2851225
229	0xbe4f568e	-0.20247862
230	0x3ece8d1c	0.40342033
231	0x3e0cb444	0.13740641
232	0x3e9afe70	0.30272245
233	0x3c82a07f	0.015945671
234	0xbe83fdf6	-0.25779694
235	0xbea75809	-0.32684353
236	0x3e496e4e	0.19670984
237	0xbeb83d52	-0.35984284
238	0x3ea1bbb7	0.31588528
239	0x3ef79d89	0.48362377
240	0x3ed277a8	0.41106915
241	0xbeb2d818	-0.3493049
242	0x3e8eb875	0.27875105
243	0xbeb59e0f	-0.35472152
244	0xbe5b85bd	-0.21437736
245	0x3e8590f8	0.26087165
246	0xbf083f85	-0.53221923
247	0xbe8a2355	-0.2698008
248	0x3e85be2c	0.26121652
249	0x3dc1f8ad	0.09471259
250	0x3c3f4899	0.0116750235
251	0x3f032552	0.5122882
252	0xbeba78da	-0.36420327
253	0x3e1620ce	0.14660951
254	0xbdf14203	-0.11780169
255	0x3e7f7d0c	0.24950045

0.bias f4 [256]
0	0x3dd6ecf1	0.10494412
1	0x3d84e709	0.06489379
2	0x3e2e3667	0.1701294
3	0x3e1b0621	0.15139057
4	0x3e41275f	0.18862675
5	0xbe562a1a	-0.20914498
6	0x3de8be5c	0.11364433
7	0xbe76ffad	-0.2412097
8	0xbe2570b4	-0.16156274
9	0x3c35ceb0	0.011096641
10	0xbe60900e	-0.21929953
11	0xbd1923f3	-0.0373878
12	0xbe16bb75	-0.14719947
13	0xbd82083d	-0.063492276
14	0x3deaf1f7	0.114719324
15	0x3caf1229	0.021370964
16	0xbcdac3d4	-0.026704706
17	0x3dd72702	0.10505487
18	0x3e6cc045	0.2312022
19	0x3e63dae4	0.22251469
20	0xbdd87a08	-0.105701506
21	0xbd8aa318	-0.06769389
22	0xbe496fb1	-0.19671513
23	0x3d81fd22	0.063471094
24	0x3dff7cb6	0.124749586
25	0xbe1a2f46	-0.15057096
26	0xbdc643c1	-0.09680892
27	0xbe3af87b	-0.1825885
28	0xbe2629df	-0.1622691
29	0xbe35e673	-0.1776369
30	0xbdef8cfb	-0.11696812
31	0x3ba40dcb	0.005006527
32	0xbe5ad363	-0.213697
33	0xbe4ad480	-0.19807625
34	0x3e10fc2a	0.14158693
35	0x3d0fcd08	0.035107642
36	0xbe033ce5	-0.12816198
37	0x3da9b768	0.08286935
38	0x3e769175	0.24078925
39	0xbe72dd35	-0.23717196
40	0x3e0b9c02	0.13633731
41	0x3de709fe	0.11281203
42	0xbe05f76c	-0.13082665
43	0x3e31636c	0.17323083
44	0xbc24df1e	-0.010062961
45	0xbdde5b64	-0.10857275
46	0x3e439786	0.1910077
47	0x3e43fae9	0.19138683
48	0xbe32749f	-0.174273
49	0xbcf9d67e	-0.030497786
50	0xbc7f354f	-0.015576675
51	0x3e3edd01	0.18638994
52	0xbe0e7a8c	-0.13913935
53	0x3ddb82f1	0.107183345
54	0x3e46bd67	0.19408189
55	0xbe038167	-0.12842332
56	0xbc0c5922	-0.008566173
57	0xbd888710	-0.06666386
58	0x3e5fdd26	0.21861705
59	0xbe350302	-0.17676929
60	0xbdc1b82b	-0.094589554
61	0xbd90fa72	-0.07079019
62	0xbe5d4da1	-0.21611644
63	0x3e2ae894	0.16690284
64	0x3e201c50	0.156358
65	0x3e47a71f	0.19497345
66	0x3e289a6f	0.16465162
67	0x3dc930b6	0.09823744
68	0xbe57f250	-0.21088529
69	0x3e0ea103	0.13928609
70	0xbe27247b	-0.1632251
71	0xbd47dde9	-0.048795614
72	0xbe6577b2	-0.22408941
73	0xbe576b19	-0.21036948
74	0x3d98818e	0.074465856
75	0x3e5f6f3e	0.2181978
76	0x3ddeb20a	0.10873802
77	0xbe302b78	-0.17204082
78	0x3e36acb1	0.17839314
79	0x3cedcf7d	0.029029602
80	0x3e4c6942	0.19962028
81	0x3da17801	0.07884217
82	0xbe6292d4	-0.22126323
83	0xbd2b28de	-0.04178702
84	0xbdf9d49c	-0.12198755
85	0x3e71b3e1	0.23603775
86	0x3e6505e7	0.22365533
87	0xbe3ec947	-0.18631469
88	0xbd147df8	-0.036252946
89	0xbd260b1a	-0.04053793
90	0xbe6a8431	-0.2290199
91	0x3d65930a	0.05604843
92	0xbe053704	-0.13009268
93	0x3d1117df	0.035423156
94	0x3bd4387c	0.00647646
95	0xbd032764	-0.032019988
96	0x3dc4bebf	0.096066944
97	0xbe56bb9d	-0.20970006
98	0x3c0679b9	0.008207732
99	0x3dd9d7e6	0.106368825
100	0xbc98baef	-0.018643824
101	0xbe30a2b3	-0.17249565
102	0xbe54b4ac	-0.20772046
103	0x3e117548	0.14204895
104	0x3e28725d	0.16449876
105	0x3e31a7c6	0.17349157
106	0xbde18dae	-0.110133514
107	0x3d1f1f99	0.038848493
108	0x3e083232	0.13300398
109	0x3cf746fa	0.030185211
110	0x3e7c4149	0.2463428
111	0xbe17afb6	-0.14813122
112	0xbe3259a0	-0.17417002
113	0x3d9877c7	0.07444721
114	0x3da3a22c	0.07989916
115	0xbe4ee18c	-0.20203227
116	0x3df2b4f1	0.11850918
117	0xbe0884a3	-0.13331847
118	0x3dbcbea2	0.09216048
119	0xbe2c2286	-0.16810045
120	0xbd0863f3	-0.033298444
121	0xbe35fbe9	-0.17771877
122	0x3dbc82eb	0.09204658
123	0xbe013c3a	-0.12620631
124	0xbe053222	-0.13007405
125	0x3e4dee77	0.20110498
126	0xbd675fe4	-0.056487933
127	0x3e581586	0.2110196
128	0x3d93067a	0.0717897
129	0xbe4de70f	-0.20107673
130	0xbe77ed5e	-0.24211642
131	0xbd51e538	-0.05124399
132	0x3e4ab3cc	0.1979515
133	0xbe349ca7	-0.17637883
134	0xbe60d79f	-0.21957253
135	0xbe0b657e	-0.13612935
136	0x3e361bbb	0.17784016
137	0x3dac028c	0.08398923
138	0xbdd7d2b0	-0.10538232
139	0x3cf36d3c	0.029715173
140	0xbd0735b7	-0.03301021
141	0x3ca55b57	0.020185156
142	0xbd34ffb4	-0.04418917
143	0xbd93bdae	-0.07213913
144	0xbe453c36	-0.1926125
145	0xbe5bc9e7	-0.21463738
146	0xbe5849c9	-0.21121897
147	0xbe4acf3d	-0.19805618
148	0x3e2068fa	0.15665045
149	0x3e4731fe	0.19452664
150	0x3db4dfa7	0.08831721
151	0x3e1a17c1	0.15048124
152	0xbe0b325b	-0.13593428
153	0xbe30122c	-0.17194432
154	0x3e3b5c85	0.18297012
155	0xbe4d8b6f	-0.20072721
156	0x3e248c79	0.16069211
157	0xbc8d1b41	-0.01722491
158	0x3a636d2c	0.00086756307
159	0xbd73b3cf	-0.05949765
160	0x3e5d7ead	0.21630354
161	0xbe333c81	-0.17503549
162	0xbe3fa79c	-0.18716282
163	0x3e2e2f1e	0.17010161
164	0x3e308c16	0.17240939
165	0x3e5c28a2	0.21499875
166	0x3e3db616	0.18526492
167	0xbe6dfd15	-0.23241074
168	0xbc9f6972	-0.01945946
169	0xbe2d71fb	-0.16938011
170	0x3b5bc6f2	0.0033535329
171	0x3db8ddc3	0.09026673
172	0x3dc099ec	0.09404358
173	0xbe0ffd41	-0.14061452
174	0x3c0d0fc7	0.008609719
175	0xbdc030ca	-0.09384306
176	0xba144759	-0.00056563836
177	0xbdb3438a	-0.087531164
178	0x3e5e1c2a	0.21690431
179	0x3d593d25	0.053036828
180	0xbdf9921f	-0.121860735
181	0x3e13b9ba	0.14426318
182	0xbe593828	-0.21212828
183	0xbdd3d898	-0.10344046
184	0x3d5e908c	0.05433707
185	0x3e16a802	0.14712527
186	0xbd3ad3b7	-0.045612063
187	0xbe2e5296	-0.17023692
188	0xbda53695	-0.08067051
189	0xbe412104	-0.1886025
190	0x3dcf7a6b	0.10130771
191	0xbe2806d9	-0.16408862
192	0x3dfa4515	0.122202076
193	0xbd505903	-0.05086614
194	0xbde29b64	-0.11064795
195	0x3e46973b	0.19393627
196	0xbe33c6d0	-0.1755631
197	0x3dfd7410	0.12375653
198	0x3d1ef62c	0.038808987
199	0x3e5c93e3	0.2154079
200	0xbe45d76f	-0.19320463
201	0x3e559546	0.20857725
202	0x3c2c7e15	0.010528107
203	0xbdb8dd56	-0.090265915
204	0x3d756471	0.05991024
205	0xbe6dc444	-0.232194
206	0x3df02a21	0.117267855
207	0xbd00e771	-0.03147072
208	0x3d80c2f3	0.062871836
209	0x3d80adf0	0.06283176
210	0x3e21484a	0.15750232
211	0xbdf5a294	-0.119939
212	0xbd248c73	-0.040173005
213	0xbe22d8c0	-0.15902996
214	0x3d8cac01	0.06868745
215	0xbdc871e3	-0.09787347
216	0x3dba56cd	0.09098587
217	0xbcc95f71	-0.024581643
218	0x3d32309b	0.043503385
219	0xbe0ed453	-0.13948183
220	0x3de33080	0.11093235
221	0x3e81ee0b	0.25376925
222	0x3d8c1669	0.06840212
223	0x3e527d60	0.2055564
224	0x3e6dcefa	0.23223487
225	0xbdd0033c	-0.10156867
226	0x3c27c392	0.010239499
227	0x3d43150c	0.047627494
228	0xbd08d37a	-0.033404805
229	0x3d9b3c87	0.07579904
230	0xbe2ec33f	-0.17066668
231	0x3d8d4edb	0.06899806
232	0x3e2a0f45	0.16607387
233	0x3d0bedc2	0.03416229
234	0x3e68f5e3	0.22750048
235	0x3d67c039	0.056579802
236	0xbe6f2c4a	-0.23356739
237	0x3d6d20ef	0.057892736
238	0x3d108693	0.03528459
239	0x3de0c2fe	0.10974692
240	0x3dece3fd	0.11566923
241	0x3e487082	0.19574168
242	0x3d272650	0.040808022
243	0xbe821f8d	-0.25414696
244	0xbda60f10	-0.08108342
245	0xbe302a87	-0.17203723
246	0x3e499df5	0.19689162
247	0x3df2fc0f	0.118644826
248	0xbcfd7ac9	-0.030942338
249	0xbe52349b	-0.2052788
250	0xbd723209	-0.05912975
251	0x3e2e0876	0.16995415
252	0xbcb0a42e	-0.021562662
253	0xbe186d29	-0.14885391
254	0x3df35492	0.11881365
255	0xbcd0f333	-0.025506591

2.weight f4 [256, 256]
0	0x3d373018	0.0447236
1	0x3d6c0724	0.057623997
2	0x3d31adc9	0.043378625
3	0xbc4d8af7	-0.012545339
4	0xbc2b909a	-0.010471487
5	0xbd36ca89	-0.044626746
6	0x3d40f3a6	0.04710736
7	0x3d2e8f85	0.04261734
8	0xbb35fb1c	-0.002776808
9	0xbc38e3fa	-0.011284823
10	0xbceb3e5e	-0.028716262
11	0x3d394b2d	0.04523771
12	0xbd462288	-0.048372775
13	0x3d617edb	0.05505262
14	0xbd4e873a	-0.05042193
15	0xbd268e04	-0.04066278
16	0xbd3a3f4b	-0.045470517
17	0x3d3b029c	0.045656785
18	0x3a9c9573	0.0011946395
19	0x3ce6b6c8	0.028163329
20	0x3d1fa5da	0.038976528
21	0x3be80ef0	0.007081859
22	0xbb6c27d5	-0.0036034484
23	0xbce1856d	-0.027529443
24	0x3ca44bc2	0.020055655
25	0x3d1ec2fc	0.03876017
26	0x3ce64ab9	0.028111802
27	0x3aad3d18	0.001321706
28	0x3be5ff26	0.0070189415
29	0xbd96313e	-0.07333611
30	0x3d5948b1	0.05304784
31	0xb9a60c7a	-0.00031671283
32	0x3d251354	0.040301636
33	0xbd1a54d2	-0.037678547
34	0xbc52df87	-0.012870676
35	0xbd77b9e6	-0.06048002
36	0x3d07376e	0.033011846
37	0x3d7d1124	0.061783925
38	0x3d3338b5	0.043755252
39	0x3d422b4e	0.04740458
40	0x3c5c28d6	0.01343747
41	0x3ce34b32	0.027745817
42	0x3d0c87c5	0.034309167
43	0x3d70fd25	0.058835167
44	0xbd6c1078	-0.057632893
45	0xbcf67827	-0.03008659
46	0x3c99d36d	0.018777573
47	0xbd0ee717	-0.034888353
48	0x3c6243ae	0.013810081
49	0xbd106769	-0.03525487
50	0xbc08f7c4	-0.008359853
51	0x3cf05d76	0.02934144
52	0xbcafe509	-0.021471517
53	0x3c6dc7ae	0.014512939
54	0xbd57df21	-0.052703027
55	0x3d0e011f	0.034669038
56	0xbd82a43c	-0.063789815
57	0x3cc0d981	0.023541214
58	0x3d8df2be	0.06931065
59	0x3d3075d5	0.043081123
60	0xbd8c0b1c	-0.068380564
61	0xbc9dbd71	-0.019255372
62	0x3c729196	0.014805218
63	0xbd9084ea	-0.07056601
64	0xbd647a7c	-0.055780873
65	0xbb38af0d	-0.002818051
66	0x3d47cdff	0.048780438
67	0xbb513a29	-0.0031925535
68	0x3d345d27	0.04403415
69	0x3ca08973	0.01959679
70	0xbc151ebd	-0.009101567
71	0xbd3a6e2c	-0.045515224
72	0x3cf5f6c3	0.030024892
73	0xbc4bc9fd	-0.0124382945
74	0x3d27200d	0.04080205
75	0xb6865d57	-4.0043774e-06
76	0x3ce4cd96	0.027930062
77	0x3ce12b54	0.02748648
78	0x3d3bde61	0.045866374
79	0x3d1268a6	0.03574433
80	0x3cc663d1	0.024217518
81	0x3c348d84	0.011020068
82	0xbb31db13	-0.0027138635
83	0x3cd736aa	0.026271183
84	0x3d52a793	0.051429342
85	0xbd12a9c5	-0.035806436
86	0x3d26b436	0.040699206
87	0x3bba45f5	0.005684609
88	0xbd1b68c1	-0.037941698
89	0x3d0bc489	0.034122977
90	0x3d310867	0.043220904
91	0xbd8fc0b7	-0.07019179
92	0xbac752ae	-0.0015207136
93	0x3d366e9f	0.04453909
94	0x3d2483eb	0.04016487
95	0x3d1a93bf	0.037738558
96	0x3ccea8fe	0.025227066
97	0xbc2d5c7b	-0.010581131
98	0x3d829628	0.06376296
99	0xbd29e990	-0.04148251
100	0xbd0610a3	-0.03273071
101	0xbca90d3d	-0.020636195
102	0x3d02407e	0.031799786
103	0xbd2e8c96	-0.042614542
104	0xbcfb1b1e	-0.030652579
105	0xb9a151f1	-0.00030769364
106	0xbd76d4c6	-0.06026151
107	0xbd88b328	-0.06674796
108	0x3cd77c5b	0.026304414
109	0x3c9d5371	0.019204827
110	0xbc3ba99c	-0.011454012
111	0x3c90c9f8	0.017674431
112	0x3cfdd444	0.030985005
113	0x3d96528a	0.07339962
114	0xbd18a57a	-0.037267186
115	0x3d81c01c	0.0633547
116	0x3d4d59ea	0.050134577
117	0x3d6d87a9	0.057990704
118	0xbd42b5dc	-0.047536716
119	0x3caa4fc3	0.020789986
120	0xbc8c962d	-0.017161453
121	0xbd2def3d	-0.042464484
122	0xbce53cbd	-0.027983064
123	0x3d22d5cb	0.03975467
124	0xbd3e2df4	-0.046430543
125	0x3c3de2b1	0.011589692
126	0xbd214ad5	-0.039378006
127	0x3d608fc6	0.054824613
128	0xbb8003f7	-0.0039067226
129	0x3d31649b	0.043308835
130	0xbc8d271e	-0.017230567
131	0xbd34449f	-0.044010755
132	0xbcfbe934	-0.030750848
133	0xbd937d2a	-0.072016075
134	0xbd1cfd8d	-0.038327742
135	0x3ce26c6c	0.02763959
136	0xbd083b21	-0.033259515
137	0xbcad5942	-0.021160726
138	0xb91eddde	-0.00015150706
139	0x3d5b96df	0.05361068
140	0xbd4915e1	-0.04909313
141	0x3d09818f	0.033570822
142	0x3c2f85b8	0.010713033
143	0x3d52ab7a	0.051433064
144	0xbd2805b9	-0.041021083
145	0x39e0eb66	0.00042899995
146	0xbbeffc6b	-0.0073237917
147	0xbb1d42c8	-0.0023996104
148	0xbcf5228b	-0.029923698
149	0xbd1e5d1a	-0.038663007
150	0xbd2984b2	-0.041386314
151	0x3d247152	0.040147133
152	0xbd01a320	-0.03164971
153	0xbcc3929e	-0.023873623
154	0x3bff3abe	0.007788985
155	0xbd20151b	-0.039082628
156	0xbc8822bb	-0.016618123
157	0x3d2f3777	0.042777505
158	0xbc48cc9e	-0.012255816
159	0xbc02f8f5	-0.007993926
160	0x3d14ca20	0.036325574
161	0xbccfe28e	-0.025376584
162	0xbceab9c6	-0.028653037
163	0xbcc088c0	-0.023502707
164	0xbd160df1	-0.03663439
165	0xbca73ee0	-0.020415723
166	0xbc63eea5	-0.013911878
167	0x3d3bbf34	0.045836642
168	0x3d3c3444	0.045948282
169	0xbc004319	-0.007828497
170	0xbc26f359	-0.010189855
171	0xbd0302c1	-0.03198505
172	0x3d4fa6a4	0.05069603
173	0x3d124334	0.03570862
174	0xbb91ab68	-0.004445482
175	0x3d914552	0.070933
176	0xbd8319fe	-0.06401442
177	0x3c9a0124	0.018799372
178	0xbd68f402	-0.05687333
179	0x3bb47d30	0.0055080876
180	0xbbc681db	-0.0060579604
181	0xbc89c84a	-0.016819138
182	0x3c8e1040	0.017341733
183	0x3c4ac8f5	0.012377013
184	0xbca3591d	-0.019939953
185	0x3d0238ec	0.031792566
186	0x3c0ab3c1	0.008465708
187	0x3cdf3b3e	0.027249929
188	0x3d78b5ce	0.060720257
189	0x3d0af815	0.033927996
190	0xbd84fe45	-0.064938106
191	0xba1300cf	-0.00056077255
192	0x3d1ce9fa	0.038309075
193	0xbd15ecca	-0.036602773
194	0xbcc983d5	-0.024598995
195	0xbd16306c	-0.036667272
196	0x3b8fc26f	0.004387192
197	0x3c1ae548	0.009454079
198	0xbd6bc436	-0.05756017
199	0x3d5b6614	0.053564146
200	0x3bcea3c1	0.006306142
201	0xbd663d81	-0.056211
202	0xbd5508a1	-0.052010182
203	0xbc68d0b5	-0.014209916
204	0xbd4a8e0d	-0.049451876
205	0xbd61a55a	-0.055089332
206	0xbc74b26f	-0.01493512
207	0x3d197679	0.0374665
208	0x3d1f2619	0.038854692
209	0xbc65e52b	-0.014031689
210	0x3d324272	0.0435204
211	0xbd142456	-0.036167465
212	0xbd01f422	-0.031726964
213	0x3bcbf3ad	0.006224117
214	0x3d3a95bd	0.045552958
215	0x3d1e82fa	0.038699128
216	0x3ccda435	0.025102714
217	0xbd388eae	-0.045057945
218	0xbd160c4b	-0.036632817
219	0x3cb4a230	0.022049993
220	0x3d7b1896	0.061302744
221	0x3d2be45b	0.041965824
222	0x3b3856d7	0.0028127932
223	0xbc0f7172	-0.008755075
224	0x3d18edae	0.037336044
225	0x3ca0d14b	0.019631049
226	0xbd2f86e4	-0.04285325
227	0xbce82e31	-0.028342338
228	0x3d8d69a5	0.06904916
229	0xbd75d8f1	-0.060021345
230	0xbd740716	-0.05957707
231	0x3ba9fdb9	0.005187717
232	0x3c81e376	0.015855532
233	0xbbd8417b	-0.0065996028
234	0xbc1ae895	-0.009454866
235	0x3b7d6eb7	0.0038670728
236	0x3ce229b3	0.027607774
237	0x3b731871	0.0037093426
238	0x3c00ac67	0.007853604
239	0x3c875aec	0.016522847
240	0x3c3a8834	0.011385012
241	0x3d19fcbb	0.03759454
242	0x3d9e9d9c	0.07744905
243	0x3d0c6512	0.034276076
244	0x3d155a69	0.036463175
245	0x3cdaec00	0.026723862
246	0xbbcf3e5b	-0.006324572
247	0xbc9b05ac	-0.018923603
248	0x3c86e208	0.016465202
249	0xbd48a23c	-0.048982844
250	0xbbe4e7c2	-0.0069856355
251	0xbcee472a	-0.029086668
252	0x3adb41f2	0.0016728027
253	0x3d7fd30f	0.06245714
254	0x3c238ec5	0.009982769
255	0x3d3beba8	0.045879036

2.bias f4 [256]
0	0xbd58c8d4	-0.0529259
1	0x3ccec331	0.025239559
2	0x3c369e0e	0.011146082
3	0xbd9f47ad	-0.07777343
4	0xbd2c50d5	-0.042069275
5	0xbc48611e	-0.012230186
6	0x3c30c1c1	0.010788382
7	0x3b5085b6	0.003181798
8	0xbd81a108	-0.063295424
9	0xbd17829a	-0.036989786
10	0x3d028494	0.031864718
11	0xbd6613d1	-0.056171242
12	0x3ca9a178	0.020706877
13	0xbcf977de	-0.030452665
14	0x3cfaee1c	0.030631118
15	0xbd435e1e	-0.04769718
16	0xbcadab29	-0.02119978
17	0xbd8cfcbd	-0.068841435
18	0x3afce7b4	0.0019295127
19	0x3c876c34	0.016531087
20	0x3d37bf49	0.044860158
21	0x3d65c01e	0.05609142
22	0x3d35858f	0.044316825
23	0xbbdf6d90	-0.006818481
24	0xbd38f183	-0.0451522
25	0xbc5fa6e8	-0.013650633
26	0xbd061164	-0.03273143
27	0x3c5aa7aa	0.013345638
28	0xbcf2658a	-0.029589433
29	0xbcd251d0	-0.025673777
30	0xbd0dbd5b	-0.03460441
31	0x3d200c54	0.039074257
32	0x3c52d6b1	0.012868569
33	0x3d2ee304	0.042696968
34	0xbce2634b	-0.027635237
35	0x3c9e9132	0.019356344
36	0x3d00a6b6	0.031408988
37	0x3d1b4783	0.037909996
38	0xbd7c2457	-0.061558094
39	0x3d2a00dd	0.04150473
40	0x3c9ece21	0.0193854
41	0xbd44d79e	-0.04805719
42	0x3d758ff4	0.059951738
43	0x3cbf7c6f	0.023374764
44	0x3d87c386	0.0662909
45	0x3d13a3a0	0.036044717
46	0x3d73666b	0.059423845
47	0x3cd41907	0.02589084
48	0xbce81012	-0.028327975
49	0xbcf93148	-0.030419007
50	0x3d4109a5	0.04712834
51	0xbd7f92f3	-0.062396
52	0x3bc67d21	0.006057397
53	0xbd705f67	-0.058684733
54	0x3d0c814a	0.034302987
55	0xbd3eaa4a	-0.04654912
56	0x3d7d2122	0.061799176
57	0xbc821212	-0.015877757
58	0xbd23a7ef	-0.039955076
59	0x3cd2fcfb	0.025755396
60	0x3c986420	0.01860243
61	0x3d167a21	0.036737565
62	0x3d39a0ec	0.045319483
63	0xbd6e7fec	-0.058227465
64	0x3c880f05	0.016608724
65	0x3cffe8c9	0.03123893
66	0xbc69bf9b	-0.014266874
67	0x3cb5fecc	0.022216223
68	0x3d694338	0.05694887
69	0x3d44857b	0.04797886
70	0x3d9fde51	0.07806075
71	0xbd7013c3	-0.058612596
72	0xbcdb3574	-0.026758887
73	0x3d4763c0	0.048679113
74	0xbd25f7ec	-0.04051964
75	0x3d2b0306	0.04175093
76	0xbd494d98	-0.049146265
77	0x3bfc53db	0.007700426
78	0x3d38afd1	0.045089547
79	0x3ca3305e	0.019920524
80	0xbce56a1e	-0.028004702
81	0xbabd0b2b	-0.0014422884
82	0x3d4100d3	0.047119927
83	0x3d8e9579	0.069621034
84	0xbd105047	-0.03523281
85	0xbb8a9a52	-0.004229822
86	0x3d0c3b71	0.034236375
87	0x3cd9427c	0.02652096
88	0x3d65ffd2	0.056152172
89	0xbc0b9ae0	-0.008520812
90	0xbd17d7b0	-0.03707093
91	0xbcfcdb6b	-0.030866345
92	0xbd1ed878	-0.03878066
93	0xbd378711	-0.044806544
94	0x3a7b493b	0.00095858023
95	0x3c0725c8	0.008248754
96	0x3c9a7d5f	0.01885861
97	0x3d743577	0.0596213
98	0x3b630e8d	0.0034646124
99	0x3d368724	0.044562474
100	0x3c3cbb1b	0.011519219
101	0x3ce918b2	0.028454158
102	0xbc45bcc8	-0.012068935
103	0xbd8eb05a	-0.0696723
104	0x3d137b29	0.036006127
105	0xbd52fcea	-0.05151073
106	0x3d3fa0cb	0.046784203
107	0x382b1473	4.0788622e-05
108	0x3d5c51bc	0.053788885
109	0x3c6c5db0	0.014426634
110	0x3d67b02f	0.056564506
111	0xbc5bd70e	-0.013417972
112	0xbd255e85	-0.040373344
113	0x3d0d13e5	0.0344428
114	0xbd4f14f9	-0.05055711
115	0xbabc36c5	-0.0014359584
116	0xbd09c00c	-0.033630416
117	0xbd013a85	-0.03154995
118	0x3d399be8	0.0453147
119	0x3ce5100b	0.027961751
120	0x3c1af6f0	0.009458289
121	0x3d184e6d	0.037184168
122	0xbd128e0c	-0.035779998
123	0xbce145b2	-0.027499054
124	0x3869d00a	5.574528e-05
125	0xbd84a2c0	-0.064763546
126	0x3cef93db	0.029245308
127	0xbaec481b	-0.001802686
128	0x3d1c12c8	0.03810385
129	0xbd41c030	-0.047302425
130	0x3d6f8a50	0.058481514
131	0x39f63cb5	0.00046966007
132	0xbcd0d2e5	-0.025491187
133	0xbcb4e859	-0.022083448
134	0xbd0a1adc	-0.03371702
135	0x3cb760e5	0.02238507
136	0xba2189c1	-0.00061621895
137	0xbd3830a5	-0.044968266
138	0x3c476f47	0.012172527
139	0xbd37af00	-0.044844627
140	0x3d3cd4f3	0.04610152
141	0xbd6d129d	-0.05787908
142	0x3c229f21	0.009925635
143	0x3c80129c	0.015633874
144	0x3c45df40	0.012077153
145	0xbd02b4ca	-0.031910695
146	0xbcecb98b	-0.028897068
147	0xbd1cda16	-0.03829392
148	0xbac819f5	-0.0015266525
149	0xbcc900e3	-0.024536556
150	0x3c37d235	0.011219551
151	0xbc873bd9	-0.01650803
152	0x3d26ff38	0.04077074
153	0x3d10815c	0.035279617
154	0x3cb483f0	0.022035569
155	0xbd213363	-0.039355647
156	0xbc04091f	-0.008058815
157	0x3d6f5f1b	0.05844031
158	0xbd677773	-0.0565104
159	0x3d673f3f	0.0564568
160	0xbd360629	-0.04443947
161	0x3cc7ec99	0.02440481
162	0x3d1a5160	0.03767526
163	0xbd31d752	-0.043418236
164	0xbd1357da	-0.035972454
165	0x3c59b061	0.013286681
166	0x3ca59019	0.020210313
167	0xbd1c299c	-0.03812562
168	0x3aab62a2	0.001307566
169	0xbcba4a4f	-0.022740511
170	0xbc287dc8	-0.010283895
171	0x3d0837df	0.033256408
172	0x3bfd8cc5	0.0077377283
173	0x3c53bc3d	0.0129232975
174	0x3cc2535f	0.023721395
175	0x3d1187d3	0.035529923
176	0x3d9d07ab	0.07667478
177	0x3d525c89	0.05135778
178	0xbc999b4c	-0.01875081
179	0xbd6c43c6	-0.05768182
180	0x3c7bb2ff	0.0153625
181	0x3d030e11	0.031995837
182	0x3c24a842	0.010049881
183	0x3a074189	0.0005159607
184	0x3d03f2f4	0.03221412
185	0x3d0f81a7	0.035035755
186	0x3c3e45ca	0.011613319
187	0xbc4f7586	-0.012662297
188	0x3d4c6b0d	0.04990678
189	0xbd8999d8	-0.067187965
190	0x3d5d208c	0.053986117
191	0xbce529e4	-0.027974077
192	0xbc841371	-0.016122552
193	0x3cb965b0	0.022631496
194	0x3d6e44a8	0.058170944
195	0xbd0fccc5	-0.035107393
196	0xbd89ce49	-0.06728799
197	0xbd0b0519	-0.03394041
198	0xbd1a8a44	-0.037729517
199	0x3d05e15d	0.032685626
200	0x3ad991ee	0.0016599277
201	0x3cb143e8	0.021638826
202	0x3cd59bf4	0.02607534
203	0xbca44848	-0.020053998
204	0xbbef81f2	-0.007309192
205	0xbd926a35	-0.07149164
206	0x3c7926e3	0.015207025
207	0x3c916b27	0.01775129
208	0x3c7d9018	0.015476249
209	0x3c0885b4	0.008332659
210	0x3ca0f4ec	0.019648038
211	0x3d553975	0.05205675
212	0x3ca02d1a	0.019552756
213	0x3c09cd12	0.008410709
214	0xbd3c2160	-0.045930266
215	0x3d87ee1d	0.066372134
216	0x3c0fb3cc	0.008770894
217	0xba842c60	-0.0010084026
218	0xbd099afd	-0.033595074
219	0xbc958a70	-0.018254489
220	0xbd00ca4d	-0.03144293
221	0xbd1b3def	-0.03790086
222	0x3cf003f6	0.029298764
223	0xbb5d57f4	-0.0033774348
224	0x3d632efa	0.055464722
225	0x3d16011e	0.03662216
226	0xbc6fc303	-0.014633897
227	0x3d16927c	0.036760792
228	0x3d825104	0.06363109
229	0x3d74db80	0.059779644
230	0x3a9dcaed	0.0012038626
231	0xbccd7b65	-0.025083253
232	0x3b844f94	0.0040378068
233	0xbd81750f	-0.06321155
234	0x3d5fd7c7	0.05464914
235	0xbc06c205	-0.008224969
236	0xbd0615d9	-0.03273568
237	0xbd938898	-0.072037876
238	0xbc90e003	-0.017684942
239	0x3cccf0f6	0.025017243
240	0x3d2712a5	0.040789265
241	0xbc4c7bc3	-0.012480679
242	0xbc8f70a4	-0.017509766
243	0x3d1709c1	0.036874536
244	0xbd5ea513	-0.054356646
245	0x3d721d78	0.059110135
246	0x3d467553	0.048451733
247	0xbcc4efda	-0.024040151
248	0x3ca5abcc	0.02022352
249	0x3ce62d4c	0.028097771
250	0x3baa8a1c	0.005204452
251	0xbbcec114	-0.006309638
252	0x3d57795e	0.05260598
253	0x3c92680c	0.017871879
254	0x3c9530b4	0.0182117
255	0x3d3d56c1	0.046225313

4.weight f4 [2, 256]
0	0x3cce7a9f	0.025204955
1	0x3d080ac9	0.03321341
2	0x3d206fff	0.039169308
3	0x3d58b94d	0.05291109
4	0xbd5151f6	-0.051103555
5	0xbcdcf410	-0.026971847
6	0x3c389b32	0.01126747
7	0xbd65e102	-0.056122787
8	0xbd7fb02d	-0.062423874
9	0xbcb5cdc3	-0.022192841
10	0xbd4361cc	-0.04770069
11	0xbd2da23b	-0.042391043
12	0xbb93aa31	-0.0045063724
13	0x3c65f77f	0.014036058
14	0x3c3ba6c1	0.011453331
15	0xbb142397	-0.002260422
16	0x3d98e6df	0.0746591
17	0xbccf3840	-0.025295377
18	0xba70a9e5	-0.00091805897
19	0xbca6524e	-0.020302918
20	0x394062e4	0.00018347387
21	0x3d62e62a	0.055395283
22	0xbd93123a	-0.07181211
23	0x3cf6f969	0.030148225
24	0x3d04e132	0.032441325
25	0x3d631d8a	0.055448093
26	0xbbf5fa2b	-0.007506629
27	0x3ca95454	0.020670094
28	0xbd251190	-0.040299952
29	0xbd4de7f9	-0.050270054
30	0xbd0781fb	-0.033082943
31	0x3cdc17d8	0.026866838
32	0x3b2b37c9	0.002612578
33	0xbc606e41	-0.013698162
34	0x3c7295c0	0.014806211
35	0x3b6c35ad	0.0036042735
36	0xbd6b3826	-0.057426594
37	0xbda0c3e9	-0.07849867
38	0xbd340179	-0.043946717
39	0xbd1522a8	-0.036410004
40	0xbc655646	-0.01399762
41	0xbd099268	-0.03358689
42	0x3c5f83ad	0.013642234
43	0xbd0a5082	-0.033768184
44	0x3d3323f4	0.04373546
45	0xbae2396d	-0.0017259546
46	0x3d3bc61a	0.04584322
47	0x3c14365e	0.009046165
48	0x3d5fc23f	0.054628607
49	0xbbe3f791	-0.0069570024
50	0x3ca4ed0e	0.020132568
51	0x3ce3cb64	0.027806945
52	0xbccf5649	-0.025309699
53	0x3acf8976	0.0015833813
54	0x3d45ac2a	0.04825989
55	0xbc863191	-0.016381057
56	0xbd680443	-0.05664469
57	0x3cd54af8	0.026036724
58	0xbd5a8151	-0.053345982
59	0x3da28dcf	0.07937204
60	0xbd3c6968	-0.04599896
61	0xbdac99d5	-0.08427779
62	0x3d80c46e	0.06287466
63	0xbd89d2c2	-0.06729652
64	0xbb968d9e	-0.004594519
65	0xbd5eb723	-0.05437387
66	0xbd93b9f2	-0.07213201
67	0xbd060e8d	-0.03272872
68	0x3c09097e	0.0083640795
69	0x3d4839bc	0.048883185
70	0xbb6c8eba	-0.0036095814
71	0x3c62a9d7	0.013834438
72	0xbd3592ca	-0.044329442
73	0x3d365bc0	0.044521093
74	0xbd40b70a	-0.04704956
75	0x3cc8bc51	0.024503859
76	0xbc2ad735	-0.010427286
77	0xbd5a1667	-0.05324402
78	0x3be036df	0.0068424786
79	0x3c236bb0	0.009974405
80	0x3c91645b	0.017748049
81	0xbd0bd4fe	-0.034138672
82	0xbb865b20	-0.0041002184
83	0x3c2fe056	0.010734638
84	0x3c01e447	0.007927961
85	0xbd00cf22	-0.031447537
86	0x3d2a5a58	0.041590065
87	0x3ca53c81	0.020170452
88	0x3d1aaffb	0.037765484
89	0xbd0cb0cc	-0.034348294
90	0xbc6a943d	-0.014317569
91	0xbd34ec14	-0.044170454
92	0xbcf3375b	-0.029689481
93	0x3ca42fb8	0.020042285
94	0xbcddac23	-0.02705962
95	0x3d666e97	0.05625781
96	0x3d173534	0.036915973
97	0xbd0a496b	-0.033761423
98	0xbd3aac98	-0.045574754
99	0x3d7fa4c7	0.062413003
100	0x3c3ca26a	0.011513332
101	0xbd20a4be	-0.03921961
102	0x3c02095f	0.007936805
103	0xbcc61235	-0.024178604
104	0x3d469d6d	0.048489977
105	0x3d443e64	0.047911063
106	0x3bef5bd6	0.007304649
107	0x3bd91974	0.0066253487
108	0x3c6a56ee	0.014302952
109	0x3cfa92be	0.03058755
110	0xbd87061a	-0.06592961
111	0x3d049bf5	0.032375295
112	0x3ccadc2e	0.024763193
113	0xbcc65c6c	-0.024213992
114	0xbcf0179c	-0.029308133
115	0xbb4c8cc8	-0.0031211842
116	0xbcf24330	-0.029573053
117	0x3d2479d8	0.04015526
118	0x3d5f8f9d	0.05458032
119	0xbd6e6594	-0.05820234
120	0xbcc396f3	-0.02387569
121	0xbb8fa0f7	-0.004383202
122	0xbc9fb837	-0.01949702
123	0x3d5cbbee	0.05389016
124	0xbd34c95b	-0.04413734
125	0x3d63c663	0.05560912
126	0xbd4ca2d0	-0.049959958
127	0x3c2a7e4b	0.010406087
128	0x3d3b6aaa	0.04575602
129	0x3c2f61c9	0.010704466
130	0x3d4560bf	0.048187967
131	0x3d94ef4c	0.07272205
132	0x3bd558bd	0.0065108226
133	0xbd40cc4b	-0.04706983
134	0x3b48277f	0.003054112
135	0x3cfcb905	0.030849943
136	0x3d77c71d	0.060492624
137	0xbc47fed7	-0.012206755
138	0x3c4f0062	0.012634369
139	0xbd2f01db	-0.04272638
140	0x3cfd43c7	0.030916108
141	0xbac12e5f	-0.0014738551
142	0xbbe447d5	-0.006966571
143	0xbcd1c19e	-0.02560502
144	0xbd84a3e5	-0.06476573
145	0xbd99a634	-0.07502404
146	0xbd94046a	-0.072274044
147	0x3d39e8d2	0.04538805
148	0xbc877061	-0.016533079
149	0x3d95146f	0.07279288
150	0x3d24fb94	0.040278986
151	0x3c1da2cf	0.009621336
152	0x3cff3ea2	0.031157795
153	0xbd77d2b8	-0.06050369
154	0xbcdaa278	-0.0266888
155	0xbbdd2478	-0.006748732
156	0x3cdceb9e	0.02696782
157	0xbd08077d	-0.033210266
158	0x3cb14b3d	0.021642322
159	0xbcfc5a25	-0.030804703
160	0xbd23f7c6	-0.040031217
161	0x3cdb5f04	0.026778705
162	0xbd4b9ba1	-0.049708966
163	0xbcb51498	-0.022104546
164	0xbc8a06a6	-0.016848873
165	0x3cb848a9	0.022495585
166	0xbd250a92	-0.040293284
167	0xbcc8ffe6	-0.024536084
168	0x3d85edc1	0.065394886
169	0xbceef967	-0.029171659
170	0xbbecf044	-0.0072307903
171	0x3d9a6821	0.07539392
172	0xbd334186	-0.04376366
173	0xbd7125cd	-0.05887394
174	0xbd3ba87c	-0.045814976
175	0x3cdec99d	0.027195746
176	0xbd23463e	-0.03986191
177	0xbd726046	-0.059173845
178	0xbc2785e7	-0.010224796
179	0x3cf18cc4	0.029486068
180	0x3cff3d9d	0.03115731
181	0xbd6fa5a4	-0.058507577
182	0xbc9a4219	-0.018830346
183	0xbc7f7e37	-0.015594057
184	0xbd694a29	-0.05695549
185	0x3d200439	0.039066527
186	0x3c714080	0.014724851
187	0x3d4f9c0d	0.05068593
188	0x3d873b24	0.06603077
189	0xbcc8df75	-0.024520615
190	0xbd04d2ed	-0.032427717
191	0xbd2e9533	-0.042622756
192	0xbc954cb7	-0.018225057
193	0xbc9e3561	-0.019312562
194	0xbb3cee34	-0.0028828504
195	0x3bf1fac8	0.007384632
196	0x3c8a8553	0.016909277
197	0x389f28b7	7.5892945e-05
198	0x3ca85cb8	0.020552024
199	0x3cfcd572	0.030863497
200	0x3cea14dc	0.0285744
201	0xbd302ca7	-0.043011334
202	0x3d0ef6c3	0.0349033
203	0xbc498a9d	-0.012301114
204	0x3b195dc5	0.0023401838
205	0x3ce08381	0.027406456
206	0xbb9f059f	-0.004852965
207	0x3cfdc26b	0.030976495
208	0xbc9be300	-0.01902914
209	0x3d109d91	0.035306517
210	0x3c6f2d86	0.014598256
211	0xbd2f402f	-0.04278582
212	0x3d22ed92	0.039777346
213	0x3cb01c2c	0.021497808
214	0x3da0fc63	0.07860639
215	0x3c77e68e	0.015130652
216	0xbd27da69	-0.040979777
217	0x3c8400fd	0.016113752
218	0x3d1c7a62	0.03820265
219	0xbd222037	-0.039581504
220	0x3c94b09f	0.018150626
221	0xbcf36157	-0.029709501
222	0x3d8b0499	0.06787986
223	0xbd3bc834	-0.045845225
224	0xbcf6df51	-0.030135782
225	0xbd47caad	-0.04877727
226	0xbd2785e8	-0.040899187
227	0xbcdd6494	-0.027025498
228	0xbd311887	-0.04323628
229	0x3d389b05	0.045069713
230	0x3d1a7ec6	0.037718557
231	0x3d0fe124	0.03512682
232	0x3dc08260	0.09399867
233	0x3c5a8750	0.013337925
234	0xbd8c067a	-0.06837173
235	0x3d354ee7	0.0442647
236	0x3ceeee48	0.029166356
237	0x3d0f4ce3	0.034985434
238	0xbc9f73ca	-0.019464392
239	0xbb94f69b	-0.004545999
240	0xbc90d8dc	-0.017681532
241	0xbc03eb36	-0.008051684
242	0xbcba185a	-0.02271669
243	0xbbb27d4e	-0.0054470664
244	0xbd3d6dac	-0.04624717
245	0xbceffb42	-0.029294614
246	0xbcbfe272	-0.023423407
247	0xbbedd6d4	-0.0072582755
248	0x3d423b00	0.047419548
249	0xbdbd4525	-0.09241704
250	0xbdacc1c4	-0.08435395
251	0xbca51f10	-0.020156413
252	0xbc102ed5	-0.008800228
253	0xbc6af224	-0.014339957
254	0x3b8f8a6a	0.004380514
255	0xbccbd0d1	-0.024879845

4.bias f4 [2]
0	0xbc9fdf9d	-0.019515807
1	0x3cb0bfe4	0.021575876

exp_avg f4 [256, 4]
0	0x3c49e484	0.012322549
1	0xba991ed7	-0.0011682165
2	0xbaaf9cb2	-0.0013398139
3	0xb9b50092	-0.00034523435
4	0xbb664fc2	-0.0035142754
5	0x3890e7ed	6.9096546e-05
6	0x39566305	0.00020445518
7	0x38e706eb	0.00011016227
8	0xbac0b65f	-0.0014702788
9	0xba0f269b	-0.000546077
10	0x3817215d	3.6032277e-05
11	0x37e9375c	2.7801543e-05
12	0x3c83ca0f	0.01608756
13	0xb9b94443	-0.0003533681
14	0xba912278	-0.0011072895
15	0xb9830411	-0.00024989297
16	0x3aa6f3ec	0.0012737489
17	0xb8a6be23	-7.9509125e-05
18	0xb8c2edbf	-9.2949245e-05
19	0xb87e10d4	-6.057399e-05
20	0xbc467b9f	-0.0121144345
21	0xb9410765	-0.00018408669
22	0x3a05da1c	0.0005106048
23	0x3a167c1f	0.00057405414
24	0x3a7a68ff	0.0009552389
25	0xb7ad2865	-2.0642017e-05
26	0xb888d0cc	-6.523877e-05
27	0xb8aa71e6	-8.127447e-05
28	0x3d23cf1b	0.039992433
29	0xbb5df15b	-0.0033865783
30	0xbb9f4091	-0.004859992
31	0xba1593b6	-0.00057059096
32	0xbd59464d	-0.05304556
33	0x3ad15db2	0.0015973358
34	0x3b9ad562	0.0047251442
35	0x3ac53bed	0.0015047767
36	0xbbdc4dff	-0.006723165
37	0x3a7dc171	0.0009680009
38	0x3a7ff67e	0.0009764208
39	0x39818063	0.00024700453
40	0x3d04767b	0.032339554
41	0xb9e5616c	-0.0004375087
42	0xbae95c21	-0.0017803946
43	0xba794ae5	-0.00095097563
44	0xbd0dd878	-0.03463027
45	0x3b202034	0.0024433257
46	0x3b8b4419	0.004250061
47	0x3a7a7752	0.0009554523
48	0xbdc86b37	-0.097860746
49	0x3aacde58	0.0013188822
50	0x3c07ee9c	0.008296635
51	0x3ad99497	0.0016600069
52	0xbd410d1d	-0.047131646
53	0xba4232ea	-0.00074080995
54	0x3abfe2ed	0.0014639773
55	0x3a63d5b2	0.0008691206
56	0x390599d6	0.00012741177
57	0xb7e00451	-2.670489e-05
58	0xb7146286	-8.844427e-06
59	0x36aba3d0	5.1152674e-06
60	0x3b64ccf9	0.0034912212
61	0xb8f528d2	-0.00011690114
62	0xb94645c0	-0.00018908735
63	0xb8a208b0	-7.72638e-05
64	0xbd75b021	-0.059982423
65	0x3b85257a	0.0040633054
66	0x3bd641f5	0.0065386244
67	0x3aaead67	0.0013326824
68	0x3caa8a1b	0.020817807
69	0xbb42404f	-0.0029640382
70	0xbb03be4a	-0.0020102435
71	0xba3faff9	-0.0007312294
72	0xb9a66b8f	-0.00031742125
73	0xb8451085	-4.6983845e-05
74	0xb6f85200	-7.400522e-06
75	0xb67d05c3	-3.7703292e-06
76	0xb95419b4	-0.0002022747
77	0x3831156e	4.2220046e-05
78	0x37b5bdf6	2.1665339e-05
79	0x37ece517	2.824007e-05
80	0x38bdba99	9.046979e-05
81	0x37a43026	1.9572744e-05
82	0x37a4ae9c	1.9631632e-05
83	0x37ac1783	2.0514946e-05
84	0xbabc63d3	-0.0014373012
85	0xb9789e58	-0.0002371011
86	0xb80b1402	-3.3158816e-05
87	0xb81a651c	-3.6810627e-05
88	0xbb83f05a	-0.004026455
89	0x39850537	0.00025371622
90	0x399bd2a5	0.00029720846
91	0xb846eb4a	-4.742601e-05
92	0xbdbaac45	-0.09114889
93	0x3b9b1323	0.004732506
94	0x3c1f98d2	0.009741025
95	0x3ad6ad39	0.0016378529
96	0x39f48dfe	0.000466451
97	0x3986b919	0.0002569638
98	0x38002c08	3.0558585e-05
99	0x36a24d94	4.8370075e-06
100	0xba806a23	-0.0009797256
101	0x390ab380	0.00013227575
102	0x38984b6d	7.261974e-05
103	0x350a3326	5.1483437e-07
104	0xbd5ed0ec	-0.054398462
105	0x3a8cc4aa	0.0010739763
106	0x3b89c4dd	0.004204376
107	0x3a080215	0.00051882985
108	0x3b3e7326	0.0029060333
109	0xba911758	-0.0011069579
110	0xba0a4640	-0.00052747503
111	0xb91036b5	-0.0001375329
112	0xbb12005c	-0.0022278046
113	0x391abf58	0.00014757866
114	0x391f6c18	0.0001520369
115	0xb78973aa	-1.6385533e-05
116	0xb7b94d4f	-2.2089718e-05
117	0x38c5389f	9.4042385e-05
118	0x37ad75cd	2.0678062e-05
119	0x36950074	4.440599e-06
120	0xbc2b65e8	-0.010461308
121	0x3ba76521	0.005108491
122	0x3a85a022	0.0010194818
123	0xb7e2eaeb	-2.7050692e-05
124	0xb78e3480	-1.6952166e-05
125	0xb738a316	-1.1005226e-05
126	0xb592f9a1	-1.0950499e-06
127	0x3629ea69	2.5319407e-06
128	0x3d3b12b0	0.04567212
129	0xba47e5fe	-0.0007625519
130	0xbb1be94d	-0.002379018
131	0xba37dae6	-0.00070135144
132	0xbd6ee8a1	-0.05832732
133	0x3aa1e72c	0.001235222
134	0x3b8e7245	0.004347118
135	0x3a0fbedc	0.00054834574
136	0x3d52b053	0.051437687
137	0xba3449f8	-0.0006877477
138	0xbb519183	-0.00319776
139	0xba004e23	-0.0004894456
140	0xb8e1e368	-0.00010771194
141	0x393873a3	0.00017590685
142	0x383c1c67	4.4849145e-05
143	0x37393aff	1.1040595e-05
144	0x3c89792a	0.016781408
145	0xb9bcdc86	-0.00036022457
146	0xba59efe7	-0.00083136413
147	0xb96669de	-0.00021973948
148	0xb9a8ecb0	-0.00032219803
149	0xb9e2200d	-0.0004312996
150	0xb892d70f	-7.00188e-05
151	0xb704fd14	-7.926737e-06
152	0xb955ac0a	-0.00020377352
153	0x3767f380	1.3825367e-05
154	0x379677d2	1.793719e-05
155	0x37586ec5	1.2900394e-05
156	0xbc251b54	-0.010077316
157	0x39886d76	0.00026021496
158	0x3a315d0d	0.000676588
159	0x391e3dcc	0.00015091075
160	0xbce928c5	-0.028461823
161	0x3a807346	0.0009799979
162	0x3b093c30	0.0020940416
163	0x39e00dd5	0.00042734915
164	0x37f4eb5b	2.9196663e-05
165	0x384e8c6d	4.924501e-05
166	0x370d6eb2	8.430028e-06
167	0x36847ed7	3.9486727e-06
168	0x3da1ff90	0.07910073
169	0xbb6aa2eb	-0.0035802673
170	0xbbfed211	-0.0077765067
171	0xba9d70e3	-0.0012011792
172	0x3d762e5f	0.060102817
173	0xbb16ff4a	-0.0023040348
174	0xbbb0b891	-0.005393096
175	0xba519c92	-0.0007996048
176	0xbd355403	-0.044269573
177	0xb9071d66	-0.00012885555
178	0x3af2e097	0.0018530068
179	0x3a55993e	0.000814814
180	0xb9aaa854	-0.0003255034
181	0xb7036c36	-7.833403e-06
182	0x37028d53	7.781508e-06
183	0x37b651de	2.1734213e-05
184	0x3c8f8f31	0.017524334
185	0xb91ab345	-0.00014753368
186	0xba60ad00	-0.0008570701
187	0xb9f14400	-0.00046017766
188	0x3d6cb1fb	0.057786923
189	0xbb4b8572	-0.0031054881
190	0xbbb5f2e5	-0.005552637
191	0xbacadb4d	-0.0015476734
192	0xbc66b527	-0.014081276
193	0x3ae46c07	0.0017427214
194	0x3b0a90a8	0.002114335
195	0x39cce3b5	0.00039079567
196	0x3a02e064	0.0004992543
197	0xb88778b3	-6.4597836e-05
198	0xb85416fd	-5.056615e-05
199	0xb884f078	-6.339041e-05
200	0xbcd08762	-0.02545518
201	0x3b10125d	0.0021983602
202	0x3b6131d2	0.003436197
203	0x3a70f560	0.0009191837
204	0xbccb9fae	-0.024856415
205	0x3a46c885	0.00075829803
206	0x3b2e78ec	0.0026622368
207	0x39b76441	0.00034979175
208	0x3dc9853a	0.09839864
209	0xbb32899c	-0.0027242666
210	0xbc0a0694	-0.00842442
211	0xbab44896	-0.0013754542
212	0x3921d9b4	0.00015435257
213	0x38d0ebd1	9.962137e-05
214	0x37c30c59	2.3251561e-05
215	0x37860098	1.5974321e-05
216	0xbcadda56	-0.021222275
217	0x3a426cd2	0.0007416728
218	0x3b09e42b	0.002104054
219	0x399c30fb	0.00029791132
220	0xbd580b95	-0.05274542
221	0x39350d73	0.00017266515
222	0x3b0b3f86	0.002124758
223	0x3a90c4fc	0.0011045034
224	0xba0f869b	-0.0005475075
225	0x37ea1e02	2.7908947e-05
226	0x3801fdc9	3.0992353e-05
227	0x3802d99d	3.1197083e-05
228	0x37e677ed	2.7473981e-05
229	0x38814f54	6.165975e-05
230	0x36e76034	6.895536e-06
231	0x358dad8f	1.0555831e-06
232	0x3b08c606	0.0020869984
233	0xb8c1a8a9	-9.2343726e-05
234	0xb918f077	-0.0001458543
235	0xb8ae87da	-8.322271e-05
236	0x39c78cb4	0.0003806107
237	0xb88a9aaa	-6.609161e-05
238	0xb7c9a4be	-2.4037781e-05
239	0x3742d155	1.161204e-05
240	0xb8630bfe	-5.4132186e-05
241	0xb5dbd093	-1.6377475e-06
242	0xb718b8c7	-9.102928e-06
243	0xb68783e9	-4.03867e-06
244	0xbd47ab7d	-0.04874753
245	0x3b175eb0	0.002309721
246	0x3b8d3c89	0.004310195
247	0x3a0b667a	0.00053176994
248	0xb9b2eef5	-0.00034128843
249	0xb91877d0	-0.00014540483
250	0xb756295e	-1.27650255e-05
251	0xb65af476	-3.2626826e-06
252	0x379e624c	1.888084e-05
253	0x38cd0163	9.77542e-05
254	0x3789830b	1.6392694e-05
255	0x362d806d	2.5853763e-06

exp_avg_sq f4 [256, 4]
0	0x371a5dbc	9.2009395e-06
1	0x34b00584	3.2786568e-07
2	0x3545ee60	7.37351e-07
3	0x349650c5	2.7998445e-07
4	0x36712ce5	3.593793e-06
5	0x3694444b	4.418694e-06
6	0x36df3e4d	6.6531707e-06
7	0x36a88cbe	5.0231747e-06
8	0x35324253	6.640668e-07
9	0x341fd732	1.4886317e-07
10	0x3408a65f	1.2726512e-07
11	0x3402d7d6	1.2185714e-07
12	0x38039086	3.136743e-05
13	0x36d9bcd9	6.4890887e-06
14	0x372040a9	9.551798e-06
15	0x36f07299	7.1658983e-06
16	0x3501bb56	4.8328855e-07
17	0x34ab05d8	3.1855484e-07
18	0x34d43c58	3.9531983e-07
19	0x34c117c4	3.5966343e-07
20	0x38d81ddd	0.00010305245
21	0x3701d8e8	7.739502e-06
22	0x36b3c16d	5.3571334e-06
23	0x36b4e83e	5.3914546e-06
24	0x35836147	9.788572e-07
25	0x34a50aea	3.0741586e-07
26	0x3498d26e	2.8465314e-07
27	0x3490b9e8	2.6957355e-07
28	0x38915c68	6.931351e-05
29	0x356ac76a	8.746198e-07
30	0x35dfd7e5	1.6677628e-06
31	0x35007912	4.7859896e-07
32	0x3ba90dcd	0.005159116
33	0x38ba98a7	8.897605e-05
34	0x37be4b04	2.2684697e-05
35	0x375c6ae9	1.3137914e-05
36	0x35c9d52f	1.5037712e-06
37	0x34c84d5e	3.7309195e-07
38	0x34ad7485	3.230854e-07
39	0x34bc4087	3.506468e-07
40	0x3a07b9e6	0.00051775423
41	0x3767303d	1.3779904e-05
42	0x36553f9e	3.1776503e-06
43	0x361a2d2d	2.2974084e-06
44	0x382c122e	4.1024927e-05
45	0x372b33f2	1.0204489e-05
46	0x377a0e27	1.4904456e-05
47	0x374a4a09	1.2057376e-05
48	0x3b448f64	0.0029992694
49	0x37a1d186	1.9290263e-05
50	0x375c4b06	1.313049e-05
51	0x369f0502	4.7391522e-06
52	0x3a632c0d	0.0008665927
53	0x376f3b69	1.4259343e-05
54	0x361bf5b3	2.3239816e-06
55	0x35906876	1.0759238e-06
56	0x34105a0b	1.3443803e-07
57	0x343a8a4e	1.7372915e-07
58	0x34a68b8f	3.1021452e-07
59	0x345f5ed4	2.0802992e-07
60	0x35aa17bf	1.2672898e-06
61	0x35958e70	1.114282e-06
62	0x35bb0daa	1.3936562e-06
63	0x35a72a2e	1.2454746e-06
64	0x391afc72	0.00014780628
65	0x3714a6b8	8.860305e-06
66	0x3780c877	1.5352138e-05
67	0x372c034e	1.0252768e-05
68	0x3a7747c9	0.0009432999
69	0x37848ef1	1.5802188e-05
70	0x36a1fad8	4.827376e-06
71	0x3658260c	3.2208654e-06
72	0x362120a2	2.4009864e-06
73	0x36707013	3.5828023e-06
74	0x36c7cb3f	5.954323e-06
75	0x3691f504	4.3498603e-06
76	0x36589f72	3.2279318e-06
77	0x36a791d8	4.9939663e-06
78	0x37082c2d	8.116517e-06
79	0x36cb5000	6.0591847e-06
80	0x35ae6901	1.299457e-06
81	0x359443d5	1.1046601e-06
82	0x366c428c	3.5205476e-06
83	0x35b8a985	1.3758405e-06
84	0x365bdaa1	3.2760802e-06
85	0x3688126f	4.055262e-06
86	0x36e841c7	6.9217963e-06
87	0x36a50bae	4.918743e-06
88	0x3530f404	6.59202e-07
89	0x341a7bfa	1.438747e-07
90	0x3495e8aa	2.7922698e-07
91	0x3425e3e7	1.5449733e-07
92	0x399f17cb	0.0003034457
93	0x367f49a4	3.8040826e-06
94	0x36ecdc74	7.059012e-06
95	0x3656179a	3.1902223e-06
96	0x360e495c	2.120235e-06
97	0x362a21a0	2.5351546e-06
98	0x36a67782	4.961098e-06
99	0x364ab2c0	3.0204392e-06
100	0x345688ec	1.9980115e-07
101	0x345e0d27	2.0680146e-07
102	0x34c1719e	3.603172e-07
103	0x3485d3f4	2.4927397e-07
104	0x39f9d417	0.00047651
105	0x36efc396	7.1455243e-06
106	0x370c1ab8	8.350871e-06
107	0x36ca8940	6.036047e-06
108	0x36d6b311	6.398543e-06
109	0x35c1f48b	1.4450792e-06
110	0x361a7d24	2.302063e-06
111	0x35c27701	1.4488761e-06
112	0x3530fd4f	6.593372e-07
113	0x3548f327	7.485964e-07
114	0x35b01a21	1.3120626e-06
115	0x356371f9	8.472994e-07
116	0x367a5538	3.7302507e-06
117	0x36eec634	7.1160266e-06
118	0x37369c3c	1.08844215e-05
119	0x37112335	8.650871e-06
120	0x3ae70be0	0.001762744
121	0x37aa87d4	2.032883e-05
122	0x378716d0	1.6103877e-05
123	0x373822d6	1.09753655e-05
124	0x35afc237	1.309504e-06
125	0x35e74e09	1.7233552e-06
126	0x3646533d	2.955275e-06
127	0x36016e6d	1.9286774e-06
128	0x3b8c8ec9	0.0042894823
129	0x388be53d	6.6707355e-05
130	0x37fffa82	3.051502e-05
131	0x37939a26	1.7595547e-05
132	0x3a7ad63a	0.00095686654
133	0x3687db0a	4.048813e-06
134	0x3682487e	3.882741e-06
135	0x35b04253	1.3132325e-06
136	0x3a40c63c	0.0007353758
137	0x36d54ba6	6.3567013e-06
138	0x368df094	4.2301344e-06
139	0x35bd2dc7	1.409492e-06
140	0x355a410e	8.1305996e-07
141	0x35d2ba32	1.5700409e-06
142	0x35d71122	1.6023735e-06
143	0x35e90904	1.7362477e-06
144	0x38310b17	4.2210417e-05
145	0x35b04192	1.3132105e-06
146	0x36005958	1.9125491e-06
147	0x35936f61	1.0984769e-06
148	0x359b2765	1.1559865e-06
149	0x3434d3b2	1.684082e-07
150	0x345af2e7	2.03912e-07
151	0x3400de91	1.2001898e-07
152	0x35d5e7c1	1.5937186e-06
153	0x365db571	3.303718e-06
154	0x368e241f	4.236135e-06
155	0x3682ca4d	3.897853e-06
156	0x377a2130	1.4908888e-05
157	0x36ba81d8	5.5583478e-06
158	0x36e6e914	6.881668e-06
159	0x36cfe5d6	6.195837e-06
160	0x393d4f16	0.00018053906
161	0x35f52439	1.8264465e-06
162	0x35cc26d8	1.521049e-06
163	0x3531f5b4	6.6295183e-07
164	0x3596444c	1.1195748e-06
165	0x35a79593	1.2486001e-06
166	0x3629ac33	2.5283196e-06
167	0x35bdbed2	1.4137133e-06
168	0x3a0615d8	0.00051149493
169	0x361c3d2b	2.3281416e-06
170	0x3647d02b	2.977448e-06
171	0x357bf0ea	9.385536e-07
172	0x3a6929af	0.0008894456
173	0x378944f5	1.6363783e-05
174	0x371c459b	9.314531e-06
175	0x36f8bd6c	7.4130276e-06
176	0x3a421d74	0.00074049016
177	0x374eee2f	1.2334013e-05
178	0x36c0ee21	5.7497678e-06
179	0x366bc9bb	3.5135151e-06
180	0x3407a2e4	1.2632114e-07
181	0x34796a35	2.322857e-07
182	0x349359c2	2.744619e-07
183	0x347ef673	2.3745251e-07
184	0x38391ec2	4.4136083e-05
185	0x35699853	8.7020925e-07
186	0x34e20964	4.2102613e-07
187	0x34afbcc4	3.2733635e-07
188	0x3b98d2e0	0.00466381
189	0x38aaea1c	8.149838e-05
190	0x377ffe9a	1.52584635e-05
191	0x3741e6f0	1.1557466e-05
192	0x36bfdaf6	5.717734e-06
193	0x35ada194	1.293653e-06
194	0x362c1d9b	2.564723e-06
195	0x35c1b8e9	1.4433436e-06
196	0x3502225f	4.847879e-07
197	0x3420b47d	1.4966822e-07
198	0x3504a4af	4.941348e-07
199	0x34456c2c	1.8386407e-07
200	0x37985d29	1.8163193e-05
201	0x34a68d31	3.102264e-07
202	0x35043596	4.925181e-07
203	0x34136e90	1.3730664e-07
204	0x37a6012c	1.9789288e-05
205	0x362a5a22	2.5384438e-06
206	0x3664cf9e	3.4095497e-06
207	0x363f2b37	2.8486372e-06
208	0x3b986fa2	0.0046519795
209	0x3899007e	7.2957e-05
210	0x37ddac65	2.642553e-05
211	0x376026b8	1.3360455e-05
212	0x338cdc95	6.559382e-08
213	0x33e084be	1.04549585e-07
214	0x340dc7ff	1.3204406e-07
215	0x33eb609c	1.09606134e-07
216	0x381fa7f3	3.806497e-05
217	0x3607c0de	2.022883e-06
218	0x363ab847	2.7823423e-06
219	0x360a0d46	2.0571329e-06
220	0x3afd5308	0.0019327113
221	0x38270264	3.981813e-05
222	0x37801c86	1.5272071e-05
223	0x36fcd224	7.534649e-06
224	0x35188260	5.6814133e-07
225	0x351fa126	5.946662e-07
226	0x35aaa4fc	1.2714004e-06
227	0x35263290	6.1913397e-07
228	0x35e4d034	1.7047919e-06
229	0x3646893d	2.9584182e-06
230	0x3683dc7d	3.9297724e-06
231	0x3665d6a0	3.4248587e-06
232	0x35a75787	1.2467943e-06
233	0x35b2a0b3	1.3308803e-06
234	0x36047eba	1.9743297e-06
235	0x35bf7891	1.4265698e-06
236	0x3399e283	7.16582e-08
237	0x3404095b	1.2296861e-07
238	0x33f4f2d2	1.1406304e-07
239	0x33f4ac4e	1.13934775e-07
240	0x35bfdf50	1.4295601e-06
241	0x363b09ac	2.7870801e-06
242	0x36690f9b	3.472879e-06
243	0x365d8a83	3.301219e-06
244	0x39aa07f6	0.00032430858
245	0x36fc9fd7	7.528793e-06
246	0x3715ff11	8.940479e-06
247	0x36f0c0a6	7.1749846e-06
248	0x35b4c44b	1.3468174e-06
249	0x35cbbae2	1.5179069e-06
250	0x363bf6ca	2.8008822e-06
251	0x35e0d814	1.6752188e-06
252	0x365b365a	3.266518e-06
253	0x36b53b73	5.401141e-06
254	0x37039064	7.841827e-06
255	0x36d782dc	6.4227333e-06
