distributed_shared/worker_logs/worker_2/models/model_episode_40.pt (torch, 816842 bytes, 16 tensors)

0.weight f4 [256, 4]
-0.4605491 -0.15980396 0.049646188 0.022262529 -0.49568868 0.30272552 0.0890713 0.45103085
-0.3356072 -0.23488602 0.27922973 0.40012994 -0.22062932 -0.22168688 0.0929952 0.40389347
-0.11480638 -0.4706022 0.5622278 0.069941394 0.5016305 0.42101535 -0.32986516 0.12416456
0.38360706 -0.25653303 0.15256917 -0.1472116 0.06917806 0.43180138 0.04725307 -0.44584852
-0.36406517 -0.0025934775 -0.11381536 -0.2415244 0.13739544 -0.3216299 -0.42451382 0.031250574
0.39809045 -0.11051706 0.43775508 -0.18527806 0.3267168 0.16502336 -0.2212242 0.29677418
0.17293186 0.2804216 -0.4364078 0.25242454 0.31045267 -0.07491423 0.42934293 0.081167914
-0.015619342 -0.03902092 -0.40547976 0.051978137 0.37525505 -0.27396595 0.4539893 -0.46104082
-0.052796487 0.2725499 -0.40868175 -0.18808712 0.024834437 0.118403845 -0.4283315 -0.17596127
-0.45520878 0.17904681 -0.44650796 -0.33629155 0.3082014 -0.30052385 0.3523637 -0.38931224
-0.45098388 -0.41506073 0.28076363 0.1336788 -0.24442591 -0.0516534 0.22820038 0.0952711
0.43158767 -0.17914417 0.44352186 -0.078610234 0.24016362 0.21315688 0.5014516 -0.215845
0.36569703 0.3097757 0.24176492 -0.26993242 -0.37507048 -0.30171818 0.20616838 0.44024658
0.1895637 0.44754106 0.5057077 0.47534487 -0.23966224 -0.010484122 -0.39206165 -0.21841154
-0.367864 -0.46566808 0.0067810435 -0.058743585 -0.0041604345 -0.44501603 -0.34841502 -0.18197654
-0.06426924 -0.040098097 -0.40128586 0.38488242 -0.3862509 0.45583856 0.15320292 -0.13351117
0.47640157 0.020265091 -0.03194652 0.23570593 -0.35196263 -0.14961842 -0.32105342 0.20779501
0.049937505 0.45976105 -0.30944666 -0.43082824 -0.45803183 -0.020281967 0.23964424 0.31955355
0.18369153 -0.022575645 -0.21569055 -0.11430178 0.29132545 -0.287742 -0.3667113 -0.18809208
0.15584843 -0.35550955 -0.09947878 0.32290205 0.402674 0.24029595 0.10992044 0.10002337
0.35690165 0.4065588 0.456636 -0.38336864 -0.0085582305 -0.42023715 -0.1555894 -0.3357306
0.025479412 0.18807198 0.4700171 0.31640825 0.41103318 -0.037196673 -0.31658396 0.011460391
0.025679335 0.37878436 -0.3729969 -0.44365937 -0.12767322 0.27575254 -0.21397714 0.11753962
-0.048351217 0.4097961 0.2242223 -0.44833475 0.33249745 -0.16696736 0.21411054 -0.24739675
-0.45882705 -0.04390923 0.12996614 -0.07921144 -0.06986974 -0.35973695 -0.3082516 -0.060021743
0.11248469 0.28144383 0.26011723 0.47531486 0.4457807 0.2572638 -0.54563916 -0.17837365
0.23681022 -0.003879965 -0.40758777 -0.096806236 -0.067039244 -0.06689102 -0.25164133 -0.025349867
-0.2290929 0.09076539 0.21339703 0.4475651 0.06643832 -0.18118131 0.53205854 0.5454688
0.13478814 -0.42185533 -0.05592739 -0.40835807 0.2821464 -0.20126446 0.40485194 0.13717909
0.30650908 0.017177103 -0.2578383 -0.3267211 0.19959967 -0.3555893 0.31751654 0.48063478
0.41141582 -0.34914178 0.27861273 -0.35480195 -0.21223213 0.25824744 -0.535871 -0.26748398
0.26202682 0.09583198 0.009962309 0.5096412 -0.36285722 0.14657445 -0.11788598 0.24982132
00000000: 17cd ebbe a6a3 23be cd59 4b3d e85f b63c
00000010: e8ca fdbe d7fe 9a3e 046b b63d 84ed e63e
00000020: b5d4 abbe f685 70be 33f7 8e3e d5dd cc3e
00000030: a7ec 61be e301 63be 4474 be3d 20cb ce3e
00000040: 9b1f ebbd c6f2 f0be 29ee 0f3f 6f3d 8f3d
00000050: db6a 003f 538f d73e 16e4 a8be fd49 fe3d
00000060: 2568 c43e 4c58 83be 183b 1c3e a3be 16be
00000070: 3aad 8d3d 1215 dd3e 6f8c 413d 4246 e4be
00000080: c066 babe 55f7 29bb 0718 e9bd 2c52 77be
00000090: 64b1 0c3e adac a4be e059 d9be 9a00 003d
000000a0: 83d2 cb3e c556 e2bd 6f21 e03e 88b9 3dbe
000000b0: 6d47 a73e e2fb 283e 9988 62be c9f2 973e
000000c0: 0d15 313e 6c93 8f3e d870 dfbe ca3d 813e
000000d0: a7f3 9e3e a26c 99bd d6d2 db3e 5d3b a63d
000000e0: 45e8 7fbc 66d4 1fbd 0b9b cfbe 07e7 543d
000000f0: 6e21 c03e 4445 8cbe 4971 e83e 8b0d ecbe
00000100: 2141 58bd a98b 8b3e bc3e d1be e999 40be
00000110: 9771 cb3c b77d f23d 444e dbbe 312f 34be
00000120: 2011 e9be 0c58 373e b19c e4be 682e acbe
00000130: 93cc 9d3e 43de 99be 0469 b43e ef53 c7be
00000140: 5ce7 e6be d782 d4be 40c0 8f3e 18e3 083e
00000150: c94a 7abe 8492 53bd 5cad 693e 7f1d c33d
00000160: 0ff9 dc3e 9271 37be 4c15 e33e 67fe a0bd
00000170: 74ed 753e cc45 5a3e 225f 003f 7906 5dbe
00000180: a43c bb3e ec9a 9e3e 3991 773e 9534 8abe
00000190: 3d09 c0be ce7a 9abe ce1d 533e 0068 e13e
000001a0: fd1c 423e 1a24 e53e 0f76 013f 6760 f33e
000001b0: 056a 75be 98c5 2bbc 4ebc c8be 46a7 5fbe
000001c0: ac58 bcbe 0c6c eebe 8433 de3b 1d9d 70bd
000001d0: 4154 88bb 24d9 e3be 7463 b2be 0f58 3abe
000001e0: 979f 83bd e73d 24bd 5775 cdbe 4f0f c53e
000001f0: aec2 c5be ac63 e93e 3ae1 1c3e 27b7 08be
00000200: e8ea f33e fa02 a63c 5bda 02bd e55c 713e
00000210: 7234 b4be 9235 19be 1d61 a4be 37c8 543e
00000220: 458b 4c3d cd65 eb3e cb6f 9ebe 8595 dcbe
00000230: 2683 eabe 5e26 a6bc 4d65 753e 869c a33e
00000240: a219 3c3e 8ff0 b8bc fcdd 5cbe 0d17 eabd
00000250: 9c28 953e eb52 93be 95c1 bbbe 369b 40be
00000260: bb96 1f3e 5905 b6be 88bb cbbd 6b53 a53e
00000270: 492b ce3e 2410 763e f81d e13d 0dd9 cc3d
00000280: d0bb b63e 7a28 d03e 32cc e93e e548 c4be
00000290: d237 0cbc 5329 d7be d452 1fbe e2e4 abbe
000002a0: 33ba d03c f195 403e 15a6 f03e 4300 a23e
000002b0: f172 d23e 8a5b 18bd 4b17 a2be 5dc4 3b3c
000002c0: 785d d23c 06f0 c13e 73f9 bebe 5227 e3be
000002d0: c5bc 02be 702f 8d3e d31c 5bbe 9db8 f03d
000002e0: ed0b 46bd cbd0 d13e 889a 653e 228c e5be
000002f0: 1b3d aa3e 7ef9 2abe cb3f 5b3e 9355 7dbe
00000300: 61eb eabe 2ada 33bd d815 053e 9c39 a2bd
00000310: de17 8fbd 712f b8be 27d3 9dbe 5cd9 75bd
00000320: 605e e63d 6819 903e 162e 853e 785c f33e
00000330: 5e3d e43e 15b8 833e 02af 0bbf 95a7 36be
00000340: 617e 723e 0347 7ebb 58af d0be 5942 c6bd
00000350: df4b 89bd 29fe 88bd 22d7 80be 86aa cfbc
00000360: 5497 6abe 34e3 b93d c084 5a3e 4127 e53e
00000370: d010 883d 9887 39be fd34 083f d8a3 0b3f
00000380: e705 0a3e 6cfd d7be 1e14 65bd 4f14 d1be
00000390: 7e75 903e 4518 4ebe c148 cf3e ad78 0c3e
000003a0: c2ee 9c3e ffb6 8c3c 6203 84be fd47 a7be
000003b0: db63 4c3e cd0f b6be 8791 a23e c315 f63e
000003c0: 18a5 d23e b6c2 b2be 54a6 8e3e 9aa8 b5be
000003d0: 6153 59be 0239 843e d82e 09bf a9f3 88be
000003e0: 6128 863e 8f43 c43d f438 233c d877 023f
000003f0: 6cc8 b9be 9d17 163e 346e f1bd 29d1 7f3e

0.bias f4 [256]
0.10467588 0.06550632 0.17124511 0.15309669 0.19402763 -0.2097814 0.11458768 -0.24438806
-0.16166084 0.0059580808 -0.21720688 -0.038260553 -0.14838353 -0.061600305 0.11258243 0.02157607
-0.029080024 0.09899249 0.23069973 0.22412261 -0.103694804 -0.06532369 -0.1961356 0.06731812
0.12605347 -0.14847924 -0.092214525 -0.18586464 -0.16122745 -0.17657253 -0.114001594 0.0041452465
-0.2138342 -0.1987725 0.13705814 0.0353555 -0.13013995 0.08187275 0.24020542 -0.23686542
0.13628764 0.112020366 -0.12927201 0.17292403 -0.0153169045 -0.11235964 0.18621968 0.19299401
-0.17475866 -0.031093601 -0.013059758 0.18442826 -0.13968913 0.10698261 0.19469127 -0.12594377
-0.012888104 -0.06548106 0.21579415 -0.17131245 -0.09409826 -0.075033225 -0.21265471 0.16648933
0.14927247 0.19466487 0.16594045 0.0985149 -0.2124526 0.13938756 -0.1648404 -0.048393827
-0.22415617 -0.20776697 0.07154507 0.22099648 0.11010671 -0.1705201 0.17519352 0.032479096
0.19717605 0.07550696 -0.21657784 -0.035493713 -0.121400125 0.23287974 0.22757839 -0.18254638
-0.038289357 -0.03669304 -0.23050323 0.055021495 -0.12888677 0.036925018 0.008301335 -0.030668357
0.096365914 -0.20667097 0.010239838 0.10790793 -0.016566005 -0.17326508 -0.20761967 0.14216888
0.16119054 0.17361696 -0.10893529 0.037587445 0.1374818 0.028306039 0.2442989 -0.14760795
-0.17563777 0.076853156 0.08110165 -0.19791079 0.118611835 -0.12991114 0.094609484 -0.16448784
-0.033890955 -0.1857723 0.08585839 -0.12332518 -0.1271583 0.19773653 -0.056368604 0.21025017
0.07119903 -0.19853988 -0.24203448 -0.049354147 0.20093217 -0.17567368 -0.2168883 -0.13767911
0.17574693 0.07697256 -0.105342105 0.031696785 -0.03379257 0.018720513 -0.038942732 -0.070164934
-0.18841493 -0.2126871 -0.21295437 -0.19315101 0.15293564 0.19338898 0.091859564 0.15127052
-0.14004332 -0.17173825 0.18253921 -0.2016113 0.15895955 -0.010987739 0.0038117557 -0.05873024
0.2136289 -0.17152761 -0.18391766 0.16604069 0.17578663 0.21616997 0.18790025 -0.23319228
-0.020025901 -0.16449 0.0025939103 0.08615294 0.095223784 -0.14170992 0.0063038836 -0.093600206
-0.0039176694 -0.0862022 0.2098858 0.04864076 -0.12370736 0.14358877 -0.21225657 -0.100967675
0.053994942 0.15058896 -0.046707783 -0.17134435 -0.078909375 -0.18717125 0.100964226 -0.16654192
0.11940617 -0.053611286 -0.11347639 0.18766336 -0.176902 0.11987455 0.034322333 0.21461917
-0.19023195 0.2125823 0.007304173 -0.09015735 0.06096315 -0.23375934 0.12202474 -0.031589482
0.064225815 0.063151896 0.15506265 -0.123858266 -0.037902955 -0.15825664 0.067704186 -0.09510436
0.091245405 -0.024700142 0.045745037 -0.13795093 0.11100511 0.2510929 0.069214866 0.20262589
0.2353042 -0.1019972 0.013095702 0.047735848 -0.03858505 0.071936965 -0.169025 0.071419254
0.16138235 0.03254053 0.22641988 0.05529199 -0.23238307 0.05971453 0.036607448 0.10049057
0.11412603 0.19151114 0.048671402 -0.24858281 -0.08254777 -0.16802572 0.19347067 0.11924934
-0.030121477 -0.20589711 -0.058978546 0.17495249 -0.022419056 -0.14566615 0.113941886 -0.022132332
00000000: 4f60 d63d 2d28 863d e15a 2f3e 61c5 1c3e
00000010: 2eaf 463e efd0 56be f2ac ea3d dd40 7abe
00000020: 6b8a 25be 013c c33b 7b6b 5ebe 19b7 1cbd
00000030: daf1 17be 9a50 7cbd 9e91 e63d 4cc0 b03c
00000040: 3b39 eebc 93bc ca3d 8d3c 6c3e 6680 653e
00000050: f15d d4bd 6dc8 85bd c5d7 48be 15de 893d
00000060: 2914 013e f10a 18be f8da bcbd 4d53 3ebe
00000070: cf18 25be 6ecf 34be ab79 e9bd d9d4 873b
00000080: 5af7 5abe 058b 4bbe f858 0c3e eed0 103d
00000090: 6843 05be e6ac a73d 69f8 753e d98c 72be
000000a0: fd8e 0b3e ef6a e53d e25f 04be ff12 313e
000000b0: c1f3 7abc d01c e6bd 5fb0 3e3e 39a0 453e
000000c0: eff3 32be 02b8 febc 98f8 55bc c3da 3c3e
000000d0: ab0a 0fbe b319 db3d 265d 473e 67f7 00be
000000e0: a028 53bc ef1a 86bd 24f9 5c3e 886c 2fbe
000000f0: 97b6 c0bd 05ab 99bd 28c2 59be 2e7c 2a3e
00000100: e2da 183e 3a56 473e 4bec 293e 2ec2 c93d
00000110: 2d8d 59be 9dbb 0e3e eccb 28be 9b38 46bd
00000120: 3289 65be ddc0 54be 3986 923d e74c 623e
00000130: a07f e13d d29c 2ebe ee65 333e cd08 053d
00000140: 85e8 493e 65a3 9a3d 95c6 5dbe db61 11bd
00000150: a1a0 f8bd 0778 6e3e 4f0a 693e 70ed 3abe
00000160: 4dd5 1cbd 714b 16bd 0a09 6cbe 385e 613d
00000170: e5fa 03be b03e 173d 5302 083c 353c fbbc
00000180: 7e5b c53d 8ea1 53be fec4 273c d5fe dc3d
00000190: 6eb5 87bc 676c 31be 409a 54be b894 113e
000001a0: 220f 253e a5c8 313e 7719 dfbd 4bf5 193d
000001b0: 07c8 0c3e 11e2 e73c 7e29 7a3e 8a26 17be
000001c0: 63da 33be 3065 9d3d 9f18 a63d 20a9 4abe
000001d0: c3ea f23d 6d07 05be 9ec2 c13d 806f 28be
000001e0: 3ed1 0abd 183b 3ebe 86d6 af3d e991 fcbd
000001f0: c935 02be 727b 4a3e c4e2 66bd d24b 573e
00000200: ccd0 913d 0a4e 4bbe e3d7 77be 9327 4abd
00000210: 2ac1 4d3e cde3 33be f717 5ebe c1fb 0cbe
00000220: 01f7 333e caa3 9d3d 9abd d7bd 7dd4 013d
00000230: 146a 0abd c35b 993c 6a82 1fbd a2b2 8fbd
00000240: d8ef 40be a6ca 59be b610 5abe 61c9 45be
00000250: 299b 1c3e c307 463e de20 bc3d a9e6 1a3e
00000260: 8467 0fbe 27dc 2fbe 8feb 3a3e 3173 4ebe
00000270: 4bc6 223e eb05 34bc a6ce 793b 1f8f 70bd
00000280: 89c1 5a3e efa4 2fbe e954 3cbe 9206 2a3e
00000290: 6901 343e a95b 5d3e ec68 403e f5c9 6ebe
000002a0: 5c0d a4bc 1170 28be 98fe 293b f470 b03d
000002b0: b004 c33d 681c 11be cf90 ce3b 77b1 bfbd
000002c0: cb5f 80bb c78a b0bd 4eec 563e 893b 473d
000002d0: 495a fdbd ef08 133e c959 59be 24c8 cebd
000002e0: cd29 5d3d fe33 1a3e a950 3fbd e574 2fbe
000002f0: 3d9b a1bd d2a9 3fbe 55c6 ce3d f789 2abe
00000300: 398b f43d 8297 5bbd 4f66 e8bd d32a 403e
00000310: cc25 35be ca80 f53d 9395 0c3d 21c5 5b3e
00000320: 2acc 42be 2daf 593e d857 ef3b 6ba4 b8bd
00000330: 7fb4 793d 9c5e 6fbe 1be8 f93d f963 01bd
00000340: d388 833d c855 813d bec8 1e3e 67a9 fdbd
00000350: 2140 1bbd 070e 22be 7ea8 8a3d 13c6 c2bd
00000360: dfde ba3d f457 cabc 265f 3b3d 0243 0dbe
00000370: a656 e33d 408f 803e 86c0 8d3d 297d 4f3e
00000380: 96f3 703e e8e3 d0bd 5b8f 563c aa86 433d
00000390: 5b0b 1ebd b053 933d e414 2dbe 4244 923d
000003a0: 6a41 253e 3849 053d 9dda 673e db79 623d
000003b0: d4f5 6dbe 3997 743d b1f1 153d 00ce cd3d
000003c0: e8ba e93d 7f1b 443e aa5b 473d 7e8c 7ebe
000003d0: ce0e a9bd ef0e 2cbe 2d1d 463e ff38 f43d
000003e0: 51c1 f6bc b1d6 52be 7d93 71bd bf26 333e
000003f0: 2ba8 b7bc 8229 15be 5d5a e93d dd4e b5bc

2.weight f4 [256, 256]
0.044797417 0.05773892 0.043473836 -0.012528652 -0.010330019 -0.04501646 0.04709408 0.04235791
-0.0027392688 -0.011009343 -0.02883875 0.045229703 -0.048444454 0.054730464 -0.05003719 -0.04067481
-0.04676213 0.04568642 0.0015200637 0.028333995 0.038998816 0.0069462787 -0.0038882538 -0.02742529
0.020106476 0.038578443 0.028171442 0.0012632614 0.0068868306 -0.072408795 0.052560627 -0.00019315677
0.04007395 -0.0377845 -0.012835692 -0.060387883 0.033010226 0.061885297 0.04406805 0.047157504
0.013507166 0.028625976 0.0341542 0.05880317 -0.058150437 -0.030386241 0.01733899 -0.034764327
0.01392489 -0.03536346 -0.008683368 0.029371299 -0.021454044 0.014632865 -0.05279884 0.034793302
-0.06363192 0.023220334 0.06953265 0.04249749 -0.06853198 -0.019105634 0.014642559 -0.070515245
-0.05560362 -0.0025609322 0.04869889 -0.0031783667 0.044010364 0.019354923 -0.0091960365 -0.045123853
0.030111762 -0.012796124 0.040877737 0.00055356196 0.027911028 0.02719386 0.04589236 0.035679463
0.023668367 0.0111631015 -0.003927735 0.02699587 0.051281232 -0.035722405 0.040769268 0.005231627
-0.037939847 0.034027822 0.04271283 -0.069996044 -0.0017022943 0.04458014 0.041106146 0.037699845
0.025061272 -0.01070767 0.063663185 -0.04168207 -0.033071633 -0.020718347 0.03143569 -0.042345416
-0.030107463 -6.558713e-05 -0.06057003 -0.06669435 0.027146088 0.01928938 -0.011406331 0.017625561
0.030939698 0.07334438 -0.03714718 0.06324977 0.050340377 0.058091354 -0.046874978 0.019435275
-0.017151175 -0.04283197 -0.028595008 0.03964244 -0.046217456 0.01161449 -0.03945583 0.053973276
-0.0038589 0.04352704 -0.017318105 -0.04426338 -0.030520227 -0.071901456 -0.038391847 0.027711747
-0.032953177 -0.020751124 -0.00026482804 0.053579684 -0.049148712 0.03366407 0.010551741 0.051303342
-0.04125623 0.00035160445 -0.007332156 -0.002379425 -0.030423118 -0.03849779 -0.04149048 0.040438592
-0.032287996 -0.023924032 0.007940008 -0.039102405 -0.01640607 0.043650888 -0.012448287 -0.008117763
0.03664966 -0.025501257 -0.02876334 -0.023192951 -0.036242772 -0.02055863 -0.013949262 0.045391392
0.04587961 -0.0081590805 -0.010211249 -0.031720586 0.050694708 0.035430502 -0.004368774 0.07097933
-0.06536814 0.018600253 -0.056442086 0.0054988447 -0.00593055 -0.016545735 0.01737357 0.012245601
-0.019499328 0.031984076 0.008528996 0.026842026 0.06069959 0.033839427 -0.06480794 -0.0007273624
0.038429145 -0.03654878 -0.024867296 -0.036387242 0.0045327614 0.009714008 -0.057311114 0.053606976
0.007846031 -0.056203034 -0.052652195 -0.014192963 -0.049363393 -0.05513882 -0.011833344 0.037477504
0.038761955 -0.0143947555 0.043787114 -0.036932237 -0.031878725 0.0060328343 0.045857906 0.03851745
0.025073742 -0.045122903 -0.036608387 0.02196114 0.0614203 0.04208589 0.0027469797 -0.008498836
0.037385054 0.019399088 -0.042879876 -0.028391369 0.06951355 -0.059845455 -0.059682596 0.005358162
0.015951427 -0.00640827 -0.00912748 0.0038290308 0.027483689 0.0035652735 0.0077006007 0.016596753
0.01173129 0.037995838 0.07744219 0.033581473 0.036655918 0.02664578 -0.00621455 -0.019019037
0.016465278 -0.04933716 -0.0067203217 -0.028991219 0.0014913216 0.062149826 0.011392996 0.045824938
00000000: 7f7d 373d a57f 6c3d 9f11 323d fa44 4dbc
00000010: 3d3f 29bc 2e63 38bd b9e5 403d 7d7f 2d3d
00000020: 4e85 33bb 8860 34bc 3e3f ecbc c842 393d
00000030: b16d 46bd 0d2d 603d ccf3 4cbd a19a 26bd
00000040: a689 3fbd af21 3b3d e03c c73a b21c e83c
00000050: 39bd 1f3d 9c9d e33b 13d2 7ebb 00ab e0bc
00000060: 56b6 a43c 6e04 1e3d ccc7 e63c 0594 a53a
00000070: ecaa e13b 104b 94bd d049 573d 208a 4ab9
00000080: 9524 243d ebc3 1abd cb4c 52bc 4959 77bd
00000090: bb35 073d 707b 7d3d b380 343d 3a28 413d
000000a0: 294d 5d3c 0681 ea3c 46e5 0b3d 98db 703d
000000b0: 272f 6ebd 91ec f8bc 7f0a 8e3c 0a65 0ebd
000000c0: 3925 643c 47d9 10bd af44 0ebc 149c f03c
000000d0: 64c0 afbc afbe 6f3c 9943 58bd 6c83 0e3d
000000e0: 7451 82bd 9238 be3c 2267 8e3d d911 2e3d
000000f0: 7f5a 8cbd 6b83 9cbc 58e7 6f3c 4c6a 90bd
00000100: 9fc0 63bd 50d5 27bb 7d78 473d 254c 50bb
00000110: 3644 343d 378e 9e3c f9aa 16bc cad3 38bd
00000120: f1ac f63c d6a6 51bc 6a6f 273d ea1c 113a
00000130: aba5 e43c a8c5 de3c a1f9 3b3d a124 123d
00000140: 2ae4 c13c 71e5 363c 3bb4 80bb 7126 dd3c
00000150: 450c 523d a851 12bd adfd 263d 116e ab3b
00000160: d066 1bbd c260 0b3d a6f3 2e3d 165a 8fbd
00000170: 851f dfba aa99 363d eb5e 283d 276b 1a3d
00000180: 4c4d cd3c 396f 2fbc d861 823d d1ba 2abd
00000190: 1f76 07bd 86b9 a9bc b6c2 003d 6372 2dbd
000001a0: eda3 f6bc d38b 89b8 4818 78bd 0c97 88bd
000001b0: 7961 de3c c304 9e3c 9fe1 3abc 7b63 903c
000001c0: 4075 fd3c 9435 963d a427 18bd 1889 813d
000001d0: b631 4e3d 33f1 6d3d faff 3fbd ba36 9f3c
000001e0: 9f80 8cbc 9370 2fbd 1440 eabc 1c60 223d
000001f0: 844e 3dbd b44a 3e3c 709c 21bd 1513 5d3d
00000200: 99e5 7cbb 6949 323d b3de 8dbc 854d 35bd
00000210: 8e05 fabc 1241 93bd c540 1dbd bf03 e33c
00000220: e9f9 06bd 43fe a9bc 9ed8 8ab9 5f76 5b3d
00000230: 2950 49bd 56e3 093d 36e1 2c3c 7423 523d
00000240: 4bfc 28bd 8d57 b839 9542 f0bb 21f0 1bbb
00000250: e739 f9bc dcaf 1dbd ecf1 29bd f0a2 253d
00000260: 6b40 04bd 55fc c3bc cf16 023c d829 20bd
00000270: 0666 86bc 46cb 323d e6f3 4bbc 5e00 05bc
00000280: f41d 163d 03e8 d0bc 19a1 ebbc 25ff bdbc
00000290: 4d73 14bd 926a a8bc 728b 64bc 53ec 393d
000002a0: 42ec 3b3d aaad 05bc 154d 27bc 72ed 01bd
000002b0: 41a5 4f3d 931f 113d ef27 8fbb 9c5d 913d
000002c0: bbdf 85bd 8f5f 983c d12f 67bd a72f b43b
000002d0: 0f55 c2bb ec8a 87bc 0453 8e3c c6a1 483c
000002e0: 0ebd 9fbc bc01 033d 34bd 0b3c cfe3 db3c
000002f0: 22a0 783d 369b 0a3d 06ba 84bd 77ac 3eba
00000300: e167 1d3d 2cb4 15bd 80b6 cbbc ca0a 15bd
00000310: 8f87 943b 8127 1f3c 0fbf 6abd fd92 5b3d
00000320: a48c 003c 2735 66bd d4a9 57bd 9a89 68bc
00000330: 4531 4abd 3ed9 61bd a4e0 41bc 0382 193d
00000340: dbc4 1e3d fbd7 6bbc 1e5a 333d 4246 17bd
00000350: 4493 02bd 15af c53b 80d5 3b3d 79c4 1d3d
00000360: 7367 cd3c cbd2 38bd adf2 15bd d9e7 b33c
00000370: da93 7b3d 4162 2c3d ac06 343b b43e 0bbc
00000380: 1221 193d d6ea 9e3c cfa2 2fbd 0495 e8bc
00000390: 1f5d 8e3d 8220 75bd bd75 74bd 8593 af3b
000003a0: 91ac 823c 77fc d1bb 6d8b 15bc 7af0 7a3b
000003b0: 7925 e13c 5da7 693b 5255 fc3b eaf5 873c
000003c0: 9934 403c 86a1 1b3d 039a 9e3d ba8c 093d
000003d0: 8424 163d 4048 da3c 6da3 cbbb d0cd 9bbc
000003e0: 31e2 863c c315 4abd 2536 dcbb fe7e edbc
000003f0: 7378 c33a d190 7e3d b0a9 3a3c eeb2 3b3d

2.bias f4 [256]
-0.052000456 0.027800605 0.009844512 -0.07901618 -0.04168567 -0.012382912 0.012059235 0.00311916
-0.06279639 -0.03610724 0.03201838 -0.053997215 0.020619113 -0.033172186 0.032139465 -0.048092697
-0.025770603 -0.070150174 0.002222189 0.016382802 0.045070644 0.05456921 0.046083413 -0.008501062
-0.044786368 -0.011027872 -0.033243503 0.010459106 -0.02737517 -0.024129657 -0.033588402 0.038653113
0.0134673705 0.04252582 -0.029018275 0.020406103 0.034181006 0.04030291 -0.060889564 0.038816977
0.018108865 -0.048333272 0.060151458 0.020242624 0.06630048 0.033922292 0.061114714 0.023456184
-0.02999394 -0.032782614 0.047708575 -0.059455812 0.007777191 -0.059771836 0.033711642 -0.04526085
0.062504664 -0.01751569 -0.038929515 0.024079772 0.020107914 0.038993873 0.044060092 -0.057169896
0.019277805 0.031930055 -0.013197294 0.025123378 0.055511553 0.046486042 0.07491187 -0.05750273
-0.029643923 0.048255652 -0.03789805 0.043204743 -0.047363386 0.0101463 0.045968316 0.019254578
-0.02983492 0.0005221606 0.046158336 0.06784222 -0.032982763 -0.0041147526 0.033540554 0.026705792
0.052551772 -0.00846368 -0.036850728 -0.03085114 -0.03643099 -0.047880054 0.0023160588 0.007682514
0.017198732 0.05980586 0.005153235 0.042599965 0.010072054 0.028752076 -0.008856859 -0.06857277
0.035447884 -0.052957807 0.045166112 0.0018017176 0.052468203 0.014026714 0.05873403 -0.014226112
-0.041181993 0.03211228 -0.04758564 -0.0007100233 -0.03373535 -0.03027115 0.044352032 0.028126067
0.00935424 0.03566632 -0.0364725 -0.028762568 0.0028891237 -0.06325184 0.03108945 -0.0036781663
0.036617372 -0.04974721 0.0573179 -0.0012380558 -0.027569056 -0.02137487 -0.034551553 0.02279019
-0.001359117 -0.043846022 0.01359192 -0.04408594 0.047664046 -0.056168344 0.009917912 0.016137607
0.013089414 -0.029644297 -0.025303956 -0.040842537 -0.00037166462 -0.028115084 0.012270551 -0.01912898
0.037685364 0.0370448 0.022165854 -0.03827148 -0.010208829 0.05926111 -0.055747367 0.0577981
-0.041545905 0.023557073 0.03837739 -0.042588953 -0.03429359 0.011346533 0.023245247 -0.037727132
-2.3195356e-05 -0.022504317 -0.011187894 0.032440968 0.008008991 0.013789885 0.023014551 0.03585319
0.07599901 0.05195466 -0.020047475 -0.058912378 0.016676556 0.0336239 0.010130153 0.0017542732
0.033186276 0.033526886 0.009117099 -0.013498054 0.047717094 -0.065481596 0.057094477 -0.02605104
-0.015247241 0.023596315 0.056807943 -0.03508635 -0.069260426 -0.032838505 -0.035033032 0.03197736
0.0014033498 0.026526373 0.025240406 -0.020826232 -0.0048605753 -0.07282335 0.015305803 0.018039385
0.016133476 0.0063249567 0.021533621 0.0549686 0.017409086 0.008040363 -0.046667404 0.06863216
0.0087523805 0.0011881455 -0.031935792 -0.016791679 -0.031202761 -0.035738308 0.027365893 0.0009926448
0.056389496 0.038655758 -0.012937387 0.036656756 0.06489797 0.05761401 0.0005153153 -0.02278632
0.0025337026 -0.062021993 0.056423485 -0.008518289 -0.033045698 -0.072064385 -0.01841437 0.023761656
0.0433598 -0.013190942 -0.01973827 0.035951808 -0.055623893 0.05589754 0.049565524 -0.025235422
0.017063944 0.029678175 0.0068702823 -0.0070838938 0.05116701 0.015432588 0.017944368 0.047059476
00000000: 6efe 54bd 18be e33c e04a 213c 3cd3 a1bd
00000010: 98be 2abd b3e1 4abc 1994 453c d26a 4c3b
00000020: 659b 80bd 2fe5 13bd b425 033d 2f2c 5dbd
00000030: 6ae9 a83c 8fdf 07bd aca4 033d d9fc 44bd
00000040: df1c d3bc e5aa 8fbd 25a2 113b 3a35 863c
00000050: ff9b 383d f783 5f3d f6c1 3c3d 0a48 0bbc
00000060: e971 37bd 3fae 34bc 572a 08bd ac5c 2b3c
00000070: e441 e0bc 8fab c5bc fe93 09bd ba52 1e3d
00000080: 3fa6 5c3c 8e2f 2e3d bcb7 edbc b32a a73c
00000090: 6201 0c3d aa14 253d 5667 79bd 8dfe 1e3d
000000a0: 0b59 943c 1cf9 45bd 6061 763d dcd3 a53c
000000b0: 8cc8 873d 1af2 0a3d 6c53 7a3d 2f27 c03c
000000c0: dab5 f5bc 1047 06bd 116a 433d f087 73bd
000000d0: ced7 fe3b 50d3 74bd 3815 0a3d 7163 39bd
000000e0: 7202 803d 107d 8fbc 8e74 1fbd f142 c53c
000000f0: 5ab9 a43c 0ab8 1f3d 5b78 343d fb2a 6abd
00000100: 7dec 9d3c 17c9 023d 7739 58bc 8bcf cd3c
00000110: 1560 633d 2668 3e3d 656b 993d fc87 6bbd
00000120: d0d7 f2bc b8a7 453d fc3a 1bbd 75f7 303d
00000130: 1c00 42bd ab3c 263c 4649 3c3d c7bb 9d3c
00000140: 5d68 f4bc 9be1 083a 8610 3d3d ddf0 8a3d
00000150: ef18 07bd 0cd5 86bb d261 093d 1bc6 da3c
00000160: 8740 573d 3fab 0abc caf0 16bd 88bb fcbc
00000170: a938 15bd e01d 44bd 05c9 173b 99bd fb3b
00000180: 5be4 8c3c fdf6 743d 78dc a83b 4d7d 2e3d
00000190: 4205 253c 7989 eb3c 5c1c 11bc e16f 8cbd
000001a0: cd31 113d 49ea 58bd 1a00 393d 9c27 ec3a
000001b0: e6e8 563d 4dd0 653c 1893 703d a314 69bc
000001c0: 73ae 28bd 2b88 033d 29e9 42bd db20 3aba
000001d0: 142e 0abd 34fb f7bc 7aaa 353d a368 e63c
000001e0: 8742 193c d916 123d 3064 15bd 7a9f ebbc
000001f0: 7457 3d3b 2e8a 81bd 4daf fe3c 640d 71bb
00000200: 19fc 153d bbc3 4bbd 2dc6 6a3d 4246 a2ba
00000210: 80d8 e1bc 5a1a afbc ee85 0dbd 7eb2 ba3c
00000220: 6624 b2ba e397 33bd a5b0 5e3c 7593 34bd
00000230: 603b 433d c710 66bd bd7e 223c 0433 843c
00000240: fb74 563c 99d8 f2bc 3e4a cfbc 814a 27bd
00000250: fbdb c2b9 9b51 e6bc 6c0a 493c 61b4 9cbc
00000260: f85b 1a3d 4abc 173d 2a95 b53c 8ec2 1cbd
00000270: ef42 27bc c7bb 723d 5a57 64bd b3bd 6c3d
00000280: 0a2c 2abd c3fa c03c 9c31 1d3d c171 2ebd
00000290: 6f77 0cbd cfe6 393c d16c be3c c487 1abd
000002a0: a693 c2b7 f95a b8bc 6e4d 37bc d2e0 043d
000002b0: 2538 033c f8ee 613c 0389 bc3c cbda 123d
000002c0: 5ea5 9b3d 69ce 543d 9a3a a4bc 1b4e 71bd
000002d0: 469d 883c 37b9 093d f1f8 253c a4ef e53a
000002e0: 55ee 073d 7d53 093d e35f 153c f126 5dbc
000002f0: 0073 433d 371b 86bd e6db 693d fe68 d5bc
00000300: 90cf 79bc 0f4d c13c 72af 683d b4b6 0fbd
00000310: 69d8 8dbd ab81 06bd cc7e 0fbd b1fa 023d
00000320: 9bf0 b73a d64d d93c f8c4 ce3c c69b aabc
00000330: 7645 9fbb 6924 95bd 31c5 7a3c 55c7 933c
00000340: 5a2a 843c 9541 cf3b 4767 b03c c126 613d
00000350: 809d 8e3c babb 033c 5226 3fbd 058f 8c3d
00000360: 2566 0f3c 8cbb 9b3a 1bcf 02bd b48e 89bc
00000370: ef9c ffbc 5562 12bd 702e e03c a21b 823a
00000380: acf8 663d 8055 1e3d 56f7 53bc 6525 163d
00000390: 3ae9 843d abfc 6b3d 3916 073a 60aa babc
000003a0: 7a0c 263b c60a 7ebd 501c 673d 4b90 0bbc
000003b0: ed5a 07bd 7e96 93bd bcd9 96bc cea7 c23c
000003c0: 0c9a 313d d21e 58bc 27b2 a1bc 3442 133d
000003d0: e1d5 63bd d2f4 643d 3805 4b3d 84ba cebc
000003e0: afc9 8b3c a51f f33c 1b20 e13b 0220 e8bb
000003f0: 8094 513d f7d8 7c3c 1100 933c 70c1 403d

4.weight f4 [2, 256]
0.025395801 0.03340607 0.037927132 0.05349648 -0.05085072 -0.026915805 0.010772061 -0.055780012
-0.06217859 -0.021918215 -0.0476051 -0.04233048 -0.00455973 0.014719868 0.01144196 -0.0021501847
0.07327806 -0.0253649 -0.00032301492 -0.020877229 0.0005295119 0.055054717 -0.07098293 0.030221578
0.032377593 0.053984515 -0.0073031182 0.018568316 -0.039039273 -0.050419565 -0.032711923 0.027245943
0.0024202142 -0.012222545 0.014884444 0.0024488182 -0.056419674 -0.07867435 -0.043174855 -0.037476834
-0.014855547 -0.03293089 0.013856905 -0.033066574 0.043898024 -0.0019912974 0.04496807 0.009418335
0.054858077 -0.0082781855 0.020412423 0.029570533 -0.025971597 0.002255435 0.047915626 -0.015509929
-0.056985516 0.023886092 -0.053083166 0.07914173 -0.0464266 -0.08459954 0.062426418 -0.06771056
-0.003905443 -0.05489717 -0.07186562 -0.03166819 0.008090058 0.047350343 -0.003849829 0.014107279
-0.04590367 0.044080257 -0.046955742 0.023901995 -0.0095675355 -0.053186268 0.004472795 0.010900674
0.017789925 -0.033851106 -0.0040917085 0.010813523 0.009860746 -0.030669775 0.041333098 0.019425185
0.03743766 -0.033615824 -0.014726973 -0.04454302 -0.029342221 0.018978236 -0.02733302 0.056291856
0.036496017 -0.033988774 -0.04499551 0.062340118 0.01108344 -0.03861552 0.009629752 -0.023642367
0.047514845 0.047274247 0.006771699 0.0067167836 0.014061946 0.030429956 -0.06601855 0.03258148
0.024052883 -0.026051283 -0.028653944 -0.0025223626 -0.028844245 0.041137103 0.054129887 -0.057827786
-0.024104273 -0.004777653 -0.019336531 0.05323003 -0.04613464 0.056171224 -0.0496589 0.011888953
0.04563189 0.011152005 0.047486223 0.07307925 0.006859468 -0.0480165 0.0033796441 0.03061243
0.0585069 -0.012313527 0.011994445 -0.042698625 0.031725068 -0.0006307992 -0.0061072693 -0.023873659
-0.06392846 -0.075010456 -0.07191307 0.045454282 -0.01660707 0.07257745 0.04005398 0.008314056
0.030265557 -0.059722397 -0.026911443 -0.006247326 0.027128855 -0.03332749 0.021616895 -0.031592023
-0.042716943 0.026262967 -0.04879085 -0.02232562 -0.016821953 0.01940647 -0.0404233 -0.02488063
0.06482305 -0.028514177 -0.0069371993 0.07460732 -0.04353474 -0.059394248 -0.04669698 0.027786287
-0.04037742 -0.059273455 -0.010473325 0.028209664 0.03113976 -0.058285587 -0.018534897 -0.015747469
-0.057636578 0.04025092 0.014455134 0.050837636 0.06450936 -0.024217362 -0.030929044 -0.04217613
-0.018800352 -0.01900979 -0.0033005986 0.0068744174 0.016948396 5.6567307e-05 0.022201743 0.030105496
0.02835819 -0.04219748 0.03435963 -0.0120492 0.0010712092 0.027061937 -0.0048180586 0.0311595
-0.019332116 0.036034238 0.015193822 -0.043023836 0.038071014 0.019922985 0.07900266 0.015301239
-0.040924486 0.01567226 0.038204983 -0.03981938 0.018644743 -0.029521935 0.06731467 -0.043459903
-0.028726412 -0.04869216 -0.040608145 -0.026267508 -0.043305304 0.045101598 0.037359584 0.03526609
0.09376445 0.013161029 -0.06815414 0.04461159 0.029252786 0.03481196 -0.019600326 -0.0052101696
-0.01648473 -0.0077804276 -0.02370529 -0.0053895083 -0.045627728 -0.029466938 -0.023657009 -0.005880435
0.047278814 -0.09207583 -0.08511568 -0.02060167 -0.009019639 -0.014613665 0.0050415024 -0.025903739
00000000: db0a d03c ced4 083d 7b59 1b3d 201f 5b3d
00000010: d848 50bd 897e dcbc 4c7d 303c 9579 64bd
00000020: faae 7ebd d48d b3bc 91fd 42bd ba62 2dbd
00000030: ca69 95bb 9a2b 713c 0f77 3b3c 1dea 0cbb
00000040: cf12 963d 0dca cfbc 545a a9b9 b906 abbc
00000050: f1ce 0a3a 0e81 613d 805f 91bd 3e93 f73c
00000060: 5e9e 043d de1e 5d3d ff4e efbb 951c 983c
00000070: a5e7 1fbd bf84 4ebd f0fc 05bd e232 df3c
00000080: 759c 1e3b 1241 48bc e2dd 733c 5a7c 203b
00000090: 5118 67bd 0520 a1bd 1ed8 30bd 4f81 19bd
000000a0: ae64 73bc 8ae2 06bd 1208 633c d170 07bd
000000b0: 6ace 333d 6d80 02bb 7030 383d 5c4f 1a3c
000000c0: ddb2 603d 3aa1 07bc f437 a73c e73d f23c
000000d0: 63c2 d4bc eccf 133b 2d43 443d 5b1d 7ebc
000000e0: a569 69bd c4ac c33c bc6d 59bd 0f15 a23d
000000f0: d229 3ebd 8642 adbd d8b2 7f3d d6ab 8abd
00000100: 76f2 7fbb dbdb 60bd 482e 93bd 81b6 01bd
00000110: 2a8c 043c 6ff2 413d 6a4d 7cbb 3722 673c
00000120: 7d05 3cbd 808d 343d aa54 40bd 1ece c33c
00000130: 27c1 1cbc d8d9 59bd 8690 923b be98 323c
00000140: 2dbc 913c 75a7 0abd bd13 86bb 342b 313c
00000150: f78e 213c 2e3f fbbc e54c 293d 9121 9f3c
00000160: 3b58 193d bfb0 09bd 6749 71bc be72 36bd
00000170: 195f f0bc 3f78 9b3c 7fe9 dfbc 4a92 663d
00000180: d97c 153d d037 0bbd 364d 38bd 5a58 7f3d
00000190: 5197 353c 4f2b 1ebd 1bc6 1d3c a3ad c1bc
000001a0: ed9e 423d a4a2 413d 21e5 dd3b 7718 dc3b
000001b0: 1464 663c 3e48 f93c bc34 87bd 2874 053d
000001c0: 8d0a c53c 8069 d5bc adbb eabc 394e 25bb
000001d0: c44a ecbc 617f 283d 4db7 5d3d d4dc 6cbd
000001e0: 5376 c5bc dc8d 9cbb a567 9ebc bb07 5a3d
000001f0: adf7 3cbd cc13 663d 2167 4bbd e2c9 423c
00000200: 81e8 3a3d e6b6 363c ea80 423d 93aa 953d
00000210: 63c5 e03b f3ac 44bd 057d 5d3b ebc6 fa3c
00000220: eea4 6f3d adbe 49bc 5984 443c c1e4 2ebd
00000230: 25f2 013d 385c 25ba 7d1f c8bb b192 c3bc
00000240: edec 82bd 159f 99bd 2947 93bd 452e 3a3d
00000250: 8d0b 88bc 7ca3 943d a40f 243d ae37 083c
00000260: 79ef f73c 799f 74bd 6375 dcbc 5eb6 ccbb
00000270: 553d de3c 6882 08bd ea15 b13c a366 01bd
00000280: f6f7 2ebd 6f25 d73c ead8 47bd 38e4 b6bc
00000290: 31ce 89bc 51fa 9e3c e792 25bd 77d2 cbbc
000002a0: f2c1 843d 9096 e9bc 7251 e3bb b9cb 983d
000002b0: 7c51 32bd 6247 73bd 5545 3fbd 11a0 e33c
000002c0: cb62 25bd b9c8 72bd 4f98 2bbc f417 e73c
000002d0: cf18 ff3c debc 6ebd 7fd6 97bc d600 81bc
000002e0: 5514 6cbd 26de 243d 3ad5 6c3c 203b 503d
000002f0: 7c1d 843d 7d63 c6bc e85e fdbc e1c0 2cbd
00000300: 3203 9abc 6bba 9bbc db4e 58bb cb42 e13b
00000310: 5dd7 8a3c af42 6d38 6ee0 b53c cd9f f63c
00000320: 6f4f e83c 44d7 2cbd afbc 0c3d 026a 45bc
00000330: d167 8c3a ffb0 dd3c cee0 9dbb 3542 ff3c
00000340: 635e 9ebc a398 133d 82ef 783c c339 30bd
00000350: 5af0 1b3d 8735 a33c 26cc a13d 0cb2 7a3c
00000360: 6fa0 27bd 1d63 803c d47c 1c3d a519 23bd
00000370: dcbc 983c fcd7 f1bc 46dc 893d 0303 32bd
00000380: a753 ebbc 6e71 47bd ba54 26bd f52e d7bc
00000390: e760 31bd 74bc 383d 5d06 193d 2d73 103d
000003a0: 9307 c03d 5ba1 573c 6694 8bbd a5ba 363d
000003b0: 8aa3 ef3c fc96 0e3d dd90 a0bc 12ba aabb
000003c0: fc0a 87bc f5f2 febb 9931 c2bc 799a b0bb
000003d0: 24e4 3abd a664 f1bc 58cc c1bc aab0 c0bb
000003e0: 6ea7 413d 4192 bcbd 2151 aebd d5c4 a8bc
000003f0: 1cc7 13bc 276e 6fbc 3033 a53b 1434 d4bc

4.bias f4 [2]
-0.020544194 0.022604262
00000000: 4c4c a8bc 932c b93c

exp_avg f4 [256, 4]
-0.01663054 -0.005029114 -0.0010869704 0.00017858601 -0.004842847 0.0018969992 0.0010617387 4.872556e-05
-0.0071353293 -0.0048802216 -0.001043786 0.00062354584 0.011864138 -0.0047766943 -0.001909226 0.00032353192
-0.0010721445 -0.0025797526 -0.00082313194 0.000210157 -0.013884949 0.0010385218 0.00070834724 0.0005065336
-0.002284255 -0.0024412305 -0.00040050226 0.00039886055 -0.08429029 -0.01215299 -0.0014004597 -0.00042369927
0.040700193 0.013695549 0.009015421 0.0075183925 -0.0039051408 0.00090941327 0.0004571467 0.00019438377
0.025212185 -0.0030144255 -0.0021864928 -0.0005768199 -0.007202074 0.0025402799 0.0013932507 0.0005118424
-0.09179255 0.0036576218 0.0059951935 0.002271791 -0.06887985 0.008017811 0.0047584386 3.1939555e-05
0.00028154394 -0.00020865088 -0.00010401074 6.1091905e-06 0.0035919342 -0.0022916067 -0.0010788573 2.4606137e-05
-0.0064299684 0.0062439595 0.0033295432 0.0015239448 -0.04264699 -0.013034645 -0.004511616 -0.002877814
-0.0003329702 0.0009063241 0.0004331561 -4.8934322e-05 0.0004128902 0.0008336266 0.00028052618 -5.053262e-05
-0.0005566743 -0.0010434028 -0.00039625034 7.619632e-05 8.987289e-05 0.0012810406 0.0004092248 -0.00015158598
-0.0064951037 0.0006288107 0.0005389069 -2.4963889e-05 0.058414552 0.012734286 0.002540213 0.0009517311
0.00039965785 0.0012483767 0.00047280273 -6.69012e-05 -0.0011842074 0.0009836477 0.00043397682 -3.950242e-05
-0.09522712 0.0028157167 0.0053144535 0.0007871443 -0.009720044 -0.0057840077 -0.0011110717 0.0006090888
-0.00327793 0.0013090947 0.00074990385 -3.1610754e-05 -0.00014836236 0.00020289872 7.063564e-05 1.361602e-06
0.056091994 0.01970689 0.007791055 0.0038322199 -7.203081e-05 7.5145094e-06 1.3886451e-05 3.821682e-06
0.03541473 -0.015325209 -0.009148972 -0.0013703682 -0.09827757 0.002772893 0.005623734 0.001047775
0.097785436 -0.006542953 -0.006371439 -0.000392185 -0.00034933156 0.00033864367 0.00011425535 5.6821227e-06
0.023789827 -0.0038769816 -0.0023235006 -4.546074e-06 0.00017899627 -0.0003908435 -4.815224e-05 1.1025946e-05
-6.766579e-05 0.00036067507 0.00015208531 -1.336322e-05 0.00032232518 0.0035105573 0.0010382704 -0.00022847508
-0.033882584 0.0043292544 0.0032357597 0.0001169485 2.7653068e-05 0.00025673333 9.784844e-05 -9.435362e-06
0.002257116 -0.008020759 -0.002659238 -0.0008348031 0.03298714 -0.008775156 -0.0037016799 0.0004244213
-0.059313 0.009560703 0.0050266967 -0.00019581604 0.00022237826 0.0013520158 0.0005586245 -5.757111e-05
0.022812212 -0.0031260124 -0.0021276595 -0.00033670024 -0.068882406 -0.021197245 -0.008956457 -0.006222011
-0.0013339283 0.0011190018 0.00025161562 0.00020336061 -0.0017857796 -0.0017736197 -0.0003415396 0.00025994095
-0.0015061311 0.0028181446 0.0008934511 0.00024780832 -0.019144278 0.00070231134 0.0011079703 0.00010595286
0.04109998 -0.018120104 -0.0062668524 0.0005159914 0.00015605669 0.0001254705 2.0622604e-06 -1.8020964e-05
-0.0034244547 0.0014546448 -0.00012865593 -0.0004786632 -0.053433325 0.007529125 0.00472406 0.0004648239
-0.0002785124 0.0011049436 0.00046900398 -3.2101416e-05 0.00012798315 0.00071989297 0.00029523016 -3.4937413e-05
0.0023758935 -0.0011899836 -0.00058581564 -8.749753e-06 0.0006713304 -0.0006113672 -0.00029247138 2.0269139e-05
0.0012129069 0.0013833528 0.00047177906 -9.846754e-05 0.039727475 0.010175263 0.0020649573 9.145712e-05
-0.0007373337 -0.0014214097 -0.0005490526 7.5561664e-05 -0.00020143128 0.00032955527 0.00013449138 -2.3350383e-06
00000000: c53c 88bc 44cb a4bb ad78 8eba d142 3b39
00000010: bfb0 9ebb bba4 f83a 0a2a 8b3a ac5e 4c38
00000020: 7bcf e9bb 44ea 9fbb a5cf 88ba 7475 233a
00000030: cd61 423c d185 9cbb fe3e faba b89f a939
00000040: 3387 8cba 1111 29bb 73c7 57ba 975d 5c39
00000050: b27d 63bc 021f 883a 61b0 393a e5c8 043a
00000060: 71b3 15bb 0dfd 1fbb 81fa d1b9 281e d139
00000070: 63a0 acbd 561d 47bc a18f b7ba f423 deb9
00000080: 3fb5 263d 4c63 603c 6bb5 133c d95c f63b
00000090: 64ed 7fbb b165 6e3a 31ad ef39 7fd3 4b39
000000a0: c989 ce3c ab8d 45bb 434b 0fbb ba35 17ba
000000b0: 60ff ebbb d37a 263b bc9d b63a 292d 063a
000000c0: bcfd bbbd b6b4 6f3b 5473 c43b 54e2 143b
000000d0: e110 8dbd 235d 033c adec 9b3b d6f6 0538
000000e0: 309c 9339 4bc9 5ab9 5720 dab8 8cfd cc36
000000f0: a866 6b3b c82e 16bb 7268 8dba 4769 ce37
00000100: 7cb2 d2bb 219a cc3b 7734 5a3b 1abf c73a
00000110: 9cae 2ebd 438f 55bc 2ed6 93bb b599 3cbb
00000120: 8192 aeb9 6196 6d3a 3a19 e339 d43e 4db8
00000130: 2f79 d839 bc87 5a3a 9613 9339 fdf2 53b8
00000140: c8ed 11ba cac2 88ba d2bf cfb9 96cb 9f38
00000150: 247a bc38 97e8 a73a 398d d639 0df3 1eb9
00000160: e1d4 d4bb c6d6 243a 6e45 0d3a 8b69 d1b7
00000170: 1944 6f3d 77a3 503c b479 263b 987d 793a
00000180: 2b89 d139 92a0 a33a 82e2 f739 4f4d 8cb8
00000190: 6837 9bba bded 803a 6287 e339 67af 25b8
000001a0: 7006 c3bd e387 383b de24 ae3b 5c58 4e3a
000001b0: d240 1fbc c687 bdbb 61a1 91ba 42ab 1f3a
000001c0: 8ad2 56bb ee95 ab3a 3295 443a ca95 04b8
000001d0: b891 1bb9 36c1 5439 3822 9438 4ac0 b635
000001e0: b8c0 653d 5870 a13c 1b4c ff3b fb25 7b3b
000001f0: 3f0f 97b8 2525 fc36 daf9 6837 003c 8036
00000200: 090f 113d 9616 7bbc 92e5 15bc ed9d b3ba
00000210: c045 c9bd 6db9 353b 4d47 b83b 7f55 893a
00000220: bb43 c83d 4566 d6bb 81c7 d0bb 2e9e cdb9
00000230: 7d26 b7b9 fc8b b139 609c ef38 10a9 be36
00000240: e2e2 c23c f514 7ebb df45 18bb 7a8a 98b6
00000250: f2b0 3b39 20ea ccb9 13f7 49b8 14fc 3837
00000260: cbe7 8db8 fd18 bd39 1779 1f39 9832 60b7
00000270: c1fd a839 6111 663b 9316 883a d092 6fb9
00000280: 77c8 0abd 6bdc 8d3b 0a0f 543b 3f42 f538
00000290: 83f8 e737 2a9a 8639 fb33 cd38 924c 1eb7
000002a0: 1fec 133b 8069 03bc 9c46 2ebb b0d6 5aba
000002b0: 861d 073d acc5 0fbc e297 72bb dd84 de39
000002c0: 30f2 72bd 7fa4 1c3c fdb6 a43b f853 4db9
000002d0: 362e 6939 1f36 b13a a870 123a 8278 71b8
000002e0: ade0 ba3c c9dd 4cbb 3470 0bbb 2487 b0b9
000002f0: 3812 8dbd d8a5 adbc 1abe 12bc 03e2 cbbb
00000300: 35d7 aeba 78ab 923a 47eb 8339 333d 5539
00000310: d210 eaba cd78 e8ba ab10 b3b9 af48 8839
00000320: 6069 c5ba 9fb0 383b 7d36 6a3a 45ec 8139
00000330: 76d4 9cbc 511b 383a 5039 913a 0233 de38
00000340: 7458 283d 9d70 94bc 2b5a cdbb 9943 073a
00000350: 26a3 2339 bb90 0339 5d65 0a36 ba2b 97b7
00000360: d16c 60bb c8a9 be3a d0e7 06b9 16f5 fab9
00000370: e7dc 5abd e1b6 f63b 4acc 9a3b 9cb3 f339
00000380: 4d05 92b9 c1d3 903a a6e4 f539 a2a4 06b8
00000390: 3733 0639 33b7 3c3a 1fc9 9a39 c389 12b8
000003a0: e1b4 1b3b 39f9 9bba 6c91 19ba e7cb 12b7
000003b0: 38fc 2f3a 2944 20ba d856 99b9 a507 aa37
000003c0: 67fa 9e3a 9e51 b53a 1d59 f739 5c80 ceb8
000003d0: 47b9 223d 25b6 263c 3c54 073b abcc bf38
000003e0: a149 41ba 984e baba 4cee 0fba dc76 9e38
000003f0: 4c37 53b9 29c8 ac39 4106 0d39 a7b3 1cb6

exp_avg_sq f4 [256, 4]
4.8924965e-05 4.3697387e-06 1.0464827e-06 2.7516316e-07 4.2066013e-06 4.507843e-06 5.6290655e-06 4.114367e-06
4.0725317e-05 1.4483832e-05 6.578849e-07 4.8151696e-07 6.8567635e-05 1.7773067e-05 8.416572e-06 6.2185545e-06
5.077596e-06 3.5801952e-06 5.643326e-07 3.4104016e-07 0.00013497946 1.2026845e-05 4.5230845e-06 4.6582595e-06
1.290106e-05 5.2851788e-06 2.886907e-07 5.1160714e-07 0.001063086 2.2362392e-05 4.6974487e-06 1.020377e-06
0.009298269 0.00014350664 3.125577e-05 2.0136762e-05 1.050524e-05 9.910016e-07 4.7268367e-07 2.9142836e-07
0.0009651347 2.4679633e-05 3.8708617e-06 2.5905163e-06 0.00013121523 9.916673e-06 1.3303149e-05 1.0025616e-05
0.0060232333 3.019954e-05 1.982075e-05 7.0069827e-06 0.0014236895 7.1693634e-05 3.6637277e-06 3.881144e-06
1.2173044e-07 1.5319071e-07 2.566865e-07 1.7034085e-07 2.2657212e-06 2.6047112e-06 1.4027725e-06 1.0237145e-06
0.00068913936 1.0218472e-05 1.6271388e-05 9.76128e-06 0.0023331493 4.6452897e-05 7.4476716e-06 5.48453e-06
2.0130205e-06 3.1993934e-06 4.9216605e-06 3.5621406e-06 3.04244e-06 4.442941e-06 6.6769717e-06 4.9636055e-06
1.3050161e-06 1.2872312e-06 2.930004e-06 1.1283598e-06 4.337531e-06 4.4266853e-06 5.762835e-06 4.0377377e-06
2.5438917e-06 1.4765646e-07 2.5632067e-07 1.2716002e-07 0.0013288271 2.0397489e-05 9.6866115e-06 4.3212262e-06
2.2389627e-06 2.6529558e-06 4.1290805e-06 2.474957e-06 2.6582546e-07 4.285131e-07 3.3684887e-07 2.0469454e-07
0.0012498007 7.971524e-06 9.983114e-06 5.1791867e-06 8.598997e-05 1.8310313e-05 2.331449e-06 1.7243062e-06
1.2165558e-06 9.773802e-07 1.1635549e-06 6.940999e-07 3.1370203e-06 5.863151e-06 8.91882e-06 7.08231e-06
0.006712654 8.6601525e-05 2.40254e-05 1.3691957e-05 1.0730104e-06 1.4123211e-06 2.419589e-06 1.5789167e-06
0.008160363 0.00014875706 3.592084e-05 2.014133e-05 0.0019185265 5.5356263e-06 6.9158336e-06 1.4513226e-06
0.001545386 2.343322e-05 7.2753323e-06 1.8758532e-06 8.347065e-07 1.4093092e-06 1.3340405e-06 1.4216188e-06
6.522396e-05 6.0972525e-06 2.3193288e-06 9.2842856e-07 2.8063318e-06 4.7841695e-07 1.7535095e-07 1.0609225e-07
1.3289033e-06 2.7477474e-06 3.4734658e-06 3.1911889e-06 2.6479884e-05 8.298556e-06 5.947397e-06 5.1204047e-06
0.00029184646 7.221488e-06 2.2315726e-06 6.4743614e-07 9.2704323e-07 1.0516458e-06 2.0736045e-06 1.1574189e-06
0.0015840838 9.9683575e-06 5.7656057e-06 2.6537177e-06 0.0023190132 5.289255e-05 1.2730505e-05 7.7683435e-06
0.0012319392 7.113649e-05 6.8324234e-06 5.7438324e-06 2.487263e-07 7.1351786e-07 3.0184978e-07 1.9650028e-07
7.6539596e-05 4.4528106e-06 8.415019e-07 3.3077222e-07 0.010024319 0.00019139193 2.7214868e-05 2.4658191e-05
3.9937167e-05 2.161685e-06 2.7368822e-06 1.1915885e-06 5.537321e-06 2.510719e-06 4.6583665e-07 2.6130706e-07
8.518745e-05 4.185177e-06 1.2248443e-06 2.7545107e-07 4.197295e-05 2.1866924e-06 2.990958e-06 2.343946e-06
0.010377201 0.00020975157 3.7603684e-05 2.1090369e-05 1.540793e-07 1.7777646e-07 1.1618882e-07 9.093198e-08
0.00012925333 2.8355312e-06 2.576704e-06 1.7462947e-06 0.0033770422 6.779861e-05 1.6597663e-05 8.2530405e-06
5.6446834e-07 8.4880145e-07 1.0947313e-06 5.0804704e-07 1.4481566e-06 2.5741947e-06 3.2397215e-06 2.8041634e-06
1.6431121e-06 1.6090394e-06 1.6843774e-06 1.1703763e-06 1.6021781e-07 1.8724276e-07 1.1452653e-07 9.347349e-08
2.1854694e-06 3.1681673e-06 2.94144e-06 2.7068602e-06 0.0010018687 2.3686154e-05 9.489816e-06 6.3578996e-06
1.4594832e-06 1.8501426e-06 2.373303e-06 1.3735433e-06 2.7467047e-06 4.4880585e-06 6.4327605e-06 5.258181e-06
00000000: c834 4d38 c59f 9236 df74 8c35 23ba 9334
00000010: 6e26 8d36 1442 9736 4ee1 bc36 250e 8a36
00000020: 7ad0 2a38 96ff 7237 8299 3035 9841 0135
00000030: f8cb 8f38 5f17 9537 e734 0d37 faa8 d036
00000040: 3860 aa36 4943 7036 a47c 1735 3418 b734
00000050: 4689 0d39 e8c6 4937 00c5 9736 254e 9c36
00000060: a171 5837 5757 b136 59fd 9a34 6055 0935
00000070: 3f57 8b3a df96 bb37 c79e 9d36 e3f3 8835
00000080: c457 183c 457a 1639 a118 0338 5eeb a837
00000090: aa3f 3037 8e02 8535 26c5 fd34 9c75 9c34
000000a0: 1801 7d3a 1c07 cf37 73e2 8136 bbd8 2d36
000000b0: d296 0939 c95f 2637 9730 5f37 b133 2837
000000c0: 8b5e c53b 0555 fd37 bd44 a637 861d eb36
000000d0: 189b ba3a 3a5a 9638 5dde 7536 c63a 8236
000000e0: 02b5 0234 be7c 2434 b9ce 8934 f0e6 3634
000000f0: cb0c 1836 99cc 2e36 e546 bc35 9066 8935
00000100: 5ca7 343a 0170 2b37 8a7e 8837 61c4 2337
00000110: c0e7 183b 6bd6 4238 03e7 f936 c107 b836
00000120: 6e17 0736 29b5 5636 be24 a536 1c0d 6f36
00000130: b92c 4c36 9314 9536 c00a e036 0c8d a636
00000140: 0328 af35 edc4 ac35 16a1 4436 2672 9735
00000150: 1c8b 9136 f088 9436 605e c136 e77b 8736
00000160: bab7 2a36 808b 1e34 729c 8934 7b89 0834
00000170: 0a2c ae3a 461b ab37 ae83 2237 0dff 9036
00000180: 1641 1636 6f09 3236 888c 8a36 7017 2636
00000190: c6b6 8e34 640e e634 28d8 b434 02ca 5b34
000001a0: 5ad0 a33a 6fbd 0537 267d 2737 e0c8 ad36
000001b0: 8355 b438 1999 9937 fd75 1c36 b66e e735
000001c0: 8a48 a335 872e 8335 712b 9c35 2f52 3a35
000001d0: 9985 5236 15bc c436 0aa2 1537 94a4 ed36
000001e0: d3f5 db3b d79d b538 278a c937 82b6 6537
000001f0: 5b04 9035 fc8e bd35 3960 2236 2aeb d335
00000200: 0bb3 053c abfb 1b39 b5a9 1638 2df5 a837
00000210: 1177 fb3a abbe b936 8f0e e836 11cb c235
00000220: 8d8e ca3a 7592 c437 a11e f436 d3c5 fb35
00000230: 9810 6035 7f27 bd35 480d b335 73ce be35
00000240: d9c8 8838 0097 cc36 c4a5 1b36 2039 7935
00000250: 6a54 3c36 906c 0035 1a48 3c34 d5d4 e333
00000260: c55c b235 f165 3836 b019 6936 3528 5636
00000270: 1e21 de37 073a 0b37 c08f c736 f1cf ab36
00000280: f802 9939 1c50 f236 20c2 1536 79cb 2d35
00000290: edd9 7835 4626 8d35 4128 0b36 9c58 9b35
000002a0: 08a1 cf3a c53d 2737 2d76 c136 8616 3236
000002b0: 96fa 173b f1d8 5d38 1a95 5537 c854 0237
000002c0: 0579 a13a 1d2f 9538 1242 e536 25bb c036
000002d0: af88 8534 9388 3f35 eb0d a234 96fd 5234
000002e0: e283 a038 5a69 9536 92e3 6135 fd94 b134
000002f0: 0b3d 243c 61b0 4839 7c4b e437 10d9 ce37
00000300: 3582 2738 7711 1136 47ab 3736 abee 9f35
00000310: 3acd b936 d37d 2836 1a18 fa34 c549 8c34
00000320: aaa6 b238 666e 8c36 5465 a435 b5e1 9334
00000330: 1d0c 3038 17bf 1236 44b8 4836 b04c 1d36
00000340: 2305 2a3c c2f0 5b39 a6b8 1d38 39eb b037
00000350: ff70 2534 d2e2 3e34 7b83 f933 6246 c333
00000360: 2d88 0739 0e4a 3e36 70eb 2c36 3b62 ea35
00000370: 5e51 5d3b 1a2f 8e38 363b 8b37 8a76 0a37
00000380: f885 1735 31d9 6335 aeee 9235 ba60 0835
00000390: 485e c235 54c0 2c36 fe69 5936 292f 3c36
000003a0: e788 dc35 2cf6 d735 c412 e235 d315 9d35
000003b0: 5608 2c34 e60c 4934 a0f1 f533 98bb c833
000003c0: 14aa 1236 b39c 5436 8e65 4536 81a7 3536
000003d0: 2351 833a a1b1 c637 7336 1f37 f155 d536
000003e0: 76e3 c335 6a52 f835 0945 1f36 975a b835
000003f0: 0754 3836 2198 9636 fed8 d736 6e6f b036
