distributed_shared/worker_logs/worker_5/models/model_episode_0.pt (torch, 816814 bytes, 16 tensors)

0.weight f4 [256, 4]
0	0x3e9c9807	0.30584738
1	0xbb1f2b08	-0.0024287123
2	0xbebf2a64	-0.3733703
3	0xbdf56798	-0.119826496
4	0x3cec0cad	0.028814638
5	0x3e84a272	0.25905186
6	0xbe2f5a1b	-0.17124216
7	0x3e53149a	0.20613328
8	0x3def4faf	0.1168512
9	0xbea8ee24	-0.32994187
10	0xbe42afb2	-0.19012335
11	0xbe975d8b	-0.29563555
12	0xbeafb77a	-0.3431967
13	0xbd7165af	-0.058934864
14	0x3e8c0fea	0.2735589
15	0xbec8e130	-0.39234304
16	0x3ee680b0	0.45020056
17	0x3e1a0c9f	0.15043877
18	0xbde7281c	-0.11286947
19	0xbea075eb	-0.31339964
20	0x3db5e5bd	0.0888171
21	0xbe319c38	-0.17344749
22	0x3e8a9a60	0.27070904
23	0xbb7fd414	-0.003903632
24	0x3c81a2d3	0.015824711
25	0xbdaeded6	-0.08538596
26	0xbeedf3ee	-0.46475166
27	0x3dc1f8ec	0.09471306
28	0x3da40264	0.080082685
29	0x3ece4cd8	0.40293002
30	0xbdc5ef10	-0.09664738
31	0x3e4d2faf	0.20037721
32	0xbde2a06c	-0.11065754
33	0x3db7ca94	0.089741856
34	0x3e0e4a9d	0.1389565
35	0x3ef8a769	0.48565224
36	0x3efef65c	0.49797332
37	0x3e33e000	0.17565918
38	0xbe2d442a	-0.16920534
39	0xbe77eca7	-0.2421137
40	0xbe38bf9f	-0.18041848
41	0x3d0a38f9	0.03374574
42	0xbeecaffc	-0.46228015
43	0xbe8a089e	-0.269597
44	0xbe987289	-0.29774883
45	0x3de6b890	0.11265671
46	0xbef06bb0	-0.4695716
47	0x3e644287	0.22291003
48	0xbe2e5b1c	-0.17026943
49	0xbefd3071	-0.4945102
50	0x3e537666	0.20650634
51	0xbe8a8371	-0.27053407
52	0x3e458b88	0.19291508
53	0x3e06315a	0.13104764
54	0x3ed5f4df	0.41788384
55	0x3e134bed	0.14384432
56	0x3e6045c3	0.21901612
57	0xbe1267af	-0.14297365
58	0xbed3bb68	-0.41353917
59	0xbc7c1c4c	-0.015387606
60	0x3d7ee743	0.062232267
61	0x3dddba7a	0.10826583
62	0x3ee86c34	0.45395052
63	0xbef90ce1	-0.48642638
64	0x3ea896b2	0.3292747
65	0xbedb9c31	-0.42892602
66	0xbe5d1167	-0.2158867
67	0x3e191df9	0.1495284
68	0xbe609cc9	-0.21934809
69	0x3e77e95b	0.24210112
70	0x3db6510f	0.089021794
71	0xbbbfe2cc	-0.0058558937
72	0x3ed1416e	0.4087023
73	0x3eaeac75	0.3411595
74	0xbe904693	-0.28178844
75	0x3c73fee0	0.01489231
76	0x3c577a1c	0.013151672
77	0xbebc5deb	-0.36790404
78	0x3d79996b	0.060937326
79	0x3d3848ba	0.044991232
80	0x3eb3fa73	0.35152015
81	0x3ec14e76	0.37755173
82	0xbe588ae6	-0.21146736
83	0x3ed6335b	0.41836056
84	0xbe7cefab	-0.24700801
85	0xbef83d3e	-0.48484224
86	0xbdd6381c	-0.10459921
87	0x3e0df736	0.13863835
88	0xbd598400	-0.0531044
89	0x3e30fcbe	0.17283913
90	0xbeb48968	-0.35261083
91	0xbe969f81	-0.29418567
92	0x3d0c1996	0.03420409
93	0x3ed505ce	0.4160599
94	0xbeec4909	-0.4614947
95	0xbba6b146	-0.0050870506
96	0xbdcaffa0	-0.09912038
97	0x3e5a0b60	0.21293402
98	0xbed7d445	-0.42154136
99	0xbe1d3e45	-0.15355785
100	0x3ccbc148	0.024872437
101	0xbedc2357	-0.42995712
102	0x3ea31948	0.31855226
103	0xbe4de2db	-0.2010607
104	0x3e8c79e9	0.2743676
105	0xbe7999cd	-0.24375077
106	0x3e64e5b2	0.22353247
107	0xbebbba9a	-0.36665803
108	0x3eee263f	0.46513554
109	0xbe24ec49	-0.1610576
110	0x3ee943bb	0.45559487
111	0xbead9ea8	-0.33910108
112	0x3e186828	0.14883482
113	0x3b4783f5	0.0030443643
114	0x3db56437	0.08857005
115	0xbee85a93	-0.45381603
116	0xbe232409	-0.15931715
117	0x3e95db40	0.29268837
118	0xbed0072b	-0.4063047
119	0xbe8ae0d9	-0.2712467
120	0x3e8f17d4	0.27947867
121	0x3ec5d2d1	0.38637403
122	0x3edde815	0.43341127
123	0xbef3b842	-0.47601515
124	0x3d52f053	0.051498722
125	0x3d395790	0.04524952
126	0x3ee3306b	0.44372877
127	0xbec963b6	-0.39333886
128	0xbea5da20	-0.3239298
129	0x3e42be61	0.19017936
130	0xbde9bad3	-0.11412587
131	0xbe479877	-0.19491754
132	0xbe2130a9	-0.15741219
133	0xbe4ab339	-0.1979493
134	0xbd06e943	-0.0329373
135	0xbd320a1c	-0.043466672
136	0x3e9a0b80	0.300869
137	0xbe83a3a6	-0.2571079
138	0xbec82cf8	-0.39096808
139	0xbc110eec	-0.008853655
140	0xbdc272a7	-0.094945244
141	0x3e371fa2	0.1788316
142	0xbeeb0606	-0.45903033
143	0xbefec4d3	-0.4975954
144	0xbedf28de	-0.43585867
145	0x3ebb441b	0.36575398
146	0xbe92017b	-0.28516755
147	0x3d4d1ecd	0.050078202
148	0x3cbbee70	0.022940844
149	0xbe632964	-0.22183758
150	0xbe4f0d7b	-0.20219986
151	0xbeb7b980	-0.35883713
152	0xbe499f6b	-0.1968972
153	0xbdf4c7d6	-0.11952178
154	0xbe409fbc	-0.18810934
155	0xbedc6968	-0.4304917
156	0xbe00940e	-0.12556478
157	0xbea989af	-0.33112857
158	0xbe8db8b0	-0.27679968
159	0xbe8453ae	-0.25845093
160	0xbea7ce13	-0.3277441
161	0x3ef6d0cd	0.48206177
162	0xbe9085e6	-0.28227156
163	0x3ec57f13	0.38573512
164	0x3ee4007f	0.44531628
165	0x3df472f7	0.1193599
166	0x3de2dd3e	0.11077355
167	0x3eebe815	0.46075502
168	0xbef38f38	-0.47570205
169	0x3d8eb224	0.069675714
170	0xbe157096	-0.1459373
171	0xbe9ec245	-0.3100759
172	0xbe81a753	-0.2532297
173	0x3ec4db2d	0.38448468
174	0x3e9ff287	0.3123972
175	0xbe5bac13	-0.2145236
176	0xbe2a1814	-0.16610748
177	0xba4bd1b5	-0.0007775084
178	0x3d626294	0.055269793
179	0x3ebc63c3	0.36794862
180	0x3e702e8b	0.23455255
181	0xbe508f5b	-0.20367186
182	0x3bd26069	0.0064201844
183	0x3eb6c8c3	0.35700044
184	0xbeac180a	-0.3361209
185	0xbece9637	-0.4034898
186	0xbe697d07	-0.228016
187	0x3e8dc177	0.27686664
188	0xbc20e04b	-0.009819101
189	0xbee3fd95	-0.44529405
190	0x3dd57600	0.10422897
191	0xbe6302e9	-0.22169079
192	0x3e87769d	0.26457682
193	0xbd0da629	-0.03458229
194	0xbeb58c32	-0.35458523
195	0x3e1acd89	0.15117468
196	0xbeaffbd9	-0.34371832
197	0xbef2bc35	-0.47409216
198	0xbebc9c7e	-0.36838144
199	0xbe532e68	-0.20623171
200	0x3e8f7fbb	0.28027138
201	0x3ea999c7	0.33125135
202	0x3ef3798b	0.47553667
203	0x3dbda8b2	0.09260692
204	0x3e070eeb	0.13189285
205	0xbde0b757	-0.10972469
206	0x3e914797	0.2837493
207	0x3d8193dd	0.06327031
208	0xbeb03534	-0.3441559
209	0x3d5cbf29	0.053893242
210	0xbea46435	-0.32107702
211	0xbebb71de	-0.3661031
212	0xbdc22dc1	-0.09481383
213	0xbe8a41e3	-0.27003393
214	0xbec30916	-0.3809287
215	0x3eac1348	0.3360846
216	0xbe608c38	-0.21928489
217	0xbd8d1412	-0.06888594
218	0xbec9764c	-0.39348066
219	0x3ea74a25	0.32673755
220	0x3eb26f95	0.34850755
221	0xbddf62c8	-0.10907513
222	0xbc374dde	-0.011187999
223	0x3edb76cc	0.42864072
224	0xbe328240	-0.17432499
225	0xbd51a787	-0.051185157
226	0xbd5afc0d	-0.05346303
227	0xbea51ab8	-0.32246947
228	0x3e9c2efc	0.30504596
229	0xbe872954	-0.26398718
230	0x3efd95fc	0.49528491
231	0x3e06d420	0.13166857
232	0x3e7ea4e5	0.2486759
233	0x3e1d6b54	0.15372974
234	0xbee80e3a	-0.45323354
235	0x3ec47987	0.38373968
236	0xbe3c96a9	-0.18416847
237	0x3e066376	0.13123879
238	0x3e97750b	0.29581484
239	0xbef10017	-0.4707038
240	0xbe597dd3	-0.21239404
241	0x3e1ad887	0.15121661
242	0xbdbc9d6f	-0.092097156
243	0xbebfcb06	-0.37459582
244	0x3d937be1	0.072013624
245	0xbe4d808c	-0.20068568
246	0xbd75bd32	-0.059994884
247	0xbe75e858	-0.24014413
248	0x3e919568	0.284343
249	0x3eb7e196	0.35914296
250	0x3e1a4512	0.1506541
251	0xbd540d6e	-0.05177062
252	0x3dc5d683	0.096600555
253	0xbe08d1f7	-0.13361345
254	0x3d301d1d	0.042996515
255	0x3e6a095a	0.2285513

0.bias f4 [256]
0	0xbed10ea4	-0.40831482
1	0x3d7ccf79	0.0617213
2	0xbea19df8	-0.31565833
3	0xbda62084	-0.081116706
4	0xbee52bbd	-0.44759932
5	0x3ed33b07	0.41255972
6	0xbebf9a3f	-0.37422368
7	0xbecbb609	-0.3978732
8	0xbec190c3	-0.37805757
9	0x3d011d65	0.031522173
10	0xbe2dcf5e	-0.16973636
11	0x3e9f7943	0.31147203
12	0x3ebcccf0	0.36875105
13	0x3e5e45e9	0.21706356
14	0xbee07edf	-0.43846795
15	0xbe152d6e	-0.14568111
16	0xbd1f17ee	-0.03884118
17	0xbefe9ade	-0.4972753
18	0x3d3cb2f4	0.0460691
19	0xbde02939	-0.109453626
20	0xbe625ad2	-0.22104958
21	0x3da6e43b	0.08149
22	0x3cd244e5	0.025667617
23	0x3c7d43fc	0.015458103
24	0x3e02230c	0.12708682
25	0x3e16bdbd	0.14720817
26	0x3e045974	0.12924749
27	0x3e88bf7a	0.26708585
28	0xbd8168be	-0.06318806
29	0xbcf041a7	-0.02932818
30	0xbdc4f9b6	-0.09617941
31	0x3e2aa305	0.1666375
32	0xbec7eb9c	-0.39046943
33	0x3efc68fa	0.4929884
34	0x3dc41986	0.09575181
35	0xbebd3251	-0.3695245
36	0xbe5b0d21	-0.21391727
37	0x3ee25c90	0.44211245
38	0x3eabe0a3	0.33569822
39	0x3e9055c8	0.28190446
40	0xbecbde3e	-0.39817995
41	0xbeb27231	-0.34852746
42	0xbd4c30e0	-0.0498513
43	0x3deeba3d	0.11656616
44	0x3edf9f36	0.43676156
45	0x3dc86232	0.09784354
46	0x3e845f48	0.25853944
47	0xbd90507b	-0.070466004
48	0x3e064c0c	0.13114947
49	0xbe9b053f	-0.3027744
50	0x3daf2019	0.08551044
51	0x3ec22991	0.37922338
52	0x3ebf46eb	0.37358794
53	0x3ec3a812	0.38214165
54	0x3e3037f9	0.17208852
55	0x3e03b509	0.12862028
56	0x3e843340	0.2582035
57	0xbe681409	-0.22663893
58	0x3e37fd48	0.17967713
59	0xbd264a25	-0.040598053
60	0xbdfcb64e	-0.12339459
61	0x3ed369a6	0.4129154
62	0x3ecd356e	0.40079826
63	0xbe27bfb0	-0.16381717
64	0x3e601bf6	0.21885666
65	0x3eb766dc	0.35820663
66	0x3efac95a	0.48981744
67	0x3da536ed	0.08067117
68	0xbe0598fb	-0.13046639
69	0x3c99f302	0.018792633
70	0x3ec9bfd5	0.3940417
71	0xbde2a411	-0.110664494
72	0xbebb4da5	-0.36582676
73	0xbe1662b4	-0.1468609
74	0x3e3315a8	0.1748873
75	0x3ebccd2d	0.36875287
76	0x3d99cb6f	0.07509505
77	0x3d8b268f	0.06794464
78	0x3ea9e202	0.33180243
79	0xbe301dc8	-0.1719886
80	0x3c6b2f8c	0.014354598
81	0x3e19ddf2	0.15026072
82	0xbeb9d32a	-0.36293918
83	0xbd8832bb	-0.06650301
84	0x3ed47074	0.41492045
85	0xbe847465	-0.25870052
86	0x3eef8d40	0.46787453
87	0x3c395fa1	0.011314304
88	0x3e9fff43	0.31249437
89	0xbe6e3694	-0.23263007
90	0x3ecbef9d	0.39831248
91	0x3ecdb227	0.40174982
92	0x3e37cbfe	0.1794891
93	0xbb8199a6	-0.003955084
94	0x3c69918a	0.014255891
95	0x3e4dbaf1	0.20090844
96	0x3e9a1894	0.30096877
97	0xbe0f6653	-0.14003877
98	0x3e75a47d	0.23988529
99	0xbe57542e	-0.21028206
100	0xbe23458d	-0.159445
101	0xbed7c8f2	-0.42145497
102	0x3eef5d9a	0.467511
103	0xbdf178da	-0.11790629
104	0xbd6fe3ce	-0.05856686
105	0x3e9c82d3	0.3056856
106	0xbe10d60f	-0.14144157
107	0x3e9e0db8	0.30869842
108	0xbda50a7d	-0.08058641
109	0x3def8d28	0.11696845
110	0xbeb60d08	-0.35556817
111	0x3e079eb7	0.13244139
112	0xbe916aec	-0.28401887
113	0x3ec0d0f1	0.3765941
114	0xbd26f385	-0.040759582
115	0x3ea2ae92	0.31773812
116	0xbef6f909	-0.48236874
117	0xbe07fb0e	-0.13279364
118	0xbe550b9d	-0.20805211
119	0xbe04f80b	-0.12985246
120	0xbe7af0db	-0.24505942
121	0xbdec14c8	-0.11527401
122	0xbbd4f91f	-0.006499424
123	0x3e183601	0.14864351
124	0xbefe4b8b	-0.4966701
125	0x3efde30f	0.49587294
126	0xbee10712	-0.43950707
127	0xbef718d8	-0.48261142
128	0x3e9e72fb	0.30947098
129	0xbeddba04	-0.4330598
130	0xbe55a43a	-0.20863429
131	0xbe7c7664	-0.24654537
132	0xbed817d2	-0.42205673
133	0x3e73787d	0.23776431
134	0xbd097814	-0.03356178
135	0xbe26a04a	-0.16272083
136	0x3efe67ce	0.49688572
137	0x3e1f99c9	0.15586008
138	0xbe63b44b	-0.22236745
139	0x3e953cfa	0.29148084
140	0x3eeb09cb	0.4590591
141	0x3db1312d	0.08651958
142	0xbe25b11c	-0.16180843
143	0x3dfab197	0.12240904
144	0x3dbdbb78	0.092642725
145	0xbdee2c84	-0.116295844
146	0x3cbb88c5	0.022892365
147	0x3dcc6559	0.09980268
148	0xbea0065c	-0.31254852
149	0x3d8b6f8c	0.06808385
150	0xbeedde90	-0.46458864
151	0xbdf90646	-0.121594
152	0xbe41e72d	-0.18935843
153	0xbeedf81e	-0.4647836
154	0xbe8982be	-0.2685756
155	0xbec9279c	-0.39288032
156	0xbbf54ac1	-0.007485718
157	0xbe1fefa3	-0.15618758
158	0xbe0defd7	-0.13861023
159	0x3e339001	0.17535402
160	0xbd85b381	-0.06528378
161	0x3e75dd12	0.24010113
162	0xbecf32ce	-0.40468448
163	0xbedd0355	-0.43166605
164	0xbe853269	-0.26015022
165	0x3b18d5d8	0.002332082
166	0x3e7b5851	0.24545409
167	0xbd99d196	-0.075106785
168	0xbea2d655	-0.31804147
169	0xbdcb044a	-0.099129274
170	0x3e6ce802	0.23135379
171	0xbe820330	-0.25393057
172	0x3ec0e25c	0.37672698
173	0x3eeede83	0.46654138
174	0x3c4061ed	0.011742097
175	0x3d70a9c5	0.058755655
176	0xbee9d273	-0.45668373
177	0x3eb66b4e	0.35628742
178	0x3e288aae	0.16459152
179	0x3ead21ad	0.33814755
180	0xbdc7f921	-0.097643144
181	0x3ea4cf56	0.32189435
182	0x3e80a854	0.25128424
183	0x3e05d9e6	0.13071403
184	0x3ee55345	0.44790092
185	0x3efa105f	0.48840615
186	0x3eae2963	0.3401595
187	0x3db561f9	0.088565774
188	0x3e071fa1	0.13195659
189	0xbe6c3886	-0.23068437
190	0x3ef0f43b	0.47061333
191	0x3cd48b81	0.025945427
192	0x3e171b26	0.1475645
193	0x3eedb909	0.46430233
194	0x3e34b6f7	0.1764792
195	0x3d9e2dda	0.07723589
196	0x3eee5841	0.46551707
197	0xbee84e06	-0.45372027
198	0xbe62ae3c	-0.22136778
199	0xbed33e0a	-0.4125827
200	0xbe363e8f	-0.17797302
201	0xbec12daf	-0.37730166
202	0x3e94d643	0.2906972
203	0x3db73903	0.08946421
204	0x3de50a49	0.11183602
205	0xbe1a826d	-0.15088816
206	0xbea8caf8	-0.32967353
207	0xbe262e4d	-0.162286
208	0x3ea8c16a	0.32960063
209	0x3e528301	0.20557787
210	0x3ee5c90d	0.44879952
211	0x3e8a6fe2	0.27038485
212	0x3e9ab4c2	0.30216032
213	0x3db76222	0.08954264
214	0x3e846640	0.2585926
215	0x3ec8aa55	0.39192453
216	0xbef7e420	-0.48416233
217	0x3ed2deff	0.41185758
218	0x3e89bf22	0.26903635
219	0x3e4333b9	0.190627
220	0xbead4021	-0.3383799
221	0x3eb051df	0.34437463
222	0xbec253aa	-0.37954456
223	0x3dbdd9a4	0.09270027
224	0x3d53856d	0.051640917
225	0x3e35d59d	0.17757268
226	0xbd56ee6d	-0.052473474
227	0xbea72058	-0.32641864
228	0x3dc48ce0	0.09597182
229	0xbd708b35	-0.05872651
230	0x3ef27d12	0.47361046
231	0xbe3dc61e	-0.18532607
232	0x3e1b0563	0.15138774
233	0x3d8436ea	0.064557865
234	0x3e8eb87f	0.27875134
235	0xbeba2f5c	-0.36364257
236	0xbefe297b	-0.49641022
237	0x3e05197b	0.12998001
238	0xbea6fa7b	-0.32612976
239	0x3de904bf	0.11377858
240	0x3e34a315	0.17640336
241	0x3e92ef5a	0.28698236
242	0xbebb15c2	-0.36540037
243	0x3df5a5f1	0.119945414
244	0xbea320b3	-0.31860885
245	0x3e95087e	0.29108042
246	0x3eebeb74	0.46078074
247	0x3ef2c97b	0.47419342
248	0x3eefb3d4	0.46816885
249	0x3cb4a06f	0.022049157
250	0x3df9f765	0.1220539
251	0xbdb4bd17	-0.088251285
252	0x3ec9ac2e	0.39389175
253	0xbde30ed7	-0.11086815
254	0x3e34a8ef	0.17642568
255	0x3ecce44f	0.40017936

2.weight f4 [256, 256]
0	0xbc8e9334	-0.017404176
1	0x3d2aa267	0.041658785
2	0xbc4dfdb3	-0.012572694
3	0x3d3f4968	0.046700865
4	0x3cb84967	0.022495938
5	0xbd3f9bb4	-0.04677935
6	0x3cc6a966	0.024250697
7	0xbca6de82	-0.020369772
8	0xbb477f12	-0.003044073
9	0x3ceac212	0.028656993
10	0x3d179254	0.037004784
11	0xbcfed6f0	-0.03110835
12	0x3d593508	0.05302909
13	0x3d4f685c	0.050636634
14	0x3d44faa3	0.04809059
15	0xbd786d8a	-0.06065134
16	0xbd500bb9	-0.05079243
17	0x3c2d5ca4	0.010581169
18	0x3d145562	0.03621424
19	0xbd13c642	-0.036077745
20	0x3d750e51	0.059828106
21	0x3d15dd78	0.036588162
22	0xbc5f3792	-0.013624089
23	0x3c613284	0.013744954
24	0x3d451f5e	0.048125617
25	0xbc199f16	-0.009376308
26	0xbd3c41e2	-0.04596127
27	0x3d2f46eb	0.042792242
28	0xbcd18d7f	-0.025580166
29	0xbd63182d	-0.055442978
30	0x3c2dcef3	0.010608423
31	0x3d03290c	0.032021567
32	0xbd6f1b13	-0.05837543
33	0xbd82392e	-0.063585624
34	0xbd0306a0	-0.03198874
35	0xbd062b50	-0.03275615
36	0xbd3cea28	-0.046121746
37	0x3d5cd567	0.053914454
38	0xbd446099	-0.047943685
39	0x3bda0f55	0.0066546598
40	0xbd260b1e	-0.040537946
41	0x3bd63075	0.0065365382
42	0xbc6c75fc	-0.014432427
43	0x3ca84034	0.020538427
44	0x3d624727	0.055243637
45	0x3c131a1b	0.008978392
46	0xbd3cc6b9	-0.046087954
47	0xbd1d9b5a	-0.038478233
48	0x3c2567b4	0.0100955255
49	0xbccd730f	-0.025079278
50	0xbd17387c	-0.036919102
51	0x3d1f724e	0.03892737
52	0xbc9eaab1	-0.019368501
53	0x3d550d1f	0.052014466
54	0x3cfa5c20	0.030561507
55	0x3d417ae9	0.047236357
56	0xbc65d88a	-0.014028678
57	0xbc0e0d91	-0.008670227
58	0xbd3e6f68	-0.046492964
59	0x3d319ac6	0.043360494
60	0xbd5509e4	-0.052011386
61	0xbd0bcdd5	-0.034131844
62	0x3ca2bcdd	0.019865448
63	0x3c80d297	0.015725417
64	0xbb3ae315	-0.00285167
65	0xbd774cdf	-0.060376044
66	0xbb9977f4	-0.004683489
67	0xbd51c3cf	-0.05121213
68	0xbd163eda	-0.036681034
69	0x3c800269	0.01562615
70	0xbd03d2fd	-0.032183636
71	0x3ca2379c	0.019801907
72	0x3d513801	0.0510788
73	0xbc130fc2	-0.008975925
74	0xbd5b3ef2	-0.053526826
75	0x3d244004	0.040100113
76	0xbd358dd9	-0.04432473
77	0xbd114ba9	-0.035472546
78	0x3d3253d2	0.04353697
79	0xbd128f2a	-0.035781063
80	0xbcb31c49	-0.021864073
81	0x3cd79c85	0.026319752
82	0x3b178c00	0.0023124218
83	0x3d22c605	0.039739627
84	0xbbc6b9fa	-0.0060646506
85	0xbb28391a	-0.00256688
86	0x3c52ff28	0.012878217
87	0x3d446160	0.047944427
88	0xbd0e5885	-0.034752388
89	0xbd554794	-0.052070215
90	0x3d12e265	0.035860438
91	0x3d49032e	0.049075298
92	0x3d681aab	0.056666058
93	0x3ce70f92	0.028205667
94	0x3d4ce53c	0.050023302
95	0x3d760434	0.060062602
96	0xbd2d2f22	-0.042281277
97	0x3c2b93f2	0.010472285
98	0xbd11146e	-0.035419874
99	0xbd2e6e15	-0.04258545
100	0xbd73ac41	-0.059490446
101	0xbd30762c	-0.043081447
102	0xbd041558	-0.032246917
103	0x3d428fc3	0.047500383
104	0x3c9bce3c	0.019019239
105	0xbcd58820	-0.026065886
106	0xbc69b314	-0.014263887
107	0x3cfcaeef	0.030845134
108	0xbd16f46a	-0.036854185
109	0xbb861109	-0.004091386
110	0x3d72a45e	0.059238784
111	0xbd133c71	-0.035946313
112	0x3d6235dd	0.05522715
113	0xbcde095e	-0.027104076
114	0xbd33547e	-0.04378175
115	0xbd00a9ab	-0.031411808
116	0x3b31c415	0.002712493
117	0x3d803295	0.06259648
118	0xbd7b6fa7	-0.061385777
119	0xbcf37eae	-0.029723492
120	0x3ce4e2fd	0.027940268
121	0xbcdd3b09	-0.02700569
122	0xbb97371c	-0.004614724
123	0xb97621da	-0.00023472999
124	0xbb628097	-0.0034561509
125	0xbc8f3951	-0.017483385
126	0x3d604f57	0.054763164
127	0xbd3ac2f8	-0.045596093
128	0xbc8e5656	-0.017375153
129	0x3d68c559	0.05682883
130	0x3cc113c6	0.023568999
131	0xbd483f34	-0.0488884
132	0x3d10343b	0.03520606
133	0xbc7a5d8b	-0.015281091
134	0x3cdcc0a0	0.02694732
135	0x3b4fc2e0	0.0031701848
136	0xbbdc18f2	-0.006716841
137	0xbbba43ed	-0.005684367
138	0xbd2f5075	-0.04280134
139	0xbd6a360c	-0.05718045
140	0xbd1a1a0b	-0.037622493
141	0xbd383c1c	-0.0449792
142	0xbcc635b4	-0.02419553
143	0x3c6b77e6	0.014371848
144	0xbd809336	-0.06278078
145	0xbd2d69c6	-0.0423372
146	0x3d500f49	0.050795827
147	0x3d4ed052	0.05049164
148	0x3d442b25	0.04789271
149	0x3d568e49	0.052381787
150	0x3a5821c9	0.00082447805
151	0x3c46b5dd	0.0121283205
152	0xbc0957f0	-0.008382782
153	0x3ce0e724	0.027453966
154	0x3d468825	0.04846968
155	0x3d702f4f	0.058638867
156	0x3c9d28db	0.01918452
157	0x3c253f9b	0.0100859655
158	0x3cb2c696	0.021823209
159	0xbc33a625	-0.010964905
160	0xbd73094f	-0.05933505
161	0xbd121d50	-0.035672486
162	0x3d4885f7	0.048955884
163	0x3cbb9ddb	0.02290242
164	0x3d7737a8	0.060355812
165	0xbc89b828	-0.016811445
166	0x3ceb48e3	0.028721279
167	0xbd452670	-0.04813236
168	0x3d6fb738	0.05852434
169	0x3d4a809b	0.049439054
170	0x3c1cf8ec	0.009580832
171	0x3d576363	0.052585017
172	0x3d085dc3	0.033292543
173	0x3d1b9008	0.037979156
174	0xbd2be764	-0.04196872
175	0x3ccf1700	0.025279522
176	0xbd540b71	-0.051768724
177	0xbd7e873c	-0.06214069
178	0x3d332f47	0.04374626
179	0x3d3acca8	0.04560533
180	0x3d10604d	0.03524809
181	0xbd2cbfdb	-0.042175155
182	0x3d2ca44b	0.04214887
183	0x3ca9febd	0.020751351
184	0xbc7fdfad	-0.015617293
185	0xbb7a2724	-0.0038170302
186	0xbc48f9a2	-0.012266548
187	0xbbbccf21	-0.0057619964
188	0x3d116efc	0.035506234
189	0x3c3b2596	0.011422535
190	0x3cf7c38a	0.030244607
191	0x3ce24a99	0.027623462
192	0x3d2f8634	0.042852595
193	0x3d25da8f	0.040491637
194	0xbd66106b	-0.056168
195	0x3d1d664d	0.03842764
196	0xbd4ce6bb	-0.05002473
197	0xbd6a74b8	-0.057240218
198	0x3cfd05b1	0.030886503
199	0xbca15f8e	-0.019698884
200	0xbd32fd9b	-0.04369889
201	0x3c80905e	0.01569384
202	0xbd411370	-0.047137678
203	0x3ba963ac	0.0051693525
204	0xbbdbcebb	-0.006707994
205	0x3ce2900f	0.027656583
206	0x3d3500db	0.04419027
207	0xbd0e685e	-0.0347675
208	0x3cd4c31a	0.025971938
209	0xbc9bd97b	-0.019024601
210	0x3ba45a95	0.005015681
211	0x3c421737	0.011846355
212	0x3d391690	0.045187533
213	0x3cf2f2c4	0.029656775
214	0x3d10bda9	0.035337124
215	0x3bea9b58	0.0071596317
216	0x3c20d6bd	0.009816823
217	0x3ba7eb37	0.0051244753
218	0xbd3ee248	-0.046602517
219	0xbd046a7c	-0.032328114
220	0x3d6416bc	0.055685744
221	0x3d326d50	0.04356128
222	0x3d0eb2c1	0.03483844
223	0x3c5dc62e	0.013536019
224	0x3c0aa68f	0.008462562
225	0xbd22d481	-0.03975344
226	0xbd4495af	-0.047994312
227	0x3b1b0044	0.0023651281
228	0x3d82b4e3	0.06382158
229	0xbc707695	-0.01467671
230	0x3d532680	0.05155039
231	0x3d7f6ceb	0.06235973
232	0xbd255294	-0.040361956
233	0xbd28c6ef	-0.041205343
234	0xbd0a012e	-0.03369253
235	0x3c8c3945	0.017117152
236	0xbd4f085f	-0.050545093
237	0xbb908902	-0.004410864
238	0x3d51f4fb	0.051259022
239	0xbd1d4fe8	-0.038406283
240	0xbd1603f2	-0.036624856
241	0xbcbd1775	-0.023082474
242	0x3d672501	0.056431774
243	0x3c740cdf	0.014895647
244	0xbd0b8369	-0.03406087
245	0xbd8031ac	-0.06259474
246	0xbcbfe1ad	-0.02342304
247	0x3d5f19b5	0.054467876
248	0x3d15beb6	0.03655883
249	0x3d7a66ee	0.061133318
250	0x3d06239b	0.0327488
251	0xbd0173db	-0.03160463
252	0x3d012b5c	0.03153549
253	0x3c23a356	0.009987673
254	0xbd426b1a	-0.04746542
255	0xbba3d012	-0.004999169

2.bias f4 [256]
0	0xbc541e48	-0.012946673
1	0x3d526b7d	0.05137204
2	0xbd523787	-0.051322486
3	0x3bc4f5a7	0.0060107294
4	0x3cb7ffc2	0.022460822
5	0xbd534cb8	-0.051586837
6	0xbc15f6f8	-0.00915312
7	0xbd5bfe9c	-0.05370961
8	0xbd7a5bd4	-0.06112273
9	0xbd2e36e7	-0.042532828
10	0xbcdff047	-0.027336253
11	0x3b4c8d92	0.0031212312
12	0x3c5223bd	0.0128259035
13	0x3c9a10e8	0.01880689
14	0x3d055b51	0.03255779
15	0x3b822a54	0.003972331
16	0xbc3b0a12	-0.011415975
17	0xbd5c5345	-0.05379035
18	0xbd5160f9	-0.05111787
19	0x3d05eb8a	0.03269533
20	0xbd77ca81	-0.060495857
21	0xbcc24254	-0.023713268
22	0x3d635371	0.055499498
23	0xbbff445d	-0.007790132
24	0xbb50cbfd	-0.0031859868
25	0xbd5270ab	-0.05137698
26	0x3d05da1b	0.032678705
27	0x3cc25dd7	0.023726387
28	0xbd09b8b5	-0.033623416
29	0x3d7a0226	0.061037205
30	0x3cc40fbb	0.023933282
31	0x3c06948b	0.008214126
32	0x3d394314	0.045229986
33	0xbd7fe82e	-0.062477283
34	0x3cc6bd99	0.02426033
35	0xbd1d61d9	-0.038423393
36	0xbcc0b3dd	-0.023523265
37	0x3d1daf6c	0.038497373
38	0xbcbcf0bd	-0.023064012
39	0x3d5e9aec	0.054346964
40	0x3c952976	0.018208247
41	0x3d53f05c	0.051742896
42	0xbd613972	-0.054986425
43	0xbd39624a	-0.04525975
44	0x3d1ee8bf	0.038796183
45	0xbd79055b	-0.060796123
46	0xbcc243f8	-0.02371405
47	0xbacd9540	-0.0015684739
48	0xbc70c856	-0.014696201
49	0xbcc57766	-0.024104785
50	0x3d6f00ac	0.05835025
51	0x3d6bc5ad	0.057561565
52	0xbd449336	-0.047991954
53	0xbc756701	-0.014978171
54	0x3d24346d	0.04008906
55	0x3d1cbac3	0.038264047
56	0xbc9f8c70	-0.019476146
57	0x3d77d8a6	0.060509346
58	0x3cbdc0ed	0.023163283
59	0x3d3176d4	0.043326214
60	0x3d495a44	0.04915835
61	0xbd053789	-0.032523666
62	0x3d4df4da	0.050282337
63	0xbd46ece8	-0.048565775
64	0xbd280b5f	-0.04102647
65	0x3c8d145f	0.017221628
66	0xbcdf4051	-0.027252348
67	0x3cd7c50e	0.02633908
68	0x3d3ec345	0.046572942
69	0xbc58f1f6	-0.013241282
70	0xbd3dd329	-0.046343956
71	0xbc1b8a4c	-0.009493422
72	0x3d4f74a7	0.050648358
73	0xbcee4efb	-0.029090395
74	0xbd33e3ba	-0.04391835
75	0x3cabfb2a	0.020993788
76	0x3d795803	0.06087495
77	0x3d49bb2c	0.049250767
78	0xbd358384	-0.044314876
79	0xbc25fbd8	-0.010130845
80	0x3bb6b307	0.005575541
81	0x3d6e8cdc	0.058239803
82	0x3c37e595	0.01122417
83	0xbca0aabf	-0.019612668
84	0x3d6bcf3a	0.057570674
85	0x3d4aeaea	0.049540438
86	0xbd4a75c9	-0.049428735
87	0x3d0272c5	0.031847734
88	0x3cf88c8a	0.030340452
89	0xbcd5ae8e	-0.02608421
90	0xbd0228fa	-0.03177736
91	0x3b9a61fb	0.004711387
92	0x3d0b8b71	0.03406853
93	0x3d0cc450	0.034366906
94	0xbd525877	-0.051353898
95	0x3bb5a2e3	0.0055430993
96	0x3d5ef791	0.054435316
97	0x3d3e3dc4	0.046445623
98	0xbc27fc9f	-0.010253101
99	0xbd38dd4e	-0.045132928
100	0xbd0c4d01	-0.034253124
101	0xbd3ec571	-0.046575014
102	0x3ce83c89	0.028349178
103	0xbd710ada	-0.05884824
104	0xbd758dce	-0.05994969
105	0x3d24d6e6	0.040244006
106	0xbd2cf49c	-0.042225465
107	0xbd2b51a9	-0.041825924
108	0x3d1e4ab5	0.038645465
109	0xbc9f911a	-0.01947837
110	0xbcbd2823	-0.023090428
111	0x3c53c1f4	0.01292466
112	0xbd4bfaf8	-0.04979989
113	0xbd3e305c	-0.046432838
114	0xbd395962	-0.045251258
115	0xbcc25848	-0.023723736
116	0x3d3024c5	0.043003816
117	0x3d114727	0.035468247
118	0xbcbf7c8d	-0.02337482
119	0x3cc94861	0.024570646
120	0xbd456cf6	-0.048199616
121	0x3d3aab68	0.045573622
122	0xbc69c01f	-0.014266997
123	0x3c9d48d0	0.019199759
124	0xbd8170ab	-0.06320318
125	0xbd47ac1c	-0.04874812
126	0xbd13429e	-0.035952203
127	0xbd1db6c6	-0.038504384
128	0x3d6a094b	0.05713777
129	0x3cad29ee	0.021138158
130	0xbd75d909	-0.060021434
131	0xbccf18f1	-0.025280448
132	0x3d012cfd	0.031537045
133	0x3ceca096	0.028885167
134	0xbd783cf4	-0.060605004
135	0x3abb1833	0.001427418
136	0xbc8c282e	-0.017109003
137	0x3d55e87f	0.05222368
138	0x3c8be9f3	0.01707933
139	0x3d6c9a50	0.05776435
140	0xbc481461	-0.01221189
141	0x3b19766d	0.0023416535
142	0xbc9abc13	-0.018888509
143	0x3c603799	0.0136851305
144	0xbd0638d5	-0.032769043
145	0xbd3f2814	-0.04666908
146	0xbcbc5be2	-0.022993032
147	0x3d6a5504	0.057209983
148	0x3c83066f	0.015994279
149	0xbd4fa226	-0.050691746
150	0xbb08c948	-0.0020871926
151	0xbd1b8d56	-0.037976585
152	0xbd3653a1	-0.04451335
153	0xbc6425ea	-0.013925055
154	0x3c521faa	0.012824932
155	0xbd51c295	-0.05121096
156	0xbd02e2d4	-0.0319546
157	0x3d813ca6	0.06310396
158	0xbc9f6bd2	-0.019460592
159	0x3caec837	0.021335704
160	0x3d210048	0.03930691
161	0xbd2ffdfd	-0.04296683
162	0x3d6080b2	0.054810233
163	0xbca61310	-0.020272762
164	0xbbdf3e78	-0.006812867
165	0x3d7ad573	0.061238717
166	0x3c83b6c0	0.016078353
167	0x3d7fc4b8	0.062443465
168	0x3bc3ab0d	0.0059713186
169	0x3d6efe09	0.058347736
170	0xbd6e2eda	-0.05815015
171	0x3d5cc1d7	0.053895798
172	0x3b07b2b8	0.002070589
173	0xbd1b4933	-0.037911605
174	0x3cea4a39	0.028599845
175	0x3c9c03fc	0.019044869
176	0xbd77dff8	-0.060516328
177	0x3cac6db7	0.02104841
178	0xbcfff734	-0.031245805
179	0xbd3f88e4	-0.04676141
180	0xbbf20f42	-0.007387073
181	0x3ca0a1fe	0.019608494
182	0x3cbd7e34	0.023131467
183	0xbb9ca7a8	-0.0047807284
184	0x3d0d6423	0.034519326
185	0x3c24079e	0.010011582
186	0xbd589384	-0.052875057
187	0x3cb75823	0.022380894
188	0x3d358cfb	0.044323903
189	0xbb6b8ed8	-0.0035943296
190	0xbc7c48fa	-0.015398258
191	0x3cc2bf8a	0.023772974
192	0x3d5f577a	0.054526784
193	0xbd179c86	-0.037014507
194	0x3b5b6889	0.0033479056
195	0x3d6bc768	0.057563215
196	0x3d15ef4e	0.03660517
197	0x3d80bf1b	0.062864505
198	0x3d040052	0.032226868
199	0x3c9fcf92	0.019508157
200	0x3d71251d	0.058873285
201	0x3ceb3273	0.02871058
202	0x3d734852	0.059395142
203	0xbd066b59	-0.03281722
204	0xbd1126b6	-0.03543731
205	0x3c4465f6	0.0119872
206	0x3d2b1efa	0.04177759
207	0x3bb7fe2a	0.0056150155
208	0xbd13ffbc	-0.03613256
209	0xbd46d9dd	-0.048547614
210	0x3d47f4a8	0.048817307
211	0x3d25ab6d	0.040446687
212	0x3d04c250	0.032411873
213	0x3cfc44f1	0.030794593
214	0xbd2451b6	-0.040116988
215	0xbd3c0fbe	-0.04591345
216	0x3d747465	0.059681315
217	0x3ce0777d	0.027400726
218	0xbcac3865	-0.021022985
219	0x399f91ad	0.0003043538
220	0x3c093398	0.008374117
221	0x3b8897b9	0.0041684774
222	0x3cad9c95	0.021192828
223	0x3d14023b	0.03613494
224	0xbd5cc713	-0.05390079
225	0xbc5e5ade	-0.013571469
226	0xbd47a95b	-0.048745494
227	0x3cfad145	0.030617366
228	0x3d24fbe5	0.040279288
229	0x3d109a62	0.03530348
230	0xbc7b2b22	-0.015330108
231	0xbd5e790c	-0.054314658
232	0xbd26da46	-0.040735506
233	0xbd17f2d4	-0.037096813
234	0x3d50f207	0.051012065
235	0x3d0d7c47	0.03454235
236	0xbd4c8f55	-0.04994138
237	0x3d045639	0.03230879
238	0x3cc51408	0.024057403
239	0x3d314b06	0.04328444
240	0xbb2acee1	-0.002606325
241	0xbd22c263	-0.039736163
242	0xbd1a4735	-0.037665565
243	0xbcd05f2f	-0.025436012
244	0xbcf89bac	-0.030347668
245	0x3ce66215	0.028122941
246	0xbd43887f	-0.047737595
247	0xbc073844	-0.008253161
248	0x3c1c64cf	0.009545519
249	0x3d76b812	0.060234137
250	0x3c05f6eb	0.008176546
251	0x3d7cc4e6	0.061711214
252	0xbc523ad8	-0.012831412
253	0xbcba7d27	-0.022764755
254	0xba644dfb	-0.000870913
255	0x3cad02a0	0.021119416

4.weight f4 [2, 256]
0	0xbcffa8ed	-0.03120848
1	0xbca8c7d3	-0.020603096
2	0x3c2ae6b1	0.010430978
3	0x3d02a999	0.031900022
4	0x3ca3fcee	0.020018067
5	0xbd733105	-0.05937292
6	0xbcbfdbe9	-0.023420291
7	0xbd079b84	-0.033107296
8	0x3d11ae65	0.035566706
9	0xbcfdbb8c	-0.030973218
10	0x3cc9c8e6	0.024631929
11	0xbd2165c3	-0.03940369
12	0xbd15a45b	-0.036533695
13	0xbd51899c	-0.051156625
14	0xbd59a398	-0.05313453
15	0xbd506d93	-0.050885748
16	0x3c7e2548	0.015511818
17	0xbd597eea	-0.05309955
18	0x3d0e54e3	0.034748923
19	0xbd5d3704	-0.054007545
20	0xbcae5729	-0.021281796
21	0xbd5235ee	-0.051320963
22	0x3b142edc	0.0022610938
23	0x3be73984	0.007056417
24	0x3c9168cd	0.017750168
25	0x3cbb22b1	0.02284369
26	0xbd2b770b	-0.041861575
27	0xbd686d08	-0.056744605
28	0xbcf1575a	-0.029460598
29	0x3d03cc15	0.03217705
30	0x3cd7d818	0.026348159
31	0xbb01e80d	-0.001982215
32	0x3d73c481	0.059513573
33	0xbcc4a7a3	-0.024005717
34	0x3d630639	0.055425856
35	0xbbe7752f	-0.00706353
36	0x3d490553	0.049077343
37	0xbd56b7d3	-0.052421402
38	0x3d091945	0.033471365
39	0x3c546629	0.01296381
40	0x3d50c52d	0.05096929
41	0xbcc1dd4d	-0.023665095
42	0x3be883bb	0.0070957816
43	0x3bb70648	0.0055854656
44	0xbb0ed46a	-0.002179409
45	0x3d62c058	0.055359215
46	0x3d0a5c8d	0.03377967
47	0x3d6630b0	0.056198776
48	0xbd6b915b	-0.05751167
49	0xbd16e1f7	-0.03683659
50	0xbd305171	-0.04304642
51	0x3ccfba87	0.025357498
52	0xbcbf6ac3	-0.023366338
53	0xbbfc79fc	-0.0077049714
54	0xbd57f1be	-0.052720778
55	0x3bd6b578	0.0065523945
56	0x3cd5a39c	0.026078992
57	0xbcd122dc	-0.025529318
58	0x3d164229	0.03668419
59	0xbd3a4100	-0.045472145
60	0xbd7b19bb	-0.061303835
61	0xbd2f96de	-0.042868488
62	0xbcccd893	-0.025005614
63	0xbc355691	-0.011068002
64	0xbd43645d	-0.047703136
65	0xbce227de	-0.0276069
66	0xbcc3777e	-0.02386069
67	0xbca72f43	-0.020408278
68	0x3d742862	0.059608825
69	0x3d0259c7	0.0318239
70	0xbcb601d9	-0.022217678
71	0x3c298b06	0.010348087
72	0x3cb06ef7	0.021537287
73	0x3bdfc246	0.006828579
74	0xbc680871	-0.014162169
75	0x3d4eebb6	0.05051776
76	0xbd7a2516	-0.061070524
77	0x3d10b90d	0.03533273
78	0x3d55af7e	0.052169316
79	0xba43c488	-0.0007467945
80	0x3c78caaa	0.015185038
81	0x3d53be5c	0.051695213
82	0x3d32521a	0.04353533
83	0x3cab6877	0.020923836
84	0x3aaf26f9	0.0013363055
85	0x3d46f416	0.048572622
86	0x3d6a776b	0.057242792
87	0xbd3ad4dd	-0.04561316
88	0x3c6ac528	0.014329232
89	0x3d1e9064	0.03871192
90	0x3b123fc4	0.002231584
91	0xbd6285b7	-0.0553033
92	0x3b3996e6	0.0028318702
93	0xbd6c1b80	-0.057643414
94	0xbd257187	-0.04039147
95	0xbd36348c	-0.044483706
96	0x3cb9c80d	0.0226784
97	0xbd01c739	-0.031684134
98	0xb90e3266	-0.0001356095
99	0xbd5d9cc8	-0.054104596
100	0x3d3fb2fc	0.046801552
101	0xbb10416a	-0.0022011646
102	0xbbecd244	-0.007227214
103	0xbcdcdc8c	-0.026960634
104	0xbbab9919	-0.0052367565
105	0xbcd030b5	-0.02541385
106	0xbb2da6d7	-0.002649715
107	0xbd172d95	-0.036908705
108	0xbcf5432f	-0.029939262
109	0xbd171c3e	-0.03689217
110	0x3c9adb92	0.018903527
111	0xbca794ea	-0.02045675
112	0x3d782639	0.060583327
113	0xbbad6652	-0.0052917385
114	0xbd7d4292	-0.061831065
115	0xbc267eb6	-0.010162046
116	0x3d232de6	0.039838694
117	0x3b86a4d4	0.0041090045
118	0x3cbe6f58	0.023246452
119	0x3d099ae3	0.033594977
120	0xbc904820	-0.017612517
121	0xbc222200	-0.009895802
122	0x3cd754f6	0.02628563
123	0xbcf1383c	-0.02944576
124	0xbd338185	-0.04382469
125	0xbc75e4cf	-0.0150081655
126	0xbd4dc918	-0.050240606
127	0xbcc81c6a	-0.024427611
128	0xbd69fad1	-0.057123963
129	0xbd56c801	-0.052436832
130	0x3d4b43b1	0.049625102
131	0xbcd39cfd	-0.025831694
132	0xbc153aab	-0.009108226
133	0xbd62fa5b	-0.05541454
134	0xbcd19b98	-0.025586888
135	0x3c52ae31	0.012858913
136	0x3d188896	0.037239634
137	0xbd11b578	-0.035573453
138	0x3cb99223	0.022652691
139	0xbd5c23fd	-0.05374526
140	0x3d56b40f	0.05241781
141	0xbc7db27d	-0.015484449
142	0xbca0bb4b	-0.019620558
143	0x3cd739e6	0.026272725
144	0x3c77109b	0.015079643
145	0xbb7d7f18	-0.003868049
146	0x3cb04c99	0.0215209
147	0xbd5e757e	-0.054311268
148	0x3a9ff2ba	0.0012203075
149	0xbca34663	-0.019931024
150	0xbd17c155	-0.03704961
151	0x3b5cae6a	0.0033673295
152	0xbcadb7d2	-0.021205816
153	0xbd6b8982	-0.057504185
154	0xbd3549dc	-0.04425989
155	0x3d05ae14	0.032636717
156	0x3d7a1f6b	0.06106512
157	0x3b4d5472	0.003133085
158	0x3d39449a	0.04523144
159	0x3cb5a6ef	0.022174327
160	0x3d719467	0.058979418
161	0x3c8846f6	0.0166354
162	0x3bb4ce87	0.005517784
163	0xbcb97722	-0.022639815
164	0x3c9ae2d7	0.018906994
165	0x3cc8b571	0.02450058
166	0x3d043852	0.032280274
167	0x3d264bd4	0.04059966
168	0xbd58632a	-0.052828945
169	0xbd607295	-0.054796774
170	0x3c7959da	0.015219176
171	0x3c3cd43f	0.011525213
172	0x3d55a5a1	0.05215991
173	0xbce56ba8	-0.028005436
174	0xbd5008f2	-0.05078978
175	0xbd1a167c	-0.0376191
176	0xbd2f4c46	-0.04279735
177	0xbc146755	-0.009057839
178	0xbca62317	-0.020280404
179	0x3d55d4bf	0.052204844
180	0xbb8f9d00	-0.0043827295
181	0xbd296f1c	-0.041365728
182	0x3c9a1ee7	0.018813564
183	0x3b3e0dce	0.0028999927
184	0xbd07bbf5	-0.033138234
185	0x3cc2402a	0.023712236
186	0x3c539761	0.0129145095
187	0x3bd7d169	0.006586243
188	0x3cdee966	0.027210902
189	0xbd0c73a4	-0.03428997
190	0xbc7da392	-0.015480893
191	0x3c82e5bf	0.015978692
192	0xbc5ef765	-0.013608788
193	0xbcdc46b9	-0.026889192
194	0x3c3b116c	0.011417728
195	0x3b5021dc	0.0031758463
196	0x3be304de	0.0069280704
197	0x3d3c2ce1	0.045941237
198	0x3d14ee9d	0.03636037
199	0x3ce74d2d	0.028235042
200	0x3cd870b9	0.026420938
201	0xbd3dd1e6	-0.046342753
202	0x3cb8c2ce	0.022553828
203	0xbc097110	-0.008388773
204	0xbd43fbc2	-0.047847517
205	0x3bb45169	0.005502869
206	0x3d6cd336	0.057818614
207	0x3d01d716	0.031699263
208	0xbc3df714	-0.011594553
209	0x3c774df5	0.01509427
210	0xbd0edeb5	-0.03488036
211	0xbd199244	-0.037493005
212	0xbc1b1f6c	-0.009467941
213	0xbd62546f	-0.055256303
214	0xbca7b377	-0.020471318
215	0x3c6fbfd1	0.014633135
216	0x3cca3057	0.024681253
217	0xbd5ed645	-0.054403562
218	0x3c3769fc	0.011194702
219	0xbcadf682	-0.021235708
220	0xbc0059f9	-0.007833951
221	0x3d162bbd	0.036662806
222	0x3d22f915	0.039788324
223	0xbcc6256c	-0.024187766
224	0xbaf6a1c1	-0.0018816517
225	0xbd58f23b	-0.052965384
226	0xbd699f60	-0.057036757
227	0x3cc293d8	0.023752138
228	0x3b832b7c	0.0040029865
229	0xbc1955e8	-0.009358861
230	0xbd41bad7	-0.047297325
231	0x3c1545a4	0.009110842
232	0x3bc5a5b9	0.0060317186
233	0x3d68df8a	0.05685381
234	0xbd2a5cb9	-0.041592333
235	0x3d67d437	0.05659887
236	0x3ccfd4e3	0.025370067
237	0xbd6fae49	-0.05851582
238	0x3cab27c9	0.020892994
239	0xbbc4662c	-0.005993625
240	0x3d08d5a8	0.033406883
241	0x3d18d551	0.03731281
242	0x3d678707	0.056525256
243	0xbca55fc2	-0.020187262
244	0xbd4d4a04	-0.050119415
245	0xbcdc9004	-0.02692414
246	0xbd57170a	-0.052512206
247	0xbc13ab3f	-0.009012996
248	0x3d257793	0.040397238
249	0x3c85c34e	0.01632848
250	0xbcb42d42	-0.021994237
251	0xbd022844	-0.03177668
252	0xbd458db2	-0.048230834
253	0xbd3d55ba	-0.046224333
254	0xbd2905a6	-0.041265152
255	0x3d132041	0.03591943

4.bias f4 [2]
0	0x3d0eaef2	0.03483481
1	0xbc3a04b2	-0.0113536585

exp_avg f4 [256, 4]
0	0xbacceaef	-0.001563398
1	0xbad494b6	-0.0016218636
2	0xb9c810b8	-0.0003815943
3	0x3aca1367	0.0015417159
4	0xba073ec6	-0.0005159195
5	0xba1414df	-0.0005648862
6	0xb901a946	-0.00012365458
7	0x3a0c634e	0.0005355374
8	0xbad4ee08	-0.0016245255
9	0xbae611a6	-0.0017552867
10	0xb9d15d55	-0.00039933124
11	0x3adaa491	0.0016681125
12	0x3a41623a	0.00073770026
13	0x3a49dbe3	0.0007700307
14	0x3982ad59	0.00024924686
15	0xba3f8b41	-0.0007306822
16	0xba5d1923	-0.00084342266
17	0xba83403a	-0.0010013648
18	0xb92329b7	-0.00015560431
19	0x3a7869b8	0.00094762025
20	0x3ace748f	0.001575129
21	0x3ae43459	0.001741062
22	0x398a47e2	0.00026374968
23	0xbad95462	-0.0016580934
24	0x390705e3	0.00012876796
25	0x39060a29	0.00012783021
26	0xb672c454	-3.6175088e-06
27	0xb901df22	-0.00012385522
28	0x3a5a824c	0.0008335456
29	0x3a642d2d	0.00087042415
30	0x39e281b5	0.00043202718
31	0xba58720b	-0.000825674
32	0x3a2c40eb	0.0006570953
33	0x3a4168a7	0.000737796
34	0x392619fa	0.0001584067
35	0xba370016	-0.0006980909
36	0xb996cee0	-0.00028764363
37	0xb98aad5f	-0.00026450583
38	0xb906d039	-0.00012856805
39	0x39842d92	0.00025210954
40	0x3a631ecb	0.00086639513
41	0x3a346c0a	0.0006882554
42	0x3a1d88fc	0.0006009487
43	0xba2d06b4	-0.0006600425
44	0x3b603d01	0.0034216049
45	0x3b7a07a2	0.0038151522
46	0x3a562aeb	0.00081698474
47	0xbb6d7772	-0.0036234525
48	0x3a629e18	0.00086447736
49	0x3a6bb08e	0.0008990847
50	0x397d144b	0.0002413552
51	0xba5fd71f	-0.00085388304
52	0xbb65e206	-0.0035077347
53	0xbb7c81bd	-0.0038529478
54	0xba497b17	-0.00076858833
55	0x3b6fdd43	0.0036600388
56	0x3a96d55b	0.0011507677
57	0x3aa6c082	0.0012722167
58	0x39a3058e	0.0003109392
59	0xba9e1cc4	-0.0012063016
60	0x3b1eb009	0.0024213812
61	0x3b2c0eee	0.0026254016
62	0x3a25a4d0	0.00063188095
63	0xbb237deb	-0.002494688
64	0x3b526019	0.0032100736
65	0x3b6b6640	0.00359191
66	0x3a50d8eb	0.00079668936
67	0xbb5f8198	-0.0034104344
68	0x39cc500b	0.0003896955
69	0x39bfefe6	0.00036609097
70	0x3952c2e7	0.00020099767
71	0xb9b69827	-0.00034827107
72	0xbb02c472	-0.0019953516
73	0xbb0f36fa	-0.0021852837
74	0xb9cd8b62	-0.00039204495
75	0x3b08192a	0.0020766952
76	0x3a18ab1a	0.0005823836
77	0x3a18d3eb	0.0005829918
78	0x398604cd	0.00025562049
79	0xba11322f	-0.0005538789
80	0xb99d20f1	-0.00029969917
81	0xb9af4324	-0.00033428625
82	0xb8deea0f	-0.00010629382
83	0x39a55e81	0.00031541663
84	0xb93bb957	-0.00017902754
85	0xb95003d0	-0.00019837846
86	0xb7191695	-9.124768e-06
87	0x39467da7	0.0001892956
88	0xba365281	-0.0006955043
89	0xba4e93ca	-0.00078802987
90	0xb8c297eb	-9.278938e-05
91	0x3a43dbf9	0.0007471438
92	0xbb708d54	-0.0036705332
93	0xbb72b2aa	-0.0037032762
94	0xba932f78	-0.0011229357
95	0x3b67120f	0.0035258566
96	0xba8d2985	-0.001076982
97	0xba9b5c5d	-0.0011853088
98	0xb99ebf47	-0.0003027862
99	0x3a934dbb	0.0011238375
100	0xba6ed281	-0.0009110347
101	0xba7f7f2e	-0.0009746429
102	0xb9d68c99	-0.00040922014
103	0x3a728bf4	0.0009252422
104	0x3a471387	0.00075941574
105	0x3a5760fb	0.00082160503
106	0x395f34dc	0.00021286629
107	0xba4c58fb	-0.00077952415
108	0xbb2ce959	-0.0026384203
109	0xbb3f2d99	-0.0029171465
110	0xba195ffd	-0.000585079
111	0x3b359254	0.0027705627
112	0xbb329362	-0.0027248492
113	0xbb47c235	-0.0030480747
114	0xba0776ca	-0.0005167542
115	0x3b3dd45b	0.0028965685
116	0x39d89a70	0.00041313795
117	0x3a0009a0	0.0004884247
118	0x390bbeb3	0.00013327114
119	0xb9f1ae30	-0.00046096882
120	0x39693c7a	0.00022243141
121	0x393c5d78	0.00017963897
122	0x38c9ab22	9.616303e-05
123	0xb9356aaf	-0.00017301248
124	0xb9705bf7	-0.00022922443
125	0xb98bc48f	-0.00026658594
126	0xb7639242	-1.3564308e-05
127	0x3984e26c	0.000253457
128	0x3b673f59	0.003528556
129	0x3b79cf4d	0.0038117946
130	0x3a456b9a	0.00075309875
131	0xbb6d8663	-0.003624343
132	0x3a8d8369	0.001079661
133	0x3a9edbc6	0.0012119941
134	0x393e9195	0.00018174046
135	0xba96a9a6	-0.0011494651
136	0x3a8b335b	0.0010620164
137	0x3a88e44c	0.0010444014
138	0x3a016c71	0.00049371185
139	0xba825110	-0.0009942371
140	0xba7f202d	-0.00097322726
141	0xba86ef2f	-0.0010294671
142	0xb901cd60	-0.00012378907
143	0x3a80b614	0.0009819889
144	0xba3def0f	-0.00072454003
145	0xba4cf03d	-0.0007817781
146	0xb7bd9116	-2.2598117e-05
147	0x3a43dfea	0.00074720255
148	0xbb05d1d9	-0.0020419268
149	0xbb0eb8b3	-0.002177757
150	0xba05d246	-0.00051048805
151	0x3b07acf9	0.0020702465
152	0xbb1f410f	-0.0024300253
153	0xbb31a5be	-0.0027106847
154	0xb9c4fb26	-0.00037571153
155	0x3b2902ee	0.00257891
156	0x3b0bbc33	0.0021321892
157	0x3b16c4c5	0.0023005467
158	0x39a02c21	0.00030550457
159	0xbb0f9c0d	-0.0021913082
160	0x39bc61d9	0.00035931056
161	0x39d4f782	0.000406202
162	0x390868e2	0.00013009043
163	0xb9c928c3	-0.00038368077
164	0xbaf24446	-0.0018483482
165	0xbb0e525b	-0.0021716568
166	0xb98821da	-0.00025965163
167	0x3b06df50	0.0020579882
168	0x3a1947ed	0.00058472046
169	0x3a02f61d	0.000499578
170	0x3992b050	0.00027978653
171	0xb9faab84	-0.00047811505
172	0x3b035560	0.00200399
173	0x3b0e545c	0.0021717763
174	0x39fb7ae7	0.0004796602
175	0xbb073d4c	-0.00206359
176	0x38296736	4.0388863e-05
177	0x389c7d9c	7.462056e-05
178	0xb8686bdc	-5.5413562e-05
179	0xb89777b1	-7.222535e-05
180	0xb88ea42b	-6.801666e-05
181	0xb898dc51	-7.288962e-05
182	0xb8fb7513	-0.000119904194
183	0x388cf738	6.721768e-05
184	0x3930d859	0.00016865264
185	0x390a4639	0.00013186866
186	0x3918a9ab	0.00014559056
187	0xb9044639	-0.00012614661
188	0xba898187	-0.0010490873
189	0xba9875a2	-0.0011631737
190	0xb9915244	-0.00027717848
191	0x3a909fd7	0.0011033964
192	0x3a727157	0.00092484563
193	0x3a89758c	0.0010487302
194	0x37a4bbfe	1.9637864e-05
195	0xba82ffa8	-0.0009994404
196	0x3af7d789	0.0018908839
197	0x3b0a83e8	0.002113575
198	0x39bccba7	0.00036009887
199	0xbb037ef0	-0.0020064674
200	0x3ac19718	0.0014769761
201	0x3ad4f7e9	0.0016248199
202	0x39f21e41	0.00046180378
203	0xbaca089c	-0.0015413943
204	0xba698c55	-0.0008909156
205	0xba7b0794	-0.00095760194
206	0xb904fd15	-0.00012682781
207	0x3a6f351b	0.000912504
208	0x3a8ae5fc	0.0010597105
209	0x3a9b6020	0.0011854209
210	0x3958daef	0.00020680924
211	0xba93a609	-0.0011264692
212	0x3ab018f5	0.0013435172
213	0x3ac54088	0.0015049139
214	0x398d05c5	0.00026897914
215	0xbabb2fc7	-0.0014281207
216	0x3b254f0c	0.0025224118
217	0x3b3075d8	0.002692571
218	0x3a7b59e2	0.0009588284
219	0xbb27784b	-0.0025553878
220	0xbb78cc30	-0.0037963502
221	0xbb887553	-0.0041643768
222	0xba4e99bf	-0.00078811863
223	0x3b81af1e	0.003957643
224	0xbada54d0	-0.0016657356
225	0xbaf8dcdf	-0.0018986723
226	0xb9db0e68	-0.0004178167
227	0x3aec1156	0.0018010538
228	0x3ac33a09	0.0014894615
229	0x3ad38b30	0.0016139504
230	0x39fe90f6	0.0004855466
231	0xbac8c41a	-0.0015317232
232	0x3b12d6e0	0.0022405908
233	0x3b214970	0.0024610423
234	0x3a0a6dba	0.0005280633
235	0xbb1935d8	-0.002337804
236	0xbaaaf5de	-0.0013043245
237	0xbac4b76f	-0.0015008281
238	0xb982075f	-0.00024801024
239	0x3aba814f	0.0014229211
240	0xbada7a31	-0.0016668496
241	0xbaf4b646	-0.0018670044
242	0xb9998cb5	-0.0002928727
243	0x3ae8c480	0.0017758757
244	0x3abeb223	0.0014548938
245	0x3adc114a	0.001678982
246	0x39975068	0.00028860872
247	0xbad0b307	-0.0015922495
248	0xba77c32d	-0.00094513857
249	0xba8868c7	-0.0010407203
250	0xb99d50b0	-0.0003000549
251	0x3a81770c	0.0009877398
252	0xba8dc389	-0.001081572
253	0xba81b294	-0.0009895139
254	0xb9efadfb	-0.00045715258
255	0x3a77a884	0.0009447413

exp_avg_sq f4 [256, 4]
0	0x3365ffd4	5.355089e-08
1	0x33776a4f	5.7605856e-08
2	0x31824c2b	3.7921573e-09
3	0x335fda0c	5.2119546e-08
4	0x32116ecc	8.465303e-09
5	0x322e185a	1.013367e-08
6	0x305ff2e5	8.14721e-10
7	0x321c6100	9.10245e-09
8	0x337b3456	5.848809e-08
9	0x3392bc02	6.832853e-08
10	0x3186a5ff	3.918785e-09
11	0x3384ad9b	6.1783076e-08
12	0x326fb2be	1.3952272e-08
13	0x3287212c	1.5731153e-08
14	0x30d8e682	1.5781583e-09
15	0x32731b2f	1.4150642e-08
16	0x329974db	1.7864684e-08
17	0x32d77542	2.5082617e-08
18	0x30451822	7.170248e-10
19	0x32c100ad	2.2468464e-08
20	0x33c83845	9.323461e-08
21	0x33f7cf42	1.1539534e-07
22	0x30dafc4c	1.5933295e-09
23	0x33e19903	1.05052116e-07
24	0x321fd340	9.303051e-09
25	0x323b7a5d	1.0912655e-08
26	0x2e952166	6.781668e-11
27	0x322b184d	9.959035e-09
28	0x3285ba84	1.5568055e-08
29	0x32913033	1.690214e-08
30	0x3191823a	4.2348605e-09
31	0x3282a7c4	1.5210283e-08
32	0x3266a88b	1.3426084e-08
33	0x3291b733	1.6963531e-08
34	0x305c0539	8.0042956e-10
35	0x3282bf14	1.5220884e-08
36	0x3114b664	2.1640512e-09
37	0x30fa26da	1.8200936e-09
38	0x30005b8d	4.669623e-10
39	0x30e34db1	1.6538505e-09
40	0x328b91de	1.6248062e-08
41	0x323154c5	1.032203e-08
42	0x3205f79d	7.79792e-09
43	0x32230be0	9.490549e-09
44	0x348f54bf	2.6697487e-07
45	0x34b2754a	3.3240423e-07
46	0x32821414	1.5143122e-08
47	0x34a1395f	3.003033e-07
48	0x328e9bf9	1.6601904e-08
49	0x3299e17a	1.7914079e-08
50	0x30cc841d	1.4880502e-09
51	0x328ad88f	1.6163794e-08
52	0x34985f23	2.8381427e-07
53	0x34b7bdf2	3.422461e-07
54	0x3274abc3	1.4241723e-08
55	0x34a62beb	3.0951864e-07
56	0x32fe8923	2.9631854e-08
57	0x331aeb82	3.6070112e-08
58	0x312a35a2	2.4768743e-09
59	0x330b49b9	3.243051e-08
60	0x340be2d0	1.3027898e-07
61	0x3424984b	1.5329094e-07
62	0x32202188	9.32085e-09
63	0x3414cf5a	1.3859008e-07
64	0x3478f59e	2.3186155e-07
65	0x349c500b	2.9115503e-07
66	0x3271bcbb	1.4070959e-08
67	0x348d0e65	2.627377e-07
68	0x31c76675	5.8033103e-09
69	0x31bf9c5c	5.5766076e-09
70	0x30a78207	1.2187805e-09
71	0x31ad64e7	5.046434e-09
72	0x33bebaf7	8.881573e-08
73	0x33e497d9	1.0644698e-07
74	0x3191696e	4.2320414e-09
75	0x33cecba6	9.629666e-08
76	0x32185116	8.866001e-09
77	0x321a1489	8.968649e-09
78	0x30e2b378	1.6494672e-09
79	0x320b1f71	8.098014e-09
80	0x31fe7819	7.4060265e-09
81	0x32278d38	9.752789e-09
82	0x2fe7b481	4.214691e-10
83	0x3216ad86	8.770604e-09
84	0x31fba186	7.3234245e-09
85	0x3208cb5c	7.9624805e-09
86	0x2ffc4147	4.5884915e-10
87	0x31f8f4a7	7.2455637e-09
88	0x3253bbde	1.23245325e-08
89	0x32880139	1.583304e-08
90	0x304321b8	7.0988504e-10
91	0x32741916	1.4208373e-08
92	0x34aa32a0	3.1701802e-07
93	0x34ae84c8	3.2506637e-07
94	0x32ef31ce	2.784591e-08
95	0x349e9086	2.9534948e-07
96	0x32e5dcab	2.6759457e-08
97	0x330b28c8	3.240055e-08
98	0x311be2b4	2.2684334e-09
99	0x32fa3a9b	2.9130481e-08
100	0x329be9aa	1.8150633e-08
101	0x32b21471	2.0731223e-08
102	0x31807c93	3.7394527e-09
103	0x32a07c6c	1.8683032e-08
104	0x32808c7b	1.4965044e-08
105	0x329ad2d5	1.8023835e-08
106	0x30b6ca9f	1.3299831e-09
107	0x328b2d0a	1.6202211e-08
108	0x3426fa45	1.5551002e-07
109	0x344c60d3	1.9034205e-07
110	0x320ecdff	8.312326e-09
111	0x3438a1b6	1.7195165e-07
112	0x3451269f	1.9478692e-07
113	0x34832de2	2.4434036e-07
114	0x31ca16d6	5.88157e-09
115	0x346d9764	2.212742e-07
116	0x31f6bf97	7.1813235e-09
117	0x32150676	8.6744105e-09
118	0x3046fe15	7.239305e-10
119	0x3205eefb	7.795957e-09
120	0x3166a24c	3.356166e-09
121	0x312d336c	2.5204043e-09
122	0x2ff975f5	4.537665e-10
123	0x311fea1e	2.3270625e-09
124	0x31f4171b	7.1039614e-09
125	0x322165ea	9.394606e-09
126	0x2f7bdf8d	2.2907738e-10
127	0x32118fd9	8.472818e-09
128	0x349a736c	2.8768716e-07
129	0x34b40cbd	3.353688e-07
130	0x32703897	1.3982706e-08
131	0x34a330da	3.039666e-07
132	0x32e2f1d3	2.6419832e-08
133	0x330eaa77	3.321699e-08
134	0x30cf2fd6	1.5074828e-09
135	0x33003f63	2.9859972e-08
136	0x32d204a1	2.4449323e-08
137	0x32cbc68f	2.3722604e-08
138	0x31b631bd	5.3025517e-09
139	0x32b8b17b	2.1501128e-08
140	0x3313bb3a	3.4396386e-08
141	0x3320dbf8	3.7452963e-08
142	0x2fc2e2f7	3.5449663e-10
143	0x331355a5	3.4303998e-08
144	0x33112050	3.378983e-08
145	0x332e18fa	4.0535248e-08
146	0x2ea75354	7.609083e-11
147	0x331f6933	3.711575e-08
148	0x33c62b99	9.228024e-08
149	0x33e1b937	1.0511069e-07
150	0x31da54cd	6.3542758e-09
151	0x33cc473e	9.512449e-08
152	0x3447562f	1.8564673e-07
153	0x34778bd3	2.3054535e-07
154	0x315aabd8	3.1820857e-09
155	0x34610e1f	2.0959895e-07
156	0x3419745d	1.4291568e-07
157	0x342ff5de	1.6387591e-07
158	0x311242e2	2.1283815e-09
159	0x34209323	1.4954689e-07
160	0x31b945b1	5.3921316e-09
161	0x31e551ae	6.674063e-09
162	0x2ffb7965	4.574289e-10
163	0x31ce3503	6.001416e-09
164	0x33a02b03	7.4584044e-08
165	0x33dc85ab	1.02688624e-07
166	0x310ca954	2.0468933e-09
167	0x33c62a82	9.2278256e-08
168	0x31ff2ee5	7.426808e-09
169	0x31bb46be	5.4504588e-09
170	0x30ec3e4c	1.7188966e-09
171	0x31ab99ee	4.994255e-09
172	0x33be1535	8.851422e-08
173	0x33df9a56	1.041232e-07
174	0x31c3fff9	5.7043477e-09
175	0x33ca1de9	9.4117986e-08
176	0x31e6dc87	6.718952e-09
177	0x320ac9b6	8.078521e-09
178	0x2f819c04	2.357582e-10
179	0x31fc4bb7	7.342773e-09
180	0x320d00bc	8.207447e-09
181	0x3231fb0a	1.0359836e-08
182	0x2fdc42ca	4.0065223e-10
183	0x32218ca7	9.403414e-09
184	0x3153860b	3.0780736e-09
185	0x314dead5	2.9964913e-09
186	0x30750184	8.9132635e-10
187	0x313a8af1	2.7145541e-09
188	0x32d1bbd4	2.4416217e-08
189	0x33013509	3.008339e-08
190	0x3106427e	1.9537363e-09
191	0x32e8772c	2.7062548e-08
192	0x333af9c2	4.3533653e-08
193	0x3369b4dc	5.441403e-08
194	0x2ea03652	7.285607e-11
195	0x33554273	4.9653362e-08
196	0x33a6fdcf	7.776145e-08
197	0x33d0a342	9.715451e-08
198	0x31641206	3.3188612e-09
199	0x33bc1b87	8.7594394e-08
200	0x334b733d	4.736943e-08
201	0x3376681f	5.7371036e-08
202	0x31a84f92	4.8984896e-09
203	0x335dc212	5.1632078e-08
204	0x331003bc	3.353101e-08
205	0x331f4382	3.708147e-08
206	0x300bbf21	5.0839516e-10
207	0x331175ed	3.3867696e-08
208	0x3340fdc3	4.493428e-08
209	0x3372ab89	5.6501026e-08
210	0x30b4f016	1.316496e-09
211	0x335ba2e0	5.1138045e-08
212	0x332bf15f	4.0033566e-08
213	0x3358a31b	5.0439763e-08
214	0x3123c616	2.383222e-09
215	0x3342f172	4.5388738e-08
216	0x3417cab1	1.413671e-07
217	0x342de33e	1.6194551e-07
218	0x32aa9c75	1.9861753e-08
219	0x341cb01d	1.4592702e-07
220	0x34b41c9c	3.354843e-07
221	0x34d92ff3	4.0454287e-07
222	0x32821fb9	1.5148418e-08
223	0x34c4a2a5	3.6626184e-07
224	0x33b69e93	8.50388e-08
225	0x33ed61fd	1.10539965e-07
226	0x319de257	4.5950332e-09
227	0x33d5df44	9.959197e-08
228	0x334f3495	4.8243766e-08
229	0x33733fa1	5.6635717e-08
230	0x31b465a7	5.250246e-09
231	0x335b25ec	5.10244e-08
232	0x33f70a5a	1.1503717e-07
233	0x34160f09	1.3975308e-07
234	0x31d7b9a6	6.2784293e-09
235	0x34079297	1.2626184e-07
236	0x33207783	3.73616e-08
237	0x33544f62	4.9432295e-08
238	0x31040a1b	1.9214272e-09
239	0x333ed558	4.4431857e-08
240	0x33cd8185	9.569616e-08
241	0x3400b3ff	1.1986411e-07
242	0x3104ebe1	1.934261e-09
243	0x33e9be39	1.0884509e-07
244	0x33459dca	4.6011145e-08
245	0x3383b889	6.1337296e-08
246	0x3109d5ab	2.005758e-09
247	0x336d014d	5.5182046e-08
248	0x32ad7091	2.019104e-08
249	0x32d199b2	2.4400695e-08
250	0x31235403	2.3767377e-09
251	0x32bcbb59	2.1971276e-08
252	0x32dabe4b	2.5465075e-08
253	0x32b813eb	2.1429477e-08
254	0x31a02318	4.6606026e-09
255	0x32a7e2d5	1.954451e-08
