distributed_shared/worker_logs/worker_5/models/model_episode_80.pt (torch, 816842 bytes, 16 tensors)

0.weight f4 [256, 4]
000000 b9 b0 9f 3e b2 3e 91 3c b7 8f c0 be 80 98 16 be
       0.31189516 0.01773009 -0.37609646 -0.14706612
000010 f7 43 9a 3c 99 79 7c 3e 09 58 32 be cb 19 54 3e
       0.018831236 0.24655761 -0.17416395 0.20712964
000020 c5 b2 e8 3d 10 d6 a6 be 18 64 51 be 00 8f 9f be
       0.113622226 -0.32585192 -0.20448339 -0.31163788
000030 12 a9 a2 be a8 92 68 bd b6 76 8e 3e a1 95 c5 be
       -0.31769615 -0.056780487 0.27824944 -0.3859072
000040 e3 f3 f1 3e 1a 14 3d 3e 07 ef 0a be ad 65 b2 be
       0.47256383 0.184647 -0.13567744 -0.34843197
000050 92 7a ad 3d 78 84 36 be 72 74 94 3e 75 a7 1c 3c
       0.08470644 -0.1782397 0.2899509 0.009561409
000060 e8 67 88 3c da 64 a5 bd e8 6d f4 be cd 3e a7 3d
       0.016651109 -0.080758765 -0.47740102 0.08166275
000070 2f f3 a0 3d 99 74 d1 3e 44 c8 d3 bd e3 ed 41 3e
       0.078588836 0.4090927 -0.10340932 0.18938403
000080 1c bb 05 be 6e 4b c2 3d 52 67 f9 3d ba ae f0 3e
       -0.13059658 0.09487043 0.1217791 0.47008306
000090 0b 2b ff 3e fd 9c 49 3e 54 c2 39 be cf 60 88 be
       0.49837527 0.19688793 -0.18140537 -0.2663636
0000a0 93 52 3c be 4a 76 17 3d 82 61 fc be 63 e4 96 be
       -0.18390875 0.036978044 -0.49293143 -0.2947112
0000b0 2e 50 93 be 6f 3a ef 3d 98 19 ee be ff 1b 62 3e
       -0.2877211 0.11681067 -0.465039 0.22080992
0000c0 1e 0d 43 be ce 4a 07 bf 0d dd 6a 3e d8 b6 71 be
       -0.19047973 -0.5284852 0.22935887 -0.23604906
0000d0 0d 37 49 3e 14 18 f8 3d 8c bb e1 3e f9 14 2a 3e
       0.19649906 0.121139675 0.440884 0.16609563
0000e0 51 cd 55 3e d9 0c 11 be 31 98 d4 be f9 5b c8 bc
       0.20879103 -0.14165057 -0.41522363 -0.024457918
0000f0 59 4d 12 3d f2 e3 a2 3d 28 7c ef 3e 36 22 ec be
       0.035718296 0.07953633 0.4677441 -0.4611985
000100 1d 93 a7 3e 65 4e d6 be 0d fe 5f be f0 7e 10 3e
       0.32729426 -0.41856685 -0.21874256 0.14110923
000110 21 2d 57 be 96 04 79 3e 1c 33 c8 3d fb 66 2d ba
       -0.21013309 0.24318156 0.09775373 -0.00066147716
000120 dd 81 d1 3e 8c e4 b9 3e d8 49 96 be 48 bb fe bb
       0.4091939 0.3630718 -0.29353213 -0.0077737905
000130 a4 4b 33 3c 5b 93 bc be d8 85 a4 3d d7 67 63 3d
       0.010943327 -0.36831173 0.08033341 0.05551895
000140 71 2d ac 3e 98 7a bc 3e 4c b8 51 be 1c ab d9 3e
       0.3362842 0.36812282 -0.2048046 0.4251336
000150 41 9e 8c be 0d 40 ff be 82 e5 d7 bd 5f f9 14 3e
       -0.27464488 -0.49853554 -0.10541822 0.14548253
000160 72 d6 3f bd 91 ce 31 3e e9 3e bc be 7f a5 9e be
       -0.04683537 0.17363955 -0.36766747 -0.30985638
000170 49 c1 fe 3c a3 e6 d2 3e 33 78 f7 be b0 6b d2 bc
       0.031098025 0.41191587 -0.48333892 -0.025686115
000180 36 39 c2 bd 3c 14 59 3e 45 ee e4 be 5c fb 2e be
       -0.09483568 0.21199125 -0.44713035 -0.17088073
000190 4e fc af 3c 03 9d df be bb 38 b1 3e da 6c 35 be
       0.021482613 -0.43674478 0.34613594 -0.17717305
0001a0 5b a6 89 3e b4 c1 82 be b7 76 70 3e 10 39 b4 be
       0.26884732 -0.2553841 0.23482786 -0.35199785
0001b0 af 42 ea 3e 48 dd 2f be 27 e8 f2 3e 6b 35 a5 be
       0.45754 -0.17174256 0.47442743 -0.32267317
0001c0 ae ca 0d 3e 8b 14 68 bb e4 fa de 3d 52 13 e3 be
       0.13846847 -0.0035412635 0.10887697 -0.44350678
0001d0 cb b6 21 be e3 d0 95 3e 96 44 e2 be 0e 10 95 be
       -0.15792386 0.2926093 -0.44192952 -0.2911381
0001e0 26 79 94 3e 16 4c bc 3e ca 70 dc 3e 80 87 ee be
       0.2899868 0.367768 0.430548 -0.46587753
0001f0 7c ac 3f 3d 2b 68 28 3d bc 36 eb 3e ea 0e c3 be
       0.046795353 0.041114967 0.45940197 -0.38097316
000200 4c 41 a8 be b2 95 3f 3e 7a b2 e0 bd 6c 01 48 be
       -0.32862318 0.18709448 -0.10971542 -0.19531792
000210 30 bf 12 be 89 f7 45 be c9 0c ba bc 26 e9 16 bd
       -0.14330745 -0.19332708 -0.022711175 -0.03684344
000220 73 19 96 3e d4 76 84 be 13 c6 bf be 1f 82 f9 bb
       0.2931629 -0.2587191 -0.37455806 -0.0076143886
000230 17 24 ca bd 11 be 41 3e f4 5f 01 bf 86 3a 09 bf
       -0.09870165 0.18920161 -0.5053704 -0.53604925
000240 1f e4 dc be c9 9f bf 3e 6a 8a 9a be 3e 5f 09 3d
       -0.43142793 0.37426594 -0.30183727 0.033538096
000250 c9 99 0b 3d b8 17 68 be b9 cd 45 be 32 ee b2 be
       0.034082208 -0.22665298 -0.19316758 -0.34947354
000260 a1 96 44 be 5a 99 04 be 79 33 3c be fc 9d d7 be
       -0.19198085 -0.12949124 -0.1837901 -0.4211272
000270 15 07 f1 bd 7f 5e a8 be fa 92 8b be d2 71 84 be
       -0.11768929 -0.32884595 -0.27260572 -0.25868088
000280 71 d7 aa be 0c bc f8 3e f7 3b 97 be 72 e8 bf 3e
       -0.33367494 0.48580968 -0.29537937 0.3748203
000290 08 f8 d6 3e e4 ce e1 3d 2a 68 04 3e 93 90 f2 3e
       0.41986108 0.110257894 0.1293036 0.47375926
0002a0 76 89 e7 be bf 1f a6 3d 8e 82 21 be ff 9f a9 be
       -0.45222062 0.08111524 -0.15772459 -0.3312988
0002b0 9e d9 7b be 18 0e c0 3e f9 89 a7 3e 44 db 46 be
       -0.24594733 0.37510753 0.32722452 -0.1941958
0002c0 72 52 23 be e3 aa a4 bb 8f 04 7b 3d a8 bb c4 3e
       -0.15949419 -0.005025254 0.061283644 0.3842442
0002d0 b1 b7 7c 3e 25 c4 4a be ab 81 93 3c 3d 1e b9 3e
       0.24679448 -0.19801386 0.018006166 0.36155882
0002e0 f6 ec b3 be 56 25 cb be 84 88 63 be fc 29 8e 3e
       -0.35141724 -0.39676923 -0.22220045 0.27766407
0002f0 b1 be 8e bb dd cc dd be 76 60 f4 3d e9 32 60 be
       -0.0043562283 -0.4332036 0.11932461 -0.2189442
000300 86 be 84 3e 68 3f 03 bd 83 fe a9 be d4 25 1f 3e
       0.25926608 -0.03204289 -0.3320199 0.15541774
000310 66 ce ac be 84 01 e8 be 02 ee c9 be a6 fb 6f be
       -0.3375122 -0.45313656 -0.39439398 -0.2343584
000320 cf 77 8c 3e 87 cb a5 3e 2e 11 f4 3e 94 16 d2 3d
       0.27435157 0.32381842 0.47669357 0.10258213
000330 a2 f6 03 3e 64 91 ef bd 7b c3 9b 3e 0d 81 a8 3d
       0.12887052 -0.11697653 0.30422577 0.082277395
000340 2b e6 ad be e8 70 43 3d cf 7e a0 be 17 71 b7 be
       -0.33964667 0.047715098 -0.31346747 -0.35828468
000350 c7 70 d3 bd 7b ec 8f be d0 66 b2 be 4c 9d b5 3e
       -0.10324245 -0.28110108 -0.34844065 0.3547157
000360 e8 9e 64 be 07 5a 8a bd e8 5c be be 79 3c aa 3e
       -0.22326243 -0.067554526 -0.37180257 0.33249262
000370 17 60 b0 3e a3 bb e7 bd 7c b7 71 3a d8 21 e1 3e
       0.3444831 -0.11315086 0.0009220762 0.43971133
000380 88 f2 2f be c4 6b 6f bd ad 45 2d bd ab e7 9f be
       -0.17182362 -0.058452383 -0.042302776 -0.31231436
000390 0a 77 9e 3e 32 3c 86 be 2f fb 03 3f 5c 93 14 3e
       0.30950195 -0.262178 0.5155515 0.14509338
0003a0 55 95 78 3e 0b a9 20 3e f6 b3 e4 be 28 ac c3 3e
       0.24275716 0.15689485 -0.4466855 0.38217282
0003b0 f5 d3 39 be 48 dd fd 3d 8d 73 9e 3e bb b0 eb be
       -0.18147261 0.12395722 0.30947533 -0.46033272
0003c0 76 30 69 be 14 dd 0e 3e 23 29 c8 bd 5a a5 c1 be
       -0.22772393 0.13951522 -0.09773471 -0.37821466
0003d0 4b 7b 91 3d b1 14 59 be dd 6b 21 bd 7b 60 63 be
       0.071035944 -0.211993 -0.039409507 -0.22204773
0003e0 35 d3 90 3e a0 46 a9 3e f5 91 16 3e a1 57 b1 bc
       0.28286138 0.33061695 0.14704116 -0.02164823
0003f0 de c7 bb 3d 9c 3a 01 be 03 61 23 3d 62 39 65 3e
       0.09168981 -0.12620014 0.03988744 0.22385171

0.bias f4 [256]
000000 e2 1d c9 be bd 93 7d 3d 66 43 9c be 2e e2 6e bd
       -0.3928061 0.061908472 -0.3052017 -0.05832117
000010 40 97 e3 be 05 47 cb 3e ed e9 b8 be e2 73 c3 be
       -0.44451332 0.3970262 -0.3611597 -0.3817435
000020 48 03 be be 3b e6 86 3c aa 74 19 be 02 6b a0 3e
       -0.37111878 0.016467204 -0.1498591 0.3133164
000030 8f dc b6 3e a2 20 54 3e 3d 56 d7 be 83 aa 01 be
       0.35715148 0.20715573 -0.42057982 -0.12662701
000040 50 33 79 bd 34 b8 fe be 05 ad 0f 3d f3 e6 dd bd
       -0.06083995 -0.4974991 0.035077114 -0.10835066
000050 1f d6 63 be 45 25 a0 3d a8 3b 12 3d d0 18 de 3c
       -0.2224965 0.078196086 0.035701424 0.02711144
000060 7f 38 0b 3e df 95 14 3e 9f 3c fd 3d 66 fd 86 3e
       0.1359577 0.14510296 0.12365078 0.26365203
000070 3f 93 5d bd f9 bf c0 bc c7 b0 a9 bd 55 6d 29 3e
       -0.054095503 -0.02352904 -0.08285671 0.16545613
000080 f5 5c bb be 04 f7 f6 3e 1e 33 b2 3d 2e 3e b8 be
       -0.36594358 0.48235333 0.08701156 -0.3598494
000090 14 7e 4d be b9 5f e2 3e d8 60 b1 3e 03 96 93 3e
       -0.20067626 0.44213656 0.34644198 0.28825387
0000a0 7b 41 c5 be 10 34 b5 be b1 8b 15 bd 13 9b f5 3d
       -0.3852652 -0.35391283 -0.036510173 0.11992469
0000b0 e0 3a d6 3e ee 0c a8 3d e5 18 81 3e de cb 87 bd
       0.41841793 0.08205591 0.25214306 -0.066306815
0000c0 42 31 e4 3d bd 11 9a be 19 aa 8e 3d 48 66 b6 3e
       0.11142208 -0.30091658 0.06966037 0.3562491
0000d0 0d fd c8 3e 99 d7 c1 3e 5e 1d 28 3e ef 14 e9 3d
       0.39255562 0.378598 0.16417453 0.11380946
0000e0 84 95 86 3e 1b 91 62 be 47 2f 2f 3e 44 24 ac bc
       0.26285946 -0.22125666 0.17107879 -0.021013387
0000f0 d1 52 c2 bd 82 a7 d1 3e 86 39 ca 3e 4a e5 31 be
       -0.09488452 0.4094811 0.39497012 -0.17372623
000100 8f 13 55 3e 7a 0e ac 3e 00 21 fb 3e d7 2a ac 3d
       0.20808242 0.33604795 0.49048615 0.084066086
000110 b3 41 fc bd 9a 17 6f 3c 91 99 c2 3e 9c b3 c3 bd
       -0.12317219 0.014593029 0.38007787 -0.09555742
000120 e9 81 b8 be db 13 0f be dd 32 3c 3e 37 89 b8 3e
       -0.36036614 -0.13972418 0.18378778 0.36042187
000130 13 a4 9a 3d ee 0f 62 3d dd f1 a8 3e 1c d2 33 be
       0.07550826 0.055190973 0.32997027 -0.17560619
000140 54 2a 1a 3c 62 24 1b 3e 13 cc b3 be 4c 04 46 bd
       0.009409506 0.15150598 -0.35116634 -0.04834394
000150 41 62 cb 3e 49 ed 81 be 97 51 e4 3e 2f c1 30 3c
       0.397234 -0.25376347 0.44593498 0.010788246
000160 d5 fe a0 3e 57 c5 6b be 8a 15 cd 3e 59 ee c7 3e
       0.3144442 -0.23024498 0.40055496 0.39049032
000170 ad 2d 38 3e 39 8c 02 3c 31 9f 8c 3c 82 e0 62 3e
       0.17986174 0.007968002 0.017165752 0.22155955
000180 2e 19 a0 3e ba ed 17 be 5e 89 7e 3e 5a 23 5d be
       0.3126921 -0.14836779 0.24857089 -0.21595517
000190 42 42 09 be 65 e3 d6 be 8f d7 ea 3e 9a b3 fd bd
       -0.13404182 -0.41970363 0.45867583 -0.12387772
0001a0 52 c4 3b bd 71 d7 9b 3e 2e ad 10 be 31 09 9a 3e
       -0.045841523 0.30437806 -0.14128563 0.30085137
0001b0 d7 88 8c bd 93 91 e9 3d cd 15 ad be 97 33 10 3e
       -0.06862038 0.11404719 -0.33805695 0.1408218
0001c0 8b 78 90 be 30 6b b3 3e c9 9c 2f bd bd 47 9f 3e
       -0.28216967 0.35042715 -0.04287413 0.3110942
0001d0 21 65 f2 be 84 4e ee bd a6 b5 43 be e2 33 05 be
       -0.4734278 -0.116360694 -0.19112262 -0.13008073
0001e0 2a 2d 7c be 25 db c3 bd d7 ca c3 3b 3b f1 15 3e
       -0.24626604 -0.09563283 0.005975108 0.14642803
0001f0 fd cc f6 be 58 d8 f7 3e 12 2a d4 be 96 7c eb be
       -0.4820327 0.48407245 -0.41438347 -0.4599349
000200 4e 5f 95 3e 69 32 df be 72 d4 62 be f3 32 6a be
       0.29174274 -0.43593147 -0.22151354 -0.22870998
000210 4a 4d d0 be 8b e1 6c 3e af 1a 05 bd c5 e5 28 be
       -0.40683967 0.23132913 -0.03249615 -0.164939
000220 2e c2 f9 3e 93 b2 02 3e ab 7a 59 be 44 42 90 3e
       0.4878096 0.12763433 -0.212382 0.28175557
000230 a5 4e eb 3e 20 db a9 3d ae d2 26 be ae 96 0f 3e
       0.4595844 0.08293748 -0.16291305 0.14022323
000240 9e 7f dd 3d e9 61 ed bd 47 6a e6 3c 5f f8 c5 3d
       0.10815357 -0.115909405 0.028126849 0.09666514
000250 6e 11 9b be de 5a 7a 3d 03 22 ee be 8c ce 06 be
       -0.30286735 0.061121814 -0.46510324 -0.13164729
000260 58 e7 4d be 9e 59 f5 be 6d 25 81 be 47 3d bc be
       -0.20107782 -0.47919935 -0.25223866 -0.367655
000270 56 5e 02 3c 61 ab 26 be d0 e3 08 be 05 af 36 3e
       0.007957062 -0.16276313 -0.13368154 0.17840202
000280 11 ea 75 bd 19 92 6b 3e 47 ac bd be 86 b5 d1 be
       -0.060037676 0.2300495 -0.370455 -0.40958804
000290 fa 97 7f be 34 d9 dd bb b2 96 7e 3e 88 d1 a7 bd
       -0.24960318 -0.0067702774 0.24862173 -0.08194262
0002a0 5f c6 9b be 74 93 d0 bd c0 b8 5d 3e f6 da 7c be
       -0.30424783 -0.101843745 0.21652508 -0.24692902
0002b0 f0 50 b2 3e 38 c0 ea 3e b1 53 89 3c fa c9 86 3d
       0.34827375 0.45849776 0.01676354 0.06581493
0002c0 b4 bd f1 be 8a db b4 3e 19 e9 2a 3e 3a 57 b6 3e
       -0.47215044 0.35323745 0.16690482 0.35613424
0002d0 65 42 ca bd b3 3b a2 3e 45 ff 67 3e bc 62 08 3e
       -0.09875945 0.31686172 0.22655971 0.13318914
0002e0 aa 68 e2 3e 1e 39 f7 3e 49 e3 ac 3e d9 6c ae 3d
       0.44220477 0.48285764 0.33767155 0.08516855
0002f0 88 52 08 3e b5 fc 60 be de 77 ef 3e 52 b4 23 3d
       0.13312733 -0.219714 0.4677114 0.03996689
000300 8c 2b 06 3e d0 6b ea 3e 2e 15 33 3e bf c3 8b 3d
       0.1310255 0.4578538 0.17488548 0.06824445
000310 53 05 e7 3e fc 5d e5 be 4c 8a 5e be d6 1b c9 be
       0.4512125 -0.44798267 -0.21732444 -0.3927905
000320 02 05 34 be 9f 34 ba be 04 8d 8d 3e e1 23 ba 3d
       -0.17580035 -0.36368272 0.2764665 0.090888746
000330 bc f4 d2 3d 22 13 0f be 18 9c a5 be f6 6c 1d be
       0.10300586 -0.13972142 -0.32345653 -0.15373597
000340 46 1a a2 3e 98 60 4e 3e c3 10 df 3e f3 9d 84 3e
       0.3166067 0.20154035 0.43567476 0.25901756
000350 be 6b 93 3e 05 58 c5 3d 79 ad 81 3e 0c 5a bd 3e
       0.28793138 0.09635929 0.25327662 0.36982763
000360 7e 3a f7 be 04 34 d2 3e c2 0a 84 3e ae 74 46 3e
       -0.48286813 0.4105531 0.25789458 0.19380447
000370 68 17 ac be ba c6 ae 3e 7e 25 c2 be 75 eb 9d 3d
       -0.33611608 0.3413599 -0.3791923 0.077109255
000380 44 7d 4b 3d 55 28 32 3e 20 bc 60 bd 2d 2d aa be
       0.04968001 0.17398198 -0.05486691 -0.3323759
000390 0e cd ba 3d 76 be 53 bd 89 3d ef 3e a7 fc 47 be
       0.09121142 -0.05169531 0.46726635 -0.19529973
0003a0 95 a6 1a 3e 53 e6 6f 3d 02 24 8e 3e 86 84 b0 be
       0.15102609 0.058569264 0.27761847 -0.34476107
0003b0 d7 9b f8 be a1 a9 05 3e b0 6d a3 be ec b0 e8 3d
       -0.48556396 0.1305299 -0.31919622 0.1136187
0003c0 82 8e 23 3e 6f 20 90 3e 42 ee ae be 9b 16 ca 3d
       0.15972331 0.28149745 -0.3416615 0.09867593
0003d0 22 b4 ac be ca 43 96 3e 47 c6 e4 3e e9 49 eb 3e
       -0.3373118 0.29348594 0.44682524 0.45954826
0003e0 a9 98 e6 3e 50 fa ed 3a 43 a4 f5 3d d7 bf c4 bd
       0.45038345 0.0018156264 0.11994221 -0.09606903
0003f0 f0 db c7 3e 8d f6 9c bd f4 cf 27 3e 20 e2 c9 3e
       0.39034986 -0.07664213 0.16387922 0.39430332

2.weight f4 [256, 256]
000000 09 aa d5 bc 26 5f 0a 3d 8d be aa bc 4c eb 3c 3d
       -0.026082056 0.033782147 -0.020842815 0.046122834
000010 73 90 21 3c 52 e5 2a bd 86 b1 88 3c 09 23 de bc
       0.0098610995 -0.041722603 0.016686212 -0.027116315
000020 31 c0 01 3c 22 10 98 3c c2 e1 a0 3c c4 38 16 bd
       0.007919357 0.01856238 0.0196389 -0.03667523
000030 1a 5e 81 3d 84 2f 80 3d a3 b6 2f 3d c3 f9 7b bd
       0.063167766 0.06259063 0.042898785 -0.06151749
000040 b2 4e 43 bd 19 ab 59 3c 5f 3f d1 3c 94 57 e7 bc
       -0.04768247 0.013285422 0.025542913 -0.028240003
000050 2c 33 5b 3d ef 2e 38 3d ff c2 05 bd 6c f9 80 bb
       0.0535156 0.044966634 -0.032656666 -0.0039359834
000060 72 87 03 3d 8e 8a 34 3b 6a a8 3a bd 03 b8 46 3d
       0.032111593 0.0027548405 -0.04557077 0.04851533
000070 af a2 0e bd 92 f1 95 bd de 68 d1 3b 42 f0 0e 3d
       -0.034823116 -0.073214665 0.006390675 0.034897096
000080 52 d9 88 bd 83 17 77 bd 84 4c 16 bd 2f a5 69 bd
       -0.066820756 -0.060325157 -0.036694065 -0.057042297
000090 23 57 70 bd 45 57 3a 3d a6 25 5f bd 6f 26 2c 3b
       -0.05867685 0.045493383 -0.054479264 0.0026268025
0000a0 7b d9 36 bd d1 0d 28 3c 46 6b b7 bc 5b 6e a6 3c
       -0.044641 0.0102572 -0.02239002 0.020316293
0000b0 bb ca 83 3d a3 5d 94 3c bf 5d 1a bd 8b 7b 04 bd
       0.06435152 0.018111056 -0.03768706 -0.032344382
0000c0 9a 33 b8 3b 07 86 f3 bc 2b 33 f0 bc 22 ca 3d 3d
       0.0056213858 -0.029726995 -0.029321274 0.046335347
0000d0 15 5a d6 bc 50 62 6a 3d c2 e9 02 3d 2f df 62 3d
       -0.026166001 0.057222664 0.03196121 0.055388626
0000e0 48 29 9d bc c6 ed 3a 3b 0e 3d 52 bd c3 b3 26 3d
       -0.019184723 0.0028523072 -0.051327758 0.040698778
0000f0 67 b1 80 bd b8 b0 28 bd 2c 74 91 3c a7 a0 ba 3c
       -0.06283837 -0.041184157 0.01775559 0.022781683
000100 ea 9a 75 3b 57 cf 67 bd 6a c9 c2 bb 15 88 69 bd
       0.003747637 -0.05659422 -0.0059444206 -0.057014544
000110 fd 07 2d bd 59 ea 16 3c 44 45 22 bd 65 8b 78 3b
       -0.042243946 0.009211146 -0.039616838 0.0037924882
000120 14 2b 54 3d ef 39 35 bc d5 38 5f bd 7c 5f 5f 3d
       0.051798895 -0.011061176 -0.05449756 0.05453442
000130 bc f4 fb bc e8 c7 d3 bc da 08 2e 3d b3 26 07 bd
       -0.030756347 -0.025852159 0.04248891 -0.03299589
000140 d8 40 2b bc b1 b1 ce 3c 28 b9 07 3c 6c f5 ed 3c
       -0.010452472 0.025231214 0.008283891 0.02904769
000150 66 4d dd bb 2f 16 a7 bb 89 d1 bd 3c ab a9 52 3d
       -0.0067536114 -0.00509908 0.023171203 0.05143134
000160 8a df 2b bd 47 e1 59 bd 56 b5 f3 3c 7a 3e 39 3d
       -0.04196123 -0.053193357 0.029749554 0.045225598
000170 a6 5a 80 3d 88 c0 eb 3c 58 c8 65 3d 94 45 6c 3d
       0.0626729 0.02877833 0.056099266 0.057683542
000180 7b 64 31 bd 90 10 c3 3c 67 c2 21 bd 1a d3 1a bd
       -0.043308716 0.023811609 -0.039492037 -0.03779898
000190 f9 67 8c bd d1 de 2a bd 88 19 0e bd f8 06 48 3d
       -0.06855769 -0.0417164 -0.034692317 0.04883477
0001a0 51 2d 86 3c 18 3e f7 bc 00 98 2c bc 1f e6 1d 3d
       0.01637903 -0.030180976 -0.0105342865 0.03854954
0001b0 6b 8f 30 bd 8c 90 2e ba e2 b8 57 3d 8b 34 49 bd
       -0.043105524 -0.00066591124 0.052666552 -0.049122375
0001c0 04 87 4f 3d 1b 68 c6 bc e1 02 3f bd 43 80 9a bc
       0.05066587 -0.024219563 -0.046633605 -0.018859988
0001d0 a9 cd 79 ba 7d b7 85 3d 56 09 50 bd ec c4 f5 bc
       -0.0009529242 0.06529138 -0.050790153 -0.030001126
0001e0 f7 3d b0 3c dd 61 0a bd 8d 19 21 bb be 44 89 3b
       0.021513922 -0.033784736 -0.002458188 0.004189103
0001f0 a4 d4 84 bc 71 2d 7c bc 05 89 4f 3d 82 bf 46 bd
       -0.016214676 -0.015391693 0.05066778 -0.04852248
000200 e1 38 a0 bc 9c e1 72 3d b3 e3 f2 3c 6d a2 3a bd
       -0.019558372 0.05929719 0.029649591 -0.045565058
000210 45 53 16 3d 9a 7b 1a bc 1e 12 b5 3c a8 7d 54 3c
       0.036700506 -0.009428883 0.022103366 0.012969412
000220 95 74 0e bb a6 b4 e5 3b 36 2b 07 bd dd 7b 3c bd
       -0.0021736969 0.0070100604 -0.033000194 -0.046016563
000230 db 88 1a bd 95 17 4b bd 1c c9 c7 bc 17 c4 d1 3b
       -0.03772817 -0.049583036 -0.024387889 0.0064015496
000240 be 5d 9c bd 0b 9b f1 bc a4 98 27 3d 99 19 3d 3d
       -0.076350674 -0.029492876 0.040917054 0.04616699
000250 37 5b 33 3d b1 19 4d 3d 64 a8 38 3b b2 b2 22 3c
       0.04378816 0.05007333 0.002817654 0.0099303
000260 1f 35 d6 bb c3 38 0b 3d f4 d5 72 3d f5 73 53 3d
       -0.0065370942 0.03398968 0.059286073 0.051624257
000270 fd c9 18 3c 73 a8 19 3b 66 f9 7c 3c 3e 69 e2 bb
       0.0093255015 0.002344635 0.015440321 -0.0069095185
000280 51 34 94 bd 6e 69 c2 bc 46 e9 36 3d 82 2f fc 3b
       -0.07236541 -0.023731913 0.04465606 0.007696093
000290 f4 90 99 3d 17 c5 ff bc 95 ce 29 3d 83 13 03 bd
       0.07498351 -0.03122191 0.041456778 -0.03200103
0002a0 e1 a0 82 3d f4 71 78 3d a0 72 b7 3b 21 4a 4d 3d
       0.063783415 0.06065555 0.005598381 0.050119523
0002b0 70 39 25 3d 28 a6 1c 3d 32 05 21 bd 42 5c 7d 3c
       0.04033798 0.038244396 -0.039311595 0.0154638905
0002c0 9d 64 47 bd 5c d3 46 bd b7 af 41 3d 4f 91 1e 3d
       -0.048679937 -0.04854141 0.047286715 0.038712796
0002d0 65 e3 da 3c f5 95 c8 bc f9 90 6c 3d 86 c7 87 3b
       0.026719758 -0.024485568 0.057755444 0.004143658
0002e0 ce cb 95 bc 44 5b b9 3b 16 b7 a7 bc 73 b1 9c 3b
       -0.018285658 0.0056566317 -0.020473044 0.004781896
0002f0 3f 74 f5 3c 00 c4 1b 3b c5 f4 b1 3c e3 42 25 3d
       0.029962657 0.0023767948 0.02172316 0.04034699
000300 21 d1 52 3d 3e 0c 51 3d e7 42 58 bd 57 b1 4e 3d
       0.051468972 0.051037066 -0.052798178 0.050462093
000310 83 3a 1a bd 0d 5e 6b bd 93 dc 16 3d 44 06 89 bc
       -0.037653457 -0.05746274 0.03683145 -0.01672662
000320 0c 7e 16 bd c6 94 f9 3b 7a 4b 5b bd ff 94 ba bb
       -0.0367413 0.007616612 -0.053538777 -0.0056940312
000330 99 59 a8 3b 5a 11 07 3d 91 cc 2f 3d 1b af 47 bd
       0.005137634 0.032975532 0.0429197 -0.048750978
000340 10 18 1f 3d a8 aa 88 bc 23 4b 98 3c db e6 b2 3c
       0.038841307 -0.016682938 0.018590515 0.021838596
000350 fd af 3c 3d 08 97 37 3d 7c e6 2d 3d 51 96 d3 3b
       0.046066273 0.04482177 0.042456135 0.006457128
000360 ad ae 99 3c 62 97 fc b9 62 6c 4d bd f1 16 ed bc
       0.01876005 -0.00048177975 -0.05015219 -0.028941603
000370 26 30 76 3d 02 86 3b 3d 91 45 1e 3d b8 50 8b 3c
       0.06010451 0.045782097 0.038640562 0.017006263
000380 4a 54 4e ba 43 d1 3f bd f3 b6 27 bd 5c 4e 68 3c
       -0.00078708364 -0.046830427 -0.04094596 0.014178839
000390 3f f2 8f 3d 42 46 de bc 35 3b 5d 3d 0f 16 8e 3d
       0.07028627 -0.02713311 0.054011542 0.06937801
0003a0 2e b0 18 bd 9d 5f 18 bd c1 56 09 bd 35 d3 92 3c
       -0.037277393 -0.03720056 -0.03353 0.017922977
0003b0 d3 bd 77 bd f3 b9 22 bc 79 4f 65 3d f8 1c 2c bd
       -0.060483765 -0.009932029 0.055983994 -0.042019814
0003c0 ee 90 86 bc 6f a5 fc bc ae 1a 10 3d a3 58 a7 3c
       -0.01642653 -0.030840604 0.035181694 0.020428007
0003d0 59 1c fd bc 6d e1 8b bd b8 75 b2 bc 0e f9 24 3d
       -0.030897306 -0.06830106 -0.021784648 0.04027658
0003e0 ba 25 05 3d 2e 7d 9d 3d 65 bd cc 3c 10 ae 37 bd
       0.032506682 0.07689892 0.024992654 -0.044843733
0003f0 fa cc ae 3c b3 6a 2b 3b 99 e3 4d bd e5 ae 6c bc
       0.021337975 0.0026156127 -0.050265882 -0.014445995

2.bias f4 [256]
000000 be 58 82 bc b8 f8 77 3d 0b 6d 49 bd 74 ce 24 3c
       -0.015911456 0.06053993 -0.049176257 0.010058988
000010 29 fd d5 3c 0b d1 69 bd a4 48 6c bb 41 a4 5e bd
       0.026121693 -0.057084125 -0.003605404 -0.054355863
000020 7c 6a 68 bd 82 98 a9 bc a3 09 14 bd 36 0d 62 ba
       -0.056742176 -0.020702604 -0.036142003 -0.00086231844
000030 07 cb 24 3c 98 99 2a 3c c9 9f f2 3c 81 3e 3e bb
       0.010058171 0.010412596 0.029617207 -0.0029028954
000040 81 6f 76 bc c1 39 4a bd f3 ef 2a bd 99 de e9 3c
       -0.015041233 -0.049371485 -0.04173274 0.028548526
000050 56 db 7e bd 0c 51 fc bc 4a 7f 76 3d 27 d1 51 bb
       -0.062220894 -0.030800365 0.060179986 -0.0032015534
000060 8d 4c 98 3a 72 20 6c bd 36 b0 1a 3d ae 7c d6 3c
       0.0011619494 -0.05764813 0.037765704 0.026182499
000070 55 cf 1b bd 2a 15 82 3d e5 cf dc 3c f6 9f 14 3c
       -0.038039524 0.06351693 0.0269546 0.009071341
000080 81 56 50 3d 4d a9 8c bd fd 5e b0 3c bc c9 2c bd
       0.050863747 -0.06868229 0.021529669 -0.042184576
000090 65 8f a2 bc ab 25 17 3d 68 db a4 bc 5d f8 7b 3d
       -0.019843766 0.036901157 -0.020124152 0.061516155
0000a0 af e9 5f 3c a5 91 71 3d 65 2c 4d bd 6d f3 46 bd
       0.013666554 0.058976788 -0.050091166 -0.048571993
0000b0 6f b9 10 3d 9f b6 6a bd 46 1f f1 bc 83 1f 6c 3b
       0.035333093 -0.057303067 -0.029433858 0.0036029525
0000c0 7f 8a 9f bc 84 14 e8 bc ca 63 35 3d 8f 6a 75 3d
       -0.01947522 -0.028330095 0.04428462 0.059916075
0000d0 e2 af 5b bd de ee 4e bc 22 ec 0a 3d 98 ef 06 3d
       -0.05363453 -0.012630193 0.0339166 0.03294334
0000e0 ca ce d1 bc 4e a4 5d 3d d5 ae e5 3c 27 f1 37 3d
       -0.0256113 0.05411177 0.028037468 0.044907715
0000f0 88 9c 55 3d 18 e7 10 bd 86 c1 5c 3d 88 87 60 bd
       0.052151233 -0.03537664 0.053895496 -0.054816753
000100 7e 5e 37 bd 46 42 8a 3c d4 4d 9e bc 35 ff 0e 3d
       -0.04476785 0.016877305 -0.01932422 0.034911353
000110 fd f7 47 3d 1c 5f 6c bc 1a 25 3a bd 89 77 da bb
       0.048820484 -0.014426973 -0.04544554 -0.0066670817
000120 7f bb 63 3d 30 80 c6 bc 1c 67 2e bd 7d c0 d0 3c
       0.055598732 -0.024231046 -0.0425788 0.02548241
000130 e8 2c 5a 3d be 5b 59 3d b2 82 1d bd f1 9e 8c 39
       0.053265482 0.053066008 -0.03845472 0.000268213
000140 3a b7 17 3b 6f 6c 7c 3d 75 28 c5 3c 46 75 9c bc
       0.0023149983 0.061626848 0.024067143 -0.01909889
000150 29 a6 7b 3d 53 3b 5d 3d ba 77 38 bd dc c2 e4 3c
       0.06143776 0.054011654 -0.045036055 0.027924947
000160 af a0 1c 3d a6 cf b5 bc 05 70 fb bc aa 16 32 3b
       0.038239177 -0.022193741 -0.030693064 0.0027174153
000170 c7 0c 00 3d ae 47 ec 3c b4 e7 71 bd 44 93 9c bb
       0.031262185 0.028842773 -0.05905886 -0.0047782976
000180 3e c8 78 3d 54 f2 24 3d fc 01 59 bb 0d c7 47 bd
       0.06073784 0.040270165 -0.0033112755 -0.048773814
000190 87 52 05 bd 31 fa 55 bd b6 58 93 3c a6 cc 70 bd
       -0.032549407 -0.052240554 0.017986637 -0.058788918
0001a0 47 4e 78 bd 45 17 11 3d ef 21 3d bd 82 b7 2d bd
       -0.060621526 0.035422582 -0.04617494 -0.042411335
0001b0 bf 3b 07 3d 3d ba ae bc a7 1c 09 bd 89 83 d3 3b
       0.033015963 -0.02132904 -0.03347459 0.006454889
0001c0 8e fe 5c bd 67 fe 59 bd e2 73 41 bd 44 1d 9e bc
       -0.0539537 -0.053221133 -0.047229655 -0.019301064
0001d0 60 b9 68 3d b0 87 1c 3d 83 8a 88 bc ad 30 d5 3c
       0.056817412 0.03821534 -0.01666761 0.026024187
0001e0 46 39 37 bd 3f f4 c0 3c 06 b8 a7 bc 60 49 71 3c
       -0.044732355 0.023553966 -0.020473491 0.014726967
0001f0 4d 54 86 bd a1 c0 3f bd f2 8e 05 bd 96 2b 17 bd
       -0.06559048 -0.046814565 -0.032607026 -0.0369068
000200 31 fc 73 3d 59 e7 63 3c 03 c4 84 bd 55 a6 fd bc
       0.05956668 0.013910138 -0.06482699 -0.030963102
000210 ba 3e d1 3c cf 16 d6 3c c7 4c 7e bd 9a 04 29 3b
       0.025542606 0.026133923 -0.06208494 0.0025790096
000220 24 24 77 bc 9b fb 5b 3d 6c 02 d4 3c 6f 6a 57 3d
       -0.0150843 0.053706747 0.025880061 0.052591737
000230 a6 0e 5a bc 53 d9 d7 3b b7 74 7e bc b5 db 68 3c
       -0.0133091565 0.0065871864 -0.015530757 0.0142125385
000240 a8 6a f0 bc 38 0f 57 bd ac 59 a6 bc 5a c8 4f 3d
       -0.029347733 -0.052504748 -0.02030643 0.05072818
000250 e1 1c 9f 3c 9d 28 5d bd ef 4c 93 bb 76 22 4b bd
       0.01942295 -0.05399381 -0.004495255 -0.04959341
000260 24 70 4c bd ae 7a c1 bc e5 6b 3e 3c 1a 1b 47 bd
       -0.049911633 -0.023618069 0.011622404 -0.04860983
000270 28 c8 fb bc 92 e6 86 3d 66 4b 91 bc 54 c9 6e 3c
       -0.03073509 0.065869465 -0.017736148 0.014574368
000280 d2 d5 33 3d 52 03 16 bd 57 04 51 3d 8b b6 d3 bc
       0.043905087 -0.03662426 0.05102953 -0.02584388
000290 56 d0 32 ba 3a e8 82 3d 91 e9 87 3c ea 49 80 3d
       -0.00068212056 0.0639195 0.016590865 0.06264098
0002a0 ab ae 69 3b 57 60 63 3d 98 f2 56 bd b9 a1 6d 3d
       0.0035657089 0.0555118 -0.05247745 0.05801556
0002b0 d0 d0 a9 3b a5 34 35 bd cb 32 c6 3c d4 9f 83 3c
       0.005182363 -0.04423966 0.024194142 0.016067423
0002c0 9e 25 84 bd 23 6d d4 3c a9 fc ed bc 40 6f 4a bd
       -0.064524874 0.025930947 -0.029051142 -0.049422503
0002d0 14 f4 29 bc 6d 63 79 3c cd 80 90 3c 65 5f f9 bb
       -0.010373134 0.015221459 0.017639542 -0.007610249
0002e0 a6 9f 0f 3d bd 73 2b 3c d8 38 61 bd 52 9b 76 3c
       0.035064362 0.010464606 -0.05498585 0.01505168
0002f0 9b f3 40 3d 45 69 3c bc d6 1b 8f bc bf d2 00 3d
       0.04710732 -0.011499708 -0.017469328 0.031450983
000300 5a ea 65 3d 6f 06 23 bd 09 16 2f bb 1b 55 90 3d
       0.0561317 -0.039801057 -0.0026716015 0.070474826
000310 18 5f 34 3d fe 63 8a 3d e6 5e b4 3c 87 b3 98 3c
       0.044036 0.06757353 0.022017907 0.018640293
000320 da 9b 53 3d 8a 2e ac 3c c5 1f 85 3d ee fa b2 bc
       0.051662304 0.021018285 0.065002 -0.021848168
000330 d7 ca 28 bd 90 f3 66 3c 74 8d 3d 3d 97 a3 7e 3b
       -0.04120907 0.014096156 0.04627748 0.0038854831
000340 90 c7 0f bd 98 ac 37 bd 40 ed 18 3d 26 cd 0f 3d
       -0.035102427 -0.044842333 0.037335634 0.035107754
000350 12 b1 e1 3c ea 6c df 3c 24 45 0e bd e6 ef 43 bd
       0.027550254 0.027273614 -0.034733906 -0.047836207
000360 63 e7 7c 3d 0f 62 d1 3c 32 59 95 bc 0d fa 51 bb
       0.061744105 0.025559453 -0.018231008 -0.003203991
000370 f6 44 3f 3c bf a2 c8 3b 19 92 96 3c e7 eb 39 3d
       0.011674156 0.0061229165 0.018380212 0.04539099
000380 8a 9c 52 bd 7e 34 7c bc 4b 57 51 bd 77 1a e2 3c
       -0.05141882 -0.0153933745 -0.05110864 0.02760051
000390 b2 a1 38 3d 94 07 db 3c cd b2 92 bc 7d bb 60 bd
       0.04507608 0.026737012 -0.017907524 -0.054866303
0003a0 a9 5f 32 bd d7 b2 04 bd c0 bc 3c 3d 1f 6c 13 3d
       -0.04354826 -0.032397117 0.046078444 0.035991784
0003b0 74 0a 77 bd 8b 18 cf 3c 83 d2 08 3d 63 fa 1f 3d
       -0.060312703 0.025280258 0.033403885 0.039057147
0003c0 d4 78 3e ba 58 8d 52 bd e1 a9 23 bd f0 c7 bc bc
       -0.00072659296 -0.051404327 -0.03995693 -0.023044556
0003d0 26 f4 0f bd 3d 79 ba 3c f9 66 63 bd 44 86 22 bc
       -0.035144947 0.022762889 -0.055518124 -0.009919707
0003e0 00 36 64 3c 0e 14 7a 3d a3 c3 c2 ba 57 6a 7f 3d
       0.01392889 0.061054282 -0.001485933 0.062357273
0003f0 93 4a 90 bc 0a f6 d6 bc b8 fe b0 bb 46 35 bd 3c
       -0.017613685 -0.026240367 -0.0054014586 0.023096692

4.weight f4 [2, 256]
000000 a8 fa eb bc 0a 67 0d bc 02 32 59 3b 94 d7 27 3c
       -0.028806046 -0.008630523 0.003314138 0.010244269
000010 ca 0a ee 3c 6e 60 0b bd 69 f7 0c bd 48 28 a9 bb
       0.029057879 -0.03402751 -0.034415636 -0.0051622726
000020 2f c5 db 3c 50 bb ec bc 79 77 ac 3c 9c 7a 1f bd
       0.026827423 -0.028897911 0.021053063 -0.03893529
000030 81 b8 1c bd f0 74 1d bd 5a 6c 7b bd c8 fe 5a bd
       -0.038261894 -0.0384416 -0.06138263 -0.053465635
000040 d4 97 17 3c a5 20 5b bd cd 27 db 3c bf 32 23 bd
       0.009252507 -0.05349793 0.026752377 -0.039843317
000050 ae a2 95 bc 39 63 1c bd b1 86 24 bc 39 c4 39 bc
       -0.018266048 -0.038180564 -0.010041879 -0.011338287
000060 f1 31 6b 3c 0d 9b 39 3c 70 13 3f bd 40 d9 75 bd
       0.014355169 0.011328471 -0.046649396 -0.06002164
000070 20 62 a9 bc ca 19 d6 3c a9 ea b9 3c eb 54 2e bc
       -0.020676672 0.026135344 0.022694902 -0.010640363
000080 73 a4 7b 3d 31 4c 5c bc 29 06 6a 3d 9a be a8 bb
       0.061436128 -0.0134459 0.05713478 -0.0051496746
000090 77 af 33 3d 49 54 27 bd 4e cf 67 3c ea 6f 95 3c
       0.04386851 -0.040851865 0.014148546 0.018241841
0000a0 a5 c1 10 3d cf 4e e1 bc c2 b9 80 3c 57 21 14 3c
       0.035340924 -0.0275034 0.015713576 0.009041152
0000b0 b8 ef 94 3b 1f d7 35 3d 3d 1e 2d 3d 95 cf 3a 3d
       0.0045451783 0.04439461 0.042265166 0.045608122
0000c0 b6 a0 29 bd 28 1b 0d bd a2 5a 73 bd 33 1a 07 3d
       -0.04141303 -0.034449726 -0.059412606 0.03298397
0000d0 70 10 ae bc d0 f7 94 bb a7 8f 60 bd ef 01 31 bc
       -0.021248072 -0.004546143 -0.054824498 -0.010803684
0000e0 64 0c 92 3c 39 0d 88 bc fe 4f db 3c ff cc 49 bd
       0.017828174 -0.016607868 0.026771542 -0.049267765
0000f0 79 8d 6a bd 29 62 0e bd ce ef d3 bc 00 2a 8a 3b
       -0.057263825 -0.03476158 -0.025871184 0.0042164326
000100 0a 77 b5 bc 3b cc bb bc 86 a0 ea bc 8b a9 9f bc
       -0.022151489 -0.022924533 -0.028640997 -0.019490024
000110 6b c6 42 3d 78 3b 0c 3d 3e 1b 90 bc 7c b9 07 3c
       0.047552507 0.0342364 -0.017591115 0.008283969
000120 70 55 39 3c 0f 93 a4 3c 75 61 4d bc e6 69 1d 3d
       0.011311874 0.020089654 -0.012535443 0.03843107
000130 a6 c8 51 bd 25 24 1e 3d 87 58 7c 3d f7 21 dc bb
       -0.051216744 0.03860869 0.061607864 -0.006717916
000140 41 9b 40 bb 23 b2 7f 3d 0f 76 24 3d 55 98 c7 3c
       -0.0029389414 0.062425744 0.040151652 0.02436463
000150 3b 41 74 3c 93 bf 5b 3d 60 32 17 3d 20 76 05 bd
       0.01490813 0.053649496 0.036913276 -0.032583356
000160 26 b7 6b 3c 99 07 06 3d a2 02 a0 ba a0 dc 5e bd
       0.014386928 0.03272209 -0.0012207816 -0.054409623
000170 6f 63 2d 3c 4b b7 2c bd ad a8 05 bd 06 3f 79 bd
       0.010582789 -0.04216699 -0.032631565 -0.06085112
000180 bb 27 97 3c a5 e3 2e bd 86 9b ff bb 32 e6 4f bd
       0.018451562 -0.042697567 -0.0078005223 -0.05075664
000190 00 7c 6f 3d f9 cd 83 bb 33 fa 05 bb 63 25 83 bc
       0.058467865 -0.0040223566 -0.002044332 -0.016009038
0001a0 cf 0d c0 3a 66 6f ce bc 81 60 c6 3b d9 26 b2 bc
       0.0014652553 -0.025199603 0.0060539846 -0.02174704
0001b0 c1 17 8d bc 82 3c 20 bd 61 a2 7e 3c 10 88 85 bc
       -0.01722324 -0.039120205 0.015541644 -0.016300231
0001c0 cb e8 8c 3d af 14 48 ba 49 85 79 bd 19 1c b7 bc
       0.06880339 -0.00076324766 -0.060918126 -0.022352265
0001d0 cb 34 1f 3d 92 a6 52 3c 1b 3e d4 3c f2 50 ac 3c
       0.038868707 0.012857096 0.02590852 0.021034691
0001e0 7f ef e6 bc e5 88 5b bc db b3 95 3c 91 45 04 bd
       -0.028190373 -0.013399337 0.018274238 -0.032292906
0001f0 89 e8 05 bd 1d bc 8c bc 62 b5 29 bd fe 0f 7f bc
       -0.032692466 -0.017179543 -0.041432746 -0.015567778
000200 81 bb 17 bd 0f 0d 4e bd 3d 14 36 3d 46 8f e3 bc
       -0.037044052 -0.050305422 0.044452894 -0.027778279
000210 68 9d 3b bc 00 3e 2f bd 57 10 ec bc 86 4e 32 bb
       -0.011451103 -0.042783737 -0.028816385 -0.0027207448
000220 3a 9a 10 3d 0c 72 f4 bc fa b0 ab 3c 02 59 5e bd
       0.035303332 -0.029839538 0.020958412 -0.054284103
000230 ce 96 4e 3d 05 16 8d bb 32 d3 12 bd 15 c3 70 3c
       0.050436787 -0.0043056034 -0.035845943 0.014694949
000240 e5 3f d8 3c 56 bf 36 bb 99 25 b1 3c 2b 99 32 bd
       0.026397655 -0.0027885041 0.021624373 -0.043603104
000250 49 33 f2 bb c3 26 9c bc a0 8d cc bc a8 f0 6c 39
       -0.0073913676 -0.019061452 -0.024969876 0.00022596365
000260 81 d0 7d bc f6 9b 48 bd 8b fe 45 bd 77 01 a6 3c
       -0.015491606 -0.04897686 -0.048338454 0.02026437
000270 34 c2 66 3d 1c 2e 37 3b 0a b4 b3 3c 72 21 cf 3c
       0.05633755 0.0027951067 0.021936435 0.025284503
000280 3a 76 33 3d 25 7e 9c 3c 16 a8 94 3c 9e 08 1a bd
       0.04381392 0.01910312 0.018146556 -0.037605874
000290 46 dd d3 3c 34 66 4b 3c de a3 a2 3c a8 7e 28 3d
       0.025862347 0.012414504 0.019853529 0.041136414
0002a0 e7 13 28 bd ed 02 1c bd f1 84 31 3c 69 e4 ab bb
       -0.041034605 -0.038088728 0.010834918 -0.0052457345
0002b0 bc ce 1b 3d b1 ed 33 bd 3b cf 41 bd 3b b9 44 bc
       0.038038954 -0.043927852 -0.04731677 -0.012007053
0002c0 56 e8 d7 bc e1 20 15 bc af 8d 07 bd 9e a7 81 3d
       -0.026355904 -0.009102077 -0.033094104 0.063307986
0002d0 b6 4c 8a 39 9b 6b ef bc 86 ee d7 3c f4 85 45 3c
       0.00026378565 -0.029226115 0.026358854 0.012055863
0002e0 b3 fc 0b bd 7a 83 ff ba 97 9a 77 3c 89 6d d7 bb
       -0.03417654 -0.0019494139 0.015112541 -0.006574337
0002f0 70 00 84 3c ed 0a f5 bc 5a d8 fa 3b b7 b6 8e 3b
       0.01611349 -0.029912436 0.0076551856 0.0043552774
000300 23 0c fe bc 8c a8 11 bd 2b b4 99 3c 6e 8d ad 3b
       -0.031011647 -0.03556113 0.018762669 0.0052964007
000310 b1 d7 84 3b 67 c1 18 3d e3 a9 37 3d 47 7d 6a 3c
       0.0040540327 0.037293818 0.04483975 0.014312095
000320 04 be f7 3c 49 d8 2c bd 6a 5a 5a 3c d0 9d 5b bc
       0.030241974 -0.042198453 0.01332722 -0.013404325
000330 2d 16 02 bd 3f 41 0c 3c 76 c6 55 3d 7e 08 00 3d
       -0.03175943 0.008560478 0.05219122 0.0312581
000340 58 43 79 bc f5 b4 21 3c 64 f6 04 bd 66 34 34 bd
       -0.01521381 0.009869804 -0.03246154 -0.043995284
000350 60 fb 1d ba f9 46 38 bd 00 ee a5 bc 21 c0 28 3c
       -0.00060265325 -0.04498956 -0.020255089 0.010299713
000360 15 d7 0f bb 4f 26 4d bd 0c 2a 75 ba e3 bd f0 bc
       -0.0021948267 -0.050085362 -0.0009352274 -0.02938742
000370 07 e8 28 bc 56 cd db 3c dc c2 3f 3d e1 93 14 bc
       -0.010309226 0.02683131 0.04681669 -0.00906846
000380 f5 48 d8 bb 48 23 fb bc f3 8f 45 bd 3b 0e 02 3d
       -0.006600494 -0.030656472 -0.048232984 0.031751852
000390 fe 88 0f bb d6 44 68 bc dc 47 37 bd 8c 1d 67 3c
       -0.0021901722 -0.014176568 -0.044746265 0.014106166
0003a0 75 da 4d 3c 68 d0 4c 3d 40 4e 20 bd a6 4c 1d 3d
       0.012564291 0.05000344 -0.039137125 0.038403176
0003b0 0f ed 24 3d 8c 61 6b bd d8 47 22 3c 9d 0c d5 bb
       0.04026514 -0.057466075 0.009904824 -0.0065017478
0003c0 77 54 92 3c a4 c3 ed 3c ad 65 55 3d e4 53 a3 bc
       0.017862542 0.029023953 0.05209892 -0.019937463
0003d0 7a a7 4d bd 91 2c 95 bc da a6 88 bd 63 df 89 bb
       -0.050208546 -0.018209727 -0.066724494 -0.004207538
0003e0 29 04 ed 3c f6 b7 12 3c b5 c1 32 bc de f4 00 bd
       0.028932648 0.0089549925 -0.010910441 -0.031483524
0003f0 46 5c 06 bd 0b ca 2e bd 06 3f 00 bd e8 a7 b1 3c
       -0.032802843 -0.042673152 -0.031310104 0.02168651

4.bias f4 [2]
000000 fd a6 24 3d 7c f2 88 bc
       0.040198315 -0.016717188

exp_avg f4 [256, 4]
000000 b4 8a dd ba 54 be 00 ba 0e 0c 68 b8 87 18 85 38
       -0.0016902299 -0.00049111736 -5.5324337e-05 6.346503e-05
000010 e3 7c 20 3c 3c 76 6d 3b 8b 6e 50 3b 93 7a 73 b9
       0.0097954 0.0036233803 0.003180417 -0.00023219948
000020 87 c2 b0 3c d5 b4 b1 3b 6f 25 26 3b c5 c9 5c b9
       0.021577133 0.005423168 0.0025351902 -0.00021056
000030 68 43 a2 39 47 77 3c ba 69 91 76 ba 57 84 a7 39
       0.0003094927 -0.00071894046 -0.0009405823 0.00031951323
000040 ea a2 56 bb ab f6 06 ba 57 ab ea 39 69 cf ed 38
       -0.0032750913 -0.0005148451 0.00044759616 0.00011339674
000050 8d 5a 14 bd f7 43 13 bc e6 cc a6 bb fe 33 9e 38
       -0.03621917 -0.008988372 -0.0050903438 7.5437114e-05
000060 7b 80 9b bb ad ed aa ba cc 7a 30 ba 72 84 ad 36
       -0.0047455407 -0.0013040804 -0.00067321653 5.1712204e-06
000070 3a fa 27 bc b5 ce ef ba 75 12 9d b9 58 12 ea b8
       -0.01025253 -0.0018295856 -0.00029959125 -0.00011161406
000080 8b f6 88 3c 66 be 99 3b 4b 5e 43 3b 09 5f 6e b8
       0.016719123 0.0046918867 0.0029810842 -5.683213e-05
000090 d2 18 c3 ba dc 4f 14 3a d6 3a 85 39 98 84 0f ba
       -0.0014884716 0.0005657652 0.00025411573 -0.0005474775
0000a0 3c 9f 27 39 40 12 8d b9 17 9a 02 39 95 d4 84 39
       0.0001598568 -0.00026907213 0.00012455169 0.00025335388
0000b0 82 d2 53 3b 1f a5 8e 3a fc e5 a0 3a d0 29 9f b8
       0.0032321517 0.001088295 0.0012275572 -7.589499e-05
0000c0 4c b9 d9 3c 83 7a 95 3b f3 1e a6 3a 22 f8 f8 39
       0.026577614 0.0045617237 0.0012674019 0.0004748712
0000d0 e5 d1 9b 3c d1 06 b2 3b 48 f5 2a 3b 30 df 3c ba
       0.019020984 0.0054329415 0.002608614 -0.00072048884
0000e0 59 80 d4 3a 35 df 04 3a b8 83 10 39 8c 3c 3a b8
       0.0016212567 0.0005068661 0.00013781979 -4.4402244e-05
0000f0 3e 5b c7 bb 6f c0 24 bb 65 04 3a bb 12 3f 3e 39
       -0.006083875 -0.0025139113 -0.0028383967 0.00018143308
000100 af a7 5a 3a 02 c6 81 39 bd 91 03 3a e5 5f 32 37
       0.0008341027 0.00024752325 0.000501897 1.0631954e-05
000110 4b bb c7 3c 9c 50 ac 3b a7 1a 5d 3b a3 4d 03 3a
       0.0243813 0.005258633 0.003373781 0.0005008822
000120 1c 5e 61 3c 38 a1 55 3b c3 00 70 3a 63 dd 8f b9
       0.013755348 0.0032597315 0.0009155387 -0.0002744003
000130 b4 69 d5 ba 26 10 91 ba 6e 57 b4 ba 12 de 5e 39
       -0.0016282112 -0.0011067435 -0.0013758966 0.00021254297
000140 62 6f a4 bb bd e5 e3 ba 82 99 87 ba be 7b a6 39
       -0.0050181607 -0.0017387193 -0.0010345432 0.00031754182
000150 f4 f7 c7 3c 1b 3b ee 3b c2 52 9a 3b 3b 74 6b b9
       0.024410225 0.0072702295 0.0047095725 -0.00022454646
000160 ff c6 15 3c 02 fa 58 3b fc 3a 3a 3b 40 43 78 b9
       0.009141683 0.0033108 0.0028416505 -0.00023676176
000170 1d a7 48 ba b0 9c 01 ba 79 29 c0 b9 23 cd c5 38
       -0.00076542964 -0.0004944308 -0.00036651993 9.431902e-05
000180 d5 4a b8 3b 57 92 23 3b 8a 29 42 3b 6f 02 90 b9
       0.005624155 0.0024959052 0.002962681 -0.00027467633
000190 b3 49 8a bb 4a 0f d2 ba 6a 6b 14 bb 84 3a 3a b8
       -0.0042202114 -0.0016026285 -0.0022647032 -4.4400353e-05
0001a0 8c df 1f 3d fa 58 21 3c 2a ad cb 3b e1 55 50 39
       0.03903155 0.009847874 0.006215711 0.00019868418
0001b0 15 02 87 39 c8 17 81 3a 96 5f b1 3a f5 28 a5 b9
       0.00025750758 0.0009849006 0.0013532515 -0.00031501768
0001c0 06 af c5 bb 2a 3b 07 bb 17 d4 d8 ba 04 be 2b 39
       -0.0060328273 -0.002063463 -0.00165427 0.00016378617
0001d0 12 e4 49 3b e4 2b 39 39 13 06 fc b9 a2 f2 74 39
       0.0030806107 0.00017659325 -0.0004806971 0.00023360041
0001e0 60 f0 2b bb 7c 06 fe 39 31 01 82 39 0e 2f 30 ba
       -0.0026235804 0.00048451487 0.0002479642 -0.0006720879
0001f0 61 8d b2 bc 1c e7 a2 bb 75 4b 73 ba e9 ff 36 3a
       -0.02179593 -0.004971398 -0.00092809583 0.00069808826
000200 16 f8 92 bc 61 4e 9d bb 3c 7b 65 bb d9 8c a3 b8
       -0.017940562 -0.0048006033 -0.003501608 -7.7986806e-05
000210 34 a9 90 bc bf 4c b2 bb 85 80 94 bb f7 aa 03 39
       -0.017658807 -0.0054412778 -0.0045319223 0.00012556823
000220 c4 64 20 3b c8 fd 85 39 88 f1 2b 3a fe 22 cc 39
       0.0024474123 0.0002555682 0.0006559123 0.00038935983
000230 16 05 97 3a 28 3d 36 ba 7a b3 63 ba a7 59 de 39
       0.0011521901 -0.0006951862 -0.0008686107 0.00042409936
000240 da 5b 6d 3c 7a f0 60 3b 14 32 02 3b b1 dc c8 b7
       0.014487231 0.0034323023 0.0019866275 -2.3944625e-05
000250 ab 52 8c 3b 4b 70 f6 3a f8 bb f6 3a 1c 60 4b b9
       0.0042823157 0.0018801776 0.001882433 -0.00019395392
000260 e8 a8 69 3a 60 ea da b9 c6 3b d9 b9 2a 41 89 39
       0.00089134136 -0.00041754823 -0.00041434 0.00026179227
000270 7d d7 1b 3b d8 be ba 3a 22 5b da 3a 9c f2 96 b9
       0.0023779564 0.001424755 0.001665924 -0.00028790988
000280 49 cd 3d 3b 07 e6 da 37 f2 57 4d b9 6b b9 9c 39
       0.002896147 2.609474e-05 -0.00019583086 0.00029892786
000290 5f 08 05 bb 7c b7 ef b9 d0 d4 85 39 db 9e 58 39
       -0.002029918 -0.0004572234 0.00025526294 0.00020658544
0002a0 0e 7c d0 3a bf 9a 1a ba a0 b6 59 b9 f5 0d 1f 3a
       0.0015906112 -0.0005897693 -0.00020762766 0.00060674484
0002b0 8f 1b 57 3c cf 1a 9d 3b 9d f7 74 3b 7a 23 0c ba
       0.013129129 0.0047944556 0.0037379034 -0.00053458626
0002c0 1b d9 5d bc 44 09 a8 bb c4 d4 91 bb e2 13 0c 3a
       -0.0135405315 -0.0051280577 -0.0044504125 0.0005343539
0002d0 9f cc 36 bb df 7a 88 ba d0 ab a9 ba 4a ea 3d 38
       -0.002789296 -0.0010412595 -0.0012944881 4.527931e-05
0002e0 b1 0d 9e bb 10 3a d6 ba 35 4b db ba 6a 5d a9 b6
       -0.0048234095 -0.0016344208 -0.0016730787 -5.0474673e-06
0002f0 92 d3 89 bb ac 6a 68 ba 1b b4 c8 b9 54 f5 8c 38
       -0.0042061293 -0.0008865993 -0.00038281162 6.721416e-05
000300 71 24 2a bc 9d a7 38 bb 33 2e e1 ba c5 07 91 38
       -0.010384665 -0.0028176077 -0.0017179906 6.915586e-05
000310 d4 f8 f6 3b d6 71 9a 3a f5 aa 65 39 0d 2a 17 39
       0.007536987 0.0011783193 0.00021902828 0.00014416147
000320 21 32 53 bc a6 f8 4b bb c5 8f 12 bb 30 68 8a b9
       -0.01289037 -0.0031123548 -0.0022363525 -0.00026399037
000330 59 5b 23 bc 0e a1 34 bb 2e a1 ca ba ad 66 aa 39
       -0.009970509 -0.0027561816 -0.0015459412 0.00032501426
000340 31 cc d4 3b 29 a7 ee 3a 88 88 a1 3a 2e 8f b8 b5
       0.006494068 0.0018207777 0.0012324015 -1.3750739e-06
000350 02 40 9a bb 92 a1 11 bb 2c 09 3b bb 3d 69 85 39
       -0.0047073374 -0.0022221548 -0.0028539402 0.00025446145
000360 db 37 5a bc fa 1c 67 bb 1e c7 85 ba 22 1b 28 3a
       -0.013318981 -0.0035265074 -0.0010206436 0.00064127345
000370 38 3a f8 bc aa 18 ca bb e7 06 32 bb bf 37 8e b9
       -0.030301198 -0.006167491 -0.0027164759 -0.00027125885
000380 e1 e2 f4 ba 77 8b f5 b9 30 0d a4 b9 07 c3 ad b7
       -0.0018683338 -0.0004683395 -0.00031290343 -2.0714024e-05
000390 ae 4b 0a 3c 02 38 6e 3b a1 9b 55 3b be 87 17 ba
       0.008440895 0.0036349301 0.0032593983 -0.000578042
0003a0 1e db 95 3b 18 08 d4 3a 17 77 c1 3a 0f 30 70 b8
       0.00457324 0.0016176729 0.0014760223 -5.7265217e-05
0003b0 8e 10 a6 bb d4 39 e9 ba 29 4d b4 ba 7c 2e b1 39
       -0.0050678914 -0.0017793723 -0.0013755906 0.00033794704
0003c0 43 3d a9 3c 75 ef ca 3b 84 9f 72 3b f4 92 0e ba
       0.020659095 0.0061930963 0.0037021348 -0.0005438768
0003d0 c2 87 b7 3c 68 8c 88 3b 66 0b b4 39 ee 4c bb b8
       0.022403602 0.0041671284 0.00034340768 -8.931184e-05
0003e0 97 bc a5 ba 7c 62 42 b8 29 a3 e5 b9 b5 4d 67 b9
       -0.0012644705 -4.6344925e-05 -0.00043799847 -0.00022058825
0003f0 9d a0 0a bc 47 85 b7 ba 74 c1 7b b9 c0 42 b5 b9
       -0.008461145 -0.0014001512 -0.00024009292 -0.00034572743
