distributed_shared/worker_logs/worker_5/models/model_episode_40.pt (torch, 816842 bytes, 16 tensors)

0.weight f4 [256, 4]
0.3110128 0.0131339915 -0.37269676 -0.1392346 0.019262204 0.24512461 -0.16551003 0.21768805
0.11702178 -0.3257293 -0.19505744 -0.3017859 -0.32922837 -0.05306973 0.27544072 -0.39549255
0.45396152 0.17302926 -0.12889408 -0.33921158 0.087119535 -0.1783531 0.2832203 0.0058422186
0.016882434 -0.08128249 -0.46952045 0.08896019 0.08161925 0.40440845 -0.09676842 0.1988863
-0.12093049 0.09616924 0.12349196 0.47165972 0.49025834 0.19774641 -0.17649741 -0.27288246
-0.18791571 0.04184772 -0.47323516 -0.2924301 -0.2962969 0.1189584 -0.4618078 0.21792205
-0.17892608 -0.51820576 0.22016312 -0.24631864 0.1978542 0.117532946 0.42519736 0.16287893
0.215079 -0.14331824 -0.41044864 -0.016509337 0.041932683 0.08606233 0.45338255 -0.47483605
0.32510364 -0.4257842 -0.22408628 0.14548044 -0.21128625 0.24344067 0.09076651 -0.00400775
0.40494594 0.36153284 -0.28836867 -0.011170508 0.012401437 -0.37019554 0.06912899 0.050651576
0.34509897 0.36649925 -0.20344208 0.4293777 -0.2589678 -0.49290898 -0.10545332 0.14912981
-0.059579715 0.16665435 -0.34778702 -0.29532877 0.035239767 0.41542688 -0.46472073 -0.00781943
-0.10613952 0.20882902 -0.42426175 -0.1621955 0.021716194 -0.4367153 0.33170503 -0.19010323
0.2707886 -0.25516564 0.23172629 -0.35271013 0.46088654 -0.17557235 0.46418378 -0.32305446
0.15061598 -0.0033650526 0.100742675 -0.4450694 -0.17011331 0.29069427 -0.42111525 -0.28448036
0.27935976 0.37467912 0.4452528 -0.4650293 0.04860963 0.040166557 0.445215 -0.38802505
-0.32773703 0.1924371 -0.11232411 -0.20134589 -0.15419427 -0.19571327 -0.033271227 -0.04469583
0.29228404 -0.26610136 -0.38382426 -0.0015047465 -0.11066636 0.18301712 -0.4832556 -0.5184638
-0.434031 0.37908724 -0.29604265 0.02904478 0.025143422 -0.22672562 -0.19256166 -0.35198152
-0.19520913 -0.12195232 -0.17761058 -0.42633045 -0.12458172 -0.32858142 -0.2697132 -0.25968838
-0.33046943 0.48974335 -0.2911195 0.37329298 0.43802163 0.10135644 0.11836725 0.48278195
-0.46530157 0.08661749 -0.14983374 -0.3355966 -0.24732523 0.38132998 0.3224445 -0.20719124
-0.17263307 -0.0053363414 0.04878429 0.3702959 0.24456109 -0.20489019 0.01582273 0.36877775
-0.33384368 -0.39724067 -0.23993744 0.27207565 -0.0061131394 -0.43875384 0.10501804 -0.22401598
0.25817293 -0.04373225 -0.3432096 0.16107836 -0.33941668 -0.4511236 -0.37903625 -0.2282363
0.27694547 0.3178754 0.47460285 0.10487787 0.13164821 -0.11747109 0.29703242 0.07814315
-0.34687334 0.059901927 -0.306995 -0.37232327 -0.10321655 -0.2795716 -0.37285694 0.34325323
-0.21800986 -0.069092326 -0.38757744 0.32856113 0.34804147 -0.11820925 -0.0027517097 0.44693804
-0.17255993 -0.05552483 -0.044897944 -0.31590432 0.312649 -0.27378193 0.49585375 0.15142584
0.239685 0.15004842 -0.45043975 0.38396615 -0.17705679 0.12937635 0.30491012 -0.46630207
-0.22628553 0.14731222 -0.09459619 -0.38533288 0.059908044 -0.21271446 -0.043119702 -0.22950615
0.2800409 0.3506977 0.14975642 -0.046459477 0.09854136 -0.13143903 0.033664778 0.22778074
00000000: 123d 9f3e f42f 573c 1cd2 bebe 8493 0ebe
00000010: c5cb 9d3c f201 7b3e 767b 29be 9ee9 5e3e
00000020: 1da9 ef3d fec5 a6be 23bd 47be ae83 9abe
00000030: 9f90 a8be a55f 59bd 9106 8d3e 007e cabe
00000040: a56d e83e 952e 313e cffc 03be 24ad adbe
00000050: ba6b b23d 32a2 36be 4002 913e 1570 bf3b
00000060: 084d 8a3c 6f77 a6bd fc64 f0be c330 b63d
00000070: fe27 a73d a00e cf3e 852e c6bd daa8 4b3e
00000080: 68aa f7bd 61f4 c43d 5ae9 fc3d 627d f13e
00000090: 2403 fb3e 097e 4a3e bdbb 34be 40b7 8bbe
000000a0: fa6c 40be 8468 2b3d e14b f2be 66b9 95be
000000b0: 3ab4 97be 76a0 f33d 1272 ecbe f526 5f3e
000000c0: 6638 37be 22a9 04bf 7172 613e f43a 7cbe
000000d0: 4b9a 4a3e 1db5 f03d 78b3 d93e bcc9 263e
000000e0: ab3d 5c3e 04c2 12be 5326 d2be 973e 87bc
000000f0: 9bc1 2b3d 7241 b03d c221 e83e b61d f3be
00000100: fc73 a63e 6300 dabe e076 65be d3f8 143e
00000110: 6c5b 58be 8348 793e cbe3 b93d 7253 83bb
00000120: 1355 cf3e d51a b93e 0fa5 93be 8204 37bc
00000130: 662f 4b3c 458a bdbe 8093 8d3d 0778 4f3d
00000140: d0b0 b03e caa5 bb3e 1f53 50be 65d7 db3e
00000150: 6d97 84be 915e fcbe e9f7 d7bd 7cb5 183e
00000160: dc09 74bd 70a7 2a3e 2411 b2be 5535 97be
00000170: 9357 103d d5b2 d43e e0ef edbe 111d 00bc
00000180: ad5f d9bd 46d7 553e d638 d9be 9416 26be
00000190: 29e6 b13c 2699 dfbe 3ed5 a93e 6caa 42be
000001a0: cea4 8a3e 12a5 82be a849 6d3e 6c96 b4be
000001b0: 52f9 eb3e 3dc9 33be 7fa9 ed3e 6567 a5be
000001c0: 133b 1a3e 3788 5cbb 2d52 ce3d 23e0 e3be
000001d0: 2f32 2ebe e1d5 943e 6b9c d7be 69a7 91be
000001e0: 3e08 8f3e f1d5 bf3e 2df8 e33e 5218 eebe
000001f0: e41a 473d b085 243d 38f3 e33e 38ab c6be
00000200: 26cd a7be 3b0e 453e 2f0a e6bd 9e2d 4ebe
00000210: 1ae5 1dbe 0f69 48be 6947 08bd fa12 37bd
00000220: 41a6 953e 703e 88be 9d84 c4be ea3a c5ba
00000230: 0ba5 e2bd d768 3b3e 476d f7be 0bba 04bf
00000240: 5039 debe b917 c23e e792 97be 52ef ed3c
00000250: 94f9 cd3c c32a 68be e22e 45be ec36 b4be
00000260: e7e4 47be 23c2 f9bd 8cdf 35be fc47 dabe
00000270: b324 ffbd d33b a8be d917 8abe e0f5 84be
00000280: 4a33 a9be a4bf fa3e 9d0d 95be 4220 bf3e
00000290: 5f44 e03e f793 cf3d 876a f23d 322f f73e
000002a0: 023c eebe 8364 b13d 046e 19be 51d3 abbe
000002b0: d342 7dbe af3d c33e 7217 a53e f129 54be
000002c0: b9c6 30be 7adc aebb 09d2 473d 6d97 bd3e
000002d0: 396e 7a3e bcce 51be ab9e 813c 70d0 bc3e
000002e0: 8fed aabe 2163 cbbe 29b2 75be 804d 8b3e
000002f0: bb50 c8bb 58a4 e0be b313 d73d 7264 65be
00000300: 3e2f 843e 9620 33bd 2bb9 afbe baf1 243e
00000310: 06c8 adbe acf9 e6be 0a11 c2be c7b6 69be
00000320: cccb 8d3e 90c0 a23e 25ff f23e 35ca d63d
00000330: cace 063e af94 f0bd a214 983e 8409 a03d
00000340: 6299 b1be b95b 753d 732e 9dbe 28a1 bebe
00000350: 3363 d3bd 0224 8fbe 1be7 bebe e3be af3e
00000360: fa3d 5fbe 4780 8dbd 8d70 c6be 2a39 a83e
00000370: 7e32 b23e b117 f2bd 0756 34bb 10d5 e43e
00000380: 8db3 30be 016e 63bd e8e6 37bd 36be a1be
00000390: 8813 a03e 252d 8cbe 8be0 fd3e 600f 1b3e
000003a0: fc6f 753e 4ba6 193e 0aa0 e6be 3697 c43e
000003b0: 604e 35be 3c7b 043e 2e1d 9c3e 25bf eebe
000003c0: 65b7 67be 04d9 163e a6bb c1bd 5a4a c5be
000003d0: 2362 753d d2d1 59be 499e 30bd a903 6bbe
000003e0: 8561 8f3e a68e b33e bf59 193e 4b4c 3ebd
000003f0: 0dd0 c93d f497 06be 14e4 093d 5b3f 693e

0.bias f4 [256]
-0.4045175 0.06084495 -0.3169531 -0.078044884 -0.45163798 0.4080958 -0.37275228 -0.3865712
-0.37791938 0.016246617 -0.16365379 0.30622008 0.3643772 0.21966882 -0.42997524 -0.13246863
-0.04563618 -0.49337763 0.032282144 -0.10390471 -0.21512169 0.07862694 0.02875255 0.016440896
0.12790915 0.15285057 0.13252567 0.27343008 -0.059207607 -0.030563721 -0.08983902 0.17242001
-0.38255465 0.48263574 0.09932123 -0.3700307 -0.21009521 0.44376007 0.33821374 0.27197212
-0.3951288 -0.33789605 -0.04944097 0.119365975 0.42978102 0.096387334 0.251296 -0.0728986
0.1280985 -0.31269246 0.087333396 0.36969623 0.37250757 0.38268724 0.16989435 0.1260951
0.25993145 -0.21081406 0.18134736 -0.03421968 -0.11290569 0.40533543 0.38992226 -0.1642094
0.21846963 0.3520975 0.4938669 0.08309582 -0.124919616 0.013560584 0.37800527 -0.107177295
-0.36038864 -0.13759403 0.1650869 0.37360522 0.08311379 0.0653395 0.31704444 -0.16842149
0.01826339 0.14427473 -0.3471821 -0.0627492 0.41490677 -0.26346126 0.4590393 0.020913428
0.31594172 -0.24388705 0.39278907 0.38813722 0.1850919 0.004325819 0.021720039 0.20372367
0.30795833 -0.13309275 0.2335286 -0.20545553 -0.15081188 -0.42235723 0.47225496 -0.11556164
-0.053379606 0.31132588 -0.14374013 0.31066546 -0.07727055 0.11042874 -0.34925586 0.12749559
-0.28150195 0.35918278 -0.036379047 0.32333738 -0.48246175 -0.12725379 -0.19081214 -0.1312198
-0.24897304 -0.10669273 -0.006329914 0.1511093 -0.49097118 0.49609077 -0.42995358 -0.47960103
0.29954872 -0.4305589 -0.20608388 -0.24394025 -0.4181056 0.23060061 -0.03972364 -0.15489061
0.4942687 0.14747418 -0.20405304 0.29284152 0.4513122 0.093507685 -0.1663914 0.12966964
0.09512242 -0.10426953 0.017418332 0.09145971 -0.31015837 0.06202019 -0.46913323 -0.102571815
-0.1921462 -0.46936688 -0.24960417 -0.3821355 -0.0056339223 -0.163209 -0.13740458 0.1691192
-0.06527826 0.24090943 -0.3924065 -0.42192087 -0.24632944 -0.0055888104 0.25702164 -0.07522506
-0.30090687 -0.094888255 0.2117586 -0.24784802 0.36193463 0.4671909 0.007781798 0.05483744
-0.46074224 0.3513272 0.1720411 0.33799213 -0.10639607 0.33098492 0.24086578 0.12369377
0.43560073 0.4829298 0.33587703 0.09472402 0.126385 -0.22867133 0.47605997 0.038939394
0.14438064 0.46633798 0.17596312 0.07964508 0.45822743 -0.45563558 -0.21424429 -0.40611774
-0.1829218 -0.3708688 0.27203876 0.08271745 0.11103067 -0.1435023 -0.33593035 -0.16092624
0.3291464 0.20101471 0.4450639 0.26511204 0.2964533 0.096416004 0.26168412 0.38476685
-0.4834673 0.39495638 0.25600022 0.18348731 -0.33175698 0.34915322 -0.38779518 0.075093925
0.04407896 0.16445617 -0.05714995 -0.32604998 0.10147234 -0.06367329 0.4745248 -0.18859026
0.14953147 0.07123434 0.27520368 -0.34856212 -0.49183777 0.12668073 -0.31003067 0.119664244
0.1733021 0.27919772 -0.354925 0.11639984 -0.32669976 0.28656897 0.45629105 0.45485392
0.45046192 0.019433064 0.11146569 -0.09423439 0.3846038 -0.09579485 0.18029371 0.39189306
00000000: eb1c cfbe 8e38 793d ad47 a2be ffd5 9fbd
00000010: 183d e7be eff1 d03e 63d9 bebe a9ec c5be
00000020: a67e c1be a017 853c dc94 27be e1c8 9c3e
00000030: a68f ba3e ddf0 603e b725 dcbe dba5 07be
00000040: 01ed 3abd fe9b fcbe 483a 043d fecb d4bd
00000050: dc48 5cbe 2907 a13d 788a eb3c 0faf 863c
00000060: 9efa 023e dc84 1c3e cfb4 073e 07ff 8b3e
00000070: ad83 72bd c560 fabc 85fd b7bd df8e 303e
00000080: 34de c3be 081c f73e ee68 cb3d aa74 bdbe
00000090: 3323 57be 8534 e33e 5a2a ad3e ee3f 8b3e
000000a0: 524e cabe b600 adbe 9d82 4abd 2676 f43d
000000b0: 420c dc3e b966 c53d dfa9 803e dc4b 95bd
000000c0: 412c 033e 3a19 a0be dadb b23d d348 bd3e
000000d0: 50b9 be3e 95ef c33e c9f8 2d3e 131f 013e
000000e0: bc15 853e a4df 57be 1fb3 393e ef29 0cbd
000000f0: 193b e7bd 2088 cf3e e4a3 c73e 8226 28be
00000100: 81b6 5f3e 2046 b43e 1fdc fc3e 242e aa3d
00000110: dbd5 ffbd 362d 5e3c e889 c13e c57f dbbd
00000120: dc84 b8be 73e5 0cbe 8a0c 293e 2f49 bf3e
00000130: 9037 aa3d b7d0 853d a653 a23e af76 2cbe
00000140: 1b9d 953c c1bc 133e dac1 b1be a782 80bd
00000150: a96e d43e 65e4 86be 3307 eb3e a352 ab3c
00000160: 1dc3 a13e 87bd 79be a61b c93e ecb9 c63e
00000170: bb88 3d3e 9abf 8d3b 39ee b13c f09c 503e
00000180: b7ac 9d3e 7749 08be 1f22 6f3e ef62 52be
00000190: 6e6e 1abe 353f d8be 67cb f13e 95ab ecbd
000001a0: 93a4 5abd 1b66 9f3e 9d30 13be 8b0f 9f3e
000001b0: 0640 9ebd 7728 e23d aad1 b2be 348e 023e
000001c0: 0621 90be cee6 b73e 3202 15bd 7a8c a53e
000001d0: 3a05 f7be d14e 02be 4264 43be 7c5e 06be
000001e0: caf2 7ebe b881 dabd 2b6b cfbb 65bc 1a3e
000001f0: 9360 fbbe 9cff fd3e e022 dcbe 448e f5be
00000200: 735e 993e 3772 dcbe a707 53be 79cb 79be
00000210: f011 d6be 9122 6c3e 41b5 22bd a59b 1ebe
00000220: c910 fd3e 7903 173e 48f3 50be 53ef 953e
00000230: 6512 e73e f580 bf3d 8262 2abe 1ec8 043e
00000240: 8bcf c23d 438b d5bd e4b0 8e3c 3a4f bb3d
00000250: 14cd 9ebe e208 7e3d 3b32 f0be 2c11 d2bd
00000260: f9c1 44be db50 f0be 3c98 7fbe 44a7 c3be
00000270: c49c b8bb 4320 27be c9b3 0cbe 952d 2d3e
00000280: 9cb0 85bd f6b0 763e 81e9 c8be 0306 d8be
00000290: c93d 7cbe 5722 b7bb 5798 833e 990f 9abd
000002a0: 7710 9abe c654 c2bd 3fd7 583e dfcb 7dbe
000002b0: 7f4f b93e a533 ef3e 74fe fe3b 399d 603d
000002c0: 68e6 ebbe 29e1 b33e 8b2b 303e 4e0d ad3e
000002d0: 2fe6 d9bd db76 a93e 85a5 763e 2953 fd3d
000002e0: 0f07 df3e 9342 f73e 13f8 ab3e abfe c13d
000002f0: 126b 013e d128 6abe 22be f33e ea7e 1f3d
00000300: 85d8 133e dac3 ee3e ad2f 343e f61c a33d
00000310: c99c ea3e 1149 e9be db62 5bbe aaee cfbe
00000320: da4f 3bbe 84e2 bdbe aa48 8b3e c467 a93d
00000330: 0c64 e33d 44f2 12be 10ff abbe d9c9 24be
00000340: e085 a83e cdd6 4d3e 6adf e33e c4bc 873e
00000350: bac8 973e c175 c53d 76fb 853e 2900 c53e
00000360: 0789 f7be b937 ca3e 7612 833e 19e4 3b3e
00000370: 0ddc a9be 36c4 b23e 178d c6be d8ca 993d
00000380: 248c 343d 3367 283e 1116 6abd 06f0 a6be
00000390: bbd0 cf3d 2467 82bd eaf4 f23e ce1d 41be
000003a0: c71e 193e 4fe3 913d 7fe7 8c3e bc76 b2be
000003b0: 29d2 fbbe 98b8 013e 57bc 9ebe 8712 f53d
000003c0: 1b76 313e 01f3 8e3e bbb8 b5be 0a63 ee3d
000003d0: 3145 a7be 2bb9 923e fb9e e93e 9de2 e83e
000003e0: f2a2 e63e 1732 9f3c 2048 e43d f6fd c0bd
000003f0: caea c43e 1730 c4bd ea9e 383e 35a6 c83e

2.weight f4 [256, 256]
-0.027266024 0.03899133 -0.018465597 0.043971814 0.010552328 -0.03998387 0.019575367 -0.028660445
-0.0029184876 0.02068482 0.025256952 -0.03165902 0.06324362 0.05897533 0.041695416 -0.06568487
-0.04720005 0.006206178 0.028375411 -0.033585697 0.05405128 0.045553 -0.02140507 0.0070165014
0.041730333 -0.0022476062 -0.04517228 0.046791762 -0.032479685 -0.06623169 0.002776506 0.031950638
-0.06912097 -0.057346266 -0.03302157 -0.047499355 -0.058550563 0.054471493 -0.05025531 0.0073123137
-0.047098927 0.00893725 -0.022764247 0.01917143 0.06474404 0.018843995 -0.036329366 -0.035247702
0.008811591 -0.027485633 -0.034184515 0.047272686 -0.022685643 0.059854306 0.035270773 0.056951135
-0.015694696 -0.0023460807 -0.04745007 0.038396586 -0.06279077 -0.032265976 0.018912697 0.018650388
0.0057264646 -0.054204393 -0.0034177506 -0.053953446 -0.040668726 0.007855008 -0.030174883 0.011745666
0.04713685 -0.014755974 -0.051292095 0.050408427 -0.03578563 -0.032105923 0.044708274 -0.03935032
-0.014634294 0.02876676 0.004623429 0.02989682 -0.004223128 -0.004741137 0.02377659 0.04775057
-0.036780924 -0.05052099 0.035357352 0.04522933 0.06306845 0.02394999 0.055196494 0.058135193
-0.04616186 0.018393874 -0.036852073 -0.042485453 -0.06645192 -0.044501305 -0.030967662 0.04960652
0.013929671 -0.026573116 -0.012930066 0.03919747 -0.04374492 -0.00041201105 0.051512763 -0.042179953
0.053724434 -0.020895308 -0.04540516 -0.020333866 -0.001242823 0.060218014 -0.054023877 -0.03511321
0.019268062 -0.03261149 -0.0039686593 0.0028480603 -0.01849881 -0.01358583 0.046586853 -0.05157615
-0.016331328 0.056485735 0.02456219 -0.047026068 0.032172866 -0.0075875726 0.023145244 0.00595873
-0.0020014409 -0.0004428272 -0.037219398 -0.049833715 -0.034111664 -0.04846591 -0.025303705 0.010074157
-0.065326735 -0.033768762 0.047907867 0.045615852 0.043753576 0.050030276 0.00015105798 0.010412386
-0.0064743273 0.028438056 0.05497489 0.05327413 0.0111454185 0.001059254 0.017459717 -0.0056420625
-0.067789726 -0.025054349 0.041817423 0.009226534 0.06649471 -0.027247615 0.039786015 -0.04420652
0.060324673 0.051965833 0.0043687983 0.04665047 0.041642 0.042020362 -0.039388906 0.018432878
-0.04976821 -0.049673416 0.04423534 0.041283302 0.027855925 -0.030261585 0.056367062 0.014411786
-0.013446858 0.004975417 -0.016580885 0.00045855 0.03681694 0.0031080092 0.030022528 0.03809818
0.049309995 0.051438637 -0.051353775 0.047806505 -0.03937563 -0.06015729 0.03256725 -0.023483967
-0.039161317 0.0056997733 -0.051200017 -0.0016190424 0.0017999399 0.031138007 0.043359067 -0.045356132
0.035131816 -0.013776776 0.01945065 0.021586362 0.04861851 0.04121664 0.04217047 0.011075689
0.008278571 0.0024699464 -0.046334274 -0.027636897 0.054922517 0.046541262 0.03579631 0.018353997
0.0028413231 -0.042771757 -0.04331516 0.002939247 0.067046046 -0.02597227 0.056764033 0.06571521
-0.03624995 -0.037411995 -0.030517973 0.0120571125 -0.06066462 -0.0075576394 0.052814256 -0.04170241
-0.02631069 -0.02324615 0.04272474 0.022171643 -0.032252066 -0.061369326 -0.017875498 0.052860416
0.0403017 0.07505278 0.028022695 -0.04240114 0.029462222 0.00013466689 -0.048726194 -0.004485894
00000000: ff5c dfbc 5fb5 1f3d 2a45 97bc ca1b 343d
00000010: ace3 2c3c 20c6 23bd 855c a03c 4fc9 eabc
00000020: 1944 3fbb 3673 a93c abe7 ce3c e3ac 01bd
00000030: df85 813d 1e90 713d d0c8 2a3d ca85 86bd
00000040: d754 41bd 325d cb3b 8d73 e83c 2891 09bd
00000050: e064 5d3d c895 3a3d af59 afbc aeea e53b
00000060: 6ded 2a3d 934c 13bb 9206 39bd b8a8 3f3d
00000070: 6b09 05bd 7ba4 87bd 0af6 353b acde 023d
00000080: 4c8f 8dbd ebe3 6abd a041 07bd af8e 42bd
00000090: b7d2 6fbd 801d 5f3d 83d8 4dbd 229c ef3b
000000a0: ceea 40bd 8b6d 123c 167c babc 670d 9d3c
000000b0: 8698 843d b95e 9a3c 1ace 14bd e55f 10bd
000000c0: 7e5e 103c 8d29 e1bc 1005 0cbd 01a1 413d
000000d0: 3ed7 b9bc ca29 753d 1678 103d 9845 693d
000000e0: 2a92 80bc b4c0 19bb 015b 42bd bd45 1d3d
000000f0: 7298 80bd 5429 04bd cdee 9a3c b3c8 983c
00000100: 11a5 bb3b 6d05 5ebd 57fc 5fbb 4afe 5cbd
00000110: 4094 26bd 4bb2 003c 5131 f7bc e570 403c
00000120: 9212 413d 0ac3 71bc a917 52bd 1179 4e3d
00000130: f493 12bd 8081 03bd 0620 373d cd2d 21bd
00000140: aec4 6fbc 45a8 eb3c 2280 973b 2dea f43c
00000150: 2a62 8abb 8a5b 9bbb 20c7 c23c 1a96 433d
00000160: 98a7 16bd 19ef 4ebd dfd2 103d 6442 393d
00000170: 082a 813d c532 c43c b815 623d 2b1f 6e3d
00000180: 3814 3dbd c0ae 963c 33f2 16bd 3a05 2ebd
00000190: f217 88bd 0047 36bd e5af fdbc 3530 4b3d
000001a0: 4639 643c ddaf d9bc a1d8 53bc 878d 203d
000001b0: e02d 33bd 3003 d8b9 0cff 523d e3c4 2cbd
000001c0: 270e 5c3d a32c abbc c3fa 39bd 3593 a6bc
000001d0: 38e6 a2ba 2aa7 763d 2448 5dbd dfd2 0fbd
000001e0: 0ed8 9d3c a093 05bd 870b 82bb 86a6 3a3b
000001f0: d18a 97bc 1a97 5ebc dbd1 3e3d 8341 53bd
00000200: 47c9 85bc 965d 673d a536 c93c 689e 40bd
00000210: b2c7 033d 2ca1 f8bb 189b bd3c 7341 c33b
00000220: 9b2a 03bb 432b e8b9 5e73 18bd 701e 4cbd
00000230: acb8 0bbd 3184 46bd b749 cfbc 140e 253c
00000240: 06ca 85bd 1d51 0abd 0a3b 443d b0d7 3a3d
00000250: f336 333d 8cec 4c3d 5165 1e39 b698 2a3c
00000260: 9826 d4bb edf6 e83c 5a2d 613d f935 5a3d
00000270: 469b 363c abd6 8a3a ae07 8f3c 0de1 b8bb
00000280: 57d5 8abd c73e cdbc bf48 2b3d e32a 173c
00000290: 612e 883d 6436 dfbc a9f6 223d e511 35bd
000002a0: 0117 773d 20da 543d 2328 8f3b 9014 3f3d
000002b0: cd90 2a3d 8b1d 2c3d 4356 21bd 8c00 973c
000002c0: c0d9 4bbd 5a76 4bbd 1e30 353d ae18 293d
000002d0: 1c32 e43c 25e7 f7bc 26e1 663d 691f 6c3c
000002e0: 3650 5cbc d308 a33b a3d4 87bc 8a69 f039
000002f0: 5ccd 163d beaf 4b3b cef1 f53c d60c 1c3d
00000300: 47f9 493d 52b1 523d 5658 52bd c1d0 433d
00000310: 5748 21bd 7e67 76bd 3d65 053d 7361 c0bc
00000320: 9e67 20bd 2ac5 ba3b 1cb7 51bd 0c36 d4ba
00000330: f6eb eb3a 2215 ff3c 4799 313d 5ac7 39bd
00000340: 61e6 0f3d fdb7 61bc f856 9f3c e2d5 b03c
00000350: 3424 473d c8d2 283d f1ba 2c3d cf76 353c
00000360: d8a2 073c d3de 213b 02c9 3dbd c666 e2bc
00000370: 6ff6 603d 0da2 3e3d 279f 123d 1f5b 963c
00000380: 7e35 3a3b 7031 2fbd 3d6b 31bd 62a0 403b
00000390: 704f 893d ccc3 d4bc 6781 683d b295 863d
000003a0: d47a 14bd 523d 19bd d400 fabc 328b 453c
000003b0: 777b 78bd 13a6 f7bb c353 583d 25d0 2abd
000003c0: 8489 d7bc b66e bebc 2300 2f3d 4ea1 b53c
000003d0: be1a 04bd 675e 7bbd a36f 92bc 2a84 583d
000003e0: 6513 253d 46b5 993d da8f e53c d1ac 2dbd
000003f0: c25a f13c 5e35 0d39 1e95 47bd 68fe 92bb

2.bias f4 [256]
-0.009384075 0.05043522 -0.053664364 0.004391495 0.028747207 -0.050913267 -0.009665473 -0.05221167
-0.06298359 -0.036162876 -0.02534576 0.004666103 0.015077622 0.01867988 0.036477312 0.0060717775
-0.012369931 -0.048499826 -0.050119508 0.034504555 -0.056942098 -0.02364226 0.05306835 -0.008908752
-0.004608395 -0.04933174 0.03139292 0.02965282 -0.032723352 0.058855586 0.02153569 0.006339457
0.05021872 -0.061335396 0.02043756 -0.037830994 -0.025693756 0.04137566 -0.024817007 0.052971873
0.015011682 0.052286122 -0.057766497 -0.043100007 0.04022927 -0.064169556 -0.02910685 -0.0029362442
-0.014469176 -0.023039335 0.054787025 0.055784773 -0.04696035 -0.010191012 0.040510576 0.03526482
-0.01808709 0.060887896 0.021463728 0.042026576 0.05366272 -0.028380506 0.048228268 -0.04757503
-0.040328532 0.02071213 -0.027397895 0.026356561 0.0440813 -0.019687338 -0.042471908 -0.0037667193
0.049473714 -0.032283247 -0.04033836 0.019788032 0.060038958 0.046506803 -0.0453841 -0.010116336
0.003175119 0.05487958 0.019496938 -0.019456876 0.05968442 0.047789983 -0.050398692 0.035978545
0.038571868 -0.028248224 -0.034532305 0.0064380327 0.036103275 0.034807105 -0.050432347 0.003358761
0.053495817 0.04241416 -0.0115618305 -0.0461808 -0.03976285 -0.048918337 0.027944561 -0.055114806
-0.058842484 0.04262525 -0.04079776 -0.039019793 0.038791943 -0.015488527 -0.026015274 0.013716258
-0.054555293 -0.044153232 -0.04269501 -0.024801685 0.047284998 0.029280925 -0.017717121 0.02128468
-0.04827687 0.03659625 -0.016811684 0.020986546 -0.060161203 -0.051181257 -0.042815413 -0.035565134
0.059221983 0.02225118 -0.06591035 -0.023092857 0.031997796 0.03184667 -0.06553535 -0.002183978
-0.020513156 0.05531671 0.014789465 0.05805377 -0.014991796 0.0034631689 -0.020820197 0.009905676
-0.02897138 -0.044330586 -0.024870344 0.058009908 0.015365677 -0.04732306 -0.0012345101 -0.040697582
-0.044616837 -0.013048629 0.014911652 -0.053552937 -0.035284374 0.06423168 -0.022037247 0.02116846
0.037916966 -0.045615062 0.05587232 -0.019818144 -0.008644873 0.05873127 0.012937239 0.058390237
0.008849883 0.059464563 -0.060578942 0.0515524 -0.0009026398 -0.035791337 0.031556543 0.020601785
-0.05841885 0.019597238 -0.034330506 -0.0497135 -0.0057557696 0.021706697 0.01763772 -0.004977014
0.030329607 0.00818068 -0.049606945 0.022221167 0.042224232 -0.0014875358 -0.01322512 0.022724602
0.052925326 -0.033470787 0.0038373552 0.057363987 0.036570784 0.061844427 0.024961922 0.017074727
0.05858202 0.02783342 0.058766503 -0.033319537 -0.03528377 0.016106239 0.03959971 0.0077814735
-0.03800037 -0.04953299 0.048150204 0.041304722 0.03279202 0.032997966 -0.04183947 -0.04928095
0.05768128 0.02929293 -0.022717312 -0.0012052497 0.0042744507 0.004475615 0.02164453 0.037978414
-0.05719101 -0.011164939 -0.045801103 0.03320185 0.037906982 0.03513005 -0.013406658 -0.05566213
-0.037904914 -0.03811344 0.05243534 0.032788537 -0.055053663 0.0325551 0.024727771 0.040251885
-0.005440467 -0.045444794 -0.040399037 -0.020892497 -0.028826142 0.029446803 -0.048596025 -0.0066142324
0.008089471 0.057448924 0.0075591817 0.06165737 -0.011862584 -0.025466707 0.0016631234 0.018585281
00000000: aabf 19bc 2995 4e3d 2acf 5bbd 88e6 8f3b
00000010: 437f eb3c 6e8a 50bd ef5b 1ebc e7db 55bd
00000020: 8afd 80bd 861f 14bd e9a1 cfbc 1ce6 983b
00000030: 2108 773c 8c06 993c 3c69 153d c3f5 c63b
00000040: 40ab 4abc c1a7 46bd 1d4a 4dbd a654 0d3d
00000050: 1e3c 69bd 6aad c1bc 335e 593d 04f6 11bc
00000060: 0502 97bb 1410 4abd dd95 003d 79ea f23c
00000070: ec08 06bd 8e12 713d 9e6b b03c 38bb cf3b
00000080: 25b2 4d3d d33a 7bbd ab6c a73c acf4 1abd
00000090: b67b d2bc 8679 293d 094d cbbc 09f9 583d
000000a0: 8ff3 753c f929 563d 909c 6cbd a289 30bd
000000b0: 72c7 243d 546b 83bd 7d71 eebc 016e 40bb
000000c0: 1f10 6dbc fdbc bcbc 5c68 603d 937e 643d
000000d0: 7f59 40bd 34f8 26bc 6bee 253d d871 103d
000000e0: 612b 94bc 9665 793d b3d4 af3c 0f24 2c3d
000000f0: 71cd 5b3d 3c7e e8bc 018b 453d 09de 42bd
00000100: 882f 25bd 7cac a93c 8d71 e0bc b7e9 d73c
00000110: 988e 343d 5747 a1bc 06f7 2dbd 10db 76bb
00000120: f3a4 4a3d 703b 04bd d639 25bd 831a a23c
00000130: 69eb 753d eb7d 3e3d aee4 39bd fdbe 25bc
00000140: a815 503b 69c9 603d 0bb8 9f3c 0764 9fbc
00000150: a677 743d 6ebf 433d dc6e 4ebd 3d5e 133d
00000160: 89fd 1d3d d268 e7bc bf71 0dbd 22f6 d23b
00000170: 07e1 133d e591 0e3d 2692 4ebd a91e 5c3b
00000180: 6e1e 5b3d 78ba 2d3d d56d 3dbc 1428 3dbd
00000190: 5fde 22bd 985e 48bd feeb e43c 10c0 61bd
000001a0: d104 71bd d097 2e3d 8d1b 27bd 38d3 1fbd
000001b0: 4de4 1e3d 97c3 7dbc fc1d d5bc 28ba 603c
000001c0: 5f75 5fbd 05da 34bd f6e0 2ebd e72c cbbc
000001d0: eaad 413d 8dde ef3c 7f23 91bc 365d ae3c
000001e0: f8bd 45bd f3e5 153d a8b8 89bc faeb ab3c
000001f0: 986b 76bd 70a3 51bd 375f 2fbd bfac 11bd
00000200: c092 723d 1b48 b63c 01fc 86bd 3b2d bdbc
00000210: 1f10 033d a771 023d 6637 86bd 1221 0fbb
00000220: 350b a8bc c693 623d 834f 723c cac9 6d3d
00000230: 26a0 75bc 55f6 623b 1e8f aabc 6b4b 223c
00000240: 6355 edbc fd93 35bd e4bc cbbc cc9b 6d3d
00000250: 52c0 7b3c d3d5 41bd 49cf a1ba 82b2 26bd
00000260: 25c0 36bd ebc9 55bc 0050 743c 535a 5bbd
00000270: 5986 10bd e68b 833d 7587 b4bc 7a69 ad3c
00000280: d24e 1b3d dcd6 3abd 60da 643d a959 a2bc
00000290: 3aa3 0dbc 3390 703d b7f6 533c 9a2a 6f3d
000002a0: 1aff 103c 1d91 733d a021 78bd 9c28 533d
000002b0: 229f 6cba f099 12bd 6f41 013d 13c5 a83c
000002c0: 9b48 6fbd 638a a03c 259e 0cbd 62a0 4bbd
000002d0: e59a bcbb 3ed2 b13c fb7c 903c 3816 a3bb
000002e0: cc75 f83c 4208 063c a730 4bbd 2a09 b63c
000002f0: 51f3 2c3d 6bf9 c2ba 2cae 58bc f228 ba3c
00000300: 3ac8 583d aa18 09bd 237c 7b3b 80f6 6a3d
00000310: 3fcb 153d 9550 7d3d f27c cc3c 4ce0 8b3c
00000320: b3f3 6f3d ea02 e43c 25b5 703d 117a 08bd
00000330: b785 10bd 3bf1 833c 4e33 223d bbfb fe3b
00000340: 47a6 1bbd 1be3 4abd 2639 453d 242f 293d
00000350: ed50 063d e028 073d dd5f 2bbd d2da 49bd
00000360: 3543 6c3d baf7 ef3c a819 babc 78f9 9dba
00000370: b110 8c3b 2ea8 923b df4f b13c 418f 1b3d
00000380: 1f41 6abd 26ed 36bc f099 3bbd aafe 073d
00000390: 5a44 1b3d 87e4 0f3d 99a7 5bbc f9fd 63bd
000003a0: 2f42 1bbd d71c 1cbd 70c6 563d 464d 063d
000003b0: f37f 61bd 7f58 053d e591 ca3c 29df 243d
000003c0: f245 b2bb 5224 3abd 7679 25bd be26 abbc
000003d0: cd24 ecbc 6c3a f13c a00c 47bd 34bc d8bb
000003e0: b389 043c 904f 6b3d 03b3 f73b 708c 7c3d
000003f0: 495b 42bc 8e9f d0bc 29fd d93a 2940 983c

4.weight f4 [2, 256]
-0.029113142 -0.013059577 0.006054052 0.024463048 0.027876822 -0.046143536 -0.031589605 -0.009017949
0.028691547 -0.023634544 0.020704044 -0.03199804 -0.040716544 -0.047109537 -0.056027476 -0.05023138
0.0030683677 -0.05478421 0.033308048 -0.042884022 -0.020262996 -0.045502365 -0.0036884898 -0.0016023304
0.011556861 0.015396986 -0.048233345 -0.061537232 -0.01907466 0.02653541 0.021477384 -0.01206994
0.06267211 -0.018988404 0.05897193 -6.20984e-06 0.040614463 -0.04128768 0.02376438 0.013102464
0.040124252 -0.0230695 0.0101258345 0.01491569 0.004569958 0.04920438 0.040936217 0.050209448
-0.04840451 -0.036595736 -0.053903867 0.03215368 -0.02273461 -0.0019266771 -0.05444522 -0.008273349
0.022891184 -0.021300044 0.03231701 -0.05154681 -0.060656495 -0.040193282 -0.026517741 -0.002074894
-0.02850188 -0.025278866 -0.024470657 -0.014070118 0.049700707 0.034584828 -0.017154789 0.005493807
0.015128044 0.014783927 -0.005757234 0.04307019 -0.06082425 0.037294816 0.05571871 0.0021043678
0.0002706743 0.055990558 0.04549728 0.019051425 0.015217382 0.04941831 0.043253344 -0.042901274
0.011076632 0.029730707 0.003933839 -0.057962753 0.0052594566 -0.052221987 -0.038483128 -0.05806264
0.022066664 -0.041548587 -0.0020251095 -0.053633433 0.05385896 0.0055275555 -0.007627856 -0.019665496
-0.0012488164 -0.026008714 0.0034583607 -0.02374321 -0.02414317 -0.03985994 0.014343474 -0.016870325
0.06787674 -0.0061120526 -0.060733836 -0.014929505 0.04257281 0.01065147 0.027944088 0.02586344
-0.025940979 -0.022260752 0.020561632 -0.03095201 -0.036409963 -0.01864213 -0.048526328 -0.012740279
-0.046358783 -0.053711835 0.044367507 -0.026110584 -0.010029764 -0.049672104 -0.027589692 0.0029810935
0.035258513 -0.026119024 0.022763886 -0.051311806 0.05165819 -0.0037951907 -0.029234821 0.01655056
0.026489224 -0.004654634 0.02289114 -0.05132705 -0.006178479 -0.021516243 -0.027690694 -0.0051535326
-0.019640878 -0.058361795 -0.0486128 0.027058477 0.05967702 -0.00022658924 0.028937506 0.023154039
0.047950357 0.015817236 0.015006138 -0.033731233 0.021023555 0.013176313 0.025379548 0.04327015
-0.048029795 -0.04915591 0.010959374 0.004597159 0.04975645 -0.036759328 -0.04511728 -0.025000703
-0.035145245 -0.012292063 -0.029300049 0.06170418 0.0013935957 -0.033363916 0.025084872 0.013928909
-0.037439737 0.0031982102 0.013348085 -0.0031277263 0.01492862 -0.03291082 -0.006125538 0.008810351
-0.029009849 -0.031099597 0.015482781 0.006784804 0.007065439 0.038733575 0.04364225 0.016534217
0.027009847 -0.048448727 0.017180737 -0.0046701785 -0.04219542 0.0045247846 0.054356415 0.03477944
-0.013312077 0.013764254 -0.036968417 -0.043663274 0.0006159065 -0.04509617 -0.021015698 0.016588263
0.010975986 -0.056329627 0.003924497 -0.028113246 -0.010728802 0.023834325 0.04350425 -0.007991512
-0.0069884956 -0.032816555 -0.05033767 0.025991546 0.004631915 -0.011654354 -0.040918775 0.0080334395
0.019485127 0.051863905 -0.04015577 0.045665316 0.035557307 -0.060378548 0.020971 -0.009176283
0.02078992 0.030973822 0.051862214 -0.02093592 -0.047154132 -0.023594188 -0.06187313 -0.00714918
0.03763659 0.010658443 -0.021097198 -0.037101258 -0.033246968 -0.048444305 -0.035601072 0.023637852
00000000: af7e eebc d6f7 55bc 1261 c63b bb66 c83c
00000010: ef5d e43c 0101 3dbd 1a64 01bd 05c0 13bc
00000020: 890a eb3c 3b9d c1bc 879b a93c 6010 03bd
00000030: 64c6 26bd eef5 40bd 117d 65bd 6bbf 4dbd
00000040: ab16 493b 6865 60bd 056e 083d 28a7 2fbd
00000050: 95fe a5bc b060 3abd 97ba 71bb 4905 d2ba
00000060: fd58 3d3c a443 7c3c 5490 45bd 770e 7cbd
00000070: 7642 9cbc ca60 d93c 57f1 af3c ffc0 45bc
00000080: 3c5a 803d 928d 9bbc 8d8c 713d 1f5e d0b6
00000090: 5a5b 263d 451d 29bd 84ad c23c b8ab 563c
000000a0: 5459 243d 40fc bcbc d4e6 253c f060 743c
000000b0: 96bf 953b 888a 493d bcac 273d 6ca8 4d3d
000000c0: cf43 46bd 69e5 15bd 4dca 5cbd 94b3 033d
000000d0: ef3d babc 8e88 fcba f301 5fbd f18c 07bc
000000e0: 4b86 bb3c 6e7d aebc d75e 043d bf22 53bd
000000f0: f272 78bd b6a1 24bd bc3b d9bc f2fa 07bb
00000100: c67c e9bc a015 cfbc b076 c8bc 5a86 66bc
00000110: f892 4b3d d2a8 0d3d 3388 8cbc 6505 b43b
00000120: 9edb 773c 4938 723c 2ea7 bcbb 5e6a 303d
00000130: d922 79bd 73c2 183d 4d39 643d 6fe9 093b
00000140: 4ae9 8d39 5b56 653d 5b5b 3a3d bc11 9c3c
00000150: 5452 793c db6a 4a3d 6b2a 313d 3fb9 2fbd
00000160: c37a 353c d08d f33c 6fe7 803b 5a6a 6dbd
00000170: 8557 ac3b b9e6 55bd 7ca0 1dbd 17d3 6dbd
00000180: 26c5 b43c da2e 2abd b3b7 04bb bbae 5bbd
00000190: 369b 5c3d 7f20 b53b 18f3 f9bb 8919 a1bc
000001a0: 53af a3ba 3a10 d5bc aaa5 623b 1f81 c2bc
000001b0: e6c7 c5bc 2d44 23bd e400 6b3c a333 8abc
000001c0: f602 8b3d 9d47 c8bb 0bc4 78bd e29a 74bc
000001d0: d460 2e3d 8183 2e3c 00eb e43c 91df d33c
000001e0: 2d82 d4bc 2e5c b6bc de70 a83c 128f fdbc
000001f0: 9d22 15bd 61b7 98bc 8bc3 46bd 9abc 50bc
00000200: b5e2 3dbd f100 5cbd b4ba 353d dde5 d5bc
00000210: e153 24bc fa74 4bbd c703 e2bc 735e 433b
00000220: 3b6b 103d 90f7 d5bc 547b ba3c 542c 52bd
00000230: 8a97 533d bcb8 78bb dd7d efbc 0a95 873c
00000240: eeff d83c e685 98bb 3386 bb3c 503c 52bd
00000250: d774 cabb d542 b0bc 98d7 e2bc f7de a8bb
00000260: e8e5 a0bc c70c 6fbd 371e 47bd bda9 dd3c
00000270: e46f 743d 9698 6db9 590e ed3c 8aad bd3c
00000280: 9867 443d 2693 813c 4edc 753c c329 0abd
00000290: 9739 ac3c 76e1 573c c5e8 cf3c 0a3c 313d
000002a0: e4ba 44bd b557 49bd f28e 333c c4a3 963b
000002b0: 6bcd 4b3d f390 16bd e6cc 38bd 46ce ccbc
000002c0: 76f4 0fbd a664 49bc a806 f0bc 86bd 7c3d
000002d0: 50a9 b63a 9aa8 08bd ca7e cd3c 1436 643c
000002e0: 695a 19bd 1099 513b edb1 5a3c 8afa 4cbb
000002f0: 2c97 743c 7fcd 06bd bdb8 c8bb 4a59 103c
00000300: 10a6 edbc 95c4 febc 7eab 7d3c 1053 de3b
00000310: 3385 e73b 19a7 1e3d 37c2 323d c472 873c
00000320: c143 dd3c 2c72 46bd 9ebe 8c3c 4c08 99bb
00000330: 1bd5 2cbd a544 943b d5a4 5e3d e374 0e3d
00000340: e61a 5abc 7783 613c 326c 17bd 43d8 32bd
00000350: c974 213a c3b6 38bd 1d29 acbc 1ce4 873c
00000360: 9fd4 333c e5b9 66bd 1199 803b c04d e6bc
00000370: dbc7 2fbc 3440 c33c 8331 323d d5ee 02bc
00000380: c0ff e4bb a76a 06bd df2e 4ebd 39ec d43c
00000390: 52c7 973b e7f1 3ebc 729a 27bd b09e 033c
000003a0: 469f 9f3c 3f6f 543d 607a 24bd 8e0b 3b3d
000003b0: 8aa4 113d 7f4f 77bd 60cb ab3c 1f58 16bc
000003c0: 9f4f aa3c d0bc fd3c 796d 543d ce81 abbc
000003d0: b124 41bd 9948 c1bc ae6e 7dbd ab43 eabb
000003e0: d328 1a3d c0a0 2e3c 08d4 acbc 7df7 17bd
000003f0: f92d 08bd 896d 46bd 6ed2 11bd 2ba4 c13c

4.bias f4 [2]
0.034031108 -0.010549946
00000000: 3464 0b3d aed9 2cbc

exp_avg f4 [256, 4]
0.00032887916 0.0012553314 0.0010239732 -0.0003855904 -0.0003407345 -0.004126065 -0.0033043916 0.0015695886
0.008262194 0.00024783576 -0.0036358272 -0.00025694934 0.00030267923 0.00021029134 0.0008899704 0.0004238601
-0.0048175156 -0.0012561881 0.00039459407 8.2442515e-05 -0.014026069 -0.0015606532 0.004712152 0.0006647877
-0.00024099971 0.0028138023 0.0019745794 -0.0013087142 -0.0014011547 0.0014446295 0.0015669364 -0.0007049135
0.0032796974 -0.0035864005 -0.003969426 0.0014645573 0.0010068079 0.00065893127 -0.0007344898 -0.0008158901
-0.00052927807 -0.00019562515 0.00031965555 0.00022630196 -0.00071820896 -0.0022071642 -0.0010531223 0.0010361439
0.012136048 0.0040782485 -0.0009294365 -0.0009622712 0.0077433772 0.000569624 -0.0035499234 -0.00061780534
0.00039535254 -0.0012760675 -0.0013924036 0.00031504082 0.00066671206 0.0022137165 0.0018594419 -0.00067419984
-0.0007403824 -0.0007927196 -8.93392e-05 0.00045255743 0.010431544 0.0024540797 -0.0021308213 -0.00082161993
0.009595241 0.0016936475 -0.0027453324 -0.0006863751 -3.2159518e-05 0.00032235158 0.00035148684 -9.218995e-05
-0.004842562 -0.00048038515 0.0011360858 3.1630007e-05 0.013283504 0.0002739442 -0.0045817336 0.0002328377
0.0010174036 -0.002282062 -0.0022013942 0.0009312554 0.00072027 0.00069896015 0.00041981018 -0.00019228867
-0.000617968 -0.001483764 -0.00086364517 0.0006407672 0.001781118 0.002483011 0.0010911984 -0.0010207688
0.018621616 0.0021701534 -0.005502613 -0.00063719985 0.00018167953 2.5542928e-05 -0.00043834595 -0.00025158946
0.0011969833 0.0039406437 0.0030559506 -0.0013054329 0.003453336 0.0014209265 1.7567552e-05 -0.00036208556
0.000303543 0.00037783763 -0.00070603995 -0.00073698256 -0.0074514933 -0.00096281787 0.001751413 6.946541e-05
-0.0030154518 0.0007801448 0.0017712814 -0.00042581078 -0.003783664 0.0015470247 0.0026278514 -0.00076375785
-0.0006697164 -0.0008923676 0.0003284156 0.0008179763 0.00014049762 9.892803e-06 0.00060028397 0.00043589168
0.01176898 0.0034434737 -0.0017682455 -0.0011387639 -1.9955232e-05 -0.00083565584 -0.0008994202 0.00019148612
-0.00027104828 -0.00069388817 0.00017717571 0.0006480429 -0.0029099023 -0.0015143838 -0.00052208715 0.00022945803
0.0026362184 0.0003477058 -5.1929946e-05 0.0003804825 -0.0016985764 0.00020706006 0.00034929172 -0.00034985112
-0.0009037608 -0.00062017405 0.00072544126 0.00081902515 0.0032533398 -0.0019267928 -0.0028363403 0.00073067937
0.0007200256 0.0056666187 0.0043546823 -0.0021470292 -0.000165399 -7.7434655e-05 -0.00015237504 -5.3341948e-05
0.00026193506 0.0021773928 0.0020895235 -0.00061966636 -0.0045302934 -0.0004893686 0.0009616071 -5.422631e-05
-0.0006031424 0.0035211942 0.0030574936 -0.0013639721 0.002864863 -0.0005618828 -0.001370969 0.0003193479
-0.0011030923 0.0024317636 0.0025566998 -0.0009140884 -0.0041201483 -0.0011168212 0.0004786442 0.00022785527
-0.0005026562 -0.003400566 -0.002759031 0.001208765 0.0010139447 0.0016218551 0.0006823442 -0.0007870933
-0.0042142705 0.00058742805 0.0024289766 -0.0001386079 -0.012062937 -0.0017999813 0.0032906057 0.00052810006
0.001609405 0.003548914 0.0027974518 -0.0010492543 0.00012746558 -0.0014355988 -0.0011203907 0.0006286247
-0.0015400443 -0.0040014405 -0.0030336508 0.0013123443 -0.0024610113 0.0007596051 0.0012503704 -0.0003581461
0.0108280815 0.0014644584 -0.0035615126 -0.0007909857 0.011400936 0.0034937847 -0.0011537502 -0.0009527899
0.0013884546 0.001406855 -3.721231e-05 -0.00090201374 -0.005459676 -0.0017457168 0.0005136723 0.00033422306
00000000: 6a6d ac39 ef89 a43a d736 863a 1129 cab9
00000010: 9ca4 b2b9 f133 87bb 7e8e 58bb a7ba cd3a
00000020: 275e 073c f4ef 8139 0f47 6ebb 28b7 86b9
00000030: ebb0 9e39 a781 5c39 e74c 693a 8a39 de39
00000040: 40dc 9dbb aea6 a4ba 85e1 ce39 fde4 ac38
00000050: 99cd 65bc d58e ccba 6568 9a3b 2645 2e3a
00000060: deb4 7cb9 c567 383b f267 013b 2989 abba
00000070: f3a6 b7ba b959 bd3a a961 cd3a f2c9 38ba
00000080: 31f0 563b d109 6bbb f511 82bb 63f6 bf3a
00000090: def6 833a 21bc 2c3a c78a 40ba 75e1 55ba
000000a0: 40bf 0aba ba20 4db9 7197 a739 784b 6d39
000000b0: 3046 3cba 12a6 10bb ec08 8aba 38cf 873a
000000c0: 46d6 463c d4a2 853b 6da5 73ba ed40 7cba
000000d0: 28bc fd3b d252 153a d5a5 68bb 37f4 21ba
000000e0: 5247 cf39 b841 a7ba 5081 b6ba 102c a539
000000f0: 4ac6 2e3a 0014 113b 84b8 f33a c9bc 30ba
00000100: 3916 42ba 83ce 4fba 9e5b bbb8 3b45 ed39
00000110: 11e9 2a3c a0d4 203b 40a5 0bbb fb61 57ba
00000120: 5c35 1d3c 61fd dd3a 09eb 33bb daed 33ba
00000130: 05e3 06b8 4c01 a939 c447 b839 1a56 c1b8
00000140: 5bae 9ebb 34dc fbb9 b7e8 943a 76aa 0438
00000150: 0ea3 593c 2ba0 8f39 5e22 96bb e525 7439
00000160: 665a 853a a68e 15bb 4445 10bb 7e1f 743a
00000170: 80d0 3c3a 6c3a 373a f819 dc39 19a1 49b9
00000180: 21ff 21ba dc7a c2ba 3f66 62ba 29f9 273a
00000190: 6774 e93a 03ba 223b 8b06 8f3a 51cb 85ba
000001a0: 5c8c 983c 2239 0e3b 434f b4bb c209 27ba
000001b0: 3a81 3e39 0545 d637 ccd1 e5b9 c4e7 83b9
000001c0: 18e4 9c3a 8420 813b 5846 483b 0f1b abba
000001d0: 5d51 623b 623e ba3a 085e 9337 4dd6 bdb9
000001e0: da24 9f39 8218 c639 8a15 39ba 1032 41ba
000001f0: a82b f4bb 9d65 7cba ab8f e53a f5ad 9138
00000200: e39e 45bb a282 4c3a 572a e83a 5b3f dfb9
00000210: 59f7 77bb 89c5 ca3a 0838 2c3b ec36 48ba
00000220: e88f 2fba c7ed 69ba 322f ac39 766d 563a
00000230: 8b52 1339 44f9 2537 605c 1d3a 6488 e439
00000240: aed2 403c e7ab 613b 79c4 e7ba 9342 95ba
00000250: 8965 a7b7 ea0f 5bba 11c7 6bba aac9 4839
00000260: 7c1b 8eb9 0ce6 35ba 3ec8 3939 6ce1 293a
00000270: 0fb4 3ebb 4a7e c6ba addc 08ba ac9a 7039
00000280: 68c4 2c3b 484c b639 5bcf 59b8 7f7b c739
00000290: c4a2 deba 431e 5939 2421 b739 396c b7b9
000002a0: 5cea 6cba 2d93 22ba 8a2b 3e3a d9b3 563a
000002b0: fc35 553b 708c fcba e5e1 39bb 108b 3f3a
000002c0: 1ac0 3c3a 0baf b93b b9b1 8e3b 2cb5 0cbb
000002d0: f56e 2db9 6a64 a2b8 ddc6 1fb9 7bbb 5fb8
000002e0: 5454 8939 97b2 0e3b 63f0 083b 1b71 22ba
000002f0: db72 94bb f948 00ba 5c14 7c3a 0f71 63b8
00000300: 341c 1eba d6c3 663b 3b60 483b 4fc7 b2ba
00000310: 6dc0 3b3b 514b 13ba 16b2 b3ba 266e a739
00000320: a395 90ba 395e 1f3b 4e8e 273b 6f9f 6fba
00000330: 4f02 87bb 4d62 92ba 89f2 fa39 6fec 6e39
00000340: b0c4 03ba 08dc 5ebb dcd0 34bb 6c6f 9e3a
00000350: 57e6 843a 6d94 d43a 58df 323a f054 4eba
00000360: dd17 8abb a1fd 193a 772f 1f3b 4657 11b9
00000370: a0a3 45bc 5aed ebba 34a7 573b 3270 0a3a
00000380: acf2 d23a e694 683b 7455 373b 2287 89ba
00000390: 48a8 0539 b42a bcba 13da 92ba 4aca 243a
000003a0: 50db c9ba 841e 83bb 37d0 46bb f802 ac3a
000003b0: eb48 21bb 3c20 473a 78e3 a33a 8ec5 bbb9
000003c0: 4468 313c 12f3 bf3a 4468 69bb 275a 4fba
000003d0: feca 3a3c fbf7 643b 6f39 97ba a6c4 79ba
000003e0: cefc b53a 3866 b83a 6a14 1cb8 1e75 6cba
000003f0: 15e7 b2bb 89d0 e4ba f7a7 063a a93a af39

exp_avg_sq f4 [256, 4]
3.3194044e-06 3.012371e-06 8.5609383e-07 9.4896836e-07 2.4090617e-05 1.8298344e-05 1.3143252e-05 3.932751e-06
0.00025587704 2.047567e-05 2.282136e-05 5.4869583e-06 7.4008535e-06 4.7593853e-06 1.1101227e-05 5.513717e-06
3.2040392e-05 5.3311737e-06 1.108964e-05 2.251408e-06 0.00058671035 4.9994233e-05 5.3496213e-05 1.6958145e-05
2.0667974e-05 1.8225726e-05 4.103839e-06 4.0172636e-06 4.0881885e-05 9.432642e-06 3.1695083e-06 1.5794599e-06
6.400876e-05 4.414413e-05 2.158161e-05 9.809372e-06 8.928983e-06 4.1789613e-06 1.0990067e-05 5.568571e-06
1.0283682e-06 3.45489e-07 2.0236114e-06 4.157569e-07 3.2540676e-05 2.1213527e-05 3.8422608e-05 1.7855078e-05
0.00020322808 2.152778e-05 1.2923142e-05 9.804062e-06 0.00016545765 1.427077e-05 1.8572086e-05 2.8026093e-06
5.0469926e-06 4.780663e-06 1.4412988e-06 1.2984667e-06 3.7979548e-06 2.395818e-06 3.4266661e-06 8.3069887e-07
5.037658e-06 3.843676e-06 6.8567497e-06 3.837702e-06 0.0002862726 2.2029433e-05 2.6503807e-05 9.141556e-06
0.00027014108 2.1391288e-05 2.3729624e-05 6.7400633e-06 1.5458357e-07 2.9463672e-07 3.2973384e-07 3.322896e-07
2.8366949e-05 1.2202057e-05 2.3783477e-05 5.245279e-06 0.00019620743 5.099269e-05 6.570165e-05 1.9933352e-05
1.3698727e-05 8.657452e-06 7.357584e-06 2.7399026e-06 5.8755353e-07 6.4824405e-07 7.753937e-07 4.59432e-07
3.632627e-06 1.7766338e-06 4.4054805e-06 1.5796577e-06 1.7561926e-05 1.0169791e-05 1.8302437e-05 7.135111e-06
0.0006941728 8.614464e-05 9.85907e-05 2.7451524e-05 2.3519763e-06 2.623825e-06 2.4457877e-06 2.8704733e-06
1.6428383e-05 1.6576414e-05 7.95005e-06 5.2351465e-06 3.6145695e-05 2.7292215e-06 2.9635619e-06 1.483456e-06
2.3011391e-05 3.3206118e-06 7.6141528e-06 4.259469e-06 0.00015213704 1.8061455e-05 1.0196794e-05 2.730354e-06
2.6804693e-05 4.2232946e-06 3.866056e-06 1.9693232e-06 6.1783736e-05 1.1933294e-05 2.0207714e-05 5.7459893e-06
1.20185905e-05 4.9302016e-06 1.6921987e-05 5.600486e-06 5.6259273e-06 1.7428218e-06 3.5568532e-06 2.0866828e-06
0.00015702385 1.9857822e-05 3.344957e-05 9.158306e-06 6.914636e-07 1.1994263e-06 7.8734234e-07 1.058825e-06
1.0388348e-05 3.972965e-06 1.2912598e-05 4.0880395e-06 5.944278e-05 3.9738816e-06 5.825763e-06 3.005491e-06
2.227782e-05 6.4168394e-06 1.6285701e-05 6.255196e-06 1.462911e-05 6.716554e-06 1.4880994e-05 2.7067003e-06
6.729842e-06 3.9607285e-06 8.276727e-06 5.153795e-06 3.65036e-05 1.7713404e-05 1.311394e-05 4.9983555e-06
5.5766668e-05 4.1224997e-05 3.6518715e-05 1.37794605e-05 1.8225322e-06 6.234766e-07 1.4355658e-06 6.126018e-07
4.9764135e-06 2.238034e-06 1.959112e-06 3.9206287e-07 3.468778e-05 1.04955525e-05 2.4203853e-05 5.4933994e-06
2.7999802e-05 2.2164782e-05 8.978659e-06 4.514364e-06 2.0182699e-05 1.1727707e-05 3.9551624e-06 3.9507195e-06
3.9215083e-05 7.997196e-06 4.751377e-06 1.8151032e-06 1.15042985e-05 1.3595624e-06 1.3314268e-06 4.1021792e-07
1.2980412e-05 1.1514588e-05 4.4771773e-06 1.9835654e-06 4.5851434e-06 2.0685281e-06 6.468886e-06 2.11801e-06
7.127309e-05 9.5739115e-06 8.735596e-06 1.2992841e-06 0.00025084388 4.3241205e-05 3.412456e-05 1.826406e-05
7.495945e-06 8.145591e-06 2.9589569e-06 1.5031959e-06 3.693465e-06 2.3683278e-06 2.0130105e-06 8.0691217e-07
1.2017025e-05 1.3589896e-05 5.8531427e-06 4.497937e-06 3.1086656e-05 1.6898386e-05 2.855887e-05 9.628648e-06
0.00036488057 4.0267285e-05 4.591844e-05 1.8080234e-05 0.00018867808 1.6959839e-05 9.074795e-06 4.673344e-06
1.32191735e-05 7.17719e-06 1.9072942e-05 7.679567e-06 0.00012271722 8.526323e-06 1.1749752e-05 5.2037753e-06
00000000: efc2 5e36 2428 4a36 52ce 6535 9cbc 7e35
00000010: 3516 ca37 657f 9937 d681 5c37 13f6 8336
00000020: 3c27 8639 2bc3 ab37 7f70 bf37 9d1c b836
00000030: d954 f836 cfb2 9f36 683f 3a37 7802 b936
00000040: 1c63 0638 6fe2 b236 a40d 3a37 e516 1736
00000050: 77cd 193a e6b0 5138 1f61 6038 5741 8e37
00000060: 2360 ad37 73e3 9837 b5b3 8936 08cc 8636
00000070: 9778 2b38 e440 1e37 bdb3 5436 d4fd d335
00000080: 713c 8638 6627 3938 280a b537 ef92 2437
00000090: b1cd 1537 0139 8c36 fa61 3837 a9d9 ba36
000000a0: 7606 8a35 a67b b934 61cd 0736 3135 df34
000000b0: 497c 0838 b4f3 b137 f627 2138 7dc7 9537
000000c0: 9f19 5539 8e96 b437 79d0 5837 207c 2437
000000d0: b37e 2d39 7e6c 6f37 40cb 9b37 7614 3c36
000000e0: 5659 a936 9569 a036 a672 c135 fa46 ae35
000000f0: 5ee0 7e36 d7c7 2036 adf5 6536 31fd 5e35
00000100: 2709 a936 edf8 8036 0813 e636 9cc5 8036
00000110: dc16 9639 d9cb b837 7e54 de37 af5e 1937
00000120: b9a1 8d39 7171 b337 fb0e c737 b428 e236
00000130: 9cfb 2534 902e 9e34 4606 b134 8965 b234
00000140: 8ff5 ed37 70b7 4c37 a182 c737 9b00 b036
00000150: 08bd 4d39 fce0 5538 4ec9 8938 8c36 a737
00000160: 96d3 6537 793f 1137 2ae1 f636 2bdf 3736
00000170: 5fb8 1d35 fe02 2e35 a624 5035 daa7 f634
00000180: 0fc8 7336 ac74 ee35 cad2 9336 a004 d435
00000190: f351 9337 eb9e 2a37 2f88 9937 236a ef36
000001a0: 26f9 353a 8da8 b438 7bc2 ce38 b347 e637
000001b0: a5d6 1d36 f814 3036 5022 2436 5ba2 4036
000001c0: afcf 8937 940d 8b37 3461 0537 91a9 af36
000001d0: 259b 1738 ab27 3736 9be1 4636 291b c735
000001e0: 9608 c137 add7 5e36 137d ff36 8fec 8e36
000001f0: fa86 1f39 ae82 9737 e612 2b37 203b 3736
00000200: a4da e037 d3b5 8d36 2bb9 8136 b728 0436
00000210: e491 8138 1c35 4837 bc83 a937 accd c036
00000220: 74a3 4937 1c6e a536 b1f3 8d37 cfeb bb36
00000230: 59c6 bc36 e7ea e935 46b2 6e36 f008 0c36
00000240: c5a6 2439 5994 a637 344c 0c38 a0a6 1937
00000250: 049d 3935 f9fb a035 c159 5335 f31c 8e35
00000260: 9d49 2e37 824f 8536 30a3 5837 fe2b 8936
00000270: 3352 7938 6257 8536 ec7a c336 f1b1 4936
00000280: 41e1 ba37 3b50 d736 479d 8837 b9e3 d136
00000290: 8d6f 7537 c25e e136 62a9 7937 c2a4 3536
000002a0: e7d0 e136 66e6 8436 46dc 0a37 c3ee ac36
000002b0: 711b 1938 3f97 9437 f203 5c37 8cb7 a736
000002c0: 01e7 6938 01e9 2c38 ac2b 1938 552e 6737
000002d0: bb9d f435 fc5c 2735 aaad c035 ad71 2435
000002e0: 11fb a636 2231 1636 4a79 0336 b67c d234
000002f0: b87d 1138 0e16 3037 6109 cb37 f153 b836
00000300: 1ee1 ea37 82ee b937 0ca3 1637 177a 9736
00000310: 044e a937 1ec2 4437 96b6 8436 6c90 8436
00000320: e07a 2438 b22b 0637 056e 9f36 799e f335
00000330: 9602 4137 357a b635 7ab3 b235 ec3b dc34
00000340: 72c6 5937 c72e 4137 a93a 9636 651d 0536
00000350: 15da 9936 0bd1 0a36 4f0f d936 2223 0e36
00000360: 7378 9538 a39f 2037 198f 1237 1063 ae35
00000370: b283 8339 e45d 3538 f820 0f38 c535 9937
00000380: ad85 fb36 0ca9 0837 7e92 4636 6bc1 c935
00000390: 3fdd 7736 90ef 1e36 4217 0736 959a 5835
000003a0: bb9c 4937 2900 6437 1d66 c436 fcec 9636
000003b0: 0b63 0238 02c1 8d37 b591 ef37 ba8a 2137
000003c0: 714d bf39 abe4 2838 8d98 4038 02ab 9737
000003d0: e3d7 4539 fa44 8e37 f33f 1837 b8cf 9c36
000003e0: ebc7 5d37 98d3 f036 d5fe 9f37 7dd7 0037
000003f0: a7ad 0039 470c 0f37 cd20 4537 179c ae36
