distributed_shared/worker_logs/worker_0/models/model_episode_60.pt (torch, 816842 bytes, 16 tensors)

0.weight f4 [256, 4]
000000 86 fc eb be ea 49 23 be d3 16 4c 3d a3 5b b6 3c
       -0.46091098 -0.15946165 0.049826454 0.022260493
000010 f1 4c fd be 36 fd 9a 3e 6c 28 b6 3d eb f5 e6 3e
       -0.49472764 0.3027131 0.088944286 0.45109496
000020 3e 18 ab be ba e9 6f be 62 bb 8e 3e 03 a3 cc 3e
       -0.33416933 -0.23429003 0.27877337 0.39968118
000030 13 ea 62 be 1d 49 63 be e3 bc bb 3d c8 1c ce 3e
       -0.22159605 -0.22195859 0.09166887 0.40256333
000040 1b 42 f1 bd d8 ba f1 be 61 82 0e 3f f9 63 88 3d
       -0.11780187 -0.47212863 0.5566769 0.06659693
000050 16 23 00 3f ba 91 d7 3e ca d7 a8 be 3d 8f fe 3d
       0.50053537 0.42103368 -0.32977134 0.12429664
000060 40 d6 c4 3e 40 20 83 be 70 4a 1c 3e fa b9 16 be
       0.3844471 -0.25610542 0.1526277 -0.14719382
000070 21 4d 88 3d 73 2a de 3e 58 9b 53 3d 8d 41 e3 be
       0.06655336 0.4339176 0.05166182 -0.4438595
000080 0c 92 ba be 64 34 1e bb 6d ab e8 bd c2 43 77 be
       -0.3643955 -0.0024140114 -0.11360822 -0.24146941
000090 fa 06 11 3e b6 e3 a1 be d5 f0 d7 be ec 0e 03 3d
       0.14162818 -0.31619042 -0.42175928 0.031996652
0000a0 93 a9 cc 3e c3 07 e2 bd 74 02 e0 3e dc de 3d be
       0.39973125 -0.11036637 0.43751872 -0.18542045
0000b0 8a 20 a7 3e 61 13 29 3e cc 73 62 be 60 01 98 3e
       0.32642013 0.16511299 -0.22114486 0.2968855
0000c0 f8 5c 33 3e c8 ff 8f 3e 30 41 df be 97 22 81 3e
       0.17515934 0.28124833 -0.43604422 0.25221702
0000d0 3d a1 9f 3e 91 64 9e bd 06 cd da 3e 04 d6 a5 3d
       0.31177703 -0.07734025 0.42734545 0.08097461
0000e0 7d 07 70 bc 9a cf 05 bd f0 1d cf be 94 b0 3d 3d
       -0.014650223 -0.032668687 -0.40452528 0.046310976
0000f0 51 fa bf 3e f7 c5 8c be 57 4f e8 3e d7 04 ec be
       0.37495664 -0.27494785 0.45373031 -0.46097443
000100 40 35 4b bd ee 5e 8f 3e 9c 52 d0 be 55 7d 45 be
       -0.04961133 0.28002113 -0.40688026 -0.19286092
000110 38 d8 ab 3c 84 f3 f4 3d e8 23 dc be cc 68 3d be
       0.020977125 0.119605094 -0.42996144 -0.18497008
000120 b0 83 e9 be 33 41 38 3e 27 63 e4 be 5e 35 ac be
       -0.45608282 0.17993622 -0.44606897 -0.33634466
000130 4e 76 9e 3e f2 8d 9a be b1 08 b4 3e 88 51 c7 be
       0.30949634 -0.3018642 0.3516288 -0.3892939
000140 94 ed e5 be 90 2d d5 be ef 30 8f 3e 4b fd 07 3e
       -0.4490782 -0.41636324 0.2796702 0.13280217
000150 2a de 79 be 8b b6 58 bd ee 27 68 3e 0a 64 c1 3d
       -0.24401155 -0.05290846 0.22671482 0.09442909
000160 09 53 df 3e 72 31 37 be ca c8 e2 3e be 71 a1 bd
       0.43618038 -0.17889956 0.44293815 -0.07883023
000170 c6 8f 79 3e ea 24 59 3e 46 73 ff 3e 0b 1c 5f be
       0.24371251 0.21205488 0.49892634 -0.21788041
000180 14 5d bb 3e 70 72 9e 3e 9f 74 77 3e 50 45 8a be
       0.3659445 0.30946684 0.24165581 -0.27006006
000190 7b 16 be be d8 a1 9a be 38 86 51 3e cc 7f e0 3e
       -0.37126526 -0.30201602 0.20461357 0.438475
0001a0 32 f7 46 3e b7 ee e4 3e b7 22 00 3f 3c cd f1 3e
       0.19430235 0.44713375 0.5005297 0.47226894
0001b0 fc fc 7a be fc 9a 10 bc f7 48 c7 be c0 b7 5d be
       -0.24510568 -0.008826014 -0.38922855 -0.21652126
0001c0 37 f5 bb be dd ae ee be c3 ad d3 3b 6f 9e 71 bd
       -0.36710522 -0.46617785 0.006459923 -0.058988985
0001d0 9a 58 6a bb a0 9d e0 be 52 c3 b0 be c5 46 3d be
       -0.0035758377 -0.43870258 -0.34524018 -0.18484028
0001e0 34 41 85 bd f5 9f 38 bd f4 5a ce be 2f c2 c4 3e
       -0.06506577 -0.045074422 -0.40303767 0.384294
0001f0 44 c2 c5 be 6c e2 e9 3e c8 c3 1d 3e c6 09 09 be
       -0.38624775 0.4568056 0.15406716 -0.13382635
000200 3b 76 f3 3e bf 07 a2 3c 2f 56 03 bd 72 78 71 3e
       0.4755114 0.019779084 -0.032064613 0.23581102
000210 e4 36 b5 be 21 c8 18 be 5d 39 a4 be c9 2b 55 3e
       -0.3539344 -0.14920093 -0.32075015 0.20817484
000220 1c a0 3f 3d 07 b2 eb 3e cb f7 9c be 92 f6 db be
       0.04678355 0.46034262 -0.306578 -0.42961556
000230 0f c3 e9 be 26 22 a3 bc 0e 20 75 3e e8 7f a3 3e
       -0.4565663 -0.019913744 0.23938009 0.31933522
000240 6a cf 3d 3e 5d c4 ac bc 5f 28 5c be d8 7a ea bd
       0.18536153 -0.021089727 -0.21499775 -0.11449212
000250 22 ad 95 3e a7 23 93 be 42 b6 bb be f4 b5 40 be
       0.29233652 -0.28738138 -0.3666249 -0.1881941
000260 d5 2a 1f 3e fa 17 b5 be 02 a8 c9 bd 7a 85 a5 3e
       0.15543683 -0.35369855 -0.09846498 0.32328397
000270 1b 33 ce 3e 4c e7 75 3e b7 0a e1 3d 83 db cc 3d
       0.40273365 0.24014014 0.10988372 0.10002806
000280 a1 c2 b6 3e 2c 2e d0 3e 4c cf e9 3e ff 4a c4 be
       0.35695365 0.40660226 0.45665967 -0.38338467
000290 94 77 0c bc ff f5 d3 be cb aa 1a be 6a 5b ac be
       -0.0085734315 -0.41398618 -0.15104215 -0.33663493
0002a0 6c 8d ba 3c 5d 0c 37 3e 84 78 ed 3e d9 f0 a3 3e
       0.022772513 0.1787581 0.4638101 0.3201969
0002b0 c2 06 d1 3e 28 f7 20 bd 07 47 a2 be e4 9f 4a 3c
       0.40825468 -0.039298207 -0.31694815 0.012367222
0002c0 d8 03 9b 3c 7e 9f c0 3e 14 39 bf be eb 66 e6 be
       0.018922731 0.37621683 -0.37348235 -0.45000395
0002d0 3e 38 00 be bb a8 8f 3e 10 f0 58 be f4 c3 ef 3d
       -0.12521455 0.2805842 -0.21185327 0.11707297
0002e0 16 22 5c bd 7b bf ce 3e a0 72 67 3e 4e f4 e3 be
       -0.053743444 0.40380463 0.2260232 -0.44522327
0002f0 ba e3 aa 3e 6a 67 2b be fc a4 5a 3e 80 94 7d be
       0.33376867 -0.16738668 0.21351999 -0.2476368
000300 d5 6f eb be a3 42 32 bd a9 54 05 3e 62 19 a2 bd
       -0.4598376 -0.04352058 0.13020577 -0.07914998
000310 64 c0 94 bd 2f ee b7 be eb 91 9c be 32 96 6d bd
       -0.07263258 -0.35923907 -0.30580077 -0.058004566
000320 a1 31 ea 3d c9 8f 8f 3e f1 19 84 3e 3d b9 f2 3e
       0.11435247 0.28039387 0.25801042 0.4740695
000330 aa a4 e3 3e 32 d5 83 3e 6c 92 0b bf b8 14 36 be
       0.44461566 0.25748593 -0.545203 -0.17781341
000340 29 72 72 3e 08 61 6a bb 96 a5 d0 be de 94 c6 bd
       0.23676361 -0.0035763402 -0.40751332 -0.09696363
000350 c5 85 89 bd d1 38 85 bd 60 19 80 be ad 63 cb bc
       -0.06714968 -0.065049775 -0.2501936 -0.024827803
000360 0a 44 6b be 2c 92 b9 3d 92 50 5a 3e 32 44 e5 3e
       -0.22975174 0.09061083 0.21319798 0.4477859
000370 28 e5 77 3d ad 68 44 be 53 0e 07 3f e3 07 0d 3f
       0.060521275 -0.19180556 0.5275623 0.5509016
000380 68 7e 0f 3e be 60 d5 be 32 d6 5b bd 76 fd d0 be
       0.14013064 -0.4167537 -0.05367107 -0.40818375
000390 d7 15 91 3e cb 82 50 be 3a d9 cd 3e 08 a1 0c 3e
       0.28336975 -0.20362394 0.40204793 0.13733304
0003a0 3e eb 9b 3e af 1a 83 3c dc 9f 83 be f4 46 a6 be
       0.30452913 0.016003935 -0.257079 -0.32476008
0003b0 3e 2e 49 3e 21 2c b8 be 03 ff a0 3e df 3d f6 3e
       0.19646546 -0.35971168 0.31444559 0.4809408
0003c0 fd af d2 3e c1 d4 b2 be 6b a1 8e 3e 72 a2 b5 be
       0.41149893 -0.34927943 0.27857527 -0.35475498
0003d0 78 cf 59 be 51 ec 85 3e 06 ce 07 bf b3 24 89 be
       -0.2127055 0.26156858 -0.5304874 -0.26785812
0003e0 32 18 86 3e 20 33 c1 3d 5e 2a 13 3c 24 8d 02 3f
       0.26190335 0.094335794 0.008982269 0.50996614
0003f0 7e 85 ba be 73 37 16 3e 6d 71 f0 bd 11 cd 7f 3e
       -0.3642997 0.1466959 -0.11740384 0.2498057

0.bias f4 [256]
000000 a4 3b d6 3d 29 b1 85 3d 9e 24 30 3e b7 69 1c 3e
       0.10460594 0.06527931 0.17201468 0.15274702
000010 d0 8c 42 3e 4a f4 56 be e0 3d eb 3d cd 84 78 be
       0.18999028 -0.20991626 0.11486411 -0.2426941
000020 59 de 25 be b8 4a 09 3c c0 f5 5d be 24 63 1c bd
       -0.161981 0.008379631 -0.21675777 -0.038180485
000030 79 a3 17 be 38 b0 7d bd d9 38 e8 3d a6 c3 af 3c
       -0.14808454 -0.061935633 0.11338968 0.021455597
000040 88 6c dd bc e4 cc ce 3d 04 43 6c 3e 42 57 65 3e
       -0.02702929 0.100976735 0.2307244 0.22396567
000050 bc a5 d5 bd 71 b1 87 bd 65 92 47 be dc 3b 88 3d
       -0.10432002 -0.06625641 -0.19489439 0.06652042
000060 c9 18 01 3e a0 1a 18 be 7b 34 c1 bd c3 41 3d be
       0.12607111 -0.14853907 -0.09433838 -0.18482117
000070 de 63 25 be a6 3a 36 be dc 67 ef bd d4 a0 9a 3b
       -0.16151378 -0.1779581 -0.116897315 0.0047188792
000080 eb 2b 5b be 9d 8a 4b be 18 41 0f 3e 9f 14 12 3d
       -0.21403472 -0.19877096 0.13989675 0.035664197
000090 78 b1 04 be ba 1a a8 3d ab 85 76 3e e7 b3 72 be
       -0.12958324 0.08208223 0.24074428 -0.2370144
0000a0 bd cc 0b 3e 21 70 e6 3d 4b 40 06 be ad 41 31 3e
       0.1365232 0.11251856 -0.13110463 0.1731021
0000b0 2b 7e 6c bc 06 a5 e1 bd 55 3a 43 3e 06 ed 45 3e
       -0.014434378 -0.11017804 0.1906522 0.19328699
0000c0 aa 38 33 be a0 de fd bc f4 06 6b bc 95 4d 3d 3e
       -0.17502084 -0.030989945 -0.0143449195 0.18486626
0000d0 a2 fb 0e be 08 d6 db 3d 85 81 47 3e ed 0e 04 be
       -0.13963178 0.107341826 0.19483002 -0.12896319
0000e0 b7 cb 34 bc a8 1f 87 bd 17 b1 5d 3e 64 36 32 be
       -0.0110348975 -0.06597835 0.21649586 -0.17403561
0000f0 be 6b c0 bd 1d 1a 94 bd d9 07 5a be a8 0e 2a 3e
       -0.0939555 -0.07231543 -0.21292056 0.16607153
000100 cc 06 1d 3e 93 70 47 3e 33 ae 29 3e f2 f8 c9 3d
       0.15334624 0.19476537 0.16570358 0.09861936
000110 fe f8 59 be 60 39 0f 3e 99 f9 28 be f4 e4 49 bd
       -0.21286389 0.1398673 -0.16501464 -0.049290612
000120 a3 ad 65 be 6f e9 55 be 37 ca 93 3d e8 60 60 3e
       -0.22429518 -0.20889829 0.07216304 0.21911967
000130 23 b4 e1 3d 91 ec 2e be 2d d3 34 3e e8 1a ff 3c
       0.110206865 -0.1708243 0.17658682 0.03114076
000140 d7 ff 4c 3e 26 0a 9d 3d 2b 0f 60 be 68 ad 1a bd
       0.2001947 0.07667951 -0.21880786 -0.03776303
000150 bb 61 f8 bd 28 d5 6e 3e 9b d6 67 3e 32 3b 3d be
       -0.121280156 0.233235 0.22640459 -0.18479612
000160 97 18 17 bd 2a 6f 1d bd 63 c4 6a be 60 8d 61 3d
       -0.036888685 -0.038436092 -0.22926478 0.055066466
000170 fd df 03 be b9 f3 16 3d 55 91 fc 3b 26 16 01 bd
       -0.12878413 0.036853526 0.0077077546 -0.031515263
000180 58 0d c5 3d d6 b2 54 be 31 95 2a 3c 11 cb dc 3d
       0.09621686 -0.20771345 0.010411547 0.10780919
000190 a5 c4 8b bc e9 5b 31 be 8b 3c 54 be ae 7b 11 3e
       -0.01706154 -0.17320217 -0.2072622 0.14207336
0001a0 70 44 26 3e 96 d1 31 3e 4e bc e0 bd 0c 82 1a 3d
       0.16237044 0.17365107 -0.10973416 0.03772168
0001b0 95 6a 0b 3e c9 20 e7 3c 90 a9 7a 3e b8 93 16 be
       0.13614877 0.028213875 0.24478745 -0.14704788
0001c0 7e 35 33 be 63 1e 9d 3d 2f d6 a5 3d 91 e1 4d be
       -0.17500874 0.076718114 0.08097493 -0.20105578
0001d0 cf f4 f2 3d e4 f6 06 be 11 b6 c1 3d 74 f9 29 be
       0.118631 -0.13180119 0.094585545 -0.16599065
0001e0 ef 1c 0b bd a6 8e 39 be 56 8f b3 3d de 24 ff bd
       -0.03396314 -0.18120822 0.087675735 -0.12458204
0001f0 c2 c7 03 be 1d 41 4b 3e 3d 92 66 bd c9 c3 58 3e
       -0.1286917 0.19849057 -0.056291807 0.21168436
000200 3a 1b 92 3d 0d fb 4b be 96 e2 77 be 7f b4 4c bd
       0.07134099 -0.19919987 -0.2420753 -0.049976822
000210 b2 7c 4d 3e 62 36 34 be 2d e5 5e be 9a ce 0c be
       0.20067099 -0.1759887 -0.21767111 -0.13750687
000220 dd d3 34 3e 3b 6e a5 3d bb e1 d7 bd 30 8b f9 3c
       0.17658944 0.080776654 -0.105411015 0.030461878
000230 2f f5 09 bd 06 02 9f 3c cb f4 27 bd a6 62 8f bd
       -0.03368109 0.019410145 -0.041004937 -0.070012376
000240 5f b6 43 be a0 6b 5a be 32 e3 59 be 7d 53 48 be
       -0.19112538 -0.21330118 -0.21278074 -0.19563098
000250 c8 9b 1e 3e 66 45 46 3e fd 4b b8 3d e8 d0 1a 3e
       0.15489113 0.19362411 0.089988686 0.15118754
000260 76 48 0c be 16 00 30 be af c8 3a 3e 12 83 4e be
       -0.13699517 -0.17187533 0.18240617 -0.20167187
000270 97 a6 23 3e ca 8b 63 bc c9 3b 2c 3b 93 37 72 bd
       0.15981518 -0.013888309 0.0026280752 -0.05913503
000280 21 3c 5d 3e 9b e6 2f be 2f ea 3c be 86 b2 2a 3e
       0.21604969 -0.17177813 -0.18448709 0.16669664
000290 31 dd 31 3e 70 1b 5d 3e b8 cd 3f 3e 8d d7 6d be
       0.17369534 0.21592498 0.18730819 -0.23226757
0002a0 bf 28 a3 bc e5 b1 2b be f7 4d 3a 3b f4 5c b3 3d
       -0.01991689 -0.1676708 0.0028427818 0.08757964
0002b0 14 53 c3 3d d6 3e 11 be f6 65 e5 3b aa de bf bd
       0.0953733 -0.14184126 0.00700068 -0.09368642
0002c0 62 14 09 bb 28 ee b1 bd 3a c2 5b 3e 77 67 48 3d
       -0.002091669 -0.08688003 0.2146081 0.048926797
0002d0 41 3c fc bd 50 f3 12 3e 48 97 59 be 9f eb d0 bd
       -0.1231618 0.14350629 -0.21249115 -0.10201191
0002e0 59 76 5a 3d 67 35 18 3e 3c f3 3f bd ff bd 2e be
       0.05333552 0.14864121 -0.046862826 -0.17064665
0002f0 75 43 a1 bd c4 13 40 be 19 dc cc 3d 9e 8d 29 be
       -0.078741945 -0.1875754 0.10002918 -0.16557929
000300 c4 52 f4 3d 1c 9c 52 bd 04 77 e5 bd 03 47 44 3e
       0.11929849 -0.05141841 -0.11204341 0.19167714
000310 7f 31 35 be ce 95 f9 3d 69 ff 0d 3d 51 cd 5b 3e
       -0.17694663 0.12186776 0.034667406 0.2146504
000320 c4 33 41 be de e1 57 3e 31 84 0f 3c 61 f7 b8 bd
       -0.18867403 0.21082255 0.008759544 -0.09031559
000330 cd af 79 3d 0f f5 6e be d5 96 f5 3d 83 08 02 bd
       0.060958672 -0.2333567 0.119916596 -0.0317464
000340 fe 4e 80 3d 56 db 81 3d f4 f1 1f 3e d5 ea fa bd
       0.062650666 0.06340663 0.15619642 -0.12251822
000350 1c 5b 1e bd d8 38 22 be c8 15 8b 3d 9c 6c c3 bd
       -0.038661107 -0.15841997 0.06791264 -0.095422
000360 6f ba ba 3d 53 ae d2 bc 0a 0a 35 3d 39 96 0d be
       0.09117591 -0.02571789 0.044199027 -0.13826837
000370 fb be e4 3d 32 d7 80 3e 03 48 8d 3d 16 f6 4f 3e
       0.11169239 0.2516418 0.06898501 0.20308718
000380 74 c4 6f 3e 5a e6 d0 bd 65 75 52 3c 21 8a 43 3d
       0.23414785 -0.10200186 0.012845372 0.047739152
000390 33 68 16 bd 55 03 97 3d cc 88 2d be bb fb 8d 3d
       -0.036720466 0.073736824 -0.16946715 0.069327794
0003a0 10 89 25 3e 1e d5 06 3d 65 f4 67 3e d1 76 63 3d
       0.16165566 0.03291809 0.22651823 0.055533234
0003b0 56 7f 6e be 66 c2 72 3d 4c 52 15 3d cb 21 da 3d
       -0.23290762 0.059267424 0.036455438 0.10650977
0003c0 59 bb ea 3d 2b 3b 46 3e d8 26 31 3d 47 30 80 be
       0.11461515 0.19358508 0.043249935 -0.25036833
0003d0 64 22 a9 bd df cb 2d be 9e 9a 46 3e df 67 f4 3d
       -0.082585126 -0.16972302 0.1939492 0.11933874
0003e0 89 ff f9 bc e9 af 52 be 05 a0 71 bd 67 a8 2f 3e
       -0.030517356 -0.20574917 -0.058990497 0.17154084
0003f0 67 45 b7 bc 56 09 16 be f9 e9 ef 3d 69 cb bb bc
       -0.02237196 -0.14651999 0.117145486 -0.022924142

2.weight f4 [256, 256]
000000 69 ec 37 3d 8f b9 6c 3d 9e b5 32 3d 2f 19 4a bc
       0.044903193 0.05779415 0.043630235 -0.012335106
000010 13 a5 27 bc 23 b0 38 bd 7a 5c 40 3d 0e e2 2c 3d
       -0.010232228 -0.045089852 0.046963193 0.04220777
000020 8e 2e 23 bb e9 a7 30 bc 5f da ed bc 6d 78 38 3d
       -0.0024899575 -0.01078222 -0.029034792 0.045036722
000030 9b 69 47 bd 56 66 5f 3d a0 5d 4c bd c0 38 27 bd
       -0.048684698 0.054540955 -0.049893975 -0.040825605
000040 47 87 40 bd ba 68 3b 3d 10 20 e6 3a 23 80 e6 3c
       -0.04700401 0.045754172 0.0017557163 0.028137272
000050 67 27 20 3d 86 5a ea 3b b4 31 84 bb 61 f8 e2 bc
       0.039100077 0.0071519045 -0.0040342454 -0.027706327
000060 b4 22 a3 3c 52 d4 1e 3d e3 b9 e1 3c 13 72 c7 3a
       0.019914009 0.038776703 0.027554458 0.0015216492
000070 57 f7 ea 3b ce 88 93 bd de 88 58 3d e3 6c 42 b8
       0.0071705985 -0.07203828 0.0528649 -4.6354613e-05
000080 b9 d6 23 3d 9e f6 19 bd 8d 02 56 bc cc 1f 77 bd
       0.039999697 -0.037588708 -0.013062132 -0.06033306
000090 e1 a5 06 3d 71 eb 7c 3d c8 ae 34 3d fe 82 40 3d
       0.03287304 0.061747972 0.044111997 0.046999924
0000a0 7d 04 59 3c 97 0a ee 3c 7d 8c 0a 3d c5 34 70 3d
       0.013245699 0.029057784 0.033825386 0.058644075
0000b0 32 14 6f bd b5 79 f8 bc 99 2a 8d 3c 7e 37 0f bd
       -0.05836887 -0.030331472 0.017232226 -0.03496503
0000c0 57 0b 67 3c 48 34 0f bd dd be 14 bc ff 08 f0 3c
       0.014101825 -0.03496197 -0.0090787085 0.029301165
0000d0 12 b9 b0 bc 3e 19 73 3c 77 89 57 bd d6 2e 0f 3d
       -0.021572623 0.014837561 -0.05262133 0.034956776
0000e0 c6 e5 81 bd 15 01 bd 3c 61 14 8e 3d fc db 2d 3d
       -0.06342654 0.023071805 0.06937481 0.04244612
0000f0 d9 9c 8c bd c6 9f 9a bc a8 c6 6c 3c 57 1e 90 bd
       -0.06865854 -0.018875014 0.01445166 -0.07037037
000100 4b e1 64 bd 77 03 35 bb 85 22 48 3d a6 95 48 bb
       -0.05587892 -0.0027620473 0.048861045 -0.0030606776
000110 14 8e 33 3d 59 be 9c 3c f3 0d 19 bc 42 28 38 bd
       0.043836668 0.019133734 -0.009341705 -0.044960268
000120 8f fc f7 3c 15 f7 4e bc 27 de 28 3d d5 3f 9f 39
       0.030271797 -0.012632151 0.041227486 0.00030374402
000130 ba 78 e3 3c a2 72 dd 3c 6e 15 3c 3d 0a 81 10 3d
       0.027767528 0.0270322 0.045918874 0.03527931
000140 0a d2 c2 3c 27 06 3d 3c 7f 5f 89 bb 0c 90 dd 3c
       0.023781795 0.011537111 -0.004192292 0.027046226
000150 3b a3 51 3d 9a 72 11 bd d1 9f 25 3d 09 9d a9 3b
       0.05118106 -0.035509683 0.040435616 0.0051761908
000160 74 b6 1b bd 0c 21 0b 3d 84 26 30 3d 69 29 8f bd
       -0.038015798 0.033967063 0.04300548 -0.0699032
000170 8a 40 f3 ba a4 19 37 3d 84 31 28 3d ea 9c 1b 3d
       -0.0018558663 0.044702187 0.041062847 0.03799144
000180 5f e4 cc 3c 1b a3 2b bc ea d0 82 3d 15 42 2b bd
       0.02501124 -0.010475899 0.063875034 -0.041811068
000190 d8 b9 07 bd 9a f2 a6 bc f2 80 00 3d 85 f5 2c bd
       -0.03313622 -0.020379353 0.03137297 -0.042226333
0001a0 f9 4d f6 bc 58 42 bc 38 3a a6 77 bd 9f df 88 bd
       -0.030066477 8.976896e-05 -0.06046126 -0.06683277
0001b0 38 0e e0 3c eb 4d 9f 3c d7 59 3d bc 3d 1c 8f 3c
       0.02735053 0.019446334 -0.011557064 0.01746952
0001c0 34 dd ff 3c 62 b9 95 3d 38 30 19 bd df d0 80 3d
       0.031233408 0.073107496 -0.0373995 0.06289839
0001d0 ef 9a 4e 3d 95 d9 6d 3d 22 7f 3d bd 7c 0b 9e 3c
       0.050440725 0.05806883 -0.04626382 0.019292586
0001e0 da dd 8c bc 1f 0f 2f bd bb 43 ec bc bb b7 21 3d
       -0.01719563 -0.04273903 -0.02884089 0.03948186
0001f0 bc 96 3d bd 89 e7 44 3c bd 6e 22 bd 95 d5 5b 3d
       -0.04628633 0.012018093 -0.03965639 0.053670485
000200 1b 11 81 bb 5c 82 32 3d b8 e1 8f bc 7e 30 36 bd
       -0.0039388067 0.04358135 -0.017563686 -0.04447984
000210 28 16 fc bc 25 25 93 bd 94 ab 1e bd 9f ba e3 3c
       -0.030772284 -0.07184819 -0.03873785 0.027798949
000220 82 8f 09 bd b6 b7 a9 bc d3 37 a8 b8 43 8f 5c 3d
       -0.033584125 -0.020717483 -8.021262e-05 0.053847563
000230 24 05 4a bd 8f 4e 0b 3d 3e 8c 2d 3c a0 37 51 3d
       -0.04932131 0.034010466 0.010592518 0.05107844
000240 12 8b 29 bd 84 33 06 3a 14 36 e7 bb 79 85 18 bb
       -0.041392393 0.0005119371 -0.007056007 -0.0023272915
000250 65 62 fa bc 80 e6 1c bd d6 4c 29 bd 05 f8 25 3d
       -0.030564496 -0.03830576 -0.041333042 0.040519733
000260 70 99 05 bd 4a a5 c2 bc d3 18 04 3c a2 b0 20 bd
       -0.032617033 -0.023760457 0.008062559 -0.03923095
000270 a5 2e 88 bc a1 a5 32 3d 21 7c 4c bc 4e 5e 05 bc
       -0.016623804 0.043614987 -0.0124807665 -0.00814016
000280 6e 38 17 3d c0 6b d3 bc c5 38 ee bc 0f 62 bf bc
       0.03691905 -0.025808215 -0.029079804 -0.023362188
000290 40 53 15 bd 7b 00 a9 bc 46 bc 67 bc f1 c5 39 3d
       -0.036456347 -0.020630112 -0.014144009 0.045354787
0002a0 13 27 3b 3d 49 c5 00 bc d5 72 29 bc e2 34 02 bd
       0.04569156 -0.007859536 -0.0103423195 -0.031788714
0002b0 53 16 50 3d da ac 10 3d 52 ee 94 bb bb c4 90 3d
       0.05080254 0.035321094 -0.0045450116 0.07068773
0002c0 af 74 86 bd d9 1b 97 3c 7d 88 67 bd 12 8d be 3b
       -0.065652244 0.018445896 -0.05652665 0.0058151567
0002d0 50 17 bd bb b7 7d 86 bc 57 a9 8f 3c cd 6b 45 3c
       -0.0057706013 -0.016417367 0.017536802 0.0120496275
0002e0 fa b2 9e bc 76 d6 01 3d fc 7b 09 3c 73 89 dd 3c
       -0.019372452 0.031698667 0.008391377 0.02704308
0002f0 6e 1d 78 3d 2f 23 0a 3d ff 6b 84 bd 24 b2 09 ba
       0.06057494 0.03372496 -0.06465911 -0.000525268
000300 40 76 1e 3d 62 f4 14 bd 29 ee ca bc 1f 05 15 bd
       0.03868699 -0.036365874 -0.024771767 -0.036381837
000310 a3 3b 97 3b 39 3f 1a 3c 1c 33 6a bd 8d 72 5c 3d
       0.0046152635 0.0094144875 -0.057177648 0.05382018
000320 05 db 02 3c d8 c7 65 bd 21 5a 59 bd fc 1d 65 bc
       0.007986789 -0.05609879 -0.05306447 -0.0139842
000330 b6 55 4b bd 4c 66 62 bd 12 8b 3e bc f4 2a 19 3d
       -0.049642287 -0.05527334 -0.011629837 0.03739448
000340 88 bf 1f 3d a8 d8 72 bc 69 07 32 3d 16 7b 18 bd
       0.039001018 -0.014822163 0.043464098 -0.03722676
000350 58 16 02 bd 8d 27 c2 3b e5 80 3c 3d 36 f4 1c 3d
       -0.03175959 0.005925125 0.04602136 0.038318835
000360 61 a1 cc 3c 42 38 39 bd 5f f2 14 bd 59 9b b4 3c
       0.024979295 -0.045219667 -0.036363956 0.022046732
000370 8a f8 7b 3d 6b d1 2b 3d 4b 83 2c 3b d8 fc 10 bc
       0.061516322 0.041947763 0.0026323374 -0.008849345
000380 7d 61 19 3d 53 2d 9f 3c 2a 9f 30 bd a7 cd e9 bc
       0.037446488 0.019430792 -0.04312054 -0.028540445
000390 44 e0 8e 3d d3 4d 76 bd c2 1b 75 bd 0c cc a2 3b
       0.06976369 -0.060132813 -0.059840925 0.004968172
0003a0 c2 c2 84 3c eb ca c8 bb fc 5d 13 bc 95 b4 6f 3b
       0.016206149 -0.0061277053 -0.008994576 0.003657614
0003b0 bc 03 e3 3c 8c dd 78 3b 19 b6 f8 3b f1 fd 87 3c
       0.027711742 0.003797385 0.007590067 0.01660058
0003c0 2f 02 45 3c fd 1f 1b 3d 2d 8c 9e 3d 9a 5e 09 3d
       0.012024446 0.037872303 0.0774158 0.033537485
0003d0 4e c0 16 3d 27 81 db 3c 04 23 d4 bb e4 ad 9c bc
       0.03680449 0.026794983 -0.0064739008 -0.019125886
0003e0 9d 1a 88 3c 8b 5e 49 bd 19 1c e5 bb 0c 5a ec bc
       0.016614253 -0.04916243 -0.006991875 -0.028851531
0003f0 17 2d ae 3a b9 4c 7d 3d 79 41 3f 3c fb 07 3a 3d
       0.0013288584 0.061840747 0.011673325 0.045417767

2.bias f4 [256]
000000 8c 77 54 bd 35 fd df 3c dd 6b 1d 3c c1 0d a1 bd
       -0.05187182 0.027342418 0.009608236 -0.078639515
000010 16 78 2a bd 5c d7 43 bc c2 d3 56 3c 4f d5 3a 3b
       -0.04161843 -0.011953201 0.01311201 0.002850849
000020 c1 5d 80 bd 85 4d 13 bd 21 4c 03 3d 86 fb 5e bd
       -0.06267882 -0.0359626 0.032055024 -0.05443909
000030 7b 50 aa 3c c8 2b 04 bd 00 26 04 3d 58 95 45 bd
       0.02079033 -0.032268316 0.032262802 -0.04823813
000040 53 14 c5 bc 9f e1 90 bd ba 5b e4 3a 33 16 8d 3c
       -0.024057543 -0.07074284 0.0017422356 0.0172225
000050 06 4d 38 3d 04 07 5d 3d 77 36 3c 3d 7f 0a 09 bc
       0.04499533 0.05396177 0.04595038 -0.008364319
000060 8d ce 36 bd 61 0f 34 bc a4 16 08 bd 68 8e 30 3c
       -0.044630576 -0.010989995 -0.033224717 0.01077614
000070 7c b8 e1 bc b0 f0 c1 bc b3 58 08 bd 3b 07 1d 3d
       -0.02755379 -0.023674339 -0.033287715 0.038336974
000080 30 7c 5a 3c 32 ef 2d 3d 3c 51 ef bc ae 5f a8 3c
       0.013335273 0.042464443 -0.02921354 0.020553436
000090 f0 06 07 3d 94 3f 23 3d 67 41 79 bd ce 7d 20 3d
       0.0329656 0.039855555 -0.06085339 0.039182477
0000a0 ca 11 92 3c 17 48 48 bd 06 06 78 3d 72 d3 a0 3c
       0.017830748 -0.048896875 0.06055262 0.019632075
0000b0 19 d3 87 3d 6d 76 09 3d f0 44 7b 3d ff 31 ca 3c
       0.066320606 0.033560205 0.06134504 0.024682043
0000c0 80 b9 f7 bc 8e a6 04 bd df 4c 40 3d 1b a1 77 bd
       -0.03023982 -0.0323854 0.04694831 -0.060456377
0000d0 a3 be cf 3b 00 56 77 bd 48 aa 09 3d a5 c1 37 bd
       0.0063398643 -0.06038475 0.03360966 -0.04486241
0000e0 83 7b 80 3d 91 dd 91 bc b3 a4 20 bd b5 d2 cc 3c
       0.06273558 -0.017805846 -0.03921957 0.025002817
0000f0 f5 29 a0 3c 31 11 1f 3d ee 93 32 3d 14 d5 67 bd
       0.019551257 0.038834754 0.043598108 -0.05659969
000100 53 19 9c 3c c7 68 00 3d 6e be 59 bc 7b 28 c6 3c
       0.019055044 0.031349923 -0.013290031 0.024189224
000110 7c c0 64 3d 7d 0d 3b 3d cd 07 99 3d 4a 80 6b bd
       0.05584763 0.04566716 0.07472191 -0.057495393
000120 dd ac f3 bc 9b 1e 44 3d 4f a4 20 bd eb 6c 30 3d
       -0.029745514 0.04788075 -0.039219197 0.043072622
000130 14 d0 44 bd 03 81 23 3c 2e a5 3a 3d e7 f9 9d 3c
       -0.04805 0.009979489 0.045567684 0.019284202
000140 de 14 f4 bc 4a 0f 5e 3a bd 5e 3b 3d 78 1d 8a 3d
       -0.029795107 0.0008470906 0.045744646 0.06743902
000150 26 5b 0a bd 1c 3b 89 bb 66 c9 09 3d 55 13 d9 3c
       -0.033778332 -0.0041879546 0.033639334 0.026498476
000160 1e 93 5d 3d b2 e3 0b bc 24 de 14 bd c6 13 f4 bc
       0.05409538 -0.0085381735 -0.036344662 -0.029794585
000170 da 06 18 bd 40 f3 3e bd 3c a5 a3 3a 7e d8 e2 3b
       -0.03711591 -0.0466187 0.0012485157 0.0069227805
000180 ad d6 93 3c 72 d0 75 3d 75 66 8b 3b 28 18 31 3d
       0.018046701 0.060013242 0.004254157 0.043235928
000190 d8 5e 23 3c af 72 ec 3c 8c 39 12 bc d9 c7 8b bd
       0.009971343 0.02886328 -0.008924853 -0.06825227
0001a0 8e 00 14 3d bf f9 57 bd 99 58 38 3d 94 73 e3 3a
       0.03613334 -0.05272841 0.04500637 0.001735317
0001b0 1a bd 56 3d ef ed 5d 3c c5 94 6e 3d 05 46 61 bc
       0.052426435 0.013545497 0.058247346 -0.013749604
0001c0 79 66 28 bd 8b a8 03 3d bd a9 43 bd b9 8c 1d 36
       -0.04111335 0.032143157 -0.047769297 2.3476734e-06
0001d0 14 14 0b bd a2 33 f6 bc 59 09 34 3d f7 8c e8 3c
       -0.033954695 -0.030053917 0.043954227 0.02838753
0001e0 7f 2e 20 3c 87 81 11 3d 9c 18 15 bd d3 f0 ee bc
       0.0097767105 0.035523918 -0.036400422 -0.029167568
0001f0 20 5f 3e 3b c5 1d 81 bd 9d 7b f3 3c f2 42 80 bb
       0.0029048398 -0.06304506 0.02972203 -0.0039142305
000200 d6 cd 18 3d 3a db 48 bd 45 24 6b 3d 25 a2 b9 ba
       0.037305675 -0.049037196 0.057407636 -0.0014162703
000210 e7 75 da bc 13 23 a9 bc 66 55 0e bd f3 a4 b5 3c
       -0.026667548 -0.020646608 -0.03474941 0.02217338
000220 03 07 a5 ba 09 7f 31 bd 9f 9c 62 3c 77 5d 33 bd
       -0.0012590591 -0.04333404 0.013831287 -0.043790307
000230 a0 8c 43 3d 7f fb 65 bd f9 e1 1a 3c 68 e4 80 3c
       0.047741532 -0.05614805 0.00945329 0.015733913
000240 ca e0 59 3c 55 0d f3 bc c7 be d6 bc d4 a5 24 bd
       0.013298223 -0.029669443 -0.026214017 -0.04019721
000250 ab 72 85 39 eb e1 d4 bc d0 d2 52 3c 90 9e 9d bc
       0.0002545317 -0.025986632 0.012867644 -0.019240648
000260 58 35 1b 3d cf 4f 19 3d 5f 2f b7 3c 9b 63 1a bd
       0.03789267 0.037429627 0.022361455 -0.037692647
000270 8c b5 26 bc 6e 1d 75 3d 34 4e 63 bd 4b 8e 6c 3d
       -0.01017512 0.05984252 -0.055494502 0.05775289
000280 ba 3f 29 bd fd 03 c0 3c 33 09 1f 3d ca e7 2d bd
       -0.04132054 0.023439402 0.038827132 -0.04245738
000290 39 92 0d bd 4c f5 42 3c ba 91 b2 3c 14 ad 17 bd
       -0.034563277 0.011899304 0.021798003 -0.037030295
0002a0 31 3e 11 ba c5 27 b9 bc ce 75 32 bc ab 47 03 3d
       -0.0005540578 -0.022601971 -0.010892345 0.03205077
0002b0 3f ca 01 3c 99 77 66 3c 91 9e bd 3c 5d 27 13 3d
       0.007921754 0.0140666 0.0231469 0.03592621
0002c0 33 a9 9b 3d 88 89 54 3d 2b 07 aa bc f7 ae 6f bd
       0.076006316 0.051888973 -0.020755371 -0.05851647
0002d0 aa f2 87 3c 78 9d 0a 3d e8 5a 27 3c bb 07 19 3b
       0.016595203 0.03384158 0.010214545 0.0023350555
0002e0 eb 23 05 3d 0a 96 08 3d 4f 06 26 3c 8e 8d 5f bc
       0.032504957 0.033346213 0.01013334 -0.013644589
0002f0 15 47 48 3d 42 6b 87 bd 61 0d 66 3d 69 22 d5 bc
       0.048895914 -0.06612255 0.056165103 -0.026017385
000300 61 84 74 bc 6d e2 bf 3c 7c 58 68 3d f1 3b 10 bd
       -0.01492414 0.023423398 0.05672501 -0.035213415
000310 a4 68 8e bd f3 9a 06 bd eb 10 18 bd 28 4b 02 3d
       -0.06953552 -0.032862615 -0.03712551 0.031809956
000320 ac 0c ce 3a 09 5c c9 3c 45 72 cd 3c 0c 36 a5 bc
       0.0015720329 0.024580019 0.025078902 -0.020167373
000330 fd 66 ac bb 03 68 95 bd 11 e0 75 3c 49 6f 90 3c
       -0.0052613006 -0.07295229 0.015007035 0.01763119
000340 a1 a7 84 3c 6f c2 cc 3b 82 f7 b6 3c 90 f3 5c 3d
       0.016193213 0.006248764 0.022334818 0.053943217
000350 6b 03 8b 3c 08 e3 06 3c 93 e2 40 bd 75 58 8a 3d
       0.016969403 0.008232839 -0.047091078 0.06755153
000360 57 87 00 3c e0 35 b0 3a 29 14 03 bd 89 39 85 bc
       0.0078447675 0.001344379 -0.032001648 -0.016262786
000370 1b 37 01 bd 6c 83 13 bd 14 6b e4 3c c7 27 8f ba
       -0.031546693 -0.036014006 0.02788309 -0.0010921889
000380 c2 0c 68 3d 60 5e 1d 3d f8 81 54 bc 9e f7 15 3d
       0.05665279 0.03842008 -0.01297044 0.0366131
000390 02 d7 83 3d bd 1b 6c 3d 0e 7a a5 b8 f6 52 ba bc
       0.06437494 0.05764364 -7.8905476e-05 -0.022744637
0003a0 f9 68 29 3b 43 d1 7d bd 4c 45 67 3d 32 41 14 bc
       0.0025849922 -0.061967146 0.05646257 -0.009048747
0003b0 c8 21 0a bd 06 9e 93 bd c5 68 92 bc f6 d0 c1 3c
       -0.033723623 -0.07207875 -0.017872224 0.02365921
0003c0 65 54 2f 3d 0e 73 4d bc 73 7d 9f bc 80 59 16 3d
       0.042805094 -0.012539638 -0.019468999 0.036706448
0003d0 9f 0f 64 bd ca c1 64 3d 54 e5 4c 3d aa 52 d1 bc
       -0.05567896 0.055848874 0.05002339 -0.025552113
0003e0 40 c1 94 3c 50 90 ef 3c 00 c7 c6 3b c6 c0 ea bb
       0.018158555 0.029243618 0.006066203 -0.0071640937
0003f0 f4 90 50 3d 5c d7 72 3c 14 b5 92 3c fb d3 40 3d
       0.050919488 0.0148218535 0.01790861 0.04707716

4.weight f4 [2, 256]
000000 94 0d cd 3c 4c 75 08 3d c6 96 1c 3d dd fe 57 3d
       0.025030889 0.033314988 0.038229726 0.05273329
000010 bf 9f 4d bd 4e b3 d8 bc d2 2b 24 3c 20 5a 64 bd
       -0.050201174 -0.026452687 0.010020213 -0.055750012
000020 a4 d8 7c bd bc cc b7 bc 44 e8 41 bd fb 6c 2c bd
       -0.061730042 -0.022436492 -0.047340646 -0.04209612
000030 4a 92 87 bb 94 ad 74 3c 8c 75 3b 3c f9 71 b8 ba
       -0.004137312 0.014933962 0.0114416 -0.0014072052
000040 e2 60 98 3d 31 70 cc bc 80 f1 1e ba 00 db a1 bc
       0.07440354 -0.02495584 -0.0006063208 -0.019757748
000050 67 24 d8 b9 1f ce 63 3d cb 0d 93 bd 4b d0 f2 3c
       -0.00041225852 0.055616494 -0.07180365 0.029640337
000060 d6 8c 05 3d 73 60 5b 3d e8 22 01 bc d9 7c a8 3c
       0.032605015 0.053558778 -0.007881857 0.020567345
000070 71 00 25 bd 07 c6 50 bd 5d 94 06 bd 6c 7e db 3c
       -0.040283624 -0.050970104 -0.032856334 0.026793681
000080 cc 54 0a 3b 4f dc 46 bc 18 ad 68 3c fa 2e 3a 3b
       0.0021107672 -0.012137487 0.014201425 0.0028409348
000090 94 39 6b bd 62 a2 a2 bd e3 46 32 bd ca df 14 bd
       -0.057427958 -0.07941128 -0.043524634 -0.036346234
0000a0 99 2d 77 bc 7e 96 06 bd 77 02 53 3c a3 78 05 bd
       -0.015086555 -0.032858364 0.012879006 -0.03258575
0000b0 54 fd 34 3d 3b 2b ea ba 73 9f 35 3d 93 55 25 3c
       0.044186905 -0.0017865667 0.044341516 0.010091203
0000c0 4c 32 64 3d b9 d3 d3 bb 44 7d ad 3c 9b 49 ea 3c
       0.05571203 -0.0064644483 0.021177895 0.028599551
0000d0 2f 2c d4 bc ab 62 4c 3b b0 09 4a 3d 2a b4 88 bc
       -0.025899975 0.003118674 0.049325645 -0.016687471
0000e0 0a 4a 67 bd 15 2a e0 3c f2 be 59 bd 32 f5 a2 3d
       -0.056467094 0.027363816 -0.053160615 0.079569235
0000f0 16 22 3e bd bf b9 ab bd 0e 72 7f 3d b1 36 8b bd
       -0.046419226 -0.08385038 0.06236463 -0.06797541
000100 6e bc a5 bb 6f 59 60 bd 71 d5 92 bd f4 8c 0c bd
       -0.005057863 -0.05477279 -0.07169617 -0.03431411
000110 05 59 fd 3b ae e6 49 3d e9 4c 87 bb b3 72 63 3c
       0.007731559 0.04929226 -0.0041290415 0.013882327
000120 fe 98 33 bd 07 5a 31 3d e1 33 3f bd 21 ba c2 3c
       -0.043847077 0.043298747 -0.046680335 0.023770394
000130 72 a8 26 bc 36 6c 5c bd 3b ad 8a 3b 84 fb 32 3c
       -0.010171996 -0.053814135 0.0042320765 0.010924224
000140 da 5b 96 3c a2 c9 0e bd 34 20 85 bb 8d 79 2a 3c
       0.018354345 -0.03486026 -0.004062677 0.0104049565
000150 be 07 e1 3b c8 1b 02 bd b2 4e 2a 3d 8d ae 9f 3c
       0.006867378 -0.031764776 0.041578956 0.019492412
000160 2c e4 1b 3d 9d 18 08 bd 59 e5 5f bc 9e 0d 32 bd
       0.0380594 -0.033226598 -0.013665521 -0.043470018
000170 62 52 f3 bc 2b d9 9f 3c 69 24 ed bc a4 09 69 3d
       -0.02970237 0.019512733 -0.028948026 0.05689396
000180 9f ca 16 3d 01 2b 0c bd 39 66 38 bd 4e 55 80 3d
       0.03681433 -0.0342207 -0.045019362 0.062662706
000190 f8 85 49 3c 5f f6 1f bd 73 5c d5 3b 7d bb c2 bc
       0.012300007 -0.039053317 0.006511265 -0.023771042
0001a0 7c 65 46 3d 7e a6 4a 3d dc 94 e6 3b ed ac c7 3b
       0.048436627 0.049475186 0.0070367884 0.0060936124
0001b0 a1 be 78 3c cf 9b fe 3c 36 eb 86 bd 58 06 06 3d
       0.015182168 0.031080155 -0.06587832 0.032720894
0001c0 45 fe ca 3c 79 3f c2 bc bb b4 f2 bc bc e2 59 bb
       0.024779448 -0.023711907 -0.029627195 -0.0033246716
0001d0 4c 12 ea bc 75 9d 25 3d 6c e9 5b 3d 61 d5 6d bd
       -0.028573178 0.040433366 0.053689405 -0.058064822
0001e0 d8 8c c1 bc 30 2f 99 bb 18 14 9c bc 21 42 5a 3d
       -0.02362673 -0.0046748146 -0.01905255 0.05328572
0001f0 00 b1 3c bd 4f fa 65 3d 67 4a 4e bd a4 e4 3c 3c
       -0.046067238 0.056146916 -0.050363924 0.011529122
000200 62 da 3d 3d 15 65 3d 3c 6a c3 46 3d c3 af 96 3d
       0.046350844 0.011559744 0.048526205 0.07357743
000210 5d 3a df 3b 52 47 3e bd 51 f5 5c 3b 5e 07 fd 3c
       0.0068123774 -0.046454735 0.0033715556 0.030887302
000220 45 d5 79 3d a0 14 4e bc ec 89 2b 3c 2e 04 2d bd
       0.060994405 -0.01257816 0.010469895 -0.042240314
000230 46 6c 02 3d 2f a7 83 ba 65 57 c9 bb 66 7c c8 bc
       0.03184154 -0.0010044331 -0.0061444514 -0.02447338
000240 c7 a4 84 bd 9c f8 98 bd 91 64 94 bd b3 bd 3b 3d
       -0.06476741 -0.074692935 -0.07245744 0.04583521
000250 7b a2 8a bc ff 4d 95 3d 62 65 24 3d 51 6a 24 3c
       -0.01692318 0.07290267 0.04013575 0.010035113
000260 c2 16 01 3d 10 c7 7a bd 71 6f d9 bc 9d 09 d6 bb
       0.031515844 -0.061224997 -0.026542397 -0.0065319077
000270 67 e6 df 3c a8 fe 07 bd cc 0d b3 3c 56 56 fb bc
       0.027331544 -0.033201844 0.021857165 -0.030680817
000280 50 fb 2c bd e2 10 d9 3c 5e ef 4c bd 8f ff b6 bc
       -0.042231858 0.026497308 -0.050032966 -0.022338657
000290 02 e4 87 bc dd cb bd 3c 56 26 2b bd 46 cd c6 bc
       -0.016588215 0.023168499 -0.041784607 -0.024267804
0002a0 3a cf 85 3d 79 94 ec bc 16 52 02 bc fc 72 96 3d
       0.06533666 -0.028879391 -0.007954141 0.0734615
0002b0 f6 c4 32 bd 1c d8 72 bd be 4b 3d bd 93 6b df 3c
       -0.043644868 -0.05928813 -0.04621481 0.027272975
0002c0 a3 76 25 bd 42 e7 73 bd ce 02 2f bc 73 6b f2 3c
       -0.040396344 -0.059546717 -0.010681821 0.029592251
0002d0 0d 4c 00 3d de 40 72 bd 5a 44 96 bc ec 7b 7d bc
       0.031322528 -0.059143893 -0.01834314 -0.01547144
0002e0 df 89 6b bd 9e a8 23 3d 85 f2 6a 3c 31 ed 4c 3d
       -0.05750453 0.039955728 0.014340048 0.05003089
0002f0 b0 b1 87 3d e1 6a c5 bc d9 45 01 bd d1 24 2f bd
       0.06625688 -0.024098815 -0.031560753 -0.04275972
000300 77 ba 9d bc 22 2b 9c bc e2 ca 30 bb c3 07 ef 3b
       -0.019253952 -0.019063536 -0.0026976396 0.0072946264
000310 16 3e 93 3c f9 5b 67 3a 09 7d a6 3c 4d d0 f6 3c
       0.01797394 0.00088256557 0.020323293 0.030128622
000320 35 e5 e7 3c 38 ca 34 bd be 2c 10 3d 9c ba 47 bc
       0.028307537 -0.044138163 0.03519892 -0.012190487
000330 3b c0 8f b9 85 0d e4 3c ba b5 a4 bb 4e ec 00 3d
       -0.00027418308 0.027838478 -0.0050265463 0.031475358
000340 e5 78 9f bc 33 be 14 3d f9 cd 5d 3c 01 59 31 bd
       -0.019466827 0.0363142 0.013537877 -0.04329777
000350 2e 95 27 3d d1 56 b9 3c 60 2f a1 3d e8 c3 6e 3c
       0.040913753 0.022624405 0.07870364 0.014573075
000360 84 1e 27 bd ed 6d 7f 3c b8 95 1b 3d 5e 95 23 bd
       -0.040800586 0.015590173 0.03798458 -0.03993737
000370 9f f2 97 3c bb a0 f0 bc a9 78 8a 3d e1 c7 3b bd
       0.018548308 -0.029373517 0.06761295 -0.045844916
000380 2a 09 03 bd c9 ed 45 bd 54 f2 26 bd 48 96 dc bc
       -0.03199116 -0.048322473 -0.040758446 -0.026927128
000390 01 d0 31 bd 53 7e 39 3d a9 e6 18 3d 90 2e 0b 3d
       -0.04341126 0.045286488 0.03732935 0.033979952
0003a0 25 03 bf 3d e1 ef 5e 3c 72 db 8d bd 2c ff 33 3d
       0.09326772 0.013606996 -0.069266215 0.043944523
0003b0 5a fd f4 3c f9 9c 0e 3d 47 fc 9b bc 3d f3 af bb
       0.029905964 0.03481767 -0.019041194 -0.0053695724
0003c0 db 8c 97 bc 7d c1 d3 bb c0 25 b6 bc 61 2b c9 bb
       -0.018499782 -0.0064622746 -0.022234797 -0.0061392044
0003d0 28 10 3a bd e6 91 f1 bc 62 15 c2 bc 9d 38 c0 bb
       -0.045425564 -0.029488515 -0.023691837 -0.005866124
0003e0 f7 a0 42 3d 00 bd bc bd 0a 00 ad bd bf 89 ac bc
       0.04751679 -0.092157364 -0.08447273 -0.021061776
0003f0 a7 f6 0f bc cb 61 6f bc d4 26 89 3b 65 29 d6 bc
       -0.008786834 -0.014610718 0.004185537 -0.026142785

4.bias f4 [2]
000000 b1 e2 aa bc f8 c2 bb 3c
       -0.020860048 0.022920117

exp_avg f4 [256, 4]
000000 64 fb 89 bb ec 24 40 ba 03 f1 05 39 24 db 4f 39
       -0.0042108763 -0.00073297205 0.00012773652 0.00019822695
000010 db 47 ae ba fe 05 ba 38 83 02 33 38 b0 09 12 b8
       -0.0013296561 8.870287e-05 4.2679265e-05 -3.4818135e-05
000020 95 72 d4 ba e6 ab 98 b9 b7 43 e8 b7 d4 2e 8c 38
       -0.0016208465 -0.00029119774 -2.7688087e-05 6.6844426e-05
000030 3d d8 04 3a 1e fa 6d b9 99 fa c6 b7 f2 85 d8 38
       0.00050676224 -0.00022695257 -2.3720133e-05 0.00010324632
000040 b1 e8 68 3a 19 67 ba b8 45 86 21 b8 8a e2 10 38
       0.00088847714 -8.8883746e-05 -3.851044e-05 3.4543256e-05
000050 2c 28 d1 ba 1b ca 62 39 25 1b d0 38 66 12 8f b8
       -0.0015957407 0.0002162833 9.923269e-05 -6.822198e-05
000060 72 60 14 3a dd 3e 49 b8 2c 91 b4 b7 2e 77 0e 37
       0.00056601234 -4.798068e-05 -2.1525273e-05 8.491608e-06
000070 27 e5 9a 3b e6 a6 ca b9 39 3a c1 3a f4 db 1c 3a
       0.004727024 -0.0003865279 0.0014742083 0.00059837033
000080 0d 7e 6f be 36 51 b2 bc 0f cc 55 bc a6 5b a1 3a
       -0.23387928 -0.02176724 -0.01304914 0.0012310639
000090 53 e6 3c 39 75 34 a7 39 92 22 f3 38 32 be ff b7
       0.0001801488 0.00031891806 0.00011593582 -3.0486935e-05
0000a0 74 a7 30 bb 6b d8 59 ba 26 e2 14 38 c3 60 bc 39
       -0.0026955279 -0.0008310142 3.5496567e-05 0.00035930247
0000b0 ab 02 80 3b 62 33 44 3a 61 fa 28 39 84 a1 9e b8
       0.003906568 0.0007484463 0.00016115002 -7.564112e-05
0000c0 f6 e9 5b 3a cd 44 1d 3a bc 0e 73 b9 19 61 02 b9
       0.000838905 0.0005999327 -0.00023179775 -0.00012433938
0000d0 f9 e9 5c bb 94 46 e6 39 66 42 28 39 aa 77 51 b9
       -0.0033708795 0.00043921603 0.00016046464 -0.00019976372
0000e0 df 36 e1 38 97 00 8e b7 de c1 95 b5 00 84 4c 37
       0.000107390566 -1.6927994e-05 -1.1157788e-06 1.2190081e-05
0000f0 eb 99 f3 3a 48 62 01 b9 9e 5c 73 b8 0d b6 74 38
       0.00185853 -0.00012339011 -5.802197e-05 5.834368e-05
000100 16 0c 83 3c 51 d8 05 3b f5 38 26 39 01 20 63 b9
       0.015996974 0.0020423124 0.00015852212 -0.0002166033
000110 b3 be d5 3d 11 bb 0c 3c fb fb c9 3b c6 2b aa 38
       0.104367636 0.008589522 0.0061640716 8.114385e-05
000120 56 66 3a b9 87 8a c2 b6 c7 81 4a b7 6e 25 37 b7
       -0.00017776465 -5.7977772e-06 -1.2070354e-05 -1.0916365e-05
000130 3e ae 63 b9 7c 2e 2a 38 05 6d 83 37 53 d9 93 b6
       -0.00021713317 4.057445e-05 1.5667183e-05 -4.4062413e-06
000140 46 f3 89 38 b1 07 5e 31 38 7c 20 37 16 f8 3c 37
       6.577982e-05 3.2309624e-09 9.565665e-06 1.1263435e-05
000150 ee 14 ff b9 62 b2 7b b8 73 4b 5a b8 0b 2c d2 b7
       -0.00048652984 -6.0009195e-05 -5.2045518e-05 -2.505446e-05
000160 a8 5b 79 ba 12 dc a5 38 e6 e3 12 38 90 69 3e b8
       -0.0009512254 7.9088044e-05 3.502136e-05 -4.5397843e-05
000170 50 26 ab bd 4c bb d0 bb 07 37 b5 bb d3 68 0e ba
       -0.08356917 -0.006369984 -0.0055302414 -0.000543249
000180 4d 07 3a 39 48 48 df 38 28 61 ce 37 72 a6 71 b7
       0.00017741062 0.00010646932 2.4602356e-05 -1.4403473e-05
000190 09 ec 51 ba f5 8e b5 38 64 d4 1d 38 ec df 1d b8
       -0.0008007889 8.6573804e-05 3.762952e-05 -3.764026e-05
0001a0 cd 88 8c bb 71 5e 85 39 32 02 ff 38 8e 4c 24 b9
       -0.004288769 0.000254381 0.000121597564 -0.00015668778
0001b0 f7 30 64 bb 83 ab 16 ba a4 eb 8b b8 4e 6b e7 38
       -0.0034819224 -0.0005747603 -6.671928e-05 0.000110349254
0001c0 e9 0f 83 ba c2 2f aa 38 43 d0 0b 38 7b bb 4f b8
       -0.0009999248 8.115127e-05 3.333414e-05 -4.952725e-05
0001d0 83 04 8a b8 3e 82 52 38 5c 53 77 37 e0 9e 5d b7
       -6.581193e-05 5.01892e-05 1.4741756e-05 -1.32096175e-05
0001e0 e6 3c 83 be 5b 98 b0 bc 70 2e 63 bc 8e 61 0f 39
       -0.256324 -0.021557024 -0.013866052 0.00013673885
0001f0 c2 30 ec b7 76 ed f8 35 12 d1 8c 35 f8 31 fc 34
       -2.8156097e-05 1.854655e-06 1.049166e-06 4.6975015e-07
000200 d3 f0 1d 3e 2a 9d 58 3c 2e 21 06 3c a5 d7 ca b9
       0.15423898 0.013221065 0.008186622 -0.0003868911
000210 26 46 51 bb 72 80 76 39 be 09 12 39 7e d6 43 b8
       -0.003193268 0.00023508238 0.00013927274 -4.6691384e-05
000220 3a 9b 93 3b 8a 89 a6 b9 b2 60 0f b9 dd 55 3c 39
       0.0045045884 -0.00031764462 -0.00013673565 0.00017961064
000230 63 a3 9e b8 d2 fe c3 38 3b 69 03 38 e7 80 7b b7
       -7.56446e-05 9.3457886e-05 3.1330837e-05 -1.4990778e-05
000240 f1 d4 46 3b 7e 9a 75 b9 e5 49 1e b9 4c d8 9b 38
       0.0030339325 -0.00023422574 -0.00015095582 7.4312644e-05
000250 97 12 55 b9 ac cf 19 b9 53 70 3e b8 cd 1a 0d 38
       -0.00020320188 -0.00014668581 -4.540414e-05 3.364198e-05
000260 0f 24 b8 b8 f0 5e b6 37 61 10 2d 37 c5 18 2f b6
       -8.78052e-05 2.17403e-05 1.0315417e-05 -2.609145e-06
000270 60 b6 5c 3a ab e0 9b 39 fa 8b bb b8 68 88 0b b9
       0.000841951 0.00029731294 -8.9429275e-05 -0.00013306888
000280 f0 45 e7 b9 73 b1 b3 39 e4 ea 19 39 43 38 d4 b7
       -0.0004411186 0.0003427375 0.0001467872 -2.5298568e-05
000290 4d 30 0e b8 ec af af 37 0d fc d8 36 23 c0 7c b6
       -3.3900422e-05 2.0943546e-05 6.466644e-06 -3.7662764e-06
0002a0 23 7c a5 3d 33 ef dc 3b 03 ba 98 3b 5e c5 d1 38
       0.08080318 0.006742382 0.004660846 0.00010002659
0002b0 47 ea ca bb 7f 48 93 ba b7 59 3d 39 8b 78 b4 39
       -0.006192479 -0.0011236815 0.00018057866 0.00034422087
0002c0 74 ae 80 ba a3 35 18 3a 0f 5c 12 39 93 e8 39 b9
       -0.0009817616 0.00058063323 0.0001395794 -0.00017729616
0002d0 4e 29 b9 b9 a4 ad bf 37 ac 54 d7 36 af af 0c b7
       -0.00035316724 2.2849832e-05 6.4173564e-06 -8.385555e-06
0002e0 75 b9 30 3a 3b 34 a0 b9 ac d2 0f b9 55 e9 4c 38
       0.00067415024 -0.00030556493 -0.00013716024 4.8854698e-05
0002f0 a3 75 7d 3e a5 00 c1 3c 43 2b 6c 3c a1 31 c9 ba
       0.24751906 0.023559878 0.014414611 -0.0015349874
000300 cb 10 98 3a 53 66 f7 39 62 44 13 39 c0 cc 3c b8
       0.0011601684 0.0004718775 0.00014044487 -4.501338e-05
000310 54 da 0f 3a b2 7d 82 b8 af 09 f0 b7 9d 68 12 37
       0.00054875505 -6.2222956e-05 -2.8614739e-05 8.726635e-06
000320 86 6f 6c 3b 54 89 45 3a 3f 36 43 39 a3 b9 a0 b8
       0.0036077215 0.0007535417 0.00018616857 -7.663972e-05
000330 d2 5e 87 ba 72 da be 38 a1 70 36 37 45 60 90 b8
       -0.0010327941 9.1005946e-05 1.0874269e-05 -6.884387e-05
000340 b7 55 1e 3d 73 cd 42 3b 91 02 4d 3b 4f 63 78 39
       0.038655963 0.0029724508 0.0031282047 0.00023688118
000350 f4 f1 d4 36 6f 31 05 38 01 75 75 37 60 e3 44 36
       6.3462594e-06 3.175571e-05 1.463038e-05 2.9338626e-06
000360 7f f9 9d 3a 45 c2 ab 39 16 48 34 b9 ba 07 73 b9
       0.0012052505 0.00032760404 -0.00017192992 -0.00023177164
000370 ce 69 1b bd 4e c6 49 bb 5b 0f 08 bb 28 d8 04 39
       -0.0379427 -0.0030788365 -0.0020761106 0.00012669025
000380 ab 9e ec b9 57 96 33 38 13 49 9d 37 ac 31 2c b7
       -0.00045131645 4.281694e-05 1.8749886e-05 -1.0263564e-05
000390 62 c6 4a b8 6e fa 06 38 08 27 93 36 3d 21 3b b7
       -4.834531e-05 3.218132e-05 4.385485e-06 -1.11538075e-05
0003a0 20 ad fc 39 a0 4a a9 b8 8a db 26 b8 3d 25 55 37
       0.00048194174 -8.072448e-05 -3.9781946e-05 1.270446e-05
0003b0 78 0f 85 39 e7 e8 5e b8 ad 09 26 b6 21 8c 0c 38
       0.00025379262 -5.314583e-05 -2.474156e-06 3.3509106e-05
0003c0 8d 72 60 b8 f7 5e 00 37 18 95 d9 b6 40 9c 0e b7
       -5.3512445e-05 7.651505e-06 -6.4844608e-06 -8.500239e-06
0003d0 a1 86 7f bd 32 06 9f bb 1d 7e 77 bb 7a 8e a9 b9
       -0.06238425 -0.0048530335 -0.0037764378 -0.00032340345
0003e0 d7 a2 e9 b8 c2 b3 7c b8 65 26 21 b7 10 ec 33 37
       -0.00011140637 -6.0248894e-05 -9.605287e-06 1.0724194e-05
0003f0 bb 09 23 b7 42 8a 7b 38 61 e7 68 37 0b 4f 81 b7
       -9.717823e-06 5.9971826e-05 1.388215e-05 -1.5414806e-05
