distributed_shared/worker_logs/worker_0/models/model_episode_240.pt (torch, 816870 bytes, 16 tensors)

0.weight f4 [256, 4]
00000000: 203c 903e 47ff adbe e58d d9be 7099 c5be
00000010: 28fd 803e 25f7 143e 61cc 473e d339 a2be
00000020: 1b06 773d 3c69 083e d2d9 edbe aa2f e0bc
00000030: 10b8 b3be 2bda c83e 4de0 edbe 692f 82be
00000040: cdd5 b5be e980 8b3d 2986 d03e 9c6c 8c3e
00000050: 48b5 363e abe2 abbe 028f 93be 1700 ca3e
00000060: 7d2c b83d d665 35be 2863 0c3d 9263 053e
00000070: 1a8d 5f3e 740b f8be bc43 073f 4f45 5abe
00000080: d402 62be 36d4 95be 0b0a 053f 6aeb 01be
00000090: 4aec 0b3c ff7c ef3c 78cb d0be a47f e33e
000000a0: a678 afbe cf18 dc3b 876a e23e 20f6 093f
000000b0: 6ead 293e ff03 b5be 00e4 85bd c225 383d
000000c0: f66d 633e 9b25 c63e a73d e5be 3a19 d3be
000000d0: 820b 3a3e 45f8 583e ab33 9ebe fc4f 1dbe
000000e0: 3d2e a2be c812 2cbe 592a 053f 7180 7f3e
000000f0: 48fa 3b3e b61d 07be 94b8 ce3e 0bdc be3e
00000100: cdd9 c23e 1555 7a3e b140 613e 00a0 f13e
00000110: 141a cebe 77ce 91be 10f8 3fbe b2e4 133e
00000120: 4ca6 d8bd 0ad6 6cbd a752 a83e a39e e0be
00000130: c899 013f f4ca 9d3e 5c42 d23d 73bd 8a3c
00000140: 3f32 fd3e 8fe6 c0be 8978 e1be 890f 5e3e
00000150: d0ac 013e efb8 76be cf95 a1be 7675 c13d
00000160: e609 153d d211 9c3d 1ff1 993d e7f9 093f
00000170: d268 28be b5fb c9bc fc08 0ebe 47db 97be
00000180: 6f7f 83be 621c 073e 1e09 b0be 168e f43d
00000190: f62e c8be b9d0 3e3a 6f6e bcbe e577 123e
000001a0: 036d edbe 2312 dabe 4063 89be cfa2 c93d
000001b0: 1eb1 c0be 7f85 bbbe fbc8 033f 852d d43e
000001c0: af91 d63e 3acd 3fbe 8f94 943e 6147 82be
000001d0: 6dde 04bf 8749 96be 0d87 dbbd f67e ef3e
000001e0: 7dd9 473d 3829 2f3e 147d b03d c94f 873d
000001f0: 0d2b 763c b654 633e 281a b5bd 8d3b 08be
00000200: a4b5 c63e 1184 74be 9358 d63e 0634 f93d
00000210: 2dbf 21be 1c35 38bc 6db9 4cbe 52f5 ed3e
00000220: bb24 95be c263 d73e 7765 bdbd 5383 bdbe
00000230: 9ffc bcbd ff97 8e3e 76ec 45be 94cc c3be
00000240: 51b9 1fbe f8bc 17be 3541 8c3e 64d0 233e
00000250: 24c6 cb3e d5fd f23e 1581 13be 3087 9e3e
00000260: 536b 61be bf0c 633e f276 a4be 6c14 d4be
00000270: aca3 fe3e f8d0 5a3d d92b b7bd 717f 0dbd
00000280: c048 80bc b495 a63e 45db a63d d10f 933d
00000290: b8c7 d4be a6a2 563e fb69 fe3e 5f5d 6c3e
000002a0: b94a 843e 5fee 9ebd 5f6a f7be 0737 953c
000002b0: 3225 09be d6eb 68be 0ad7 ce3e 9616 a4bd
000002c0: 462f b5bd e25c f0be 9818 39be f349 0bbf
000002d0: 0a8b d23b 73e1 133e 5e0b 7bbd 535c bb3e
000002e0: 5468 40bb 5ac4 dcbe ee3d f03d 7dc9 7c3e
000002f0: 560e 61be 85a9 38be 6de0 e63e 0b4f 3ebe
00000300: fe49 543e 9a0b 0bbe a2db e7be e8c1 c1be
00000310: c58d 95bd 30be 043f c1e7 f43e c49b d1be
00000320: 54d5 a8bd 80bd 78bd 4341 4ebe b0bf 8ebd
00000330: 5f31 95be 0dcc 833e f361 523e d5bb 87bd
00000340: 7204 6bbe 8c1f bbbe 98fe 663e 2f66 b3be
00000350: 1959 ffbe a3ce 8fbd dd35 063f 019b 4d3e
00000360: 8f23 8abe e935 12bd 7bfe b9be 963f 573e
00000370: b3cc c8be d8db 05be ef4d 53be d78a 443c
00000380: bb73 ffbe c056 bcbc 8d19 c7be ffe2 30bd
00000390: 8493 dcbe 6207 bc3e ff97 243c 861c 953e
000003a0: 816c 073f b013 403d 9afa f83d db85 cbbe
000003b0: 7fcd c6be 7415 30be 6539 a23e 713b 523e
000003c0: d3f6 793e bc0e 7f3d feae 80be b74e a2be
000003d0: 8f2e fa3e b485 01be 13a4 7dbe 1b88 d6bd
000003e0: 34ec 4c3c c8cd b4be 53a7 173d 7044 e6be
000003f0: 09a4 d8be c04e ecbe 3a53 f2be c0b5 f1be
0.28170872 -0.33983824 -0.4249107 -0.38593626 0.25193143 0.14547403 0.19511558 -0.3168474
0.060308557 0.13321394 -0.46455246 -0.027366478 -0.35101366 0.3922895 -0.4646019 -0.25426796
-0.3551468 0.06811697 0.40727356 0.27426612 0.17842591 -0.3357137 -0.28820044 0.39453194
0.089928605 -0.17714629 0.03427425 0.13026264 0.2183117 -0.48446238 0.5283773 -0.21315502
-0.22071391 -0.29263467 0.5196845 -0.1268746 0.008540222 0.029234407 -0.40780234 0.4443332
-0.34271735 0.0067168246 0.442219 0.5389118 0.16570064 -0.3535461 -0.06537628 0.044957884
0.22209916 0.38700566 -0.447736 -0.41230184 0.18168452 0.21188457 -0.30898795 -0.15362543
-0.31675902 -0.1680404 0.5201774 0.2495134 0.18357193 -0.13194928 0.40375197 0.37277254
0.38056794 0.24446519 0.21997334 0.47192383 -0.4025427 -0.28477833 -0.18746972 0.14442709
-0.105785936 -0.05782131 0.3287556 -0.4387103 0.50625277 0.30818903 0.10266563 0.01693604
0.49452397 -0.37675902 -0.44037274 0.21685614 0.12663579 -0.24093984 -0.31559607 0.09446232
0.036386393 0.076205865 0.07516693 0.53896946 -0.16446236 -0.024656156 -0.13870615 -0.29659483
-0.25683162 0.13194421 -0.34381956 0.11941163 -0.39098328 0.0007279027 -0.36803004 0.14303549
-0.46372232 -0.42591962 -0.26833534 0.098455064 -0.3763513 -0.36625287 0.51478547 0.4144098
0.41908023 -0.18730631 0.2901959 -0.25445083 -0.51901895 -0.29352972 -0.10719118 0.4677655
0.048791397 0.17105567 0.08617607 0.06607015 0.015024913 0.22200283 -0.088428795 -0.13303967
0.38810456 -0.23878504 0.41864452 0.12168126 -0.15795584 -0.011243131 -0.1999261 0.46476227
-0.29129586 0.42068297 -0.092478685 -0.37014255 -0.09227871 0.2785034 -0.19328484 -0.38242018
-0.15598036 -0.1481818 0.273935 0.15997463 0.39799607 0.47459283 -0.1440471 0.30962515
-0.22013597 0.22172831 -0.32121998 -0.4142183 0.49734247 0.053421944 -0.0894391 -0.034545366
-0.01565969 0.3253609 0.08147291 0.07180751 -0.41558623 0.20960483 0.49690232 0.23082493
0.2583826 -0.077603094 -0.48323342 0.018214716 -0.13393095 -0.22746214 0.40398437 -0.080121204
-0.08846907 -0.46945864 -0.18075788 -0.5440971 0.006425266 0.14441471 -0.061290137 0.36593875
-0.002935906 -0.43118554 0.11730562 0.24686237 -0.21978125 -0.18033417 0.45093098 -0.1858484
0.20731351 -0.13578644 -0.45284754 -0.3784325 -0.07302431 0.51852703 0.47833064 -0.40939152
-0.08243814 -0.060727596 -0.20142083 -0.06970155 -0.2913923 0.25741616 0.20545177 -0.06627623
-0.22950915 -0.36547506 0.22558057 -0.35038897 -0.49872664 -0.07021835 0.5242594 0.2007866
-0.26980254 -0.035695944 -0.36326966 0.2102035 -0.39218673 -0.13072145 -0.20635198 0.011995993
-0.49892983 -0.022990584 -0.3888668 -0.04318523 -0.43081295 0.36724383 0.010046004 0.29123324
0.5289994 0.046893775 0.121571735 -0.3975056 -0.38828656 -0.17195684 0.31684414 0.20530488
0.24410562 0.06226991 -0.25133508 -0.3170068 0.48863646 -0.1264866 -0.2476962 -0.10475179
0.012507487 -0.3531325 0.037024807 -0.4497409 -0.4231265 -0.4615383 -0.47329122 -0.47208977

0.bias f4 [256]
00000000: 11e1 b43e ec31 223e bdec 96be dc97 2cbe
00000010: 14bb 493e 2d4f 043e d65e 6fbe 47d3 00be
00000020: 0857 3d3e def2 c73d 1812 05be 4c18 d13e
00000030: fd41 8dbb 28e5 b3be 3756 a2bd bd97 c73e
00000040: 41e5 d13e 4263 babe b031 cfbe 1f93 e0be
00000050: fcd4 f13d 9cad e5bb 8ada 843e 919c e9be
00000060: a466 4ebe 0840 c3be a04f 3d3d 85df d8bd
00000070: 2480 f03e b170 d5be f526 90bd 8535 94be
00000080: 3afe 2b3d e974 303e 3c8e 7a3d 9670 baba
00000090: 0ee3 abbd 887b 9cbe 2ed7 b0be e408 c13e
000000a0: 1de1 babe fc3d 683e e0a8 21be 8fea a7bd
000000b0: 5da6 25be 14f3 ae3d 8e1e 723e 274d 17be
000000c0: cc9a 87be 18cc 703e 6e6e f3be 9629 abbd
000000d0: 1bcf fdbe b6e6 df3e 6704 c73c 9d17 0c3c
000000e0: 9d7e a23e cc98 66be 2e08 7ebe c1f8 a63c
000000f0: 2e1a b33e 2acf e93e 2649 35be 2d3e c23e
00000100: 13c9 0f3d 8b50 f4bd 9e69 263e ddcc eabd
00000110: f712 843e 90c6 843e 3a30 a63e 1f45 04be
00000120: e0af 97be d039 17be 645f 853d 2b1f cb3e
00000130: 161d 80be 598c ac3e 48a9 b6be 3c5a 1c3e
00000140: 2236 8abe c7e8 7b3e de21 9dbe 5c2b 45bd
00000150: a6a8 493e 9ddc b53c 4b54 e7be 9c33 6c3e
00000160: 5685 283e a174 c63e b8cf c2be 26bd a8be
00000170: 643b 14be 5e72 9d3e 610d 993d 23db 7abe
00000180: 9d50 183e 4c3e 4b3d b7b9 823e ae7c d63e
00000190: 8536 f43d 2fb1 16be 686e 0cbe 3074 8ebe
000001a0: 5f1b b83e 3716 043e e0d4 463e 8171 e6be
000001b0: 19b9 c1bd dab5 60bd 0b52 603e 19ee f9be
000001c0: 3853 acbe 01b8 3fbe bea0 a03e 4ecc aebd
000001d0: 95f6 e73b 75c2 4c3e 8c83 b4be 3ede a5be
000001e0: 5d45 8ebd 4ac3 f5be c8c9 14be eb47 583e
000001f0: 1333 6c3e 17b6 c73e c22e a9be 5092 8cbd
00000200: 1ac0 913e b0e3 bdbe 534a e0be e27c 3abe
00000210: f78e 5cbe 565f dcbe 8cb4 f53e 5ed1 ecbe
00000220: 6bd3 c3be eeee a83e 85ec 443e af68 eb3d
00000230: bf0a 483c f3c3 a33e 5f11 57bd 6f3c dcbe
00000240: 47ce d23e 1b7d e83d bc7a 8bbc 3cfd c9bd
00000250: 3133 ee3b 79c4 a73e d1a1 7a3d d9ff d83e
00000260: fff5 9e3e ea8c b4be 2efa fd3d b5f8 913e
00000270: 8957 023d c4e3 7a3e ab63 1f3e a063 a0be
00000280: a34e 0ebe d900 2dbd 1972 c53e 116c 213e
00000290: fef1 2e3e 78f2 3f3e 25bd 17be 0d2f 163e
000002a0: 8eea 83be 1a52 c8be ca05 d83e ff99 803e
000002b0: 0de3 9e3e 1849 a5be 6a38 bdbe 4cd0 ad3e
000002c0: bfac efbd 4db5 a83d fe44 f3be 5158 403e
000002d0: 9f66 a9be 7a09 bcbe 0418 be3e da7e 4c3e
000002e0: bba8 ae3e 6da7 e0be 214d a53e 249d bc3e
000002f0: 26f2 9d3e fb5a 31bb 1aba a33e 7d3d 5f3d
00000300: b92d b4be 54de ac3e 1b89 473e 7f75 b7be
00000310: 43a5 d4be 864b e33e 941f 413e 95db 9b3e
00000320: 5e17 82be 9ebd cabe d7e0 d8be 6d53 ef3e
00000330: 289b af3e 98aa f5be a145 02be 8f9d e2bd
00000340: 1512 a0be cf14 3ebe 208e a9be f3b5 cebe
00000350: 1e92 95be edaa 2b3e a5b2 763e 9ae1 a13d
00000360: e224 79be b0c9 bfbe be2e 57be 43f2 053e
00000370: 096b c3be de36 ea3e e322 bc3e b861 e4be
00000380: 7f7d b9be 1ea4 3f3c f4cd d5be 8940 9fbd
00000390: 5ed7 cdbe 3786 1bbe 6f71 7f3e ec81 cdbd
000003a0: 4dd2 b03d dfa2 ac3d daea cd3e e24a e7be
000003b0: 6715 1cbe bf7f e8bd af2f e9be f08f 5e3e
000003c0: f160 dfbe 9859 843d 593a 29be 6239 3bbd
000003d0: c04a b43e 5271 38bc d4ba 6bbe 5ddc 9d3e
000003e0: 8557 3c3e c3e4 e73a ac2d ae3d 1c60 bc3e
000003f0: fb68 6cbd 8ee7 0abd 9d9b dbba 76c3 90be
0.35327962 0.15839356 -0.29477492 -0.16854805 0.19700271 0.12920828 -0.23376021 -0.12580596
0.18490231 0.0976312 -0.12995183 0.4083885 -0.004310845 -0.3513577 -0.079266004 0.38982955
0.4099522 -0.36403853 -0.40467596 -0.43862244 0.11808202 -0.0070092212 0.25947982 -0.45627263
-0.20156342 -0.3813479 0.046218514 -0.10589508 0.46972764 -0.4168754 -0.070386805 -0.28947082
0.041990496 0.17232098 0.0611708 -0.0014224227 -0.083929166 -0.30562997 -0.3453917 0.37702096
-0.36499873 0.22679895 -0.15787077 -0.081990354 -0.16176744 0.08542457 0.23644468 -0.14775525
-0.26485288 0.23515356 -0.4754519 -0.08357541 -0.4957207 0.43730706 0.024294091 0.008550552
0.31737223 -0.22519225 -0.24807808 0.020382287 0.3498091 0.45665866 -0.17703685 0.3793806
0.03510387 -0.11929425 0.16251227 -0.11464856 0.2579572 0.2593274 0.3245867 -0.12916993
-0.2962637 -0.14768147 0.06512335 0.39672217 -0.2502219 0.33700827 -0.35676026 0.15268797
-0.26994425 0.24600516 -0.306899 -0.048137054 0.1969324 0.022199923 -0.45181498 0.23066562
0.16457114 0.38760856 -0.38049102 -0.3295681 -0.1447578 0.30751318 0.07473255 -0.24497657
0.14874502 0.049619958 0.25532314 0.41891998 0.11924461 -0.14716028 -0.13713992 -0.2782302
0.35958382 0.128991 0.19417143 -0.45008472 -0.09459133 -0.054860927 0.21906297 -0.48814467
-0.3365724 -0.18722536 0.31372637 -0.08535062 0.0070789554 0.19996054 -0.35256612 -0.3239612
-0.06946824 -0.48000556 -0.14530098 0.21121185 0.23066358 0.3900611 -0.33043486 -0.068638444
0.28466874 -0.37087774 -0.43806705 -0.18211702 -0.21538912 -0.43041486 0.4798931 -0.46253484
-0.38247237 0.3299479 0.1923085 0.11494576 0.012209593 0.31985435 -0.0525068 -0.43014857
0.41173002 0.11351987 -0.017026298 -0.09862754 0.007269286 0.32767084 0.061189476 0.42382696
0.31047055 -0.3526376 0.124012336 0.2851006 0.03182176 0.24500948 0.15565364 -0.31326008
-0.13897185 -0.042237137 0.38563612 0.1576388 0.170845 0.18744838 -0.14818247 0.14666386
-0.2576489 -0.3912514 0.42191917 0.2511749 0.310326 -0.3228233 -0.36957103 0.3394798
-0.117028706 0.082377054 -0.47513574 0.1878369 -0.33086106 -0.3672598 0.37127697 0.19970265
0.34113106 -0.43877736 0.32285407 0.3683864 0.30848807 -0.0027062285 0.31977922 0.054502
-0.35191134 0.33763373 0.19485895 -0.3583183 -0.41532335 0.44393557 0.18859702 0.30440965
-0.25408453 -0.3959779 -0.4235904 0.46743336 0.34298062 -0.47981715 -0.12721874 -0.11065208
-0.31263795 -0.18562625 -0.33116245 -0.4037319 -0.2921304 0.16764422 0.24091585 0.07904358
-0.24330476 -0.37458563 -0.21013924 0.13080697 -0.381676 0.45744985 0.36745366 -0.44605803
-0.36228558 0.011696843 -0.41758692 -0.07775981 -0.40203375 -0.15187918 0.24945615 -0.10034546
0.08633862 0.08429503 0.4021824 -0.4517432 -0.1524254 -0.11352491 -0.45544192 0.21734595
-0.43628648 0.06462401 -0.16526164 -0.04570902 0.3521328 -0.011257486 -0.23020488 0.30832186
0.18392761 0.0017692078 0.08504805 0.36792076 -0.057717305 -0.033912234 -0.001675475 -0.28274125

2.weight f4 [256, 256]
00000000: 73c3 3d3d 566b c73c 58fd 2f3d b932 b53b
00000010: 11ef 59bd 028a 7dbc 8678 4a3c 251f 3dbd
00000020: c732 353d 690a 4fbc 9bbe 3abd 5adf 113d
00000030: 736d 363c db43 0abd dc49 ebbb e40f b1bd
00000040: a8db cf3c 3d2d 693d 7fc7 4dbd bfc2 7bbb
00000050: 991e 5c3d b445 7dbc b599 fa3c 1990 873d
00000060: 4fa1 13bd 91c6 cebb 5659 09bd 2173 69bd
00000070: c356 5fbd e455 133c 0bbb 093c b80c d6ba
00000080: 2f2e 8abd b4c1 573d 6f41 bfbb e8d2 893d
00000090: fa26 0fbd 17b0 0dbd b11c a43d 671d b9bc
000000a0: c3f9 253d c7d6 b03b cfdd 393d f7ee 13bd
000000b0: 59f1 7cbb ba63 42bc 296e 253d f59a 263d
000000c0: ca2e 3d3d b4dc 5e3a cc90 a63b 52ee 21bd
000000d0: 88cf a4b9 e048 ab3c a80a 213d 1df2 3ebd
000000e0: 288e 57bb e7ee 383d ca9a 1d3d d5ec 74bd
000000f0: 83fd 553d d686 e23c 88ed 20bd d473 133c
00000100: 4d67 e5bb 8b6b d3bb 9db4 2abc 5d4f f2bc
00000110: 5ed0 a7bb a2f1 05bd c195 dfbb 3d43 283d
00000120: 6d47 a8bc d667 41bb 5e33 56bd e6a6 49bc
00000130: e9b5 563d 1295 293d 8fd4 753c 6ec6 f2bc
00000140: 922d 3f3d cbec 473d 8187 a4bc a3fd ac3c
00000150: 54d2 2c3d 058d d53b 5766 d73b eaa7 0fbd
00000160: 27f6 5bbd c0cc 01bd da16 943c b019 883d
00000170: e81d a1bb 88dc 69bd 7da0 7e3d 752f c73b
00000180: 0bfb 24bd e4d1 bf3c 0115 8fbd 3b6f 163d
00000190: 8cd8 d13c 5756 a7bb 07f4 803c 1d6a 3f3b
000001a0: 9a24 6d3b a90e 993d e13e 67bd b079 2d3d
000001b0: 46bb 423d d612 00bc 7af9 3dbd ec11 3a3c
000001c0: e9ca 52bd bb9f 0dbd 8885 c9bb 3364 c0bb
000001d0: 4230 6f3a 48a9 95bc 3e16 4dbd 8183 553d
000001e0: 2b0a 213d 8240 e83c 3297 d83b 4bf7 37bd
000001f0: 5147 1f3c ef38 b13c e628 02bd cd1d 3f3c
00000200: b999 88bc 64f3 9d3c 658c dd3c 149d 353d
00000210: 3ea5 7bbd 4c00 9abd 1975 3c3d 8d96 933b
00000220: 6761 863d e962 c6bc 574d c6bc a9ee 54bc
00000230: b3a5 61bd 181d 95bc a941 9cbc 9e1c 923c
00000240: b386 843d cc25 2f3b f487 a03c 89df 78bd
00000250: 53ba 43bd e3f9 373d 66a7 b53c 3c8e 48bb
00000260: 8af0 59bd 5aca cf3c 8a5a 55bd 6aac 5fbd
00000270: 2c57 5f3c 01b5 f93c f8e1 bb3c 7c08 013d
00000280: 6ff0 d13c 88f4 813d 1cb6 8e3d da6d bcbc
00000290: 9468 353c 9605 4c3d 63af 74bc 7a6e 643d
000002a0: cc77 f1bc abb6 24bd 6e43 bfbc 721f b5bd
000002b0: e6ab 7cbd b8d4 eb3c aab3 2a3d 3aad 793c
000002c0: 8ef8 40bd 144c 55bd 0242 39ba 7f6e 54bc
000002d0: db1a 5dbd 56bc cd3c 8530 3b3d 409a 85bd
000002e0: 0f44 043d 05b0 18bd e78d 8ebd 9fb6 873c
000002f0: d2f1 1e3d c1b8 bb3c fcd3 8d3d 9174 0f3d
00000300: 1f81 4ebc ad39 46bd 0868 a6bd 76b9 8fbc
00000310: ab21 b93c 9866 673c a4ec aabc a28f 22bd
00000320: cbde c2bc 5a13 6abd 1099 12bc 4e77 343d
00000330: 8cb4 28bc fa51 3abd c2b6 f13a 5d65 a0bc
00000340: abdd a13c ba7e 61bd ed16 4fbc 3515 a03c
00000350: 9267 55ba 7102 1c3d 3bb1 6dbd 83fd e13c
00000360: 3a6b 2dbd 68ea d13c 23f5 e43c f446 7a3d
00000370: 4105 6a3c d8dd dfbc a212 973c 6e3a b83c
00000380: 4e47 393d 4adf 08bd e783 16bc 2e7c 763d
00000390: 0ce7 38bd c369 f5bb 806f 84bc bd2e 1b3d
000003a0: 034f 033d bd5b 0b3d f3f5 043d 25d4 853c
000003b0: 90de 2f3d c8ea 7b3c 8eb5 b33c 78b4 2d3b
000003c0: 1020 22bd c3ab 8cbc f770 3dbc 460e 43bd
000003d0: f0ba e6bb c31a c7bc 6c80 c4bb bb9a 1b3d
000003e0: 0e1e 3d3d 905a 2fbd c5ed bbbc 4266 f53b
000003f0: 12c5 8c3c 327f 373d a0b5 8b3d 337f 25bd
0.046328973 0.024343174 0.042966217 0.0055297283 -0.053206507 -0.015474798 0.012357837 -0.04617228
0.04423788 -0.012636759 -0.04559193 0.035613395 0.011134493 -0.03375612 -0.0071804356 -0.08645609
0.025373295 0.05692791 -0.050239082 -0.0038415638 0.053740118 -0.015458513 0.030590871 0.06619281
-0.036042508 -0.006310292 -0.033532463 -0.05699456 -0.0545261 0.008992646 0.008406411 -0.0016330695
-0.0674709 0.052674964 -0.0058366577 0.0672968 -0.03494928 -0.03459176 0.08013285 -0.022597028
0.040521394 0.005396697 0.04537755 -0.036116567 -0.0038596003 -0.011864597 0.04038826 0.040675122
0.0461872 0.0008501515 0.005083179 -0.03953392 -0.0003143514 0.020908773 0.039316803 -0.046617616
-0.0032891128 0.04514971 0.038477696 -0.059796173 0.05224372 0.027652185 -0.039289027 0.008999784
-0.00700084 -0.006452029 -0.010419038 -0.029578859 -0.005121275 -0.032701142 -0.006823272 0.04107975
-0.020541871 -0.0029511354 -0.05229508 -0.012307858 0.052419577 0.04140193 0.015004291 -0.029635634
0.04667432 0.048809808 -0.020084145 0.021117037 0.042192772 0.006517055 0.006573479 -0.035072245
-0.053701546 -0.031689405 0.018077303 0.066455245 -0.004916895 -0.05709508 0.062164772 0.0060786554
-0.040278476 0.023415513 -0.06986428 0.03672717 0.025615953 -0.005106728 0.015741361 0.0029207536
0.0036185146 0.07473499 -0.05645645 0.04235238 0.04754188 -0.007816991 -0.046380498 0.011356812
-0.05146304 -0.03457616 -0.0061499514 -0.0058713197 0.00091243174 -0.018269196 -0.05007004 0.052127365
0.039316338 0.028351072 0.0066098208 -0.04491357 0.009721593 0.021633593 -0.031777285 0.01166482
-0.016674863 0.019281097 0.027044484 0.044339254 -0.061436884 -0.07519588 0.04601011 0.004504031
0.06561547 -0.024217086 -0.0242068 -0.012996354 -0.055089664 -0.01820235 -0.019074278 0.017835911
0.06471004 0.002672541 0.019596078 -0.060760055 -0.047785114 0.044916045 0.022174548 -0.0030602356
-0.05320791 0.025365043 -0.052088298 -0.054607786 0.013631623 0.030481817 0.022934899 0.031502232
0.025627343 0.06345469 0.06968328 -0.0230016 0.011072297 0.049810015 -0.014934394 0.05576942
-0.029476069 -0.04021327 -0.023347583 -0.08843888 -0.061687373 0.028787956 0.041675247 0.015239054
-0.04711204 -0.052074507 -0.0007067026 -0.012965797 -0.05398069 0.02511422 0.04570057 -0.065235615
0.03229147 -0.03727724 -0.069606595 0.016566573 0.038804837 0.022915246 0.069251984 0.035023276
-0.012604027 -0.048394848 -0.08125311 -0.01754449 0.022599062 0.014123581 -0.020864792 -0.03968776
-0.023787877 -0.05714736 -0.008947626 0.04405909 -0.010296952 -0.045488335 0.0018441307 -0.019579584
0.01975902 -0.055052496 -0.012639743 0.019541362 -0.00081407384 0.038088266 -0.05803035 0.027586704
-0.042338587 0.025624469 0.027948922 0.061102822 0.014283479 -0.027327463 0.018441502 0.022488799
0.045234017 -0.03341607 -0.009186721 0.06017702 -0.04514222 -0.0074894144 -0.016166449 0.03788637
0.032057773 0.034023035 0.032461118 0.01633651 0.04293686 0.0153758 0.021937158 0.0026505273
-0.03958136 -0.017171746 -0.011562577 -0.047621034 -0.0070413277 -0.024304753 -0.0059967544 0.03798936
0.04617124 -0.042810977 -0.022940526 0.0074889967 0.017183814 0.044799037 0.068217516 -0.04040451

2.bias f4 [256]
00000000: ec9c f83c 452e 8abd f234 cbbc f2dd 05bd
00000010: 05da 153d ec21 debc f595 1c3d 1fd8 c6bc
00000020: d6e7 343d ec25 0abd 5cb5 143d 8b1f 443d
00000030: f96f ddbc dee9 003d 4b93 003b 188f 6a3c
00000040: 3c08 2dbb 1e9f 50bd 231e 0a3b e18f 323c
00000050: 29ed 463d ab6c e03c 959c de3c fdb1 71bd
00000060: ce66 2c3d d939 f6bb 530b 0ebd 1c20 963c
00000070: 3985 3bbd 9965 e7bc 5a15 89ba cebc 563d
00000080: 8a39 ccbb fa2c 6a3d 466e 643c bd90 903d
00000090: 91d8 423b 11ed 0dbc 4420 f73c f8bf f03c
000000a0: bdbd 00bd f31f 523d 3cd1 85bc a809 ea3c
000000b0: 63ce 533c d0bb bbbc 974a 393d 1af3 133d
000000c0: 1d67 b83a 4d45 e63a 4c7c e83c e95c c5bc
000000d0: 3723 b03c b052 8abc 2507 8dbc 2c0d f03c
000000e0: df67 ddbc 4313 bc3b c4fd dfbc 39b1 313d
000000f0: 8445 67bd 2c3a 5fbd 05a3 813d f422 80bd
00000100: d337 84bc 3b2b 44bd 45a6 873d 62fa bf3c
00000110: e6b4 75bc 74b8 74bd 0087 4a3c d8c4 b0bc
00000120: 241f 8c3d 9aea c2bc e19a 0c3d a86b 823c
00000130: 966c 16bd 6f7e 8fbc f4e8 ad3c dce3 3c3d
00000140: 2ed1 afbc 8044 3dbd e5eb ff3b e17d 9c3b
00000150: 6037 1b3d ce5a 0ebd f15a 953d 89de 1c3d
00000160: b803 38bd 6a70 253d 4b4b d0bc 7df6 71bc
00000170: 7873 1fbc 0c80 d6bc ae53 fa3a e06a 893c
00000180: 80a6 1a3d 3064 55bd f50b 663d ae52 49bc
00000190: 3cf1 bd3c f9ec 873d 1d9a eebc 2566 df3a
000001a0: 3684 133d f899 283c 78a4 283c 8c63 8dbb
000001b0: 5d63 263c 39d2 00bd d5f8 babc cf4c c5bc
000001c0: b2f2 3bbd 1cc5 ac3c f780 11bd 6f9a 6c3c
000001d0: ab63 3ebd 55e2 5c3d 1c1e 433d 43c3 49bd
000001e0: 1337 36bd 48de 4f3c d67a 263c 4deb 25bd
000001f0: 05d7 08bc b819 033d 8d36 02bd 3d07 fabc
00000200: 448b 473a f098 d8bc fc85 8bbb 5235 ea3c
00000210: feaa d0bc f27c 1db9 135a fdbc ac2c 443d
00000220: 0789 203c fbf1 3ebd c794 793d 3cbd 81bd
00000230: 1279 873b 5030 8f3c 6bd5 b3bb 0d95 05ba
00000240: 04b0 65bc b82b 48bc 96da 3ebd fba7 fabb
00000250: 3aa2 dfbc 4c35 fc3c 8c51 113d 054b 8bbd
00000260: 7590 543d bbd2 60bd 3bf9 6ebd 3be1 3bbd
00000270: c3d1 443d 9082 a7bc 6a06 fbbc 3d7b e43c
00000280: 6069 9bbd db3c 77bd a493 0a3c 27c3 1d3d
00000290: e91c 02bc c65e 373d b857 57bc fd1a e3bc
000002a0: cd51 3cbd ff68 f738 c835 babc 1477 123c
000002b0: 67ba 4ebd c023 4abd 3ec9 483d a2d5 9abc
000002c0: ff44 603c 1420 68bd 650a 90bc c313 5e3c
000002d0: 034c 0e3c 0ecd 2c3d 355d 9abc 7647 863d
000002e0: 8b65 593c fcdc 1ebd 9ced 0e3d f791 af3b
000002f0: 005c 2c3d 25ed 433b 2b17 87bd d9d7 3dbd
00000300: 5765 e6bc 2fbd 3fbd cff7 333d 0d84 28bd
00000310: bd0e cebc 03f6 4fbd 1a4d 73bd 321f 94bd
00000320: abd3 e7b9 5f5b 3fbd 646d 62bc 867c d7bb
00000330: 3957 66bc 97d2 22bd 8797 8f3d 07f6 633c
00000340: 525d 783d 66b8 80bd 1583 2cbd e70f 333d
00000350: 18e9 493d ec63 9ebc edb5 7dbd 2b53 11bd
00000360: 30b4 fb3c d5f6 03bd 9d4b 15bd 7615 c3bc
00000370: b1be ed3a 2920 c43c 25ac 45bd c662 4b3b
00000380: bfc1 6cbd 05d1 2b3d 3ea9 a03b 01d2 883c
00000390: a999 73bd a644 3abc 90a3 713d c845 623c
000003a0: 9525 523d 1a3a 38bc aa49 e8bb ac7e 0dbd
000003b0: b7ee 6b3d 9332 17bd c6c0 863c bffb 103d
000003c0: eec2 58bc 3c3f 01bd 129d 83bd 6e67 413d
000003d0: c206 8abd 8626 b1bc 8b3d 763d d493 12bd
000003e0: e746 b9bc e298 3d3d 0312 f33c 6345 a6b9
000003f0: 5531 81bc 741a 703d 9fef bc3c 2bfd 7ebd
0.030348264 -0.067471065 -0.02480552 -0.032682367 0.036584873 -0.027115785 0.038228948 -0.024272976
0.04416641 -0.03372757 0.03630577 0.047881644 -0.027030932 0.031473033 0.0019619043 0.014316343
-0.0026402613 -0.050932996 0.0021075092 0.010898561 0.048566017 0.027395567 0.027174274 -0.059007633
0.04209023 -0.00751422 -0.03467877 0.018325858 -0.045781348 -0.028246688 -0.0010458634 0.052426152
-0.006232445 0.0571718 0.013942307 0.07058857 0.0029731134 -0.008662478 0.030166753 0.029388413
-0.03143095 0.0513 -0.016335122 0.028569058 0.012927624 -0.022916704 0.04523715 0.03612051
0.0014068816 0.0017568261 0.028379582 -0.024092155 0.021501167 -0.016885132 -0.01721532 0.029303156
-0.027027069 0.005739601 -0.027342685 0.043381903 -0.05646278 -0.054498836 0.06329922 -0.06256667
-0.0161399 -0.04789279 0.0662351 0.023434822 -0.014996743 -0.05974622 0.012361288 -0.021578237
0.06841877 -0.023793507 0.03432739 0.015920475 -0.03672465 -0.017516343 0.021229245 0.04611574
-0.02146205 -0.046207905 0.0078101032 0.004775748 0.037894607 -0.034754567 0.07292736 0.038298164
-0.04492542 0.04039041 -0.025426527 -0.01476824 -0.00973212 -0.026184104 0.0019098425 0.016774595
0.037756443 -0.0520975 0.056163747 -0.012287779 0.023186319 0.06636996 -0.029126221 0.0017043991
0.036014758 0.010290615 0.010293119 -0.0043148454 0.010155526 -0.031450484 -0.02282373 -0.024084477
-0.04588575 0.021090083 -0.03552338 0.014441117 -0.04648177 0.053926785 0.047636136 -0.04925848
-0.044486117 0.012687273 0.010161122 -0.040507603 -0.008352046 0.03200695 -0.031790305 -0.03052103
0.0007612 -0.026440114 -0.0042579155 0.028589878 -0.02547216 -0.00015019233 -0.03092674 0.047894165
0.009798295 -0.04661749 0.0609329 -0.06334922 0.0041343058 0.017479092 -0.005488088 -0.00050957577
-0.014019016 -0.012217455 -0.04659518 -0.0076494194 -0.027299035 0.030787133 0.03547816 -0.06801418
0.051895577 -0.05488847 -0.058343153 -0.045869093 0.048051607 -0.020448 -0.030642707 0.027890796
-0.07588458 -0.06036077 0.008458052 0.03851619 -0.007941463 0.044768117 -0.013143472 -0.02772283
-0.04597645 0.00011797435 -0.022730723 0.008939523 -0.050470736 -0.0493505 0.049020045 -0.018900696
0.013688325 -0.056671217 -0.017583081 0.013554516 0.008685115 0.042187743 -0.018843273 0.06556599
0.013268839 -0.038784966 0.03489457 0.0053579765 0.042079926 0.0029895988 -0.06596216 -0.046348426
-0.028124494 -0.04681128 0.0439375 -0.04114156 -0.025153512 -0.050771724 -0.0593997 -0.072325125
-0.00044217458 -0.046717998 -0.013820026 -0.0065761236 -0.014058881 -0.039751615 0.070113234 0.013913638
0.060635872 -0.06285171 -0.042117197 0.043716338 0.04929456 -0.019334756 -0.061941076 -0.035479706
0.030725569 -0.03221782 -0.036449064 -0.023813944 0.0018138496 0.023941116 -0.048259873 0.0031034215
-0.05780196 0.041947383 0.0049029877 0.0167017 -0.059472714 -0.011368906 0.058993876 0.013810582
0.051305372 -0.011244321 -0.0070888596 -0.03454463 0.057600703 -0.036913466 0.016449343 0.035396334
-0.013230069 -0.031554446 -0.06426443 0.04721778 -0.0673957 -0.021624815 0.060117286 -0.03578551
-0.022616817 0.04628838 0.029671675 -0.00031713684 -0.015770594 0.058618978 0.023063479 -0.06225316

4.weight f4 [2, 256]
00000000: ad6a 023b 684f 003c 33a9 863d bd2d d13c
00000010: 0867 41bc 5dd5 943d c65a d1bb 7b26 9b3c
00000020: edad df3b 9339 bb3d c9b6 06bc 23d3 ce3b
00000030: 501a ce3c 7e12 3b3c 00ce 18bd de3e 703d
00000040: d7a2 a33b 5594 a93c f5cc 11bc 9729 45bd
00000050: 1736 ddbc bfef 84bd 6e26 5cbd cd43 fabc
00000060: c120 ad3c 2f10 933d 0a92 cebc 47da 5c39
00000070: 27b5 383d ac5f 6b3c 4ffe 6a3d b4e6 1bbd
00000080: d288 193d cf46 0abd 846b f63c 46bc c8bc
00000090: 49b8 fbbc bdcd 033c dafa 373d e494 86bc
000000a0: e359 553d cebf 773d 62f8 553d 2540 4a3d
000000b0: 7fd5 77bc 406a 0dbd f69d 4bbc 787f 70bd
000000c0: 6488 9bb9 45ea 873c 035a 1c3d 78dc 8e3c
000000d0: c65f 42bd de1b fe3b b272 db3c f2a4 6d3d
000000e0: d1c3 5a3d 98a9 9bbd 60f9 233d f93e c93c
000000f0: 3cf0 12bd 711a f23c 8cd6 4ebd 13fe b43b
00000100: 6934 533d 71f4 283d 7140 40bd 2401 213d
00000110: 7aea 563d 9fae 9639 c34f 60bd 3d04 09bc
00000120: 966b 2d3c b092 573d 30b5 53bd d391 683d
00000130: b02f 89b8 ddb6 ca3c 1344 c83c c06f 37bc
00000140: 3316 b1bd 10eb 70bd a50a 883d 6cea c33c
00000150: 9939 dabc f44e 3fbb 93e3 a4bd 3745 623d
00000160: 2c8d fcbb 5c21 b93b 796f 92bd b637 47bd
00000170: b89a 073b 235e e83c f85d c43c 819e 373b
00000180: 42bc c33c b4f7 153c f057 193c edea 8f3d
00000190: 7fea 3d3d 7e89 65bd 9830 a0bb 5dd0 513d
000001a0: 292b 87bc cdc2 51bb 9cd5 813d dac9 20bd
000001b0: af76 2abd 061e 013d 37ca 3cbd abe8 a13c
000001c0: f034 36bd 1e3c 003d 5457 e63c 0776 703d
000001d0: 1962 7cbd d940 3cbd 79cb 48bd 3b0e 0d3d
000001e0: a658 f8bc a8ec 203c 944d 16bd fcd8 2fbd
000001f0: d60c 1f3c da61 023d bc4f bcbc d3c5 82bb
00000200: b40e 4abd 574f 063d 08ad f3bc cd31 9abd
00000210: 0d4f 503d 4e17 e53c 9e41 463d b838 50bd
00000220: 4606 3ebc 1d13 b23d 6612 04bd 019d 523d
00000230: 436d dbb9 ec19 2d3d 7349 86bd cc7c 08bd
00000240: 7505 86bc a177 a23b 9241 ca3a 0cbe d7bb
00000250: fafe f03a e3d3 9cbd f1df e0bc 1759 883c
00000260: 0cbd 23bc a038 243d c6ba cebc b2ac a33c
00000270: 0cbc 893c f289 8ebc a45e 5a3c 5ab7 6abc
00000280: 1cfe ce3c dd5e 1a3d a52c 47bd 9e6c 0e3d
00000290: b60a 9abc bd59 54bd 2444 a5bc f82f fa3c
000002a0: 6f27 4aba c122 5a3c 33ec ac3c 9841 153d
000002b0: ad93 673d 5484 31bc 051d 38bd 4a1a 28bd
000002c0: 2c3e d53b 6d3b 333d f3d2 baba db8e cd3d
000002d0: d730 fcbb 510f d03c 1111 883c fe37 7ebd
000002e0: eca3 fbbc 6877 31bd 403b 35bd f89f 903c
000002f0: 0172 033c 1a3a 3fbb 76d4 2a3b da86 d3bc
00000300: 01d3 fe3a 9341 3a3c 0bc6 57bb d172 013d
00000310: 1431 fc3c c12b 46bd 5767 8a3c 4561 c13c
00000320: 9739 a23d 3747 19bd 2dc9 a8bd 1ced 863b
00000330: 5842 5d3c 805b 283d 91da 60bd 29a3 0ebd
00000340: c7e2 28bd 4174 41bb 4182 3bbc bb7e 223b
00000350: f243 fa3c e83d 153d 3d1e b0bc 9ba1 3a3d
00000360: 2182 7a3d faa9 3d3c 7fc0 2bbd 5061 74bd
00000370: 5dbf 2d3d be50 4c3d 9654 1f3d 16e6 893d
00000380: 14a1 693d 95b2 f7bc a8a1 08bd 8e41 60bd
00000390: ab3a 6dbd 1d27 373d 6939 a9bc 1bfe 60bd
000003a0: 3bd8 9cbc 8229 f3bc 5665 3dbd 825a b93d
000003b0: 22e2 843d 697d 16bd 3815 9b3b a3b3 0abc
000003c0: 2a68 413c b3ed 9b3b 0508 5a3c 5ac5 2e3c
000003d0: cde6 8b3d 869c a93b 2466 fc3c 0577 9cbc
000003e0: 6000 d0bc 3bc8 bdbc 7206 193d d77f 4e3c
000003f0: 43f8 f7bc add8 87bd 0ac3 5abd 6107 3c3d
0.001990001 0.007831432 0.06575241 0.025534505 -0.01180435 0.07267258 -0.006388995 0.018939247
0.0068261535 0.09141841 -0.00822229 0.0063117906 0.025159031 0.011417983 -0.037305832 0.058653705
0.0049937773 0.020700613 -0.008898963 -0.048135366 -0.027003331 -0.064910404 -0.053747587 -0.030549908
0.021133782 0.07180821 -0.025216121 0.0002106215 0.045094635 0.014366072 0.057371434 -0.038061813
0.037483998 -0.033758935 0.030080564 -0.024503838 -0.030727522 0.008044657 0.044916965 -0.016428418
0.052087676 0.060485654 0.05223883 0.04937758 -0.015126585 -0.034525156 -0.012427798 -0.058715314
-0.00029665523 0.0165912 0.03817178 0.017439112 -0.047454618 0.007754787 0.02678809 0.058018632
0.0534094 -0.07600707 0.040032744 0.02456616 -0.035873637 0.029553624 -0.050497577 0.005523452
0.051563654 0.041248742 -0.046936456 0.03930773 0.052469708 0.00028740332 -0.054763567 -0.008362827
0.0105847325 0.052630126 -0.051686466 0.056779694 -6.5415516e-05 0.0247454 0.024446523 -0.011196077
-0.08646812 -0.058817923 0.06642655 0.023915492 -0.026638793 -0.0029191347 -0.08051219 0.05524179
-0.0077072587 0.0056497287 -0.07150168 -0.048637114 0.0020691585 0.0283652 0.023970589 0.002801806
0.02389348 0.009153295 0.009359345 0.070272304 0.04636621 -0.056039326 -0.0048886053 0.0512241
-0.016500073 -0.003200698 0.06339571 -0.039255 -0.04161709 0.031522773 -0.046091285 0.019764265
-0.04448408 0.031307332 0.028117813 0.05870631 -0.06161699 -0.04596028 -0.04902217 0.0344374
-0.030315708 0.009822048 -0.036695078 -0.04293154 0.00970765 0.0318316 -0.022987239 -0.0039908676
-0.04933043 0.032790508 -0.029745594 -0.0752903 0.05085664 0.027965214 0.04840242 -0.05083534
-0.011598175 0.08695052 -0.03224411 0.05141926 -0.0004185234 0.04226105 -0.06556978 -0.03332214
-0.016360024 0.0049581085 0.0015430918 -0.0065839346 0.0018386536 -0.07657602 -0.027450534 0.016644044
-0.009993803 0.040093064 -0.025235545 0.019979808 0.0168133 -0.017399762 0.013328228 -0.014325941
0.025267653 0.037688125 -0.04862656 0.034771554 -0.018803935 -0.051843394 -0.020174094 0.030540451
-0.00077115645 0.01331395 0.021108722 0.03643951 0.05653732 -0.010834772 -0.04494955 -0.041040696
0.0065076556 0.043757845 -0.0014253542 0.10037013 -0.007696252 0.025397928 0.0166097 -0.062065117
-0.030717812 -0.043326765 -0.04424596 0.017654404 0.008022786 -0.0029178918 0.0026066578 -0.025821138
0.0019441546 0.011368173 -0.003292444 0.031603638 0.030785121 -0.04838157 0.01689498 0.023605952
0.07921141 -0.03742143 -0.08241496 0.004117621 0.013504587 0.041102886 -0.05489594 -0.03482357
-0.041231897 -0.0029518756 -0.011444629 0.0024794776 0.030549977 0.03643599 -0.021498794 0.045564275
0.061159257 0.01157617 -0.041931625 -0.059663117 0.042418826 0.04988169 0.038899027 0.067333385
0.05703838 -0.030236522 -0.033357292 -0.054750018 -0.05791728 0.044715036 -0.020657258 -0.054929834
-0.019146075 -0.029682878 -0.04623922 0.09050466 0.06488444 -0.036740694 0.004732754 -0.00846568
0.01180462 0.0047585606 0.013307576 0.0106671695 0.06831131 0.0051761298 0.030810423 -0.019099722
-0.025390804 -0.023166766 0.037359662 0.012603722 -0.030269748 -0.066331245 -0.05340866 0.045905475

4.bias f4 [2]
00000000: a25c 3d3d ac6b 283d
0.04623092 0.04111831

exp_avg f4 [256, 4]
00000000: 2678 3739 7c9c 71b7 e653 28b9 e598 a8b8
00000010: 2239 2fbb ad44 a3ba 674d 9eba 78f2 70b8
00000020: 574b 3ebd b159 22bc d85d 46bb 6acb 2d3a
00000030: b466 653a f6cb 203a 89d8 673a 26e1 1939
00000040: 77c7 cbba ab6c a5ba b4b0 ddba 54f9 93b9
00000050: 1923 d8b9 45ef fab8 12d2 e037 f1d5 a338
00000060: ed3e 86ba b598 08ba 1caa 1bba f3f7 9cb8
00000070: fd80 ddb8 0c95 6db9 f629 15ba 7760 66b9
00000080: 2fa5 95b9 dd10 cfb9 d869 81ba 9df9 c9b9
00000090: 46c2 0bb9 63cf 13b7 ef2f 9038 a36c 3138
000000a0: c79a f939 a607 e9b8 108a d0b9 257c 14b9
000000b0: 6df9 033c decd 8d3a 8bb6 6bba 862e 05ba
000000c0: 808a ed39 4795 1b39 c897 8f38 b721 c5b7
000000d0: 2b52 55bd ab58 17bc 0661 d6ba a7d2 393a
000000e0: c6c4 b4b9 3f5e 16b9 a878 0538 ae3a eb38
000000f0: 86f5 06bb 7e15 91ba 1bed a9ba 3de5 13b9
00000100: 2803 68bc 6093 0dbb 09b4 7539 e834 d939
00000110: b650 a0b9 3c56 f5b9 c4e9 86ba cca6 b2b9
00000120: 7570 423b 72f2 7eb9 4479 d6ba 4bb3 0cba
00000130: ab8e 3d3d 3d97 013c dd72 f43a 107f 34b9
00000140: 25ae 64bb b814 10b9 ef23 973a 05a5 f339
00000150: 46f3 3c38 f2be 5bb8 b968 5eb9 a217 e3b8
00000160: 5041 bb3a aa71 7d3a 441e c23a 858b b539
00000170: 7d37 17b9 2cbd 9eb9 c7a4 37ba 1b05 84b9
00000180: 05c1 e53b bac1 ad3a fd02 313a faa4 1439
00000190: c9d8 bcb8 e3d1 2338 8b88 4639 bad7 d238
000001a0: 4c7d 5dba 5176 53ba 2fc0 bbba aca4 b5b9
000001b0: 05b4 0a39 b8d1 9739 bf2c 2e3a cf38 7139
000001c0: c503 1f3c 65f1 e13a c775 a438 320d 81b9
000001d0: d630 efb9 5285 21ba 5889 b6ba cfba 02ba
000001e0: dc8d 393a 77a6 283a a02f 973a aa67 ab39
000001f0: 9ab8 d63a af0b 813a 13b3 b03a 3c4a 8839
00000200: 3bdd 3fbc 2d18 0bbb fbf5 3aba 5337 f6b8
00000210: 0a0b 243b 190f b03a c8e9 cc3a 0142 5539
00000220: 8ed1 353b 938e ad3a 97e1 ab3a 2b4d 5e38
00000230: 4fef a9ba a161 4fba 4f36 95ba b6e5 88b9
00000240: 8b3d 2fba 83f2 6db7 b08f cdb7 9e52 bdb8
00000250: 5ade cc38 501e 55b7 ddd3 58b8 d2a0 9136
00000260: 68a8 d438 d9cc 4fb8 5914 7fb9 b0ee 04b9
00000270: fdc0 203a 2037 6d39 5901 9e38 4f20 9ab8
00000280: c3e6 4cbb b057 c9ba 6b09 d5ba 0d23 1eb9
00000290: d7e8 3d3a 7d65 2d3a c697 913a e986 7a39
000002a0: 57f0 6db9 a785 92b9 aba3 28ba 2e7e 7db9
000002b0: b0b7 3739 7383 48b8 bb84 87b9 ea79 eeb8
000002c0: 759c 523a 2666 de39 9158 d439 4e67 ebb7
000002d0: f8c4 8539 65c1 dd39 0308 5e3a ee9b 8839
000002e0: c522 43b6 112d 03b9 4ee6 b9b9 8b81 22b9
000002f0: 7d9d ad39 0beb 003a d785 873a 88d0 a739
00000300: aa0c ea3a e613 843a 30ea 9b3a 3b89 2039
00000310: 071e 7ebb b4d3 01ba 1553 c237 a614 bcb7
00000320: 62f5 0f3c 4b76 b13a 81f7 2eba 54ef 10ba
00000330: 9f2a 5db9 10a9 9db9 a7d0 2cba be14 71b9
00000340: 647f 8239 ed10 cdb9 6edc 3eba f8a0 11b9
00000350: 9d51 f639 8625 0d3a 08c2 813a 2390 8239
00000360: 7e1e 373c 7510 263b 02c3 333a e2a9 99b9
00000370: fa1d a639 497a fb38 3440 b437 fc9c 76b8
00000380: e262 a0b8 d941 18b9 87b6 d8b9 6b1b 36b9
00000390: 1480 02ba c93a 04ba bf9a 74ba 7785 72b9
000003a0: 7574 35b9 8cb8 9fb9 b54d 3dba ee5d 8ab9
000003b0: cbb6 4d3a a985 133a 327f 5f3a 218f 1f39
000003c0: 6643 8f3c c7fc 373b a389 77b8 ac3c b9b9
000003d0: 192a 5a38 ff39 28b8 ceca 42b9 fe9a c6b8
000003e0: 4464 09ba d9e6 0eba 115f 8dba c1d2 b0b9
000003f0: f4a7 8b3c bc54 303b 2d92 8239 2649 12b9
0.00017496999 -1.4401154e-05 -0.00016052983 -8.039343e-05 -0.0026736935 -0.001245638 -0.0012077511 -5.7446276e-05
-0.04645857 -0.009909079 -0.0030268338 0.00066297373 0.00087509607 0.0006133908 0.0008844217 0.00014675091
-0.0015547116 -0.0012620887 -0.0016913624 -0.0002822379 -0.0004122488 -0.000119654964 2.6800702e-05 7.8122954e-05
-0.0010242142 -0.00052107434 -0.0005938129 -7.484844e-05 -0.00010562127 -0.00022657606 -0.00056901516 -0.00021970445
-0.00028542566 -0.0003949468 -0.0009873463 -0.00038523684 -0.00013328445 -8.810169e-06 6.8753834e-05 4.2301264e-05
0.000476083 -0.000111117304 -0.00039775716 -0.00014160627 0.008055073 0.00108188 -0.00089917396 -0.000508048
0.00045307353 0.00014837562 6.847043e-05 -2.349993e-05 -0.052080315 -0.009237449 -0.001635582 0.00070885796
-0.00034478883 -0.00014340224 3.182204e-05 0.00011216603 -0.002059312 -0.0011069027 -0.001296434 -0.0001410441
-0.014160909 -0.0021602735 0.00023432089 0.00041428884 -0.00030577712 -0.0004679429 -0.0010293056 -0.0003407508
0.002966908 -0.00024313646 -0.0016363044 -0.0005367293 0.046278637 0.007909593 0.0018649955 -0.00017213472
-0.0034893837 -0.00013740628 0.0011531095 0.0004647152 4.504926e-05 -5.23915e-05 -0.00021210582 -0.000108286054
0.0014286432 0.00096681213 0.0014810045 0.0003462696 -0.00014421153 -0.00030277052 -0.000700545 -0.00025180806
0.007011535 0.0013256588 0.00067524594 0.00014175838 -9.004918e-05 3.90577e-05 0.00018933618 0.000100537625
-0.00084491516 -0.0008066642 -0.0014324243 -0.000346457 0.00013227768 0.00028957217 0.0006644241 0.00023004714
0.009705489 0.0017238079 7.842067e-05 -0.0002461463 -0.00045622018 -0.0006161529 -0.001392643 -0.0004986943
0.00070783286 0.00064334966 0.0011534579 0.00032692897 0.001638192 0.0009845401 0.0013481103 0.0002599525
-0.01171046 -0.0021224127 -0.0007131991 -0.00011740499 0.0025030994 0.0013432234 0.0015633637 0.00020337851
0.0027743313 0.0013241343 0.0013113496 5.3000793e-05 -0.0012964996 -0.0007910971 -0.0011383983 -0.0002611109
-0.0006684891 -1.4182765e-05 -2.4504814e-05 -9.027611e-05 9.768894e-05 -1.2702847e-05 -5.1695726e-05 4.3400587e-06
0.00010140316 -4.9543425e-05 -0.00024326275 -0.00012677419 0.0006132273 0.00022622617 7.534278e-05 -7.34931e-05
-0.0031265474 -0.0015361216 -0.0016253417 -0.00015081112 0.00072444737 0.0006614549 0.0011107854 0.00023892116
-0.00022691615 -0.0002794687 -0.000643308 -0.00024174966 0.00017520669 -4.7806137e-05 -0.00025848098 -0.000113714326
0.0008034178 0.00042419246 0.00040501778 -2.8062288e-05 0.0002551449 0.00042296495 0.0008469822 0.00026056118
-2.9077503e-06 -0.00012509922 -0.0003545754 -0.00015497782 0.0003311447 0.00049178366 0.001033957 0.0003200809
0.0017856557 0.0010076731 0.0011895355 0.00015309911 -0.0038775222 -0.00049525057 2.316529e-05 -2.2420962e-05
0.008786531 0.0013539282 -0.0006674454 -0.0005528827 -0.0002109208 -0.00030071335 -0.0006592371 -0.00022991278
0.00024890446 -0.00039113258 -0.00072807714 -0.00013888243 0.00046981583 0.00053843146 0.0009899745 0.00024902922
0.0111767035 0.00253394 0.00068573665 -0.00029309007 0.00031684322 0.0001199139 2.1487569e-05 -5.8797174e-05
-7.647813e-05 -0.0001452038 -0.00041334724 -0.00017367087 -0.00049781916 -0.000504416 -0.00093309203 -0.00023128638
-0.00017304889 -0.0003046434 -0.0007221357 -0.00026391394 0.00078473677 0.0005627522 0.00085257285 0.00015216741
0.017488193 0.002807425 -5.9017573e-05 -0.00035331154 5.2014457e-05 -4.0108334e-05 -0.00018576832 -9.470245e-05
-0.0005241076 -0.0005451269 -0.0010785778 -0.0003372636 0.01704786 0.0026905974 0.00024904442 -0.00013950895

exp_avg_sq f4 [256, 4]
00000000: f53d a336 0997 0336 67fe 9435 1ace b834
00000010: b112 0b39 b378 d537 65f2 ab37 8b62 2c36
00000020: 7ea7 ed3c 9ef7 023a e2c9 a638 3039 f137
00000030: 2cee 4337 392d cc36 daa7 0237 6ed6 8c35
00000040: 4a46 a039 da5d 3238 5934 3e38 3eda 1537
00000050: 0641 7837 12d9 8036 7a58 cd35 9a02 3035
00000060: 3935 6837 d356 3136 eb1a 3f36 8296 6134
00000070: bf91 3b36 81dd d735 ccfa 4536 b809 a935
00000080: d2e3 bd35 98f5 b935 1ad0 b336 3f52 0736
00000090: e781 3036 11e4 5f36 083d 8c36 f239 a235
000000a0: 2508 5c38 c0f2 dd36 640f b635 1103 1635
000000b0: 2ad6 633c 9bcc 6d39 f2c6 bd38 56c6 c337
000000c0: 222c 1337 7da4 5e36 a672 5c36 8061 7435
000000d0: 5ace 293c 20ab c239 6317 9c38 6a5c a937
000000e0: 45e4 5d38 ba4b 0c37 cce7 5136 d853 d535
000000f0: bcc8 8f38 7fa1 cf37 3b2a b537 61ff 8236
00000100: e7b2 a639 9174 8a37 8925 1337 d8f8 b536
00000110: 2100 2d36 5b2e 0b36 c98e 1137 a0be 0135
00000120: 6fed a83b 253f bf38 a2b9 9138 68bd 7337
00000130: caaa ec3b 4906 9339 1410 1138 1d7f 7e37
00000140: 2264 993b 4ab6 ad38 6d9e 6338 629c 2237
00000150: f901 0636 eebf 8236 8a7a 0736 13e8 4a35
00000160: 34be fe37 268e 4b37 f276 ed37 25bc 9936
00000170: 0998 f935 2828 bd35 6b29 ee35 6534 9935
00000180: e253 423a ac19 f137 7d09 a736 52e4 6e36
00000190: 15f5 1536 4065 7c36 559b 0936 2c26 7135
000001a0: d011 d837 8ebd 8d37 dd96 0438 0a5a d336
000001b0: 5d00 8935 5dc9 ce35 0e5e 9336 f90c ab35
000001c0: f591 813b 6d57 0c39 0521 b137 10b6 8837
000001d0: f862 0537 2563 9c36 feba ef37 5539 6136
000001e0: a50b 3337 07b1 ef36 1d5c 9037 1e2f 5a36
000001f0: faaa aa38 f17e ee37 8eba 0d38 a9da e236
00000200: e2ee 1c3c 55fc d238 c753 5938 4fbc 6337
00000210: 9672 1b39 2483 f737 ab6e fa37 451b b036
00000220: e768 5a39 636b 4138 b616 2338 0447 ec36
00000230: 1e12 9038 e614 c236 d1b8 9c37 e5f2 c935
00000240: c83f 1939 4b2c 6237 2b6c 8436 3c4a e835
00000250: a6f0 1137 bc4b 1f36 87d7 0636 6114 b535
00000260: 128e fa35 2ed5 3236 d584 ad35 e921 1235
00000270: e17a 0738 d62f e136 0126 5b36 0a27 5035
00000280: d52d 9439 85c5 6038 d49d 0938 c238 1637
00000290: 3730 4537 c6b3 bf36 9f58 2c37 2a53 ba35
000002a0: bdae 7d36 0372 1d36 d87d e836 e63a 2636
000002b0: dd9a a735 c458 8735 8ebb 8135 34fd c834
000002c0: 4d0e d136 2817 0636 ad3c f335 b30e a935
000002d0: 9f3b a135 d213 9b35 404c fd35 91bc 0935
000002e0: b0e1 8035 5038 c835 7c34 ad35 b8d3 2835
000002f0: ceef 5336 4c23 7d36 42ef 3037 4327 1936
00000300: 2fa1 4a39 2b74 1e38 5437 c237 53e4 cb36
00000310: 3982 283a 0438 da37 81b1 b836 33d2 4936
00000320: 11c4 b93a 9ce8 1d38 2b90 b337 3f5c 1337
00000330: eab5 f735 acc8 e835 3878 d735 a6db 6b35
00000340: 883e 7239 67e1 0138 5706 8b37 3403 9236
00000350: da76 eb36 6ed8 6436 b109 d636 03dc db34
00000360: 5060 4a3b e86d a338 1055 5d37 f9b7 d636
00000370: dcf8 2d38 a901 7736 4f6c 7936 4ddc 8e35
00000380: 229e df34 1ec7 fb34 a785 1c35 f809 8034
00000390: 26e5 4437 9203 eb36 e5fb 0d37 30ff ab35
000003a0: 8333 0535 26e3 2235 bf9d d835 1a44 e234
000003b0: a9b7 b937 044d 2437 8cde 1337 ce8e 8435
000003c0: 0a97 3b3c 517a 6339 61ce a838 0a0c 9537
000003d0: 3325 4a36 8137 6135 80e4 a434 3161 9c34
000003e0: fb0e d936 5f85 a636 fbed 6f37 c0bb 5836
000003f0: b3b2 103b 85de ce38 e15b ac37 8991 1f37
4.8649913e-06 1.9608435e-06 1.11009e-06 3.442263e-07 0.00013263036 2.5447784e-05 2.0497662e-05 2.5687357e-06
0.02901053 0.0004996004 7.9531004e-05 2.8756069e-05 1.1678359e-05 6.0849384e-06 7.787685e-06 1.049322e-06
0.00030569948 4.2525913e-05 4.5348283e-05 8.9319055e-06 1.4797091e-05 3.8399676e-06 1.529944e-06 6.5568895e-07
1.3840669e-05 2.6425594e-06 2.8476886e-06 2.1009512e-07 2.7950007e-06 1.6083214e-06 2.950127e-06 1.259431e-06
1.4147902e-06 1.3855051e-06 5.358842e-06 2.0164441e-06 2.6301657e-06 3.3362342e-06 4.17943e-06 1.2086805e-06
5.2459673e-05 6.614573e-06 1.3564536e-06 5.5883817e-07 0.013906041 0.00022678303 9.049279e-05 2.3338169e-05
8.772158e-06 3.3176323e-06 3.2849289e-06 9.1038964e-07 0.010364139 0.00037130062 7.443016e-05 2.0189404e-05
5.29031e-05 8.362282e-06 3.127835e-06 1.5894138e-06 6.856161e-05 2.4751525e-05 2.1596547e-05 3.904032e-06
0.0003179528 1.6505162e-05 8.770622e-06 5.4231896e-06 2.5779084e-06 2.0739596e-06 8.675918e-06 4.833364e-07
0.0051552574 9.119351e-05 6.9487156e-05 1.4528028e-05 0.007222508 0.00028042708 3.4585668e-05 1.5169176e-05
0.004681126 8.283237e-05 5.4268563e-05 9.692363e-06 1.9968704e-06 3.8966455e-06 2.0187895e-06 7.5588576e-07
3.036773e-05 1.2132839e-05 2.830799e-05 4.5816582e-06 1.8596194e-06 1.4093284e-06 1.7744436e-06 1.1414637e-06
0.0007413012 2.8741393e-05 4.9780924e-06 3.5597664e-06 2.2345387e-06 3.7609861e-06 2.0505006e-06 8.9835044e-07
2.5757501e-05 1.6896778e-05 3.1611755e-05 6.298772e-06 1.0207401e-06 1.54068e-06 4.391891e-06 1.2744268e-06
0.003954167 0.00013384009 2.111542e-05 1.6297243e-05 7.950461e-06 4.6607042e-06 2.8578095e-05 3.3560984e-06
1.0671943e-05 7.1433637e-06 1.7209031e-05 3.2511957e-06 8.1380786e-05 2.8430923e-05 3.3790762e-05 6.7607803e-06
0.0095784385 0.00010060581 5.1814855e-05 1.3574098e-05 0.00014824638 2.9505762e-05 2.9853856e-05 5.2483833e-06
0.00020829179 4.6114797e-05 3.888338e-05 7.0416154e-06 6.86983e-05 5.7840834e-06 1.8682711e-05 1.5046359e-06
0.00014614977 1.34809625e-05 3.946499e-06 1.7306952e-06 8.698704e-06 2.373693e-06 2.009301e-06 1.3491482e-06
1.8667799e-06 2.6648154e-06 1.2928164e-06 5.4438584e-07 3.2300948e-05 6.7110914e-06 3.2655664e-06 7.754285e-07
0.00028262907 5.3589716e-05 3.2810334e-05 8.953912e-06 1.1753341e-05 5.713172e-06 1.0272633e-05 1.3882284e-06
3.780165e-06 2.3461187e-06 6.928789e-06 2.477021e-06 1.2487541e-06 1.0084118e-06 9.665835e-07 3.7437133e-07
6.23035e-06 1.9981035e-06 1.812257e-06 1.2595759e-06 1.2012787e-06 1.1554168e-06 1.8872161e-06 5.131088e-07
9.602427e-07 1.491755e-06 1.2904779e-06 6.289297e-07 3.1581035e-06 3.7720483e-06 1.0546124e-05 2.282163e-06
0.00019324267 3.7778325e-05 2.3152366e-05 6.076452e-06 0.0006428096 2.601371e-05 5.5042915e-06 3.0073686e-06
0.0014172812 3.764835e-05 2.1405596e-05 8.7833605e-06 1.8455878e-06 1.734375e-06 1.6053737e-06 8.786395e-07
0.00023102213 3.096592e-05 1.6573043e-05 4.351512e-06 7.017382e-06 3.4100626e-06 6.378825e-06 4.0952008e-07
0.003088016 7.792917e-05 1.3192432e-05 6.399114e-06 4.1478183e-05 3.6806834e-06 3.7166935e-06 1.064394e-06
4.1652044e-07 4.689727e-07 5.830902e-07 2.384911e-07 1.1735863e-05 7.0039614e-06 8.462904e-06 1.2814762e-06
4.962132e-07 6.068025e-07 1.6139164e-06 4.214533e-07 2.2139242e-05 9.793093e-06 8.8136985e-06 9.876328e-07
0.011449585 0.00021693973 8.049305e-05 1.776779e-05 3.0121998e-06 8.38998e-07 3.0713636e-07 2.912798e-07
6.468848e-06 4.962712e-06 1.4300919e-05 3.2295793e-06 0.002207917 9.864293e-05 2.0546782e-05 9.511024e-06
