distributed_shared/worker_logs/worker_0/models/model_episode_260.pt (torch, 816870 bytes, 16 tensors)

0.weight f4 [256, 4]
00000000: ed7b 8f3e 23d2 afbe 264a d8be 3630 c1be
00000010: 2d7c 7f3e 678f 123e 2a9b 473e 005d a1be
00000020: 9a26 7a3d 206f 073e 2dbe ecbe 52d2 a5bc
00000030: cfe8 b0be 1cdb c93e 71a9 eabe f5b1 7dbe
00000040: 8cde b9be d62a 863d 526c cc3e 1b4a 883e
00000050: 0018 1c3e 8d15 b4be 1c18 98be 2a9f c63e
00000060: c815 ab3d e719 36be 13fe 033d 64cd f63d
00000070: 883c 5e3e 0d94 f7be b6d6 053f 82ba 62be
00000080: 194d 68be f1d8 96be c12e 033f 8eb9 09be
00000090: e71f e13b a040 e43c b15c cfbe 68d5 e43e
000000a0: bcbd b2be 1e52 b63b 0e86 dd3e a9c3 063f
000000b0: c59d 1a3e 0936 b9be d007 91bd cb9c 283d
000000c0: dac4 6b3e c1bc c73e 7f50 e0be 7df0 ccbe
000000d0: c713 413e a79b 5b3e 0067 9bbe 0da3 17be
000000e0: 7eee a5be 0ce1 2dbe f47d 023f e2b5 723e
000000f0: f96b 3c3e 1055 05be acd0 cc3e d435 bb3e
00000100: 71a5 be3e 5174 763e 95aa 5c3e 8381 f03e
00000110: 415b cdbe 63c0 90be c323 41be 3821 103e
00000120: 194e d4bd 28fb 6fbd 37c1 a63e 31ce dfbe
00000130: 3ba1 043f 2f74 9f3e b6eb d93d 295d 933c
00000140: 0110 fe3e 883e c1be 2664 ddbe ac12 683e
00000150: 4f30 ed3d 51a2 7cbe 17a8 a1be f09e bd3d
00000160: 3307 103d 4eed 9a3d 88a7 9e3d 442e 093f
00000170: a927 2abe 0751 dfbc 692a 0cbe 7fab 94be
00000180: b227 80be d1dc 093e ed50 adbe 23ff fd3d
00000190: 32f9 c3be e025 9c3b dd53 babe 5392 143e
000001a0: d2c9 f3be 14a8 dcbe 580d 8dbe 057c be3d
000001b0: adcf c6be 91d6 bdbe e846 003f 26f5 cc3e
000001c0: a0b9 d33e 8d2a 43be c8f3 923e 0c0c 83be
000001d0: 43b0 08bf d1e5 98be 4dcc 00be bfa1 e53e
000001e0: 1f0b 463d c9fc 303e f9c9 ac3d 2771 6c3d
000001f0: ff14 693c ce53 633e 1a35 afbd a763 05be
00000200: 4f3f c13e f6c0 77be 4ed5 d23e ffc8 ed3d
00000210: b9fc 23be 0a74 50bc 0f05 4fbe db07 ed3e
00000220: 22ba 95be 3199 d53e ded6 babd 9ea0 b8be
00000230: f2dc b3bd 1d9c 8f3e 8b5c 46be beaa c0be
00000240: b5ec 21be 4085 17be 33e5 883e 002f 193e
00000250: d866 d23e 083d f53e 7a2d 0dbe 9601 a03e
00000260: aa50 63be cd51 603e 8120 a3be 3662 d0be
00000270: af9f 003f 49fe 5b3d 8b40 acbd 2787 dfbc
00000280: 9198 76bc 1eef a63e a908 a53d 559e 903d
00000290: 511a d8be 5278 543e 0d9b fa3e 4d2a 653e
000002a0: f2ae 843e 1ab0 a1bd c5ad f4be 8829 dd3c
000002b0: d97f 09be 921c 67be 8e66 cc3e 9d6d b9bd
000002c0: aac4 a9bd 754e eebe 0576 30be b58b 09bf
000002d0: 1d18 f83b a45f 153e b539 77bd bfd3 b93e
000002e0: 8adc 1bbb a6b4 dcbe a2e3 e53d d4aa 763e
000002f0: 6758 62be 92a7 36be fc4e e33e c572 4cbe
00000300: 4aae 533e 6c91 0dbe 0378 e6be 4f81 bdbe
00000310: a7ac 9cbd 3fb0 033f 645a f43e e812 d1be
00000320: 16b7 a3bd 8d51 7dbd 4537 4ebe 0bc2 82bd
00000330: 62ae 95be a329 843e 3359 4c3e 8fbe 96bd
00000340: 9dd1 69be a3c7 babe 2247 683e c547 b2be
00000350: fdb7 02bf 9406 9abd 0033 043f 79c5 483e
00000360: 6961 86be 5839 08bd 5dba b7be dff8 583e
00000370: 1fc2 cdbe f97f 0bbe 104d 5dbe 4b9a b53b
00000380: 1712 00bf 5570 e4bc b8df c8be d8ce 2bbd
00000390: d2c8 dbbe 9302 bd3e c12a 123c 8d8d 933e
000003a0: a697 0a3f 5d33 533d 513f 023e 71cd c9be
000003b0: 79d5 ccbe 3b8e 34be 0925 9d3e 91d0 493e
000003c0: 7e7c 7d3e e981 7c3d e922 79be 1ae2 9abe
000003d0: 1b62 f93e d3e3 02be efbc 7dbe cb75 d4bd
000003e0: 5d56 3c3c 0347 b5be d1df 0e3d dfd8 e5be
000003f0: e13e d4be 37d4 ecbe 85e9 f0be 370c f0be
0.28024235 -0.3434001 -0.4224407 -0.37732095 0.24949713 0.14312516 0.19492784 -0.31516266
0.06107197 0.13225985 -0.46238843 -0.02024189 -0.3455262 0.3942498 -0.458324 -0.24774916
-0.36302602 0.06551139 0.39926392 0.26619038 0.1524353 -0.35172692 -0.29705894 0.38793308
0.08353764 -0.17783318 0.032224726 0.12050894 0.21702778 -0.4835514 0.5228075 -0.2214146
-0.2268566 -0.29462388 0.51243216 -0.1344969 0.006870258 0.027862847 -0.40500405 0.44694066
-0.3491038 0.0055639884 0.43266338 0.52642304 0.15099247 -0.36174038 -0.07081568 0.041165154
0.23024312 0.39011195 -0.43811414 -0.40027228 0.188552 0.21446095 -0.3035202 -0.14808293
-0.32408518 -0.1698038 0.5097344 0.23702195 0.18400563 -0.1302073 0.40002954 0.36564505
0.37235597 0.24067809 0.21549447 0.4697381 -0.40108684 -0.2827178 -0.18861298 0.14075172
-0.103664584 -0.05858913 0.32569286 -0.43712 0.5180852 0.3114333 0.106406614 0.017988758
0.49621585 -0.3774302 -0.4324047 0.22663373 0.1158148 -0.24671294 -0.31573555 0.092588305
0.035163116 0.075647935 0.07746798 0.5358622 -0.16616692 -0.027260317 -0.13688053 -0.2903709
-0.25030285 0.13463141 -0.33850804 0.12402179 -0.38276058 0.0047652572 -0.36392108 0.14508943
-0.47614914 -0.43096983 -0.27549243 0.093009986 -0.3883032 -0.37077764 0.50108194 0.40030783
0.41352558 -0.190592 0.28701615 -0.2559513 -0.53393954 -0.29862836 -0.12577935 0.44849965
0.04835045 0.1728393 0.08436961 0.057725098 0.014226197 0.22199938 -0.0855505 -0.13026296
0.37743613 -0.24194703 0.41178364 0.116106026 -0.16014375 -0.012722978 -0.20216773 0.46295056
-0.2924357 0.41718438 -0.09123014 -0.3606004 -0.08782376 0.28048792 -0.1937124 -0.37630266
-0.15812953 -0.14796925 0.26737365 0.14959335 0.4109409 0.47898126 -0.13786879 0.3125121
-0.2219874 0.21906205 -0.31860736 -0.4069993 0.5024366 0.053709302 -0.08410748 -0.027286125
-0.015051023 0.32604307 0.080582924 0.070614494 -0.42207578 0.20749024 0.4894642 0.22379418
0.25914723 -0.07894917 -0.47788826 0.026997343 -0.13427676 -0.22569492 0.39921993 -0.0905411
-0.08289464 -0.46544233 -0.17232521 -0.537288 0.007571234 0.14587265 -0.060357768 0.36294362
-0.0023782575 -0.43106574 0.11225058 0.24088603 -0.22104035 -0.1783736 0.44396198 -0.19965656
0.20671955 -0.13825005 -0.45013437 -0.37012717 -0.07650118 0.51440805 0.47725213 -0.40834737
-0.07993905 -0.06184535 -0.20138271 -0.06384667 -0.29234606 0.25813016 0.19955902 -0.07360565
-0.22833867 -0.36480436 0.22683385 -0.3482038 -0.51061994 -0.07520786 0.5164032 0.1960658
-0.26246193 -0.033257812 -0.3588437 0.21188687 -0.40187165 -0.13623036 -0.21611428 0.005542075
-0.500276 -0.027885595 -0.39233184 -0.04194531 -0.4292665 0.36916026 0.008921326 0.28818932
0.5413765 0.051562656 0.12719466 -0.39414552 -0.40006617 -0.17632382 0.30692318 0.19708468
0.24754521 0.06164733 -0.24329723 -0.30250627 0.4870766 -0.1278222 -0.24779104 -0.1037403
0.0114952 -0.3540574 0.034881417 -0.44892022 -0.41454223 -0.46255657 -0.4705316 -0.4688432

0.bias f4 [256]
00000000: 4d70 ae3e a98a 1f3e 3866 9cbe 3e4e 3abe
00000010: 900d 5a3e 7523 193e b5b4 5fbe 0de0 e6bd
00000020: f75c 4d3e b73a bf3d a341 e4bd 6979 d83e
00000030: 2fcb b4bc 6376 babe d901 77bd 3eb7 cd3e
00000040: 8239 d63e 3eb2 b6be d130 d0be c636 e5be
00000050: 3e62 c53d 7c09 14bb 53d0 8a3e a28a eebe
00000060: df1c 5abe 555e c7be d4a0 7d3d cac3 adbd
00000070: acec f33e eb02 c8be c8bb 6cbd 0127 98be
00000080: ee4f 613d 29ac 363e f17b 4d3d 96f3 7bbc
00000090: 024c 8cbd 1a10 a3be 9890 b6be f041 b83e
000000a0: e475 b7be 2756 783e 0b13 31be a41a 8abd
000000b0: 3032 34be 07fe c23d 0159 7e3e 93bb 05be
000000c0: 83ba 8dbe aada 763e 464d f9be 46f4 8abd
000000d0: ab0a 00bf 5e5b e73e 027f 8a3c a561 f13c
000000e0: 59ea a43e 185d 5fbe ca58 85be 63ae 1b3d
000000f0: c008 aa3e bb1f e93e 5874 3dbe 5279 bd3e
00000100: c53a 1f3d a4ef c6bd d885 1b3e e704 02be
00000110: 9120 8b3e 2a05 793e 8b5b aa3e 1392 efbd
00000120: 9058 99be 68aa 10be cab5 a23d e981 d13e
00000130: 3cab 86be 471a ab3e abf2 babe d3cb 043e
00000140: 2487 82be 8f04 833e 387a 98be beef 7bbd
00000150: 5d8c 3e3e 47c5 f23c f391 e4be a608 5b3e
00000160: dc6a 0f3e 593f ba3e 1af9 babe 91f7 a9be
00000170: c7d8 06be 2ec1 a23e 7447 a03d 7f2d 7ebe
00000180: 5f33 163e 18c0 183d 333a 8a3e 5b6c dc3e
00000190: 7995 053e 7485 0dbe c3cc fabd 406d 96be
000001a0: 0251 b83e e344 ef3d ce0f 4a3e 4eed ebbe
000001b0: 2bb8 d8bd 5b5f 8ebd 55b1 623e 5721 f7be
000001c0: 194a afbe df4a 52be 14b2 9a3e aef8 87bd
000001d0: fbdb 7fbb 9214 5a3e d4ee afbe 5c87 a6be
000001e0: 8922 a7bd c26b fabe 480c 28be 68af 663e
000001f0: 0648 733e f722 cd3e c187 aebe 817d b0bd
00000200: d148 8e3e fbdb c4be 341b e6be 2584 46be
00000210: dd08 4dbe d65c d8be 692e f73e 5e8b f2be
00000220: e7c9 c9be 094a a73e 46da 353e 27a4 033e
00000230: 54dd 273c 6a27 ab3e 77d9 90bd b239 e1be
00000240: 47e6 d03e 92e5 043e 2b45 01bc fae9 e7bd
00000250: 3dea 873c 89f5 aa3e 45c2 a33d 1262 df3e
00000260: fce1 a43e e591 b9be e98c cc3d 630b 9a3e
00000270: ce4e 133d 04ff 653e 4390 113e 97b8 a6be
00000280: dc6f fbbd 6074 63bd d1f5 be3e 9e8e 333e
00000290: 5b7d 1a3e 06de 513e 3212 24be 6c15 0b3e
000002a0: 7291 8bbe 1821 cfbe aadb dd3e 9231 873e
000002b0: e269 a63e 6a4f a9be c324 c3be fbff b33e
000002c0: 6afc d7bd f6bb c73d ab18 f5be 3eb4 343e
000002d0: 69da a6be 5735 c2be 1d55 c73e 9ff2 573e
000002e0: 3468 b53e d5b7 e4be f5dc ab3e 7098 ba3e
000002f0: 6dab 9a3e d27e b8bc de3d 9d3e 44e9 8b3d
00000300: be1a aebe 6471 b23e 5cf5 4e3e c4d4 b9be
00000310: da02 dbbe beca e93e bf9d 453e d5e2 a23e
00000320: 5226 77be 2299 c3be b1e7 d9be 9577 ea3e
00000330: 78f0 b43e 554a f4be 257c d5bd 2310 cbbd
00000340: 8d57 96be 7d2d 28be b880 b1be 6495 c5be
00000350: 55c4 9dbe 8bb9 1c3e d685 813e d0b5 733d
00000360: 9535 83be b07e b9be f1c6 40be 6276 da3d
00000370: 5904 c9be 5e4a e33e 6735 bf3e ef74 dfbe
00000380: 0c19 bfbe 4fd8 ba3c be69 dbbe db87 b9bd
00000390: de71 c2be da01 1bbe 77f3 853e 1239 adbd
000003a0: f899 c73d 45df cc3d 93a2 d53e d92d ecbe
000003b0: 8d80 28be 39c1 d7bd 9248 eebe f419 683e
000003c0: a62e d9be 4d14 a53d fe72 2fbe 11fd 7cbd
000003d0: dfdb ba3e 1147 babc 5b00 60be c269 a43e
000003e0: d07e 353e 5455 87bc 64cc b83d 147d b63e
000003f0: 748b 1cbd 5b7f 2ebd 841e 94bc 3b8f 84be
0.34070054 0.15580238 -0.30546737 -0.1819391 0.21294236 0.14954932 -0.21846278 -0.11273203
0.20054995 0.09337371 -0.11145332 0.4228013 -0.022069542 -0.36418447 -0.060304496 0.40178865
0.4184075 -0.35682863 -0.40662244 -0.4476835 0.09637879 -0.002258866 0.27112064 -0.46590143
-0.21300076 -0.38939157 0.061920956 -0.084846094 0.47641504 -0.39064726 -0.05779627 -0.29717258
0.055007868 0.17839111 0.050167028 -0.0153779 -0.06850435 -0.31848222 -0.3565719 0.35987806
-0.3583213 0.24251615 -0.1729242 -0.067433625 -0.1759727 0.09521108 0.2483864 -0.13059835
-0.2768136 0.24106851 -0.48691767 -0.06784873 -0.5001628 0.45186895 0.016906265 0.029465506
0.32210043 -0.21812856 -0.26044303 0.038008105 0.332098 0.4553202 -0.18501413 0.37006623
0.038874406 -0.097136766 0.15187776 -0.12697183 0.27173284 0.24318376 0.33272967 -0.11697783
-0.2995038 -0.14127505 0.0794483 0.40919426 -0.26302516 0.33418486 -0.36513266 0.12968378
-0.2549373 0.25589415 -0.29780746 -0.061507933 0.18608232 0.029635085 -0.446426 0.21390018
0.14005607 0.36376455 -0.36518174 -0.3319669 -0.13168631 0.3178801 0.078261286 -0.24822043
0.14668034 0.03729257 0.26997527 0.4305142 0.130453 -0.1382044 -0.122460864 -0.29380226
0.35999304 0.11683061 0.19732592 -0.46079487 -0.10582002 -0.06951781 0.2213796 -0.48267624
-0.3423622 -0.20536374 0.30213988 -0.06639229 -0.003904103 0.2129691 -0.343619 -0.32525146
-0.08160884 -0.48910338 -0.16410935 0.2252785 0.23757944 0.4006574 -0.34087947 -0.08617688
0.2778993 -0.38449082 -0.4494263 -0.19386347 -0.20022912 -0.42258328 0.48277596 -0.47371954
-0.39411852 0.32673672 0.17759046 0.12855588 0.01024564 0.33428508 -0.07072728 -0.4398933
0.40800688 0.12978199 -0.007890026 -0.11323924 0.016591186 0.33390453 0.07996038 0.4362951
0.32203662 -0.3624412 0.09987814 0.30086812 0.035963826 0.22460562 0.14215188 -0.32562706
-0.12277195 -0.055530906 0.37296918 0.17534873 0.15086882 0.20494851 -0.16022566 0.1358239
-0.27259403 -0.40454936 0.43331653 0.26405007 0.32502657 -0.330684 -0.38113984 0.35156235
-0.10546191 0.097526476 -0.47870383 0.17646882 -0.3258851 -0.3793132 0.38932124 0.21088646
0.35431063 -0.44671503 0.33567014 0.36444426 0.30208912 -0.02252141 0.30711263 0.06831601
-0.34004778 0.34852135 0.20210785 -0.3629514 -0.42775613 0.45662493 0.19298457 0.31813684
-0.24135712 -0.3820277 -0.4255958 0.4579436 0.35339713 -0.4771296 -0.10424069 -0.09915187
-0.2936367 -0.16423602 -0.34668517 -0.38590539 -0.30813852 0.15305154 0.2529742 0.05949956
-0.25626817 -0.36229467 -0.1882589 0.10667111 -0.3926113 0.44392675 0.3734543 -0.436439
-0.37323797 0.022808222 -0.42854112 -0.090591155 -0.379775 -0.15137425 0.2616231 -0.08458151
0.09746164 0.10003523 0.41725597 -0.4612873 -0.16455288 -0.10534901 -0.46539742 0.2266615
-0.42418402 0.08060513 -0.1713371 -0.06176478 0.36495873 -0.022738965 -0.21875136 0.32111937
0.17724156 -0.01652018 0.090233594 0.35642302 -0.03821893 -0.042601924 -0.018080957 -0.25890526

2.weight f4 [256, 256]
00000000: 3438 313d 4b23 c23c d034 353d 8536 ac3b
00000010: 85de 5cbd d361 6fbc 5386 713c cd7a 36bd
00000020: 60a3 323d 21b4 6ebc 1d48 32bd ffbc 093d
00000030: 7403 253c 465d 03bd 373d babb 4420 b4bd
00000040: 2dfa c83c e708 6d3d b6d4 42bd bc6e 1339
00000050: 6890 583d e9b0 78bc c822 e43c a8eb 8c3d
00000060: 947c 10bd 13a7 a9bb 501d 13bd 294b 64bd
00000070: 529d 68bd 961e 283c adbf 103c becd abb8
00000080: 7ca1 87bd 55d6 533d a076 e9bb f397 873d
00000090: 58ac 08bd fb0a 01bd 329a a63d 06b8 c6bc
000000a0: ba11 323d 0ac7 943b ab57 3b3d c2ff 0dbd
000000b0: b034 6dbb 334d 68bc 80eb 213d daad 2d3d
000000c0: debd 3f3d 5c59 c4ba 2484 0a3c 9fa7 1ebd
000000d0: e473 393b 214b 943c ad77 1c3d db2e 45bd
000000e0: 6d37 e2bb b734 3f3d a5d9 293d d7ac 75bd
000000f0: 325c 483d a6aa ca3c 2faa 12bd 05db aa3b
00000100: ec22 e1bb aad0 d0bb cb83 59bc d2d4 f3bc
00000110: a3e5 c5bb cca0 0dbd 4af3 2fbc fbd4 2f3d
00000120: f4af 96bc 0150 f4ba c973 58bd 64ca 70bc
00000130: fbcf 5d3d 7448 1b3d 7053 8c3c 95f4 edbc
00000140: cd41 4c3d 38f5 3f3d 24e7 92bc cb1a a63c
00000150: 47f5 263d 4861 023c 45ae 1d3c dd53 1abd
00000160: c383 5cbd 3a5e 08bd c036 a53c 48e5 8c3d
00000170: 0844 35bb c277 71bd a075 7c3d e054 083c
00000180: 958e 2abd c322 bb3c 7bed 91bd 0ad0 0b3d
00000190: 9d8b d43c 8738 66bb 9425 903c 884e 903b
000001a0: 7df5 a1b8 8241 953d 5134 6bbd 318a 393d
000001b0: bdd1 3f3d 6264 03bc 2785 43bd 9b14 743c
000001c0: df69 47bd 26af 05bd e526 09bc a0d6 91bb
000001d0: 0ad1 9c3a 7d87 a3bc ea4b 3ebd 6dd5 673d
000001e0: e6cd 1f3d 1541 073d c76b f93b 2242 42bd
000001f0: b988 f23b 5239 8d3c 5ca7 eebc 9e3e 3a3c
00000200: 5924 abbc 21d8 af3c aced f13c 6579 373d
00000210: 213b 70bd 996a 92bd 305b 2d3d 367f d03b
00000220: 6a32 8c3d d9ca d9bc ccb6 d6bc 7610 48bc
00000230: 999b 5ebd 8563 aabc 41f1 8abc 6178 a23c
00000240: 1e7e 7b3d ece9 0c3a e3f8 b93c 207c 6dbd
00000250: 46c3 43bd fe88 2f3d 0ec8 af3c da3a a3bb
00000260: a1fc 65bd aa5e e13c 359e 56bd 76af 67bd
00000270: 4278 5f3c fbd4 f33c 1276 b13c ce5a 083d
00000280: 5df7 da3c 4700 813d e90d 873d 5510 cfbc
00000290: d6db 233c 11cb 443d 22cb 7abc 7825 593d
000002a0: b002 ebbc 39e9 19bd 4aac c7bc 648a babd
000002b0: 1b3e 81bd 8d78 ff3c eba0 2c3d 44de 673c
000002c0: bcfb 3cbd 242c 55bd b395 353b e1e9 7abc
000002d0: a35f 4bbd 7092 da3c c4a4 313d 14a1 87bd
000002e0: 1b89 fd3c ff8b 08bd ad26 95bd 1b05 5b3c
000002f0: 9327 103d f5de c53c cfec 883d f9cf 103d
00000300: 7768 1cbc 9bc2 4cbd 2b2d abbd 0883 62bc
00000310: b52e c63c 4424 3e3c a7aa b9bc 9ca2 28bd
00000320: cc6d afbc 9f27 60bd e5e6 c1bb 8b09 293d
00000330: 5880 48bc 688e 2bbd 6378 783a 8b98 91bc
00000340: 0729 b43c c788 5dbd 2b17 31bc ee65 c03c
00000350: a163 b53a 4b2d 153d 603e 71bd ea4a dd3c
00000360: edb4 28bd ccc7 f03c 5eab f03c 96b4 763d
00000370: 18a4 943c 4ea4 f7bc 1a5b 973c f4c3 d23c
00000380: 401a 3c3d 7e27 04bd 16d5 d7bb 9991 733d
00000390: 61b7 32bd c08d eebb 6b56 80bc fe34 1f3d
000003a0: 66a0 013d 1c3a 0d3d beee f73c ebd0 9c3c
000003b0: 15c4 2d3d 7706 973c b02b d33c 2e81 433b
000003c0: 61df 14bd 6243 89bc 9280 35bc 97e9 42bd
000003d0: 699c 1cbc 32af cdbc d8c4 74bb d304 163d
000003e0: 2413 373d 092e 27bd 5c5b c3bc 654b 913b
000003f0: f87f 823c 8a6a 323d 5706 893d 933c 23bd
0.04326649 0.02369847 0.04423982 0.0052555227 -0.05392315 -0.014610725 0.014741498 -0.044550706
0.043612838 -0.014569313 -0.043525804 0.033627506 0.010071624 -0.032071374 -0.005683567 -0.08795217
0.024533356 0.057869818 -0.04756614 0.00014060264 0.05287209 -0.015178897 0.027848616 0.06880885
-0.035275057 -0.0051773875 -0.035916626 -0.05573574 -0.056790657 0.0102611985 0.008834762 -8.192238e-05
-0.066225976 0.051718075 -0.007124737 0.06620779 -0.033367485 -0.031504612 0.08134879 -0.024257671
0.043473937 0.004540329 0.045737904 -0.034667738 -0.0036194734 -0.014178562 0.03953123 0.042402126
0.04681193 -0.0014980244 0.008454356 -0.038734075 0.0028297836 0.01810223 0.03820007 -0.048140388
-0.00690358 0.046681132 0.041467328 -0.059979286 0.04891605 0.024739575 -0.03580683 0.0052140974
-0.006870618 -0.006372531 -0.013276051 -0.029764567 -0.0060393377 -0.034577176 -0.010739157 0.042927723
-0.018394448 -0.0018639566 -0.052844796 -0.014696691 0.054153424 0.037910894 0.01712963 -0.02904729
0.04986744 0.04686472 -0.017932482 0.020276448 0.04076126 0.007957764 0.009624069 -0.037677635
-0.053836595 -0.033292986 0.020167708 0.068796694 -0.0027658958 -0.0589521 0.061635613 0.008321017
-0.041639883 0.022843724 -0.07125374 0.03413395 0.025945479 -0.0035128908 0.017596044 0.004403893
-7.722804e-05 0.07287885 -0.05742294 0.045297805 0.04683088 -0.008019539 -0.047734406 0.014897491
-0.04868495 -0.032637738 -0.00837109 -0.004450634 0.0011964154 -0.019962067 -0.046459116 0.056600023
0.03901472 0.03302105 0.007611725 -0.04742635 0.0074015525 0.017239247 -0.029132538 0.011367468
-0.020891355 0.021465363 0.029532276 0.044793505 -0.05865014 -0.07149238 0.04232329 0.006362821
0.06845553 -0.026585983 -0.026210211 -0.012210956 -0.05434761 -0.020799408 -0.016960742 0.019832792
0.06139957 0.0005375433 0.022701686 -0.057979703 -0.04779365 0.042855255 0.021457698 -0.004981381
-0.05614913 0.02751096 -0.05239697 -0.056563817 0.013639512 0.029764643 0.021662746 0.033289723
0.02672928 0.06298881 0.0659445 -0.025276342 0.010001143 0.04804522 -0.01530722 0.05301425
-0.028687805 -0.037575934 -0.024374146 -0.09108427 -0.06310674 0.031185413 0.04214565 0.014152113
-0.04613851 -0.05204405 0.0027707636 -0.01531455 -0.049651753 0.026681155 0.043370023 -0.0662252
0.030949166 -0.033336636 -0.072827674 0.013367916 0.03519399 0.024154166 0.06685793 0.03535459
-0.009546391 -0.049990278 -0.083582245 -0.013825186 0.024192194 0.011605326 -0.022664381 -0.0411707
-0.02141466 -0.054725286 -0.0059174174 0.041268867 -0.012237631 -0.041883856 0.0009478388 -0.017772933
0.02199222 -0.05408552 -0.010808746 0.023486104 0.0013838896 0.036420148 -0.058897376 0.02701326
-0.04118817 0.029392146 0.02937859 0.060230814 0.018144652 -0.030229714 0.018476058 0.025728203
0.04592347 -0.032264225 -0.006586681 0.059465025 -0.043631915 -0.0072800815 -0.015666207 0.038868897
0.03164711 0.034479246 0.030265208 0.019142589 0.042423327 0.0184357 0.025777668 0.0029831636
-0.036345843 -0.016755763 -0.011078017 -0.04758605 -0.009558775 -0.025107954 -0.0037348773 0.036625694
0.04469599 -0.040815387 -0.023847274 0.0044340366 0.01593016 0.043558635 0.06690662 -0.03985269

2.bias f4 [256]
00000000: f33a d23c 8280 9abd b7d7 07bd 6c5d e8bc
00000010: 26c7 093d 3256 02bd 06c9 133d cc4a febc
00000020: cde9 6a3d 9dd2 18bd f5de fb3c 9787 3c3d
00000030: 7ef6 cabc e5ec b83c cfd6 073c b7a7 0e3c
00000040: f38b cd3a d179 3bbd 476b 26bc 5f29 7d3c
00000050: 8200 573d 2454 ff3c 32f4 163d fbd6 59bd
00000060: 6e68 413d 9767 95bc 4a97 0abd 2b28 563c
00000070: a20b 5ebd 80c7 e1bc 1122 d5bb 2750 6a3d
00000080: 883c b9ba 6987 603d dcaf 203c aaa8 9a3d
00000090: 7abd 003c 7e9e 88bc a1eb c53c 2eb6 013d
000000a0: 1e60 19bd 66f9 313d f4b9 5fbc d3c3 c43c
000000b0: fd76 ca3c 1baf 91bc 14b6 593d a80b 263d
000000c0: b1a3 85bb 2029 b1ba 4235 c33c 52cf 01bd
000000d0: dde7 d93c 31c3 e5bc bdae b0bc 70f0 eb3c
000000e0: 4993 02bd 3a55 7d3c 4869 f4bc 5ca5 3d3d
000000f0: 000f 40bd c239 58bd 81c7 8c3d b5be 8abd
00000100: 1400 b2bc 923a 5bbd 2806 913d 3017 e33c
00000110: 1d02 71bc 6084 85bd 92ff 783c 1c3e 94bc
00000120: e7d5 973d 972a 03bd 13b0 253d aa4b 393c
00000130: cace 28bd 1f00 f3bc 352f 813c 4dff 203d
00000140: 44a9 84bc 5c8c 28bd db67 1d3b 48df b53b
00000150: ba4c 023d 70a5 ecbc de63 9d3d 2f09 0b3d
00000160: 3442 14bd ee2f 473d 758a 62bc 38e5 4fb9
00000170: a127 76bc 5b5a 1abd 71b3 60bb d435 ea3c
00000180: 5a18 2a3d cc72 66bd d6d1 8b3d 5d28 bdbc
00000190: 6a07 c53c 1b1d 903d d40a 2fbd 7b8d 33bb
000001a0: 4f0f 233d e879 773c a671 c53b 0fc3 d939
000001b0: 27be 863c f3a4 10bd 22b9 92bc 94e3 e6bc
000001c0: 55e1 4bbd 47be 933c e927 32bd c4fa 0e3c
000001d0: b550 27bd 1f15 703d 7ce6 5b3d 5dd2 6ebd
000001e0: 1e02 1ebd df36 813c 2e06 7e3c a3fe 10bd
000001f0: d11d 07bc 37b5 ef3c 4acd fabc 1afb e9bc
00000200: 9b1f a53b a5ee e1bc e22a 25ba e23a 0c3d
00000210: 1421 02bd bf72 9bbb c45c f6bc 1fcb 2a3d
00000220: 8ea6 0b3c 853e 4fbd 07ae 843d 5447 84bd
00000230: 13ac 0c3b 0e24 843c f33b 073a c05c 89bb
00000240: 9328 d3bc c3c9 50bc 0d06 35bd d0f0 56bc
00000250: 2d3e 01bd 7a5b 283d 1450 113d 0390 8fbd
00000260: fd8b 623d cf8a 72bd e5c0 59bd b1d3 32bd
00000270: 2ddc 713d af9b 7ebc c433 17bd 1611 fa3c
00000280: 8302 a3bd d213 84bd 5d7e 7d3b e3ea f83c
00000290: d0bd 63bb aa88 473d a97e 21bc 199d 0cbd
000002a0: a573 5cbd 58dc c1bb 2807 8bbc cac0 0c3c
000002b0: 7afa 63bd 1049 35bd 6aba 5b3d 0578 3ebc
000002c0: 243e 053c 3bc1 8dbd 3869 57bc 3424 1a3c
000002d0: 7813 fcba ea05 fa3c b651 66bc 7b2d 9f3d
000002e0: c02d 903c 5758 30bd 8bd0 283d 6cf5 ac3b
000002f0: 8f33 603d 4b60 b83b 81fc 8fbd 8d2a 2dbd
00000300: e8d6 09bd 97f7 28bd bead 103d 8d51 37bd
00000310: f356 e9bc cd00 27bd 8213 81bd 2b7c 9dbd
00000320: ed20 eabb 0310 40bd 2047 30bb a7d9 09bc
00000330: e33f ecbb 3b94 32bd 80b0 963d cfcb a03c
00000340: d2ae 853d 24cb 8cbd 7a6f 1bbd c673 ff3c
00000350: 1b83 1c3d e4dd c4bc 3277 83bd 73b7 27bd
00000360: bd20 d63c ea84 44bd 8f1d 02bd 45cd 9ebc
00000370: 2dd2 853b b4e0 953c ed16 4dbd 6c44 14bb
00000380: c9c4 81bd 2c19 423d 7b8b 053c e03f b23c
00000390: 2d36 46bd e1d5 8bbc adc7 803d 8aee cc3c
000003a0: 84c5 653d 31ce dfbb 105e 213b 7989 20bd
000003b0: d072 423d a3a0 d3bc 2e49 093c 45fd 1d3d
000003c0: 686c 8ebc a359 13bd 6fd7 8cbd 6c18 2f3d
000003d0: 9384 93bd 4e3b a3bc 6214 863d 7d39 01bd
000003e0: 26f8 8bbc 8241 4a3d 9612 a13c 40be f13a
000003f0: fdd9 1cbc bda5 813d 7500 ed3c e37c 90bd
0.025662875 -0.07544042 -0.033164706 -0.02836486 0.03363719 -0.031820484 0.036080383 -0.031041525
0.057351876 -0.03731023 0.030745963 0.046027746 -0.02477574 0.022573898 0.00829096 0.0087069785
0.0015681967 -0.04577047 -0.010157413 0.015451758 0.05249072 0.031168051 0.036853977 -0.053183537
0.047218733 -0.018237872 -0.033835687 0.0130711 -0.054210313 -0.02756095 -0.006504305 0.057205345
-0.001413242 0.054816637 0.009807553 0.07551701 0.007857675 -0.016677137 0.024160208 0.03166788
-0.03744518 0.043450736 -0.0136551745 0.024019158 0.024714941 -0.017783692 0.05315216 0.04053846
-0.0040783514 -0.0013516285 0.023829106 -0.031691857 0.026599819 -0.028047176 -0.021567697 0.028801173
-0.031878743 0.015462214 -0.029835358 0.046300277 -0.046889305 -0.052789457 0.0687399 -0.06774656
-0.021728553 -0.053522654 0.07081252 0.027721018 -0.0147099765 -0.06519389 0.015197651 -0.018096022
0.074138455 -0.03202304 0.04045112 0.011309544 -0.041212834 -0.029663144 0.01576958 0.039305974
-0.016193993 -0.041149482 0.0024018202 0.005550299 0.031811453 -0.02888748 0.07685064 0.033944305
-0.03619595 0.048629694 -0.013826956 -0.00019826449 -0.015024097 -0.037683826 -0.0034286643 0.02859012
0.04152713 -0.056261823 0.068271324 -0.023090536 0.024051387 0.070368014 -0.042734936 -0.0027397561
0.03980952 0.015104748 0.006025511 0.00041534795 0.016448094 -0.035313558 -0.017910544 -0.02818469
-0.04977544 0.018035067 -0.043495093 0.008726779 -0.040848453 0.058613893 0.053686604 -0.058306087
-0.038576238 0.015773235 0.015504403 -0.03539909 -0.008246855 0.029261215 -0.030615468 -0.028562117
0.005039168 -0.027579615 -0.00063006405 0.034235843 -0.031769827 -0.0047439034 -0.030073531 0.041697618
0.008523596 -0.050596733 0.064785056 -0.06458917 0.002146487 0.016130473 0.00051587744 -0.004191965
-0.025776183 -0.012743416 -0.044195224 -0.013118938 -0.031553436 0.041102864 0.03547676 -0.0700989
0.055309284 -0.05921441 -0.053162474 -0.043658916 0.059047867 -0.015540048 -0.036914602 0.030525725
-0.079594634 -0.06449093 0.0038680055 0.03038544 -0.0034750588 0.048714317 -0.009856858 -0.034329507
-0.053821225 -0.0059161596 -0.016971186 0.008590886 -0.055658795 -0.04425913 0.053644575 -0.011625295
0.008132491 -0.069216214 -0.013147645 0.009408046 -0.0019231876 0.030520398 -0.014057567 0.077723466
0.01759994 -0.043052997 0.041214507 0.00527828 0.05473667 0.0056267134 -0.07030583 -0.042276908
-0.033652216 -0.041251745 0.035321943 -0.044755507 -0.028483843 -0.040772248 -0.06302549 -0.07689699
-0.0071450383 -0.04689027 -0.0026897863 -0.008413709 -0.0072097643 -0.043598395 0.073578835 0.019628434
0.06527485 -0.068746835 -0.03794811 0.031183135 0.03821097 -0.024031587 -0.06419219 -0.040946435
0.026138658 -0.04797832 -0.03176647 -0.01938499 0.004083893 0.018295623 -0.05007069 -0.002262379
-0.06336362 0.047387287 0.0081509305 0.021758974 -0.04839151 -0.017069759 0.06288085 0.025016088
0.05609657 -0.00683 0.0024622716 -0.039193604 0.047472775 -0.025833433 0.008379264 0.038571615
-0.017385677 -0.035974156 -0.06877028 0.0427479 -0.07203021 -0.01992574 0.065468565 -0.031548966
-0.0170861 0.04937888 0.019662183 0.001844354 -0.009573457 0.0633044 0.028930882 -0.0705507

4.weight f4 [2, 256]
00000000: 584c 063a 9220 053c cdb7 833d e312 d83c
00000010: 3682 4bbc 0472 913d 6ea2 acbb eff1 883c
00000020: 8033 d23b 980b bc3d b4f4 e8bb 74e6 be3b
00000030: 60e6 d93c d1a0 3f3c f61f fabc 176a 5e3d
00000040: 849a ac3b a69f b23c 8110 ffbb 1ccf 3cbd
00000050: b4f7 bdbc 0941 85bd d205 60bd b948 f5bc
00000060: 4c89 aa3c 6a9a 943d f57f c3bc 3ed8 523a
00000070: 97aa 373d 8070 7d3c c1b8 663d 7fad 15bd
00000080: d6a9 263d b799 0ebd bde0 de3c 28dc c8bc
00000090: 8d47 fbbc a562 f03b d60e 3c3d e43f 90bc
000000a0: 3e01 483d a235 743d bbd3 563d fabf 443d
000000b0: 623a 8bbc cae9 0fbd 1af5 53bc a2b6 6dbd
000000c0: 8b63 3ebb dc70 623c d6c9 1c3d 606f a03c
000000d0: 9162 42bd 097b 0f3c d849 cf3c d493 703d
000000e0: 7c2a 5a3d df2c 9cbd 5311 173d 9cab e63c
000000f0: 94e3 13bd bf7c 003d 7f51 4cbd a721 b33b
00000100: 7ce7 4f3d 05ef 1c3d 2122 42bd b261 223d
00000110: 3bb3 4d3d d01e 953a 70d5 5fbd 0c29 a9bb
00000120: 43c5 4d3c e7a4 593d c349 49bd 8d95 633d
00000130: 57ed ee39 af62 d33c 25b7 cb3c 1ca8 48bc
00000140: 5054 b3bd d228 72bd 8722 873d 6392 b53c
00000150: a5de f9bc aeb4 13bb 41f8 a4bd a130 633d
00000160: 8af6 0fbc b9dc ae3b 3be5 96bd 918d 49bd
00000170: adc6 b63a d099 f13c bf17 bd3c dcfc cb3a
00000180: a612 df3c b3a1 c13b 6065 043c efb1 903d
00000190: deb2 383d 0663 60bd 800b 80bb 78bf 403d
000001a0: c79b 78bc 1270 0abb 2f63 803d fb95 1cbd
000001b0: b56e 23bd f2ef ff3c 1839 3ebd 5e42 a33c
000001c0: 1625 41bd 1d27 eb3c 3dc9 ec3c 7184 6d3d
000001d0: 641f 7ebd 7b87 3abd c596 4cbd b32a 0f3d
000001e0: a677 f1bc fde4 e93b 6901 15bd d56e 2ebd
000001f0: 51f2 103c dd51 033d f7b1 c4bc 3699 69bb
00000200: a3a6 45bd 35b5 fd3c c757 edbc 6bfc 9abd
00000210: b95b 473d 44ef be3c 45fe 543d 392c 65bd
00000220: 4021 23bc c43b b13d 97ae 03bd 4a5e 523d
00000230: cc5a 10bb 27ba 293d 2a9c 7dbd a343 07bd
00000240: ca9a 7ebc 0b82 7f3b 1194 6e3b f863 29bc
00000250: e1e8 e13a 587e 9ebd 4b7b eabc 6f19 773c
00000260: 886a 1abc ba6a 233d 8b4a cdbc e411 c03c
00000270: 92c6 853c ad75 8fbc 59cb 503c 4b22 63bc
00000280: 26c6 b53c 47c6 083d f8cb 4ebd 14dd 0f3d
00000290: 612b 93bc e2ee 50bd 6177 92bc 9c2f f93c
000002a0: 0374 9aba 1c62 4e3c afaa a93c 5b66 123d
000002b0: 8e49 6c3d b951 24bc 5dce 38bd b873 24bd
000002c0: 62b2 aa3b 81ac 363d 9ff5 603b 202c d03d
000002d0: 6073 e6bb a616 d83c 6f3f 7f3c 7f65 81bd
000002e0: 9b75 e9bc c9de 2abd 3fda 29bd e4a3 7e3c
000002f0: a5c5 e63b 6b23 70ba 2c2f d73a cc5e d1bc
00000300: ae03 183b df02 353c 519c 13bb e352 fd3c
00000310: c208 f03c f22f 47bd 7b5c 8e3c 45fe 903c
00000320: d5a7 a13d b1d0 26bd 3ee3 aabd bf24 8f3b
00000330: f63d 623c 0a88 193d a257 6ebd cd5c 10bd
00000340: fa33 25bd ea8b e7ba 3c6f 24bc b151 663b
00000350: dd08 043d a032 163d 94e9 a6bc 4dbc 353d
00000360: 4d90 733d b5c7 533c ce94 26bd 58fc 72bd
00000370: 6fe0 2c3d 7820 513d a2a5 1d3d de21 8a3d
00000380: 58f9 5a3d 00fc f4bc 63f3 ecbc 5bae 5fbd
00000390: a3dd 6fbd 26d4 373d b04b 87bc 13b5 65bd
000003a0: 10ef abbc 052e e7bc 2db2 41bd 6932 b73d
000003b0: 2bd0 853d 6773 19bd bd4c 8d3b 9d03 c8bb
000003c0: 7e54 1c3c 09cd 703b f936 453c 7ae3 2e3c
000003d0: 65ab 8b3d 1078 da3b ff51 0a3d 23c4 9abc
000003e0: 76d1 ddbc 3d62 b6bc 8011 1a3d fe10 633c
000003f0: 0f02 f0bc 72fa 88bd d60c 5bbd 723d 3f3d
0.00051230704 0.008125441 0.064315416 0.026376193 -0.012421181 0.07101825 -0.0052683866 0.016716925
0.0064148307 0.09181899 -0.007109249 0.005825812 0.02659911 0.011696056 -0.030532818 0.054300394
0.005267443 0.021804642 -0.00778395 -0.046095952 -0.023189403 -0.06506545 -0.05469305 -0.029941903
0.020817421 0.07256015 -0.023864726 0.0008043087 0.04484042 0.015468717 0.05632854 -0.036542412
0.040689312 -0.034814563 0.027206773 -0.024519041 -0.030673767 0.007335978 0.045912586 -0.01760859
0.04882931 0.05962146 0.052448016 0.048034646 -0.016995613 -0.035135068 -0.012936855 -0.0580355
-0.0029051031 0.013820853 0.038278423 0.019584358 -0.04745728 0.008757361 0.025303766 0.05873473
0.053263173 -0.07625746 0.036881756 0.028158002 -0.036105707 0.031368967 -0.04988241 0.005466658
0.05075787 0.038313884 -0.04739583 0.03964395 0.050219756 0.0011376981 -0.05464691 -0.005162364
0.012559238 0.05313578 -0.04914261 0.055562545 0.0004557173 0.025803892 0.024867604 -0.012247112
-0.08756316 -0.05912096 0.065983824 0.02216453 -0.030501673 -0.0022538113 -0.08055163 0.055466298
-0.008786807 0.005336371 -0.07367941 -0.049207274 0.0013944708 0.029492289 0.023082612 0.0015563029
0.027230572 0.0059091686 0.00808081 0.07065188 0.045092456 -0.054781936 -0.003907621 0.0470576
-0.015173859 -0.0021123928 0.06268918 -0.03822897 -0.0399005 0.031242345 -0.046441168 0.019929107
-0.04715451 0.028705174 0.028904552 0.057987634 -0.062041655 -0.04553936 -0.049948473 0.03495283
-0.029475998 0.0071378932 -0.036378298 -0.042586166 0.008846835 0.032060493 -0.024010642 -0.00356443
-0.04825462 0.030970195 -0.02897252 -0.07567676 0.048671458 0.02330745 0.052000303 -0.055950377
-0.009956658 0.086539775 -0.032148924 0.051359452 -0.0022026775 0.041437294 -0.061916508 -0.033023488
-0.015539834 0.0038987424 0.0036404172 -0.010338776 0.0017235541 -0.07738942 -0.028623244 0.015081747
-0.009424813 0.039896704 -0.025059959 0.02344603 0.016330037 -0.017512167 0.012743794 -0.013863157
0.022189211 0.033392217 -0.05048749 0.035122946 -0.01796502 -0.051009066 -0.01787919 0.03041821
-0.0011783842 0.012596633 0.020711271 0.035742145 0.057687335 -0.01002925 -0.04511868 -0.04014942
0.005209253 0.044598106 0.003432609 0.10164666 -0.0070327967 0.026377987 0.015579089 -0.06318187
-0.028498461 -0.04171637 -0.0414679 0.015542004 0.007042604 -0.0009160551 0.0016417257 -0.025557898
0.0023195553 0.011048048 -0.0022523592 0.030923313 0.029301051 -0.04862971 0.017378082 0.01769937
0.078933395 -0.040726367 -0.08344124 0.004368394 0.013808718 0.037483253 -0.058189042 -0.03524475
-0.04033277 -0.0017665599 -0.010036286 0.0035143907 0.032235015 0.036669374 -0.02037505 0.04436903
0.059463788 0.012926032 -0.040669255 -0.059322685 0.042206224 0.051056355 0.038488038 0.06744741
0.05346045 -0.02990532 -0.02892465 -0.054609638 -0.05856098 0.044880055 -0.016515583 -0.05608089
-0.020988017 -0.028220186 -0.047289062 0.08945162 0.065338455 -0.037463572 0.0043121264 -0.0061039464
0.009541629 0.0036743304 0.012037032 0.010674352 0.068198 0.0066671446 0.033769604 -0.018892353
-0.027077418 -0.02226364 0.037614346 0.013859032 -0.029297857 -0.06688394 -0.05347904 0.04668946

4.bias f4 [2]
00000000: 989f 303d b528 353d
0.04312095 0.044228274

exp_avg f4 [256, 4]
00000000: fb3b ce39 5787 8339 3060 f9b8 0416 9ab9
00000010: 4fa1 85ba b4ec 4dba 563a 69ba 676a 3437
00000020: fb4a c03b 1a51 803b 9734 8a3b 3e92 d5b9
00000030: 57f5 803a a87e db39 b8d4 263a 48a0 5639
00000040: 452f b6ba 3ff1 47ba b380 abba 796f 05ba
00000050: fa61 27ba 332c edb9 107b d8b8 b4cb b039
00000060: ebe1 ccb9 db2c 86b9 8161 b9b9 0b61 8cb8
00000070: 4da0 083a ffb7 b739 76fc b0b9 488f 1fba
00000080: fd1f 7a3a a010 ca39 a48c 3bba d548 5fba
00000090: d424 4ab9 8c4a 0eb9 cacf 10b8 83bc ad38
000000a0: eb18 12b7 bccf 0fb9 5c17 bdb9 a44e 4eb9
000000b0: d241 f73a b177 56ba 0aa3 0ebb 1780 f9b9
000000c0: 7a67 093a b7b3 d639 c16a 2b39 1e60 68b9
000000d0: 6752 25bc 5057 a9b8 f48a 7a3b 9d63 333a
000000e0: 17c4 77ba 7be3 0dba 0f80 e5b8 3072 c439
000000f0: 6503 efba 6b11 82ba 97fb 9cba 3b2d 29b9
00000100: 5621 7c3b 3e5d 043a 147c 673a 0cb1 883a
00000110: a417 1b3a 47ed f139 bfff 92b9 414d 1fba
00000120: d198 e239 98a4 ceb9 46cd e0ba 1f4c 6fba
00000130: 5b4c b6bc 8778 c6bb 6bcb 2dbb 040f c039
00000140: 992a 26bb f3e0 80b7 01c8 9b3a 3713 203a
00000150: b817 8039 11c9 1939 44bc 3fb9 d65c 9fb9
00000160: c6fe a5b8 045d 75b9 1286 833a 88cc 7d3a
00000170: c142 3a3a 9914 ee39 5ce5 07ba 0ac4 48ba
00000180: eb57 8abb 9e45 c6ba 2dac 3bb9 0ac5 3e3a
00000190: a5ed 66b9 9782 2fb9 d0b7 0239 8f98 9639
000001a0: d7b1 dfb8 15d2 8d39 4eb0 45ba 117a 62ba
000001b0: 7e76 1fba fcf4 08ba e829 9039 bc31 433a
000001c0: 7111 703c 2cd7 0d3b 3ab4 b1ba ddee 0bba
000001d0: afbb 6e3a ffdd 363a 58fa f7b9 66cc 85ba
000001e0: 4e55 7bb9 1156 d3b8 ceee 3a3a c527 363a
000001f0: b549 533a 0609 0b3a 7027 883a f306 cb39
00000200: 5abe fd38 e451 043a 75ca 8139 ece6 8bb9
00000210: a786 a93a 1760 443a 48da aa3a 8ed0 ea39
00000220: a1ad 8a3a f7f3 263a 8523 713a 4e71 5639
00000230: 5bd1 8439 5700 7a39 cb01 04ba 8b63 3cba
00000240: 89a3 883a 3e9b 0a3a da6b f038 be99 a8b9
00000250: 4357 0a3a 74ac 4e39 357b a739 875d 6139
00000260: 0a5a ee39 a691 aa39 27bf 05b9 3116 e5b9
00000270: 865c 553a 5143 093a d2a7 6239 30c3 8cb9
00000280: 0041 c6ba 24fa 76ba 9a85 a5ba 53cb 84b9
00000290: adff b839 bef4 5eb8 7c46 1d3a 153b 113a
000002a0: 8580 113a 6a04 f139 d1e9 e7b9 4695 52ba
000002b0: 6324 0a39 7b44 2139 a545 ddb8 b7ee 66b9
000002c0: 654a 7e3a 669c c039 9af0 8139 64e4 39b8
000002d0: 75ff 3fba 3ba6 cfb9 1136 ff39 acc7 383a
000002e0: a7c6 aa39 6b8d 7039 40ee 82b9 087c e9b9
000002f0: f6d6 29ba 2062 0aba 2f54 eb39 27e7 4d3a
00000300: 62e6 853a 8202 1c3a f082 463a a623 2839
00000310: 786f a338 c6a1 9b39 9c72 7439 0275 edb8
00000320: 55a7 b63a c790 f738 040d ccba e76c 90ba
00000330: 75ae dd39 b546 9439 a4e4 e1b9 8bad 22ba
00000340: bede 1dbb 74ab 49ba 9e54 eab9 8c3a 9036
00000350: 6635 8a37 92fe 59b9 e016 ff39 6a85 133a
00000360: 8a2b 873c 0583 233b 1779 ccba 5e36 c1b9
00000370: 5702 0338 a3f6 bf38 3be0 1eb8 93a2 18b9
00000380: 94f9 033a d2a2 0d39 eb9b e4b9 2901 e3b9
00000390: 0a8d bfb9 ca7f 6db9 988f 4bba cfdf afb9
000003a0: 1f33 f339 680d d639 b66c dbb9 44cd 49ba
000003b0: 1e7d 763a 440a e639 f3a8 323a cb19 3b39
000003c0: bc28 97bb 1c81 06bb 92ca e3ba 9170 1439
000003d0: d829 9139 53cc 0239 1af9 a3b9 b4cc 92b9
000003e0: aa0c 363a 7e6a 103a 9711 15ba 635d 79ba
000003f0: d8d5 e2bb 7aae 0dbb 2b85 9fba 3729 9739
0.0003933607 0.00025087103 -0.000118911616 -0.00029389572 -0.0010195168 -0.0007855401 -0.00088969374 1.075361e-05
0.0058683134 0.003915918 0.004217695 -0.00040735485 0.0009838742 0.000418653 0.0006364095 0.0002046834
-0.0013899585 -0.0007627196 -0.001308462 -0.0005090158 -0.0006385144 -0.00045237094 -0.00010322605 0.00033721107
-0.00039078234 -0.00025591892 -0.00035358596 -6.693796e-05 0.0005211875 0.00035041568 -0.00033757434 -0.0006086719
0.000954151 0.0003854083 -0.0007154441 -0.0008517628 -0.00019277941 -0.00013569946 -3.4525794e-05 8.284396e-05
-8.70808e-06 -0.0001371493 -0.00036066293 -0.00019674987 0.001886422 -0.00081812876 -0.002176466 -0.00047588415
0.00052415545 0.0004095116 0.000163476 -0.0002216105 -0.010090447 -8.074811e-05 0.0038229795 0.00068431516
-0.0009451522 -0.00054126204 -0.00010943424 0.0003746911 -0.0018235265 -0.0009923404 -0.0011976835 -0.00016133946
0.0038472018 0.00050492946 0.000883044 0.0010428741 0.00059163035 0.00046143887 -0.00028037836 -0.00060768804
0.00043219936 -0.00039414014 -0.001715102 -0.00091284694 -0.022253206 -0.0060568484 -0.0026518952 0.0003663228
-0.002535498 -1.536354e-05 0.0011885167 0.0006106379 0.00024431734 0.0001466612 -0.00018285314 -0.0003039601
-7.915268e-05 -0.00023399672 0.0010034463 0.00096816616 0.0007105284 0.00045410244 -0.00051840185 -0.00076586066
-0.0042219064 -0.0015126949 -0.0001789785 0.0007277286 -0.00022023039 -0.00016737949 0.00012466242 0.00028723895
-0.00010666594 0.0002705014 -0.0007541225 -0.0008639405 -0.00060830254 -0.0005224494 0.00027497043 0.00074460707
0.014652596 0.0021643145 -0.001355774 -0.00053380226 0.00091069465 0.0006975829 -0.00047298032 -0.001020801
-0.00023969004 -0.00010077295 0.00071309216 0.0006948675 0.00080599944 0.0005303774 0.001038773 0.00038724355
0.00012099436 0.0005047603 0.0002475564 -0.00026684196 0.0012933806 0.0007491125 0.0013035024 0.00044787343
0.001058031 0.0006368751 0.0009198713 0.0002045084 0.00025332984 0.00023841985 -0.00050356676 -0.0007186464
0.0010424714 0.0005287415 0.00011464181 -0.00032158004 0.0005277285 0.00019709935 0.0003194452 0.00021492514
0.00045461982 0.00032533443 -0.00012755078 -0.00043694818 0.0008139092 0.0005236166 0.00021615557 -0.00026848307
-0.0015125573 -0.0009421429 -0.0012628317 -0.0002532849 0.00035285708 -5.315686e-05 0.00059995777 0.0005540115
0.0005550462 0.0004597039 -0.0004423396 -0.0008033108 0.0001317426 0.00015379667 -0.000105510735 -0.00022023437
0.00097004167 0.0003673762 0.0002478406 -4.4320142e-05 -0.0007324138 -0.00039605968 0.00048677673 0.00070487964
0.00032572934 0.00022940866 -0.00024973042 -0.00044533634 -0.000647887 -0.0005278904 0.00044885415 0.0007854574
0.0010215754 0.00059513014 0.0007572612 0.00016035009 7.793208e-05 0.00029684434 0.00023312349 -0.00011322835
0.0013935367 0.00011804845 -0.0015567844 -0.0011018784 0.00042282385 0.0002828144 -0.00043085695 -0.00062056695
-0.0024089064 -0.000769309 -0.00044695003 4.29835e-06 1.6475748e-05 -0.00020789567 0.00048654433 0.0005627485
0.016500253 0.002494992 -0.0015600052 -0.00036852335 3.1235013e-05 9.1535294e-05 -3.7878966e-05 -0.00014556413
0.00050344435 0.00013507463 -0.00043603717 -0.00043297678 -0.0003653544 -0.00022649686 -0.00077652326 -0.00033545351
0.0004638666 0.0004082725 -0.0004185193 -0.00076981285 0.0009402799 0.00043876667 0.00068153365 0.00017843318
-0.00461301 -0.0020523733 -0.0017379096 0.00014156314 0.0002768773 0.00012473883 -0.00031275378 -0.00027999806
0.0006944636 0.00055090326 -0.000568652 -0.0009512512 -0.006922465 -0.0021618889 -0.0012170424 0.00028831672

exp_avg_sq f4 [256, 4]
00000000: b8a3 8836 f351 da35 1a3f 8435 cff4 a034
00000010: b708 fa38 f40a bc37 331d 9837 b658 0e36
00000020: fb43 f93c 8761 353a fe5a c838 5cf8 e537
00000030: 70f8 3937 ce75 b536 130d f036 42d7 6d35
00000040: cf26 9d39 bbe1 2738 0429 2738 2817 fa36
00000050: 9e90 5437 070c 5736 e17a b335 ece6 1535
00000060: 9b87 5737 eec4 2236 8714 3036 a846 3f34
00000070: cd4e 2736 cd19 bb35 0f9f 3636 10b1 9535
00000080: da47 dd35 3362 b135 1bca af36 28e4 fd35
00000090: 5399 1136 1a93 3736 a087 6636 9e23 8535
000000a0: 9ae1 8238 6048 ee36 6c8e c435 fc19 0735
000000b0: a0a2 4a3c 4de2 7039 4645 b338 7574 a337
000000c0: a2af fd36 81e0 3936 3c2d 3836 eabd 4935
000000d0: 3ee7 643c b1fa 0a3a 2595 bd38 caea c737
000000e0: b7dc 4d38 154f f636 06a2 3836 7304 b335
000000f0: dc46 7e38 c45a b237 fd07 9f37 2cf1 5836
00000100: acc2 d139 334f b337 f5b8 1537 aad5 9e36
00000110: f143 3d36 0c78 0736 4dba 0837 2722 0d35
00000120: f743 923b ecd2 b738 ad8f 8238 ae9c 4b37
00000130: 3398 093c 4c58 b639 48e9 1638 888f 7137
00000140: d62f 883b df3a b038 89cd 5038 7fe3 0737
00000150: a4f0 e235 96eb 5636 ce8b e535 e5ad 2b35
00000160: 8346 ea37 64df 3737 99c6 d537 34bc 8436
00000170: c353 f735 1bb0 ac35 a447 0236 0db3 8e35
00000180: d5b2 393a 2f52 ee37 e3de 9d36 084a 5136
00000190: 100f 0036 4d89 4f36 e003 e835 be81 4a35
000001a0: ba39 c737 c06a 7837 99c1 ed37 ce15 b336
000001b0: 0632 9d35 7480 c035 fa06 8d36 fcf8 9935
000001c0: 6f67 813b 9d99 1039 e720 aa37 3868 7c37
000001d0: 78d9 fb36 87b6 9036 0c6c d237 8e65 4b36
000001e0: 14f7 1c37 75c6 cf36 797d 7c37 98bc 3b36
000001f0: 0ca4 9438 09ca ca37 d9c3 f137 4835 bc36
00000200: 66e3 043c 03fe c238 b188 3a38 e418 3c37
00000210: d5ff 0c39 f01b dc37 bd01 de37 c80a 9336
00000220: 2fff 3f39 e6cf 2638 517c 0e38 d6ee c236
00000230: f9ec 7a38 c914 be36 c125 9037 d7c4 b535
00000240: c012 0939 e54f 4637 93cb 6636 2159 c235
00000250: 36f1 ff36 30dd 0536 7251 e235 506e 9535
00000260: 35c0 dc35 64a6 1436 cbfa 9f35 a30b 0235
00000270: 2f6a f537 b88a c136 e515 3c36 7277 2e35
00000280: c2de 8339 4ab5 4338 9bf3 f237 95b1 f836
00000290: 943e 3d37 884b b036 a582 2437 4fc5 a335
000002a0: 2adc 6636 8194 0b36 2850 d136 83a3 1036
000002b0: e7c8 9535 5a52 6735 5eb6 7835 5874 ab34
000002c0: 465d ce36 3019 f735 7da2 f335 9582 8b35
000002d0: d47e b335 d1b6 9635 8f55 1036 3f79 1235
000002e0: 8511 7935 411c a935 9b9f a135 e88e 1635
000002f0: 1dd6 5c36 700a 6736 ea9f 2337 8eb0 0636
00000300: d11b 3339 e828 0838 b5fe a637 114d a836
00000310: 1054 1c3a 3465 d337 8c2a af36 6e2a 2736
00000320: d683 bb3a 7ae4 3038 9084 a837 7e41 fe36
00000330: b4e7 e535 a609 cb35 55fd df35 176d 5835
00000340: 98f1 6a39 4e18 ea37 20ba 6a37 8d1c 7236
00000350: 53d1 e536 baf7 5636 6613 d336 d884 df34
00000360: efee 7d3b 33ec da38 732b 7b37 8262 ef36
00000370: 27dd 0f38 df24 4c36 6463 4e36 80ac 6b35
00000380: e026 fa34 23fa e634 057a 3935 3a75 8a34
00000390: 2ad7 3637 1d36 cf36 0fbe 0637 7307 9535
000003a0: b47b 3e35 151e 2b35 c731 fa35 cb54 fb34
000003b0: 6fb3 a337 dd17 0d37 e8ba 0637 1038 6135
000003c0: 5e93 2b3c 700f 7b39 5f1f a438 d41c 7b37
000003d0: c156 2936 3d1d 3d35 60cc a934 bf39 8a34
000003e0: 4ba6 ca36 1d26 9536 9165 5837 2a3d 3e36
000003f0: 2134 233b f07f fb38 9c3e b837 1892 0c37
4.072175e-06 1.6266116e-06 9.853131e-07 2.9980444e-07 0.00011922552 2.2416447e-05 1.8133409e-05 2.1211285e-06
0.030427923 0.0006919135 9.553692e-05 2.7414579e-05 1.1084703e-05 5.4079346e-06 7.1540794e-06 8.860262e-07
0.00029974288 4.002613e-05 3.98541e-05 7.4532763e-06 1.2669856e-05 3.2044497e-06 1.3372302e-06 5.584286e-07
1.2846572e-05 2.425451e-06 2.6237992e-06 1.7813966e-07 2.4930807e-06 1.3940095e-06 2.7212698e-06 1.1152897e-06
1.6486695e-06 1.3216107e-06 5.2389346e-06 1.8916371e-06 2.169593e-06 2.735475e-06 3.4351615e-06 9.919638e-07
6.2409046e-05 7.1013783e-06 1.4644588e-06 5.032923e-07 0.012367874 0.00022972487 8.548288e-05 1.9485344e-05
7.560434e-06 2.7697827e-06 2.7444466e-06 7.5154696e-07 0.013971148 0.0005301638 9.0400026e-05 2.383198e-05
4.9081365e-05 7.3405777e-06 2.7512447e-06 1.3337834e-06 6.0624312e-05 2.126152e-05 1.8957997e-05 3.2326889e-06
0.00040008628 2.1375343e-05 8.924156e-06 4.7336407e-06 2.8202742e-06 2.0186444e-06 8.149608e-06 5.257629e-07
0.0044636684 8.765407e-05 6.225645e-05 1.2136223e-05 0.0083981035 0.0003477953 3.5980047e-05 1.4398138e-05
0.004156093 8.4032996e-05 4.9782484e-05 8.099595e-06 1.6908348e-06 3.2025614e-06 1.7102518e-06 6.3955514e-07
2.7927808e-05 1.0959662e-05 2.5484058e-05 3.9558163e-06 1.8427312e-06 1.2866252e-06 1.941321e-06 1.0631935e-06
0.0007083838 2.841008e-05 4.704912e-06 3.1186519e-06 1.9082254e-06 3.0925323e-06 1.7286475e-06 7.5439664e-07
2.374953e-05 1.4806807e-05 2.8342753e-05 5.337154e-06 1.171197e-06 1.43425e-06 4.2029396e-06 1.1471852e-06
0.003949098 0.00013790136 2.02809e-05 1.5044636e-05 7.5056996e-06 4.3127834e-06 2.5084264e-05 3.030847e-06
9.355852e-06 6.192184e-06 1.5049584e-05 2.7974947e-06 7.087746e-05 2.4174356e-05 2.8820637e-05 5.6090394e-06
0.008110857 9.297954e-05 4.447316e-05 1.12114685e-05 0.00013446745 2.6239053e-05 2.6465272e-05 4.3821965e-06
0.00018310243 3.9771105e-05 3.3971217e-05 5.8094547e-06 5.9825343e-05 5.664861e-06 1.7183718e-05 1.3542839e-06
0.00013072323 1.1820322e-05 3.4391167e-06 1.4480066e-06 7.627673e-06 1.9947292e-06 1.6862016e-06 1.113347e-06
1.6447217e-06 2.215057e-06 1.1919414e-06 4.844571e-07 2.9255722e-05 5.767997e-06 2.8026927e-06 6.4993867e-07
0.00025152235 4.666046e-05 2.8962086e-05 7.411649e-06 1.1279848e-05 5.2540017e-06 9.80558e-06 1.2201871e-06
3.4400823e-06 2.0799055e-06 6.238017e-06 2.1552848e-06 1.1159835e-06 8.6174043e-07 9.265258e-07 3.1935883e-07
6.150137e-06 1.8410265e-06 1.8152201e-06 1.0394311e-06 1.3373451e-06 1.1229077e-06 2.1507474e-06 5.4565675e-07
9.278522e-07 1.2599704e-06 1.2041886e-06 5.608731e-07 3.2907185e-06 3.4427758e-06 9.75279e-06 2.0070324e-06
0.00017081133 3.2463024e-05 1.990735e-05 5.015762e-06 0.0005963454 2.5200286e-05 5.2203595e-06 2.4909637e-06
0.0014306258 4.2174455e-05 2.008889e-05 7.577414e-06 1.7129264e-06 1.5127487e-06 1.6688524e-06 8.0625017e-07
0.0002240598 2.7906292e-05 1.39908225e-05 3.6077429e-06 6.8491004e-06 3.203268e-06 6.2905483e-06 4.1633643e-07
0.0038747152 0.000104390456 1.4970882e-05 7.134223e-06 3.429982e-05 3.041983e-06 3.0754245e-06 8.779534e-07
4.6594414e-07 4.3022837e-07 6.909543e-07 2.5789797e-07 1.0898142e-05 6.1753803e-06 8.031274e-06 1.1103533e-06
7.096053e-07 6.374624e-07 1.8640939e-06 4.6814088e-07 1.951467e-05 8.409811e-06 8.03054e-06 8.3900613e-07
0.010472147 0.00023942976 7.825973e-05 1.4967478e-05 2.523346e-06 7.0450534e-07 3.1627405e-07 2.574652e-07
6.039428e-06 4.444983e-06 1.2898251e-05 2.8347808e-06 0.0024902897 0.00011992443 2.1963664e-05 8.378665e-06
