distributed_shared/worker_logs/worker_0/models/model_episode_160.pt (torch, 816870 bytes, 16 tensors)

0.weight f4 [256, 4]
0.2875996 0.2514307 0.35872602 -0.2438222 -0.23864089 -0.26902658 -0.22021455 0.12317519
0.1013965 -0.39233178 -0.27258348 -0.07518382 -0.30115524 0.05297186 -0.39833096 0.44321683
-0.018056152 -0.4993462 0.25475326 0.24899065 0.12542742 -0.38585514 -0.18534598 0.32431749
0.34082776 0.22632115 0.11135873 0.047927417 -0.21762739 -0.4191448 -0.51283234 -0.22460406
-0.45965174 0.027318025 -0.109126136 0.0014671034 -0.112852715 0.49374437 -0.033513352 0.1402213
-0.080446854 0.22585326 -0.15018065 0.005629728 0.2303724 0.36088404 -0.20907359 -0.22847216
0.49112 0.2949138 -0.28173628 0.061214864 -0.23401903 0.057442095 -0.4494878 0.50417775
0.4224303 -0.3121558 0.08846571 -0.2463208 -0.007243549 0.102397665 -0.48823678 -0.5505018
-0.14725797 -0.05238805 0.49503335 0.23222843 0.31203324 -0.12786445 -0.39435947 0.51750016
-0.29183036 0.012738671 0.14998752 -0.20103724 -0.2691514 -0.3118438 0.17367683 0.21869701
0.23788728 -0.12085637 -0.42452323 -0.47015846 0.37323633 0.3597209 0.48714918 0.52284753
0.2714975 -0.13658075 -0.047469705 0.28007823 0.20940264 -0.36344528 -0.40042388 -0.0052021425
-0.059140325 0.31063074 0.45941335 -0.18846343 -0.37530965 -0.21713556 -0.04099474 0.3213279
-0.47371444 0.45913976 0.041864607 0.44532466 -0.25978577 -0.25132415 -0.35942194 -0.4748111
-0.05615607 -0.28521544 -0.3864104 0.114202894 -0.041372705 0.08556411 -0.38529187 -0.32060704
0.017402744 -0.18186961 -0.02576373 -0.3314321 0.24243368 0.09138703 -0.40227634 -0.18746036
-0.3732716 -0.10115393 0.2761543 0.46520194 0.31094444 0.23127434 0.43213713 -0.39827454
0.20775549 -0.1354515 -0.09930889 -0.2931576 0.23341298 0.3718868 0.18481618 -0.24558848
0.50978607 -0.4170663 -0.054463003 0.06359526 0.15925649 -0.093732424 -0.037660573 0.36122775
0.07529864 0.28905076 0.46760103 0.36671752 0.1484204 -0.5092031 0.56954837 0.27364
0.33915532 -0.20924252 -0.2483958 -0.28882745 0.30889076 -0.27765816 -0.015247819 0.35689017
-0.22028436 -0.14668685 -0.27518797 -0.49075624 -0.098628834 0.20753413 0.13876414 -0.4927143
-0.37534678 -0.47465724 0.1534945 0.37412566 -0.27073836 -0.3406608 -0.004529818 0.28748184
0.4910693 -0.20433223 0.3892433 0.4433516 0.07318617 -0.4157301 -0.37416172 0.055222243
0.3360424 -0.38252434 -0.32141083 -0.008942983 -0.29990572 -0.46728942 0.4281075 0.48875386
-0.15967852 -0.21648613 0.4785747 0.5215247 -0.39443296 0.27150097 0.03844159 -0.44382957
-0.16711338 0.50553745 -0.10948187 -0.46097654 0.39215726 0.029620726 0.26139638 0.46394512
0.15389544 0.27692375 -0.24565087 -0.051943433 0.4778799 0.2965718 -0.36132106 0.51122427
0.16323294 0.30392638 -0.15267242 0.08372224 -0.4527998 -0.25180846 0.47885585 -0.07889557
0.09444341 -0.46747512 -0.22023802 -0.4980088 0.27136075 0.29758334 0.09030191 -0.039506238
-0.046426002 0.45152646 -0.4565621 -0.029311065 -0.42277166 -0.32092446 -0.37556255 -0.32373154
-0.12386782 0.3556047 0.28422207 -0.18582723 -0.31144506 -0.20501232 0.4560455 -0.42462376
00000000: 4140 933e 86bb 803e f0aa b73e 87ac 79be
00000010: 475e 74be dabd 89be ec7f 61be 4643 fc3d
00000020: f8a8 cf3d b6df c8be 1090 8bbe faf9 99bd
00000030: 0531 9abe 05f9 583d 09f2 cbbe 51ed e23e
00000040: 7fea 93bc 4eaa ffbe 056f 823e 68f7 7e3e
00000050: 0c70 003e ce8e c5be 56cb 3dbe f10c a63e
00000060: fa80 ae3e bbc0 673e 0c10 e43d 8a4f 443d
00000070: b7d9 5ebe 269a d6be fb48 03bf 9bfe 65be
00000080: 7957 ebbe 0dca df3c 867d dfbd d24b c03a
00000090: 531f e7bd 10cc fc3e 4c45 09bd 2c96 0f3e
000000a0: 52c1 a4bd 1446 673e f5c8 19be 9579 b83b
000000b0: bee6 6b3e cbc5 b83e 6317 56be 9bf4 69be
000000c0: 1574 fb3e f1fe 963e bd3f 90be 70bc 7a3d
000000d0: afa2 6fbe 6748 6b3d 4423 e6be cb11 013f
000000e0: c948 d83e e3d2 9fbe 832d b53d 853b 7cbe
000000f0: 4b5b edbb deb5 d13d 2cfa f9be b0ed 0cbf
00000100: cbca 16be da94 56bd 0375 fd3e 4acd 6d3e
00000110: d2c2 9f3e e6ee 02be 7ce9 c9be e47a 043f
00000120: ca6a 95be dcb5 503c 5496 193e b5dc 4dbe
00000130: 36ce 89be fea9 9fbe 57d8 313e 1cf2 5f3e
00000140: b998 733e 8b83 f7bd 1c5b d9be 9cb8 f0be
00000150: d518 bf3e 562d b83e 9e6b f93e 56d9 053f
00000160: b801 8b3e d3db 0bbe 986f 42bd 6a66 8f3e
00000170: a56d 563e 8015 babe 5c04 cdbe bc76 aabb
00000180: 203d 72bd fe0a 9f3e 3a38 eb3e 8ffc 40be
00000190: 9628 c0be c958 5ebe 1aea 27bd 1785 a43e
000001a0: b38a f2be 5e14 eb3e 397a 2b3d 9801 e43e
000001b0: a402 85be 8fad 80be 2706 b8be 711a f3be
000001c0: e803 66bd c207 92be 95d7 c5be 35e3 e93d
000001d0: 6d76 29bd 3c3c af3d fa44 c5be 9b26 a4be
000001e0: 3390 8e3c 073c 3abe 750e d3bc 78b1 a9be
000001f0: 8940 783e 2029 bb3d 2af7 cdbe 9cf5 3fbe
00000200: 751d bfbe cb29 cfbd 1964 8d3e f32e ee3e
00000210: 1c34 9f3e 2ed3 6c3e 1441 dd3e a4ea cbbe
00000220: dbbd 543e ccb3 0abe 7662 cbbd c118 96be
00000230: d003 6f3e f267 be3e 7440 3d3e 8c7b 7bbe
00000240: 5781 023f b789 d5be 9914 5fbd 3b3e 823d
00000250: 2214 233e c9f6 bfbd f941 1abd d8f2 b83e
00000260: 2c36 9a3d 76fe 933e 6769 ef3e 66c2 bb3e
00000270: 84fb 173e 225b 02bf eccd 113f 8b1a 8c3e
00000280: c4a5 ad3e ac43 56be 785b 7ebe 31e1 93be
00000290: ee26 9e3e 3629 8ebe fdd1 79bc 4fba b63e
000002a0: 3992 61be 1435 16be 70e5 8cbe 6744 fbbe
000002b0: eafd c9bd d483 543e 3018 0e3e 0c45 fcbe
000002c0: 742d c0be 4606 f3be aa2d 1d3e 668d bf3e
000002d0: 389e 8abe 186b aebe de6e 94bb d230 933e
000002e0: 6f6d fb3e 783c 51be e64a c73e fbfe e23e
000002f0: a1e2 953d 93da d4be 2092 bfbe b830 623d
00000300: c00d ac3e 3bda c3be f68f a4be 9785 12bc
00000310: 3e8d 99be 8f40 efbe e830 db3e f23d fa3e
00000320: c482 23be 8aae 5dbe be07 f53e a582 053f
00000330: 1ef3 c9be 2d02 8b3e ee74 1d3d a13d e3be
00000340: c51f 2bbe e76a 013f 0838 e0bd 1e05 ecbe
00000350: d6c8 c83e 2aa7 f23c bfd5 853e 378a ed3e
00000360: c496 1d3e f3c8 8d3e e78b 7bbe a3c2 54bd
00000370: adac f43e 42d8 973e 13ff b8be 98df 023f
00000380: 8926 273e 3d9c 9b3e 2956 1cbe 9176 ab3d
00000390: 60d5 e7be 0aed 80be 982c f53e 0094 a1bd
000003a0: 8c6b c13d e658 efbe 1386 61be 02fb febe
000003b0: ccef 8a3e d85c 983e 35f0 b83d 4bd1 21bd
000003c0: 3129 3ebd 7a2e e73e 82c2 e9be c21d f0bc
000003d0: 8775 d8be 3650 a4be bc49 c0be 24c0 a5be
000003e0: 69ae fdbd d211 b63e 8e85 913e 7e49 3ebe
000003f0: ba75 9fbe c0ee 51be cc7e e93e 4968 d9be

0.bias f4 [256]
0.036257878 -0.37463498 0.18779327 -0.47938272 -0.1507667 0.24445164 -0.28515187 -0.1489086
-0.3738336 -0.39513072 0.38787848 0.15440916 0.44690818 0.33982325 0.1732495 0.17433876
0.47798193 0.24833803 -0.18032345 -0.28160876 -0.045775216 0.0851136 0.17188573 -0.024888888
-0.16414677 -0.09720298 -0.11452021 -0.101017915 -0.21380657 -0.32624453 0.17314269 0.20453331
-0.21215151 0.42804784 -0.042437635 -0.22641556 -0.4215695 -0.4926105 0.021569412 0.2355285
0.40426528 -0.22433105 -0.015841207 -0.17103769 0.30647263 0.17752674 -0.21344545 0.24407761
-0.24125862 0.23148666 -0.37120938 -0.365395 -0.04592393 -0.47599688 0.020148605 0.16481966
-0.24786931 -0.40786597 -0.089831665 -0.2874123 -0.25334346 -0.1328037 -0.16175167 -0.017268052
0.46521324 -0.3803906 0.024725199 0.028245265 0.3097384 -0.33420438 -0.41508844 0.48566478
-0.12715508 0.03722412 -0.17243831 0.20351173 -0.29890406 0.34294903 0.23302996 0.22349167
-0.37749407 0.113248974 -0.07484544 0.06304053 -0.1859754 -0.4251384 -0.08306506 0.19378048
-0.38358685 -0.36318004 0.0674547 0.10362406 -0.25453198 -0.26173776 -0.254487 0.29087335
0.25592926 0.1582474 -0.26417193 0.31176656 -0.4323358 0.2683373 0.27008778 -0.15529804
0.11831991 0.11819123 0.06766646 0.020155437 -0.3008567 0.19227748 0.39614215 -0.11712866
-0.15684158 0.1065418 -0.36336967 0.17572646 -0.032100923 0.049753353 0.33593646 -0.34691462
-0.4333632 0.01569976 -0.36982992 -0.44104916 -0.44221118 -0.4652569 0.20504844 0.41809303
0.20749655 0.16392055 -0.40065783 0.34200355 -0.15792948 -0.41960397 -0.006670624 0.13313289
-0.3598722 0.13913013 -0.2507988 0.4387858 0.17662105 -0.2514168 0.030092787 0.2884323
0.22658566 0.15612324 -0.42402783 0.36806962 -0.092511624 0.29496482 0.4564016 0.41755554
-0.095450394 0.1511477 0.040373836 0.22490351 -0.12924102 -0.09825781 -0.30847552 0.2838458
0.47297028 0.19002561 0.083133444 -0.2344236 0.31082508 -0.4830262 0.47255751 -0.063994005
0.33746752 0.3705822 -0.4133692 -0.32539478 0.10088716 -0.06500407 0.323678 0.22346383
-0.24782445 0.059954256 0.053244073 0.46451873 0.2818566 0.26838076 0.21053709 0.13518454
-0.2313164 -0.028338762 0.26154095 0.4074925 0.331981 0.042156275 -0.30123633 0.37352452
0.4239768 0.014462219 -0.15132435 -0.1716807 0.26531422 -0.33709288 -0.2787086 0.17073798
-0.13640828 0.022171656 -0.26011837 0.07700103 -0.32371464 -0.45709044 -0.26020557 0.006431956
0.43668032 -0.39595488 0.039666414 0.15008827 -0.34264556 -0.19657445 -0.44775867 0.40995964
0.4213037 -0.041809924 0.006329013 -0.13418013 -0.29833913 0.06680789 -0.2669451 -0.295554
-0.22506252 -0.13255166 0.24929409 0.09007127 -0.16702282 -0.4505001 0.315423 0.23274603
0.11874255 -0.37741747 0.16177481 -0.37371606 -0.3811636 -0.28695157 0.3355269 0.22977105
-0.17332166 0.08955577 0.3501109 -0.45756808 0.46180004 0.4627742 0.3964348 0.00019161546
0.3173244 -0.2698557 0.15640669 0.078680314 0.052394263 0.06637244 0.35150385 0.39906737
00000000: 2483 143d 28d0 bfbe e14c 403e a771 f5be
00000010: 9662 1abe 8851 7a3e 6dff 91be 7f7b 18be
00000020: 1e67 bfbe 934e cabe 0298 c63e 6f1d 1e3e
00000030: 26d1 e43e 50fd ad3e 5168 313e dc85 323e
00000040: 0cba f43e 534c 7e3e b6a6 38be 062f 90be
00000050: cb7e 3bbd 0a50 ae3d d002 303e c8e3 cbbc
00000060: 1716 28be 5b12 c7bd 9289 eabd 7be2 cebd
00000070: 1cf0 5abe 8609 a7be 514c 313e 2e71 513e
00000080: 3f3e 59be 1629 db3e 16d3 2dbd 7bd9 67be
00000090: f5d7 d7be 7237 fcbe 56b2 b03c 622e 713e
000000a0: dcfb ce3e 0ab7 65be 6bc5 81bc 8124 2fbe
000000b0: fbe9 9c3e 92c9 353e 7291 5abe 7bef 793e
000000c0: 800c 77be d70a 6d3e 280f bebe 0e15 bbbe
000000d0: bb1a 3cbd ddb5 f3be b00e a53c 7cc6 283e
000000e0: 74d1 7dbe cfd3 d0be aaf9 b7bd b427 93be
000000f0: 3cb6 81be b1fd 07be 3ba2 25be bb75 8dbc
00000100: 6e30 ee3e 8fc2 c2be 808c ca3c 9d62 e73c
00000110: 0896 9e3e d61c abbe 7986 d4be 0ea9 f83e
00000120: f134 02be 5278 183d ab93 30be 6165 503e
00000130: f409 99be 0497 af3e 689f 6e3e 00db 643e
00000140: e746 c1be 14ef e73d 9148 99bd 651b 813d
00000150: 5670 3ebe beab d9be 041e aabd 646e 463e
00000160: 7f65 c4be bcf2 b9be b125 8a3d da38 d43d
00000170: 0452 82be 7e02 86be 1f4c 82be 5aed 943e
00000180: 2909 833e 9b0b 223e 8b41 87be de9f 9f3e
00000190: 1e5b ddbe 8263 893e f248 8a3e 7306 1fbe
000001a0: b551 f23d 3e0e f23d b794 8a3d 041d a53c
000001b0: e409 9abe 63e4 443e 25d3 ca3e 27e1 efbd
000001c0: 149b 20be 9632 da3d 970b babe a3f1 333e
000001d0: 427c 03bd 2cca 4b3d ddff ab3e cb9e b1be
000001e0: c8e1 ddbe c89c 803c 595a bdbe 32d1 e1be
000001f0: 8169 e2be 2736 eebe 38f8 513e 4a10 d63e
00000200: fa79 543e cada 273e 0623 cdbe 171b af3e
00000210: 44b8 21be 55d6 d6be 4095 dabb fd53 083e
00000220: 2b41 b8be 2178 0e3e b368 80be 88a8 e03e
00000230: 26dc 343e b4b9 80be 2685 f63c 66ad 933e
00000240: 1206 683e c5de 1f3e 2d1a d9be 9f73 bc3e
00000250: bc76 bdbd a105 973e 78ad e93e d7c9 d53e
00000260: 7f7b c3bd 76c6 1a3e 095f 253d 1b4d 663e
00000270: c257 04be 643b c9bd 81f0 9dbe 3d54 913e
00000280: 2929 f23e 1396 423e de41 aa3d bd0c 70be
00000290: 7724 9f3e 364f f7be 0ff3 f13e 4a0f 83bd
000002a0: 8bc8 ac3e f3bc bd3e 21a5 d3be 259a a6be
000002b0: ed9d ce3d db20 85bd 1fb9 a53e b4d3 643e
000002c0: b1c5 7dbe 9892 753d 7516 5a3d 66d5 ed3e
000002d0: 824f 903e 3469 893e 0997 573e d16d 0a3e
000002e0: 35de 6cbe b126 e8bc b2e8 853e dba2 d03e
000002f0: 6af9 a93e 0fac 2c3d a63b 9abe 9b3e bf3e
00000300: 7d13 d93e f1f2 6c3c c5f4 1abe 11cd 2fbe
00000310: 44d7 873e 7097 acbe e5b2 8ebe f0d5 2e3e
00000320: 9dae 0bbe 55a1 b53c 3c2e 85be b7b2 9d3d
00000330: edbd a5be c207 eabe aa39 85be 28c3 d23b
00000340: 9094 df3e 99ba cabe 4079 223d bdb0 193e
00000350: 3d6f afbe d04a 49be a040 e5be 3be6 d13e
00000360: 1eb5 d73e e240 2bbd 9c63 cf3b 8466 09be
00000370: e8bf 98be 93d2 883d 07ad 88be db52 97be
00000380: ca76 66be 9fbb 07be f346 7f3e 4977 b83d
00000390: 0808 2bbe f3a7 e6be 207f a13e fa54 6e3e
000003a0: 4b2f f33d dd3c c1be 4ca8 253e b657 bfbe
000003b0: e027 c3be 51eb 92be 2fca ab3e 1a49 6b3e
000003c0: 3c7b 31be 0469 b73d bc41 b33e 5d46 eabe
000003d0: 0e71 ec3e bdf0 ec3e 81f9 ca3e 62ec 4839
000003e0: 5878 a23e 872a 8abe 1329 203e 2523 a13d
000003f0: 5e9b 563d 46ee 873d 50f8 b33e 8f52 cc3e

2.weight f4 [256, 256]
-0.026661253 -0.040242232 -0.009786957 0.04794221 -0.074148566 -0.05126023 0.031614717 -0.0019499714
-0.03686991 0.058908373 -0.014537854 0.03871726 -0.014427478 0.050417207 0.0072457693 0.020430772
0.015368493 0.0070410944 -0.02383936 0.033556543 0.05182901 0.023389028 0.00871351 -0.004045446
-0.037911367 -0.025253382 -0.015962418 -0.0046874713 -0.0397652 0.032928076 0.036247283 -0.04393808
0.012882313 -0.058457598 -0.004360916 -0.0433184 0.012352653 -0.018561604 -0.06916894 -0.00020920743
0.041788287 0.0034829013 0.07682144 -0.020074913 -0.060779 -0.07858412 -0.01805957 -0.039136384
-0.025804708 0.020373194 -0.030563613 0.06547569 0.03961728 0.05064989 0.015757233 0.05335214
0.023211047 0.010154883 0.04432965 -0.034901433 0.042451728 -0.03613233 0.025359016 -0.04394665
0.038491923 -0.030748194 0.03922342 0.026343103 0.011917008 0.053231847 -0.04571797 -0.057971403
0.035756845 0.032888822 0.02168797 0.023912929 -0.04408516 0.06262101 -0.02806373 -0.025313744
-0.0030699514 -0.012513851 -0.06670126 -0.01635311 -0.0018600707 0.03812552 0.032924026 -0.078746594
0.06281749 0.033979554 -0.0072524035 0.024118053 -0.034299787 -0.033407323 -0.019599052 -0.05478416
-0.024454512 0.039798405 -0.042968128 0.06160188 -0.0072077536 -0.012756147 -0.04382464 0.009924099
-0.020397948 -0.05394969 0.027241882 0.056168005 0.009527429 -0.013422954 -0.08356821 0.006279312
0.023015713 0.0046126065 -0.032825526 0.0050357115 0.014905708 0.05475257 -0.011789012 -0.05292018
0.038598713 -0.05225322 0.013635236 -0.075694144 -0.025999159 0.045817733 0.024271566 0.035662174
0.05020587 0.05125889 0.050606493 -3.8349637e-05 0.035930984 -0.038851563 0.029504491 -0.052526794
0.0013620943 0.03453428 0.018291848 -0.003118481 0.006400992 -0.010603588 -0.020964721 0.0023483126
-0.006411992 -0.010134768 -0.019999139 -0.042008366 0.02909336 -0.0125019755 0.022444975 0.035948023
-0.025146592 0.034282986 -0.018760381 0.01627088 0.06319214 -0.04814679 -0.043382656 0.049502607
-0.026992979 -0.052664816 -0.026226986 0.017056776 -0.009193173 0.017260693 0.0049705603 0.06351222
0.04817507 -0.057678018 0.05180774 0.042298216 0.05996405 -0.0023724877 0.05220999 -0.006704672
0.044573534 0.048372567 0.0025217477 -0.060305607 0.0023876084 0.028421571 -0.014699965 0.017944394
0.016852327 -0.034878824 -0.056517687 0.012812166 -0.023633732 -0.015774915 0.01978154 0.02482007
-0.0053903665 0.035759244 -0.07138794 0.051102508 0.065877795 -0.018734913 0.079358354 0.04994933
0.06272718 -0.03534357 -0.073146835 -0.047106776 0.01310514 0.0619177 -0.05428261 -0.017951861
0.0026903471 0.011336945 -0.0687419 -0.02888564 -0.010071207 0.007264586 0.0062490017 0.0013949033
0.037710696 -0.028472677 0.014976333 -0.005216774 0.033369094 -0.050256014 -0.002449597 0.029014917
0.061667014 0.038323335 0.021885449 -0.032506783 -0.014948264 0.05772461 -0.034589887 0.052835763
0.0672062 0.038962666 -0.028629582 0.00937704 -0.056325197 0.0016597798 -0.011580322 -0.021882445
0.026811132 0.06523779 -0.054625902 -0.03661507 -0.048242364 -0.017148482 0.015197216 0.04585518
0.043473378 0.010769364 0.043216333 -0.003157019 0.030533016 0.0005277391 -0.02426893 -0.015872965
00000000: b368 dabc 0ad5 24bd 7959 20bc 0d5f 443d
00000010: 34db 97bd 3ff6 51bd 6f7e 013d 2f96 ffba
00000020: e704 17bd e849 713d 2e30 6ebc fd95 1e3d
00000030: 3b61 6cbc 4682 4e3d eb6d ed3b 6f5e a73c
00000040: 22cc 7b3c fbb8 e63b c34a c3bc 9672 093d
00000050: a84a 543d 599a bf3c 1cc3 0e3c a98f 84bb
00000060: f348 1bbd 2ee0 cebc 9ec3 82bc 5c99 99bb
00000070: d6e0 22bd 97df 063d 0878 143d 6bf8 33bd
00000080: 5610 533c 3c71 6fbd 04e6 8ebb a26e 31bd
00000090: c862 4a3c 810e 98bc 72a8 8dbd b15e 5bb9
000000a0: 322a 2b3d 6341 643b 8f54 9d3d 2574 a4bc
000000b0: 67f3 78bd b6f0 a0bd aaf1 93bc 794d 20bd
000000c0: 6564 d3bc afe5 a63c 8b60 fabc 1e18 863d
000000d0: bb45 223d 4276 4f3d 5015 813c c687 5a3d
000000e0: 1825 be3c ab60 263c 0293 353d cef4 0ebd
000000f0: dde1 2d3d 7eff 13bd b6bd cf3c 6701 34bd
00000100: b5a9 1d3d a3e3 fbbc bda8 203d 7ecd d73c
00000110: 8e3f 433c a309 5a3d c442 3bbd 6c73 6dbd
00000120: c575 123d 6eb6 063d f8aa b13c 0ce5 c33c
00000130: a492 34bd 723f 803d e8e5 e5bc c55e cfbc
00000140: 3d31 49bb e506 4dbc ac9a 88bd f5f6 85bc
00000150: 9ecd f3ba 8129 1c3d 58db 063d e545 a1bd
00000160: 75a6 803d 252e 0b3d 92a5 edbb 3993 c53c
00000170: ef7d 0cbd 1ed6 08bd 318e a0bc 5b65 60bd
00000180: d454 c8bc a703 233d 59ff 2fbd 4152 7c3d
00000190: 052f ecbb 29ff 50bc 7781 33bd b098 223c
000001a0: 9919 a7bc 5afa 5cbd 5e2a df3c 6c10 663d
000001b0: ef18 1c3c f3eb 5bbc cf25 abbd b0c2 cd3b
000001c0: 738b bc3c 5925 973b 0f74 06bd 9c02 a53b
000001d0: 1237 743c 3b44 603d b326 41bc d5c2 58bd
000001e0: af19 1e3d 7907 56bd 5366 5f3c 8805 9bbd
000001f0: 30fc d4bc 60ab 3b3d 2ad5 c63c 8012 123d
00000200: aca4 4d3d d8f4 513d c148 4f3d 9cd9 20b8
00000210: 5e2c 133d d122 1fbd 67b3 f13c 5626 57bd
00000220: 4d88 b23a d173 0d3d c9d8 953c 6e5f 4cbb
00000230: 6abf d13b acba 2dbc 35be abbc 26e6 193b
00000240: b01b d2bb 4c0c 26bc 3cd5 a3bc f710 2cbd
00000250: 3355 ee3c 16d5 4cbc 86de b73c 3c3e 133d
00000260: 3a00 cebc 516c 0c3d 5faf 99bc 824a 853c
00000270: e16a 813d 9235 45bd 03b2 31bd 3fc3 4a3d
00000280: 6120 ddbc 10b7 57bd fad9 d6bc a7ba 8b3c
00000290: f69e 16bc 4c66 8d3c 15e0 a23b b212 823d
000002a0: 3953 453d c93f 6cbd 5a34 543d e540 2d3d
000002b0: dd9c 753d bd7b 1bbb 24da 553d ddb2 dbbb
000002c0: bd92 363d 5022 463d e843 253b 0303 77bd
000002d0: 6c79 1c3b 5bd4 e83c 1fd8 70bc 1f00 933c
000002e0: e40d 8a3c 19dd 0ebd 177f 67bd 1eea 513c
000002f0: 879b c1bc 653a 81bc e50c a23c 7653 cb3c
00000300: aca1 b0bb 4978 123d d733 92bd dd50 513d
00000310: f0ea 863d f679 99bc a286 a23d ab97 4c3d
00000320: 1c77 803d 6bc4 10bd 02ce 95bd 09f3 40bd
00000330: f1b6 563c 6a9d 7d3d 7157 5ebd c80f 93bc
00000340: 8950 303b 98be 393c 8ec8 8cbd 94a1 ecbc
00000350: b401 25bc c40b ee3b 6dc4 cc3b 30d5 b63a
00000360: 8876 1a3d 883f e9bc 4b5f 753c 79f1 aabb
00000370: 08ae 083d 40d9 4dbd 6b89 20bb b1b0 ed3c
00000380: 8d96 7c3d eef8 1c3d 1d49 b33c d525 05bd
00000390: 90e9 74bc a470 6c3d 20ae 0dbd 506a 583d
000003a0: 67a3 893d 5197 1f3d 9688 eabc 28a2 193c
000003b0: 40b5 66bd f88c d93a 64bb 3dbc d042 b3bc
000003c0: 05a3 db3c 649b 853d 69bf 5fbd aff9 15bd
000003d0: c999 45bd f97a 8cbc befd 783c a4d2 3b3d
000003e0: 2411 323d fd71 303c 9c03 313d fde5 4ebb
000003f0: 6020 fa3c f957 0a3a a3cf c6bc 0508 82bc

2.bias f4 [256]
0.005035351 -0.002806388 -0.014085667 -0.005888044 -0.0015559101 -0.04893255 0.027464444 -0.0045389617
-0.0073892176 -0.027974512 -0.005201908 0.0002831792 -0.05842266 -0.040425703 0.036751576 -0.05313367
0.008522298 0.038916055 -0.04064894 0.008577667 0.051492162 0.027461201 -0.0062222844 0.03381475
0.018131418 -0.029800223 -0.01278588 0.021542735 0.05714117 0.0038857968 0.011254908 -0.013405329
0.060743388 0.055393487 0.008782525 0.032494575 0.057429258 0.022339433 0.039363205 0.038652383
-0.022926467 -0.0023222573 -0.0010759012 0.019380672 -0.04337498 0.007006794 -0.006907831 -0.0044527515
-0.0569285 0.05587528 0.05995557 -0.056139905 -0.047517274 -0.01332637 -0.027233986 -0.059262753
-0.032857113 -0.0015111186 -0.031383734 0.035553385 -0.0027321158 -0.028374882 0.009109701 -0.022013538
-0.0011247235 -0.014426557 -0.023175685 -0.017033845 -0.00028472033 0.0037395891 0.05386474 0.056518197
-0.036271457 0.057041783 0.036015756 -0.0411306 -0.020966412 0.00187021 -0.015043091 0.0021331357
-0.06776197 -0.045076597 0.024484923 -0.026711717 0.034559146 -0.0072202985 0.008218517 0.047264613
-0.040680088 0.011360791 0.0025618044 -0.027686112 -0.037086293 -0.04701432 0.053501416 -0.014733744
0.00034115472 -0.015856473 -0.025841264 0.04468636 0.006111862 -0.041438647 0.039441172 0.011215603
-0.022637226 -0.035160586 0.056647796 0.022491053 0.019761356 0.046055116 -0.059261594 -0.023270464
-0.011427345 -0.022668505 0.020163512 0.0069433106 0.015807457 0.030153405 -0.051720943 -0.059621777
-0.056044716 0.0013201805 -0.057585165 0.045707524 0.01945674 -0.059265066 0.044284876 -0.04691985
0.027165689 0.045511387 0.0014781426 -0.022903396 -0.030233433 -0.014744427 -0.04328791 0.010671684
-0.03407528 -0.014461942 -0.039183084 -0.037199117 -0.011507863 0.05915395 0.053282704 0.028390272
-0.0607551 0.005737906 0.0102396635 0.018580312 -0.04250723 0.039052438 -0.014964141 0.040661953
0.0006029822 0.00023947269 0.056456417 0.05063502 0.050503187 0.031380177 -0.033391673 -0.05087322
0.036435608 -0.04207202 -0.010858695 -0.010853817 0.0029088145 -0.015754161 0.010438341 0.035389744
-0.056664776 -0.040159598 0.050998457 -0.021371316 -0.04715983 -0.017096646 0.0437008 0.013164029
-0.011662269 -0.06523825 -0.020863619 -0.05493544 0.010545754 -0.048713613 -0.0049224827 0.056386936
0.024766998 0.026283383 0.012177073 0.008203872 0.035579443 -0.0062883548 0.038751647 0.027749836
0.0042892294 -0.013614156 0.05160277 0.056998886 0.028510869 0.019872025 -0.024781471 0.044197794
-0.050988246 0.015273612 0.015727444 0.0065616695 0.033233266 0.022017075 0.038028408 0.06184945
-0.036392555 -0.05313095 -0.019195722 -0.007233031 0.04330158 -0.029560985 0.0014799972 -0.042585433
-0.05463027 -0.033435546 0.037733596 0.019740935 -0.03450189 -0.059487578 -0.044760544 0.02168533
-0.033013992 -0.014029631 0.04024902 0.014585272 0.00027355514 0.008413203 -0.003290513 -0.0109380465
0.044911843 0.050390758 -0.051679596 0.030249666 -0.023852034 -0.0018501808 0.0035819153 0.0138561055
-0.06302176 0.009952991 -0.011090866 0.052508194 -0.008724282 0.034798115 -0.046219684 0.04084525
-0.054251995 -0.03913185 0.012737562 -0.004728589 -0.023021288 -0.042441554 -0.0416808 0.023086853
00000000: 96ff a43b 61eb 37bb 92c7 66bc 7ef0 c0bb
00000010: aeef cbba 7f6d 48bd 1dfd e03c 92bb 94bb
00000020: 4021 f2bb ce2a e5bc c474 aabb ab77 9439
00000030: 994c 6fbd 6c95 25bd d288 163d b1a2 59bd
00000040: 1ca1 0b3c 7166 1f3d 817f 26bd 5889 0c3c
00000050: 72e9 523d 50f6 e03c 4ee4 cbbb 5681 0a3d
00000060: 5788 943c 991f f4bc de7b 51bc 647a b03c
00000070: dc0c 6a3d daa8 7e3b 8166 383c 06a2 5bbc
00000080: 0fce 783d 48e4 623d 94e4 0f3c 0819 053d
00000090: f13a 6b3d 3001 b73c 503b 213d f651 1e3d
000000a0: 49d0 bbbc 0331 18bb 4105 8dba 37c4 9e3c
000000b0: f7a9 31bd 4099 e53b 165b e2bb 63e8 91bb
000000c0: dc2d 69bd 7add 643d f993 753d f5f2 65bd
000000d0: 79a1 42bd d956 5abc cf19 dfbc 80bd 72bd
000000e0: 2e95 06bd ba10 c6ba 3b8c 00bd 6da0 113d
000000f0: 4c0d 33bb 7172 e8bc db40 153c bc55 b4bc
00000100: 756b 93ba 5e5d 6cbc efda bdbc 908a 8bbc
00000110: 8446 95b9 e513 753b 46a1 5c3d a07f 673d
00000120: 6191 14bd a5a4 693d 4285 133d 8f78 28bd
00000130: c1c1 abbc d621 f53a 4c77 76bc 14cc 0b3b
00000140: cac6 8abd 3da2 38bd 9b94 c83c 88d2 dabc
00000150: e48d 0d3d 4198 ecbb f5a6 063c 8a98 413d
00000160: 2aa0 26bd 9c22 3a3c f2e3 273b fccd e2bc
00000170: cce7 17bd 1692 40bd 4d24 5b3d cd65 71bc
00000180: 03dd b239 6fe5 81bc 0fb1 d3bc 0b09 373d
00000190: 0446 c83b 92bb 29bd 118d 213d a6c1 373c
000001a0: b471 b9bc 8c04 10bd 8507 683d 283f b83c
000001b0: 91e2 a13c 4aa4 3c3d 49bc 72bd b3a1 bebc
000001c0: c239 3bbc 4db3 b9bc f32d a53c b684 e33b
000001d0: a47e 813c 4604 f73c 57d9 53bd f735 74bd
000001e0: 258f 65bd e809 ad3a 6cde 6bbd d037 3b3d
000001f0: be63 9f3c edbf 72bd 0f64 353d 072f 40bd
00000200: 948a de3c 266a 3a3d 3cbe c13a e79f bbbc
00000210: 1bac f7bc 9c92 71bc aa4e 31bd 49d8 2e3c
00000220: 8592 0bbd c8f1 6cbc 717e 20bd 1a5e 18bd
00000230: 7a8b 3cbc 6a4b 723d f73e 5a3d b792 e83c
00000240: 57da 78bd 0b05 bc3b 43c4 273c bd35 983c
00000250: 101c 2ebd 73f5 1f3d 282c 75bc 268d 263d
00000260: 7311 1e3a f61a 7b39 d83e 673d ab66 4f3d
00000270: 6edc 4e3d 8088 003d b5c5 08bd 7060 50bd
00000280: 813d 153d b653 2cbd abe8 31bc 35d4 31bc
00000290: cfa1 3e3b df0e 81bc 9305 2b3c d6f4 103d
000002a0: 5319 68bd 647e 24bd c2e3 503d e612 afbc
000002b0: aa2a 41bd 440e 8cbc 9cff 323d f1ad 573c
000002c0: 1a13 3fbc a29b 85bd 2eea aabc fc03 61bd
000002d0: 19c8 2c3c ed87 47bd c74c a1bb fdf5 663d
000002e0: 29e4 ca3c 4050 d73c 5982 473c 8869 063c
000002f0: c0bb 113d 8b0e cebb 0cba 1e3d a053 e33c
00000300: aa8c 8c3b e90d 5fbc 6d5d 533d aa77 693d
00000310: a08f e93c a8ca a23c 8302 cbbc bf08 353d
00000320: 0dd9 50bd 2c3e 7a3c d7d6 803c 4603 d73b
00000330: 9b1f 083d 275d b43c adc3 1b3d d955 7d3d
00000340: 5c10 15bd d79f 59bd 5940 9dbc 1003 edbb
00000350: ff5c 313d e129 f2bc 77fc c13a 106e 2ebd
00000360: fdc3 5fbd b6f3 08bd 8b8e 1a3d beb7 a13c
00000370: db51 0dbd 3fa9 73bd d556 37bd 6fa5 b13c
00000380: ae39 07bd 8adc 65bc 28dc 243d 11f7 6e3c
00000390: f36b 8f39 88d7 093c a6a5 57bb 7e35 33bc
000003a0: 7bf5 373d 8a66 4e3d fcad 53bd 26ce f73c
000003b0: 5765 c3bc c481 f2ba 91be 6a3b b804 633c
000003c0: 8d11 81bd df11 233c 77b6 35bc d512 573d
000003d0: 4af0 0ebc 7888 0e3d da50 3dbd 594d 273d
000003e0: 5737 5ebd b848 20bd 35b1 503c 48f2 9abb
000003f0: 2497 bcbc 32d7 2dbd 7db9 2abd a420 bd3c

4.weight f4 [2, 256]
-0.022482837 0.001715993 -0.010124374 0.033618815 0.019613205 -0.0041575353 -0.07085048 -0.055282153
-0.027291836 -0.004647054 0.030859983 0.021854725 -0.0002288517 -0.03441022 0.078459606 -0.03153957
-0.04087687 -0.047821924 -0.03289824 0.06212084 -0.023229335 0.057684265 -0.012816451 -0.046851274
-0.06230985 -0.028495792 -0.038723044 0.01869431 -0.028966632 0.039181255 -0.013773819 0.0025385597
-0.040561378 0.016230427 -0.030535543 -0.0041895364 -0.044388384 -0.04701696 0.017825715 0.027542414
-0.02311685 0.049914524 -0.0011557807 -0.014804742 0.035165794 0.018075561 0.04410655 -0.005290422
-0.023597034 0.040718105 -0.027306382 -0.047924463 -0.08170432 -0.03215019 0.0071998145 -0.036582496
0.030491041 0.0060495776 0.016130494 0.017231118 -0.0343467 -0.0056900457 0.022790944 0.010695788
0.036536884 0.057924267 0.05075873 0.024086101 -0.024145594 -0.076332 -0.07274541 0.006292271
0.021014726 -0.028316112 -0.008842779 0.042001866 0.068191186 -0.02744939 -0.02145434 0.005448427
-0.054477967 0.016912866 -0.023742687 -0.055723004 0.0016942614 -0.005738171 -0.05850055 0.03529247
-0.07024959 0.05452648 0.006842125 -0.06959281 -0.07189002 -0.025467165 -0.007016048 -0.001326676
-0.008847709 0.053846136 -0.0004916079 0.040610906 0.022834774 -0.014117893 0.040747203 0.01491513
0.0325622 -0.016699828 -0.009826036 0.05080864 0.0029505927 0.018635515 0.029382227 0.044801906
-0.036783747 -0.053005505 0.03268405 -0.05599006 0.048002057 -0.0029515538 -0.055066083 0.013506202
-0.029044652 -0.013097302 0.021808224 -0.009895054 -0.01982432 0.024944913 -0.053981263 -0.037857432
0.023490343 -0.07158239 0.027099382 0.013486672 -0.009229559 -0.08412287 0.009143816 -0.046186224
0.021566078 -0.029153261 -0.09385342 -0.07096425 -0.035465177 0.061405852 0.0036747411 0.031425297
0.03385345 -0.056075178 -0.014385469 0.06699196 0.07933786 -0.058377232 -0.006903973 0.035530694
-0.020593006 -0.007974954 -0.054069445 -0.0030231914 -0.027123285 -0.0037117172 0.005683488 -0.07182471
-0.04179121 0.05511699 -0.004718064 -0.060448322 -0.016229585 -0.009747733 0.009812234 0.025742134
-0.0015806854 -0.00655143 0.011860911 -0.017329702 0.057217397 -0.05377439 -0.00019901992 0.01636371
0.030404052 -0.05756739 -0.058387164 0.008285755 -0.032121982 0.051685896 -0.034489073 -0.029980866
0.012332487 0.03356198 0.013541855 -0.07147958 0.043166626 -0.04405592 -0.053814203 -0.038593683
0.0012846157 -0.0674358 0.01497149 0.069837555 0.051846817 -0.054832086 -0.04693071 0.07414293
0.025232485 -0.027252361 -0.047095615 -0.021318028 -0.010306458 0.04253709 0.036833093 0.024255736
-0.010337651 0.027766466 -0.059343975 0.012940226 0.00267158 0.061290298 -0.024181154 -0.024364876
0.006290251 -0.039969876 0.04093372 0.030326141 -0.07547111 0.032748017 0.006008837 0.04950075
-0.03744228 0.06090334 -0.0022672208 0.035460588 -0.06905398 0.003429309 0.03397032 0.04483628
-0.06248998 -0.006370249 0.04797476 0.0131894555 -0.04646791 0.07352495 0.052026566 0.024574991
0.0502829 -0.056484576 0.081422605 -0.0017714428 -0.04749833 -0.061437964 0.012728271 -0.020968322
0.003662669 0.0358741 0.039831623 0.053811457 -0.07002803 -0.035875745 0.055758987 -0.027656991
00000000: ed2d b8bc 2ceb e03a b4e0 25bc e2b3 093d
00000010: dfab a03c ef3b 88bb 0e1a 91bd 8a6f 62bd
00000020: 2193 dfbc 5046 98bb 13ce fc3c ae08 b33c
00000030: e9f7 6fb9 bbf1 0cbd 6eaf a03d a32f 01bd
00000040: 816e 27bd ece0 43bd 4ec0 06bd 6c72 7e3d
00000050: 724b bebc 5646 6c3d 17fc 51bc 1fe7 3fbd
00000060: 9d38 7fbd 0270 e9bc 0e9c 1ebd cf24 993c
00000070: 6e4b edbc 867c 203d 96ab 61bc f75d 263b
00000080: b023 26bd acf5 843c ad25 fabc 6148 89bb
00000090: 98d0 35bd db94 40bd 3c07 923c a1a0 e13c
000000a0: 8c5f bdbc 2c73 4c3d 917d 97ba 978f 72bc
000000b0: 020a 103d 3313 943c 12a9 343d 475b adbb
000000c0: 914e c1bc 07c8 263d a2b1 dfbc 714c 44bd
000000d0: 9854 a7bd ebaf 03bd 6cec eb3b 87d7 15bd
000000e0: 59c8 f93c 893b c63b 1924 843c 4628 8d3c
000000f0: 20af 0cbd 9073 babb 13b4 ba3c 633d 2f3c
00000100: b3a7 153d ff41 6d3d 63e8 4f3d 3750 c53c
00000110: fbcc c5bc f453 9cbd 8cfb 94bd 652f ce3b
00000120: 1327 ac3c 31f7 e7bc 4ee1 10bc 260a 2c3d
00000130: d2a7 8b3d 8bdd e0bc 03c1 afbc b888 b23b
00000140: 4a24 5fbd da8c 8a3c 0680 c2bc ce3d 64bd
00000150: fb11 de3a 4407 bcbb 469e 6fbd d68e 103d
00000160: 04df 8fbd 2957 5f3d e833 e03b ad86 8ebd
00000170: 133b 93bd 84a0 d0bc e0e6 e5bb dce3 adba
00000180: fbf5 10bc c48d 5c3d 3fdf 00ba 9f57 263d
00000190: fe0f bb3c bc4e 67bc 8ae6 263d 975e 743c
000001a0: f15f 053d 14ce 88bc 62fd 20bc b81c 503d
000001b0: bb5e 413b 82a9 983c ffb2 f03c 3482 373d
000001c0: 8eaa 16bd 4d1c 59bd b6df 053d d555 65bd
000001d0: ce9d 443d db6e 41bb f98c 61bd 1e49 5d3c
000001e0: 0def edbc 1196 56bc 29a7 b23c dd1e 22bc
000001f0: 9d66 a2bc 4659 cc3c 751b 5dbd 6510 1bbd
00000200: d26e c03c ca99 92bd 86ff dd3c 34f7 5c3c
00000210: 9437 17bc 9c48 acbd f2cf 153c c42d 3dbd
00000220: 58ab b03c d2d2 eebc 3936 c0bd b455 91bd
00000230: ef43 11bd b484 7b3d edd3 703b d0b7 003d
00000240: eaa9 0a3d 16af 65bd 08b1 6bbc 1533 893d
00000250: e37b a23d f71c 6fbd b93a e2bb a288 113d
00000260: aab2 a8bc 62a9 02bc ec77 5dbd bc20 46bb
00000270: a731 debc 4840 73bb 8e3c ba3b d518 93bd
00000280: 432d 2bbd 5ac2 613d fd99 9abb a998 77bd
00000290: e8f3 84bc f5b4 1fbc 7ec3 203c 2be1 d23c
000002a0: 002f cfba 61ad d6bb 4454 423c 05f7 8dbc
000002b0: ca5c 6a3d 8942 5cbd 01b0 50b9 300d 863c
000002c0: eb11 f93c c9cb 6bbd 6127 6fbd fac0 073c
000002d0: 5792 03bd 97b4 533d 6a44 0dbd 6f9a f5bc
000002e0: 330e 4a3c 4978 093d a8de 5d3c e363 92bd
000002f0: 7dcf 303d fb73 34bd 486c 5cbd 6914 1ebd
00000300: 8d60 a83a c81b 8abd fb4a 753c fe06 8f3d
00000310: 545d 543d 9c97 60bd 6b3a 40bd 40d8 973d
00000320: 5bb4 ce3c 5840 dfbc 55e7 40bd 25a3 aebc
00000330: 6bdc 28bc 5f3b 2e3d 4cde 163d f7b3 c63c
00000340: 405f 29bc 8076 e33c ab12 73bd 3e03 543c
00000350: ad15 2f3b 890b 7b3d 8e17 c6bc d998 c7bc
00000360: 731e ce3b 74b7 23bd 1eaa 273d 876e f83c
00000370: 9990 9abd c922 063d c7e5 c43b 4cc1 4a3d
00000380: 145d 19bd c875 793d a795 14bb 1f3f 113d
00000390: 2c6c 8dbd 42be 603b 7624 0b3d 3fa6 373d
000003a0: 7ef5 7fbd 86bd d0bb 2f81 443d 9618 583c
000003b0: 2355 3ebd 4094 963d cf19 553d 7e51 c93c
000003c0: 71f5 4d3d 5f5c 67bd e5c0 a63d c22f e8ba
000003d0: 9c8d 42bd 60a6 7bbd 3d8a 503c c2c5 abbc
000003e0: 6409 703b b8f0 123d 7c26 233d 6769 5c3d
000003f0: db6a 8fbd 72f2 12bd 8963 643d ea90 e2bc

4.bias f4 [2]
0.052552644 0.044831023
00000000: 7141 573d bca0 373d

exp_avg f4 [256, 4]
0.007771154 1.6316646e-05 -0.0005168553 0.000558639 -0.0006339269 -5.7195564e-05 0.00021639124 0.00025893614
-0.005992825 0.0002016585 0.001334501 0.00036121876 -0.029702773 -0.00051388465 0.0031134305 -0.00020077932
0.00053844525 -0.00079053466 -0.000614595 -0.00023384088 0.010413942 0.0008702235 -0.0013762892 -0.0003103385
0.012675587 0.0043164645 -0.0016360896 -0.0020810226 0.028854301 0.004007854 -0.0032726217 -0.0018916114
0.013114101 -0.0011589599 -0.002304312 -0.00045753704 0.00014945165 0.0002800607 0.00011167131 -6.744132e-05
0.0080462685 0.0011228524 -0.0032470394 9.851747e-05 0.007228761 0.0016861346 -0.0006711731 -0.00064503594
-0.10205516 -0.008075644 0.0070488728 -0.00075624126 -0.0009836415 0.000816271 0.00060876965 9.886465e-05
-0.0033206716 0.0011292449 0.0010275382 6.720208e-05 0.033462435 0.008471713 -0.002462469 -0.002356611
-0.0010297517 0.0004509248 0.00053839275 0.00024084224 -0.0011650132 0.000740896 0.0006164657 0.000198689
0.0020558068 0.0006016645 -0.00035958487 -0.00042035716 -0.0005169697 0.0011763737 0.00075636344 8.623606e-05
-0.04025981 -0.0044274167 0.006467312 0.0012046917 0.03966553 0.004560679 -0.0047978824 -0.0009968099
-0.00031105842 0.00011001108 0.00012547716 6.749134e-05 -0.005929095 -0.0017586002 0.00081119704 0.0009437833
0.0013894705 0.0002835136 -0.00034916794 -0.00019130032 -0.005890277 0.0009960481 0.0012566089 0.0002172254
0.00055774447 -0.00044860435 -0.0003652387 -0.00013395274 -0.0033629006 -0.0009152373 0.0006103535 0.00069611496
-0.0038001984 0.0010450074 0.0012245156 0.0004197912 -0.040361606 -0.003056349 0.002918256 -0.0008672991
-0.0068990323 -0.0012255851 0.000960559 0.00049939303 -0.00071856595 0.0005076153 0.00042969408 0.00019193045
0.0031540487 0.0011772385 -0.0005708659 -0.00082152797 -0.0006310975 0.0014815449 0.00019701789 -0.00081533083
-0.004869227 5.19051e-05 0.0011631008 0.000684202 0.008056716 0.00076321274 -0.0017908147 -0.0010649335
0.00054271874 -0.0006467727 -0.00045999506 -0.00011444196 -0.02867236 -0.005464353 0.0021249985 0.0020200608
0.1209376 0.013155086 -0.009181897 0.0035591717 0.010064727 0.0014141961 -0.0014950982 -0.001113177
-0.017186565 -0.0007199281 0.004398039 0.0003037005 -0.0024376006 0.0005690415 0.0006746813 0.00015385117
0.003017391 -0.0011694728 -0.0010820027 -0.00032486327 -0.009978695 -0.0010085144 0.0016029254 0.00051856355
-0.015206561 0.0020132454 0.002504564 -0.0003445428 -0.09355841 -0.014134581 0.0050309473 0.0034392467
-0.0060365456 -0.0016971132 0.0012334669 0.0012691228 0.017618299 -0.0009833737 -0.0037571534 -0.00041307125
0.00019016647 -0.00054535037 -0.00039372162 -0.00020558538 0.009542543 -0.0019374967 -0.0022151626 -0.00054004363
-0.080253996 -0.012239307 0.0061420347 0.0032086559 0.00028823933 -0.00050065323 -0.00030913012 2.1534826e-05
0.0012581128 -0.000849949 -0.00068567623 -0.00019431514 0.02833121 0.0020716754 -0.002770199 -0.0006218293
0.04793649 0.0052507105 -0.002837795 0.00041070857 -0.059659805 -0.0049306685 0.0038141115 -0.00030484571
-0.004763853 0.0013215416 0.0012937393 -1.9608195e-05 -0.025255254 -0.0012038115 0.0031357645 0.00034600822
0.0824826 0.008227088 -0.005181229 0.0027520678 -0.0016869148 0.00077811413 0.0007395164 0.000307713
0.0020163283 -0.0005070399 -0.00057876075 -6.480439e-05 -0.011757085 -0.0013096574 0.00079683185 -0.00084948936
-0.0009532407 -0.002102989 0.00038692492 0.0010443381 -0.0045548896 -0.0016096757 0.0004381362 0.0007245518
00000000: 2aa5 fe3b bbdf 8837 927d 07ba a171 123a
00000010: 1d2e 26ba 45e5 6fb8 15e7 6239 d2c1 8739
00000020: 765f c4bb 4b74 5339 6cea ae3a f661 bd39
00000030: 3b53 f3bc 37b6 06ba b20a 4c3b 4a88 52b9
00000040: 7326 0d3a e23b 4fba c61c 21ba 2f33 75b9
00000050: 3d9f 2a3c b61f 643a 9a64 b4ba eeb4 a2b9
00000060: 44ad 4f3c 2171 8d3b 0f72 d6ba c461 08bb
00000070: db5f ec3c 5154 833b 7b79 56bb f2ef f7ba
00000080: 87dc 563c 3ee8 97ba f103 17bb 95e1 efb9
00000090: 1fb6 1c39 1cd5 9239 1431 ea38 486f 8db8
000000a0: 7fd4 033c ad2c 933a 48cc 54bb 2a9b ce38
000000b0: 3edf ec3b 4a01 dd3a aaf1 2fba a117 29ba
000000c0: 4c02 d1bd b54f 04bc 3bfa e63b 7e3e 46ba
000000d0: 88ed 80ba 05fb 553a d795 1f3a 8e55 cf38
000000e0: a09f 59bb 2c03 943a 76ae 863a d8ee 8c38
000000f0: e80f 093d f1cc 0a3c 6061 21bb 5f71 1abb
00000100: bcf8 86ba 1a6a ec39 ed22 0d3a 998a 7c39
00000110: 5bb3 98ba b038 423a 509a 213a 2c57 5039
00000120: b7ba 063b 05b9 1d3a aa86 bcb9 6263 dcb9
00000130: 4085 07ba 8d30 9a3a b146 463a a2d9 b438
00000140: 78e7 24bd dd13 91bb bfeb d33b bfe6 9d3a
00000150: 5378 223d c071 953b 8e37 9dbb 64a7 82ba
00000160: 8e15 a3b9 c0b5 e638 8592 0339 238a 8d38
00000170: db48 c2bb d580 e6ba 83a6 543a 3a68 773a
00000180: e51e b63a 8da4 9439 8710 b7b9 ca97 48b9
00000190: 3a03 c1bb d48d 823a ccb4 a43a 00c7 6339
000001a0: 9935 123a a832 ebb9 827d bfb9 aa75 0cb9
000001b0: 1c64 5cbb 89ec 6fba 2100 203a 7c7b 363a
000001c0: c00c 79bb a1f8 883a ed7f a03a 6c17 dc39
000001d0: 3652 25bd 074d 48bb 3640 3f3b 755b 63ba
000001e0: 4711 e2bb d0a3 a0ba 06ce 7b3a b3e9 023a
000001f0: 255e 3cba 7c11 053a 9048 e139 f040 4939
00000200: 28b4 4e3b 924d 9a3a 29a6 15ba cf5b 57ba
00000210: 3c70 25ba 6630 c23a 9696 4e39 edbb 55ba
00000220: 098e 9fbb adb4 5938 3073 983a 055c 333a
00000230: 5100 043c 5712 483a c5b9 eaba 3d95 8bba
00000240: 3d45 0e3a 2e8c 29ba 7e2b f1b9 8f00 f0b8
00000250: 4ce2 eabc 510e b3bb 8f43 0b3b ff62 043b
00000260: 22ae f73d 6e88 573c ab6f 16bc fe40 693b
00000270: 86e6 243c 8c5c b93a 2cf7 c3ba 06e8 91ba
00000280: d7ca 8cbc 8fb9 3cba 6d1d 903b fe39 9f39
00000290: 27c0 1fbb bb2b 153a 18dd 303a 1c53 2139
000002a0: 6cbf 453b ff48 99ba fcd1 8dba 6952 aab9
000002b0: ae7d 23bc 2130 84ba 4019 d23a 36f0 073a
000002c0: f124 79bc a7f0 033b 9c23 243b c0a3 b4b9
000002d0: 8d9b bfbd bb94 67bc a5da a43b fc64 613b
000002e0: 37ce c5bb ab71 deba 48ac a13a b258 a63a
000002f0: 4054 903c 8ce4 80ba 933a 76bb 7c91 d8b9
00000300: 6c67 4739 d8f5 0eba 6c6c ceb9 6892 57b9
00000310: 5458 1c3c 9af3 fdba 432c 11bb b791 0dba
00000320: 355c a4bd 6087 48bc 1f43 c93b 5048 523b
00000330: d41e 9739 453e 03ba be12 a2b9 b0a5 b437
00000340: 43e7 a43a 1dcf 5eba f4be 33ba 13c1 4bb9
00000350: db16 e83c f2c4 073b 3a8c 35bb 4202 23ba
00000360: 0e59 443d 270e ac3b 4dfa 39bb 5f54 d739
00000370: d75d 74bd 7291 a1bb 2cf6 793b b3d3 9fb9
00000380: 181a 9cbb 9437 ad3a b092 a93a 477c a4b7
00000390: 1be4 cebc 36c9 9dba 6681 4d3b 7068 b539
000003a0: a3ec a83d e8ca 063c 4dc7 a9bb 095c 343b
000003b0: 781b ddba 5bfa 4b3a 1bdc 413a 8a54 a139
000003c0: 6024 043b dfea 04ba fab7 17ba 98e7 87b8
000003d0: caa0 40bc cfa8 abba 7be2 503a 44b0 5eba
000003e0: e7e2 79ba 4dd2 09bb 2fdc ca39 2ce2 883a
000003f0: 2f41 95bb c1fb d2ba a5b5 e539 d9ef 3d3a

exp_avg_sq f4 [256, 4]
7.198983e-05 4.517145e-06 7.408449e-06 6.426924e-07 1.0625027e-05 5.6223585e-06 5.314793e-06 1.1781023e-06
0.00011827299 2.2326276e-05 1.6468224e-05 2.6997243e-06 0.0023294156 8.8438646e-05 6.307182e-05 1.3789442e-05
3.2462613e-05 1.5137429e-05 1.3970603e-05 3.1212348e-06 0.00014829199 1.5421705e-05 3.7888287e-06 1.0943944e-06
0.0013026694 0.00022679775 5.1266004e-05 2.3990726e-05 0.00031562164 6.311199e-05 1.751747e-05 1.0135195e-05
9.294622e-05 1.5367463e-05 1.6777352e-05 3.868814e-06 1.4246643e-06 7.8652755e-07 2.2773372e-06 2.6752986e-07
0.0011816068 4.8398855e-05 3.4839162e-05 9.848362e-06 9.14611e-05 2.206663e-05 7.708056e-06 2.2499546e-06
0.007056399 0.00027103967 0.000120991484 3.899586e-05 8.954523e-06 5.5192836e-06 7.561206e-06 1.8066092e-06
0.00030474755 2.6272755e-05 2.8672488e-05 4.25838e-06 0.0026105356 8.573929e-05 2.4538342e-05 8.767816e-06
7.4227323e-06 5.1296183e-06 1.310418e-05 2.0425425e-06 6.2810923e-06 2.4170845e-06 4.3953346e-06 1.2707253e-06
1.3663371e-05 7.4846134e-06 9.9429135e-06 3.371974e-06 5.4332708e-05 2.8227814e-05 3.3168457e-05 5.558432e-06
0.0026264777 0.00021633753 6.440749e-05 1.6079326e-05 0.0027420726 0.00016257828 4.322643e-05 1.4640423e-05
6.868012e-06 3.1703992e-06 6.608808e-06 3.994834e-07 3.079778e-05 1.5760184e-05 1.1202132e-05 1.5717841e-06
1.6977794e-05 5.4767493e-06 1.7575248e-06 7.416434e-07 4.699417e-05 1.4485504e-05 1.857348e-05 3.607458e-06
4.3043333e-06 2.7913488e-06 7.3423944e-06 1.0378108e-06 1.08162685e-05 9.647685e-06 7.60128e-06 7.8068246e-07
3.1952564e-05 8.401835e-06 1.5516478e-05 3.0330373e-06 0.0013845018 5.6745524e-05 3.8975268e-05 6.454165e-06
0.0002972395 3.895996e-05 5.0167296e-06 3.7706716e-06 6.9453604e-06 1.981057e-06 3.691997e-06 2.9857998e-07
0.00018153354 5.73897e-05 2.4451718e-05 9.767072e-06 6.405288e-05 8.578086e-06 1.01471e-05 6.151925e-07
2.3499893e-05 1.3250518e-05 1.2455519e-05 1.2891328e-06 0.0012685637 0.00023987473 9.5753254e-05 3.5526482e-05
2.8474291e-05 1.09778875e-05 1.2934602e-05 2.0392035e-06 0.0033704566 0.00032732487 5.8056565e-05 3.7124682e-05
0.011612533 0.00039175773 0.00015450931 5.6706842e-05 5.2337913e-05 1.8516534e-05 1.1580528e-05 2.811854e-06
0.0009599358 4.9349168e-05 3.8002236e-05 9.37291e-06 1.9248766e-05 8.293825e-06 1.2585236e-05 3.2813095e-06
2.8833281e-05 5.564474e-06 9.96796e-06 2.4866536e-06 0.0012902444 0.00014867201 5.8781505e-05 2.1393527e-05
0.0005461759 4.1510124e-05 5.2848824e-05 4.4325984e-06 0.012399446 0.0007030123 0.0001111535 7.4371375e-05
0.00042502474 0.00012351561 6.209416e-05 1.8108747e-05 0.0006037974 5.3466232e-05 5.5631386e-05 8.124027e-06
4.8581376e-05 7.0487754e-06 6.4385604e-06 9.1179487e-07 0.00012836154 1.3793948e-05 1.6080352e-05 4.508583e-06
0.010375638 0.0010224967 0.00021703941 9.316198e-05 2.612618e-05 1.48952995e-05 2.388222e-05 2.9124838e-06
7.2312637e-06 2.7260633e-06 6.538065e-06 1.5161922e-06 0.0022200432 0.00014537231 6.4543245e-05 1.7422737e-05
0.0015438063 5.7022404e-05 1.9161735e-05 7.038295e-06 0.0018948589 7.299684e-05 3.8556584e-05 7.070483e-06
0.0002378847 3.2490454e-05 4.229423e-05 5.6182503e-06 0.0017510438 0.00017364963 9.689914e-05 2.132897e-05
0.0051662223 0.00012259698 8.142401e-05 2.538393e-05 1.5041997e-05 2.9056448e-06 4.54806e-06 9.771154e-07
2.4297287e-05 8.735456e-06 1.0345635e-05 1.4224805e-06 0.00021664255 1.4383208e-05 8.369837e-06 9.1653885e-07
0.00020134683 1.3898067e-05 1.617208e-05 1.3934857e-06 2.809624e-05 1.1467154e-05 1.0109073e-05 2.10535e-06
00000000: 3ff9 9638 fb91 9736 1896 f836 7c85 2c35
00000010: 2542 3237 b1a7 bc36 b955 b236 491f 9e35
00000020: 5409 f838 5049 bb37 3e25 8a37 e92c 3536
00000030: 1ca9 183b 2378 b938 6d45 8438 3459 6737
00000040: 7728 0838 c3f6 7d37 4863 6a37 6876 5136
00000050: d47e 1b39 dc5d 8137 9543 7e36 1be3 9235
00000060: 55be aa3a 8fd0 6d39 7406 5738 b13f c937
00000070: 057a a539 fe5a 8438 7bf2 9237 550a 2a37
00000080: 1fec c238 60e9 8037 17bd 8c37 dcd0 8136
00000090: 1837 bf35 c321 5335 5bd4 1836 06a1 8f34
000000a0: 25e0 9a3a e0ff 4a38 4420 1238 653a 2537
000000b0: cece bf38 ba1b b937 d951 0137 edfd 1636
000000c0: 5d39 e73b 541a 8e39 cfbc fd38 7c8f 2338
000000d0: 623b 1637 4932 b936 44b6 fd36 9f7a f235
000000e0: 86c6 9f39 5064 dc37 b385 f037 35e3 8e36
000000f0: 8515 2b3b eece b338 b0d7 cd37 7c19 1337
00000100: c910 f936 161f ac36 06da 5b37 9d12 0936
00000110: 2cc2 d236 3235 2236 a37b 9336 ca8d aa35
00000120: bb3b 6537 5724 fb36 7dd0 2637 124a 6236
00000130: 4de3 6338 c5ca ec37 5c1e 0b38 9182 ba36
00000140: fc20 2c3b aad8 6239 8212 8738 17e2 8637
00000150: 58b4 333b c679 2a39 074e 3538 23a0 7537
00000160: c673 e636 0bc3 5436 3ac1 dd36 9578 d634
00000170: dd2c 0138 bd34 8437 caf0 3b37 17f6 d235
00000180: 896b 8e37 ebc4 b736 18e4 eb35 5915 4735
00000190: 9b1b 4538 c406 7337 3fce 9b37 a817 7236
000001a0: f16d 9036 0253 3b36 b05e f636 e84a 8b35
000001b0: 8577 3537 7edc 2137 7f0e ff36 1790 5135
000001c0: ce04 0638 9bf5 0c37 6229 8237 2f8b 4b36
000001d0: 2c78 b53a 0b02 6e38 6079 2338 db90 d836
000001e0: cfd6 9b39 f068 2338 6155 a836 a50b 7d36
000001f0: 310c e936 4df2 0436 07c4 7736 854c a034
00000200: 0a5a 3e39 b9b5 7038 aa1d cd37 41dd 2337
00000210: 2154 8638 99ea 0f37 763d 2a37 b523 2535
00000220: a321 c537 8b4e 5e37 0cf8 5037 4406 ad35
00000230: ef45 a63a e286 7b39 23cf c838 4502 1538
00000240: 13dc ee37 ab2d 3837 b101 5937 40d9 0836
00000250: e1e2 5c3b cd9c ab39 c381 7338 53b6 1b38
00000260: 7e42 3e3c d564 cd39 c703 2239 82d8 6d38
00000270: 6885 5b38 f453 9b37 fd49 4237 49b3 3c36
00000280: 33a4 7b3a 44fc 4e38 9764 1f38 5840 1d37
00000290: 6978 a137 b525 0b37 2d25 5337 7834 5c36
000002a0: 00df f137 78b6 ba36 103c 2737 62e0 2636
000002b0: 6b1d a93a d7e4 1b39 298c 7638 4076 b337
000002c0: 3f2d 0f3a 281b 2e38 fea9 5d38 bbbb 9436
000002d0: 0c27 4b3c 5b4a 383a 151b e938 d4f7 9b38
000002e0: dbd5 de39 f883 0139 8c38 8238 3de8 9737
000002f0: 2848 1e3a ee40 6038 bf55 6938 6e4c 0837
00000300: dbc3 4b38 8584 ec36 d00a d836 11c2 7435
00000310: ca98 0639 8e6c 6737 4be4 8637 6f48 9736
00000320: 94fe 293c 4c05 863a 1395 6339 f55f c338
00000330: 8b29 db37 d3e6 7937 ad56 c837 1774 4336
00000340: 15a4 f236 69f1 3636 8d61 db36 f87f cb35
00000350: 257e 113b 156f 1839 645b 8738 0b27 9237
00000360: 8b59 ca3a 572b 6f38 83bd a037 7e2a ec36
00000370: ea5c f83a e115 9938 d1b7 2138 fd3e ed36
00000380: b070 7939 5c46 0838 1565 3138 6784 bc36
00000390: 4883 e53a b815 3639 5436 cb38 9deb b237
000003a0: 6a49 a93b 608d 0039 2fc2 aa38 93ef d437
000003b0: e35c 7c37 99fe 4236 8a9b 9836 6e25 8335
000003c0: 07d2 cb37 7f8e 1237 2a92 2d37 0fec be35
000003d0: 8b2a 6339 684f 7137 2d6c 0c37 1208 7635
000003e0: a120 5339 be2b 6937 47a9 8737 ce07 bb35
000003f0: 37b0 eb37 0d63 4037 239a 2937 a349 0d36
