distributed_shared/worker_logs/worker_10/models/model_episode_60.pt (torch, 816842 bytes, 16 tensors)

0.weight f4 [256, 4]
0.03222801 0.24354532 0.17804833 0.2995715 0.08934132 0.40879634 -0.12365708 0.06942137
-0.19017288 -0.08396844 0.44118658 0.21940646 -0.12279361 -0.41950324 -0.2909808 0.13468145
0.34645593 -0.0023126302 -0.17058307 0.47497633 0.22600508 0.4057326 0.41348484 -0.1551817
0.35068423 -0.04856373 -0.35493782 -0.00028024142 0.12690248 -0.38258922 -0.29371223 -0.41310516
0.30994806 -0.18682656 0.3412283 -0.1844742 -0.09339402 -0.39892545 -0.13361768 -0.16345803
0.4291984 0.33395895 -0.23020978 0.060505074 0.17193772 0.2740595 -0.131958 0.11308537
-0.41187003 -0.46632972 0.43913347 0.15615337 -0.49811226 0.49180013 -0.13976426 0.17992319
0.4276815 -0.06595733 0.18343261 -0.30897984 -0.30230355 0.26797473 0.2846511 -0.24576409
0.24802005 0.48345327 -0.21421629 -0.17328826 0.15026385 0.113940746 -0.5024554 -0.33475697
-0.3997923 -0.2038087 0.29585668 -0.08790051 0.22463666 -0.45438635 -0.06682076 0.40010196
-0.36742136 0.22646782 0.38824704 -0.08637982 -0.23768447 -0.268861 -0.42511028 -0.35851407
-0.33713853 -0.2521075 0.16948198 -0.50533843 -0.42450392 0.44001102 0.44695613 0.45257288
-0.17118534 -0.16838893 -0.1974131 -0.2814626 0.19405457 -0.25058177 0.16065104 -0.26262528
0.2926974 -0.08026211 -0.33556992 -0.23632352 0.42282256 0.40961638 -0.05210319 0.35054228
-0.3770796 0.07705092 -0.087323464 0.12854366 -0.3960173 0.25696683 -0.4783134 -0.44122377
-0.24243425 0.12637003 0.042034548 0.31325728 -0.276935 -0.18664613 -0.33881515 0.21184023
-0.14563616 -0.28816652 0.40784022 0.4762632 0.35095373 -0.010028666 -0.3447695 -0.36535618
0.42463368 0.18567604 0.35294285 0.43673941 -0.34889403 0.40587136 -0.17926116 0.38046768
0.08452845 0.43184286 0.1119332 -0.48891097 0.45022762 -0.24499145 -0.36220542 0.19355464
-0.46153697 0.41957042 -0.029689332 -0.48377597 0.3851305 -0.21475665 0.23172568 0.5199053
-0.44217557 -0.44915292 -0.47563666 -0.38712865 0.4047703 -0.21911535 0.35920215 0.44497284
0.21585569 -0.22089927 -0.0656543 -0.42483443 0.17285495 -0.023050938 0.07994959 -0.125218
0.0053208135 0.43655226 -0.11873799 0.2298352 0.30497694 0.26387417 0.349503 0.11248827
0.0023454835 0.4907109 0.28283596 -0.24735345 -0.403519 -0.16692068 -0.33176836 0.40263262
0.1272728 -0.07511898 -0.28725934 -0.05033761 -0.35461926 0.41278523 0.1801181 -0.430165
0.42465505 0.26060554 0.2703556 -0.4497227 0.48340026 -0.28788984 0.42578396 0.29648337
-0.33440754 -0.09460436 -0.397306 0.4512734 0.39703164 0.16358913 -0.081245124 0.49329597
-0.45193067 -0.11801929 -0.40579587 0.20179866 0.14480205 0.20087567 0.27889293 0.08224103
0.43105733 -0.3340131 -0.30794367 -0.12405944 -0.10467658 -0.32116678 0.3159293 -0.07015052
0.28042483 0.37624735 0.20812325 -0.13603128 -0.33493888 -0.14342208 -0.34808615 0.49545074
0.401482 -0.42175543 0.33083966 0.3648419 0.051962312 0.057180427 0.064716324 0.26538798
0.1648923 0.31069684 -0.39348257 0.043660313 0.47120714 0.21723433 -0.2905112 -0.08439042
00000000: 8501 043d f263 793e 4d52 363e 7061 993e
00000010: 95f8 b63d c14d d13e ec3f fdbd cb2c 8e3d
00000020: aebc 42be a5f7 abbd 35e3 e13e 16ac 603e
00000030: 377b fbbd 21c9 d6be 6ffb 94be efe9 093e
00000040: ac62 b13e 7f8f 17bb 54ad 2ebe 1930 f33e
00000050: e06d 673e 2fbc cf3e 49b4 d33e f4e7 1ebe
00000060: e28c b33e c3ea 46bd 69ba b5be 5eed 92b9
00000070: b9f2 013e bce2 c3be 7361 96be 8582 d3be
00000080: 83b1 9e3e 764f 3fbe 7ab5 ae3e cee6 3cbe
00000090: 5d45 bfbd f53f ccbe 13d3 08be 8b61 27be
000000a0: e5bf db3e abfc aa3e 1dbc 6bbe 2bd4 773d
000000b0: 7110 303e 8751 8c3e ff1f 07be 4d99 e73d
000000c0: a1e0 d2be c5c2 eebe 1ad6 e03e abe6 1f3e
000000d0: 9208 ffbe 3acd fb3e 5d1e 0fbe c93d 383e
000000e0: 12f9 da3e a314 87bd c2d5 3b3e 9b32 9ebe
000000f0: 88c7 9abe fc33 893e cabd 913e 95a9 7bbe
00000100: f8f8 7d3e 3087 f73e 845b 5bbe 7a72 31be
00000110: c4de 193e c459 e93d eba0 00bf 4465 abbe
00000120: 94b1 ccbe 3ab3 50be 877a 973e 2f05 b4bd
00000130: 2707 663e 54a5 e8be 53d9 88bd 2ada cc3e
00000140: a71e bcbe 2ee7 673e 51c8 c63e e7e7 b0bd
00000150: 8f63 73be 26a8 89be 0ea8 d9be 288f b7be
00000160: 6c9d acbe 3c14 81be af8c 2d3e dc5d 01bf
00000170: 9458 d9be 2049 e13e 6fd7 e43e a2b7 e73e
00000180: 364b 2fbe 266e 2cbe a926 4abe de1b 90be
00000190: 3eb6 463e 414c 80be b581 243e d276 86be
000001a0: 6fdc 953e 7660 a4bd d2cf abbe cbfe 71be
000001b0: 337c d83e 3db9 d13e 286a 55bd 477a b33e
000001c0: 9410 c1be dfcc 9d3d a5d6 b2bd f3a0 033e
000001d0: c8c2 cabe 2891 833e 7ee5 f4be 15e8 e1be
000001e0: af40 78be 2567 013e 6b2c 2c3d 4263 a03e
000001f0: 6dca 8dbe 2a20 3fbe 2e79 adbe a5ec 583e
00000200: a521 15be 908a 93be 6fd0 d03e c5d8 f33e
00000210: 35b0 b33e 464f 24bc a185 b0be f70f bbbe
00000220: 9669 d93e dc21 3e3e edb4 b43e 4f9c df3e
00000230: 3da2 b2be 5fce cf3e 3d90 37be a9cc c23e
00000240: 411d ad3d 821a dd3e 3c3d e53d 8a52 fabe
00000250: 3c84 e63e 0adf 7abe fd72 b9be 3033 463e
00000260: 934e ecbe efd1 d63e 0b37 f3bc 7cb1 f7be
00000270: d32f c53e 2be9 5bbe 7f49 6d3e 8418 053f
00000280: d664 e2be 5ff7 e5be a686 f3be ba35 c6be
00000290: 0e3e cf3e c65f 60be 58e9 b73e 7bd3 e33e
000002a0: 4609 5d3e 6b33 62be c375 86bd e683 d9be
000002b0: e300 313e 52d5 bcbc 9cbc a33d 2639 00be
000002c0: 385a ae3b c783 df3e e72c f3bd eb59 6b3e
000002d0: f025 9c3e 841a 873e 0ff2 b23e 4060 e63d
000002e0: afb6 193b 763e fb3e e0cf 903e 394a 7dbe
000002f0: 0b9a cebe 41ed 2abe 8bdd a9be dd25 ce3e
00000300: cd53 023e fbd7 99bd a813 93be cf2e 4ebd
00000310: a890 b5be 9658 d33e e170 383e 963e dcbe
00000320: 636c d93e 176e 853e 0d6c 8a3e 0e42 e6be
00000330: 3d80 f73e 4c66 93be 5b00 da3e abcc 973e
00000340: 7737 abbe eebf c1bd b16b cbbe 4f0d e73e
00000350: bb47 cb3e e983 273e d863 a6bd 4a91 fc3e
00000360: 7563 e7be 19b4 f1bd 7ac4 cfbe 4fa4 4e3e
00000370: fd46 143e 5ab2 4d3e 0ecb 8e3e fc6d a83d
00000380: 8cb3 dc3e c403 abbe cbaa 9dbe e012 febd
00000390: ad60 d6bd f96f a4be 7cc1 a13e 13ab 8fbd
000003a0: d893 8f3e 7ea3 c03e 431e 553e c94b 0bbe
000003b0: 1c7d abbe 3ddd 12be 5938 b2be b8ab fd3e
000003c0: 0c8f cd3e 54f0 d7be d163 a93e 8fcc ba3e
000003d0: 6fd6 543d 0636 6a3d fe89 843d efe0 873e
000003e0: 87d9 283e a813 9f3e 8c76 c9be 28d5 323d
000003f0: 1042 f13e ad72 5e3e e2bd 94be e2d4 acbd

0.bias f4 [256]
-0.0055947066 -0.41592646 0.45975086 0.15857066 0.15009603 -0.35997447 0.18272218 0.33795953
0.062209807 -0.3035789 0.15128385 0.07172091 -0.13694023 -0.32577553 -0.4071198 -0.11755358
0.37212172 -0.31183147 -0.047183067 0.33002174 0.47854006 0.34980524 0.08479505 0.40363038
0.18450758 0.100338764 -0.01705375 -0.052511074 0.009131529 0.19114754 0.33195275 -0.3296437
0.13849814 -0.42966884 -0.43026277 0.4030153 0.051315673 0.2750998 0.29293242 -0.4661672
0.4951131 -0.31995708 -0.43052757 -0.103050515 -0.35593274 0.35742408 -0.31117967 -0.086896464
-0.17620522 0.12248211 0.1139053 -0.061009075 -0.16476646 -0.38988855 0.008876988 0.24734198
-0.051999617 0.2119185 0.35059577 -0.23349795 -0.1913521 0.3219768 -0.48749486 0.32801545
0.05088517 0.3437022 0.010597202 0.37041587 0.10340544 -0.108114384 0.11525278 0.10336048
0.4590536 0.44252494 -0.15007359 -0.36421686 0.4392824 -0.120770656 0.13720483 -0.4785995
-0.4735058 -0.40000206 0.12763904 0.27055812 -0.11323726 0.18861057 0.42809886 0.26752412
-0.4177047 -0.14419158 -0.27483693 0.34725443 0.2926066 0.26367095 -0.01739106 -0.033823874
0.20512484 -0.08290043 -0.4055063 0.46966517 0.38766614 0.4871886 -0.13832866 -0.25555888
0.20268525 -0.31338334 0.3839664 0.0613446 0.28077444 0.23248234 -0.4780327 0.19540173
0.19218083 -0.18609698 0.14684685 0.13390127 0.35021865 -0.018107884 0.17428568 0.5006657
-0.13093498 0.33753264 -0.14856637 0.05668562 0.07466753 -0.4096961 -0.07324804 -0.300522
-0.18998334 0.46967915 0.3227572 -0.4160623 -0.37789097 -0.29522458 -0.098249964 0.31902382
-0.109365165 -0.1432948 0.10059105 0.071272895 0.48975322 0.16466181 0.21263212 -0.24361311
0.16716392 0.36149085 0.24081592 -0.43963996 -0.14227183 0.14203621 -0.43004856 0.1098128
0.2254882 0.29771855 -0.23699725 0.4171918 0.043600865 0.1211196 -0.4551455 -0.29034528
-0.29286823 0.16246463 -0.3927999 -0.22510639 -0.49609572 -0.39490166 0.4679969 -0.35354695
0.35627568 -0.13338655 -0.13528365 -0.3864654 0.2860976 0.43618715 -0.35078678 -0.18111558
0.15852132 -0.17390609 -0.14558586 -0.4491541 0.25649536 -0.09026603 -0.32132336 -0.2376457
0.2970314 -0.18832554 -0.1942174 0.45973456 -0.41364908 0.49566293 -0.08296013 -0.24579188
-0.44835302 0.093508646 -0.29739228 0.29004884 -0.4012317 0.2796879 -0.010848894 -0.33587432
-0.22326821 -0.0030579644 0.41847843 0.10739659 0.105576985 -0.12237672 0.43758735 -0.22242528
-0.10185561 0.41789755 -0.3020558 0.16006446 -0.040237553 0.04126763 -0.0116836205 -0.43441716
-0.46142378 -0.11531322 -0.48591396 0.29861164 0.34333846 -0.0035715133 0.27054426 -0.077858426
-0.04140241 -0.15187293 0.33677298 -0.06890437 -0.35821858 0.22259305 0.28291887 -0.28834254
-0.45427778 -0.49887654 0.19822982 0.33725166 0.26075512 0.043699566 0.45370924 -0.24897262
0.3506293 -0.15021148 -0.47550735 -0.16652605 0.28081104 0.2707569 -0.4608318 -0.10623973
0.47952306 -0.115187354 0.4031896 0.17791869 0.18584633 0.24625579 0.28925842 0.27221918
00000000: cd53 b7bb 50f4 d4be 7764 eb3e 5960 223e
00000010: c6b2 193e 934e b8be 861b 3b3e 0809 ad3e
00000020: b6cf 7e3d b26e 9bbe 27ea 1a3e 6ae2 923d
00000030: 0f3a 0cbe 0dcc a6be 0272 d0be eebf f0bd
00000040: bd86 be3e 60a8 9fbe 0843 41bd 9cf8 a83e
00000050: 3403 f53e ac19 b33e 07a9 ad3d a4a8 ce3e
00000060: 8eef 3c3e 697e cd3d 4eb4 8bbc da15 57bd
00000070: 699c 153c 2ebc 433e b6f5 a93e 0fc7 a8be
00000080: 75d2 0d3e 8efd dbbe 674b dcbe 0558 ce3e
00000090: 6230 523d e2d9 8c3e 3dfb 953e 78ad eebe
000000a0: 777f fd3e 6ad1 a3be 1c6e dcbe 260c d3bd
000000b0: d13c b6be 4a00 b73e f152 9fbe c6f6 b1bd
000000c0: 246f 34be e7d7 fa3d 2f47 e93d a7e4 79bd
000000d0: 8ab8 28be 799f c7be c970 113c 3747 7d3e
000000e0: 8dfd 54bd 2a01 593e 4a81 b33e 161a 6fbe
000000f0: cef1 43be 25da a43e ed98 f9be a4f1 a73e
00000100: f86c 503d bcf9 af3e e39f 2d3c 26a7 bd3e
00000110: 3bc6 d33d 136b ddbd a609 ec3d a9ae d33d
00000120: 1309 eb3e a192 e23e e4ac 19be a27a babe
00000130: 9fe9 e03e 9b56 f7bd 6c7f 0c3e fe0a f5be
00000140: 5a6f f2be 12cd ccbe cfb3 023e 9886 8a3e
00000150: f0e8 e7bd 2123 413e c62f db3e ecf8 883e
00000160: 64dd d5be f5a6 13be 6db7 8cbe 55cb b13e
00000170: 88d0 953e e1ff 863e b277 8ebc e78a 0abd
00000180: 3f0c 523e b3c7 a9bd 869e cfbe f477 f03e
00000190: 2d7c c63e c970 f93e 07a6 0dbe 9dd8 82be
000001a0: b98c 4f3e c873 a0be 3e97 c43e 7a44 7b3d
000001b0: abc1 8f3e da0f 6e3e b4c0 f4be 6417 483e
000001c0: 0dcb 443e 3590 3ebe 055f 163e 6a1d 093e
000001d0: dc4f b33e fc56 94bc f277 323e a12b 003f
000001e0: d213 06be 14d1 ac3e c821 18be 2e2f 683d
000001f0: 4aeb 983d b0c3 d1be 1203 96bd 05de 99be
00000200: fe8a 42be c979 f03e 6f40 a53e 1e06 d5be
00000210: ed7a c1be ad27 97be 4737 c9bd 1757 a33e
00000220: d8fa dfbd dfbb 12be ae02 ce3d 86f7 913d
00000230: efc0 fa3e 1b9d 283e 3cbc 593e b775 79be
00000240: 052d 2b3e 5415 b93e 7398 763e 7d18 e1be
00000250: b5af 11be f171 113e 532f dcbe 89e5 e03d
00000260: 61e6 663e 916e 983e 68af 72be 2a9a d53e
00000270: d296 323d 8e0d f83d d508 e9be 23a8 94be
00000280: d3f2 95be 215d 263e 121d c9be 4a82 66be
00000290: 4200 febe 8d30 cabe 4a9d ef3e 1b04 b5be
000002a0: c469 b63e 7c96 08be cc87 0abe cbde c5be
000002b0: 627b 923e ec53 df3e 539a b3be 5d76 39be
000002c0: 6a53 223e 7014 32be 7614 15be 87f7 e5be
000002d0: 5c53 833e 65dd b8bd 7f84 a4be 6559 73be
000002e0: 8014 983e 69d8 40be ede0 46be 5462 eb3e
000002f0: d0c9 d3be 88c7 fd3e 00e7 a9bd deb0 7bbe
00000300: 878e e5be 7681 bf3d cd43 98be 4881 943e
00000310: 3e6e cdbe 4133 8f3e 8fbf 31bc b8f7 abbe
00000320: 6ca0 64be 2168 48bb ce42 d63e bef2 db3d
00000330: bf38 d83d a5a0 fabd 730b e03e 74c3 63be
00000340: ad99 d0bd abf6 d53e 0fa7 9abe f0e7 233e
00000350: 22d0 24bd 3f08 293d a86c 3fbc ed6b debe
00000360: bd3f ecbe 5629 ecbd b7c9 f8be a0e3 983e
00000370: 0fca af3e 0d10 6abb c784 8a3e 3d74 9fbd
00000380: 9395 29bd 9484 1bbe 826d ac3e bc1d 8dbd
00000390: 6d68 b7be 6fef 633e beda 903e a2a1 93be
000003a0: 1997 e8be bf6c ffbe c2fc 4a3e 40ac ac3e
000003b0: b281 853e 51fe 323d 944c e83e aef2 7ebe
000003c0: af85 b33e 0ad1 19be b375 f3be ce85 2abe
000003d0: 77c6 8f3e a6a0 8a3e 25f2 ebbe 3794 d9bd
000003e0: 0c84 f53e 59e7 ebbd de6e ce3e 5130 363e
000003f0: 804e 3e3e 7a2a 7c3e ae19 943e 5060 8b3e

2.weight f4 [256, 256]
-0.07066003 0.0316721 0.012194226 -0.05161472 -0.049658623 0.017748654 -0.016912386 -0.014465167
0.035574526 -0.023953114 0.002921114 0.035275213 -0.026504628 -0.0265378 0.051643908 -0.042425204
-0.016597684 -0.017883794 -0.057378057 0.014578007 0.022233533 -0.02305747 -0.029762056 0.03899403
-0.02266955 -0.031154945 0.050383568 0.05502777 0.0036911934 0.05009036 -0.0044270623 -0.017566044
0.033498093 0.029623896 -0.038635686 0.047777466 0.02160024 -0.04626508 0.071146175 -0.01240795
0.0768319 -0.0035668376 0.010632938 -0.021651443 0.043230787 0.028674988 -0.05710697 0.043301456
0.012966489 0.019784652 0.02728356 -0.05638865 0.035977293 -0.00056376815 -0.039114814 0.015471917
0.0168203 -0.021804115 -0.01968302 -0.050381836 -0.0124332085 -0.023855623 0.027018897 -0.051084112
0.009561096 -0.049940016 0.052281614 -0.064395115 0.00644134 -0.01162135 0.0111487815 0.05884287
-0.05583693 0.03453507 0.03989867 0.014641919 0.022270666 0.06126548 -0.03783446 -0.023111552
0.042451184 0.0062296647 -0.058587257 -0.024857325 0.015324458 0.030310765 0.032145318 -0.04409753
-0.0036130652 0.046367772 0.00524953 -0.024931809 -0.03490148 0.01701529 -0.024926739 -0.0030485992
0.06842556 -0.06138871 -0.0064213537 -0.03958777 0.032457467 -0.0053957934 -0.061568443 -0.03028527
0.002879597 -0.011584964 -0.020096693 -0.038079698 -0.027444504 -0.03363965 -0.022927243 -0.0030182903
-0.06938934 0.014955006 -0.04751918 -0.05713891 -0.021627098 0.03796822 0.034380525 -0.022941215
-0.016468065 -0.053901803 -0.008202169 0.033134524 -0.027466448 0.05152455 0.043486644 -0.012585404
0.05444611 -0.050539955 -0.06082537 0.024559079 -0.06507547 -0.04009252 -0.03875597 -0.016445015
-0.059506834 0.0019826898 0.048944514 0.012665148 -0.056691345 0.065091886 0.048173167 -0.0073730685
0.032884683 0.010668673 -0.05419423 -0.015467985 -0.036044188 0.030234346 0.001688315 -0.028452108
0.027821407 -0.01604011 -0.043890137 0.025237054 -0.03851343 0.009069029 0.001955036 0.03980906
0.0024127513 -0.033331793 0.005213535 -0.027325554 -0.0055233347 -0.064310536 0.0089792255 -0.06565274
-0.0006814515 0.008430297 -0.0030149855 -0.008456129 -0.045319144 -0.036319666 0.006536604 -0.047474626
0.030258847 0.031759445 -0.044417083 -0.057633013 0.020979831 -0.015574648 -0.027439835 -0.008831728
-0.06291169 0.052041303 0.017487064 0.01510825 0.018838093 -0.04851566 -0.00719485 -0.0071863546
-0.04672434 0.037125878 0.008088379 -0.0051875804 0.050071746 -0.026794922 0.019035414 -0.027557394
0.013757671 -0.0620365 0.03668655 -0.0056246733 0.017359365 -0.036909692 -0.05826349 0.01979519
0.058505297 0.068773784 -0.04504645 -0.058603585 -0.035229046 0.0018399036 -0.06687937 -0.039629117
0.0035112752 0.04789413 0.026794057 -0.0055482797 0.047264982 0.056416184 0.0023985256 0.0029727104
0.015573707 -0.04332369 -0.021428863 -0.016380811 -0.025517521 0.052307934 -0.021501966 0.012994087
0.0029753924 -0.05236745 0.030857967 0.06952192 0.012941301 -0.016662467 -0.030031977 -0.056700606
-0.02019313 0.009850146 0.044859003 0.057557445 0.032883503 0.014369467 -0.029567001 0.029077865
0.027858814 0.048426166 0.06295205 -0.021883719 0.00027712257 -0.03255606 0.026961464 -0.027683599
00000000: 35b6 90bd 9bba 013d 4aca 473c f569 53bd
00000010: d766 4bbd a065 913c d88b 8abc 4fff 6cbc
00000020: 98b6 113d 5239 c4bc 2970 3f3b be7c 103d
00000030: 3c20 d9bc cd65 d9bc 9088 533d 0dc6 2dbd
00000040: def7 87bc 0981 92bc 4105 6bbd 98d8 6e3c
00000050: 1923 b63c 05e3 bcbc 8ecf f3bc 34b8 1f3d
00000060: 7eb5 b9bc a838 ffbc 005f 4e3d cd64 613d
00000070: f3e7 713b 8d2b 4d3d e410 91bb aae6 8fbc
00000080: 4c35 093d d0ad f23c 7440 1ebd 4eb2 433d
00000090: fdf2 b03c 7480 3dbd 16b5 913d b74a 4bbc
000000a0: 0b5a 9d3d 9bc1 69bb c635 2e3c 5e5e b1bc
000000b0: c412 313d cfe7 ea3c 00e9 69bd de5c 313d
000000c0: 6671 543c 6c13 a23c c681 df3c c9f7 66bd
000000d0: ed5c 133d d7c9 13ba db36 20bd ec7d 7d3c
000000e0: baca 893c 8b9e b2bc 493e a1bc 2f5d 4ebd
000000f0: a8b4 4bbc de6c c3bc bc56 dd3c 933d 51bd
00000100: 25a6 1c3c e78d 4cbd 3f25 563d 96e1 83bd
00000110: e011 d33b 7a67 3ebc 61a9 363c 3905 713d
00000120: 44b5 64bd a574 0d3d ca6c 233d a9e4 6f3c
00000130: f970 b63c 83f1 7a3d 4ff8 1abd 7054 bdbc
00000140: 4be1 2d3d 3722 cc3b 31f9 6fbd 97a1 cbbc
00000150: 6f13 7b3c 484e f83c cfaa 033d 9d9f 34bd
00000160: 2dc9 6cbb 22ec 3d3d 4004 ac3b cb3d ccbc
00000170: dbf4 0ebd a663 8b3c 2933 ccbc 02cb 47bb
00000180: b322 8c3d ba72 7bbd 386a d2bb c926 22bd
00000190: 1ff2 043d 32cf b0bb 312f 7cbd d118 f8bc
000001a0: 9fb7 3c3b dcce 3dbc d2a1 a4bc 75f9 1bbd
000001b0: 4cd3 e0bc bbc9 09bd ead1 bbbc 82ce 45bb
000001c0: 001c 8ebd d705 753c 79a3 42bd 7d0a 6abd
000001d0: 502b b1bc 9084 1b3d 98d2 0c3d 37ef bbbc
000001e0: 09e8 86bc 23c8 5cbd 6462 06bc 11b8 073d
000001f0: 5101 e1bc 680b 533d 0d1f 323d 0333 4ebc
00000200: e202 5f3d fc02 4fbd 0624 79bd 1f30 c93c
00000210: 4a46 85bd 0e38 24bd 94be 1ebd b2b7 86bc
00000220: 70bd 73bd 04f0 013b 0b7a 483d 7b81 4f3c
00000230: 2f35 68bd e54e 853d 3a51 453d c899 f1bb
00000240: 17b2 063d a8cb 2e3c c5fa 5dbd 6e6d 7dbc
00000250: 12a3 13bd 05ae f73c 734a dd3a 6514 e9bc
00000260: b8e9 e33c 8c66 83bc 25c6 33bd f0bd ce3c
00000270: 42c0 1dbd 4496 143c 1020 003b d30e 233d
00000280: 401f 1e3b eb86 08bd 4dd6 aa3b d7d9 dfbc
00000290: 17fd b4bb 3eb5 83bd 9a1d 133c f274 86bd
000002a0: 70a3 32ba 3a1f 0a3c 1097 45bb 938b 0abc
000002b0: 91a0 39bd eec3 14bd 0231 d63b c174 42bd
000002c0: 67e1 f73c 3116 023d b0ee 35bd 9810 6cbd
000002d0: e5dd ab3c cf2c 7fbc 81c9 e0bc f4b2 10bc
000002e0: d8d7 80bd 4329 553d 0841 8f3c 9888 773c
000002f0: 5852 9a3c 5bb8 46bd c7c2 ebbb 837b ebbb
00000300: 0662 3fbd 4e11 183d 1f85 043c 94fc a9bb
00000310: 0818 4d3d 0681 dbbc 28f0 9b3c 0bc0 e1bc
00000320: db67 613c fc19 7ebd a344 163d 2e4f b8bb
00000330: 3a35 8e3c 9e2e 17bd b3a5 6ebd 8629 a23c
00000340: 40a3 6f3d 45d9 8c3d a082 38bd 500a 70bd
00000350: 554c 10bd ec28 f13a 0df8 88bd 2452 22bd
00000360: 6c1d 663b a32c 443d 367f db3c 58ce b5bb
00000370: ed98 413d a814 673d 9530 1d3b ced1 423b
00000380: dd28 7f3c 2e74 31bd 958b afbc 0d31 86bc
00000390: 1f0a d1bc d840 563d e424 b0bc 27e5 543c
000003a0: cdfe 423b 407f 56bd d9c9 fc3c 8261 8e3d
000003b0: c007 543c ba7f 88bc 9f05 f6bc e53e 68bd
000003c0: 106c a5bc 8262 213c 13be 373d 5bc1 6b3d
000003d0: dab0 063d ea6d 6b3c 7f36 f2bc b434 ee3c
000003e0: 2b38 e43c 845a 463d 01ed 803d 7c45 b3bc
000003f0: c34a 9139 8159 05bd 4ade dc3c b7c8 e2bc

2.bias f4 [256]
0.05477436 -0.00018961003 -0.0074563213 -0.003342677 0.059523698 0.007604035 -0.022489399 0.024740666
0.029352095 -0.0067369067 0.034779668 0.033036947 0.05713971 -0.0065815183 0.008717965 -0.058791947
-0.02809464 0.0029992533 -0.01893186 0.064208895 0.06794348 0.03252193 -0.0524671 -0.042623192
-0.024307795 0.015319846 -0.047555823 0.046386 -0.035764948 0.041620255 -0.019944029 0.033279985
-0.025423774 0.00982258 -0.054789208 -0.053251717 0.031167353 0.02162906 0.027110405 -0.009445242
-0.06378105 -0.028168919 0.0052216514 0.0031984462 -0.05248162 0.020494344 -0.0027396476 0.011516111
-0.024977412 0.04192177 -0.0077229585 0.03746589 -0.035502464 -0.045671217 -0.000117660165 -0.058050904
-0.033230722 0.052049696 0.035959646 0.05018027 -0.016724555 -0.038944405 0.04706329 -0.0062314835
-0.0056225993 -0.06707267 0.06573168 0.00121119 0.041735582 0.0064699203 -0.03841775 0.057606835
-0.043618448 -0.055976808 -0.048303515 -0.035742015 -0.029435504 -0.04126545 -0.0038159303 0.053761233
-0.030833442 0.023280414 0.055804253 -0.061997574 0.0060383296 0.040297516 0.025636794 0.030336872
0.0027199793 0.021210657 -0.027525231 -0.054281857 -0.039515756 0.034674235 -0.044930387 0.04374199
0.030034775 -0.04647688 0.014393658 -0.045692537 0.00019432243 0.024622602 0.030446356 0.06301826
0.03760859 -0.04697814 0.035054363 0.00035500553 0.026318692 0.0043568225 -0.037801843 0.016616415
-0.016083559 0.05317961 -0.016605042 0.013380259 -0.027732521 0.05206263 -0.046925247 0.017773297
0.057519708 0.025492605 -0.007288244 0.048228864 -0.042988572 -0.047855224 0.035263058 -0.002733972
-0.038441673 -0.021187128 -0.0066519375 -0.028750958 0.05188863 0.0043604085 -0.049147524 -0.017288093
-0.005532174 -0.029457407 -0.0062969057 -0.018259062 0.06278395 -0.0042052544 0.014446137 0.010901375
-0.0009325762 -0.023944374 -0.022750279 -0.006289525 -0.02081768 -0.050325733 -0.056715775 0.02350818
0.016971413 0.06562989 0.040580664 -0.043626875 0.0017335615 -0.023094894 0.014641324 -0.0016120845
0.057290487 -0.061977465 -0.04049537 -0.0055141533 -0.0045481115 -0.0029524835 -0.03202792 0.012140843
-0.051600207 0.016552376 -0.04540866 0.048274886 -0.052107055 -0.042623542 0.01116734 -0.033043895
-0.05684226 0.00028855 -0.048141565 -0.06039729 0.007972354 -0.009359895 -0.04595353 -0.011812473
0.04279078 0.040915977 0.0087688165 0.00066305767 -0.030805966 0.0013277327 -0.06201196 0.008368503
-0.038594615 0.05644284 -0.051672406 0.057811156 0.016697066 0.04780405 -0.016063342 -0.045058046
0.017004268 0.004438345 -0.02513578 -0.012134467 -0.014946694 -0.027110957 0.012071548 0.0071008787
0.03776561 -0.015957825 -0.009068492 -0.010270543 -0.050701097 0.028837638 -0.027238965 0.041086238
0.043021366 -0.029926699 0.0030956697 0.012169479 -0.0028281442 0.0054338276 -0.015202213 -0.015883083
-0.033362884 0.0029017383 0.057647496 -0.021095244 -0.019959357 -0.024497429 -0.021683682 -0.02261116
-0.037312705 -0.050408106 -0.0025002777 -0.028528051 -0.027101684 -0.03988973 0.014281798 0.036933057
-0.047283772 0.03758272 0.01764121 -0.030479338 -0.024376659 0.0015026393 -0.03921868 0.0333745
0.053385954 -0.04044318 0.0005867124 -0.04143109 -0.038965542 -0.024097865 -0.046557464 -0.0078260405
00000000: 145b 603d 0ed2 46b9 2854 f4bb d010 5bbb
00000010: 1fcf 733d 452b f93b b03b b8bc f0ac ca3c
00000020: ce73 f03c 45c1 dcbb 2075 0e3d c051 073d
00000030: 540b 6a3d c7a9 d7bb ccd5 0e3c d3cf 70bd
00000040: bb26 e6bc 1f8f 443b fd16 9bbc f47f 833d
00000050: f425 8b3d b735 053d bee7 56bd a895 2ebd
00000060: 2421 c7bc 1700 7b3c e5c9 42bd 3fff 3d3d
00000070: 447e 12bd 007a 2a3d a961 a3bc 9850 083d
00000080: 8545 d0bc e3ee 203c a66a 60bd 791e 5abd
00000090: ad52 ff3c 6d2f b13c a416 de3c 37c0 1abc
000000a0: a49f 82bd 81c2 e6bc 631a ab3b 069d 513b
000000b0: f8f6 56bd c1e3 a73c a98b 33bb 12ae 3c3c
000000c0: 6e9d ccbc 29b6 2b3d df10 fdbb d575 193d
000000d0: 086b 11bd be11 3bbd 52c0 f6b8 c9c6 6dbd
000000e0: f01c 08bd 1032 553d 6c4a 133d d489 4d3d
000000f0: ef01 89bc 2b84 1fbd 70c5 403d 7931 ccbb
00000100: c83d b8bb 655d 89bd 559e 863d cbc0 9e3a
00000110: eef2 2a3d a001 d43b ee5b 1dbd 25f5 6b3d
00000120: 42a9 32bd f047 65bd e8d9 45bd 3866 12bd
00000130: ba22 f1bc f605 29bd b014 7abb bd34 5c3d
00000140: 6a96 fcbc 91b6 be3c 0093 643d 2bf1 7dbd
00000150: 2edd c53b 020f 253d 4104 d23c 0885 f83c
00000160: ae41 323b f9c1 ad3c 987c e1bc a756 5ebd
00000170: 46db 21bd 9206 0e3d ed08 38bd cd2a 333d
00000180: 7d0b f63c 8a5e 3ebd 61d3 6b3c 1928 3bbd
00000190: 08c3 4b39 57b5 c93c a36a f93c b80f 813d
000001a0: 770b 1a3d 266c 40bd 2a95 0f3d 0920 ba39
000001b0: 4c9a d73c adc3 8e3b 1bd6 1abd 261f 883c
000001c0: abc1 83bc ddd2 593d 4c07 88bc e038 5b3c
000001d0: 502f e3bc a03f 553d b034 40bd 4e99 913c
000001e0: c999 6b3d ded5 d03c 39d2 eebb a18b 453d
000001f0: c914 30bd d703 44bd ff6f 103d 702c 33bb
00000200: 0475 1dbd a190 adbc 7ff8 d9bb 2187 ebbc
00000210: 2c89 543d c2e1 8e3b ea4e 49bd c29f 8dbc
00000220: 3d47 b5bb a950 f1bc 4656 cebb 0794 95bc
00000230: df94 803d 3bcc 89bb 7daf 6c3c ae9b 323c
00000240: 2178 74ba fe26 c4bc cb5e babc 5c18 cebb
00000250: d789 aabc 5b22 4ebd cd4e 68bd 3a94 c03c
00000260: a207 8b3c f768 863d e937 263d 18b2 32bd
00000270: ac38 e33a 8131 bdbc 2ae2 6f3c 944c d3ba
00000280: 6ea9 6a3d 15dc 7dbd 79de 25bd 12b0 b4bb
00000290: 5308 95bb 747e 41bb b52f 03bd 63ea 463c
000002a0: bd5a 53bd d998 873c 6efe 39bd e3bb 453d
000002b0: 356e 55bd 0696 2ebd 38f7 363c 0959 07bd
000002c0: 6ed3 68bd 8748 9739 1730 45bd 2663 77bd
000002d0: 7a9e 023c 3f5a 19bc c539 3cbd 1a89 41bc
000002e0: 6345 2f3d 8397 273d 15ab 0f3c 0cd1 2d3a
000002f0: cb5c fcbc 5107 ae3a 4100 7ebd 0c1c 093c
00000300: 6315 1ebd 9b30 673d 72a6 53bd 64cb 6c3d
00000310: 49c8 883c 2ece 433d 4597 83bc c98e 38bd
00000320: 894c 8b3c 896f 913b 8de9 cdbc a5cf 46bc
00000330: fae2 74bc cc17 debc bec7 453c 7dae e83b
00000340: 1db0 1a3d fcb9 82bc 0394 14bc c845 28bc
00000350: f4ab 4fbd e93c ec3c 4024 dfbc 0b4a 283d
00000360: 2c37 303d d628 f5bc b8e0 4a3b 7f62 473c
00000370: 6358 39bb 400e b23b b412 79bc 3d1d 82bc
00000380: 85a7 08bd 172b 3e3b c81f 6c3d efcf acbc
00000390: ce81 a3bc d5ae c8bc faa1 b1bc 0a3b b9bc
000003a0: 35d5 18bd bb78 4ebd b3db 23bb a9b3 e9bc
000003b0: 5a04 debc 6a63 23bd 34fe 693c 1e47 173d
000003c0: a1ac 41bd 57f0 193d 4d84 903c ceaf f9bc
000003d0: 8fb1 c7bc 35f4 c43a c4a3 20bd b3b3 083d
000003e0: 3bab 5a3d bfa7 25bd 9acd 193a a6b3 29bd
000003f0: 559a 1fbd e368 c5bc 0ab3 3ebd cb38 00bc

4.weight f4 [2, 256]
0.035705563 0.06189909 0.047531847 0.018563524 0.041557062 -0.0024228422 0.010752632 0.030166142
0.021653228 0.044114187 -0.022559702 -0.055049367 0.015054137 0.0437627 0.00703891 -0.048575785
-0.0064936383 0.04775764 0.019653166 0.013462268 0.0330858 0.018611588 0.001335956 0.06197227
0.03451244 0.033546403 0.045703687 -0.054969992 -0.047358766 0.06091945 -0.061626505 -0.017481394
-0.058326155 -0.05404397 0.05364131 -0.015346726 -0.051900446 -0.032360848 -0.05419989 0.057086933
-0.0285176 -0.016364967 -0.06356016 -0.012955699 0.03631003 0.068853155 -0.040124662 0.03984953
-0.07747785 -0.069671094 0.04361967 0.009779738 0.0072739013 -0.013425379 -0.048687216 -0.04623992
-0.012009548 0.040812995 0.036896426 -0.01642299 0.016944865 -0.007346902 -0.053653706 -0.009886511
0.012347244 -0.02250953 0.04337991 -0.028750805 -0.045768358 -0.0148619 0.03912771 -0.014496235
-0.042460583 0.040350292 -0.026759047 -0.051529065 0.018016286 -0.04194565 0.031284414 0.047726303
0.023257704 0.020131221 -0.008144735 0.027941775 0.029379565 -0.028823867 -0.043008227 -0.008347408
0.011027798 -0.04791929 -0.06359231 0.03275024 0.053300083 0.05122909 0.027083661 -0.03450026
-0.040465813 -0.033144373 0.012701727 -0.00019964612 -0.012683366 -0.028791172 -0.010970922 0.02121109
-0.02987563 0.001627488 0.054705385 -0.0542905 -0.02567911 0.039426662 -0.0011844683 -0.0030526898
0.028571537 -0.014143525 -0.04156395 0.06087894 0.027426047 -0.04324753 0.028580975 -0.027054852
0.050902154 0.018450852 -0.03643381 -0.011244106 -0.011064949 -0.028302057 -0.03793024 0.0092101
0.05895877 0.015262046 0.043886393 0.03701236 0.03597386 -0.016688257 -0.021232756 -0.008594498
0.044115134 0.04705105 -0.04083687 -0.023546044 0.033017356 0.04498473 0.044002485 0.0031695059
0.025144415 0.028087046 -0.052192226 -0.0385311 0.035448924 -0.029316936 -0.047364738 -0.005162853
-0.029717453 -0.016994186 0.010487059 -0.0026089437 0.0120911375 0.05481471 0.0034956904 -0.005071936
-0.039096564 -0.043593638 0.055343848 -0.03780146 -0.031277496 0.034067076 -0.014096526 -0.02762384
0.054389007 -0.04311838 0.040452607 -0.051681284 -0.036449734 0.025848566 0.01627604 -0.005753832
-0.05466435 0.05539104 -0.021635434 -0.057253323 -0.06750462 -0.020444123 0.03170205 -0.063638076
-0.07025631 0.034320395 -0.006679419 -0.009840383 -0.046947107 -0.01222238 -0.06073833 -0.030601062
-0.01516604 0.058142856 0.0143985525 0.00186893 0.0082500605 0.03237184 0.017405566 0.020598803
0.026892941 -0.04849683 -0.044958744 -0.013910706 0.059997126 0.054125186 0.062180284 -0.03134652
0.05632472 -0.020588713 0.0346743 0.022533698 0.005753284 0.0019444495 -0.030861214 0.004792446
0.042077713 0.00883127 -0.015620713 -0.030242054 -0.03191217 0.04341013 0.044659734 0.036907814
0.026773164 -0.043832902 0.059118394 0.050800197 0.014512677 -0.05614893 0.0430437 0.033602376
0.021175118 0.056722317 0.025245199 -0.03807838 -0.020296397 0.040731613 0.032764222 -0.009497436
-0.053639024 0.05134478 0.04684958 0.035059296 0.06955381 0.012655935 0.051250927 -0.01340525
-0.047348548 0.0012421496 0.011855344 -0.0018202387 0.066848084 0.01827083 0.0019034011 -0.015702847
00000000: ff3f 123d e689 7d3d c1b0 423d 8812 983c
00000010: bd37 2a3d 8cc8 1ebb cf2b 303c fc1e f73c
00000020: 1c62 b13c 14b1 343d 20cf b8bc 727b 61bd
00000030: a1a5 763c 8440 333d a8a6 e63b 67f7 46bd
00000040: 96c8 d4bb 849d 433d adff a03c d890 5c3c
00000050: fa84 073d 5477 983c 3f1b af3a a3d6 7d3d
00000060: eb5c 0d3d f467 093d ca33 3b3d 3728 61bd
00000070: 44fb 41bd ac86 793d 136c 7cbd 2435 8fbc
00000080: 68e7 6ebd 365d 5dbd feb6 5b3d d670 7bbc
00000090: 9095 54bd cf8c 04bd b400 5ebd fdd3 693d
000000a0: be9d e9bc d30f 86bc d42b 82bd 2444 54bc
000000b0: d3b9 143d e202 8d3d c259 24bd 4339 233d
000000c0: b5ac 9ebd b8af 8ebd 8aaa 323d 323b 203c
000000d0: e859 ee3b 1ff6 5bbc 3f6c 47bd 1266 3dbd
000000e0: b2c3 44bc 872b 273d b520 173d 8289 86bc
000000f0: f5cf 8a3c 48be f0bb fdc3 5bbd 08fb 21bc
00000100: 184c 4a3c e865 b8bc 22af 313d cf86 ebbc
00000110: 9a77 3bbd 547f 73bc 6144 203d 9e81 6dbc
00000120: 26eb 2dbd 5946 253d ca35 dbbc 2410 53bd
00000130: e496 933c 34cf 2bbd 1624 003d a87c 433d
00000140: f186 be3c 3bea a43c 7f71 05bc 26e6 e43c
00000150: 6aad f03c 0820 ecbc 6529 30bd 91c3 08bc
00000160: f0ad 343c 0447 44bd af3c 82bd 1e25 063d
00000170: 3051 5a3d 98d5 513d 8ede dd3c 2550 0dbd
00000180: 7bbf 25bd 65c2 07bd e81a 503c 1958 51b9
00000190: e5cd 4fbc 77db ebbc 62bf 33bc e1c2 ad3c
000001a0: bdbd f4bc 6f51 d53a c112 603d b75f 5ebd
000001b0: ff5c d2bc da7d 213d 2940 9bba a30f 48bb
000001c0: db0e ea3c 3eba 67bc f63e 2abd 325c 793d
000001d0: 97ac e03c 5224 31bd a622 ea3c 23a2 ddbc
000001e0: c77e 503d 3e26 973c 9e3b 15bd 3339 38bc
000001f0: c349 35bc b7d9 e7bc bd5c 1bbd f6e5 163c
00000200: c07e 713d a90d 7a3c 38c2 333d 469a 173d
00000210: 5459 133d d0b5 88bc 51f0 adbc f0cf 0cbc
00000220: 12b2 343d 9ab8 403d 9044 27bd a2e3 c0bc
00000230: 353d 073d e941 383d f33b 343d 7cb7 4f3b
00000240: a9fb cd3c ce16 e63c 84c7 55bd c9d2 1dbd
00000250: e432 113d 122a f0bc 8701 42bd 262d a9bb
00000260: 0472 f3bc 6437 8bbc ead1 2b3c d0fa 2abb
00000270: e819 463c 6485 603d f417 653b 7c32 a6bb
00000280: b823 20bd 3e8f 32bd 3bb0 623d b4d5 1abd
00000290: d51c 00bd eb89 0b3d 1ef5 66bc 644b e2bc
000002a0: 02c7 5e3d e69c 30bd a2b1 253d c1af 53bd
000002b0: 514c 15bd 5fc0 d33c 5455 853c a48a bcbb
000002c0: bae7 5fbd b7e1 623d cb3c b1bc 7682 6abd
000002d0: dd3f 8abd 6f7a a7bc 02da 013d ae54 82bd
000002e0: 8ae2 8fbd 8b93 0c3d 07df dabb 8f39 21bc
000002f0: 9c4b 40bd 6140 48bc c1c8 78bd 14af fabc
00000300: fb7a 78bc 3427 6e3d e8e7 6b3c e2f6 f43a
00000310: 432b 073c 5698 043d 1e96 8e3c d2be a83c
00000320: 964e dc3c 9da4 46bd a926 38bd bbe9 63bc
00000330: 8cbf 753d 5fb2 5d3d c1b0 7e3d 3565 00bd
00000340: c0b4 663d a9a9 a8bc a406 0e3d 9798 b83c
00000350: 0b86 bc3b e6dc fe3a a8d0 fcbc f309 9d3b
00000360: ae59 2c3d 08b1 103c 05ee 7fbc 2fbe f7bc
00000370: 56b6 02bd d2ce 313d 20ed 363d a62c 173d
00000380: 6553 db3c 218a 33bd 2126 723d de13 503d
00000390: 94c6 6d3c 6cfc 65bd 974e 303d a5a2 093d
000003a0: 7177 ad3c a955 683d 05cf ce3c 13f8 1bbd
000003b0: a144 a6bc 31d6 263d c733 063d 229b 1bbc
000003c0: 98b4 5bbd e74e 523d 58e5 3f3d 569a 0f3d
000003d0: 3a72 8e3d d75a 4f3c 7eec 513d b2a1 5bbc
000003e0: 8df0 41bd a0cf a23a eb3c 423c 1395 eeba
000003f0: a6e7 883d b5ac 953c 8b7b f93a 42a3 80bc

4.bias f4 [2]
0.03650593 0.0067164334
00000000: 3e87 153d 8715 dc3b

exp_avg f4 [256, 4]
0.0003753907 0.0002589538 -0.0004530804 -0.00034102253 -0.07417535 -0.015729351 0.008868825 0.0066494797
0.00049708836 0.00087825634 0.00017385949 -0.0005743128 0.0018537631 -0.00017095864 0.00084532954 0.0009144047
-0.07701607 -0.017303683 0.006535216 0.0061140326 0.085670255 0.016559679 -0.009194877 -0.0063099214
0.00042310724 0.00036814867 -0.00053997885 -0.0004615444 0.00052459416 0.0005565048 -0.00056531077 -0.000630497
-0.00042631442 -0.0002842465 0.00053609087 0.0003857187 3.1030166e-05 0.00063656975 -0.00079257984 -0.0008640221
0.028385842 0.004887082 -0.0063799666 -0.0035141471 -0.00013834976 -0.00018522896 4.455641e-05 0.0001474715
-0.0045725303 -0.00025686482 -0.0014328914 -0.0013203733 0.09206358 0.018523922 -0.008730935 -0.0064850794
-0.00045524957 -0.00022102361 0.00048859365 0.00030283653 0.00035270854 0.0006778584 -0.00076388434 -0.00081315555
0.00083599496 0.00041406954 -0.00030420607 -0.00030110724 6.627423e-06 -4.1617343e-05 6.2038365e-05 6.933101e-05
-0.0003392612 -2.9033756e-05 -5.940329e-06 -4.6353307e-05 0.007297395 0.0014632929 0.0013571857 0.0008422818
-0.0035158996 0.00021234827 -0.001066002 -0.0013618727 -0.006779808 -0.000980658 -0.00090764684 -0.0008566049
-0.0036346372 -0.0015086731 0.001956387 0.0017362694 -0.00017245504 0.00076870824 0.00044457108 -5.2380183e-05
-0.0006506616 -0.00011131286 -0.00037729827 -0.00023029809 0.00028739378 0.00068968965 4.110274e-05 -0.0005133386
-0.000536991 -0.00020136217 0.00048151807 0.00026595313 6.4677435e-05 0.00014064454 -0.0006093047 -0.00041017105
-0.003263402 -0.00063949893 5.606251e-05 4.8673282e-05 0.00051560166 0.00058868306 9.844383e-05 -0.00033740368
-0.00013201035 1.7035363e-06 -0.00042108115 -0.00022867948 -0.0012398347 -0.000487379 0.00038330333 0.00038209325
0.00034071165 0.00028291557 -0.0006000852 -0.0004526485 1.2632477e-05 7.9135236e-05 -0.00017920078 -0.00016418456
0.0030168062 -3.2972228e-05 0.00028781465 0.00075038965 -0.00039607534 -0.00044327442 0.00051193417 0.00052140525
0.0016058026 -0.00030073797 0.00019875928 0.0006615992 0.001600863 -0.00015923532 0.00021965461 0.0005555243
-0.00055462425 -0.00038967095 0.0006074121 0.0004820613 9.4397736e-05 4.6230576e-05 -0.00017580825 -9.7211414e-05
-0.0004281582 -0.00035622355 0.00055742596 0.00045547495 -0.0001911514 -0.00013947101 0.00032106927 0.00021989002
0.0011613389 0.0007162391 -0.00030248592 -0.0004778242 -0.00017283057 -0.00011277443 0.00016970649 0.00013512743
0.00031597153 0.00038444254 -0.0005273916 -0.00050153607 -0.00010396933 -6.2279214e-05 0.00012622225 8.799286e-05
0.0004995389 0.000310297 -0.00059738546 -0.00041266897 0.00023337353 0.0002609673 -0.0003065983 -0.00030186673
-0.00026049672 -4.5316978e-05 -0.00010074202 -6.489876e-05 0.0007926091 0.0009857352 0.00012994959 -0.0006212256
0.0002777082 0.00025514484 -0.00038478774 -0.00032315927 0.00025086402 4.8406167e-05 9.1695336e-05 5.7276855e-05
0.00065625535 0.00032179567 -0.00056738546 -0.00037970737 -0.0007497569 -0.0012823653 6.7055084e-06 0.000938625
0.011226803 0.004121201 -0.004844216 -0.0038677705 -0.00073944556 -0.00063791324 0.00016219776 0.00044573002
0.0035732253 0.00083067146 -0.00095067814 -0.00079034816 0.0008246821 0.00083036924 -0.0015491585 -0.0013122875
-1.1824242e-05 -0.0001520981 0.00027647687 0.00025816358 0.00016088116 -0.00043725374 -3.163943e-05 0.00038355833
0.00021113026 0.00056341814 -7.018449e-05 -0.00047183008 -0.0001818895 -7.494007e-05 0.00018724709 0.00010465514
0.051593453 0.010727452 -0.0058961664 -0.0044360748 0.0005633979 -0.00016586331 -0.00081935915 -0.00040673366
00000000: 16d0 c439 31c4 8739 6c8b edb9 45cb b2b9
00000010: 3fe9 97bd d7da 80bc 8c4e 113c e1e3 d93b
00000020: 094f 023a c93a 663a 0d4e 3639 7b8d 16ba
00000030: f8f9 f23a 5c43 33b9 1b99 5d3a a9b4 6f3a
00000040: 9aba 9dbd 74c0 8dbc 5d25 d63b 3958 c83b
00000050: e373 af3d 2aa8 873c 1ca6 16bc 75c3 cebb
00000060: 7ed4 dd39 1404 c139 5e8d 0dba 71fb f1b9
00000070: eb84 093a 68e2 113a 5d31 14ba f047 25ba
00000080: f482 dfb9 eb06 95b9 7388 0c3a 4a3a ca39
00000090: 6326 0238 79df 263a 22c5 4fba 8b7f 62ba
000000a0: 6d89 e83c d123 a03b 0a0f d1bb 9b4d 66bb
000000b0: fb11 11b9 053a 42b9 15e2 3a38 94a2 1a39
000000c0: 2ad5 95bb d0ab 86b9 dbcf bbba 6010 adba
000000d0: d58b bc3d 7bbf 973c 320c 0fbc ca80 d4bb
000000e0: 90ae eeb9 93c2 67b9 f714 003a 08c6 9e39
000000f0: bdeb b839 4fb2 313a 693f 48ba f229 55ba
00000100: ac26 5b3a 7917 d939 d97d 9fb9 eedd 9db9
00000110: 2161 de36 488e 2eb8 981a 8238 cd65 9138
00000120: dede b1b9 848d f3b7 0a53 c7b6 7c6b 42b8
00000130: fc1e ef3b f6cb bf3a 98e3 b13a 93cc 5c3a
00000140: 026b 66bb cea9 5e39 17b9 8bba dd80 b2ba
00000150: 2729 debb 6c89 80ba 26ef 6dba c88d 60ba
00000160: 1833 6ebb abbe c5ba ba36 003b 8993 e33a
00000170: 0cd5 34b9 2383 493a 5215 e939 cbb2 5bb8
00000180: 2991 2aba a370 e9b8 1ed0 c5b9 2c7c 71b9
00000190: 57ad 9639 4acc 343a bb65 2c38 9291 06ba
000001a0: dbc4 0cba bf24 53b9 4374 fc39 a06f 8b39
000001b0: 6fa3 8738 fb79 1339 bfb9 1fba 3a0c d7b9
000001c0: cdde 55bb 0ca4 27ba a924 6b38 8a26 4c38
000001d0: 7129 073a da51 1a3a a173 ce38 8ee5 b0b9
000001e0: 426c 0ab9 10a5 e435 8ec4 dcb9 aec9 6fb9
000001f0: f381 a2ba e786 ffb9 1af6 c839 b053 c839
00000200: 8ba1 b239 4954 9439 094f 1dba 7451 edb9
00000210: 13f0 5337 68f5 a538 d8e7 3bb9 f528 2cb9
00000220: 9cb5 453b a94b 0ab8 d4e5 9639 ccb5 443a
00000230: 55a8 cfb9 4967 e8b9 5233 063a eaae 083a
00000240: cb79 d23a 5eac 9db9 0a6a 5039 2c6f 2d3a
00000250: 0cd4 d13a 68f8 26b9 1653 6639 9ba0 113a
00000260: 3464 11ba c04c ccb9 bc3a 1f3a 2cbd fc39
00000270: 66f7 c538 b4e7 4138 2b59 38b9 fbdd cbb8
00000280: 6c7a e0b9 84c3 bab9 3920 123a d0cc ee39
00000290: d06f 48b9 f73e 12b9 3055 a839 4792 6639
000002a0: 1138 983a fec1 3b3a f996 9eb9 7a84 fab9
000002b0: da39 35b9 5081 ecb8 3df3 3139 feb0 0d39
000002c0: fba8 a539 018f c939 a740 0aba 8479 03ba
000002d0: 1c0a dab8 e69b 82b8 875a 0439 cf88 b838
000002e0: 7df3 023a 5caf a239 dc99 1cba 7e5b d8b9
000002f0: bbb5 7439 70d2 8839 edbe a0b9 de43 9eb9
00000300: 4793 88b9 bc12 3eb8 7645 d3b8 421a 88b8
00000310: 19c7 4f3a c933 813a 1443 0839 bfd9 22ba
00000320: 5d99 9139 f6c4 8539 56bd c9b9 b46d a9b9
00000330: 6686 8339 ba07 4b38 8f4c c038 8e3c 7038
00000340: 8d08 2c3a afb6 a839 98bc 14ba 7613 c7b9
00000350: 558b 44ba 0a15 a8ba e1ff e036 0f0e 763a
00000360: a0f0 373c 240b 873b 3bbc 9ebb 6c7a 7dbb
00000370: 5ad7 41ba a239 27ba a113 2a39 dfb0 e939
00000380: c62c 6a3b 6bc1 593a ee36 79ba 5e2f 4fba
00000390: 7b2f 583a 23ad 593a 220d cbba 1001 acba
000003a0: bc60 46b7 867c 1fb9 19f4 9039 215a 8739
000003b0: 35b2 2839 343f e5b9 94b4 04b8 5418 c939
000003c0: d962 5d39 5ab2 133a 0330 93b8 f65f f7b9
000003d0: 97b9 3eb9 2529 9db8 c257 4439 4d7a db38
000003e0: a853 533d 32c2 2f3c a134 c1bb 7e5c 91bb
000003f0: feb0 133a 98eb 2db9 43ca 56ba de3e d5b9

exp_avg_sq f4 [256, 4]
1.1852155e-05 1.3875609e-05 2.077521e-05 1.2698969e-05 0.0019427146 0.00011622746 6.31618e-05 2.2158461e-05
1.6440688e-05 4.7301987e-06 3.6649358e-06 1.4726263e-06 0.00014820835 1.320391e-05 1.738055e-05 5.03635e-06
0.0005654526 3.590842e-05 1.1132679e-05 3.862874e-06 0.002117869 0.00013233494 8.970084e-05 3.6978236e-05
1.782516e-05 1.9960711e-05 3.314287e-05 1.8150273e-05 2.2658276e-05 1.2403471e-05 3.19341e-05 8.669819e-06
1.4309289e-05 1.2793882e-05 2.5218173e-05 1.1250801e-05 9.5531715e-05 2.260338e-05 4.6663732e-05 1.3738603e-05
0.0015597144 8.718062e-05 9.2663824e-05 3.510546e-05 9.195477e-07 4.696294e-07 4.084454e-07 1.6372384e-07
0.0002233085 2.7812272e-05 1.1753548e-05 5.8263745e-06 0.0014651779 8.070204e-05 2.0111214e-05 1.388108e-05
1.0865274e-05 8.482593e-06 1.0267555e-05 7.0478573e-06 9.262855e-05 3.1708707e-05 4.7242513e-05 2.1757847e-05
1.104241e-05 2.155346e-06 1.1484108e-05 6.953068e-07 4.49792e-07 3.785066e-07 7.1069144e-07 3.5166477e-07
2.922573e-06 1.0726277e-06 1.1737748e-06 7.552049e-07 0.00015495336 1.31340585e-05 6.024237e-06 1.9074632e-06
0.00020305101 2.7529328e-05 1.2496651e-05 5.5618357e-06 0.00013185242 1.1288186e-05 5.84134e-06 2.6310609e-06
0.00042885725 3.6788595e-05 3.6196594e-05 1.0976061e-05 2.4004377e-05 1.6143939e-06 1.451828e-06 2.5618434e-07
3.4080196e-05 1.7311634e-06 4.1205517e-06 1.5518456e-06 1.462866e-05 3.0333676e-06 2.6597932e-06 6.897465e-07
1.1186916e-05 2.7698184e-06 1.8129216e-05 1.5078707e-06 3.4086977e-05 4.5782012e-06 1.0519826e-05 2.6822188e-06
3.7120477e-05 3.727064e-06 3.5120934e-06 2.7942751e-06 4.4276785e-06 1.4451738e-06 1.6344399e-06 4.2963703e-07
1.7196822e-05 1.7351271e-06 7.897434e-06 1.0657895e-06 1.0532242e-05 4.397166e-06 4.0458576e-06 2.4683338e-06
1.8038892e-05 9.1787e-06 2.4776846e-05 7.3036294e-06 7.3240394e-06 8.7344165e-07 1.7198454e-06 6.5066996e-07
0.00011040973 7.749107e-06 7.757868e-06 3.360032e-06 1.524723e-05 2.0851252e-05 2.5986628e-05 1.7741686e-05
6.554205e-05 5.7461302e-06 6.038252e-06 2.231817e-06 5.229465e-05 3.9519477e-06 4.4097164e-06 1.7457083e-06
2.354781e-05 1.2571872e-05 2.807718e-05 9.555047e-06 6.110904e-06 3.5517353e-06 3.448002e-06 2.8139566e-06
1.7309323e-05 9.726486e-06 2.6472264e-05 7.141935e-06 9.514912e-06 2.5829688e-06 6.3921207e-06 1.5082919e-06
2.2232953e-05 6.7295e-06 2.1420392e-05 4.8203606e-06 5.2941336e-06 4.3171153e-06 5.5396827e-06 3.8009498e-06
1.9010862e-05 8.575308e-06 1.960102e-05 5.905999e-06 4.4789253e-06 1.6317166e-06 1.5274026e-06 9.891768e-07
1.6096672e-05 1.4460346e-05 3.3421577e-05 1.3723854e-05 6.6667494e-06 6.722257e-06 1.1902466e-05 5.7314037e-06
6.3478815e-06 1.1333666e-06 2.1799592e-06 8.1535916e-07 1.2610936e-05 6.072229e-06 3.4633608e-06 2.208001e-06
1.2247443e-05 6.580465e-06 2.1210974e-05 5.4662773e-06 7.985151e-06 8.939405e-07 1.663285e-06 7.640891e-07
1.858182e-05 9.353546e-06 2.7997856e-05 7.769081e-06 4.7504273e-05 1.4918814e-05 1.2951435e-05 5.4489583e-06
0.00086894433 6.833893e-05 1.4594295e-05 1.6095586e-05 2.4352623e-05 1.2423821e-05 1.0709539e-05 9.01393e-06
3.283717e-05 3.307765e-06 7.295564e-07 3.992222e-07 0.00019533317 5.1990002e-05 7.765423e-05 3.4272303e-05
6.367033e-06 1.9539195e-06 3.6306449e-06 9.814323e-07 9.13448e-06 1.3001667e-06 1.060994e-06 3.118178e-07
1.0989259e-05 3.050584e-06 2.1053181e-06 8.958174e-07 4.260899e-06 4.5335046e-06 6.3048265e-06 4.2616543e-06
0.00040451915 2.5499923e-05 9.586309e-06 6.036933e-06 8.8533096e-05 6.7009505e-06 1.4183875e-05 3.825965e-06
00000000: 9ed8 4637 49cb 6837 6c46 ae37 a80d 5537
00000010: afa2 fe3a 24bf f338 bc75 8438 efe0 b937
00000020: 1cea 8937 19b8 9e36 1ef3 7536 0ea7 c535
00000030: 6068 1b39 5d86 5d37 72cc 9137 ebfd a836
00000040: e23a 143a 5f9c 1638 7ec6 3a37 d69d 8136
00000050: f2cb 0a3b 64c3 0a39 c61d bc38 1419 1b38
00000060: 3d87 9537 4d71 a737 e302 0b38 6a41 9837
00000070: 4712 be37 8118 5037 fbf0 0538 9774 1137
00000080: ee11 7037 4ea5 5637 9d8b d337 d3c1 3c37
00000090: 3358 c838 649c bd37 cdb8 4338 da7e 6637
000000a0: 556f cc3a bdd4 b638 8354 c238 333e 1338
000000b0: d6d6 7635 6021 fc34 4f48 db34 11cc 2f34
000000c0: eb27 6a39 664e e937 1b31 4537 2d80 c336
000000d0: 360b c03a 943e a938 81b4 a837 c9e2 6837
000000e0: ff49 3637 7650 0e37 d042 2c37 a27c ec36
000000f0: 9341 c238 f7fe 0438 4326 4638 9f84 b637
00000100: ca42 3937 90a4 1036 deab 4037 1fa5 3a35
00000110: f17a f134 8d35 cb34 58c6 3e35 70cc bc34
00000120: 6c21 4436 35f7 8f35 988a 9d35 49b9 4a35
00000130: fa7a 2239 5a5a 5c37 cd23 ca36 f801 0036
00000140: 17ea 5439 c8ee e637 b5a8 5137 ce9f ba36
00000150: dd41 0a39 6462 3d37 bb00 c436 4891 3036
00000160: 3fd8 e039 744d 1a38 ccd1 1738 d325 3837
00000170: 025d c937 27ae d835 6edc c235 b589 8934
00000180: 55f1 0e38 525a e835 4543 8a36 0249 d035
00000190: 9e6d 7537 dc90 4b36 e67e 3236 0527 3935
000001a0: 70af 3b37 1ee1 3936 3214 9837 0b62 ca35
000001b0: 9df8 0e38 739e 9936 4f7e 3037 2b00 3436
000001c0: cfb1 1b38 791e 7a36 4eb1 6b36 4885 3b36
000001d0: 7891 9436 cbf7 c135 ed5e db35 dda8 e634
000001e0: e541 9037 83e2 e835 397f 0437 400c 8f35
000001f0: a3b3 3037 5e8b 9336 a7c1 8736 a7a5 2536
00000200: 3a52 9737 37fe 1937 dfd7 cf37 b311 f536
00000210: 05c1 f536 7476 6a35 70d5 e635 b3a9 2e35
00000220: c68b e738 2902 0237 ca27 0237 e97c 6136
00000230: 5bce 7f37 b9e9 ae37 dcfd d937 fbd3 9437
00000240: 9f73 8938 e2ce c036 319c ca36 53c6 1536
00000250: f456 5b38 f99a 8436 2df7 9336 154e ea35
00000260: 8988 c537 c7eb 5237 4987 eb37 9d4e 2037
00000270: 440c cd36 595a 6e36 3964 6736 68d7 3c36
00000280: 7d33 9137 f02e 2337 c110 de37 c1a4 ef36
00000290: 3ca2 1f37 1157 2d36 e67b d636 8470 ca35
000002a0: e780 ba37 f7cd e136 f1af b337 95be a136
000002b0: 43a4 b136 bddb 9036 83e1 b936 d213 7f36
000002c0: 8479 9f37 abde 0f37 df6c a437 252c c636
000002d0: ad49 9636 5b01 db35 2701 cd35 dbc3 8435
000002e0: 5707 8737 b79a 7237 252e 0c38 813f 6637
000002f0: f1b2 df36 bf8f e136 b4b0 4737 6250 c036
00000300: e3ff d436 2e1e 9835 6a4b 1236 0edf 5a35
00000310: 8f93 5337 0dc0 cb36 166c 6836 2b2d 1436
00000320: 5e7a 4d37 c4cd dc36 38ee b137 f76a b736
00000330: f6f7 0537 20f7 6f35 0a3e df35 ce1b 4d35
00000340: 28e0 9b37 2ded 1c37 f0dc ea37 f357 0237
00000350: 533f 4738 d14b 7a37 fd49 5937 32d6 b636
00000360: dec9 633a 2f51 8f38 05da 7437 0205 8737
00000370: dc48 cc37 e86f 5037 1fad 3337 893a 1737
00000380: a5ba 0938 f8fa 5d36 bcd6 4335 ae54 d634
00000390: 59d2 4c39 d70f 5a38 4cda a238 9bbf 0f38
000003a0: 66a4 d536 1520 0336 01a6 7336 c2b9 8335
000003b0: 4b40 1937 6381 ae35 7a67 8e35 e967 a734
000003c0: 825e 3837 a2b8 4c36 1749 0d36 1a78 7035
000003d0: d8f8 8e36 821e 9836 0c8e d336 55ff 8e36
000003e0: a415 d439 abe8 d537 e2d4 2037 dc90 ca36
000003f0: d8aa b938 bad8 e036 47f7 6d37 ca60 8036
