distributed_shared/worker_logs/worker_1/models/model_episode_20.pt (torch, 816842 bytes, 16 tensors)

0.weight f4 [256, 4]
00000000: 8240 df3e 3e56 e0be 146b 203e 8f3e e93e
00000010: 0323 b9bd 756b 273e b983 bfbe e488 e03e
00000020: a875 cd3e 760c dd3e 53ea 813e 546e 693d
00000030: 2e4c b93e e230 d2be d978 043e 6dc3 ec3e
00000040: 87e0 95bc bfc3 ec3e bc1b b2bc dcb6 cdbe
00000050: d284 35be a5b0 213e 4e92 94bc fe1a 853e
00000060: c5f9 953e f0c7 943e 9aaf 80bc 9b67 b33e
00000070: 8485 9a3e d102 aa3e 9671 dd3e e611 85bc
00000080: a7f9 ccbe 4158 a23d b6bf 8dbe fecf 953e
00000090: 3de8 e73e b2d8 8fbe 283c 0b3e d8e7 0fbe
000000a0: 1c6e 6abe 42d6 583e dc9c 01bf 35a9 b0be
000000b0: 0ac3 4f3e aa4f 2c3e f073 c33e 6dfe 9bbe
000000c0: f079 cabe dbe7 653e 0d63 723e 7ac5 383c
000000d0: 1141 f7be cbec 9ebe 332a 6b3e 28ce 443e
000000e0: d4ba 29be 3b99 8cbe ca92 843c 9aad f4bd
000000f0: 4f58 ae3e 21c1 e83e f370 ed3d 8a21 a83c
00000100: 7c4d f6be f767 c13e 848d 14be da05 e5bc
00000110: 4467 613a 2fde 1e3e b835 e7bd 1b29 9f3e
00000120: 5905 2ebe 3614 00be b1a0 b0be 33ca 7b3d
00000130: fcfb 193e 89d7 453e 9288 d6be b6e7 0ebe
00000140: cff9 afbe 3aca d13e c6cf d6be cba0 c83e
00000150: de4d 803d fedd c73e e10c c8be c265 2d3e
00000160: 1541 773d 447e d03e 67e9 bbbd 5c7c f23e
00000170: 9ccb 173e 3d88 f1be 013a 21be aebe dc3e
00000180: 1be5 503d 632c 05be 937b 2dbe f84e e53e
00000190: 24a3 f93e 81ce 7dbc 6e51 7dbe 1558 7abe
000001a0: 04f6 983e 6659 6f3e 8a68 7bbd 95cf 3fbd
000001b0: b50d 7dbd 6b21 ffbd b6bc 933d 5484 273e
000001c0: ed5b ba3e a373 9bbe 4e59 b13e d7d4 e1be
000001d0: 312e 963d 895b 72be e124 f33d c353 e23e
000001e0: 7c21 b4be 1bf6 5cbe 8832 ecbc 2cd9 d6be
000001f0: 7b0f c83e d288 493c b1cd 89be 39af 71be
00000200: 76de a4be 9e4e d03e 2bd9 78be 6374 d13d
00000210: e465 97bd ab26 733e 3101 a03e efa2 5bbe
00000220: b4fb 6bbe 3fc2 4b3e 8807 00bf 9304 793c
00000230: e623 743e 9b3a 50be 2183 e7bd 1421 a6be
00000240: 1ef5 f3bd dd9b 8b3e 025c babd 4180 543e
00000250: c595 843c 2e1c f4be 7e02 f6bc 8512 e2be
00000260: a4db 433e 6143 c3be 9b5a b33e 69fc 3a3d
00000270: 2aaa e6be ed74 b33e 9f87 b2bd 9d0e 6fbe
00000280: fae0 02bf 2548 45bb 5ef1 db3e 72f8 bbbe
00000290: e73a ff3e 2922 27be 8338 913e a76e 8c3e
000002a0: 3f07 e8be e5b9 8bbe 2b1a 203e cf13 073e
000002b0: 0017 a1be e203 51be 3c8d 10bd b566 b73e
000002c0: 17a5 2fbe fd7b ba3e d329 45bd 5301 e43e
000002d0: eca6 e3ba d4cd 64bd 92ff b73e a527 19be
000002e0: 4095 433d 167d a23e 1fdc 8dbe f7f2 e23e
000002f0: 3027 41be d42b 38be 05ad 0d3e fe18 bc3e
00000300: 355a e3be 1a12 8d3e 3b3b de3e 2efe c9be
00000310: 5987 b13e 2512 7dbe 307b e2be c608 a2be
00000320: cc26 e83e a58a cb3e 77e7 e9be e410 f83e
00000330: ec00 933e cf0c cb3d 690f 203d eacb 403e
00000340: 97a2 99be 4b01 763e e1fc cb3e 5bce afbd
00000350: b204 1b3e 4952 a53e c9b4 d53e 74fa bb3d
00000360: ecbd cf3e dfef c73e 508a de3e 9fc9 0e3e
00000370: 7ac2 e43e fecc ac3e 4326 583e 1a19 97bd
00000380: 7376 80be 412c 15be 2a96 a93e 831d 413e
00000390: ef34 e0be 6850 94be 0874 603d eb11 dc3d
000003a0: a0d3 843c baa2 ee3e 856e 72bd ac44 423e
000003b0: 7e22 f7be bfb4 dd3e d634 8bbd 56c3 a03e
000003c0: 3f85 07be 6265 29be b048 b43e 1263 833c
000003d0: 8404 e13e f7cf a6be 22ff a43e c1d9 cebe
000003e0: ff30 bb3e 1f92 593e d0a4 4d3e 66ea f83e
000003f0: ac5e 76bd b396 8d3e 14f0 cd3d 215b ae3e
0.43603903 -0.43815798 0.15665847 0.4555554 -0.09039881 0.16349585 -0.37405184 0.4385444
0.40128827 0.4317357 0.25374088 0.056989983 0.36190933 -0.4105292 0.12936725 0.46242848
-0.01829554 0.46243092 -0.02174174 -0.40178573 -0.17726448 0.15790041 -0.01813617 0.25997156
0.29292122 0.2905879 -0.015708733 0.35039982 0.3017999 0.33205274 0.43250722 -0.016243886
-0.4003422 0.07926989 -0.27685326 0.29260248 0.4529437 -0.28095013 0.13597167 -0.14053285
-0.22893566 0.21175483 -0.50629973 -0.34504095 0.20289245 0.16827264 0.3817439 -0.3046755
-0.39546156 0.22451727 0.23670597 0.011277551 -0.4829183 -0.31040034 0.22965316 0.19219267
-0.16575176 -0.27460656 0.016183276 -0.11947174 0.3405175 0.45459846 0.11593809 0.020523805
-0.4810599 0.3777463 -0.14507109 -0.027956892 0.00085984566 0.15514444 -0.11289543 0.31086048
-0.16994227 -0.1250771 -0.34497598 0.06147213 0.1503753 0.19320501 -0.4190107 -0.13955578
-0.34370276 0.409746 -0.41955394 0.39185175 0.06264852 0.39036554 -0.39072326 0.16933349
0.0603648 0.40721333 -0.09175377 0.47360504 0.14823765 -0.47174254 -0.15744783 0.43114227
0.050999742 -0.13005213 -0.16941671 0.4478681 0.4875728 -0.015491129 -0.24738094 -0.24447663
0.29875195 0.23373947 -0.061378993 -0.046828825 -0.06178065 -0.12457546 0.07213728 0.16359073
0.3639826 -0.3036166 0.34638447 -0.44107696 0.07333029 -0.2366773 0.118722685 0.4420453
-0.35181797 -0.21578257 -0.028832689 -0.41962564 0.3907431 0.012300687 -0.26914743 -0.23601998
-0.32200974 0.4068498 -0.24301593 0.10227277 -0.07392481 0.2374522 0.3125091 -0.21448873
-0.23045236 0.19898318 -0.5001149 0.0151988445 0.23841819 -0.20334856 -0.11304308 -0.32447112
-0.11911987 0.27267352 -0.0909958 0.2075205 0.016184697 -0.4767775 -0.030030485 -0.44154754
0.19126755 -0.38137344 0.35030064 0.045650873 -0.450517 0.35050145 -0.08717274 -0.23345418
-0.51124537 -0.0030102816 0.42957586 -0.36712986 0.49849626 -0.16321625 0.28363428 0.2742817
-0.45318028 -0.27290264 0.15634982 0.1319115 -0.3146286 -0.20411637 -0.03529094 0.35820547
-0.1715282 0.3642272 -0.04813559 0.4453226 -0.0017368472 -0.055860355 0.35937172 -0.1495653
0.047749758 0.31736058 -0.27707002 0.44325992 -0.18862605 -0.17985469 0.13835533 0.36737818
-0.4440476 0.27552873 0.43404564 -0.39451736 0.34673575 -0.24713953 -0.4423461 -0.3164732
0.453421 0.39754215 -0.45684406 0.48450387 0.2871164 0.099145524 0.039077196 0.18827787
-0.3000686 0.2402393 0.3984137 -0.08584281 0.1513851 0.3228934 0.4173949 0.091786295
0.40574586 0.39050195 0.434649 0.139441 0.44679624 0.33750147 0.21108346 -0.073778346
-0.2509037 -0.14567663 0.3312238 0.18858914 -0.43790385 -0.28967595 0.054798156 0.10745605
0.016214192 0.46608526 -0.05918743 0.18971509 -0.48268503 0.4330196 -0.06797187 0.3139903
-0.13234423 -0.1654258 0.35211706 0.016038451 0.43948758 -0.3258054 0.322259 -0.40400508
0.3656082 0.21247147 0.20082402 0.48616332 -0.06014888 0.27654037 0.10055557 0.340539

0.bias f4 [256]
00000000: 9693 563e 63b1 c2be 019b cdbe 3ec3 c1be
00000010: 7350 073c 93ae b53d 0828 91bb 71d5 64bd
00000020: 50ec 403e ebae cabe c67a 4fbe 0e6e e93e
00000030: ea3d c3bd 6126 d6be 25bd 783e b642 003d
00000040: 691c b43d b3d7 d23e 4a75 d4be a58f 93be
00000050: aebd 003e 0287 263d df9b 48bd 4333 ae3e
00000060: d2e2 da3e e61c 593e 638b 943e 35f4 f43d
00000070: 783d 44be 0c17 cd3e c4f4 60be 067e e9be
00000080: 5785 ee3e 6707 c93c 9890 f0bd a8f9 ec3e
00000090: 44e0 a9be bb3b 06bd 3028 73be c2f0 dc3e
000000a0: 2d7a 693e e9c7 db3e ce27 96be 80ef f13d
000000b0: c45a 473e 1b9c e5be 9841 c7be e11d 4dbb
000000c0: 85a1 aabc 11f2 c6be 5678 0cbe 11a1 f8be
000000d0: 4d4d 533e 2bb4 cf3e 9e8a 2e3e a1d4 88be
000000e0: 90be 42be b071 d53d 767f 9b3e 3cb3 32be
000000f0: 651f bb3e 3025 173e 7d98 6abe eb91 de3e
00000100: ae86 bfbe fd2b a63d 225f 303e ccc5 48bd
00000110: dd14 e0be b84a debe bf6d 0c3d 5fdd ee3e
00000120: 4b6c 763d 7bb4 c9be 3854 83be a53e f9be
00000130: b05a a63e a681 8dbe 5729 a9bd 21e9 8bbe
00000140: 6119 9f3e 70d1 5e3e d014 bcbc a55b ee3e
00000150: d74b 563e 15c1 543e 8dce 1dbe 6498 f4be
00000160: 98e4 4fbe 5453 d8be cf79 00bd 41fb 203e
00000170: 38e0 113e e751 813e a25f c43e d4d3 ae3e
00000180: 9846 84be fa18 a9be 941d 5a3e e2da c83d
00000190: 0c8d 6bbe 46a9 1cbc 4567 b6be 9def c33d
000001a0: 9783 9bbc 858b 793e 5a3a 89be d872 cabe
000001b0: 2f74 923c 4791 da3e f0b8 4b3e 374a 31be
000001c0: 9d85 96be 57f9 19be ae40 85bd 341d dbbe
000001d0: 953c 87be 6b69 203e e71c 5f3e b29f b33e
000001e0: 910f a13e 9b4e 30be 11b1 703e 02b0 633e
000001f0: a639 39be bb33 fbbe 2703 713c ecc1 d93e
00000200: 7a03 ad3e 8a7d 633d 9857 a13e d2a5 46be
00000210: d309 cebd eb12 ef3e 23bd a2be 4c79 e83e
00000220: 8447 4dbe ed56 45be e3b4 743e 9e6b 29be
00000230: 8f8f bbbd 303a a93d abe5 e73e c491 df3e
00000240: 6f07 9bbe c73e 9b3c 6b4d 4b3e 565a f73d
00000250: 42af 1b3e 58b3 3d3e b988 dabe b145 7a3e
00000260: 08c1 4ebe f8ef 06be 0dd1 8f3e c39e f3be
00000270: 4ed7 afbe 06ae 64be 86df cfbe 1055 d03e
00000280: d36d 6f3e 3561 ecbe db00 d6bc f85c afbe
00000290: 4bf9 073e 4fea 48bc 5b5c 7e3e b8ab 873e
000002a0: 5919 e6be f141 1b3d 9571 fb3e 7b0d 623e
000002b0: 043c 9bbe b217 e63e 1991 c53e fbac b03d
000002c0: 722c 0cbe b0ed b13e 0244 b33e 6bbd cebd
000002d0: 0abd 713e 09c3 ff3d 78e6 c83e b967 b93e
000002e0: df56 3d3e 7e79 e53d 7345 5c3e 183b 573e
000002f0: 0105 eabe 7533 013e 4d93 ef3d bced d73d
00000300: 2a77 aebe 264b 84be 99a0 febe fdaf 4b3e
00000310: 497b 2d3e c3b9 4f3d 21ca 053d 65f8 1ebe
00000320: 5e06 883e 9558 853d 6a67 a1be f171 98be
00000330: b3d7 2bbd 3eb9 983d ab05 2fbe 34d5 5c3e
00000340: 5086 c8be 3c2d 5cbd dd97 25be 75b9 6d3d
00000350: 5e8b c9be ebb3 363e a25e fb3e a0fd a13e
00000360: de97 ef3e db98 5f3d 4141 863e 6cd3 333e
00000370: c9af eabe 6ad1 1dbe 2963 ff3d 9f74 f03e
00000380: da14 0c3e a83c df3e f215 bd3e 29ed 89be
00000390: 5a5e 6c3e b318 cb3b 4375 23be c7b5 78be
000003a0: 867d ebbe 3b03 f8be d198 ba3d 6e89 933e
000003b0: 924b ea3e 85d9 e23d 33b6 973e 3fa2 a83d
000003c0: 75be b6be 2b95 c7bd e066 dbbe 6ee6 883e
000003d0: 6e60 ee3e 072f 2cbe 5f6d 5abd a668 e6be
000003e0: cb14 abbd ac3b e53c c694 ca3e 38b4 933e
000003f0: baef a8bd 4037 053e 3deb cdbd 8798 33be
0.20954737 -0.3802596 -0.4015732 -0.3784427 0.008258927 0.08871188 -0.004429821 -0.055867616
0.18840146 -0.39586577 -0.20261678 0.45591778 -0.095332935 -0.41826156 0.24290903 0.03131362
0.08794481 0.4118019 -0.41495734 -0.2882053 0.12572357 0.040656097 -0.048976775 0.34023485
0.42751175 0.2120243 0.29012594 0.11960641 -0.19164073 0.40056646 -0.2196837 -0.4560396
0.46586105 0.024539663 -0.11746329 0.46284223 -0.33178914 -0.032771807 -0.23745799 0.43152434
0.22800513 0.42925957 -0.29327244 0.11813259 0.19468218 -0.44845662 -0.38917232 -0.0031298327
-0.020828972 -0.38856557 -0.1371778 -0.48560384 0.20634957 0.40567145 0.17045066 -0.26724723
-0.19018006 0.10422075 0.30370682 -0.17451185 0.3654739 0.1476028 -0.22909732 0.43470702
-0.3740744 0.08113859 0.1722379 -0.04901676 -0.43765917 -0.4341638 0.03428435 0.46653268
0.06016187 -0.39395508 -0.2565019 -0.48680606 0.32491064 -0.27637976 -0.08259838 -0.273263
0.3107405 0.21759582 -0.022959143 0.46554294 0.20927368 0.2077678 -0.15410824 -0.47772515
-0.20302045 -0.42251074 -0.031366166 0.15720846 0.14245689 0.252578 0.38354212 0.34145987
-0.2583511 -0.33026868 0.21300346 0.098073736 -0.23003024 -0.009561842 -0.35625663 0.09567187
-0.018983645 0.24369629 -0.2680233 -0.39540744 0.017877666 0.42688963 0.19894767 -0.17313467
-0.29398814 -0.15036522 -0.06506477 -0.42795718 -0.26413408 0.15665214 0.21788369 0.35082775
0.3145719 -0.17217486 0.23505045 0.2223511 -0.18088397 -0.49062905 0.014710224 0.42530763
0.33791715 0.055539645 0.3151214 -0.19399193 -0.100604676 0.4669412 -0.31784925 0.45405042
-0.20046812 -0.19271441 0.23897128 -0.16544959 -0.09158241 0.082630515 0.4529241 0.43665898
-0.3027911 0.018950833 0.19853751 0.12077777 0.15203574 0.18525445 -0.42682436 0.24440648
-0.20190823 -0.13177478 0.2808918 -0.47582063 -0.34343952 -0.2233201 -0.40600222 0.40689898
0.23381738 -0.46167913 -0.026123455 -0.34250617 0.13278691 -0.012262895 0.24839918 0.26498199
-0.44941214 0.037904684 0.49110094 0.22075455 -0.30319226 0.44939953 0.38587263 0.086267434
-0.1368883 0.34751654 0.35012823 -0.10094722 0.23607269 0.12488372 0.39238334 0.36211947
0.1849017 0.112048134 0.21510868 0.21018636 -0.45706943 0.12617286 0.11698017 0.10543391
-0.3407529 -0.25838584 -0.497319 0.19891353 0.16941561 0.050714266 0.03266347 -0.15524442
0.26567358 0.06511036 -0.3152421 -0.2977443 -0.041953754 0.07457207 -0.17092006 0.21565706
-0.39164972 -0.053754076 -0.16171212 0.058038194 -0.3936414 0.17842071 0.49095637 0.31638813
0.46795553 0.054589134 0.2622166 0.1756112 -0.45837238 -0.15411916 0.12470085 0.46963975
0.13679829 0.43600965 0.36930805 -0.2693875 0.23082867 0.0061980127 -0.159627 -0.24288093
-0.45994204 -0.48439965 0.09111179 0.28815788 0.4576078 0.11076645 0.29631194 0.08234071
-0.35692182 -0.097452484 -0.42851925 0.26738304 0.46557945 -0.16814815 -0.05332696 -0.45001715
-0.08353575 0.027982555 0.3956663 0.28848433 -0.08248849 0.13009357 -0.10054634 -0.17538653

2.weight f4 [256, 256]
00000000: 32cb 0dbd fd05 91bc 83fb 683d c879 4fbd
00000010: f5c5 afbc e366 653d c0b2 3fbc 170a 18bd
00000020: 7d6d 3f3b 0230 69bc c937 b5bc 91f0 50bd
00000030: 6abb 5cbd ac2d 823c 699c 56bd 96c6 4a3d
00000040: e69b 16bc ac24 e13c a1c4 2e3d 7c39 5c3d
00000050: 0129 153d ad36 b4bc 7ea8 393d d1fd 1e3d
00000060: 084f 6bbd 2cbb 7bbc 61ef a13b 2407 3e3d
00000070: aa73 44bd 1a98 203d 580a 62bc 1b76 96bc
00000080: e447 01bc 5b1e 6bbd 8347 c73a e776 7b3c
00000090: c9a8 24bd 400c 0bbd 2565 21bd 0519 0a3d
000000a0: a46e 90bb e5f8 123d 101c 26bc 70d1 d03b
000000b0: 3580 e03c 706e 6dbd bc40 d63b 28d8 b73c
000000c0: 1822 0fbc dd11 abbc 748b 0c3c ee69 17bd
000000d0: a5f0 ce3c e2c9 923b 9fa6 6abd 1ff1 4abd
000000e0: bec7 ffbc a839 c7bc 61de cdbc 60a1 e3bc
000000f0: 4462 73bd 6db7 e63c 575a 423c a8d2 5ebd
00000100: b3b2 1bbd 143c 113d bf73 dcbc 0a75 63bd
00000110: c23f 233d 9888 633d d13a a53c 22ab 323c
00000120: ec08 79bd a233 a93c 277f b43c 6142 bd3c
00000130: a866 683d 1d56 2bbc 491e 96bc 8f63 74bc
00000140: 2c00 3e3d d2f5 dd3c efbe 47bd e78f 8dbc
00000150: c160 573c 1427 0a3d 56e6 363c 4d44 8cbc
00000160: 45a3 5f3b b88a 5dba 00f7 b43c 7507 47bc
00000170: 8335 f33c 0d3a 36bd 8a39 0a3d a048 73bd
00000180: 1f8f 7e3d dfe5 efbc 96d2 b3bc 4f63 443b
00000190: 2d7f 8b3b 72c0 14bd 6388 fcbc 05eb 5b3d
000001a0: 90c8 503d fcb9 0b3c 76b3 663d 20a2 453d
000001b0: 632e 0cbd 89c2 87bd 5672 98bb 9bfe a73c
000001c0: 4e35 bc3c e11f 85bc 9fc0 d9bc df1d 783c
000001d0: d3e5 ef3c 48d7 093d 5fd6 17bc 0910 66bd
000001e0: cf52 55bd 1d29 89bd 9dc4 8ebc 2121 6a3d
000001f0: 1f22 28bc d472 e4bc 7e26 673d 1d04 c23b
00000200: eeb6 55bc 2321 973c db08 56bc e3e7 723c
00000210: 0f64 ef3c fb96 0dbd 92c9 6fbd d7e9 173d
00000220: b3d7 473d 185a 293d 076e 593d 3a0c 5bbb
00000230: ab63 0f3d 6b52 213a bd05 b8bc 2387 17ba
00000240: fd85 85bb 6f72 ca3c fcb5 23bd d762 24bb
00000250: fbc0 6d3d 9041 af3b e9d9 44bd 352b 05bd
00000260: edeb 553d b423 f8bc e70d 1cbd 0304 7cbc
00000270: 8816 c0bc 105e 26bd 0e41 383d 5149 163d
00000280: 53d7 56bd b692 063d b761 32bd 6185 093d
00000290: 18fa c63c 3b80 4e3d b59f 11bb 6f2f 39bd
000002a0: 8389 a23a de6f 1e3b a3af a0ba 8d2d 233d
000002b0: b546 7f3d e93a 6dbc 65af 0bbd 671b 013d
000002c0: c4ab f13c 2459 8cbc 5df7 583d db4e cf3a
000002d0: 1bca 683d 344d 983c de25 73bb 653b 433d
000002e0: 845e 2d3d 9dc6 30bc e2cf 1b3c b222 b13c
000002f0: 1277 83bd d6ff c9bc d254 babc d9cd a8bc
00000300: 8a3f 803d dbca 1a3d bbd2 07bd cd43 273d
00000310: 1b6e 3dbd 38b2 793d 749c edbb 46ab b7bb
00000320: ac62 f2bc 1d15 49bd d501 5c39 fc7b 143d
00000330: 87e9 06bd 7d87 723d 6245 46bd 6140 86bd
00000340: f030 b3bc d650 293d 43be 1a3d 7307 6bbc
00000350: 2c9e 16bd 07e0 59bd 61d8 e7bc b3f2 6abd
00000360: f89d abbc 45c6 72bd 2f89 6a3d 138a 8ebc
00000370: ccf1 c237 ef73 03bd ec01 cb3c 3a36 14bd
00000380: c291 e8bc f15e 843c ab96 043d c8a2 a33c
00000390: 9f91 c93c 6ee3 92bc 245c fcbc c9bd 36bd
000003a0: 0e3a 583d 86bd 8bbc 6c97 f43b 1679 483d
000003b0: 289f cbbc 905c 2f3d 19bd 83bc 7f2f f23c
000003c0: 1520 c73b 30a1 763d c2ad a2ba 5c6e 7ebd
000003d0: 97e0 3ebd 287b 313d bd66 6d3d 0c5a 5e3d
000003e0: 5ddc 8f3c 69fd 0a3d 0a92 343d 7312 25bd
000003f0: 07f0 b13c f2f3 90ba 1907 e2bc d7c7 f5bc
-0.03461761 -0.01770305 0.056880485 -0.05065325 -0.021456698 0.056006324 -0.011700332 -0.037118997
0.0029209547 -0.014232637 -0.022121327 -0.051010672 -0.05388967 0.015890919 -0.052395258 0.049505793
-0.0091924425 0.027483307 0.04266799 0.05376576 0.036416057 -0.021998728 0.045326702 0.038816277
-0.057448417 -0.0153644495 0.0049418663 0.04639353 -0.04796187 0.039207555 -0.013796411 -0.018366864
-0.007890675 -0.057401996 0.0015203807 0.015348173 -0.04020003 -0.03394723 -0.0394031 0.033715267
-0.0044077206 0.035881896 -0.010138527 0.006372623 0.027404884 -0.05796665 0.0065384787 0.022441939
-0.008736156 -0.020882541 0.00857817 -0.036966257 0.025261233 0.0044796327 -0.05728781 -0.049546357
-0.031223174 -0.024319485 -0.025130453 -0.02778691 -0.059419885 0.028163636 0.011862359 -0.054400116
-0.038012218 0.035457686 -0.02691066 -0.05553154 0.039855726 0.055550188 0.020169647 0.010905059
-0.060799524 0.020654503 0.022033287 0.023102941 0.056738526 -0.010457543 -0.018324988 -0.014916315
0.046386883 0.027094755 -0.048766073 -0.017280532 0.0131456265 0.033728674 0.011163315 -0.017122412
0.0034124416 -0.00084511517 0.022090435 -0.012147774 0.029688602 -0.044488955 0.03374628 -0.059395432
0.06214821 -0.029284416 -0.021951001 0.002996642 0.004257104 -0.036316343 -0.030826753 0.05369093
0.05097252 0.008528229 0.05632349 0.048250318 -0.034223925 -0.066289015 -0.004652302 0.020507148
0.022974636 -0.016250553 -0.026581107 0.015143841 0.029284393 0.033652574 -0.009267419 -0.056167636
-0.052080926 -0.06697295 -0.017427737 0.0571605 -0.010262041 -0.027886786 0.056433193 0.0059209005
-0.013044102 0.018448418 -0.013063635 0.014825794 0.029222516 -0.034567814 -0.05854184 0.03708824
0.04878969 0.041345686 0.053083446 -0.0033424036 0.03500716 0.0006153944 -0.022463674 -0.000578033
-0.0040748105 0.02471277 -0.039968476 -0.0025083327 0.05804537 0.005348392 -0.048059378 -0.03251191
0.05222695 -0.030290462 -0.038099196 -0.015381816 -0.023448244 -0.04061705 0.044983916 0.036691014
-0.052451443 0.03285476 -0.04355022 0.033574466 0.024289176 0.05041526 -0.0022220437 -0.04521125
0.0012400601 0.0024175565 -0.0012259375 0.039838362 0.06232329 -0.014479377 -0.034102816 0.031520274
0.02950085 -0.01713235 0.05297028 0.0015816347 0.056833368 0.0185915 -0.0037101428 0.047664065
0.042326465 -0.010789541 0.009510012 0.02162299 -0.06419195 -0.024658125 -0.022745524 -0.020605968
0.06262119 0.037791114 -0.033159953 0.040836144 -0.046247583 0.06096098 -0.0072513167 -0.005605134
-0.029588066 -0.0490924 0.00020981517 0.036251053 -0.032937553 0.059211243 -0.048406012 -0.06555248
-0.021873921 0.041336857 0.037779104 -0.014345038 -0.03677194 -0.053192165 -0.02830142 -0.057360362
-0.020949349 -0.059271116 0.057259735 -0.017399823 2.3239198e-05 -0.032092985 0.02478119 -0.036184527
-0.028389815 0.016158553 0.03237025 0.019975081 0.02460557 -0.017930713 -0.030805655 -0.044614587
0.05278974 -0.017058145 0.00746434 0.0489436 -0.024856165 0.042812884 -0.01608138 0.029563664
0.0060768225 0.060212314 -0.0012411403 -0.062116966 -0.046600904 0.04333034 0.057959307 0.054285094
0.017561132 0.033933077 0.044084586 -0.040300798 0.0217209 -0.001105903 -0.027591275 -0.030002518

2.bias f4 [256]
00000000: 816a 04bd 09dc 033d 0022 8abc b1b0 0f3b
00000010: 3bc3 d53b 6f8c 693c 8263 60bd 8867 1e3d
00000020: db4a 3c3c ff2f 55bd 652f bd3c fcd2 9ebc
00000030: 7c19 82bc f482 833d bda7 df3c ccc3 053d
00000040: 772f 1bbd 489d 8cbb 659f 1c3b 2279 58bd
00000050: 130a 513d 8650 663d fa64 183d 935c 083d
00000060: 598e 033d 4885 b33a d47f 713d 059a 3dbd
00000070: 7b14 22bd c746 f63c 34a3 9fbc 15a6 3fbd
00000080: 92ee dd3c 7963 613b 1440 8dbb eb9d 13bd
00000090: f763 51bd a7c5 1e3d 5d9e 79bd 8f58 3fbd
000000a0: 4316 12bd 62c6 b0bc 97c9 bbbc c1b5 aebc
000000b0: daa8 223d efad d13c cb5d 2f3d 4a9f 753d
000000c0: 1f78 2cbd 8fe9 04bd 8255 e5bc cf85 753d
000000d0: 5585 993c 57df 453d df77 babb a8e7 9ebc
000000e0: ca36 82bb 5db9 533d fb65 acbb 30dc 06bc
000000f0: 7d30 66bd 645e 123c fc21 bf3c aa72 52bd
00000100: f250 383c 7c77 f9bb c9be 113c 9edd 9f3b
00000110: edcc 38bd e710 32bd f97e 27bd 4693 5abd
00000120: c1ed ee3c 746f 55bd bb46 52bd aa53 c2bc
00000130: 9eda 01bd 91d3 733c d515 4a3d 411e 053d
00000140: 1c81 b1bc da5d 6fbd 0d09 de3c 1cb1 afbc
00000150: f303 d9bb 6ff8 623d 85c0 733d 61a4 923c
00000160: 7379 383c 11e5 43bd cd17 273c dd78 bebc
00000170: f6f4 5fbd 8566 45bc 7e79 6abb c9b0 59bd
00000180: aa87 223d 7991 673d 6245 d6bc 8ce1 f53c
00000190: 67d8 5d3d baec 243d 8f8b 32bd b565 a5bc
000001a0: 9573 3f3d ab8c 24bd 9e72 3ebd 66fa 3f3d
000001b0: 5ddd 393d cbd0 2abc 584b 77bd 53b8 b83c
000001c0: c160 47bc 6385 213d 7313 24bd 6ad5 17bc
000001d0: b720 4cbd 87ca f93c d4bd 533d 0241 5abc
000001e0: 2810 60bd d7b1 bcbc 2783 86bd 8064 013c
000001f0: e955 babb 9bcc 01bd c798 553d 42bd 4bbc
00000200: 8438 c53c ee3e 1c3d 7e8d 84bc 895d 163d
00000210: 60fa 84bc ee6f 25bb 7497 37bb 56f4 0fbd
00000220: 6e3d 68bc d39b 3bbd 1420 823c 9012 23bd
00000230: 247c 8bba b1cb 843b c5ef 573d 9470 1d3d
00000240: c6e6 5e3d ebd1 1ebd f321 37bd 865e 2abd
00000250: e622 03bd 7b69 c63c 288a d5bb cca0 9b3c
00000260: b665 9abc 5a1a 18bd b841 d7bc c54a 483d
00000270: 9d09 873c ed1a 58bd 7eb0 f63c 8c3f 5abd
00000280: c515 ffbc 7b8f 4b3c d450 293d 90fd 243d
00000290: 56d1 e1bc 7eb8 73bd 65c2 9f3c 64be 26bd
000002a0: 5502 07bc 4606 0a3d ab4b f3bc 0927 813c
000002b0: 238e bc3c 4e25 81bd 641a 20bd b330 5ebc
000002c0: 01ec 4fbd 14b0 b9bc 2a74 debc 93b8 7e3c
000002d0: d99a 893b f206 48bd 5a9f be3c cb75 593d
000002e0: 3d5b 733c 3bcc 1a3d af02 7f3d ea7b 18bd
000002f0: 1407 55bc 5b92 763d 2606 00bd e585 693d
00000300: 192c 40bd a015 a83b 26a8 4a3d 83c0 103d
00000310: c3b3 3ebd 5e4e 11bd 447a 01bd f8f1 a5bb
00000320: 18e0 01bc 86b2 1e3d 2e9e 193d 3f8f 48bd
00000330: dbb4 dfbb 023b 603d fe10 40bd 53c4 103b
00000340: 39e8 4fbd 9be4 4fbb 486c c63c bad0 cd3c
00000350: f06f ecbc 6015 34bc 1292 10bd d409 e3bc
00000360: 27b9 3dbd 938b a83c d327 40bd b569 543d
00000370: 9344 80bc 4996 3cbd cd37 b63c bc86 40bd
00000380: 4ba1 323c fd2c 23bd ea8c f2bb f021 a8bb
00000390: 3542 7e3d 08ad 513d 2ac9 853c e7e2 533d
000003a0: 718b 3e3c 3add a83c d53e 4fbb 8db1 0b3c
000003b0: 530b cb3c 6a71 74bd 5295 063d 3ea2 d0bc
000003c0: ddd1 813b 4b19 36bd 975c cdbc 3174 67bd
000003d0: 2147 6dbd e44f 01bd 4d1a 52bd 1963 123c
000003e0: 5e64 1fbd 4086 b63c bdee 473d 9185 0abc
000003f0: 504c 37bd 87e3 28bc 5a44 12bd 14aa 393d
-0.032328133 0.032192264 -0.016861916 0.0021925385 0.0065235174 0.014254673 -0.054782398 0.038672954
0.011492456 -0.052047726 0.023093889 -0.019387715 -0.015881293 0.06421462 0.027301664 0.03265743
-0.037887063 -0.0042912103 0.0023898717 -0.052849896 0.051035 0.056229137 0.037205674 0.03329141
0.032118175 0.0013696337 0.058959797 -0.046289463 -0.039570313 0.030063046 -0.019487001 -0.046789248
0.027091298 0.0034391566 -0.004310617 -0.036039274 -0.051120725 0.038762715 -0.060942043 -0.046715315
-0.03566576 -0.021578971 -0.022923274 -0.021326901 0.03971181 0.025595633 0.042814057 0.059966363
-0.042106744 -0.0324493 -0.027994875 0.059942063 0.018740335 0.048308697 -0.0056905593 -0.019397572
-0.0039738165 0.051690448 -0.0052611805 -0.008231208 -0.056198586 0.008933637 0.023331635 -0.051378883
0.011249768 -0.0076131206 0.008895584 0.0048787137 -0.045117307 -0.04347315 -0.040892575 -0.053363107
0.029166104 -0.052108243 -0.051336985 -0.023721535 -0.03170263 0.014881984 0.049337227 0.032499555
-0.02166801 -0.058439113 0.027103925 -0.021446757 -0.0066227852 0.055412706 0.059509773 0.017900648
0.0112594245 -0.047825877 0.010198546 -0.023250991 -0.054676972 -0.012048368 -0.0035777981 -0.05314711
0.03968016 0.056535218 -0.026156131 0.030014776 0.054161455 0.040264823 -0.043590125 -0.0201901
0.046741087 -0.040173214 -0.046496026 0.046869658 0.045377124 -0.010425757 -0.060374588 0.02254883
-0.012169064 0.039433848 -0.04005761 -0.0092671905 -0.049835887 0.03049208 0.051694706 -0.013321163
-0.054702908 -0.02303402 -0.06567984 0.007897496 -0.005686511 -0.031689268 0.052147653 -0.012435259
0.0240748 0.038145952 -0.01618075 0.036710296 -0.01623267 -0.0025243717 -0.0028013857 -0.035145126
-0.014174802 -0.045802902 0.015884437 -0.039812624 -0.0010641855 0.004052602 0.052718896 0.03843744
0.0544193 -0.038774412 -0.04471011 -0.04159405 -0.032015704 0.024220219 -0.0065167136 0.018997572
-0.018847328 -0.037134506 -0.026276454 0.04889943 0.016484076 -0.052760053 0.030113455 -0.05328326
-0.03113831 0.012424345 0.04133685 0.04028088 -0.02756564 -0.059502117 0.019501874 -0.040708914
-0.008240302 0.03369739 -0.029699167 0.015765684 0.023016995 -0.063059434 -0.039087668 -0.0135614155
-0.05076218 -0.022666968 -0.027155 0.015546936 0.0041993675 -0.04883475 0.023269344 0.05309085
0.014853296 0.037792426 0.06225842 -0.03722755 -0.013002176 0.06019817 -0.031255864 0.057012457
-0.046917055 0.005129531 0.049476765 0.035339843 -0.046558153 -0.035475127 -0.031610742 -0.0050642453
-0.007926963 0.038744472 0.037504368 -0.048964735 -0.0068269796 0.054743774 -0.046891205 0.0022089675
-0.050758574 -0.0031721953 0.024221554 0.025123943 -0.02886197 -0.010991424 -0.035295554 -0.027714647
-0.046319153 0.020574367 -0.04691298 0.051858623 -0.015657699 -0.04604176 0.022243405 -0.047003493
0.010902713 -0.039837826 -0.007402052 -0.005130999 0.06207486 0.051190406 0.016331274 0.051730063
0.011629925 0.020613302 -0.0031623144 0.008526218 0.024785673 -0.059678473 0.032857247 -0.025467988
0.003961785 -0.044457715 -0.025068564 -0.056507293 -0.057929162 -0.03157033 -0.051294614 0.00893476
-0.038914077 0.022280812 0.048811663 -0.008454696 -0.04475051 -0.010308153 -0.035709716 0.045328215

4.weight f4 [2, 256]
00000000: f02a a7bc 5ffe 72bc 5cbf 90bc cb3b 43bc
00000010: d176 863d 7b27 bb3c 94b5 6c3d 6335 a4bc
00000020: 1010 8d3c a7ce 6dbc 30e1 ef3c 2b8e 823c
00000030: 4264 82bc 8b31 87bd e1fc 7e3c 89f5 2abd
00000040: e2e1 df3c 904e c03b 590e 473d de28 0abd
00000050: 8808 583d 79d5 debc 91fd d33b 1e79 4c3d
00000060: e91a a23c b1da c43c b96a c0bc 8147 1ebd
00000070: d42c 203d 14a8 7ebc e1db 3fbd c594 1bbd
00000080: e4e3 9c3c cac8 25bd 1b83 fd3c 8a7e 673d
00000090: 5ee4 a23a e82b 5a3c 9537 773d d74b 463d
000000a0: db09 2a3b ffb2 843c c643 ae3c 75c7 2cbc
000000b0: 26a8 11bd 4d3e 1ebc afdd 973c e9b8 2fbd
000000c0: 4fa8 1b3d f1e6 433d b968 22bc 8221 643d
000000d0: 315e 5e3d 9e9f 93bc 23bb 2ebc 9c7b 9fbc
000000e0: 02a9 313d 9574 66bb 7f6b 61bc 3cd7 133d
000000f0: fcca d9bc 86d6 7ebc 4bfc 663d cbd4 7b3c
00000100: c142 15bd 6e72 27bd 5854 8cbb 64b9 913c
00000110: 8b07 57bd 2b21 1a3c a514 303d 5b77 383d
00000120: 5c3f 853c 7629 c13b 85f1 5d3c b537 8c3c
00000130: bdad 503d 1261 6ebc e19d 2a3c 31c7 56bd
00000140: 9c45 5abd 7682 e7bb 85d9 4fbd 7427 693d
00000150: b7af e13c 354e ffbc 9441 9bbc 7899 263c
00000160: 5fb8 e9bc f0c4 2fbc 03c3 f2bc 51b0 3cbd
00000170: 1739 263d 02ea 46bc 5909 1ebc fb49 47bd
00000180: 8e24 c9bc edc9 4e3d 6a9e 803d cd80 8cbc
00000190: 84ff 27bd 962c fa3c ae71 50bd c8bf 8f3c
000001a0: fe3e 86bd 3d45 5bbd 8327 123a d388 e03c
000001b0: fa1b 103d 87fb 183d e4b0 97bc 1dd6 2abd
000001c0: 0447 1f3d 96b2 f43b e43f 1abd 5f34 4a3c
000001d0: 261f 13bd 6fbf 573d 910d 453d 4666 7d3d
000001e0: 231f 52bd 1bd1 2cbd 851e 753c 5199 16bd
000001f0: 30a4 4b3d d0a4 56bd b04d 37bd d8a2 4f3d
00000200: 7f5d 98bb e900 7d3c d1be 553d c5c2 71bc
00000210: 78bd 2a3c 5cd3 8dba d52e 3bbc 417b 013b
00000220: 7289 43bd e588 6dbd 7e4c 063d bede a93c
00000230: 127c c839 627d 83bb 5e2c 93ba 9812 9f3c
00000240: 01c9 bb3c e043 053d 28c5 25bd 6818 ef3c
00000250: c3c7 eb3c 8c23 fd3c b690 043d 46a3 7b3c
00000260: 2bea b3bb cc65 28bd 7f89 45bb 966f 56bd
00000270: 9e3b 63bd 0f85 583d 242f 4dbd ae28 f1bb
00000280: c89e 5abc 0968 da3b 85e1 acbc 6de5 9fbc
00000290: 40b9 fd3c f922 4b3b b6d9 08bb e776 203d
000002a0: 6a73 61bd 78e5 0a3d 9f5a 3c3c c68d 183d
000002b0: dab5 23bd 28da 773d e61a 24bd aa13 6abc
000002c0: 3f5e 323d 59b1 11bd 437a 12bd 6543 0a3d
000002d0: 445a 0a3c 43d5 253d 55d2 12bd 6a2e b63c
000002e0: 10dd 54bd 5e94 0a3c c922 82bd ddb2 463d
000002f0: 0879 06bd c9d9 30bc cafd d4bb 02b7 2b3d
00000300: e7ca 79bd e994 563d a9bc 243d 0f09 633d
00000310: 9438 6dbc 9411 00bd 63ae c73c f328 6abd
00000320: cfc7 d8bc 6628 7cbd 8752 8a3c 4ffa 8a3c
00000330: 07f1 6c3d ebfa 633c 2755 0bbc e14f 3ebd
00000340: 1050 7bbd ae79 3b3d e357 c0bb a22b 603d
00000350: 9a11 ab3c 0dbb 13bd 3464 89bc 82fe c73c
00000360: bd31 80bd b7ca 563d eed5 733d d4c9 e4ba
00000370: 4130 73bd 09d0 24bd 83d3 61bd b8ab 6bbd
00000380: 4c3f 1ebc 320d 243d b96b 76bc a3f9 223d
00000390: e954 8bbc 77c5 3c3d 5480 05bd 92bb 5dbd
000003a0: a047 5fbd f48c 57bb 3987 443d 0016 cabb
000003b0: 62cf 933c 2212 2a3d b065 94bc 89b0 2d3d
000003c0: 9001 e33c 17ca 83bd d4c9 ac3c 326c 0e3c
000003d0: f848 083d 78fc ce3c acbe ecbc b283 2abc
000003e0: bb62 1c3d 7b27 fb3c 92a0 633d 1539 5c3c
000003f0: 721c 023c 5ac2 6bbd 73dc 823d 63b3 e3bc
-0.020406216 -0.014831155 -0.017669372 -0.011916111 0.06565631 0.022845974 0.057790354 -0.020044988
0.017219573 -0.014514602 0.029282182 0.015936932 -0.015916947 -0.066012464 0.015563221 -0.041738067
0.027329389 0.0058687404 0.048597667 -0.03373038 0.05274251 -0.027201401 0.0064694365 0.049920194
0.019788222 0.024030061 -0.02348839 -0.03864241 0.03910525 -0.015543003 -0.046840552 -0.037983675
0.019151635 -0.04047469 0.030946305 0.05651716 0.0012427678 0.013316132 0.06035574 0.04841217
0.0025945816 0.016198633 0.021272551 -0.010545601 -0.03556075 -0.009658408 0.018538324 -0.042900953
0.03800231 0.047827665 -0.009912663 0.055696018 0.054289047 -0.018020447 -0.010664734 -0.019468121
0.04337407 -0.0035164703 -0.013758539 0.036093935 -0.026586048 -0.015554076 0.05639295 0.015370558
-0.036440615 -0.040880613 -0.0042825155 0.017788596 -0.052497428 0.009407322 0.04298844 0.0450357
0.016265564 0.005894835 0.013546352 0.017116407 0.05094694 -0.014549511 0.010413618 -0.052436057
-0.05328904 -0.0070651127 -0.050744552 0.05692239 0.027549608 -0.031165222 -0.018952169 0.010168426
-0.028530298 -0.010728106 -0.029634004 -0.046066586 0.04058179 -0.012140753 -0.009645783 -0.048654538
-0.024553563 0.05048554 0.06280215 -0.01715126 -0.041015163 0.030538838 -0.050889663 0.017547503
-0.065549836 -0.053532828 0.0005575346 0.027408993 0.03518293 0.03734925 -0.018516965 -0.0417081
0.038886085 0.007467578 -0.037658587 0.012341588 -0.035918377 0.0526728 0.04810864 0.061865114
-0.051299226 -0.042191606 0.01496089 -0.036767308 0.04971713 -0.05240327 -0.044751823 0.05069241
-0.0046498175 0.0154421115 0.05218393 -0.014755909 0.010421149 -0.0010820436 -0.01142474 0.0019757303
-0.0477385 -0.05799188 0.032787792 0.020736095 0.00038239412 -0.0040127495 -0.0011228432 0.019418046
0.022922995 0.032535434 -0.040471226 0.029186442 0.028781777 0.03090074 0.03236457 0.015358752
-0.0054905615 -0.041112706 -0.0030141769 -0.05235251 -0.055476777 0.05286127 -0.050093785 -0.0073595857
-0.01334352 0.006665234 -0.02110363 -0.019518578 0.030972123 0.0030996187 -0.002088172 0.039175894
-0.055041708 0.033910245 0.011496215 0.03724458 -0.03996835 0.060510784 -0.040064715 -0.014286915
0.04354691 -0.035569523 -0.03576113 0.03375568 0.008444373 0.040486585 -0.03584512 0.022238929
-0.051968634 0.008458225 -0.06354291 0.04851042 -0.03283027 -0.0107941115 -0.0064999806 0.041922577
-0.06098452 0.052388106 0.040218983 0.05542856 -0.014478821 -0.031266764 0.024375146 -0.05716796
-0.026462464 -0.061561964 0.016885055 0.01696506 0.05784705 0.013914804 -0.008504189 -0.046462897
-0.06135565 0.04577034 -0.005869852 0.05472911 0.020882417 -0.036067057 -0.016771413 0.024413351
-0.06259487 0.052439418 0.05953019 -0.0017455169 -0.05937219 -0.04023746 -0.055133354 -0.05753681
-0.009658646 0.040051647 -0.0150403315 0.039788853 -0.017008262 0.046086755 -0.032593086 -0.05413396
-0.054511666 -0.003289041 0.04798052 -0.0061671734 0.018043224 0.0415212 -0.018114895 0.042404685
0.027710706 -0.0643503 0.021092333 0.008692788 0.033272713 0.02526687 -0.028899513 -0.010407375
0.038180094 0.030658474 0.055573054 0.013441344 0.007941352 -0.057558395 0.063897036 -0.0277955

4.bias f4 [2]
00000000: 53b5 25bd ade3 613c
-0.040456127 0.013787192

exp_avg f4 [256, 4]
00000000: a652 f1ba 7252 65ba 6428 d8ba 6328 e0b9
00000010: cf58 d53a 55dd 8b38 67e2 b63a bf1b 783a
00000020: 0350 4d39 0feb ae38 8f53 2938 206a 3eb5
00000030: d207 30bb ae09 40ba 9c19 28bb 097d 93ba
00000040: 60c7 abba 9e32 c7b9 9b6d 4eba 5f2b b3b9
00000050: 0c04 96ba 74d9 e3b9 7b78 abb9 ff8e a2b8
00000060: ee16 51b9 9813 89b9 8fb5 cd39 104d a439
00000070: c6ba 8eba db45 79b9 76b2 fbb9 87c7 a3b9
00000080: 7a1c 343b 17cf 783a cb83 223b 89b7 6d3a
00000090: a038 c5ba d411 b4b9 27b6 a9ba 1030 2cba
000000a0: b3ab f5b9 72a3 9fb8 8d64 1238 aeea b7b8
000000b0: f5f2 07b9 a101 94b8 f183 9fb7 b588 8f37
000000c0: 2b06 4b3b 07fb 833a d1e8 073b 6361 413a
000000d0: 0a64 093b 7d84 073a 4f16 b73a 7929 2f3a
000000e0: 21b4 d3ba 0797 d7b9 fb42 aeba 2380 25ba
000000f0: c625 34bb c26b 4cba 30a0 f9ba 7f8f 54ba
00000100: 021c bdba 0e5a e1b9 16a8 28ba dcd8 93b9
00000110: 25ce af3a 4598 3a3a d8c9 093a 1180 94b8
00000120: a801 f4ba dec3 00ba 6ae4 99ba 3acf 0dba
00000130: 64bc 9c3a 2007 cb39 8012 233a 0c25 8639
00000140: 7dcc d0ba 3403 5db9 b3f7 82ba 6924 2fba
00000150: 260b 87bb 966f 86ba a11a 4abb 9469 bbba
00000160: 17ec a7ba ffff aeb9 4d2f 34ba a874 bbb9
00000170: d44b 0b3a 13c3 5939 6e9a 20b9 8534 a8b8
00000180: 251e 1fbb 8a9d 2bba 22a7 b7ba 5cfe 23ba
00000190: ba45 c93a cb7a bf39 a98c a63a 21ac 243a
000001a0: 2215 363a 211b b939 db07 8139 6768 00b8
000001b0: d72d acba dafd 94b9 dd74 85ba aadc 0eba
000001c0: 3a40 cbba 4564 95b9 4382 80ba fb3a 19ba
000001d0: 3cf6 913a ee12 073a 6904 f439 6847 2d38
000001e0: e9ef ca3a 3e84 2139 5e06 833a fbcb 313a
000001f0: d380 b93a d0b3 1b3a aa44 703a bedc 8839
00000200: 843a dc3a 12b7 f639 4291 903a 645d fa39
00000210: ec6a 113b 6e30 083a ad55 bd3a b85b 3b3a
00000220: 70df 1aba d330 4bb9 a136 23b9 8564 b4b8
00000230: d947 3abb fc89 4cba 470a f6ba 6b30 52ba
00000240: 061b f43a f1f5 2c3a 976e 953a 7aad c039
00000250: 4461 ef39 a535 c639 a294 4fb9 96d7 92b9
00000260: 421d 66bb 07e8 4bba 0379 2abb 1a7f a9ba
00000270: 08da 613a c952 b839 0d4c 1438 c9d0 0ab8
00000280: feb8 f4b9 8afb a3b9 8e8d b938 a3bd 3939
00000290: f131 f83a 4e0d ff39 02aa 893a b681 ff39
000002a0: 627b 1c3b 40bf 0a3a c5b1 d43a f4ce 5d3a
000002b0: 1526 17bb f9c5 8eba 67a0 07bb d60e 0aba
000002c0: 5983 b6ba 239b f1b9 99f4 46ba 9892 97b9
000002d0: 2455 1e3b 0e51 323a 2234 d33a f477 353a
000002e0: 45cd d9ba 8464 3fb9 39b9 afba 54de 5aba
000002f0: 0b3c 01bb fbb2 29ba abd3 a9ba 8f9a f8b9
00000300: 32c0 e53a b35f 043a d855 a53a e533 0f3a
00000310: d050 1ebb bbe2 31ba be5b e0ba 4441 43ba
00000320: d956 d03a 7771 ec39 6d52 b33a 5615 1c3a
00000330: d11d 203b ff72 103a ba24 003b 120a 7f3a
00000340: ae6a 0cbb 1db5 3aba 414e acba b114 f9b9
00000350: 1f0e 223b 4013 5739 364c d73a b4b4 943a
00000360: c253 c23a e483 b939 9148 723a 2250 f639
00000370: 9b2a 1a3b b3d8 4e3a 6a94 d93a 5171 233a
00000380: 95f4 8d3a f591 173a 9dea ec39 a65a 4eb8
00000390: 9b71 403b 0162 3e3a 7dd0 e83a 4f41 5b3a
000003a0: 9c28 053b 9475 133a bb5e ce3a 90f1 363a
000003b0: 6c60 51bb 3084 44ba a7ac 1abb 04a3 9aba
000003c0: 05f5 60b9 37d0 03b9 953f 0d38 23b3 6838
000003d0: 268d 473b 1052 583a 3ab9 2a3b 56ac 983a
000003e0: e92a 95ba 684d ffb9 581a c1b9 307d 0ab8
000003f0: 136f 1abb e31e 90b9 ef87 fbba fb36 9aba
-0.0018411472 -0.0008747942 -0.001649153 -0.000427547 0.0016277077 6.669263e-05 0.0013952971 0.00094645837
0.0001958013 8.3407496e-05 4.037056e-05 -7.093495e-07 -0.002686013 -0.0007325661 -0.002565003 -0.0011252473
-0.0013105683 -0.0003799395 -0.0007874609 -0.00034173855 -0.0011445298 -0.0004345883 -0.00032705427 -7.751397e-05
-0.00019940335 -0.00026145275 0.0003923592 0.00031337934 -0.0010889403 -0.00023772514 -0.00048007414 -0.00031238442
0.0027482794 0.0009491308 0.0024797793 0.00090681814 -0.0015046783 -0.00034345558 -0.0012947962 -0.0006568441
-0.00046857967 -7.612155e-05 3.4902758e-05 -8.7698325e-05 -0.00012965112 -7.057493e-05 -1.9015717e-05 1.7110588e-05
0.0030979018 0.0010069319 0.0020738135 0.00073768775 0.002096417 0.00051695836 0.001396844 0.00066819
-0.0016151705 -0.0004112052 -0.0013295108 -0.00063133443 -0.0027488335 -0.00077980396 -0.0019044932 -0.0008108541
-0.0014427903 -0.0004298244 -0.0006433738 -0.00028199598 0.0013412876 0.0007118027 0.00052562123 -7.081044e-05
-0.0018616216 -0.0004911999 -0.0011741046 -0.00054096023 0.0011958 0.00038724486 0.0006220713 0.00025586074
-0.0015930083 -0.00021077396 -0.0009992033 -0.0006681146 -0.004121202 -0.0010256644 -0.0030838626 -0.0014298433
-0.0012811449 -0.00033378598 -0.00068735034 -0.00035754335 0.00053137285 0.00020767403 -0.00015316319 -8.020647e-05
-0.0024279442 -0.00065466075 -0.0014011601 -0.0006255859 0.0015355863 0.00036521847 0.0012706715 0.0006281753
0.0006945898 0.00035306162 0.0002461065 -3.061481e-05 -0.001313622 -0.00028417894 -0.0010181923 -0.00054497516
-0.0015506812 -0.000284942 -0.0009804446 -0.00058452756 0.0011136006 0.0005152662 0.00046542592 4.1312916e-05
0.0015482876 0.0001540342 0.0009996404 0.00067824096 0.0014152772 0.0005939575 0.0009165505 0.00026104407
0.0016802107 0.00047057174 0.0011029618 0.00047753297 0.0022188975 0.0005195205 0.0014445089 0.0007147151
-0.00059079286 -0.00019377777 -0.00015565242 -8.601792e-05 -0.0028424172 -0.00078025437 -0.0018771373 -0.0008018079
0.0018623776 0.00065979274 0.0011400756 0.00036750344 0.000456581 0.0003780547 -0.00019796428 -0.00028007914
-0.0035112654 -0.000777841 -0.002601207 -0.0012931556 0.0008615558 0.00035156895 3.5356778e-05 -3.309621e-05
-0.00046677137 -0.00031277194 8.847854e-05 0.0001771362 0.0018935782 0.00048647303 0.0010502937 0.00048734032
0.0023877253 0.00052927807 0.0016227296 0.00084613194 -0.002306347 -0.0010892741 -0.0020694972 -0.0005266493
-0.0013924643 -0.00046082688 -0.00075895485 -0.00028910185 0.0024159634 0.0006802239 0.0016113559 0.00069224765
-0.0016616961 -0.00018252624 -0.0013406641 -0.00083491695 -0.0019719626 -0.00064735085 -0.0012956759 -0.000474174
0.0017528592 0.00050496607 0.0012614084 0.000546275 -0.0024157055 -0.00067857996 -0.0017117185 -0.0007448385
0.0015895023 0.00045097966 0.0013681181 0.0005954107 0.0024431834 0.00055103 0.001955314 0.00097289786
-0.002142589 -0.0007122325 -0.001314588 -0.00047508397 0.0024727655 0.00020511169 0.0016425911 0.0011345358
0.0014825987 0.00035384216 0.00092423806 0.0004698048 0.002352393 0.0007890567 0.0016600017 0.0006234842
0.0010830337 0.0005781942 0.00045188228 -4.919865e-05 0.002936459 0.00072625285 0.001776233 0.0008363919
0.0020318395 0.00056251255 0.0015744785 0.00069787446 -0.003194834 -0.0007496504 -0.0023601444 -0.001179785
-0.00021453582 -0.000125707 3.3676235e-05 5.5479944e-05 0.0030449121 0.00082519744 0.0026050345 0.001164804
-0.0011380586 -0.00048695062 -0.00036831456 -3.3018354e-05 -0.002356474 -0.00027488833 -0.0019190292 -0.0011765653

exp_avg_sq f4 [256, 4]
00000000: 2d88 8a36 2ad5 5836 73dd aa36 3a02 6e36
00000010: a6af 3f35 c42c af33 bca9 0435 0c52 aa33
00000020: 1703 d134 1138 3434 80df e334 65eb 8134
00000030: 811a 3736 99c0 9835 ef8f cb35 6768 4335
00000040: 4646 8537 7436 e435 2faf ec35 b8aa 1535
00000050: 6b58 8d36 ea02 9236 5985 c036 2240 a336
00000060: ebc0 d536 8a4e 3e36 0b84 9c36 17cc 1136
00000070: 1b82 f735 dc5e ac35 e95f e935 90ff 9235
00000080: 4cfc be36 bb2f 7036 4c28 a836 2da7 7536
00000090: 9338 d435 94b0 0b35 3cef 1135 2493 3634
000000a0: 61c4 cf36 8a03 a835 13f9 b735 902f 5534
000000b0: 5c0a 4c34 0ea7 c532 0c66 1834 ab68 2833
000000c0: da59 8337 343c f735 b914 8936 509e 2436
000000d0: 0f10 4837 2b7a a136 c2bd b536 2e2e 8336
000000e0: 2f76 9335 1449 2a35 f8bf 2735 54dd a334
000000f0: 77ae c836 705a ea35 8e60 7b36 31cf 1736
00000100: ef62 6e36 230d 2036 fa8e 7536 3dca 3036
00000110: bed9 9e36 54d0 1d36 4c51 9b36 ae5e 5b36
00000120: 27ca 4a37 1207 6f36 6d53 8236 e0dc 3236
00000130: 4cc1 3137 a361 b035 f316 3936 6d78 fa34
00000140: 39c3 8f36 ced4 5d35 71db 6335 a8e4 8f34
00000150: dceb 1338 3072 0d37 8d33 2c37 c184 ff36
00000160: 7973 bd36 703f ea35 8d3a 0136 eba7 5b35
00000170: d194 fd35 8e27 1236 869a 2236 df6f 0d36
00000180: 3eb6 3237 cfbe 6d36 56e8 c336 8d3a 9036
00000190: dd31 3b35 6f2b 2834 217f db34 1db2 7c33
000001a0: 1ca7 8235 9bfc 6d34 eff8 2f35 eaeb c434
000001b0: 3b3c d935 5c34 c734 6467 f734 8aa4 0734
000001c0: 3c1f d536 03cf 4135 dcc3 9c35 8577 7034
000001d0: 1226 2037 e257 2536 1302 9336 12fc 1d36
000001e0: 7f0e 7636 d7c8 9f34 0b87 0b35 9583 2834
000001f0: 0c58 7f36 ea86 3636 f85e 8a36 f75a 3e36
00000200: 1b33 3537 42c5 cd35 8b65 e135 9857 8235
00000210: b183 d736 47b8 7036 5123 9b36 1db6 7a36
00000220: 2aa1 be36 a45a 0435 d7c9 6b35 dc63 8033
00000230: 3fa2 3137 c8c2 fd35 609e 8636 5edb 2836
00000240: 7f11 5837 c6b6 5f36 9480 b136 6bee 6b36
00000250: 6fe1 8336 abd3 1736 49f5 7636 751c 2c36
00000260: 3105 e637 7ea8 c936 bd0f e436 9751 9c36
00000270: 96d0 8d36 fe14 a536 eb9e c236 44ee a336
00000280: 342e 1b36 fac4 9e35 a4b0 ec35 4551 9435
00000290: cf07 d236 da9c 3135 29b7 9b35 f9a8 0635
000002a0: e152 ad36 3f81 9736 54f4 da36 fe57 a336
000002b0: 14b7 af36 1b7e 9136 ff40 de36 26cd a636
000002c0: b3f1 3f36 892f 1036 7e20 5d36 02af 2b36
000002d0: b5f6 2237 fe37 7535 19b2 eb35 23ec 6b35
000002e0: 3fa0 a235 e0b5 3f34 344b 4835 2380 d833
000002f0: 18af 2836 5c91 4c34 0685 3035 6ba5 8534
00000300: 3799 3436 f207 b335 aeb5 a135 2006 4f35
00000310: 27f4 4636 feae fb34 8c3e 0d36 5832 3e35
00000320: 113b 8735 e763 0635 d1e2 0f35 12a0 a434
00000330: bc50 aa36 c50b ae35 b244 1a36 995a 6d35
00000340: a35c a936 f0b7 5c36 d747 bf36 2dc3 8d36
00000350: 0a60 c136 edfb 9335 8fb1 d035 7630 8435
00000360: 5a42 d136 891f a135 0a97 a535 1f01 1c35
00000370: 6478 3337 750e e635 319f 1536 12cb 8735
00000380: 5805 2f36 0d00 8935 f71c 1336 e709 c735
00000390: 2ede 1437 4ed6 f735 9366 5e36 d342 ff35
000003a0: e48a 8036 6d33 2b36 ab68 6036 603c 1b36
000003b0: 05df 1537 ec58 9936 27a6 db36 e4aa 9036
000003c0: e56a 3335 bfad 0a35 d8d8 2335 1fed c934
000003d0: 612d 0737 b8f6 7036 0668 d036 93c3 6636
000003e0: 6815 8636 ac3d 0936 0fd6 8136 612f 2636
000003f0: 39d1 f835 f6f2 cc34 d67e 7335 e3eb 5834
4.1285734e-06 3.2310586e-06 5.092175e-06 3.546606e-06 7.1408647e-07 8.157215e-08 4.942083e-07 7.931166e-08
3.8931532e-07 1.6784203e-07 4.2444663e-07 2.4199394e-07 2.7284552e-06 1.1380936e-06 1.5166569e-06 7.2795086e-07
1.588756e-05 1.7003172e-06 1.7634355e-06 5.5755254e-07 4.2124207e-06 4.3514783e-06 5.7375696e-06 4.8652446e-06
6.3703533e-06 2.8357922e-06 4.664534e-06 2.172548e-06 1.84408e-06 1.2842606e-06 1.7387766e-06 1.0952226e-06
5.6918125e-06 3.579057e-06 5.0114813e-06 3.6605154e-06 1.5811696e-06 5.203849e-07 5.436484e-07 1.70036e-07
6.1919422e-06 1.2518005e-06 1.3707053e-06 1.9854474e-07 1.9002749e-07 2.3009786e-08 1.4193228e-07 3.9210743e-08
1.5658257e-05 1.8420455e-06 4.0853306e-06 2.4530054e-06 1.1924668e-05 4.812396e-06 5.416311e-06 3.9094803e-06
1.0986749e-06 6.343628e-07 6.24917e-07 3.0522153e-07 5.980775e-06 1.7460679e-06 3.7458117e-06 2.2621355e-06
3.552235e-06 2.3849504e-06 3.6591068e-06 2.6343762e-06 4.7341155e-06 2.3516086e-06 4.628824e-06 3.2688654e-06
1.20872055e-05 3.561789e-06 3.884014e-06 2.6652633e-06 1.0595028e-05 1.3141438e-06 2.7580506e-06 4.665375e-07
4.284459e-06 8.263859e-07 8.488342e-07 2.6802195e-07 3.5267192e-05 8.430841e-06 1.02640015e-05 7.615047e-06
5.6460817e-06 1.7452821e-06 1.925658e-06 8.182821e-07 1.889328e-06 2.177872e-06 2.4229826e-06 2.1075755e-06
1.0652058e-05 3.5426817e-06 5.8385003e-06 4.2983506e-06 6.973549e-07 1.566202e-07 4.0884427e-07 5.8835315e-08
9.73439e-07 2.2164242e-07 6.5554826e-07 3.6679495e-07 1.6185289e-06 3.7104735e-07 4.6082562e-07 1.2632714e-07
6.351531e-06 7.2199344e-07 1.1679908e-06 2.2395223e-07 9.545607e-06 2.463807e-06 4.381183e-06 2.3541547e-06
3.6665294e-06 2.9762188e-07 5.197805e-07 1.5694089e-07 3.804921e-06 2.7198644e-06 4.1237763e-06 2.8365155e-06
1.080034e-05 1.53311e-06 1.6793359e-06 9.711248e-07 6.42283e-06 3.587005e-06 4.6234713e-06 3.7358907e-06
5.681203e-06 4.930573e-07 8.783804e-07 5.978629e-08 1.0587798e-05 1.8906658e-06 4.0119485e-06 2.516164e-06
1.2878677e-05 3.3335978e-06 5.2899795e-06 3.5156506e-06 3.930348e-06 2.262396e-06 3.6799631e-06 2.5646561e-06
2.7420554e-05 6.009882e-06 6.7967617e-06 4.6586606e-06 4.22641e-06 4.919827e-06 5.800151e-06 4.8855163e-06
2.3123694e-06 1.1829245e-06 1.7634779e-06 1.1050512e-06 6.2593967e-06 6.616589e-07 1.1601707e-06 5.016478e-07
5.16545e-06 4.515197e-06 6.52535e-06 4.868022e-06 5.2367195e-06 4.3360174e-06 6.623682e-06 4.971068e-06
2.8601905e-06 2.1485341e-06 3.295048e-06 2.5582854e-06 9.713393e-06 9.135109e-07 1.7560698e-06 8.7887946e-07
1.2116578e-06 1.7854427e-07 7.461524e-07 1.0081592e-07 2.5135869e-06 1.9051862e-07 6.5758684e-07 2.4893538e-07
2.6911273e-06 1.3338852e-06 1.204831e-06 7.712242e-07 2.9646415e-06 4.6879717e-07 2.1047044e-06 7.0853775e-07
1.0075474e-06 5.0064267e-07 5.360171e-07 3.0663847e-07 5.0757935e-06 1.2967436e-06 2.2987774e-06 8.8421217e-07
5.047377e-06 3.288962e-06 5.700607e-06 4.224849e-06 5.7630286e-06 1.1025674e-06 1.5548884e-06 9.84887e-07
6.2364097e-06 1.2004613e-06 1.2337416e-06 5.811616e-07 1.0697262e-05 1.7140543e-06 2.2295392e-06 1.0117385e-06
2.6080143e-06 1.020731e-06 2.1921567e-06 1.4829537e-06 8.873218e-06 1.8465305e-06 3.3140284e-06 1.9018429e-06
3.8308663e-06 2.551092e-06 3.3439526e-06 2.3131943e-06 8.933018e-06 4.570107e-06 6.5460513e-06 4.3114287e-06
6.683825e-07 5.166184e-07 6.103778e-07 3.7611696e-07 8.057193e-06 3.5906396e-06 6.210993e-06 3.438651e-06
3.996003e-06 2.0450489e-06 3.8694193e-06 2.4763506e-06 1.8538332e-06 3.8174738e-07 9.0709125e-07 2.0202383e-07
