distributed_shared/worker_logs/worker_8/models/model_episode_40.pt (torch, 816842 bytes, 16 tensors)

0.weight f4 [256, 4]
00000000: 8f0e cd3e b122 fc3e c0cc f6be ec4f 9fbe
00000010: 21a4 34bd f83d fe3e 2329 a93e 2c88 e73e
00000020: f8ec d2bd d624 21be 0130 8bbe f985 9c3e
00000030: 2b46 a83d b155 ae3e e469 b9be 844e 823c
00000040: aa28 1abe 4df7 bebe d04d 453e afbe 82be
00000050: b3dd 9a3e 2eb6 60be a635 01bd d9b6 2d3d
00000060: a757 9bbe 80e5 a33e 8dc9 c13e de7e f8be
00000070: eb72 8dbe 1523 ea3e 2c87 873e 9978 95bd
00000080: 60f6 9b3c 77cc 83be 04d7 7dbe 722c a63e
00000090: cb3f 7e3e 07f3 85be 0407 9cbe e0de 393e
000000a0: e144 83be 7392 28bd 7144 b4be ecab 9dbd
000000b0: b341 8cbe de92 663d 85c8 3dbe 42ef bdbe
000000c0: aa5d c33d 81e2 71be 7fd5 aebd b672 30bb
000000d0: 6cbc 1ebe 89a1 a63e 534b 183c 0eb1 453e
000000e0: 6d52 fc3e e7c4 f93e a180 b7be 06dc ec3e
000000f0: 52c1 573e b4aa bc3d 6e30 de3d 91a9 9d3d
00000100: 7ed3 c8be f17d b03e 1c47 b03e eca2 273d
00000110: a85f 3f3e b123 2e3e 1407 a9be bb2a 24be
00000120: 4911 943e 703d 5d3e 5376 773e 36a4 d5bd
00000130: 2bd7 8c3e 053b e5be f200 adbe de17 8f3e
00000140: a71e 2cbe 0d81 6fbe dfa1 323a 566e e73e
00000150: c9b6 f83e 4cec 953e 3052 f63d 70fe 99be
00000160: dd0f a23d b4dc 08bf 31e2 b53e eeb9 d73e
00000170: 69f2 0ebe 100a cd3e 45b9 63be 9e10 593e
00000180: bc79 c83e a0a5 abbe 3a37 b4be 9c1c c1be
00000190: 0076 8b3d 3037 19be 427f 9bbd 2eeb 5cbc
000001a0: be1d 393e 707e 133e faf9 b1be 9bdc ccbe
000001b0: aefb 80bc 5992 07be 0430 bdbd d5c8 fcbe
000001c0: 59d6 3b3e bef9 d13d efad 48be ff87 74be
000001d0: 7d1e aabd 6529 a73e f1e4 9bbe a64a 0f3e
000001e0: b80e b9be 5ffd 94be 93c6 62be 2de1 61be
000001f0: bae3 9b3d 5fc4 63be 83f7 e93e 7ea9 913e
00000200: 2b4e 10be 52b0 e83e 7f81 293d 495a 47be
00000210: e886 283e d722 943e 0098 bfbe 6ec9 7b3e
00000220: 65fa 96be 3dc9 d1be d3b5 3cbe 2db6 393e
00000230: c232 003f 910f c43e c062 ee3e 919e a03e
00000240: 3ded d2be 7254 7c3e 7a50 5c3e 6f3c a9bd
00000250: e007 a2bd a911 b33e db6b 033e c599 e2be
00000260: ca8d dabe 58a9 b43e a66e fd3e 87b6 cc3e
00000270: cd18 da3e cd07 a2be 4a77 d0bd fd2a b93e
00000280: df72 94bd 2ba5 e0be 5e56 69be 88ba c9be
00000290: 748c 6abd 1530 fe3e b9ac 813e 0c89 5d3e
000002a0: 488a ef3e 1a73 f43d 2374 3d3e a3aa 97bc
000002b0: 63df 273e 2ac8 323e 820a 21be 58a7 453e
000002c0: d53d 003f bcf1 dcbe 085c e7bd 0abd 92bc
000002d0: 2edf 6abe 4c57 983e 90d4 c4bd 9818 963e
000002e0: b9fe a0be abbe aa3e 3059 d2be 47eb 5c3e
000002f0: 9119 b13e fd57 cbbe f29a ccbe 9514 bf3e
00000300: e010 503e 67d7 e5be d045 843e fd5f 4b3e
00000310: eaf6 013f 50ce 013f b577 a93e a603 eebe
00000320: fce4 9b3e 16e1 fc3d d621 25be 40dd ae3d
00000330: 6eb6 a43d 5894 edbe f74e 8cbe 2c12 fa3d
00000340: e039 c9be 7c95 9abd 43d7 883e caee 7c3d
00000350: 98f7 623d 1cd6 a5be 4b5a 88be 3f43 c4be
00000360: e9e0 843e 5263 e7be 2477 c1be cbe7 373e
00000370: 9913 df3e ecd6 cebe decd 073e abe4 18be
00000380: 5ec9 c5be f6d5 ed3d 64fc 293e 478a d33d
00000390: 8f14 b4be b0e3 37be 2c8c b4be 3714 a33e
000003a0: 7593 e93e d421 c83e ad95 4abe e9e7 73be
000003b0: 5b92 f4bd f945 543e b8d2 ed3d 6cbb 07bd
000003c0: d0ad 5d3d ddc7 0fbe f010 fe3c 3fee d7be
000003d0: 4dba 203d 4fda e0be 46d3 8abe e429 d0be
000003e0: 832b d5be da7a 42be a1d9 c0bd 7783 60be
000003f0: ee0f 6f3e 01e1 26be 82d0 dcbe 4dcd 923e
0.4005017 0.49245217 -0.48203087 -0.31115663 -0.044101838 0.49656653 0.33039197 0.45221078
-0.102991045 -0.15736708 -0.27185062 0.30570963 0.082165085 0.34049752 -0.362136 0.01590658
-0.15054575 -0.3729805 0.19267964 -0.25536105 0.30247268 -0.21944496 -0.031545304 0.042410705
-0.3034031 0.32011032 0.37849084 -0.48534292 -0.27626738 0.4572989 0.26470315 -0.07298393
0.01903838 -0.25741932 -0.24789053 0.32455784 0.24829023 -0.26161978 -0.30474102 0.18151426
-0.25638488 -0.04115529 -0.35208467 -0.07698807 -0.27393875 0.056292407 -0.18533523 -0.37096602
0.095393494 -0.2362156 -0.08536815 -0.0026923842 -0.15501565 0.32545117 0.009295302 0.19305822
0.49281636 0.48783037 -0.35840324 0.46261615 0.2106984 0.092122465 0.10849081 0.07698358
-0.39223856 0.34471086 0.34429252 0.04092686 0.18688834 0.17005803 -0.33013213 -0.16031925
0.28919438 0.21605468 0.24166231 -0.104317114 0.2750791 -0.4477159 -0.33789784 0.27947897
-0.16808568 -0.23389073 0.0006814282 0.45201367 0.48576954 0.29281843 0.12027395 -0.30076933
0.07913182 -0.53461766 0.35524133 0.4213404 -0.1395966 0.4004674 -0.22238643 0.21197745
0.39155376 -0.335248 -0.35198385 -0.3771714 0.06809616 -0.14962459 -0.07592632 -0.013483806
0.18077752 0.14403701 -0.3476103 -0.4001206 -0.01574501 -0.13239421 -0.09237674 -0.49371973
0.18343486 0.10252713 -0.195976 -0.23880003 -0.083065964 0.3264877 -0.30448106 0.1399332
-0.36144042 -0.29099557 -0.22146063 -0.22058554 0.07611795 -0.22242878 0.4569665 0.28449625
-0.14092319 0.45447022 0.041383263 -0.19468035 0.16457713 0.2893283 -0.37420654 0.24588558
-0.2948791 -0.40973845 -0.18428735 0.18135901 0.5007745 0.38293126 0.46559715 0.31370977
-0.41196623 0.24641588 0.21515074 -0.0826348 -0.07911658 0.3497441 0.12834112 -0.44257942
-0.426863 0.3528545 0.4949848 0.39983007 0.42597046 -0.31646577 -0.101790026 0.3616561
-0.072484724 -0.43876013 -0.22786853 -0.39400125 -0.057262853 0.4964606 0.2532709 0.2163431
0.46785188 0.119360164 0.18501334 -0.018513983 0.16393809 0.17459169 -0.15726665 0.19302118
0.5009435 -0.4315318 -0.112968504 -0.017912406 -0.22936699 0.29754102 -0.096108556 0.2931564
-0.31444338 0.33348593 -0.4108367 0.21574126 0.34589818 -0.39715567 -0.39961964 0.3732039
0.20318937 -0.448909 0.25834513 0.19860835 0.50767386 0.5070543 0.33099142 -0.4648716
0.3044814 0.12347619 -0.16126189 0.08538294 0.08042608 -0.4640224 -0.27403995 0.12210497
-0.39301968 -0.07548043 0.26726732 0.061751164 0.055411905 -0.32389915 -0.26631388 -0.38332555
0.25952843 -0.45192963 -0.3778621 0.17959516 0.4356964 -0.40398347 0.13262126 -0.1493098
-0.38630193 0.116130754 0.16600186 0.10329109 -0.35171935 -0.1795795 -0.35263193 0.3185136
0.45620313 0.3908831 -0.1978366 -0.23818935 -0.119419776 0.20729817 0.11612457 -0.033137724
0.05412084 -0.14041086 0.031013936 -0.42173955 0.03924017 -0.43916556 -0.27114314 -0.4065696
-0.4163476 -0.18992177 -0.094165094 -0.2192515 0.2334592 -0.1629677 -0.4312783 0.28672257

0.bias f4 [256]
00000000: 885b 393e 1243 b5be dea2 673e 5c2d dfbe
00000010: c86a 6d3e 85df 1d3e a368 64be e9cd c73d
00000020: b56b 88bd 7ae7 eabd 0a8e dc3e 3418 b33d
00000030: 3574 d7be 7641 be3e b77a 9b3e a5bc 4bbe
00000040: c1d1 84be 2df4 b33c 0d3c 6bbe 22b9 a83e
00000050: eec0 f63e e6d6 bbbe a0d4 5c3e a2a3 32bd
00000060: e9f9 973e e740 d53d b62f c4be 7dac c23e
00000070: 8615 5b3e 7665 963e 2563 a1be 2b95 21be
00000080: 5291 71be 4e60 b93e 0e34 af3d 3ca2 a53d
00000090: 4b30 87be 937f c7be 0bb7 b4be 2cb7 6cbe
000000a0: b64f b3be fca5 9ebe 1e84 923e 09ac aebe
000000b0: 915d d4be b387 23be 9f15 cbbe 122e b8bd
000000c0: 95d0 c0be 99c0 2a3e a0a8 bb3e b578 47be
000000d0: c90b 02be 40fe ab3e 83af d3be fabc 2fbe
000000e0: 54e1 c3be 1f53 45be d3a6 c9be fe97 a23e
000000f0: fbff 2b3e bad3 09bc 8969 ce3e 0153 b03e
00000100: 1b7d 9abe 5ada 9bbd a524 13be 4403 ccbe
00000110: 3ac0 b2be 9597 51be 88c0 d63e 2428 69be
00000120: 4807 81be 3693 a2be cda5 ae3e 79c9 b9be
00000130: a6c9 51be fd64 6c3e b163 ed3e ae8b 463e
00000140: c972 ca3e 0e05 ecbe 9e52 3d3e cd13 723e
00000150: b4d0 b1be fef9 b73e 3093 dcbe 6106 94bd
00000160: 5470 b53d 13c8 193d 89e0 52be cd0f f4be
00000170: 6c97 62ba 02bc 4bbe 4bbd b73d f55a de3d
00000180: a40e 50be 1252 d9be 347e 8fbe 4135 bc3e
00000190: 253b a7be aa18 a33e 193d d8be 3da4 0dbe
000001a0: 1bc8 153e 8041 f1bd a007 95be 125c f23e
000001b0: db78 e83e 7cec bb3e cb04 a2be 844b c6be
000001c0: af15 80bd 7ca1 dabe b337 4dbe 648f 573c
000001d0: 6468 a4be 782d b4be 44bc 46be c16c 69be
000001e0: b41a 5ebe c345 edbe 7a07 a73c d59a f73e
000001f0: 16e5 ebbe a01f 31be 6955 de3d 359a 383e
00000200: 933b 663d 847d c43e b724 c03e e0e8 15be
00000210: 9b56 e03d 1e2b 88bc afc5 95be c788 eb3e
00000220: 7622 373e ad7f 1d3e ce85 a8be c5f2 a73e
00000230: e0eb 8fbe 640c f43d f2c5 f63e 2a1d e2be
00000240: 8e6d a23d 8798 f4be b23c bd3d b6d6 8b3e
00000250: 205f bd3e bb70 9ebe dea7 a0bd 6a10 003f
00000260: 7d6c d93d 2ba3 cd3e 85f4 003e 994e b8bd
00000270: 4b05 8cbe e4c4 ffbe a110 9f3d 2897 023e
00000280: 8272 923e 927e 4e3d 8c4e 993e d1c3 793e
00000290: 5480 4abe 366b a73d d9df 4a3e 3672 f33e
000002a0: 6e29 36be a2e4 d7be e486 503e cad9 8bbe
000002b0: 96c0 ad3d e882 e8be bdc9 e4be 1c91 2fbd
000002c0: a9a7 8a3e bef5 eebe 6792 1a3e 1fb7 e8be
000002d0: 6e75 983e e07a 4bbe 35aa 01be d437 3dbe
000002e0: d02d 82be 6f4a cbbe d523 d8be b5d6 b6be
000002f0: 37ff ecbe 8894 37be 9415 89be 1221 4fbe
00000300: d8bc 00be c644 ddbe ba03 e2bc ffff 4dbe
00000310: c843 36bd dfd1 eebe 3ed1 86be c6e3 a83c
00000320: 7d23 6c3d ff1d 1d3e db32 40bd b328 aabd
00000330: 120c 103d 57b0 75be 7178 413e 3d79 0b3c
00000340: 36c2 a2be 6bca ac3c 7bf3 f53e 1f3f 623d
00000350: 2d5d f23e a9af a53e 9488 debe 690e f1be
00000360: 6cf9 e9be ba4a 3f3b 8066 0cbe fc88 8e3e
00000370: fb64 ccbe d0f5 ba3e d93f d63e 7baa 8cbe
00000380: ead0 ecbc 4efb eebe 7493 d43c 5001 debe
00000390: 594b 943e 0bd3 9e3e 6a0c 15be 9e02 f53d
000003a0: 8668 8ebe 3430 ab3e 0312 8cbe 0ff3 6d3e
000003b0: 6ab5 f03e a1bf 783e fed2 1bbe 3d42 b2be
000003c0: 8765 6a3e 5b9a bd3e 1dcf 293e 0f56 50bc
000003d0: edaa 91be 27a5 e33e 70ab fcbd f00b aabe
000003e0: 5a1b 4dbe e1c9 423e 1430 0cbe c79e c3bd
000003f0: 2a63 5f3e 5721 8c3d 0a32 c03e 97fd dd3e
0.18101323 -0.35402733 0.22620723 -0.43589294 0.23185265 0.15417297 -0.2230554 0.09756071
-0.066611685 -0.11469932 0.43077117 0.08744851 -0.42080846 0.37159318 0.30367061 -0.19896181
-0.2594128 0.021967018 -0.22972126 0.32953745 0.4819407 -0.36687392 0.21565485 -0.043613084
0.29682854 0.1041277 -0.3831765 0.38022223 0.2139493 0.29374284 -0.31520954 -0.1577956
-0.23590592 0.36206287 0.085548505 0.080875844 -0.26404032 -0.3896452 -0.352959 -0.2311675
-0.35021752 -0.3098601 0.28616422 -0.34115627 -0.41477636 -0.15969734 -0.39664933 -0.08993162
-0.37659135 0.16675033 0.36652088 -0.1947964 -0.12699808 0.33592415 -0.41344842 -0.17161933
-0.3825785 -0.1926999 -0.3938509 0.31756586 0.16796868 -0.008412296 0.40314892 0.34438327
-0.30173573 -0.07610007 -0.14369448 -0.3984624 -0.34912282 -0.2046798 0.41943765 -0.22769219
-0.25200868 -0.31752938 0.3411087 -0.36286524 -0.20487079 0.23085399 0.4636512 0.19389221
0.395407 -0.46097606 0.18488547 0.23640366 -0.3472954 0.35932916 -0.43081045 -0.07227779
0.088593155 0.03754432 -0.20593466 -0.47668305 -0.00086437794 -0.19895938 0.08971652 0.108571924
-0.20318085 -0.42445427 -0.28025973 0.3675938 -0.3266231 0.31854755 -0.42234114 -0.13832183
0.14627115 -0.11780071 -0.2910738 0.4733587 0.45404705 0.3670386 -0.31644282 -0.3872949
-0.06254136 -0.42701328 -0.20040779 0.013156746 -0.32110894 -0.3519094 -0.19407755 -0.22795393
-0.21689874 -0.46342286 0.020389307 0.48360315 -0.46073216 -0.1729722 0.108561344 0.18027575
0.05620916 0.3837701 0.3752801 -0.14639616 0.10954019 -0.016622122 -0.29252383 0.4600279
0.1788424 0.15380736 -0.32914585 0.32802406 -0.28109646 0.11916426 0.48197895 -0.44162875
0.07931052 -0.4777262 0.09240092 0.2731225 0.36986637 -0.30945382 -0.07844518 0.50025046
0.106163956 0.4016355 0.12593277 -0.08999366 -0.27347788 -0.49954903 0.077668436 0.12752974
0.28602988 0.050413676 0.2994274 0.24391104 -0.19775516 0.08174746 0.19811954 0.47548074
-0.17789242 -0.4216662 0.20363957 -0.27314597 0.084839985 -0.45412374 -0.44685164 -0.042862996
0.2708104 -0.4667186 0.1509491 -0.4545221 0.29777092 -0.19871092 -0.12662585 -0.18478328
-0.25425577 -0.39705226 -0.42214838 -0.35710683 -0.46288463 -0.17927754 -0.26774275 -0.20227459
-0.12572038 -0.43216532 -0.027589668 -0.20117186 -0.044498235 -0.46644494 -0.26331514 0.020616423
0.05765103 0.15343474 -0.0469235 -0.08308544 0.03516776 -0.2399305 0.18893601 0.008512792
-0.31788796 0.021092614 0.48037323 0.05523598 0.47336712 0.3236058 -0.43463576 -0.47081307
-0.45698106 0.0029188828 -0.13710976 0.27838886 -0.39920792 0.36515665 0.41845587 -0.27473816
-0.028908212 -0.46676105 0.025949217 -0.43360376 0.28963736 0.31020388 -0.14555517 0.1196339
-0.2781412 0.33435214 -0.27357492 0.23237251 0.47013408 0.2429185 -0.15217206 -0.3481616
0.22890292 0.37031826 0.16582914 -0.0127158305 -0.2845072 0.4446194 -0.123373866 -0.33212233
-0.20029965 0.19022323 -0.13690215 -0.09551769 0.21815172 0.068422966 0.37538177 0.43357536

2.weight f4 [256, 256]
00000000: 52b6 813d 95fe 34bd 2779 af3b 5ed3 463c
00000010: 7c44 6bbd c1ee 213d 84ee 86bc 6318 4fbd
00000020: a3c3 af3a 8e5c 453d 60c5 5ebd a545 843b
00000030: 3397 fd3c 95ee 74bd 9250 4fbd ba20 1c3d
00000040: 693a 743d 2a3d debc 5500 103d adf4 0b3d
00000050: 8e1b e5bc 590b 443d 7227 e13c 5d17 5b3d
00000060: 908c a8bb d633 4e3d 543e 45bb 69ea c8bc
00000070: f7c5 333c 6916 413d e897 3e3d c5b6 3dbd
00000080: eb2c b7bb f5d5 1e3b ed50 ce3c d516 403b
00000090: 192b a93c fbe7 52bd d095 40bd 5d4f 52bd
000000a0: c2fa de3b 71c8 343c d3b1 b63c d2dc 2f3d
000000b0: dcc1 71ba 0703 233c 129e 363c 7911 d83c
000000c0: d5af 9a3c c1a6 febc 7f11 7bba 681e a2bc
000000d0: 4519 f33c c98c 29bd 608a 5c3d 420b d13c
000000e0: abdd 513d e59f b9bc c917 ec3c 1dae 8e3c
000000f0: 9d03 4cbd 212b 07bc 1997 ddbb 71fe 61bd
00000100: ce31 ebbb 5d03 2abd c77e bfbb 9780 1ebd
00000110: 073a 5b3d 1790 383d 243e 5c3d 62cd 4f3c
00000120: 27a8 b0bc c42b f43c d4a6 2a3a 664f 9f3c
00000130: 8fe9 643d c743 ed3c 23d9 443d 976a 7cbd
00000140: 173c 20bb 9b45 8fbc fe2b a5bc f909 e03a
00000150: 7085 50bd bb64 51bb 434e b53c 74b7 4bbc
00000160: aa0f 473d 5e66 76ba e0d1 46bd 9a56 60bd
00000170: f42b 613d ac42 f33c 00e2 883c 119a 1dbc
00000180: 7310 eebc 2791 983c 38b9 e7bc 7c3c 4ebd
00000190: 3b2e 0ebd 743f 413d 5081 ee3c 5629 0fbb
000001a0: 2eb4 6b3d ce66 fb3c c8c4 10bd 2816 2cbd
000001b0: 3a63 583d 33cd 22bd 112a 03bd 1ba9 5a3d
000001c0: 8072 4fbd 25c0 d2bc a57e 23bd 3337 383d
000001d0: f3ac 46bd 0a1a 32bd 2cda 5b3d 569c 3a3d
000001e0: 1067 7c3b d391 4e3d da1c 22bc 767e 5b3d
000001f0: 644b 12bd 6bef 9b3b 1019 9dbc 8e96 783d
00000200: b082 643d c1fa 9bbc cb4b ec3b b766 5dbd
00000210: 3e5c 5b3c f3ad 1abd f1be ff3c 8aab a1b9
00000220: 3de2 efbc f893 673d f276 e13c 566b 45bd
00000230: 1a27 60bc 615f 153c f6b4 2e3d 7eab 783d
00000240: d70a 2e3c ac08 1abc da50 3cbd 3ee5 39bd
00000250: 705d dcbc 066b 93bc 6f08 67bc 35d7 843c
00000260: 5fc0 2c3d 6f6b 483d ef71 59bd ae66 65bb
00000270: 9172 443d c5d8 633d 710b 8abc e2e0 02bc
00000280: 4d79 3b3d e233 d83c 49a8 25bd 87c3 273d
00000290: 79cc 413d 60d7 033c e37e a43c 7ed3 993b
000002a0: a8c8 adbc e160 6fbd d796 2a3d 48d9 14bc
000002b0: 0e7b b3bc 362a 9bbc acc3 6abc 3a7e 893d
000002c0: 348b 78bc a5a9 1ebc 0873 a9bc ce04 d73b
000002d0: efee a639 1565 74bd bde7 4b3d 2644 ea3c
000002e0: f381 4f3d fd8c 4e3d a5fa dabc e074 603c
000002f0: df16 463d ac75 213d 3098 efbc dd6c 3b3d
00000300: 69fb 373c 1e20 7c3d a42d c7bc 89e0 5bbd
00000310: 5c92 55bc 1cdd 773d 282c 4a3d e1c2 653b
00000320: bf13 763c fccf 2a3d 2a02 1ebd 2dc6 5abd
00000330: 8431 82ba fc2d d3bc c604 a5bc 4e83 f83c
00000340: 9dd4 37bd 86c6 76bd e20d 593d bd9f 2dbb
00000350: 29a7 43bc 8857 81bb ccd4 4a3d 920d a1bc
00000360: 412d e0bc e8f8 663d 06b8 22bd af8a 53bc
00000370: e3da 99bc e182 313d b483 45bd e8d1 d73c
00000380: 3a15 1939 a1b3 4dbd d668 57bd 5afd 2c3d
00000390: fc66 c5bb 24ef 573c d977 05bc 4ea0 33bd
000003a0: c60d f53c 3724 7b3d ae01 30bb 053b 56bd
000003b0: fb64 37bd d327 113c 0f30 043d 9c6b cf3c
000003c0: c993 443d 6e27 d63c e1a4 88bb e2e1 3e3d
000003d0: 2591 49bc d4ee 8ebc 6a2c 73bd e199 eabc
000003e0: 8040 17bd 9035 06bc c1ef 0e3d 8986 4c3c
000003f0: 4f12 933c 85c9 5c3d 4c6f 763d 3931 603d
0.06333603 -0.0441881 0.0053550187 0.012135355 -0.05743836 0.039534334 -0.016471155 -0.050560366
0.0013409745 0.04818397 -0.05438745 0.0040366226 0.030955886 -0.059797842 -0.050613947 0.038117148
0.059626017 -0.027128775 0.035156567 0.034168888 -0.02796724 0.047862384 0.02748463 0.053489078
-0.0051437095 0.050342403 -0.0030096965 -0.024525838 0.010972491 0.047140513 0.046531588 -0.04631688
-0.0055900714 0.0024236415 0.025185073 0.0029310484 0.020650433 -0.051490765 -0.047017872 -0.051345218
0.006804795 0.011034117 0.02230159 0.0429352 -0.00092223077 0.009949452 0.011146085 0.02637552
0.018882671 -0.031085374 -0.0009577497 -0.01978989 0.029675135 -0.04139403 0.053842902 0.025518063
0.05123679 -0.022659251 0.028819935 0.017417008 -0.049808133 -0.008250029 -0.006762397 -0.055174295
-0.007177568 -0.041507114 -0.0058439705 -0.03869685 0.053522136 0.04505929 0.0537702 0.012683244
-0.021564556 0.029806025 0.00065098447 0.01944704 0.0558868 0.028962983 0.04805864 -0.06162509
-0.002444988 -0.017489245 -0.020162579 0.0017092816 -0.050908506 -0.003195091 0.022132045 -0.012433875
0.048598923 -0.0009399409 -0.048539996 -0.05477009 0.054973558 0.029694878 0.016709328 -0.009619252
-0.029060578 0.018623902 -0.028286561 -0.05035065 -0.034712058 0.047179654 0.029114395 -0.0021844706
0.05754488 0.03068867 -0.035343915 -0.042013317 0.052829005 -0.039746474 -0.03202254 0.053383928
-0.050646305 -0.025726387 -0.0399157 0.044974517 -0.04850478 -0.043481864 0.05367486 0.04555925
0.0038513578 0.050432038 -0.009894574 0.0535874 -0.03571643 0.0047587655 -0.01917699 0.060690455
0.055788696 -0.019040467 0.0072111837 -0.054053035 0.0133886915 -0.037763547 0.031218978 -0.0003083612
-0.029282684 0.0565376 0.027522538 -0.048198067 -0.013681198 0.009116978 0.042653047 0.060710423
0.010622702 -0.009401482 -0.045975544 -0.045384638 -0.026900023 -0.017995369 -0.014101132 0.0162159
0.042175647 0.04893058 -0.05308717 -0.0035003829 0.04796082 0.05562665 -0.016851159 -0.007988187
0.04576998 0.026391927 -0.040443692 0.040957954 0.04731414 0.008046955 0.020080036 0.0046944013
-0.021213844 -0.058442 0.04164776 -0.009085007 -0.021909263 -0.018941026 -0.014328878 0.06713529
-0.015169907 -0.009684001 -0.020684734 0.006561852 0.00031840007 -0.05966671 0.04978155 0.028596949
0.05066104 0.050427426 -0.026730845 0.01369974 0.048361655 0.03941886 -0.029247373 0.045758117
0.011229374 0.061554067 -0.024313755 -0.05368093 -0.013035383 0.0605136 0.049358517 0.0035058784
0.015019356 0.041702256 -0.038576283 -0.05341165 -0.000993297 -0.025778763 -0.020143878 0.030336048
-0.0448805 -0.06024792 0.052991755 -0.0026492917 -0.01194171 -0.003947202 0.049519345 -0.019659791
-0.027365329 0.05638972 -0.03972628 -0.012911483 -0.018781131 0.043337706 -0.048221305 0.026345208
0.00014599125 -0.050220136 -0.052590214 0.042233802 -0.0060242396 0.013179574 -0.00814625 -0.04385405
0.029913794 0.061313834 -0.002685647 -0.05230238 -0.044774037 0.0088595925 0.032272395 0.025319867
0.0479925 0.026141848 -0.0041700457 0.046602137 -0.012302672 -0.017447866 -0.05936853 -0.028637828
-0.036926746 -0.008191481 0.034896616 0.012483248 0.017953066 0.05390312 0.060164735 0.054734442

2.bias f4 [256]
00000000: c821 c13c 6101 313c fef4 803d d063 65bd
00000010: a7bc 5abd b1e9 63bd 63ca d5bb 7778 6bbd
00000020: 4a03 3e3d 6659 c93c 3cd5 43bd 5bcc af3c
00000030: b65e 4cbc dc33 b33c 3be4 0f3d 4093 e33c
00000040: 225f 68bd 5e1f 49bc c735 373d fc47 0cbd
00000050: 1c1f 0c3a 50c2 2ebd f75d 17bd da19 74b8
00000060: 3059 603c c159 1d3d 0c29 993b 0cfe bf3c
00000070: 66c5 d43c f3ec acbc 33f8 613d 9546 a7bc
00000080: 555a aa3b cebb 653c e43b aebc a2f3 823d
00000090: 3ec8 583d 4d34 203d d310 ca3c 0425 333c
000000a0: 9c29 17bc 063e fcbc f6b4 373d 3a2a 03bd
000000b0: ec0d a63c 3897 64bd 0eb0 ac3c 34b4 68bb
000000c0: d216 583d 370e 9a3a 271c e03c 4ae1 23bd
000000d0: 706c 903d e351 7dbd 3ac8 873c bb25 7e3c
000000e0: 1f0a 10bd 3ac0 34bd 51fe ec3c 3452 30bd
000000f0: c8b5 b83b 3cc2 bb3a 1da6 e33b bc50 00bd
00000100: 3a46 8b3b 79a4 31bd 115e 59bd ae28 f1ba
00000110: 5d61 213d 78d0 46bd 1e79 db3a f7e2 d9bb
00000120: 0fe0 223b eb08 67bd 3844 ba3b ad6e 993c
00000130: 2eff 513d 3d2e 6cbc 4704 29bd d831 373c
00000140: ac33 2b3c 0b21 3c3d bc85 ba3c 0c61 cb3a
00000150: bcef 79bd 4941 8c3c 883d 1abc bbd4 0b3b
00000160: d685 3d3d 2a73 5c3d 45ec 87bc 4e21 85bd
00000170: 5145 bdbc 79be 7bbc 843c 0bbd 39e7 4dbd
00000180: 2330 593c 9323 cfbc de1f 7f3d 03bb 41bd
00000190: 11ab 30bd bece 6abc 1b98 113d 4b56 413d
000001a0: 1a2a d53c 89ce de3b 4403 a8bc 2b1b 5c3d
000001b0: 2a5e 6ebd df55 58bd 5233 4d3d 2e62 713d
000001c0: 92e6 67bc 0975 55bc 10e7 223d 274d 533d
000001d0: 9648 83bc 5af2 11bd b80b e03c da54 e33b
000001e0: d1c4 a9bc e469 01bd e2fe 883c 35c7 e8bc
000001f0: 0b17 863c 7928 65bb 5a70 213d 938d 63bd
00000200: 8eff f93b 5073 6b3d a063 5d3d 825d 5e3d
00000210: 09c7 783d ad0b 153d 5e7b 39bc a3ed 39bc
00000220: 2b09 213d 9c69 31bc 1ffc 623d d2bf a6bc
00000230: f029 263d 2fed 813b d3cc 15bd eee2 5ebd
00000240: 6472 68ba b9d2 033d cd8d 8dbb d7c7 d83c
00000250: 4d71 da3b 1a63 68bc 17d9 693d 35ba 4ebc
00000260: dc6d 76bd e0e6 76bd 4bea 8fbc d76b 1dbd
00000270: d877 4abd 6ecc 823d cfe1 b63b b76f 6abd
00000280: f77b d5bc f027 6b3d 48a1 453d d2e5 22bc
00000290: ee0d 693c fb5f 5cbd c9af 6ebd 29a1 c83c
000002a0: ced8 40bd ddfe 163b f9ea a23c c7bb 24bd
000002b0: 5fb3 56bd 34ce 4c3b 0db2 c1bc f11f 033d
000002c0: 4089 853d 12c5 acbc 5d36 023d 3eea 0b3c
000002d0: 3cfd 723c 212d 563c 83bf 66bd 7a0f 5cbd
000002e0: 0ae1 31bc cab4 17bd 7599 8d3b a2d9 813c
000002f0: f66e 433d eb47 483d a82c 263d 68e8 0c3d
00000300: 13aa 863c 662d 0b3b d590 6a3d 511a 8b3c
00000310: 476e a73c 685e 583d 4cde d63c 8a3d 66bd
00000320: 50d3 883c b47f 143c f358 0ebc fe36 cfbc
00000330: 0db7 52bb ccf9 dd3c a6ba 44bd a750 44bd
00000340: f5ff 7fbd 64dd 9f3c 9b7a 933c 53d2 2f3b
00000350: d407 3c3d a3ac b0bc 1125 0e3d 3503 c73c
00000360: 579e e0bc 7561 513d e610 73bd c5e9 bc3c
00000370: b080 403d 28fa 023c 6f67 003d f892 b63a
00000380: 1af5 2bbd 903d 363d 94be 0cbc e4d8 43bd
00000390: bcb5 c7bc 93a5 85bd a620 d33c 7924 75bb
000003a0: c5e1 4b3d cc8b 56bd beb5 053d 8e36 153d
000003b0: e5c3 e4bc de02 e13c b45e 283d dda0 6ebd
000003c0: adb9 97bb 0b92 c53c 1aa7 7abd 0f94 f1bc
000003d0: abe2 f23b 865f 233d ed21 a13c 13c3 94bc
000003e0: 96cf c6bc 405c 85bd e450 53bc 5b63 b33c
000003f0: 97d8 b9ba 6000 583d 4c2f 6cbd 2f6b 203d
0.023575678 0.010803551 0.062967286 -0.05600339 -0.05340257 -0.055642787 -0.0065243705 -0.05748793
0.046389855 0.024578761 -0.047810778 0.021459749 -0.012473753 0.021875314 0.035129767 0.027780175
-0.05673135 -0.012275545 0.04472902 -0.034248337 0.0005345212 -0.04266578 -0.036954846 -5.819821e-05
0.013693139 0.038415674 0.0046740826 0.023436569 0.025973033 -0.02110908 0.05516834 -0.020419398
0.0051987567 0.014021827 -0.021268792 0.063941255 0.05292534 0.039112378 0.024666226 0.010934118
-0.009226229 -0.030791294 0.044850312 -0.032022692 0.02027031 -0.055808276 0.021080043 -0.00355078
0.05275614 0.0011753504 0.027357174 -0.040009774 0.07051933 -0.06184567 0.016574968 0.015511925
-0.035165902 -0.044128634 0.028929861 -0.043047145 0.0056369044 0.0014324854 0.0069472925 -0.031326994
0.004250315 -0.043369744 -0.053068224 -0.0018398964 0.039399493 -0.048538655 0.001674447 -0.006649371
0.0024852788 -0.05640499 0.005684402 0.018729532 0.05126875 -0.014415321 -0.041263845 0.011181317
0.010449331 0.04592995 0.022768848 0.0015516593 -0.061019644 0.017120974 -0.009414084 0.0021336514
0.046270214 0.053820767 -0.016592154 -0.06500493 -0.023104342 -0.015365236 -0.03399326 -0.05026934
0.013256106 -0.025285518 0.06228625 -0.04729749 -0.04313189 -0.014331518 0.03554545 0.047201436
0.026021052 0.0067995233 -0.02050937 0.053736847 -0.05819527 -0.052816268 0.05009777 0.058931522
-0.014154093 -0.013028392 0.03977114 0.05158725 -0.016025823 -0.035631515 0.027349338 0.0069376053
-0.020723732 -0.031595126 0.0167231 -0.028415302 0.01636841 -0.003496675 0.039413787 -0.055554938
0.0076293414 0.057483017 0.054050088 0.054288395 0.06073669 0.036388088 -0.011320917 -0.011348161
0.039315384 -0.010828402 0.055416223 -0.020355139 0.04056734 0.003965042 -0.03657229 -0.054415636
-0.0008867143 0.032183383 -0.0043198825 0.026462479 0.0066663385 -0.014183784 0.0570918 -0.012617637
-0.060163364 -0.060278773 -0.017567774 -0.038432922 -0.0494307 0.06386648 0.0055811177 -0.057235446
-0.026060088 0.057411134 0.048249513 -0.009942489 0.0142245125 -0.05380247 -0.05827311 0.02449091
-0.04708176 0.0023040094 0.019887434 -0.04021814 -0.052417155 0.0031250836 -0.023644472 0.032012884
0.06520319 -0.021090064 0.031790126 0.008539734 0.014830884 0.013072283 -0.056334984 -0.053725697
-0.010856876 -0.03703765 0.004321272 0.015850846 0.047713242 0.04889671 0.04056993 0.034401327
0.01643852 0.0021236776 0.05726703 0.016980322 0.020438327 0.052824408 0.026229046 -0.056211032
0.016702324 0.00906365 -0.008688199 -0.025294777 -0.0032152564 0.027096651 -0.048029564 -0.04792848
-0.06249996 0.019514747 0.018002799 0.0026828244 0.045905903 -0.021566695 0.034703318 0.024293521
-0.027419252 0.051118333 -0.059342287 0.023060689 0.046997726 0.007994212 0.031348642 0.0013929298
-0.041981794 0.044492304 -0.008590359 -0.047814265 -0.02437865 -0.065257214 0.025772404 -0.0037405773
0.049775857 -0.052379414 0.032644026 0.03642898 -0.027925441 0.027467187 0.04110594 -0.05825888
-0.0046302886 0.02411749 -0.061194517 -0.029489545 0.007412275 0.03988602 0.019669497 -0.018159425
-0.024268907 -0.06511736 -0.012897704 0.021897962 -0.0014178929 0.052734733 -0.057662293 0.03916472

4.weight f4 [2, 256]
00000000: bd25 a93c 64f8 a63a e465 d9bb e84e 183d
00000010: 08c7 b83c 24a3 43bd ecee 8c3d 83f4 c03a
00000020: b293 933c 219f 62bc a5e8 883c e819 f6bc
00000030: fe98 893c 78ba 9c3c 8a68 6fbd 90ea 06bc
00000040: 2d2d 523d d931 38bb 4399 59bb e5e8 973c
00000050: 2d22 883c dddc 513d 6f29 813c c469 293d
00000060: e56f 0f3b 796b febb 61d3 693d cb62 83bc
00000070: f222 78bc 4bca 223d daef d2bc e5e3 97bd
00000080: 5065 0ebd 85d6 8bbb bfaa 44bd 5db2 67bd
00000090: 6e53 0abd a6fe 23bd c122 023d a448 053d
000000a0: 79f9 553d bbdc ce3c c78e d63c 6288 253c
000000b0: 25fb 453d 1b48 04bb 42c4 6abd d79f e3bc
000000c0: bdff bbbc 7c08 413d 5a63 033d 4331 babc
000000d0: 953e 0b3a 1729 e5bc a738 cfbb 0213 0a3d
000000e0: e85a 4fbd 7e01 383c ef7e 443d 0780 d7bc
000000f0: c601 53bd 3dde d33c 12e6 cebc 815a 9a3c
00000100: 4871 42bb fcbb 5c3c 78a9 853c 94e0 f63c
00000110: daab de3c 390d 983c 25b8 cd3c 4bcf 2d3d
00000120: 1e50 02bb e680 ed3c a785 50bd bd0a 70bc
00000130: 4f10 433c fa9f a9bc 81ce 5b3d a803 1dbd
00000140: e264 553d db2d fb3a b5c0 8f3c 9e9c b3bc
00000150: 773e 563c 706a 2cbd 7948 8abc ee72 02bd
00000160: eb28 0dbc 1e8b 033d 8f19 18bd fc23 113d
00000170: 45cd 65bd 6137 163d 1b3a da3a bd71 6c3b
00000180: 706a 02bd cec3 39bd 0200 3fbd 9022 85bd
00000190: e47a 003d cee9 bbbc b083 21bd 1d7c 06bc
000001a0: e4eb fbbc 0f55 f7bb aa1a 91bb f71c 893c
000001b0: 584e 47bd 1600 d4bc 71a0 243d b93d b83c
000001c0: db7e 9fbc ba82 5b3d 9e1b 493d d23e c83c
000001d0: 31e4 4d3d baa7 11bb 23c8 fe3c aa96 3e3d
000001e0: cc03 f4bc 6e68 c83c f88a ae3c 55f1 37bd
000001f0: afc8 253d 3e05 1c3d 9735 42bd aa5f 31bd
00000200: a991 80bb d540 68bb 67e9 35bd f76d 30bb
00000210: a1ce 083d f522 94bc 7482 303d 3a39 23bd
00000220: 3457 65bc 334a f4bc b8e0 0dbd b9ec 85bc
00000230: b7a2 993c 5347 273d 598d 1e3d 57c3 47bc
00000240: 837a 1b3d 53ce f13b 7af3 c33c a113 253d
00000250: 3ba3 343d 6ffa 133d 384f b63c 0cbe af3c
00000260: c115 263d 2a79 bbba 57d0 2f3d 1672 483d
00000270: 1103 95bc 93cf aeb9 d07c 6f3d 401a 023d
00000280: 7a25 06bd 3a40 183d d667 2ebc 7762 01bd
00000290: e773 b8bb 4f9e 523a 79f5 4d3d 3757 ab3c
000002a0: 0210 2f3d 94d3 e0bc e259 1b3d 070a 0bbc
000002b0: 42ed a93c 2f99 ba3c ed8f dfbc f6c9 a63c
000002c0: 601e 4b3b d144 e23c c4fe ce3b 5017 f83b
000002d0: 9420 713d e46e b1bb 89ab bc3b b116 0cbd
000002e0: 14f0 16bd 4ffe 333d 147b 5e3c c6f4 b53c
000002f0: edbc 4f3d e4e3 1b3d 31b2 d0bc 7142 4bbd
00000300: 7521 0a3c 12b3 103d 30f2 723c 6a43 5a3c
00000310: 306a 163d ed30 313d 39b1 d5bc 7523 bb3c
00000320: 8998 ebbb 300f bc3b c0e2 58bd 9c4f 2dbc
00000330: 0976 debc 25df cabc 13be 903c 833f 58bc
00000340: d7f5 d7bc e9a3 d7bc 2088 473b 2625 5f3c
00000350: 0a2d 7dbc ae03 673d 78ff 25bd 8d12 1b3c
00000360: 0083 cbbc e6ec 563c cbfa d7bc a2b1 20bd
00000370: 6dd6 38bd 5960 54bd c2c2 0fbd 06b6 213d
00000380: 1b07 a23c 3688 aabc 46fc 113d a91e 21bd
00000390: 9663 243d e0f1 153d c614 20bd f7c2 ebbb
000003a0: 91d8 883b a630 35bd 80fa 3ebb 8d68 04bb
000003b0: e813 eb3c 9696 2e3d 5f77 263d b1cc ab3c
000003c0: f03a 453d 8bd6 04bc 2847 fbbb 96b8 46bc
000003d0: 71c4 b73b d9f8 1d3d 80be 0abd c373 14bd
000003e0: 3558 0f3d b6a5 0bbd 7261 31bd a90d 49bd
000003f0: aa55 afbc 0c00 9e3c af8b b5bc 2c35 82bd
0.020647878 0.0012738821 -0.0066344608 0.037184626 0.022555843 -0.047763005 0.06881508 0.0014721308
0.018014763 -0.013831885 0.016712496 -0.03004165 0.016796585 0.019131884 -0.058449306 -0.008234635
0.051312614 -0.0028105883 -0.0033202923 0.01854367 0.016617859 0.051236022 0.015766827 0.04136063
0.0021886763 -0.0077642766 0.057086352 -0.01603832 -0.01514505 0.039743703 -0.025749136 -0.07416514
-0.034764588 -0.004267516 -0.0480144 -0.056566585 -0.03377097 -0.040037774 0.031771425 0.03253998
0.05223987 0.025251737 0.026191128 0.010103317 0.048335213 -0.002018458 -0.057316072 -0.027786179
-0.022949094 0.047127232 0.03207717 -0.022728568 0.00053117546 -0.027973695 -0.006323892 0.033709534
-0.050623804 0.0112308245 0.047972616 -0.026306165 -0.051515363 0.025862807 -0.02525619 0.018841984
-0.0029669572 0.013472553 0.01631616 0.030136384 0.027181555 0.018560993 0.025112221 0.042434018
-0.001988418 0.028992128 -0.05090871 -0.014650998 0.011905744 -0.020706166 0.053663734 -0.038333565
0.052098162 0.0019163446 0.017547945 -0.021925267 0.013076416 -0.042093694 -0.01688026 -0.031847887
-0.008615713 0.032115094 -0.03713375 0.035434708 -0.056103963 0.036673907 0.0016649397 0.0036078535
-0.031839788 -0.04535275 -0.046630867 -0.06500733 0.031367198 -0.022938635 -0.039432228 -0.008208302
-0.03075213 -0.0075479816 -0.0044282274 0.016737444 -0.0486587 -0.025878947 0.04019207 0.02249037
-0.01946967 0.053591467 0.049098603 0.024444018 0.05026645 -0.0022225217 0.031101292 0.046530403
-0.029786967 0.024463858 0.0213065 -0.044907887 0.04047459 0.038090937 -0.04741439 -0.043304123
-0.003923614 -0.0035439034 -0.044412043 -0.0026921013 0.03340018 -0.018083075 0.04309316 -0.039849497
-0.013997842 -0.029820537 -0.034638137 -0.01634823 0.018754346 0.040839504 0.03870902 -0.012192569
0.037958633 0.007379332 0.02391981 0.040301923 0.04410098 0.036127504 0.022254571 0.021452926
0.04054809 -0.0014303077 0.042923298 0.048936926 -0.018189939 -0.0003334252 0.05846864 0.031763315
-0.032750584 0.037170626 -0.010644874 -0.031588044 -0.005629051 0.0008034454 0.05028293 0.02091561
0.042739876 -0.027444638 0.037927516 -0.008486277 0.020743016 0.022778122 -0.027290309 0.020359974
0.0030993447 0.027620705 0.0063169915 0.0075711384 0.05886896 -0.0054148305 0.0057577533 -0.034201328
-0.03685005 0.0439437 0.013579149 0.022211444 0.050717283 0.03805913 -0.025475593 -0.04962391
0.008430828 0.035327025 0.01482825 0.013321737 0.036722362 0.04325955 -0.026085483 0.022844056
-0.0071898145 0.005739115 -0.05295062 -0.010578062 -0.027155893 -0.024764607 0.01766876 -0.013198736
-0.026362343 -0.026323276 0.0030446127 0.013619697 -0.015452633 0.056399994 -0.040526837 0.009464872
-0.02484274 0.013118004 -0.026364705 -0.039231904 -0.045126367 -0.051849697 -0.035097845 0.03948023
0.019778779 -0.020816904 0.035640977 -0.03933588 0.040134035 0.036607623 -0.03908231 -0.0071948725
0.0041762074 -0.044235848 -0.002914101 -0.0020203919 0.028696015 0.04262408 0.040641185 0.020971628
0.04815191 -0.008107792 -0.0076683946 -0.01212897 0.0056081344 0.038567398 -0.03387308 -0.03624321
0.03499623 -0.03409358 -0.04330582 -0.049085293 -0.021403152 0.019287132 -0.022161333 -0.06357798

4.bias f4 [2]
00000000: 4f35 9f3c 8ee2 6f3d
0.0194346 0.05856567

exp_avg f4 [256, 4]
00000000: 1464 993b f541 ea3a 332f bbba 53be 6bba
00000010: 48aa 74bb f229 43ba e9a7 f83a dbf1 1a3a
00000020: b51e faba 882d 5bba 305f 5dba f5da 05b9
00000030: a0ce 413b 19e5 373a 75ef 80ba 5114 74b9
00000040: c8d1 c239 2367 9a39 87de e1b7 30a4 2ab9
00000050: 02f2 d93a e17e 5238 b3db 5fb9 d4c8 ac39
00000060: ce38 f0ba 648c 9aba 9c05 1ab9 5de0 f939
00000070: 322e 8c3b 49a3 953a 658a 17ba dbee 9fb8
00000080: 1888 38bb 79cf f6ba c20d c7b9 3be1 393a
00000090: 3f30 adbb efa6 bcba 3da0 203b 72ce 563a
000000a0: 3b8c 5d3a ccd8 5739 cef3 28b8 4c98 0e37
000000b0: 5209 74bb fd82 9fba 2784 5c3a 8a51 d939
000000c0: 4f26 92ba 6c5a dbb9 4a07 073a d709 a939
000000d0: 6ea7 733b 61c7 de3a 9253 bdba 6204 92ba
000000e0: b309 0fbb 0904 12ba c2f4 dd38 6b37 e5b7
000000f0: c598 433b fdda e039 3c04 19ba 7710 7439
00000100: 91eb 0039 8b8e 78b9 547f 88b8 ee7c 3f39
00000110: 799d 58bb fde6 efba ed1e 3a3a 60ef 7e3a
00000120: 2bdc 1a3b a909 a0b8 90d9 fdb9 bc6e 093a
00000130: 12d3 25bb 4364 99b9 2722 2a3a d77d 41b9
00000140: ecb0 a2bb 0fa8 f8ba 82d3 713a 1b5a 303a
00000150: 2ba5 53b9 8941 7fb9 e501 1737 28af 1b39
00000160: 0674 d8bb 9bf5 c1ba 7783 fe3a 69a5 4a39
00000170: a8ee 51bb f606 c6ba ef03 be3a 9bbf 9f3a
00000180: 220c 833a 6a36 0639 a602 afb9 4e1f 7937
00000190: f51e a0b9 24bb 49b8 7ad5 ae38 097b 0137
000001a0: 5ae6 2c3b 928d f33a 557b 57b9 6116 85ba
000001b0: efb7 273b 797f b73a 6b50 b9b8 0abb 13ba
000001c0: def1 d3ba b6bc 5fba f0f0 093a 86df 213a
000001d0: 62b6 18bb ac90 adb9 d2ba 813a 606d 2739
000001e0: 7b08 813a 364b 2a3a aa87 54b9 8ff6 c6b9
000001f0: 84f4 8f3a a2a4 e339 c713 7438 b370 b4b8
00000200: 6972 b23a bf19 b1b8 1a94 f2b9 6e26 6e39
00000210: 696f 9d38 2ba8 b638 700d 90b7 bb07 02b8
00000220: 9f28 40bb d0ba 03ba 2452 9d3a 2d3f a639
00000230: 51e0 e9ba 41e8 11ba 75de 87b9 b435 b0b8
00000240: 4ec6 473b c4b6 da3a 05c3 07ba 24fb 62ba
00000250: 3bc6 8c3b f7d1 fc3a 7595 8bba 6098 75ba
00000260: 698b 8fbb 18d4 d8ba 400d 6c3a f96b 283a
00000270: 8e37 93bb 2f8c c2ba 0e16 903a 3f09 fc39
00000280: 758a a03b 4dfa 353a 24f9 acba e140 8f39
00000290: 5249 6a3a 699d a138 2436 7db9 4828 8f38
000002a0: ce88 49bb c383 7cb9 3c37 d43a d316 3739
000002b0: e5e0 923a ff0c 853a ef8c c5b7 9fb4 20ba
000002c0: 0ef6 313b 5c8c bb39 3aba 41ba 830d d638
000002d0: ac1f 8eba 90ce f5b8 c3c5 d739 0c82 8238
000002e0: 9eb7 a4bb fc6b 0cbb 7c4a a93a 5b5f 7c3a
000002f0: f00a 563a aa67 6239 016e 5036 e48e 38b7
00000300: 5195 79b9 9c18 46b9 98f4 9038 2f57 fa38
00000310: ccbc 963b 7cc6 a43a 028e a9ba 7326 c9b9
00000320: 470e 83bb 886d 9db9 b803 953a 7302 d7b9
00000330: 1c34 363a 5b7e d439 9d8b 28b8 3980 14b9
00000340: 2848 7cbb f20b 26ba 3a95 5f3a 53fc 38b9
00000350: fba9 58bb 7e4d 8aba 1d7e 673a 5916 f539
00000360: 9ccb f83a 0332 bf39 412b 37ba fc27 0cb9
00000370: 5f5b 603b 9a4b d53a 04f1 8bb9 5095 13ba
00000380: a1a1 433b 74f7 b339 de6f c7ba d21d 3fb9
00000390: 2d7b 333b 2469 113a 27e8 5fba e10d bcb8
000003a0: 6746 beba 214a f8b9 ca4f 3f3a d196 e839
000003b0: 85ba 87ba 855f 26ba 02ec 7738 e708 ba39
000003c0: 233e c0bb 17bd a7ba 3c38 c83a 9cd5 9038
000003d0: d5bf 5b3b eb2e f03a 55c6 44ba 31ed 87ba
000003e0: f8ad 5bbb dc54 03bb 7b98 983a 4aab ae3a
000003f0: 4e9e 693a 0f06 0a39 d47c abb8 dfc6 9538
0.0046811197 0.001787244 -0.0014281034 -0.0008992899 -0.003733294 -0.000744491 0.001897094 0.0005910673
-0.0019082638 -0.00083609717 -0.0008444665 -0.00012765436 0.002957262 0.0007015034 -0.0009836989 -0.00023277222
0.00037158863 0.00029450012 -2.6925713e-05 -0.00016273628 0.001662791 5.0186067e-05 -0.00021348782 0.00032956025
-0.0018327476 -0.0011791107 -0.00014688674 0.00047660145 0.004277968 0.0011416461 -0.0005780815 -7.626201e-05
-0.002815729 -0.0018830142 -0.00037966488 0.0007090752 -0.0052852924 -0.0014393012 0.0024509572 0.0008194215
0.0008451377 0.00020584761 -4.0281382e-05 8.499319e-06 -0.0037237 -0.0012169775 0.0008412026 0.00041450217
-0.0011150333 -0.00041838305 0.00051509275 0.00032241523 0.0037178653 0.0016996675 -0.0014444462 -0.0011140222
-0.002182585 -0.00055700593 0.00010583691 -2.7324733e-05 0.0029845696 0.00042887768 -0.0005837118 0.00023275787
0.00012294787 -0.00023704224 -6.508702e-05 0.0001826172 -0.0033052845 -0.0018303093 0.0007099945 0.0009725001
0.0023629765 -7.631194e-05 -0.00048418017 0.0005242636 -0.002530281 -0.00029257135 0.00064900744 -0.00018452793
-0.0049649384 -0.0018970984 0.00092249375 0.0006727294 -0.00020184058 -0.00024343109 9.0007425e-06 0.00014847203
-0.006605628 -0.0014797928 0.0019417842 0.00019325841 -0.003203312 -0.0015108276 0.0014497022 0.001218784
0.0009998123 0.00012799507 -0.00033380574 1.4848845e-05 -0.00030540643 -4.8096423e-05 8.33673e-05 7.7176455e-06
0.0026382417 0.001858162 -0.00020549943 -0.0010153764 0.002559181 0.0013999782 -8.8364664e-05 -0.0005635476
-0.0016170104 -0.0008534895 0.0005262038 0.000617497 -0.0023302068 -0.0003310492 0.0009897596 0.00015967106
0.0009844446 0.00064961927 -0.00020268434 -0.00037949203 0.0010982906 0.00043419475 5.8192552e-05 -8.604061e-05
0.0013614419 -8.444813e-05 -0.0004626818 0.00022711765 7.507095e-05 8.70976e-05 -1.7172395e-05 -3.1001615e-05
-0.0029321087 -0.00050250906 0.0012002629 0.00031709057 -0.0017843341 -0.00055659196 -0.0002591495 -8.402337e-05
0.003048319 0.0016686548 -0.00051789015 -0.00086586387 0.004296092 0.0019288649 -0.00106494 -0.0009368714
-0.0043806327 -0.0016542701 0.000900466 0.00064247806 -0.0044927066 -0.0014842803 0.0010992901 0.00048072074
0.004899318 0.00069419 -0.0013196808 0.00027323424 0.0008937317 7.706398e-05 -0.00024148129 6.826274e-05
-0.0030751708 -0.00024081678 0.0016190778 0.00017460743 0.001120594 0.0010150968 -2.3549857e-05 -0.000613043
0.0027154717 0.00035771995 -0.00073901156 0.00010206832 -0.0010843179 -0.00011720986 0.0004115534 6.223106e-05
-0.0050267717 -0.0021426668 0.0012915875 0.0009627246 0.0008165082 0.00021591657 3.1058446e-06 -1.1000524e-05
-0.00023802115 -0.00018891919 6.912014e-05 0.00011937168 0.004600143 0.001257136 -0.0012935998 -0.00038366354
-0.0039995047 -0.0003002698 0.0011368906 -0.0004100982 0.0006950514 0.00040529933 -4.0184346e-05 -0.00014162147
-0.0038495157 -0.00063341775 0.00085290114 -0.00017641606 -0.00330603 -0.0010551659 0.0008830743 0.00046746692
0.0018981579 0.0003646762 -0.00069873413 -0.00013366336 0.003423415 0.0016273141 -0.00026691717 -0.0005629854
0.0029850977 0.00034325907 -0.0015215834 -0.00018226288 0.002738665 0.0005546978 -0.00085413683 -8.967124e-05
-0.0014516831 -0.00047357476 0.0007297961 0.00044362855 -0.001035527 -0.0006346631 5.910919e-05 0.00035483317
-0.0058667823 -0.0012797442 0.0015275548 6.906243e-05 0.003353109 0.001832453 -0.00075063604 -0.0010370371
-0.0033520442 -0.0020039594 0.0011642122 0.0013326195 0.0008911834 0.00013162963 -8.1771665e-05 7.141916e-05

exp_avg_sq f4 [256, 4]
00000000: 3ec6 7837 7d95 2738 f67f 4937 be82 1b38
00000010: 18d1 fe37 1f6a c938 0744 0838 e097 c338
00000020: 008b b136 aaea bd37 734f c236 0430 b037
00000030: 4847 0e37 f299 b037 5c1a 0537 87e5 aa37
00000040: 715d 4335 0ddb 1a36 6b95 3035 2942 1336
00000050: e4c9 4435 128e aa35 6cf6 7b35 301b 8635
00000060: 7a79 bd37 e941 a838 5e13 cd37 495f a438
00000070: 9514 e037 92f3 ae38 a237 ee37 948a a938
00000080: 1388 b937 c5f0 9c38 1a33 c337 6f5e 9838
00000090: 3f47 2b38 c1e7 0b39 0466 3538 a5b5 0739
000000a0: 15c6 f634 a05b d935 f6aa 0435 42f8 ac35
000000b0: 6587 7a37 05bb 4038 d805 8137 5683 3a38
000000c0: c173 9e36 b355 8f37 f244 c636 46ab 8c37
000000d0: 2bd5 d537 b590 ab38 3288 e837 61ae a638
000000e0: 249b b036 5358 9737 e716 cf36 9abc 9037
000000f0: d9ed 7836 3f0a 1837 9e81 7a36 6913 1337
00000100: 8c3f 5a33 233a 9e34 da00 e833 b041 5834
00000110: 8d9e f436 f16f 4e37 3203 ae36 d764 3837
00000120: 9872 e035 5a5f 4936 ca5c 0236 2cdc 4336
00000130: 5bde 6336 bde6 de36 c917 5836 1c5a d936
00000140: 2467 2738 6621 0239 5e54 2e38 aae8 fa38
00000150: b39f bd34 573e a035 b9d9 1635 0207 6535
00000160: a822 3438 f97b 1339 ef22 3338 312c 0e39
00000170: ba80 cf37 99e0 b138 92bb f037 f1a8 ad38
00000180: fdc6 0235 f34d 4a35 6b3b 1035 b2f1 4035
00000190: 34ef 5334 f022 6735 46eb c934 b056 2e35
000001a0: 6516 f736 8506 8837 e8cd d036 a680 7d37
000001b0: 27a9 4b37 2393 1938 a4a1 4437 6cf9 1338
000001c0: 01ef 1037 a8bb fe37 6638 0437 ab67 ef37
000001d0: c35e da36 28d3 8737 1406 d336 6913 8237
000001e0: bf55 0835 a8e4 9735 14d6 d434 c01c 7c35
000001f0: cbe9 d135 dc92 ce36 e894 b835 1db2 b836
00000200: f835 1a35 1694 9035 519d 2c35 9c32 4a35
00000210: 5cc1 c535 5b02 ef36 3d9c db35 801d e336
00000220: 0e1a 9a37 0293 5e38 9ab5 8c37 d106 5438
00000230: 7c0b 8b36 7648 8137 ed76 a236 da01 7837
00000240: 1c2f a437 f5a9 8738 d67e ac37 4f8b 8338
00000250: 43a9 ac37 f9b1 8138 8ca0 a937 647e 7738
00000260: db90 2338 6ac4 0639 5488 3038 94f2 0239
00000270: c334 7f37 ac35 3038 f6c3 5437 f634 2738
00000280: 19b6 a337 a892 5938 4424 a437 3626 5638
00000290: 79a5 b534 b3c9 4235 6ba1 0a35 3a60 0e35
000002a0: 563e 5337 179a 0538 2248 4c37 b7b1 fd37
000002b0: 1826 1337 3ab0 f937 50b3 1637 2608 f337
000002c0: a55c b536 298d 7f37 3fdd de36 aa52 7637
000002d0: 242b 8035 2214 2836 38d6 4635 0a16 0436
000002e0: f49f 6137 369d 0138 a9c0 0e37 e598 e837
000002f0: 70de ec34 d367 d635 57fd c934 c0f1 ac35
00000300: 6c26 fc33 b2a6 a734 9fdb 1f34 4763 8434
00000310: 0de2 8f37 52c7 4438 860f 8137 bee1 3d38
00000320: e7ed 6b37 d7cf 1a38 53f5 7d37 83cb 1838
00000330: 7765 2a36 8363 3e37 0faa 4336 7af6 3537
00000340: 5977 0b37 4e94 a337 35a4 0237 df4f 9f37
00000350: 52a4 4c37 483a 2738 34e3 5e37 9db3 2138
00000360: 7842 9d36 9588 5737 2151 9b36 d9d2 4e37
00000370: d0d0 6e37 a06a 3438 b79d 7137 8d3c 2e38
00000380: d84a 0537 32d2 8c37 0655 ff36 56e0 8637
00000390: 4d58 e736 a6c5 8537 093d dd36 e22b 8137
000003a0: dfb5 6936 baa1 1537 77e2 2b36 dc8d 0a37
000003b0: acd8 6436 2081 5b37 5837 6a36 f725 5137
000003c0: 8fd5 4938 9243 2039 5bcd 5238 9478 1c39
000003d0: c96c fe37 a71e d138 2ea2 0438 435e ca38
000003e0: 9653 4137 2308 f937 d5f5 3237 f4b3 e837
000003f0: 218c dd34 9895 b835 4d75 da34 e612 9935
1.4828109e-05 3.9955125e-05 1.2010327e-05 3.7076643e-05 3.0376526e-05 9.6041935e-05 3.2488282e-05 9.3266135e-05
5.291193e-06 2.263983e-05 5.7908996e-06 2.1003194e-05 8.480456e-06 2.1052521e-05 7.933555e-06 2.0372461e-05
7.2779136e-07 2.3075293e-06 6.578254e-07 2.1943217e-06 7.330948e-07 1.2707335e-06 9.386338e-07 9.991691e-07
2.2587123e-05 8.023141e-05 2.4446923e-05 7.837878e-05 2.6712465e-05 8.342335e-05 2.8397717e-05 8.08436e-05
2.2117083e-05 7.4835065e-05 2.3269607e-05 7.2655144e-05 4.083593e-05 0.00013342408 4.3248772e-05 0.00012942271
4.5965194e-07 1.6194426e-06 4.9422613e-07 1.2887251e-06 1.4932685e-05 4.5950543e-05 1.538072e-05 4.4468172e-05
4.7222425e-06 1.7086835e-05 5.908886e-06 1.6769056e-05 2.5490843e-05 8.180869e-05 2.7719976e-05 7.9479774e-05
5.2632695e-06 1.8041732e-05 6.171747e-06 1.7253962e-05 3.7093325e-06 9.062292e-06 3.732835e-06 8.766402e-06
5.0814876e-08 2.9472093e-07 1.0803497e-07 2.0140465e-07 7.2902244e-06 1.230462e-05 5.185976e-06 1.0990733e-05
1.6722652e-06 3.0006836e-06 1.942552e-06 2.9185421e-06 3.3955064e-06 6.642977e-06 3.2200353e-06 6.477594e-06
3.991196e-05 0.00012410208 4.1563406e-05 0.00011964266 3.532019e-07 1.1939072e-06 5.619618e-07 8.5319346e-07
4.294762e-05 0.00014065196 4.270946e-05 0.00013558638 2.4736266e-05 8.481852e-05 2.8697574e-05 8.2807506e-05
4.871834e-07 7.5364295e-07 5.3730645e-07 7.1877287e-07 1.9737928e-07 8.6105047e-07 3.7610351e-07 6.49462e-07
7.3637807e-06 1.62155e-05 6.2228537e-06 1.5109928e-05 1.2139127e-05 3.6615074e-05 1.1720145e-05 3.5279823e-05
8.638716e-06 3.0366544e-05 7.880944e-06 2.8539294e-05 6.507938e-06 1.6191581e-05 6.2889976e-06 1.5506246e-05
5.0788725e-07 1.1316924e-06 3.964384e-07 9.391915e-07 1.5639756e-06 6.156375e-06 1.3752406e-06 5.5043624e-06
5.7448005e-07 1.0771935e-06 6.430392e-07 7.532451e-07 1.4733919e-06 7.1230293e-06 1.6362243e-06 6.7685614e-06
1.8370363e-05 5.3065836e-05 1.6773865e-05 5.0551087e-05 4.1438598e-06 1.541174e-05 4.841821e-06 1.4782383e-05
1.957226e-05 6.4689586e-05 2.056306e-05 6.272515e-05 2.0582816e-05 6.184349e-05 2.022113e-05 5.90071e-05
3.8997136e-05 0.00012852406 4.2088635e-05 0.00012488134 1.5211469e-05 4.2011656e-05 1.268181e-05 3.9865226e-05
1.951591e-05 5.1873416e-05 1.9567211e-05 5.1057163e-05 3.3834274e-07 7.256414e-07 5.16439e-07 5.303915e-07
1.2591094e-05 3.185318e-05 1.2176142e-05 3.0242705e-05 8.770752e-06 2.9765175e-05 8.982446e-06 2.8971652e-05
5.4050056e-06 1.5232051e-05 6.641872e-06 1.4681989e-05 9.549299e-07 2.504567e-06 7.407248e-07 1.9682361e-06
1.3448287e-05 3.090241e-05 8.508717e-06 2.7727752e-05 4.412027e-07 1.5974459e-06 3.7623496e-07 1.2885357e-06
1.1741653e-07 3.122746e-07 1.4887927e-07 2.465915e-07 1.7152192e-05 4.6915673e-05 1.5385227e-05 4.527135e-05
1.40624825e-05 3.6910027e-05 1.5137094e-05 3.642916e-05 2.5391034e-06 1.1348052e-05 2.9156251e-06 1.0845828e-05
8.312833e-06 1.9500174e-05 7.786836e-06 1.899147e-05 1.2197606e-05 3.987018e-05 1.3285131e-05 3.855267e-05
4.6867026e-06 1.2846799e-05 4.6288046e-06 1.2327649e-05 1.4234523e-05 4.3014647e-05 1.440144e-05 4.1541225e-05
7.944844e-06 1.678718e-05 7.6094902e-06 1.607851e-05 6.894616e-06 1.5946873e-05 6.5934187e-06 1.5398433e-05
3.4825568e-06 8.918747e-06 2.5612806e-06 8.25847e-06 3.4100767e-06 1.30834815e-05 3.4900931e-06 1.246621e-05
4.8121026e-05 0.00015283961 5.0259154e-05 0.00014922238 3.0329817e-05 9.971606e-05 3.1622294e-05 9.649668e-05
1.1523158e-05 2.9686902e-05 1.0666864e-05 2.7740352e-05 4.1266415e-07 1.3752606e-06 4.0691012e-07 1.1404888e-06
