distributed_shared/worker_logs/worker_8/models/model_episode_80.pt (torch, 816842 bytes, 16 tensors)

0.weight f4 [256, 4]
000000 bb 33 c6 3e cf db fe 3e ae b9 f6 be 6b d3 ae be
       0.38711342 0.49777076 -0.48188537 -0.34145674
000010 76 44 5a bd d2 e0 fa 3e 66 94 a8 3e 4f 0f eb 3e
       -0.053287946 0.4899965 0.3292572 0.45910117
000020 84 5c be bd 1c b5 1d be 73 1d 8e be e2 57 9b 3e
       -0.0929499 -0.15401119 -0.27756843 0.30340487
000030 2e c1 ba 3d c0 3d b0 3e 19 58 ba be a7 32 09 3c
       0.09118877 0.34422112 -0.36395338 0.008373893
000040 b5 12 0d be 05 a0 bc be 07 33 37 3e 2d cd 87 be
       -0.13776667 -0.36840835 0.17890559 -0.26523724
000050 0c 49 99 3e ca 72 5f be ee 43 c3 bc 37 ee 3b 3d
       0.29938543 -0.21821132 -0.023836102 0.045881476
000060 23 eb 9b be 5f 50 a4 3e 18 3c bd 3e b8 64 fd be
       -0.30452833 0.32092568 0.3695991 -0.49490905
000070 70 27 8c be 88 b3 e6 3e 1e c7 85 3e 4f 99 88 bd
       -0.27373838 0.45058846 0.26128477 -0.06669866
000080 54 3e 74 3c b0 72 87 be 48 86 7d be 84 9c a8 3e
       0.014907438 -0.26454687 -0.24758255 0.32931912
000090 34 79 78 3e d0 16 86 be f3 b0 9e be 8c cf 33 3e
       0.24264985 -0.2618928 -0.30994377 0.17559642
0000a0 98 75 70 be 3e 11 fa bc 8d a8 bb be bc 06 bf bd
       -0.23482358 -0.0305258 -0.36652032 -0.09327456
0000b0 c9 5a 88 be 96 08 7f 3d ae 7c 45 be 0d d0 c7 be
       -0.26631764 0.062264048 -0.19285843 -0.39025918
0000c0 60 22 b5 3d ff 20 75 be 56 68 b4 bd b3 61 9c bb
       0.08844447 -0.23938368 -0.08808963 -0.004772389
0000d0 fe 2f 14 be b2 f8 a6 3e 67 78 de 3b e1 91 47 3e
       -0.14471433 0.32611614 0.0067892554 0.19489242
0000e0 3e 50 f8 3e 16 16 fb 3e 53 2a b5 be 70 d7 e8 3e
       0.4849872 0.49040288 -0.35383853 0.45476866
0000f0 09 95 4a 3e 01 d7 af 3d e8 42 f0 3d 8f c0 b0 3d
       0.19783415 0.085859306 0.11731511 0.08630478
000100 2e 1b cf be 52 fa ad 3e 93 8f ae 3e b5 16 26 3d
       -0.40450424 0.33980042 0.34093913 0.040549
000110 74 0a 34 3e 66 9a 2e 3e 9b c2 aa be d5 60 35 be
       0.17582113 0.17051086 -0.33351597 -0.1771272
000120 06 15 8b 3e c2 32 56 3e c9 d9 82 3e 0b 50 bc bd
       0.27164477 0.209178 0.25556782 -0.091949545
000130 b2 0a 91 3e e9 7c e4 be 73 5d a8 be 02 30 94 3e
       0.28328472 -0.4462655 -0.32883796 0.28942877
000140 b3 e8 38 be 25 c6 7a be 57 af 65 3c 99 96 f2 3e
       -0.18057518 -0.24489649 0.014018855 0.47380522
000150 03 aa 00 3f 75 70 9d 3e 5a 4d e7 3d f7 7b a3 be
       0.5025942 0.3074986 0.112940505 -0.31930515
000160 5f 85 b7 3d 2e 23 06 bf b1 3c c3 3e 86 f6 e6 3e
       0.089609854 -0.5239743 0.3813224 0.45109957
000170 e0 64 00 be b2 d4 cc 3e 8b 4b 5e be a0 12 5e 3e
       -0.12538481 0.40006024 -0.21708505 0.21686792
000180 85 12 b9 3e e2 ab ae be 54 6e b2 be d0 1f c7 be
       0.36146942 -0.3411551 -0.348498 -0.3889146
000190 eb a4 89 3d 12 7a 15 be 37 4a 99 bd 39 34 97 bc
       0.06720909 -0.14597347 -0.074848585 -0.018457519
0001a0 2a 20 35 3e 77 e0 1b 3e 2c be b4 be ec 71 d8 be
       0.17688051 0.15222345 -0.3530134 -0.42274415
0001b0 fd 92 d5 bc b9 18 0f be d5 c6 d3 bd ec 24 02 bf
       -0.026071066 -0.13974275 -0.103406586 -0.5083759
0001c0 a8 2c 2c 3e 97 1b c4 3d eb 65 4e be c4 4e 83 be
       0.1681391 0.09575575 -0.20156066 -0.2564603
0001d0 9e 68 ba bd 91 e0 a4 3e a5 8d 9b be 0e 1f 10 3e
       -0.091019854 0.3220258 -0.30381504 0.14074346
0001e0 36 95 b7 be aa 0d 94 be 11 8c 6e be bb 6f 6b be
       -0.35856026 -0.28916675 -0.23295619 -0.2299184
0001f0 2a bf bb 3d f2 6d 4d be 5d 61 f3 3e 00 55 99 3e
       0.09167321 -0.20061472 0.4753522 0.29947662
000200 73 b6 17 be bd d2 e3 3e 3a 1e 17 3d f4 96 4b be
       -0.14815693 0.44496718 0.03689406 -0.19881803
000210 91 33 24 3e 86 12 97 3e 04 61 bb be af 39 7a 3e
       0.16035296 0.2950632 -0.36597455 0.24436067
000220 16 eb 9b be 89 01 d5 be c7 52 37 be d2 7a 46 3e
       -0.30452794 -0.41602734 -0.17902671 0.1938279
000230 74 3f fb 3e 2a 69 c2 3e dc 2f f2 3e 2e 13 a3 3e
       0.49071848 0.3797086 0.4730214 0.3185057
000240 a5 4e d6 be ed f3 77 3e 99 5e 57 3e c8 0a ab bd
       -0.41856876 0.24214144 0.2103218 -0.08351666
000250 26 cd b0 bd 1c fc af 3e a0 15 ff 3d 87 0e e4 be
       -0.08632879 0.34372032 0.124552965 -0.44542333
000260 5e 24 cb be 51 fc b6 3e 51 df fc 3e cc a4 d6 3e
       -0.39676183 0.35739377 0.49389127 0.41922605
000270 88 e1 d7 3e 4a e7 a1 be ae 62 d0 bd 69 c7 b9 3e
       0.42164254 -0.31621772 -0.10175072 0.3628495
000280 c3 89 a2 bd e7 28 e1 be e0 75 72 be e2 12 cd be
       -0.07936432 -0.4397652 -0.23677778 -0.4005347
000290 62 94 7d bd 7a 89 fc 3e da 66 82 3e ae 16 5e 3e
       -0.061909087 0.49323636 0.25469095 0.21688339
0002a0 5e 86 ed 3e 5a 49 ed 3d 54 22 49 3e 4d 7a 01 bc
       0.46391577 0.11586256 0.19642001 -0.007902694
0002b0 7f fb 22 3e a1 5c 30 3e 4f ca 1f be 9d b2 47 3e
       0.1591625 0.17222835 -0.15604518 0.1950173
0002c0 21 32 00 3f e0 8b dc be 76 e0 ed bd c1 a9 b7 bc
       0.5007649 -0.43075466 -0.11615078 -0.022419812
0002d0 d3 31 67 be af 7c 96 3e 5f 44 d3 bd a2 39 97 3e
       -0.225776 0.29392 -0.10315775 0.29536158
0002e0 ec 65 a1 be 3f f8 a9 3e 0d a8 d6 be 2a b4 59 3e
       -0.31523073 0.3319721 -0.41925088 0.21260133
0002f0 a3 f6 af 3e ac 42 c8 be 8c 16 cb be f8 7a be 3e
       0.34367856 -0.39113367 -0.3966564 0.37203193
000300 a7 32 57 3e a7 76 df be 3b 94 88 3e 7c fd 57 3e
       0.21015416 -0.43645212 0.2667559 0.2109279
000310 77 78 05 3f af 95 02 3f 85 20 a6 3e dc d0 f4 be
       0.5213694 0.5100965 0.32446685 -0.47815597
000320 60 69 95 3e 19 f5 f8 3d 09 a7 24 be 3b d4 9f 3d
       0.29181957 0.12156124 -0.16079344 0.078041516
000330 36 be 81 3d dc cf f3 be 84 d7 8f be d9 e2 eb 3d
       0.06335108 -0.47619522 -0.28094113 0.11517877
000340 5f 10 c0 be 7f 91 a2 bd 28 43 84 3e 49 87 8e 3d
       -0.3751249 -0.079379074 0.25832486 0.06959397
000350 2f 47 72 3d c9 a7 a4 be d7 52 8c be d8 eb c6 be
       0.059149917 -0.3215926 -0.27406952 -0.3885181
000360 8b d0 83 3e 38 53 e8 be 8f 80 c6 be 5d 90 2e 3e
       0.25745043 -0.4537599 -0.38769957 0.17047258
000370 27 04 de 3e b3 fa cd be 83 24 05 3e d4 83 1f be
       0.43362543 -0.4023033 0.1300221 -0.15577632
000380 25 f4 ca be af ca dc 3d 8d d9 1c 3e 13 ce d3 3d
       -0.39639392 0.10780846 0.15317364 0.1034204
000390 86 99 af be 85 10 37 be ce 22 be be 1f f6 9b 3e
       -0.34296817 -0.17877395 -0.3713593 0.30461213
0003a0 14 8c ef 3e d2 60 d4 3e 05 73 4b be 18 e8 87 be
       0.4678656 0.41480118 -0.19868095 -0.2654426
0003b0 79 cb f1 bd 87 5a 53 3e b3 f2 ee 3d 16 01 fd bc
       -0.118063875 0.20640002 0.11667385 -0.030884307
0003c0 3a eb 81 3d 92 71 10 be ad 22 28 3d 2b 69 d5 be
       0.06343694 -0.14105824 0.041048694 -0.416818
0003d0 53 f7 57 3d a5 7e dd be 01 3e 8d be 73 25 d6 be
       0.0527261 -0.43260685 -0.27586368 -0.41825446
0003e0 70 d6 d1 be 46 34 42 be f8 3d c5 bd 09 15 60 be
       -0.40983915 -0.18965253 -0.0963096 -0.21883024
0003f0 9a 2f 7a 3e 15 f5 23 be 14 18 db be 70 1b 94 3e
       0.24432221 -0.1601146 -0.42791808 0.28927183

0.bias f4 [256]
000000 67 71 31 3e 9d 5b b4 be 8e fb 61 3e 31 8f da be
       0.17328416 -0.35226145 0.22068617 -0.4268737
000010 18 4a 6e 3e 4c 6d 1a 3e 2b 76 5e be 73 6f ca 3d
       0.23270452 0.15080756 -0.21724765 0.098845385
000020 3e d5 4a bd 0e db e3 bd b3 98 db 3e a2 4f b4 3d
       -0.04951977 -0.11125766 0.42889938 0.08804251
000030 97 87 d3 be 57 18 bb 3e 4e 90 97 3e 95 d0 49 be
       -0.41314384 0.36542007 0.29602283 -0.19708474
000040 44 63 82 be 1c 7d b3 3c 52 ac 6a be 89 83 a4 3e
       -0.2546636 0.021910243 -0.22917297 0.32131603
000050 71 a9 f1 3e 00 fa b9 be 71 0b 5b 3e 3f 9b 62 bd
       0.47199586 -0.36323547 0.21391083 -0.055323835
000060 77 af 95 3e e7 00 d4 3d 07 21 c1 be 66 b3 c1 3e
       0.29235432 0.103517346 -0.3772051 0.37832183
000070 32 10 56 3e da 9e 92 3e 1e 29 a0 be d7 d4 22 be
       0.20904616 0.2863682 -0.3128137 -0.15901504
000080 6a f5 6a be db 6a b4 3e 81 2b b2 3d 1c 0b a9 3d
       -0.2294518 0.35237774 0.08699704 0.08254072
000090 7d 36 84 be 81 29 c5 be 52 d7 b3 be fe 74 6a be
       -0.2582282 -0.38508227 -0.35125214 -0.22896191
0000a0 2f 1e ae be f9 d5 9e be b9 23 91 3e b5 3c ad be
       -0.34007403 -0.31022623 0.28347567 -0.33835378
0000b0 c3 fd d2 be 4c 5d 1f be 73 b8 c7 be 24 32 b9 bd
       -0.4120923 -0.15562934 -0.3900791 -0.09042767
0000c0 15 b5 c1 be 60 e4 21 3e d2 6d b8 3e 4e fc 3d be
       -0.37833467 0.15809774 0.36021286 -0.18553278
0000d0 a0 64 f9 bd a1 07 a9 3e 26 ec d1 be 85 1b 2e be
       -0.12177396 0.33013633 -0.4100048 -0.17002685
0000e0 f9 14 bf be 80 66 44 be cc b3 c8 be 81 19 a0 3e
       -0.37320688 -0.19179726 -0.39199674 0.31269458
0000f0 a9 1d 27 3e 3c 96 7a bb 47 78 cc 3e 0c 6c ad 3e
       0.16319908 -0.003823652 0.39935514 0.33871496
000100 27 cf 99 be 8a 9c a4 bd b3 5c 13 be d3 56 c9 be
       -0.30040857 -0.0803767 -0.1439083 -0.39324054
000110 b4 4b b1 be 37 7f 4a be 51 be d6 3e 90 e2 5e be
       -0.3462807 -0.19775091 0.41942075 -0.21766114
000120 5f 70 80 be c3 ea a0 be cd fa aa 3e af a1 b8 be
       -0.25085732 -0.3142911 0.3339447 -0.36060855
000130 8d 4b 50 be f7 4f 67 3e 56 3a ea 3e 7c 85 40 3e
       -0.2034132 0.22589098 0.45747632 0.1880092
000140 72 d0 c6 3e 87 97 e9 be 28 1a 41 3e 15 04 71 3e
       0.38830906 -0.4562342 0.18857634 0.23536713
000150 ad f6 ad be 3d e4 b6 3e cd 86 d9 be 80 4c 8f bd
       -0.3397726 0.35721007 -0.42485657 -0.06997013
000160 be 52 ba 3d a7 03 2a 3d cd ba 54 be fc c3 f3 be
       0.09097813 0.04150739 -0.20774384 -0.47610462
000170 d2 22 51 3b 54 4e 40 be 5e b6 a0 3d fe 8b db 3d
       0.0031911624 -0.1877988 0.07847284 0.10720061
000180 f6 c1 56 be e8 d9 d5 be af 9d 8e be ab 93 b7 3e
       -0.20972428 -0.41767812 -0.27854678 0.3585485
000190 6f 21 a5 be 92 3d a2 3e 30 b1 d3 be a9 d8 06 be
       -0.3225207 0.316876 -0.4134612 -0.13168587
0001a0 5f 31 16 3e 18 dd e9 bd fd 79 95 be 85 bb ed 3e
       0.14667271 -0.114191234 -0.29194632 0.4643213
0001b0 c3 f5 e4 3e 54 19 ba 3e 3a 3a a0 be 91 3b c6 be
       0.4471875 0.3634745 -0.31294423 -0.3871732
0001c0 53 30 85 bd f8 98 d7 be 8e 52 4f be e8 f5 01 3c
       -0.06503358 -0.42108893 -0.20246336 0.007932164
0001d0 a4 5f a2 be 31 23 b0 be f8 17 45 be 25 0d 6b be
       -0.31713593 -0.3440185 -0.19247425 -0.22954233
0001e0 16 f1 57 be ff c2 e9 be 2c 2f 8f 3c 1b 10 f8 3e
       -0.2108806 -0.45656583 0.017478548 0.48449787
0001f0 0c 9a e8 be 60 6b 2c be 19 a7 cf 3d 24 e6 2e 3e
       -0.45430028 -0.16837835 0.10139293 0.17079979
000200 5f 44 7d 3d d9 16 c3 3e c5 25 be 3e 28 4f 17 be
       0.061832782 0.3810337 0.3713819 -0.1477629
000210 ed c0 e5 3d 74 99 98 bc bb f0 93 be 54 1d e7 3e
       0.11218438 -0.01862786 -0.288946 0.45139563
000220 95 81 36 3e b2 5d 19 3e 4b 7d a5 be b5 74 a2 3e
       0.17822869 0.14977148 -0.32322153 0.31729665
000230 a7 e4 8a be 98 92 e6 3d 87 fd f2 3e 59 2a db be
       -0.27127573 0.11258429 0.4745905 -0.42805746
000240 b3 e8 99 3d bb 80 f2 be 32 51 ae 3d 6c ff 8a 3e
       0.07515087 -0.4736384 0.085115805 0.27147996
000250 7e c1 ba 3e b3 77 9c be fa 85 9a bd d5 86 fe 3e
       0.36475748 -0.30560073 -0.07545085 0.49712244
000260 cd 9a dc 3d e0 95 ca 3e 9d 96 02 3e bd 65 b9 bd
       0.107717134 0.3956747 0.12752767 -0.09052608
000270 12 de 8b be 14 53 fc be 59 35 98 3d bc 86 01 3e
       -0.27317864 -0.49282134 0.0743205 0.12649053
000280 3e 41 8f 3e 24 9d 60 3d 1e 2d 9a 3e c7 20 7f 3e
       0.27979463 0.05483736 0.30112547 0.24914847
000290 2c 54 4c be 4b 54 9d 3d 75 e6 46 3e 41 88 ee 3e
       -0.19953984 0.07682093 0.1942385 0.46588328
0002a0 e0 65 36 be 72 c2 d3 be 57 05 4f 3e 42 6c 8b be
       -0.178123 -0.41359288 0.2021688 -0.27231032
0002b0 20 89 a7 3d a3 89 e9 be 44 53 e2 be 0f bd 1f bd
       0.081804514 -0.4561282 -0.44204152 -0.03899866
0002c0 81 7a 85 3e 44 b1 ee be 92 70 15 3e 9a 59 e3 be
       0.26070026 -0.46619618 0.14593723 -0.44404298
0002d0 93 55 93 3e 45 f7 46 be da ac ff bd f7 d3 3a be
       0.28776225 -0.19430263 -0.12484141 -0.1824492
0002e0 d2 c3 7f be 2e 95 c8 be fb b6 d5 be 13 e3 b6 be
       -0.24977043 -0.39176315 -0.41741166 -0.3572012
0002f0 58 88 eb be a6 4f 3a be 57 d8 86 be fe ff 4b be
       -0.4600246 -0.18194446 -0.2633693 -0.19921872
000300 08 ce 00 be 7b 55 d9 be 52 08 c5 bc c9 c9 4a be
       -0.12578595 -0.4244803 -0.024051819 -0.19803537
000310 3f f3 38 bd 94 30 ec be a0 d2 85 be 25 d8 8f 3c
       -0.045153853 -0.46130812 -0.26137257 0.01755912
000320 3f 6d 57 3d 15 77 1d 3e 87 c1 1e bd db 42 ae bd
       0.05259442 0.15377457 -0.03875878 -0.085088454
000330 9b ff fa 3c 49 a5 79 be 4d a1 3a 3e f9 1e 62 3b
       0.03063946 -0.24379458 0.18225594 0.0034503324
000340 a0 57 a1 be ec ff d1 3c 98 d8 f4 3e f7 ec 78 3d
       -0.31512165 0.025634728 0.47821498 0.060772862
000350 d9 25 f2 3e b8 c9 9d 3e 3c 1d dd be 5f 31 eb be
       0.472945 0.30817962 -0.43186367 -0.45936105
000360 a4 e2 e8 be 29 71 96 bb 8f 5f 05 be 67 ab 8b 3e
       -0.45485413 -0.0045911265 -0.13024734 0.27279207
000370 6d be c8 be 30 ff bc 3e 5e 99 d3 3e e3 31 89 be
       -0.39207783 0.36913443 0.41327947 -0.26795873
000380 fa 64 ce bc 06 b4 eb be ba 62 e1 3c 53 3e da be
       -0.025194634 -0.46035784 0.027512897 -0.42625675
000390 68 e4 90 3e 81 7f 9a 3e 19 c9 0f be f5 39 fb 3d
       0.2829926 0.30175403 -0.14041556 0.12266914
0003a0 3d 71 8e be 08 33 a7 3e 77 9b 88 be b3 3c 65 3e
       -0.2782077 0.3265612 -0.2668111 0.22386436
0003b0 2a 53 ec 3e ba 58 76 3e 3a a9 18 be 59 a4 a9 be
       0.461572 0.24057284 -0.14908305 -0.331332
0003c0 a1 07 69 3e cc d9 bb 3e 72 9e 2a 3e 53 ef 32 bc
       0.22756816 0.36689603 0.16662005 -0.010921317
0003d0 29 8d 92 be 7d 0f e1 3e e8 b5 e9 bd 4f d7 a5 be
       -0.28623322 0.4395713 -0.11411649 -0.3239083
0003e0 46 b3 44 be 9c 1f 43 3e 3e fd 05 be 5e e7 c5 bd
       -0.19209012 0.19055027 -0.13084885 -0.096632704
0003f0 11 17 5c 3e aa c4 8e 3d 64 0e b9 3e 98 41 db 3e
       0.21493174 0.069711044 0.36143792 0.42823482

2.weight f4 [256, 256]
000000 f7 fa 8b 3d ad 09 53 bd 6f 28 fd 3b 6b ba 5d 3c
       0.06834977 -0.0515229 0.0077257673 0.013533215
000010 4f fe 6a bd 7d ac 2c 3d c0 22 8e bc e9 e8 57 bd
       -0.057371434 0.042156685 -0.017350554 -0.052712355
000020 4d 7e 8a 3b 57 5a 4c 3d 58 99 48 bd 96 a7 15 3c
       0.004226482 0.049890842 -0.048974365 0.009134194
000030 bb 98 e8 3c 33 f3 6f bd 4a 18 4e bd ce d5 09 3d
       0.02839314 -0.058581542 -0.050316133 0.033651166
000040 3f f0 65 3d 64 84 bb bc 0d 44 0d 3d 21 5b 16 3d
       0.05613732 -0.022890277 0.034488726 0.036708
000050 fe 78 f7 bc 77 00 53 3d 33 28 c1 3c 05 55 5d 3d
       -0.03020906 0.051514115 0.023578739 0.05403616
000060 45 05 53 ba 80 d9 6b 3d 47 fa 80 3a 95 92 9b bc
       -0.00080497965 0.05758047 0.0009840213 -0.018990794
000070 45 88 7a 3c 20 b6 50 3d 9d 2f 43 3d 0d a7 56 bd
       0.015291278 0.050954938 0.04765283 -0.052405406
000080 f9 46 e3 bb 0f cc b8 3b a2 16 ba 3c ad 4e 10 bb
       -0.006935951 0.00563956 0.02271587 -0.002201955
000090 c3 94 95 3c 5d 03 5f bd 7e 6f 51 bd 78 25 5c bd
       0.018259412 -0.054446567 -0.051131718 -0.05374667
0000a0 83 20 25 3c 67 9f b3 3a 25 8e c0 3c e3 c2 28 3d
       0.010078552 0.0013704122 0.02350528 0.041201483
0000b0 16 97 69 ba 05 5d 81 3b 66 3f 1a 3c 77 6f dc 3c
       -0.0008910758 0.0039478564 0.009414529 0.02690862
0000c0 97 2b 6a 3c 12 e2 dc bc d6 90 de 3a 09 3f 94 bc
       0.014292619 -0.026963267 0.001698042 -0.018096464
0000d0 70 58 dd 3c 0e 54 0f bd 5c f0 5c 3d 6e 2a cd 3c
       0.02701971 -0.03499227 0.053940162 0.025044646
0000e0 f0 59 45 3d bb 81 c9 bc ed d9 08 3d aa a0 9b 3c
       0.048181474 -0.024597993 0.033410955 0.018997509
0000f0 17 d9 3b bd 50 18 a9 b9 1a ec 9c bb 31 ae 4f bd
       -0.04586133 -0.00032252306 -0.0047888877 -0.05070323
000100 2b 05 d8 bb db e6 30 bd e5 b7 47 b9 11 53 21 bd
       -0.006592413 -0.04318891 -0.00019046625 -0.03938586
000110 df 4f 60 3d 6e 3b 3a 3d d7 01 4c 3d c5 67 62 3c
       0.05476367 0.045466833 0.049806442 0.013818686
000120 00 44 c9 bc 90 d8 06 3d 05 8b 88 3b 83 4a a8 3c
       -0.024568558 0.032921374 0.004166963 0.020543342
000130 5b f5 71 3d b1 17 f9 3c dd 15 57 3d 35 1f 82 bd
       0.05907188 0.030406805 0.052511085 -0.063536085
000140 84 fd 5e 3a 62 99 9c bc d5 0c 9b bc ad c8 83 3b
       0.00085064047 -0.019116107 -0.018927017 0.004021725
000150 d7 dc 48 bd 67 a5 bf bb eb 31 ae 3c f0 dc 42 bc
       -0.049038734 -0.005848575 0.021264037 -0.011893496
000160 05 aa 5d 3d bd 4a c1 3b 3f 0e 61 bd 15 d0 7d bd
       0.05411722 0.005898802 -0.054945227 -0.06196602
000170 6f 7c 7a 3d 42 77 db 3c 0a 41 ad 3c 9d 57 11 bc
       0.061153825 0.026790265 0.021149177 -0.008870986
000180 3e 1f fc bc a1 7d 5f 3c d9 40 f5 bc d5 ed 4a bd
       -0.030776616 0.013640792 -0.029938148 -0.04954322
000190 72 2b 1d bd 5e ef 50 3d e6 59 e7 3c e0 e9 c3 bb
       -0.03837151 0.05100953 0.02824111 -0.005978808
0001a0 0f 6b 6b 3d c9 14 06 3d 91 a5 01 bd 8e 30 2c bd
       0.057475146 0.032734666 -0.031652037 -0.042038493
0001b0 24 18 5e 3d ca 11 0f bd 48 16 21 bd f7 f0 55 3d
       0.05422224 -0.034929074 -0.03932789 0.052231755
0001c0 81 02 6f bd 9f 51 e0 bc 1f a9 3b bd fe 06 23 3d
       -0.058351997 -0.02738267 -0.045815583 0.03980159
0001d0 7a 61 62 bd 14 3b 45 bd 66 bc 41 3d 9a 80 2c 3d
       -0.055268742 -0.048152044 0.04729881 0.04211483
0001e0 e2 e7 15 3a 51 9d 41 3d 34 29 38 bc b6 bc 5f 3d
       0.0005718452 0.04726917 -0.011240292 0.05462333
0001f0 4c ed 1a bd 40 74 28 3b 7f a0 81 bc 88 df 7c 3d
       -0.03782396 0.0025704056 -0.0158236 0.061736614
000200 ed 90 68 3d 47 a4 90 bc 51 9a ed 3b aa 5a 61 bd
       0.056778837 -0.017656459 0.007251062 -0.055018105
000210 2d 47 cf 3b 4e 88 06 bd ca e6 ed 3c be 31 37 3b
       0.0063256235 -0.032844834 0.029040713 0.0027953233
000220 04 be d8 bc e5 3a 5c 3d 85 9a df 3c c6 db 37 bd
       -0.026457794 0.053767104 0.02729536 -0.044887327
000230 64 ae 9a bc b8 c7 1a 3b 60 a3 28 3d 52 9e 82 3d
       -0.018881984 0.0023617577 0.04117143 0.063778535
000240 3d ed 6d 3b 87 d4 dc bb bd d2 35 bd aa 2d 1b bd
       0.0036304735 -0.0067392024 -0.04439043 -0.037885346
000250 75 f3 ac bc c5 b1 ae bc c5 1a 56 bc ac 48 b4 3c
       -0.021112183 -0.021325001 -0.013067906 0.022007309
000260 3e 74 23 3d c6 43 4f 3d 07 e9 67 bd b7 26 d0 bb
       0.03990578 0.050601743 -0.056618717 -0.0063522714
000270 b1 e9 38 3d 51 01 58 3d af 21 74 bc 34 18 48 bc
       0.04514474 0.05273563 -0.014900609 -0.012212802
000280 72 d4 39 3d d8 30 f6 3c 5f 1e 15 bd 9c 03 34 3d
       0.04536862 0.030052587 -0.036405917 0.043948755
000290 97 6d 5a 3d d4 6b 50 3c 2e d4 b2 3c 18 35 d2 3a
       0.05332717 0.012721021 0.02182969 0.0016037552
0002a0 cc c3 bc bc 62 e6 6f bd 47 3b 22 3d ae 47 23 bc
       -0.023042582 -0.05856932 0.039607313 -0.00996582
0002b0 02 40 98 bc 7b 08 a3 bc 4f d9 69 bc e7 30 95 3d
       -0.018585209 -0.019901505 -0.014273002 0.07284718
0002c0 66 d3 6c bc bb 9b 28 bc bb 1a 8a bc 1b 17 d5 3b
       -0.014454698 -0.010291035 -0.01685845 0.0065029985
0002d0 11 5c 98 3b ca 54 74 bd 3d b0 4c 3d 90 32 b6 3c
       0.004649647 -0.059651174 0.04997276 0.022240907
0002e0 c0 80 4a 3d b4 98 49 3d ee 4d fb bc f1 45 d3 3b
       0.04943919 0.049217895 -0.030676808 0.0064475466
0002f0 f4 6f 38 3d d4 3c 1c 3d 48 27 07 bd e9 7f 33 3d
       0.04502864 0.038143948 -0.032996446 0.043823157
000300 be 17 a6 3b a4 0e 6d 3d 6d ba d7 bc 6d 13 62 bd
       0.0050687483 0.05787529 -0.026334012 -0.055194307
000310 77 63 f8 bb a2 b1 7e 3d 26 91 59 3d e4 f9 3d bb
       -0.0075802165 0.062181123 0.05311694 -0.0028988058
000320 27 43 41 3c 1f 2f 3e 3d 9e 74 20 bd 08 8b 71 bd
       0.0117957955 0.046431657 -0.039173715 -0.05897048
000330 79 e7 59 3b 6c e8 0a bd c7 14 91 bc f8 77 03 3d
       0.003324954 -0.03391306 -0.017710103 0.032096833
000340 6b 1b 34 bd b3 bb 58 bd 9f 08 56 3d a3 69 d6 bb
       -0.04397146 -0.05291338 0.052254315 -0.0065433546
000350 07 6c aa bb 37 cd 9a b9 c5 5d 4a 3d a6 96 92 bc
       -0.005200866 -0.00029526066 0.04940583 -0.0178941
000360 17 33 03 bd 6c 6f 6a 3d 04 6d 25 bd 21 cf 63 bc
       -0.032031145 0.057235166 -0.04038717 -0.013904364
000370 d6 24 a4 bc a0 d4 41 3d f1 1c 3b bd df a2 cf 3c
       -0.020037096 0.047321916 -0.045681898 0.025346218
000380 e9 12 82 bb 12 79 54 bd cd 49 53 bd a4 5a 3c 3d
       -0.0039695394 -0.051873274 -0.051584054 0.04598488
000390 c5 13 74 bb 7f c8 82 3c f5 4f 31 bc ef f6 24 bd
       -0.003724323 0.015964745 -0.010822286 -0.040274557
0003a0 80 b2 b1 3c 2a 10 72 3d 06 0e 10 bc f5 b9 60 bd
       0.02169156 0.059097447 -0.008792406 -0.054864842
0003b0 cc c9 23 bd 92 88 5b 3c 36 7f f7 3c 65 3c da 3c
       -0.03998737 0.01339926 0.030212026 0.026640126
0003c0 ca 14 4d 3d 47 bc b9 3c aa ed 12 bc 1a fb 28 3d
       0.050068654 0.022672785 -0.008967796 0.041255094
0003d0 dc d9 9c bc 55 40 66 bc 9e 9a 5e bd 4a 2f fd bc
       -0.019146852 -0.014053424 -0.054346673 -0.030906338
0003e0 e0 e7 0d bd 9d 0e 3d bc 20 ab 1d 3d 89 90 95 3c
       -0.03464496 -0.011539129 0.038493276 0.018257396
0003f0 41 f4 92 3c 33 4f 63 3d 4f 86 73 3d cc 92 6e 3d
       0.017938735 0.055495452 0.05945426 0.058245465

2.bias f4 [256]
000000 57 5f e7 3c 47 ca e0 3b c0 ff 66 3d 77 56 6d bd
       0.028243704 0.006860051 0.056396246 -0.057943787
000010 5e 6d 52 bd 48 3d 6e bd e5 6f 92 ba 35 6e 54 bd
       -0.051373832 -0.05816391 -0.0011172263 -0.051862914
000020 48 71 39 3d 3f 41 8f 3c 9a 6b 26 bd c1 cc 73 3c
       0.04527405 0.017487166 -0.04062996 0.01488036
000030 28 a1 f4 bb 8e 9a ee 3c ad a2 fc 3c c1 b9 0d 3d
       -0.0074655004 0.029126432 0.030839289 0.034600977
000040 c8 92 55 bd e8 5c 0d bc 25 61 52 3d 5f 7c 03 bd
       -0.052141935 -0.008628108 0.051362175 -0.03210103
000050 ab 79 7f bb 6f 9d 28 bd 70 b5 03 bd f1 96 62 ba
       -0.0038982432 -0.041165765 -0.032155454 -0.0008643708
000060 44 1b 50 3c 20 3e 07 3d 9c ad a9 3c 83 3b a6 3c
       0.012701813 0.03301823 0.020712666 0.02029205
000070 d7 49 08 3d db 4a a1 bc dd dd 5e 3d 00 87 a5 bc
       0.033273544 -0.019689014 0.054410804 -0.020205975
000080 77 fe 2f 3c 9f 5d 91 3c c8 71 dc bc 5e 51 6f 3d
       0.0107418215 0.017744837 -0.026909724 0.058427207
000090 28 96 46 3d b4 23 17 3d e2 4b ab 3c 6f 6d 6b 3c
       0.048483044 0.036899284 0.020910207 0.014369353
0000a0 2e 2a 83 bc 56 cf 08 bd 43 de 55 3d 30 25 23 bd
       -0.016011324 -0.033400856 0.05221392 -0.039830387
0000b0 c4 43 dd 3c 22 cf 61 bd 62 3c 84 3c b1 cc c0 bb
       0.027009852 -0.055129178 0.016142074 -0.005883776
0000c0 8d f3 4c 3d d3 8c e0 3b c1 22 e9 3c 8e b8 43 bd
       0.050036956 0.006852725 0.028458955 -0.047783427
0000d0 05 cd 8d 3d 3c 98 78 bd 49 b8 b8 3c cd a0 bb 3c
       0.0692387 -0.060692057 0.022548812 0.022903824
0000e0 18 71 01 bd 35 36 48 bd f4 13 d0 3c 96 a5 4f bd
       -0.031601995 -0.04887982 0.02540014 -0.050695024
0000f0 a7 db 8c 3b 4e e0 fc 3b a1 91 30 3c ec 32 c9 bc
       0.0042986455 0.007717169 0.010776908 -0.024560414
000100 97 4e 43 3c 29 39 1f bd 86 a6 38 bd 2e 4b 37 bb
       0.011920593 -0.03887287 -0.045080684 -0.0027968395
000110 1c ff 0c 3d e0 78 39 bd 16 86 fb 3a d0 04 7a bb
       0.03442298 -0.04528129 0.0019189741 -0.003814984
000120 c3 57 fc 3b a0 43 4f bd d7 23 87 3b d7 54 cd 3c
       0.0077008917 -0.0506016 0.0041241455 0.025064869
000130 41 e1 70 3d a9 4e 58 bc 0b 6e 1d bd 49 9e 3e 3c
       0.05880857 -0.013202348 -0.038435023 0.011634418
000140 1d c1 36 3c a9 92 2f 3d f9 d9 b6 3c a4 51 a8 3b
       0.01115444 0.042864475 0.022320734 0.0051366854
000150 39 bd 7b bd 81 12 4e 3c fe 56 8b bc 92 52 99 bb
       -0.061459754 0.012577654 -0.017009255 -0.0046790326
000160 25 e2 57 3d 6c 7c 78 3d df 14 b6 bc 30 d5 6b bd
       0.052705903 0.060665533 -0.022226749 -0.05757636
000170 71 01 ef bc 20 c2 ac bc 5b 6c 2f bd 64 ea 3e bd
       -0.029175492 -0.02108866 -0.042827945 -0.04661025
000180 ae ce 82 3c 6c 86 05 bd 91 ed 56 3d a5 44 40 bd
       0.015967693 -0.032598898 0.052472655 -0.046940465
000190 ec bf 2a bd 2f c6 93 bc 13 60 0b 3d 93 88 5b 3d
       -0.041686937 -0.018038837 0.03402717 0.053597044
0001a0 f7 0a b2 3c 6d 23 1a 3c cd 6f a9 bc de ea 64 3d
       0.021733744 0.00940786 -0.020683194 0.05588805
0001b0 2b d5 8a bd 04 66 6a bd 2e 30 4f 3d 11 9d 57 3d
       -0.0677894 -0.057226196 0.050583057 0.052640025
0001c0 e6 5e 02 bc 45 f3 39 bc db a3 3c 3d 42 12 80 3d
       -0.007957196 -0.011349504 0.046054702 0.062534824
0001d0 1d 74 37 bc 3e d0 fe bc 01 b5 13 3d ca 6a 31 3c
       -0.011197117 -0.031105157 0.03606129 0.010828683
0001e0 a9 6d bd bc f3 42 0b bd 9e 9d c4 3c 0a 6b 11 bd
       -0.02312358 -0.033999395 0.024000939 -0.03550247
0001f0 01 c2 a9 3c 0e 06 df 3a 80 8a 0e 3d f4 7a 72 bd
       0.020722391 0.0017015354 0.034800053 -0.05919929
000200 6f c2 33 3b 2b c7 61 3d 75 7c 4f 3d f5 1e 3d 3d
       0.0027429124 0.055121582 0.0506558 0.0461721
000210 86 5b 5f 3d 40 2a 2e 3d 73 46 11 bc 94 c7 5a bc
       0.054530643 0.04252076 -0.008866894 -0.013353247
000220 b8 a3 1a 3d 90 1f 65 bc 05 2e 42 3d 65 5b b2 bc
       0.03775379 -0.013984576 0.04740717 -0.021772096
000230 e2 cd 44 3d bf 08 27 3c 12 96 04 bd fe fd 64 bd
       0.048047908 0.010194956 -0.03236968 -0.05590629
000240 24 82 73 3b 90 ac 14 3d a6 59 96 b7 88 8c bc 3c
       0.0037156427 0.03629738 -1.792314e-05 0.02301623
000250 61 e4 52 3c 5f ab 53 bc 87 0e 63 3d 62 52 41 bc
       0.012871833 -0.012919276 0.055433776 -0.011799427
000260 de 90 8e bd 5a f0 63 bd 70 ba 68 bc 52 91 00 bd
       -0.06961225 -0.05564914 -0.014204606 -0.03138859
000270 51 68 58 bd 27 00 6c 3d 9b df f8 3b 36 a5 50 bd
       -0.05283386 0.057617333 0.007595015 -0.050938807
000280 54 60 c6 bc 71 aa 84 3d b4 d1 55 3d 3a 79 6c bc
       -0.024215855 0.064778216 0.05220194 -0.0144332
000290 60 e5 a4 3c d3 44 57 bd 04 df 53 bd 0e 8f be 3c
       0.020128906 -0.05255587 -0.051726356 0.023261573
0002a0 8c b2 21 bd e7 26 c3 3a 28 b1 c6 3c 7c 36 38 bd
       -0.039476916 0.0014888913 0.024254397 -0.044973835
0002b0 83 6a 3a bd 04 0e cb 3b 40 d3 e1 bc 85 e3 07 3d
       -0.045511734 0.006196739 -0.027566552 0.033175964
0002c0 6d 37 84 3d f4 d5 87 bc 2c 0e de 3c c4 a8 32 ba
       0.06455884 -0.016581513 0.027106367 -0.0006815309
0002d0 06 e5 af 3c 9f 1f 70 3c a4 1e 81 bd 55 8e 66 bd
       0.021471512 0.014655977 -0.06304672 -0.056288082
0002e0 a7 03 93 bc 6c 7d 24 bd c5 fc db 3b 1d 88 36 3c
       -0.017946078 -0.040158674 0.006713482 0.01114085
0002f0 a1 0e 53 3d 77 ab 60 3d 63 f1 0b 3d ca 7e 20 3d
       0.051527623 0.05485102 0.03416575 0.039183415
000300 d9 01 ac 3c c9 eb dd 3b 99 c2 5e 3d 10 72 bc 3c
       0.020996975 0.0067724925 0.0543848 0.023003608
000310 e8 a5 89 3c bb 35 55 3d 10 fe ef 3c 77 0b 72 bd
       0.016802743 0.052053194 0.029295951 -0.059092965
000320 fd d9 1d 3c f2 c1 85 3c 3e 10 48 bc cc 0b e9 bc
       0.009634492 0.016327832 -0.012210904 -0.028448008
000330 19 1e 29 bc 3a aa 9f 3c a2 f7 2b bd 3c 73 61 bd
       -0.010322117 0.01949035 -0.041984208 -0.055041537
000340 a2 ed 71 bd dc f1 54 3c 1b b0 5b 3c c1 80 8b 3b
       -0.059064515 0.012997117 0.013408686 0.004257292
000350 16 f8 4b 3d b7 1e 86 bc 12 f6 d2 3c 23 ef df 3c
       0.04979714 -0.016372068 0.025752101 0.027335709
000360 90 98 d3 bc c5 44 65 3d 50 c1 4c bd 6f 34 ff 3c
       -0.025829583 0.055973787 -0.049989045 0.031152932
000370 6c fc 23 3d 96 82 2a 3a ca 73 18 3d 6c 70 27 3c
       0.04003565 0.0006504444 0.0372198 0.010219675
000380 cd 0a 18 bd 1c a6 42 3d c8 c4 b0 bb 73 ee 6d bd
       -0.037119675 0.047521695 -0.005394552 -0.05808873
000390 8c 80 04 bd a6 77 75 bd 7e 08 b1 3c 6f 01 99 3a
       -0.032349154 -0.05992856 0.021610495 0.0011673401
0003a0 e1 f9 62 3d e4 7a 5a bd ff 53 25 3d 00 25 e5 3c
       0.055414084 -0.053339854 0.040363308 0.027971745
0003b0 22 c4 ee bc 1e 76 03 3d c5 70 45 3d a4 e5 51 bd
       -0.029146258 0.032095067 0.04820325 -0.051244393
0003c0 6d ed 44 bb 93 ce 9a 3c 92 2f 68 bd 4c 33 e3 bc
       -0.0030048743 0.01889733 -0.05668599 -0.027734421
0003d0 c9 a1 74 3c 37 ef 23 3d 39 41 87 3c 3b 0d c4 bc
       0.014931151 0.040023055 0.016510593 -0.02393209
0003e0 1d 30 9c bc 29 75 7a bd ce 01 15 bc ab 4c 86 3c
       -0.019065911 -0.06114689 -0.009094669 0.01639398
0003f0 68 87 ab b9 a0 da 45 3d 91 3d 88 bd ce f5 0e 3d
       -0.00032716547 0.0483042 -0.06652368 0.034902386

4.weight f4 [2, 256]
000000 91 11 a8 3c 62 05 d8 3b 05 1f 04 bb 9c a3 1c 3d
       0.020516189 0.0065924386 -0.002016009 0.038241968
000010 69 8a 9b 3c 69 35 42 bd 26 ec 98 3d b6 31 74 bb
       0.018986898 -0.047414217 0.07466917 -0.0037261075
000020 b6 db a1 3c 37 55 4b bc 23 23 7a 3c 48 85 e2 bc
       0.019758087 -0.0124104535 0.015267166 -0.027651444
000030 3c e4 3e 3c de 1f 63 3c 4e 4b 6f bd 35 20 83 3a
       0.011651095 0.013862578 -0.058421426 0.0010004105
000040 0b bc 69 3d 78 e9 51 bc e6 ac 20 bc 34 5d dc 3c
       0.057064097 -0.012812011 -0.009806847 0.026899911
000050 2b cd 96 3c 40 a8 5e 3d 93 09 8c 3c 2d 29 3f 3d
       0.018408379 0.054359674 0.01709441 0.046670128
000060 e4 33 ed 3b 22 05 14 bc f4 5c 87 3d c0 ff 92 bc
       0.007238852 -0.009034427 0.06609526 -0.017944217
000070 04 78 6d bc b0 61 20 3d 11 17 a3 bc 8b df a6 bd
       -0.014493946 0.039155662 -0.01990846 -0.08148106
000080 5b 67 1c bd 3b 23 87 bb b7 49 42 bd ed af 58 bd
       -0.038184505 -0.004124073 -0.04743358 -0.05290215
000090 f1 d3 a2 bc b0 36 0a bd 8d 22 f0 3c 12 e8 d5 3c
       -0.019876452 -0.03374356 0.02931335 0.026111636
0000a0 ec 14 3e 3d 06 86 a5 3c 81 9a f8 3c 1e c3 81 3c
       0.04640667 0.020205509 0.03034711 0.01584011
0000b0 1b 41 4e 3d 2a ef 5e ba 59 1b 51 bd b0 c7 a3 bc
       0.05035506 -0.0008504266 -0.05105147 -0.01999268
0000c0 8a 7a 78 bc 58 ca 06 3d 9e 90 0e 3d 4b c0 cf bc
       -0.015165934 0.032907814 0.034805886 -0.025360247
0000d0 94 b8 e2 ba 32 9c 18 bd 47 ac 39 bc f5 08 da 3c
       -0.001729744 -0.037258334 -0.011332578 0.0266156
0000e0 a4 3a 55 bd 86 ff ad 3c e7 c7 71 3d 5d 83 cd bc
       -0.052057877 0.021240007 0.059028532 -0.025087053
0000f0 ba a3 66 bd 24 bf d5 3c 29 f2 d9 bc 10 3c 98 3c
       -0.056308486 0.02609212 -0.026604729 0.018583328
000100 75 59 01 bc 30 bb 81 3c 96 d0 00 3c 13 89 f9 3c
       -0.007894863 0.015836328 0.007862231 0.03046087
000110 d5 e1 04 3d a4 95 e9 3a 9e 73 01 3d c3 05 35 3d
       0.032441933 0.0017821086 0.0316044 0.044194948
000120 c3 c4 b4 bb 68 a6 d8 3c 0a fe 5d bd ba d6 68 bc
       -0.00551662 0.026446536 -0.05419735 -0.014211351
000130 b0 77 8c 3c 39 ab b5 bc f7 03 74 3d 46 36 08 bd
       0.017146915 -0.022176372 0.059574094 -0.033254884
000140 11 59 48 3d db a4 be b9 80 55 8f 3c 9f 41 b6 bc
       0.048913065 -0.0003636245 0.017496824 -0.022248087
000150 86 a5 ee 3b c3 c6 2c bd 6a 2e 8f bc cc 57 00 bd
       0.0072829155 -0.04218174 -0.017478187 -0.03133373
000160 bb de 51 bb 98 d9 dd 3c e6 a1 05 bd 87 05 26 3d
       -0.0032023627 0.027081296 -0.0326251 0.040532615
000170 04 24 49 bd 1f ca 17 3d 80 b9 8a 3b bd 13 7b bb
       -0.049106613 0.037057992 0.004233539 -0.0038311325
000180 6e e4 26 bd 4a 8c 2d bd 0b ce 48 bd bf a2 76 bd
       -0.04074519 -0.04237012 -0.049024623 -0.0602138
000190 dd 2a dd 3c 75 23 8b bc 5b 68 14 bd 89 bc d0 bb
       0.026997978 -0.01698468 -0.036232334 -0.0063701314
0001a0 1c 2a 0d bd 47 e8 7d bc 6a 41 f4 ba dd be 4e 3c
       -0.034463987 -0.015497274 -0.0018635218 0.012618748
0001b0 21 49 60 bd b3 3a e2 bc 9a 17 2a 3d 60 a6 d0 3c
       -0.05475724 -0.02761588 0.041526414 0.025469959
0001c0 5d fe 75 bc dc b5 52 3d e6 c5 57 3d d7 de c7 3c
       -0.015014258 0.051442966 0.052678965 0.02439825
0001d0 42 ee 5c 3d 25 06 33 bc 5c aa 0a 3d 16 9a 50 3d
       0.053938158 -0.010926758 0.033853874 0.050928198
0001e0 b9 86 07 bd e7 cb df 3c a2 30 9b 3c e8 54 30 bd
       -0.033087466 0.027318908 0.018944088 -0.043049723
0001f0 2c e5 1e 3d 5c 35 f6 3c a3 57 50 bd 26 87 1a bd
       0.038792774 0.03005474 -0.050864827 -0.037726544
000200 82 84 ad bb 56 8e 8f b8 54 36 40 bd 45 c5 51 39
       -0.005295337 -6.8452835e-05 -0.04692681 0.00020005282
000210 fe 23 1d 3d b3 b2 de bc 55 db 2c 3d a5 cb 18 bd
       0.038364403 -0.02718482 0.04220136 -0.037303586
000220 57 fe dd bb 0c 28 ab bc 77 f3 ee bc 10 fb 40 bc
       -0.0067747044 -0.02089312 -0.029168827 -0.011778608
000230 c7 9b b2 3c dc 0c 12 3d 17 61 16 3d 12 02 0a bc
       0.021802796 0.035656795 0.036713686 -0.008423345
000240 fc 9c e9 3c ed ed 9c 3b 73 51 a9 3c 96 d7 15 3d
       0.028517239 0.004789105 0.02066872 0.036582552
000250 09 31 3c 3d 84 d9 08 3d 40 f5 66 3c 31 60 53 3c
       0.0459452 0.033410564 0.014096558 0.012901352
000260 64 7f 14 3d 4a ed 09 bc 1e 23 13 3d b1 5d 3a 3d
       0.0362543 -0.0084183905 0.035922162 0.045499507
000270 e3 8f 6b bc 0b 93 a2 3b 2b 21 5b 3d 35 a1 dd 3c
       -0.014377567 0.0049613765 0.05349843 0.027054409
000280 db 94 18 bd 9f 3e 36 3d 65 d9 6f bc 80 7d bf bc
       -0.037251335 0.044493314 -0.014639233 -0.023375273
000290 a4 61 21 bb ca 4a ad 3a f4 f7 31 3d c4 a1 c0 3c
       -0.0024624849 0.0013221141 0.043449357 0.023514636
0002a0 31 18 2c 3d 39 23 eb bc 65 c8 20 3d 4b d8 a3 bb
       0.04201526 -0.028703319 0.03925361 -0.0050001494
0002b0 0d ad 5a 3c 1f 1e 99 3c 18 c0 cd bc 50 ab 8b 3c
       0.013346923 0.01869112 -0.025116012 0.017049462
0002c0 09 5a 97 3b f6 c2 87 3c 9c 1e 61 3c 32 ed 15 3c
       0.0046188873 0.016572457 0.013740208 0.00915079
0002d0 b6 38 86 3d 8f 3e 1e bc ac b4 1c 3c 28 2a f9 bc
       0.065537855 -0.00965847 0.00956456 -0.03041561
0002e0 4f 74 01 bd 41 7b 3b 3d 4f 62 06 3c 43 f2 e3 3c
       -0.03160506 0.04577184 0.0082021495 0.02782548
0002f0 23 e5 4e 3d 03 75 02 3d 42 1d ae bc 1a fc 38 bd
       0.05051149 0.031849872 -0.021254186 -0.045162298
000300 db b1 2c 3a 5d 18 03 3d 35 97 c3 3c fc a6 bd 3b
       0.0006587782 0.032005657 0.023875812 0.0057877284
000310 64 b8 1c 3d ea 59 2a 3d c1 b5 e8 bc 0f 99 8c 3c
       0.038261786 0.041589655 -0.02840698 0.017162828
000320 be 6d 6e 3b 98 ff 48 b9 dc 84 5d bd 2b ae 58 bc
       0.003638133 -0.00019168702 -0.054081783 -0.013225119
000330 3b e6 e3 bc 75 27 f1 bc 94 6b 6f 3c 81 c2 67 bc
       -0.027819743 -0.02943776 0.014613051 -0.014145494
000340 0a 15 db bc 10 2b 04 bd 2a 0e 8d 3b b1 ff 60 3c
       -0.02674343 -0.03226763 0.004304667 0.013732837
000350 2b 5b 57 bc 61 f8 2f 3d 19 15 19 bd ec c9 6b 3c
       -0.013144295 0.042961482 -0.037373636 0.014391404
000360 6e 5e ee bc 91 6c 15 3c f6 1f fa bc 8d 3a 25 bd
       -0.029097762 0.0091201225 -0.030532818 -0.04033904
000370 ba d7 2f bd 48 88 36 bd 57 2e 14 bd e6 80 2a 3d
       -0.042930342 -0.04456356 -0.036177006 0.041626833
000380 c3 14 8e 3c 0d 54 e4 bc 29 65 0a 3d 8a 00 2d bd
       0.017343884 -0.02787211 0.03378788 -0.042236842
000390 04 97 2d 3d 75 ca 1b 3d cd 7b 0b bd c8 8b 59 bc
       0.042380348 0.038034875 -0.034053613 -0.013277955
0003a0 59 ff 74 3c 9e bc 41 bd 44 6e d2 bb 16 35 55 3a
       0.014953458 -0.04729902 -0.006421836 0.00081332156
0003b0 dc 80 a8 3c f4 42 02 3d a2 5b 32 3d ea c7 88 3c
       0.020569257 0.031802133 0.04354442 0.016696889
0003c0 1f 5c 5d 3d 63 5c b2 ba bd 09 dc bb 14 ab 17 bc
       0.05404293 -0.0013607856 -0.006715028 -0.009257097
0003d0 29 ff 82 3b dc 43 23 3d c7 5d ff bc 2e 4b 1d bd
       0.0039977026 0.039859638 -0.031172646 -0.038401775
0003e0 f7 56 05 3d cc 0b 1b bd eb 84 42 bd ef 65 31 bd
       0.03255364 -0.037853047 -0.04749004 -0.043310102
0003f0 3d 28 be bc 8a 9b 9f 3c 35 37 ec bc e1 77 8d bd
       -0.023212546 0.019483346 -0.028834919 -0.06907631

4.bias f4 [2]
000000 28 4a de 3c 24 58 50 3d
       0.02713497 0.050865307

exp_avg f4 [256, 4]
000000 4a a4 90 3d ca 8d 08 3c 18 9c 1e bb fa f7 d6 39
       0.07062586 0.008334586 -0.0024201926 0.00041002018
000010 cb 9a b6 ba e8 ba fb b8 af 7b 1c 39 87 50 00 b9
       -0.001393163 -0.00012003427 0.00014923395 -0.0001223703
000020 40 42 d4 3a 85 db 18 3a 7f ed 1f 38 20 32 bf b9
       0.001619406 0.0005831051 3.812974e-05 -0.00036467705
000030 05 48 0a 3a 12 ad 0b b9 64 77 7d b9 c2 36 30 39
       0.0005275014 -0.00013320547 -0.00024172437 0.00016805067
000040 a4 bc cb b9 e3 d2 e3 b8 52 d6 8c b7 e9 32 17 38
       -0.00038859725 -0.00010863484 -1.6789101e-05 3.604862e-05
000050 69 53 aa ba 78 fd f9 b9 0f bf 46 b8 be 2a 8e 39
       -0.0012994829 -0.0004768183 -4.7384816e-05 0.00027116196
000060 53 ac 35 3b e4 f7 8c 3a 88 4c 7d 39 59 79 00 ba
       0.0027721121 0.001075503 0.0002415647 -0.0004900895
000070 d9 a0 d2 3d 74 e8 16 3c d8 7e 85 bb 14 cf 8e 3a
       0.102845855 0.009210695 -0.004073959 0.0010895454
000080 54 f1 73 3b f6 dd b0 3a b4 bb ac 39 00 93 18 ba
       0.00372227 0.0013493884 0.00032946246 -0.00058202446
000090 2a 39 3d bb a5 df 17 39 e8 25 0a 3a 9e 01 02 ba
       -0.0028873184 0.00014483796 0.00052699307 -0.00049593474
0000a0 68 7d 9e ba 37 c6 d7 b9 e9 fe c1 37 a9 da 8d 39
       -0.0012091817 -0.00041155677 2.3126095e-05 0.0002705653
0000b0 a9 03 3a b9 fd cd 9b 3a 07 65 20 3a e7 bc 26 ba
       -0.00017739706 0.0011886951 0.000611857 -0.0006360546
0000c0 c7 ca 6e ba e7 ef 17 b9 fb 3a 51 38 e4 f7 73 b2
       -0.00091091957 -0.00014489853 4.9884413e-05 -1.4200825e-08
0000d0 82 e9 d6 3b df d6 01 3a 65 71 90 b9 90 d0 03 3a
       0.006558598 0.0004952978 -0.00027550306 0.00050283317
0000e0 1d db fc 3a f5 76 3e 3a 9f 31 b2 38 4c b0 da b9
       0.0019291375 0.0007265651 8.496944e-05 -0.00041711552
0000f0 a8 15 fe bb 88 d2 39 bb 2b c2 35 ba 2d 4a 63 3a
       -0.0077540465 -0.0028354246 -0.00069335353 0.0008670416
000100 a2 8b 31 3d ee 2b 6d 3b 07 cc 79 ba cb a2 35 3a
       0.043346055 0.0036189514 -0.00095289986 0.000692886
000110 bf 83 3f bc b3 17 80 ba dd 45 40 39 d4 f6 42 ba
       -0.011689126 -0.0009772688 0.00018336573 -0.0007437293
000120 e7 a0 58 bb 11 ef bd ba 1d e8 08 ba fb 7a 03 3a
       -0.003305489 -0.0014490803 -0.0005222576 0.0005015579
000130 dd a8 e7 bc d2 34 64 bb 1f 46 0c b8 76 66 a5 b9
       -0.028278762 -0.0034821522 -3.3443906e-05 -0.00031547592
000140 27 c7 02 bd 20 02 46 bb a3 b9 1f 3a e5 66 9c ba
       -0.031928208 -0.003021367 0.00060930307 -0.001193252
000150 db 2c 40 3c d2 0a 84 3a b3 0d a8 b9 aa d6 1c 39
       0.011729444 0.0010074025 -0.00032053664 0.00014957288
000160 12 1f 91 ba 3f 70 b7 39 fe bb 17 3a 2b b1 d5 b9
       -0.0011071882 0.0003498811 0.0005788206 -0.00040758526
000170 73 b0 01 bb 3d 73 94 b9 8f 66 b5 38 57 f4 c2 b8
       -0.001978901 -0.0002831462 8.6498556e-05 -9.296153e-05
000180 0d 3d c9 37 ca 2b 67 b9 c6 ba 32 b9 8b 39 26 39
       2.3989496e-05 -0.0002204619 -0.00017044981 0.0001585243
000190 f6 f2 0d 3a 12 9b 28 39 29 e5 cc b7 9c 78 e0 b8
       0.0005414927 0.00016079497 -2.4425406e-05 -0.000107036176
0001a0 7f a6 f0 ba 76 45 35 ba 6d f8 78 b9 2d 9a 9c 39
       -0.0018360167 -0.00069149525 -0.00023743669 0.0002986951
0001b0 a0 30 1c bb 67 73 72 ba 3d 2d 8a b9 68 77 d8 39
       -0.0023832694 -0.00092487637 -0.00026355116 0.00041287695
0001c0 9e e7 6a bc d2 db 8b ba bb cb 04 39 79 3b 3c ba
       -0.014337448 -0.001067037 0.00012664396 -0.0007180493
0001d0 84 da 6c ba dc bd 87 38 e4 00 26 39 63 ce 4a b9
       -0.0009035247 6.472666e-05 0.00015831325 -0.00019341106
0001e0 05 0a 2b 3a ae 63 66 39 17 34 07 b8 5e ba b5 b8
       0.00065246254 0.00021971643 -3.223502e-05 -8.665466e-05
0001f0 4c ca 84 ba 6d 2a d9 b9 5f 7f 3d b8 65 d0 8f 39
       -0.001013109 -0.00041421075 -4.5179735e-05 0.00027430351
000200 b9 fa 40 bb 5c 9d 02 bb ba 6d 93 b9 bf 61 87 3a
       -0.0029446317 -0.001993022 -0.00028119778 0.0010328813
000210 fb b5 18 3a 01 bb 70 39 54 81 d9 b5 21 34 1e b9
       0.0005825457 0.00022957848 -1.6205399e-06 -0.00015087474
000220 8a d3 07 bb 69 67 52 b8 68 b5 32 39 16 4f 93 b9
       -0.0020725452 -5.016421e-05 0.00017042982 -0.00028096949
000230 10 a4 70 3b 0f b8 aa 3a 90 0d 2c 39 41 26 23 ba
       0.0036718883 0.0013024824 0.0001640825 -0.0006223657
000240 0d 62 22 3d a1 cc 8f 3b 53 bf 3c ba db 72 30 38
       0.03964429 0.0043884073 -0.00072001404 4.2068637e-05
000250 53 59 84 bb 97 f0 bf ba e7 9d 38 ba 5a 77 d2 39
       -0.0040389686 -0.0014643845 -0.0007042572 0.00040143245
000260 20 4b b6 bd d6 ad 17 bc d5 36 1b 3b 45 bb 12 ba
       -0.08901048 -0.009257754 0.0023683805 -0.00055973633
000270 e1 4f a7 bc 26 a0 16 bb 21 e9 f5 39 0d a1 22 ba
       -0.020423831 -0.002298364 0.00046903736 -0.0006203808
000280 20 cf 93 3b 8a 21 83 b9 35 70 25 ba 99 90 2d 3a
       0.004510775 -0.00025011256 -0.00063109706 0.0006620973
000290 76 42 68 3b 1c 08 1f ba 81 1c cf b9 87 dd 2f 3a
       0.0035440004 -0.0006066577 -0.00039503354 0.00067087304
0002a0 f9 b6 b0 ba c8 7f 48 39 7d f3 90 39 00 5a bc b9
       -0.0013482264 0.00019121089 0.00027647233 -0.0003592521
0002b0 8f a7 34 ba 37 80 f2 b9 42 c8 c1 b8 cf 6f 59 39
       -0.0006891423 -0.00046253364 -9.240258e-05 0.00020736385
0002c0 6c ee 03 bb 8b 38 50 ba 15 89 69 b9 27 8d b9 39
       -0.0020131124 -0.0007942996 -0.00022271679 0.00035391116
0002d0 fe ea 02 3b ff d7 c8 3a b2 ab 25 39 f8 20 79 ba
       0.0019976492 0.0015323161 0.00015799588 -0.0009503509
0002e0 a3 02 ba bb ff 2a 86 b9 c2 f0 c7 39 1a d8 0f ba
       -0.005676584 -0.00025590506 0.00038135616 -0.0005487219
0002f0 1f 26 a9 ba c5 2d e9 b9 53 3c 97 b6 ca 8f 93 39
       -0.0012905038 -0.00044475324 -4.5071733e-06 0.00028145156
000300 4e 71 1f 3c cb b5 a2 39 51 d2 f8 b9 ff bd cd 39
       0.009731604 0.00031034494 -0.00047458944 0.00039242205
000310 db 21 4f 3c a0 97 4e 3a 11 29 93 b9 2d e8 4e 3a
       0.012642349 0.000788087 -0.00028068622 0.0007892873
000320 77 2e 0d bc 49 a9 f9 b9 b6 a9 b5 39 ec 58 19 ba
       -0.008617035 -0.00047619108 0.00034649455 -0.0005849737
000330 1f 6e b8 39 5d 39 0f 39 61 35 32 b8 7f 82 cc b8
       0.0003517726 0.00013658912 -4.248822e-05 -9.751785e-05
000340 52 fb 9d bd 9a ad 18 bc 9c a6 07 3b b3 23 01 ba
       -0.07713951 -0.009318734 0.0020698672 -0.0004926279
000350 05 df 36 3b 02 52 93 3a e2 9a b4 39 38 9e 09 ba
       0.0027903926 0.001123965 0.00034447672 -0.00052497117
000360 db 06 03 3d 68 04 6a 3b d1 f9 1d ba dc 5a e1 39
       0.03198896 0.0035708193 -0.00060263 0.0004298304
000370 a3 10 b0 bb 44 80 fa ba 52 a8 00 ba cf 1e 38 3a
       -0.005373077 -0.0019111712 -0.0004907894 0.0007023634
000380 4b 16 82 3a b9 61 6e b9 f3 1d b1 b9 75 2a a2 39
       0.0009924857 -0.00022733853 -0.00033782385 0.0003093068
000390 4a ad 1a 3a 30 69 20 ba 9a b2 fb b9 40 65 fd 39
       0.0005900456 -0.000611919 -0.0004800752 0.00048331358
0003a0 ac bb a3 bd e6 00 0d bc 7c 3e 0a 3b 68 92 90 b9
       -0.0799478 -0.008606171 0.0021094372 -0.00027574901
0003b0 c5 fc 66 3b 94 74 ca 3a e6 f1 40 39 5a e0 2c ba
       0.0035245877 0.001544612 0.00018400661 -0.000659471
0003c0 53 9b 91 b8 64 d2 29 3a b2 ca 18 3a 16 14 03 ba
       -6.94307e-05 0.0006478189 0.0005828544 -0.00050002465
0003d0 65 32 58 3d 16 af bb 3b 99 92 27 ba 91 89 17 3a
       0.052782435 0.005727659 -0.0006392389 0.0005780692
0003e0 1a 6a db 3a 15 37 24 3a 98 74 91 39 58 99 8e b9
       0.0016739995 0.00062643114 0.00027743424 -0.000271986
0003f0 44 58 ea ba 0b cf 26 ba af 76 55 b8 f1 6e b8 39
       -0.0017879088 -0.0006363249 -5.089369e-05 0.00035177873
