distributed_shared/worker_logs/worker_7/models/model_episode_20.pt (torch, 816842 bytes, 16 tensors)

0.weight f4 [256, 4]
-0.43060955 -0.27353305 0.086297564 0.29415655 0.17846462 -0.28185907 -0.14036939 0.35614952
0.37506843 0.12288422 -0.3098884 0.11884781 0.18119822 -0.3529232 -0.47039795 -0.26569447
-0.04748206 0.38740194 0.40098462 -0.4789896 -0.17048596 0.4669305 -0.11552676 0.08454046
-0.31985345 -0.12458171 0.14620379 0.3216622 -0.25867 -0.14093406 -0.37382144 0.19290921
0.38160846 0.4588882 0.12024412 0.33590627 -0.4637306 0.16344811 0.049417343 0.14344035
0.06448798 -0.31412384 -0.46727556 0.07418331 0.36564696 0.47871646 -0.41606286 0.08029744
0.1126789 0.26279303 0.2272804 0.38956213 0.50100267 0.19164592 -0.0015800314 0.18124497
0.20655063 -0.4588529 0.026282594 -0.2783054 -0.0935509 0.41392657 -0.030320052 -0.16247751
0.33921847 0.45806527 -0.12812164 -0.45869407 -0.44982705 0.059767764 0.1634585 0.18854238
-0.4425642 0.4283509 0.3417609 -0.34743688 0.14461398 0.11860467 0.08482495 -0.3393357
0.38795957 -0.11325358 0.0033368883 0.15456136 0.44409603 -0.26391146 0.19823422 0.14665267
0.10795383 0.48457062 0.42772582 0.35977626 0.17989035 0.23321538 -0.37330526 0.34653318
0.35445684 0.3163622 0.46514156 0.42500153 -0.37425527 -0.48491272 -0.3470195 0.084090054
-0.19972776 -0.10989117 -0.054516196 -0.28162247 0.08719851 0.39784697 0.22888723 -0.182051
0.42053145 0.2702417 -0.45899627 -0.46049497 0.47171864 -0.20493719 -0.06785242 -0.36651918
-0.29154125 -0.15659398 0.26109284 -0.03616902 -0.43397626 0.17442621 -0.19849513 -0.13153182
-0.29659972 -0.27323478 0.30279922 -0.31405157 -0.2376031 -0.30985284 -0.21091883 0.010547866
-0.3943187 -0.47152817 0.24047525 0.19314173 0.12996176 0.49341276 0.36219138 -0.03800894
0.48917356 0.18360545 0.34893897 0.030958064 0.32877502 0.3122837 0.37011847 0.32741523
-0.2999724 -0.1623134 -0.27973428 -0.25418785 -0.34307304 0.31243494 0.30338022 0.40410092
-0.40468976 -0.12278402 -0.42732063 -0.29639232 0.3935717 0.36162972 -0.44033647 -0.27457944
-0.08583917 -0.038279083 0.14223664 0.08883931 -0.33765155 0.27126545 0.3442955 0.3518748
-0.23427805 0.03236383 0.2715792 0.18802877 0.27757487 -0.24009585 0.24662596 0.42762926
-0.3630694 0.32468265 0.20808192 -0.4540005 -0.2773755 0.056427587 0.2669767 0.47978976
-0.12315058 -0.0064436817 -0.024726344 0.2604323 0.1565123 -0.22688848 -0.03541461 -0.20065574
-0.2132895 0.17464246 0.11874204 0.18767904 -0.4770291 0.4648041 0.16562943 0.26080236
0.20543556 0.4042425 0.017239261 -0.2228006 0.51384485 -0.2337485 0.43540695 -0.32684875
-0.30040443 0.24536945 0.17213549 0.30575722 -0.03553074 0.4676031 0.30219656 0.013444975
-0.23206948 0.43364346 -0.26853764 0.16942261 -0.40655753 -0.029957343 0.14727576 0.029137729
0.2969241 0.13623059 0.054258272 -0.3913496 0.19420807 0.48496497 -0.290578 0.28075466
-0.080717616 0.35462877 0.26596323 0.316042 0.125502 -0.3292405 0.039124027 0.081077375
0.38752767 -0.053519987 -0.037746303 0.08123503 -0.1163762 -0.39548782 -0.13371322 -0.042989172
00000000: db78 dcbe 860c 8cbe c7bc b03d b09b 963e
00000010: 6ebf 363e d54f 90be febc 0fbe 3b59 b63e
00000020: f808 c03e b9aa fb3d b1a9 9ebe 7b66 f33d
00000030: 078c 393e 5ab2 b4be 00d8 f0be 1b09 88be
00000040: 8c7c 42bd 8c59 c63e db4d cd3e 203e f5be
00000050: df93 2ebe 8411 ef3e 4b99 ecbd 8c23 ad3d
00000060: d5c3 a3be b224 ffbd 72b6 153e e8b0 a43e
00000070: 6570 84be 0551 10be 8665 bfbe fe89 453e
00000080: 2f62 c33e 65f3 ea3e 8d42 f63d e8fb ab3e
00000090: 196e edbe f15e 273e d769 4a3d 07e2 123e
000000a0: 4612 843d d7d4 a0be be3e efbe 6bed 973d
000000b0: 1436 bb3e 531a f53e 3106 d5be fc72 a43d
000000c0: 32c4 e63d cf8c 863e 31bc 683e b074 c73e
000000d0: b641 003f d43e 443e 0e19 cfba 4898 393e
000000e0: 0282 533e c4ee eabe 984e d73c 0c7e 8ebe
000000f0: 9d97 bfbd 2fee d33e c261 f8bc 8160 26be
00000100: 0bae ad3e 8887 ea3e 5232 03be f3d9 eabe
00000110: bb4f e6be 0bcf 743d aa61 273e 4111 413e
00000120: c697 e2be cf50 db3e 49fb ae3e 3fe3 b1be
00000130: b015 143e 01e7 f23d b4b8 ad3d 69bd adbe
00000140: a3a2 c63e 7ef1 e7bd b2af 5a3b 5545 1e3e
00000150: 8e60 e33e 671f 87be e9fd 4a3e 1e2c 163e
00000160: e616 dd3d a419 f83e e1fe da3e 9834 b83e
00000170: 2d35 383e 03d0 6e3e de21 bfbe cc6c b13e
00000180: 5e7b b53e 3afa a13e 0927 ee3e cd99 d93e
00000190: 639e bfbe 7b46 f8be 8aac b1be 6837 ac3d
000001a0: 6f85 4cbe 9f0e e1bd 604c 5fbd d230 90be
000001b0: 2295 b23d 99b2 cb3e 6a61 6a3e 946b 3abe
000001c0: e64f d73e 1f5d 8a3e 8f01 ebbe ffc5 ebbe
000001d0: 1b85 f13e 0edb 51be 36f6 8abd 67a8 bbbe
000001e0: e544 95be 2c5a 20be f6ad 853e f725 14bd
000001f0: 2332 debe c99c 323e 4f42 4bbe 47b0 06be
00000200: ebdb 97be 6ee5 8bbe 8008 9b3e 5ecb a0be
00000210: 3a4e 73be 08a5 9ebe 1bfb 57be f5d0 2c3c
00000220: 24e4 c9be 246c f1be 253f 763e f2c6 453e
00000230: b214 053e 99a0 fc3e 2671 b93e 43af 1bbd
00000240: f574 fa3e 1103 3c3e 21a8 b23e c49b fd3c
00000250: 3355 a83e a6e3 9f3e 2b80 bd3e f8a2 a73e
00000260: fb95 99be 7c35 26be 5539 8fbe e924 82be
00000270: 45a7 afbe 79f7 9f3e a754 9b3e 51e6 ce3e
00000280: 7f33 cfbe 3076 fbbd c5c9 dabe bcc0 97be
00000290: 3b82 c93e 8827 b93e c873 e1be ad95 8cbe
000002a0: 72cc afbd 87ca 1cbd 7ba6 113e 62f1 b53d
000002b0: aae0 acbe 4ee3 8a3e 8047 b03e ef28 b43e
000002c0: 96e6 6fbe ef8f 043d 6e0c 8b3e 9d8a 403e
000002d0: 4b1e 8e3e b0db 75be 848b 7c3e 39f2 da3e
000002e0: 3be4 b9be ce3c a63e 6d13 553e c172 e8be
000002f0: 2904 8ebe 9d20 673d 2cb1 883e 01a7 f53e
00000300: 5f36 fcbd 8525 d3bb e78e cabc 6257 853e
00000310: c344 203e 7455 68be e90e 11bd b378 4dbe
00000320: 9068 5abe 79d5 323e 072f f33d ef2e 403e
00000330: 283d f4be cefa ed3e c39a 293e e387 853e
00000340: b35d 523e dff8 ce3e 5a39 8d3c d725 64be
00000350: 568b 033f c45b 6fbe a9ed de3e b858 a7be
00000360: 9cce 99be 2142 7b3e 4944 303e 368c 9c3e
00000370: ae88 11bd ac69 ef3e 82b9 9a3e 5048 5c3c
00000380: 9fa3 6dbe 8406 de3e c47d 89be 1f7d 2d3e
00000390: 4f28 d0be 1a69 f5bc 75cf 163e 3fb2 ee3c
000003a0: 7006 983e 0880 0b3e ec3d 5e3d fa5e c8be
000003b0: 7bde 463e 544d f83e a4c6 94be 13bf 8f3e
000003c0: 474f a5bd e791 b53e 552c 883e 42d0 a13e
000003d0: 9983 003e 3692 a8be 8440 203d e50b a63d
000003e0: 076a c63e c637 5bbd de9b 1abd 8d5e a63d
000003f0: a556 eebd 617d cabe 1eec 08be 6a15 30bd

0.bias f4 [256]
-0.22700451 -0.28426754 0.31779426 0.16412584 0.30904785 0.0811332 0.12137174 0.10872883
-0.3821926 -0.15804988 -0.40140802 -0.06691723 0.4135298 -0.4458047 0.0057229395 0.29379332
-0.09394303 0.10992403 -0.257821 -0.29986826 -0.009995042 0.21240054 -0.5041368 0.14327154
0.031226633 -0.29048628 -0.35611674 0.23510294 0.29973888 -0.36974463 -0.17899424 -0.3483019
-0.11272235 0.46804556 -0.31352714 -0.16947518 0.2557043 -0.3255569 -0.19925706 -0.38978496
0.32999745 -0.10480061 -0.053237833 0.20007886 -0.1515443 0.11028737 -0.18687642 -0.25012922
-0.42711082 0.1681154 -0.2768103 -0.14350736 -0.37890586 -0.0058050198 -0.06996029 0.000116399664
0.44222027 -0.0071486575 -0.452315 0.15721142 0.048975173 0.44057372 0.15682803 -0.27624896
-0.09750221 -0.28154474 -0.1456663 -0.23707145 0.13567957 0.13135773 0.3039609 0.16907877
0.1706753 0.48300472 0.24842858 0.365958 0.25778997 -0.079536855 -0.44886875 0.41498277
-0.32874897 -0.08189125 -0.16986911 0.22612567 -0.31160915 -0.34346226 0.11833944 0.1599884
0.09638371 0.3925219 0.29346728 0.07041794 0.36815578 -0.19681035 -0.32194793 0.3700793
-0.11541721 -0.24562375 -0.030382207 -0.055240646 0.29169187 0.376026 -0.5005782 -0.40378833
-0.022376332 -0.050686702 -0.16812398 -0.003693217 0.13721243 -0.4778371 0.49081963 0.24111474
-0.48053122 0.28557348 -0.28146756 0.12686446 -0.48994443 -0.21743399 0.37171307 -0.50522846
0.42466834 -0.45218056 0.26175794 0.21409924 -0.12864439 0.33250156 0.14729463 -0.18700594
-0.2823104 -0.41569912 0.0050250506 -0.07158117 -0.4895673 -0.06228115 -0.033572555 0.2843003
-0.31527522 -0.48859268 -0.31317103 0.08098908 -0.15175267 0.19414106 0.27624306 -0.25775
0.20649219 -0.34186247 -0.31766644 0.25104156 -0.41301012 0.48386344 -0.42511758 0.40398368
0.056757398 -0.18622996 0.14099063 -0.17344372 0.14626929 -0.15876208 -0.32210514 -0.37597525
-0.4024575 0.0760469 -0.47548106 0.48777914 -0.3799724 -0.46465683 -0.23097128 0.047548898
-0.1107897 0.40964806 0.099404395 0.347853 0.3395029 -0.33409676 0.14405091 -0.23703039
0.06324866 -0.48743007 -0.4411541 0.3742959 -0.08645623 0.074613295 -0.18352374 -0.25753248
-0.027932098 0.15481186 0.051816657 -0.41835278 -0.41059902 0.18395513 -0.05130739 0.06142888
0.4689057 -0.11548644 -0.0134684555 -0.02700839 -0.33365 0.3254045 0.13622168 0.14918788
-0.108582966 0.013760156 -0.2956317 -0.30011004 0.007919389 -0.2879264 -0.13211848 0.32901984
0.40966195 -0.2827629 -0.44391626 -0.1586742 0.08771438 -0.24879344 0.12839817 0.36247948
0.2858583 -0.46639165 -0.06493999 0.09788419 -0.4521737 0.3872274 -0.29766926 0.07150699
0.45559892 0.09856289 -0.4387812 0.27343255 -0.00013477617 0.45641038 0.18331584 0.26270065
0.061021943 -0.34986076 0.45913205 0.48693636 0.3161783 0.28274825 0.47984856 -0.08512658
0.28560716 -0.00020706978 0.41856584 -0.09214627 -0.031799484 0.1263438 0.34076783 0.35731098
-0.00623503 -0.10748555 -0.16844326 0.15155317 0.41766983 0.09843995 0.24120584 0.18998836
00000000: df73 68be 848b 91be eeb5 a23e 9b10 283e
00000010: 853b 9e3e 2a29 a63d bf91 f83d 39ad de3d
00000020: c0ae c3be d4d7 21be 5a85 cdbe e70b 89bd
00000030: 2eba d33e 8340 e4be 7f87 bb3b 146c 963e
00000040: 3465 c0bd da1f e13d 1d01 84be 5588 99be
00000050: 3fc2 23bc 877f 593e 1c0f 01bf c6b5 123e
00000060: ffce ff3c 9eba 94be ef54 b6be d3be 703e
00000070: 6077 993e 2b4f bdbe 444a 37be a054 b2be
00000080: fada e6bd aba3 ef3e a186 a0be e78a 2dbe
00000090: adeb 823e 65af a6be 0b0a 4cbe e591 c7be
000000a0: 6df5 a83e b4a1 d6bd ea0f 5abd 79e1 4c3e
000000b0: 6e2e 1bbe 58de e13d 885c 3fbe f010 80be
000000c0: 45ae dabe 7226 2c3e 14ba 8dbe 98f3 12be
000000d0: f3ff c1be 0938 bebb 5747 8fbd 981b f438
000000e0: b26a e23e 493f eabb d595 e7be 08fc 203e
000000f0: 319a 483d e192 e13e 8797 203e 8170 8dbe
00000100: 3daf c7bd a226 90be 8c29 15be dcc2 72be
00000110: 96ef 0a3e a482 063e c3a0 9b3e fc22 2d3e
00000120: 81c5 2e3e 654c f73e 1064 7e3e d95e bb3e
00000130: 0cfd 833e 38e4 a2bd 20d2 e5be 9f78 d43e
00000140: c951 a8be 9ab6 a7bd 2bf2 2dbe 7d8d 673e
00000150: 3c8b 9fbe 49da afbe f35b f23d 00d4 233e
00000160: d364 c53d a1f8 c83e 5841 963e 4837 903d
00000170: ea7e bc3e a788 49be 5cd6 a4be 097b bd3e
00000180: dc5f ecbd cb84 7bbe 1be4 f8bc 0444 62bd
00000190: a358 953e 7b86 c03e e525 00bf 58bd cebe
000001a0: 924e b7bc dc9c 4fbd b128 2cbe e609 72bb
000001b0: 6a81 0c3e 10a7 f4be b64c fb3e c8e6 763e
000001c0: 3008 f6be b036 923e 841c 90be c2e8 013e
000001d0: ffd9 fabe 04a7 5ebe 2d51 be3e a756 01bf
000001e0: 216e d93e 3684 e7be 2305 863e d53c 5b3e
000001f0: 5bbb 03be a53d aa3e 67d4 163e 7c7e 3fbe
00000200: fd8a 90be 84d6 d4be 2ea9 a43b 2699 92bd
00000210: 91a8 fabe 851a 7fbd 6083 09bd cf8f 913e
00000220: c16b a1be d228 fabe f457 a0be 9add a53d
00000230: 0d65 1bbe eacc 463e bb6f 8d3e cff7 83be
00000240: b072 533e 9908 afbe 2da5 a2be 8588 803e
00000250: 1076 d3be f3bc f73e 03a9 d9be f3d6 ce3e
00000260: 727a 683d 11b3 3ebe d95f 103e 3b9b 31be
00000270: 9ec7 153e 8792 22be f7ea a4be d47f c0be
00000280: e90e cebe 7abe 9b3d 4172 f3be 30be f93e
00000290: be8b c2be 80e7 edbe bc83 6cbe a2c2 423d
000002a0: b6e5 e2bd 64bd d13e 8894 cb3d ca19 b23e
000002b0: 53d3 ad3e bb0e abbe 1582 133e 18b8 72be
000002c0: 8388 813d 6f90 f9be f3de e1be b6a3 bf3e
000002d0: f70f b1bd dbce 983d a6ed 3bbe 4cdb 83be
000002e0: dbd1 e4bc 0087 1e3e b43d 543d 5632 d6be
000002f0: 093a d2be bc5e 3c3e b327 52bd d99c 7b3d
00000300: 6814 f03e 2884 ecbd ccaa 5cbc b340 ddbc
00000310: 2cd4 aabe 6b9b a63e b27d 0b3e b5c4 183e
00000320: bf60 debd 4772 613c 0a5d 97be 06a8 99be
00000330: 53c0 013c 176b 93be 114a 07be 4a75 a83e
00000340: 36bf d13e 4dc6 90be fe48 e3be 7d7b 22be
00000350: 99a3 b33d b5c3 7ebe cf7a 033e e996 b93e
00000360: 055c 923e e3ca eebe 42ff 84bd 8277 c83d
00000370: 5083 e7be ab42 c63e 1b68 98be 4272 923d
00000380: 4344 e93e 57db c93d eea7 e0be 5aff 8b3e
00000390: b452 0db9 9fae e93e 26b7 3b3e b380 863e
000003a0: 25f2 793d f320 b3be 5b13 eb3e b94f f93e
000003b0: 1fe2 a13e 61c4 903e b6ae f53e d856 aebd
000003c0: 1a3b 923e df20 59b9 434e d63e 2fb7 bcbd
000003d0: 2d40 02bd 4560 013e 1f79 ae3e 77f1 b63e
000003e0: 394f ccbb 6221 dcbd 647c 2cbe c130 1b3e
000003f0: d2d8 d53e e29a c93d aafe 763e 4f8c 423e

2.weight f4 [256, 256]
-0.012598435 -0.0635535 -0.056130297 -0.014300465 0.020202769 -0.05927897 -0.040860508 -0.029770842
0.04644641 0.01343522 -0.049306527 0.021293337 0.039735906 -0.009381037 -0.00086979044 0.052432135
0.041045535 0.020818284 -0.051459644 -0.05778627 0.026488177 0.038786013 0.012944744 0.02029264
0.03656922 -0.05733584 -0.023174884 0.028207632 -0.022071203 0.0027795625 0.052664842 0.05775698
0.06598917 0.056806672 -0.038106326 0.03739074 0.055807568 0.019004958 -0.001221971 -0.008709631
0.046511594 -0.047986638 0.038328256 -0.025799219 0.051329847 -0.002052896 -0.031727828 -0.04594898
0.05225623 0.010690098 -0.030103557 0.061639752 0.044616465 -0.0015032215 0.010567254 -0.016728155
0.031640224 0.048428975 -0.033238553 -0.0022966904 0.064976506 -0.04551572 -0.019681456 0.031566463
-0.07384489 -0.057006206 0.05938622 0.06668909 -0.0038511103 -0.06426076 -0.00526039 0.007855133
-0.042864423 -0.050329577 0.02961016 -0.01389456 0.032901496 0.03776696 -0.011148456 -0.037859995
0.018370263 0.032292336 0.059437934 -0.019953845 -0.04153665 0.031729773 -0.0026267008 -0.027043441
-0.03908014 -0.017945087 -0.0103261145 0.054229323 -0.0066697956 -0.023240682 0.009754195 0.01968376
-0.0048695737 0.010981793 -0.045810375 0.027019558 -0.02252773 -0.05608196 0.010374744 0.01493106
0.033750433 -0.048921704 0.05401578 -0.043415774 0.013242623 0.009746803 0.03074743 -0.004585631
0.03610419 -0.0050453027 -0.032430235 0.026249425 -0.060161754 -0.022168336 0.011953774 -0.05950388
0.020600297 -0.058864057 0.05305496 -0.05271704 -0.055756535 0.025365435 0.054851625 0.05831363
-0.02704251 0.027401589 0.002868051 -0.007939839 -0.0023875956 0.03001014 -0.06282641 -0.019827275
-0.055122793 -0.036817096 -0.054068506 0.03590258 -0.051396567 0.047566682 -0.022617199 -0.057048406
-0.04895826 0.00037465943 -0.055405483 0.030806594 -0.039241474 0.051341016 -0.032440476 0.017219821
-0.020024769 -0.01769292 0.05264091 0.00021955608 0.071842 0.028873246 -0.029286362 -0.013981763
0.009945415 0.07234397 -0.03658995 0.034355924 0.039372824 -0.042365253 0.01092063 0.05319959
-0.035256896 0.013830651 -0.052517038 -0.019015865 0.002903825 -0.06333709 0.00063251186 0.022382068
0.063107125 0.021706551 0.039733745 -0.03475278 0.0026222735 0.032927405 -0.014170969 0.013983818
0.055488255 0.07050547 0.061334066 0.0013904313 0.042294644 0.0028719297 0.05375007 0.00754411
0.02724022 -0.052171573 0.044016644 0.028944714 -0.049124457 0.058711708 -0.021009536 0.0018131135
-0.046420645 -0.021607038 -0.008366049 -0.057710078 -0.0070444504 -0.055371147 0.033890717 0.04146249
-0.0012201866 0.031354595 0.010809099 0.033762466 0.005192606 -0.014275937 -0.048584796 0.0650674
0.06972685 -0.000415473 -0.07383054 0.0015518251 0.022311542 -0.03469213 -0.022124514 -0.017865093
-0.011303858 0.031229027 -0.050551135 0.06931126 -0.04032079 0.048489477 -0.032449797 0.059698712
-0.019800024 -0.0067420825 -0.055466402 -0.036464263 -0.0019003423 0.01189665 0.037442 -0.02412902
0.054895837 0.035995346 -0.030598372 0.06739073 0.030362569 -0.02441922 -0.031134779 0.0655541
0.0056248163 -0.06501296 -0.028991267 -0.048584785 -0.031269953 0.05464915 -0.04063221 0.059074894
00000000: ab69 4ebc 5628 82bd e2e8 65bd 7f4c 6abc
00000010: 4780 a53c 81ce 72bd 595d 27bd fbe1 f3bc
00000020: 973e 3e3d 661f 5c3c a4f5 49bd 5d6f ae3c
00000030: 1ec2 223d ecb2 19bc a602 64ba 14c3 563d
00000040: 5d1f 283d 1b8b aa3c 59c7 52bd 4cb1 6cbd
00000050: bcfd d83c 15de 1e3d 3116 543c c03c a63c
00000060: 9bc9 153d fcd8 6abd 41d9 bdbc b113 e73c
00000070: abce b4bc 5229 363b 17b7 573d 9592 6c3d
00000080: 5425 873d 1dae 683d 6115 1cbd 0827 193d
00000090: 7a96 643d 49b0 9b3c 8b2a a0ba d7b2 0ebc
000000a0: f182 3e3d a38d 44bd 17fe 1c3d e258 d3bc
000000b0: 3f3f 523d e189 06bb 0af5 01bd ff34 3cbd
000000c0: a10a 563d 8525 2f3c bc9b f6bc f779 7c3d
000000d0: c1bf 363d be07 c5ba 4722 2d3c 7c09 89bc
000000e0: 2e99 013d 765d 463d 2625 08bd 1284 16bb
000000f0: 6712 853d b16e 3abd 013b a1bc d64b 013d
00000100: fd3b 97bd 577f 69bd f73e 733d 4a94 883d
00000110: e962 7cbb 259b 83bd 5a5f acbb d1b2 003c
00000120: 9b92 2fbd 6326 4ebd 0291 f23c 02a6 63bc
00000130: b8c3 063d 87b1 1a3d 03a8 36bc 1513 1bbd
00000140: 3c7d 963c f844 043d 3175 733d 3f76 a3bc
00000150: 5622 2abd 14f7 013d ba24 2cbb 358a ddbc
00000160: 7f12 20bd 9301 93bc dd2e 29bc 911f 5e3d
00000170: 4d8e dabb 3e63 bebc 0fd0 1f3c d63f a13c
00000180: f290 9fbb faec 333c a9a3 3bbd 1f58 dd3c
00000190: 138c b8bc 33b6 65bd d5fa 293c 68a1 743c
000001a0: e53d 0a3d 2062 48bd a73f 5d3d bdd4 31bd
000001b0: 96f7 583c 0eb1 1f3c 09e2 fb3c 1043 96bb
000001c0: fde1 133d 1153 a5bb 91d5 04bd 0909 d73c
000001d0: 2c6c 76bd 5f9a b5bc c3d9 433c 57ba 73bd
000001e0: f4c1 a83c 701b 71bd 2850 593d d3ed 57bd
000001f0: f760 64bd 2ccb cf3c 19ac 603d 46da 6e3d
00000200: 4188 ddbc 4c79 e03c e9f5 3b3b 1916 02bc
00000210: 3579 1cbb d3d7 f53c 22ab 80bd cf6c a2bc
00000220: 70c8 61bd 86cd 16bd f076 5dbd 950e 133d
00000230: 3585 52bd 48d5 423d b447 b9bc 97ab 69bd
00000240: 7588 48bd f06d c439 dcf0 62bd 1c5e fc3c
00000250: abbb 20bd f54a 523d 4ee0 04bd 9510 8d3c
00000260: fc0a a4bc bef0 90bc ff9d 573d a338 6639
00000270: e621 933d 9687 ec3c f4e9 efbc c413 65bc
00000280: 18f2 223c 1329 943d 58df 15bd ccb8 0c3d
00000290: 6645 213d 3087 2dbd 71ec 323c d0e7 593d
000002a0: 8969 10bd f499 623c 1b1c 57bd 29c7 9bbc
000002b0: 194e 3e3b e0b6 81bd 27cf 253a 995a b73c
000002c0: 4f3e 813d f0d1 b13c dabf 223d ee58 0ebd
000002d0: 73da 2b3b e3de 063d 5a2d 68bc 621c 653c
000002e0: a747 633d 2c65 903d 6e39 7b3d 223f b63a
000002f0: 263d 2d3d fc36 3c3b 0929 5c3d 9534 f73b
00000300: e226 df3c dcb1 55bd cc4a 343d 771d ed3c
00000310: ba36 49bd b07b 703d 311c acbc fea5 ed3a
00000320: 9323 3ebd 3e01 b1bc c111 09bc 6761 6cbd
00000330: 22d5 e6bb dbcc 62bd fed0 0a3d 92d4 293d
00000340: abee 9fba ad6d 003d a618 313c 834a 0a3d
00000350: bc26 aa3b 9fe5 69bc da00 47bd 0f42 853d
00000360: f3cc 8e3d d8d3 d9b9 7734 97bd 9c66 cb3a
00000370: b2c6 b63c 5619 0ebd 783e b5bc d159 92bc
00000380: d133 39bc 04d4 ff3c b50e 4fbd 10f3 8d3d
00000390: 6a27 25bd e79c 463d 14ea 04bd a386 743d
000003a0: a933 a2bc b0ec dcbb bd30 63bd 8d5b 15bd
000003b0: e814 f9ba 2bea 423c c85c 193d 39aa c5bc
000003c0: 75da 603d db6f 133d 70a9 fabc 2704 8a3d
000003d0: ecba f83c d10a c8bc 5d0e ffbc 3a41 863d
000003e0: 6150 b83b 8425 85bd 187f edbc d700 47bd
000003f0: ec14 00bd cad7 5f3d f66d 26bd 84f8 713d

2.bias f4 [256]
-0.0010668957 -0.045936227 -0.061729793 -0.026338132 -0.03545486 0.034196205 -0.030620834 0.007645571
-0.04404286 -0.036101107 -0.033173688 0.049041618 -0.06365489 0.040503453 0.014901085 -0.041937463
0.03850385 0.013222587 -0.035179663 0.0076004164 -0.030497279 0.007411457 -0.00047200182 -0.0029042955
0.008475493 -0.019716064 -0.0011412514 -0.00609142 -0.011764466 -0.033493966 0.0286058 0.015645493
-0.05236291 0.043056633 0.05296364 -0.0066088946 -0.027434943 -0.043117944 0.015466351 -0.010374918
0.025474008 -0.0159854 0.02018997 -0.030576551 0.043933824 -0.012433528 0.035754412 -0.01758565
-0.060588457 -0.053306352 0.012582137 0.047162663 -0.028218254 0.018913329 -0.0263358 -0.018354097
0.050018378 -0.032833494 0.027835963 0.035111357 -0.020412497 -0.051992346 -0.052385125 -0.06680456
-0.060786325 0.015308636 -0.04448976 -0.03014295 -0.022223942 -0.022398459 0.0075357724 -0.043427464
-0.03980572 0.037472356 -0.005231615 -0.0153953945 0.045341484 0.043286875 0.011290184 0.0049983547
0.0506132 -0.037027705 0.05363673 0.03380124 -0.004250319 -0.02291935 -0.024921943 -0.053893656
0.06323731 -0.027965982 -0.056810506 0.054579906 -0.041279722 -0.0518646 -0.0075483425 -0.049122773
0.024851823 0.061966088 -0.008524315 -0.02991847 0.038591046 -0.04052177 -0.023139577 -0.053816997
0.012631494 -0.004542644 0.02656455 0.004210565 -0.040739622 -0.013561773 0.003491405 0.0066996193
0.04032252 0.043186903 -0.018999288 -0.06753606 0.01180363 0.061435856 0.053599115 0.007600001
0.013006294 0.034620006 0.020042878 -0.053181965 -0.010326091 -0.050631877 -0.038796857 0.04281791
-0.05389073 -0.038769957 -0.033457346 -0.040554546 0.033354122 0.02195117 0.056632824 -0.0637676
-0.039533723 -0.054120056 0.06166361 0.034977958 -0.0033674818 -0.0054773586 0.050357252 -0.01849211
0.0092396075 -0.055667616 -0.04493674 -0.019552615 -0.037160847 -0.052154288 -0.0640567 0.00042914064
0.02665896 -0.057873942 -0.036983717 -0.020864913 0.013647294 -0.00018776728 -0.015195318 0.01563732
-0.006190783 -0.030255135 0.031244386 -0.004077887 -0.028838191 -0.048801515 0.009419603 0.05195985
-0.0006467439 -0.04617197 -0.006928861 0.011767673 0.010569798 0.030208535 -0.04802445 -0.04207712
-0.023995096 0.021125024 -0.033176377 0.03729259 0.042969905 0.05692879 0.045001224 -0.019211074
0.04369951 0.023762472 -0.05702232 0.034034807 -0.024572155 0.02263607 0.013412045 -0.042458456
0.03781439 -0.02495892 -0.013679825 -0.013743631 -0.028847482 0.05163357 0.029645534 0.049019918
0.01114966 -0.0658317 -0.036225904 0.03073997 0.033035208 0.030564353 -0.012128633 -0.029529465
0.0059587364 -0.06516521 -0.050217215 0.02501447 -0.040272117 0.04485303 -0.046010375 -0.023128202
0.02458559 0.033504773 -0.06367772 0.04717564 -0.03329563 0.026394337 0.016499974 0.05309804
-0.045411453 0.068269655 0.065597825 0.015486095 -0.014477935 -0.036614966 0.05855129 -0.004676744
0.0024825747 0.045493335 -0.034897793 0.023255132 0.0030976154 0.04869566 0.010816288 -0.012205464
0.039963502 0.043003183 -0.06220501 0.06246217 0.059617598 0.044580936 0.031324774 -0.05291748
0.0424521 0.0050491355 0.03356855 0.05208492 -0.06686247 -0.030920483 -0.0068593817 -0.03865921
00000000: 14d7 8bba a027 3cbd 61d8 7cbd 11c3 d7bc
00000010: 1e39 11bd 5211 0c3d 8bd8 fabc b387 fa3b
00000020: 4966 34bd c1de 13bd 22e1 07bd dddf 483d
00000030: 7f5d 82bd f3e6 253d ae23 743c 9ec6 2bbd
00000040: 37b6 1d3d 8da3 583c 8d18 10bd ea0c f93b
00000050: 6ed5 f9bc cfdb f23b 0377 f7b9 fe55 3ebb
00000060: cbdc 0a3c 9583 a1bc 0b96 95ba 899a c7bb
00000070: bfbf 40bc f830 09bd b656 ea3c fa2a 803c
00000080: 7e7a 56bd 275c 303d 67f0 583d 6d8f d8bb
00000090: 3fbf e0bc 719c 30bd 9466 7d3c 8ffb 29bc
000000a0: deae d03c d0f3 82bc 7065 a53c ad7b fabc
000000b0: f4f3 333d ffb5 4bbc 3873 123d c80f 90bc
000000c0: 9a2b 78bd c357 5abd 4f25 4e3c a32d 413d
000000d0: f829 e7bc 20f0 9a3c 2dbe d7bc 555b 96bc
000000e0: 12e0 4c3d 6a7c 06bd 3f08 e43c edd0 0f3d
000000f0: 1c38 a7bc edf5 54bd c991 56bd d4d0 88bd
00000100: 15fb 78bd 13d1 7a3c e53a 36bd 59ee f6bc
00000110: fc0e b6bc f97c b7bc a4ee f63b ffe0 31bd
00000120: 530b 23bd 9d7c 193d f86d abbb f73c 7cbc
00000130: feb7 393d 944d 313d 77fa 383c 3dc9 a33b
00000140: c94f 4f3d 5daa 17bd 30b2 5b3d 2b73 0a3d
00000150: 4346 8bbb 5cc1 bbbc 1a29 ccbc 98bf 5cbd
00000160: 9082 813d ea18 e5bc 22b2 68bd 2e8f 5f3d
00000170: ed14 29bd fa6f 54bd 1658 f7bb f634 49bd
00000180: 0d96 cb3c 27d0 7d3d 92a9 0bbc 9417 f5bc
00000190: a511 1e3d 28fa 25bd 368f bdbc 366f 5cbd
000001a0: 53f4 4e3c 76da 94bb e69d d93c c7f8 893b
000001b0: 97de 26bd 3332 5ebc 0ed0 643b 7b88 db3b
000001c0: 3a29 253d c0e4 303d 65a4 9bbc 5950 8abd
000001d0: 0364 413c 2aa4 7b3d bf8a 5b3d 6e09 f93b
000001e0: 5a18 553c b5cd 0d3d f630 a43c 55d5 59bd
000001f0: c42e 29bc 5f63 4fbd 74e9 1ebd d561 2f3d
00000200: 87bc 5cbd 3fcd 1ebd 920a 09bd 861c 26bd
00000210: 559e 083d f1d2 b33c d2f7 673d 9698 82bd
00000220: 1dee 21bd feac 5dbd fb92 7c3d 0c45 0f3d
00000230: f8b0 5cbb 6a7b b3bb 6843 4e3d c47c 97bc
00000240: b961 173c ba03 64bd 960f 38bd ce2c a0bc
00000250: f935 18bd bc9f 55bd 2930 83bd 48fe e039
00000260: e463 da3c 3a0d 6dbd 3d7c 17bd e5ec aabc
00000270: e698 5f3c 65e3 44b9 c8f5 78bc d619 803c
00000280: 0ddc cabb 9ed9 f7bc 3af4 ff3c cc9f 85bb
00000290: 123e ecbc 19e4 47bd ae54 1a3c dad3 543d
000002a0: 408a 29ba d21e 3dbd 800b e3bb 33cd 403c
000002b0: f22c 2d3c e477 f73c 49b5 44bd 0f59 2cbd
000002c0: 5d91 c4bc 630e ad3c f4e3 07bd 1dc0 183d
000002d0: 3601 303d 2a2e 693d 3453 383d 8b60 9dbc
000002e0: 42fe 323d 84a9 c23c 3c90 69bd 1568 0b3d
000002f0: 8b4b c9bc 486f b93c 32be 5b3c ebe8 2dbd
00000300: 43e3 1a3d a676 ccbc 5821 60bc f72c 61bc
00000310: 8e51 ecbc b97d 533d 31db f23c 1cc9 483d
00000320: 10ad 363c c5d2 86bd 9d61 14bd 64d2 fb3c
00000330: ed4f 073d 1862 fa3c 2db7 46bc c7e7 f1bc
00000340: 8141 c33b 5675 85bd 91b0 4dbd 25eb cc3c
00000350: 60f4 24bd d0b7 373d 6075 3cbd 5b77 bdbc
00000360: b867 c93c 4d3c 093d 7769 82bd 3e3b 413d
00000370: 0061 08bd f038 d83c f42a 873c 557d 593d
00000380: 5c01 3abd f6d0 8b3d 2758 863d 64b9 7d3c
00000390: dc34 6dbc 93f9 15bd 7ad3 6f3d 5f3f 99bb
000003a0: b1b2 223b 3857 3a3d fdf0 0ebd 8c81 be3c
000003b0: 5d01 4b3b 1a75 473d cd36 313c 6df9 47bc
000003c0: c5b0 233d 1b24 303d aeca 7ebd 55d8 7f3d
000003d0: 9531 743d 809a 363d 684e 003d 00c0 58bd
000003e0: 41e2 2d3d 3873 a53b 2d7f 093d ff56 553d
000003f0: 31ef 88bd f44c fdbc aac4 e0bb 1f59 1ebd

4.weight f4 [2, 256]
-0.044296555 -0.06493892 0.030078229 -0.036039058 -0.023929413 -0.005823443 0.010066157 -0.037834276
-0.03776563 -0.027889542 -0.029447481 0.03664469 0.02300559 0.043863237 0.006337431 -0.029005265
-0.055818122 -0.026758786 -0.026204951 -0.038131412 0.01346323 0.008676712 0.026790824 0.004975493
-0.04384232 -0.0141826635 0.06847475 0.014159268 0.025071943 0.046478 0.06825624 0.07299741
0.05504817 0.03900456 0.0077682463 -0.03742426 0.03847496 0.058789942 0.022609467 0.00792617
0.0072627934 0.046127196 -0.048442625 -0.007970848 -0.043405253 0.05923045 -0.040789023 0.026260376
0.027756622 -0.021524344 0.017688975 -0.07921407 0.009993284 0.05167346 0.027293129 0.031363185
-0.024806576 0.03842573 0.009328571 0.023663202 -0.020571485 -0.04441401 0.0068633463 0.046075832
0.060243826 0.024851764 -0.046670787 -0.032401145 -0.0133530395 0.015826428 -0.0035709783 0.05791179
-0.011594818 -0.066059224 -0.054598976 0.07380676 -0.06830883 0.043508865 0.040570356 -0.03490196
-0.0414122 0.026223786 0.033070643 0.024525492 -0.014598997 -0.028680963 -0.04434687 0.035706516
-0.03135287 -0.036845025 -0.043722596 0.039162353 0.009679464 -0.011596463 0.013015621 -0.026893858
-0.06415121 -0.04270839 0.025245404 0.06372069 0.03816285 0.05150462 0.055845674 0.010332477
-0.022399995 -0.053624105 -0.008364354 0.06960728 0.017220367 -0.01216624 -0.053857114 0.0075151245
0.019990072 -0.039216354 0.045783583 0.038689177 -0.0357549 -0.048772328 0.05530588 0.0518041
0.024071861 0.018151313 0.06264668 -0.049770933 -0.002135456 0.040525313 0.03512346 0.06142715
0.009666104 0.036491096 0.017793486 -0.038011834 -0.007180844 0.07294192 -0.03731246 0.06693926
-0.0010031342 -0.029595608 -0.058970314 0.047053713 0.0315069 -0.06511652 -0.011904294 0.008520602
-0.009049574 0.040860295 0.056550093 -0.04443504 0.021463133 0.0064877737 0.03326053 0.0383025
-0.020471685 -0.03384156 -0.06336314 0.01664686 -0.03872371 0.04343108 0.051438153 -0.053353056
0.0567151 0.059853155 0.028485771 -0.06540963 -0.047510594 0.010118852 0.0012106309 0.064054914
0.05090077 -0.036378283 0.046767004 0.013196241 0.030184798 0.037673682 -0.007853882 -0.07424158
-0.05445142 0.01158124 0.018274823 0.068578295 0.054605026 -0.070366204 -0.050471913 -0.009097067
0.010258974 -0.04978698 0.039904412 0.014705366 -0.04714241 0.046127103 -0.036156222 0.058218382
-0.066922836 -0.04883113 0.023055058 -0.007548021 0.0517973 -0.0050994176 -0.005456928 -0.005414518
0.042302024 0.04797737 0.044474196 -0.00160693 -0.06354881 -0.0071713827 0.034532283 0.029504329
0.05805997 0.009288469 0.018406 -0.023556625 -0.05222845 -0.00044440222 0.03121933 0.024147183
-0.010397951 -0.007021895 0.037351005 0.04435261 0.0047942544 -0.050308812 -0.008527898 -0.0046412447
0.056910574 -0.056523398 0.04718708 -0.05315445 -0.046770804 -0.032142326 -0.044631887 0.018053737
0.007295899 -0.04394898 0.067724146 0.048147153 -0.059058413 -0.052282266 0.0032656633 -0.047303613
-0.008944461 -0.027991174 0.0056373505 -0.031646166 -0.04791763 0.038136188 0.048565745 0.035414804
-0.034869887 -0.029142184 -0.036363754 -0.05669656 0.061218727 0.058373325 0.01723181 -0.014855293
00000000: 4e70 35bd b2fe 84bd 9e66 f63c b19d 13bd
00000010: 9e07 c4bc 95d2 bebb 86ec 243c 1df8 1abd
00000020: 22b0 1abd 9c78 e4bc d83b f1bc be18 163d
00000030: 3876 bc3c f0a9 333d 39aa cf3b 739c edbc
00000040: 8ba1 64bd 3e35 dbbc c4ab d6bc af2f 1cbd
00000050: e194 5c3c c528 0e3c 6e78 db3c 7609 a33b
00000060: 0194 33bd 675e 68bc 7d3c 8c3d 46fc 673c
00000070: ad63 cd3c b75f 3e3d edc9 8b3d ab7f 953d
00000080: 317a 613d 3fc3 1f3d c68c fe3b 2e4a 19bd
00000090: eb97 1d3d b9cd 703d 7d37 b93c c4dc 013c
000000a0: bafc ed3b dfef 3c3d c66b 46bd 2998 02bc
000000b0: b5c9 31bd a19b 723d 6412 27bd 0020 d73c
000000c0: db61 e33c d253 b0bc 78e8 903c fd3a a2bd
000000d0: dfba 233c 8da7 533d d795 df3c af76 003d
000000e0: 2937 cbbc 4c64 1d3d ddd6 183c 55d9 c13c
000000f0: 8885 a8bc 77eb 35bd ece5 e03b 03ba 3c3d
00000100: 3bc2 763d ed95 cb3c de29 3fbd 10b7 04bd
00000110: b5c6 5abc 6da6 813c 1307 6abb ea34 6d3d
00000120: 31f8 3dbc 0f4a 87bd 2da3 5fbd 0028 973d
00000130: 80e5 8bbd 5a36 323d 1a2d 263d 5cf5 0ebd
00000140: d79f 29bd 44d3 d63c 1575 073d afe9 c83c
00000150: a230 6fbc 57f4 eabc 10a5 35bd ff40 123d
00000160: de6b 00bd cfea 16bd 7716 33bd b468 203d
00000170: 9d96 1e3c 17ff 3dbc 793f 553c 8250 dcbc
00000180: b661 83bd feee 2ebd 73cf ce3c fe7f 823d
00000190: a650 1c3d 82f6 523d 6fbe 643d 8d49 293c
000001a0: 3280 b7bc f3a4 5bbd a50a 09bc 438e 8e3d
000001b0: ba11 8d3c e954 47bc 4799 5cbd 6f41 f63b
000001c0: 38c2 a33c 54a1 20bd 9187 3b3d 8b78 1e3d
000001d0: bb73 12bd 7ec5 47bd 6b88 623d 8930 543d
000001e0: 5a32 c53c 10b2 943c e74c 803d 9bdc 4bbd
000001f0: 02f3 0bbb dffd 253d 9edd 0f3d 099b 7b3d
00000200: 945e 1e3c b077 153d a5c3 913c 4cb2 1bbd
00000210: 494d ebbb 9362 953d f3d4 18bd 7317 893d
00000220: 997b 83ba 7d72 f2bc db8a 71bd 65bb 403d
00000230: 610d 013d cf5b 85bd 3a0a 43bc ff99 0b3c
00000240: aa44 14bc 205d 273d 12a1 673d 8401 36bd
00000250: 74d3 af3c 6497 d43b 323c 083d 15e3 1c3d
00000260: 3cb4 a7bc 739d 0abd 89c4 81bd ff5e 883c
00000270: c19c 1ebd cae4 313d d0b0 523d bc88 5abd
00000280: 184e 683d 9528 753d fe5a e93c 7cf5 85bd
00000290: 789a 42bd 8bc9 253c 08ae 9e3a 392f 833d
000002a0: 537d 503d 6501 15bd c28e 3f3d 0c35 583c
000002b0: 1c46 f73c b84f 1a3d 92ad 00bc f80b 98bd
000002c0: 7408 5fbd 3ebf 3d3c 15b5 953c c772 8c3d
000002d0: 85a9 5f3d 281c 90bd a3bb 4ebd dd0b 15bc
000002e0: 4115 283c 6fed 4bbd cf72 233d c7ee 703c
000002f0: 6618 41bd c6ef 3c3d 8c18 14bd 6676 6e3d
00000300: d70e 89bd 2703 48bd f6dd bc3c 6455 f7bb
00000310: 6829 543d 0419 a7bb 08d0 b2bb 456c b1bb
00000320: e344 2d3d eb83 443d 932a 363d a09f d2ba
00000330: e125 82bd ebfd eabb b971 0d3d 10b3 f13c
00000340: 4bd0 6d3d aa2e 183c 2ec8 963c d3f9 c0bc
00000350: 80ed 55bd a8fe e8b9 aebf ff3c 50d0 c53c
00000360: 2b5c 2abc ed17 e6bb 5efd 183d 15ab 353d
00000370: 1f19 9d3b 9d10 4ebd 99b8 0bbc 9515 98bb
00000380: 101b 693d 1485 67bd 3d47 413d 7bb8 59bd
00000390: be92 3fbd aca7 03bd edcf 36bd 6ee5 933c
000003a0: 7012 ef3b d803 34bd f5b2 8a3d f335 453d
000003b0: 3ce7 71bd ee25 56bd bd04 563b 6fc1 41bd
000003c0: ca8b 12bc bf4d e5bc 86b9 b83b 699f 01bd
000003d0: 4745 44bd b134 1c3d e0ec 463d 1d0f 113d
000003e0: bad3 0ebd 97bb eebc 29f2 14bd a73a 68bd
000003f0: 7dc0 7a3d de18 6f3d ba29 8d3c 9d63 73bc

4.bias f4 [2]
-0.06757199 -0.042967636
00000000: 2f63 8abd d5fe 2fbd

exp_avg f4 [256, 4]
0.0008936767 -0.00016053402 -0.0028656977 0.000150861 0.0025701246 -0.00016167907 -0.010628019 -0.000470396
-0.0045388807 0.00089090207 0.012000211 -0.0025218972 -0.0014861393 -0.000114148505 0.0035571896 -0.0007447615
-0.0017160692 0.0006802863 0.004361852 -0.0013222026 -0.0036392778 3.2514414e-05 0.008856698 -0.0018878584
-0.0037902037 0.00087438495 0.016702393 9.911128e-05 0.0039351685 -0.00074373663 -0.010243798 0.0021255417
0.0017013038 -6.315105e-05 -0.003980536 0.0006449193 0.0010739181 -6.541259e-06 -0.0029451104 0.00024549782
-0.00031586332 -2.8518956e-05 0.0016495892 -1.0192752e-05 -0.0008188237 0.00012224687 0.001513512 -0.000519003
0.0027031703 0.000577633 -0.00689731 0.0008299585 0.004010772 4.5669913e-05 -0.010475582 0.0008619478
0.0044927294 -0.0002071683 -0.011312898 0.0017151705 0.00034633235 0.00033925817 -0.0027188468 -0.00046846602
-0.0017409405 0.0011185146 0.0052045593 -0.0012814832 0.0022370836 0.0003325936 -0.0045701335 0.0012259247
0.005870279 -0.001224715 -0.0179269 0.0016205694 0.0028581382 0.0010497484 -0.008919874 -0.00034638515
0.0014034153 0.000371928 -0.0036824415 0.00040861862 0.005227338 -0.00019053528 -0.018500803 0.00077328883
0.0007067869 -0.0002605545 -0.0027118202 4.911926e-05 0.0012290882 0.0011057782 -0.0008556015 0.00070817006
-0.00011678751 -0.00014196637 0.00057375606 5.2939977e-05 0.0009104878 0.00044898555 -0.0029671811 -0.00026697904
-0.0005964446 -5.0180483e-05 0.0022717176 -7.4744865e-05 0.0009695041 -0.0008408082 -0.004793501 0.00015279384
0.0014063099 0.0010403396 -0.005878898 -0.00096758123 -0.0042023812 -0.0012112901 0.009126134 -0.0014524953
-0.004798253 0.0013170562 0.014153016 -0.0020887658 -0.00063540525 0.00035810913 0.0029440045 -0.00012720628
0.0027585377 -0.0002933613 -0.01201114 -0.00037043536 0.0037472546 -0.00064799644 -0.0135761155 0.0005332119
-0.0013591431 0.0009436248 0.0033682885 -0.00148408 0.0013289347 0.00034445422 -0.005477057 -0.0005058623
0.00070724665 -0.00044876756 -0.0026697507 0.00015972603 -0.002117748 0.0012450999 0.005897404 -0.00173437
-0.0027989834 -0.0010137861 0.0057168845 -0.00049186155 0.0019371813 0.0011554004 -0.0023978075 0.0004585826
-0.0018617698 0.0007343111 0.0051619965 -0.001269931 0.0033534642 -0.0008954198 -0.007656268 0.0024138887
0.00078895467 0.00031336956 -0.0022606498 0.00017493563 0.0013937122 -0.00024609762 -0.0055934265 0.00011466015
0.0009541636 -0.00027487372 -0.0027780386 0.00022018596 0.00072766957 0.0005164372 -0.0022080585 -2.8714465e-05
0.00094138435 -0.00043842892 -0.0037616726 0.00017733827 0.005629459 0.0012573061 -0.014159881 0.0017543066
-0.0027018194 0.00092355715 0.007344574 -0.0013309903 0.0005129331 -0.00022989858 -0.0024068125 9.978419e-05
0.0025244914 -0.0003464206 -0.008320514 0.00035706704 0.0034353563 -0.0014217345 -0.0076631005 0.0028365152
0.0020650618 -0.001155335 -0.0045650955 0.0020947417 -0.0013624054 -0.0013353138 0.0022078094 -0.00024156121
0.0017760944 -0.00023933934 -0.00478404 0.0006106288 -0.00015108105 5.340344e-05 0.0007931301 0.000122435
-0.0006004463 0.00021764272 0.0029471861 0.00016059865 -0.0011758219 -3.9168635e-06 0.0033527294 -0.00042487463
-0.0060632885 0.0006145915 0.016634235 -0.0025349825 -0.0008323332 -0.00018685173 0.0022082 -0.00032210624
-0.006467542 0.00084526394 0.019036965 -0.002105122 -0.005909677 0.00093349273 0.0170635 -0.0015079493
0.0038783744 -0.0002606511 -0.007299155 0.002019881 -0.005243908 0.000246218 0.013548175 -0.0023011027
00000000: a145 6a3a 0655 28b9 6ece 3bbb 7130 1e39
00000010: 896f 283b 6588 29b9 2521 2ebc 7b9f f6b9
00000020: e4ba 94bb 6d8b 693a 889c 443c 6a46 25bb
00000030: 8fca c2ba 0363 efb8 bd1f 693b 193c 43ba
00000040: baed e0ba 3e55 323a deed 8e3b c24d adba
00000050: f380 6ebb 1660 0838 af1b 113c 0472 f7ba
00000060: 1165 78bb fb36 653a 75d3 883c f7d9 cf38
00000070: 96f2 803b 52f7 42ba 9ad5 27bc ac4c 0b3b
00000080: 48fe de3a f66f 84b8 286f 82bb cd0f 293a
00000090: b6c2 8c3a fd7c dbb6 c102 41bb 29b6 8039
000000a0: 759a a5b9 fe3b efb7 0737 d83a 8901 2bb7
000000b0: 54a6 56ba 652f 0039 0961 c63a b40d 08ba
000000c0: ac27 313b 4b6c 173a d402 e2bb 9291 593a
000000d0: cb6c 833b b28d 3f38 c7a1 2bbc 56f4 613a
000000e0: bf37 933b 513b 59b9 bc59 39bc 92cf e03a
000000f0: f193 b539 76de b139 ae2e 32bb 729c f5b9
00000100: 4530 e4ba 1f9b 923a 028b aa3b 71f7 a7ba
00000110: 099c 123b f55f ae39 0fc1 95bb 35af a03a
00000120: 785b c03b 9e86 a0ba 6fdb 92bc 4969 d43a
00000130: 9a4f 3b3b b697 893a aa24 12bc 079b b5b9
00000140: cef2 b73a 55ff c239 1e55 71bb dd3b d639
00000150: 174a ab3b 6dca 47b9 ff8e 97bc 89b6 4a3a
00000160: aa47 393a 089b 88b9 cbb8 31bb 6705 4e38
00000170: 5b19 a13a c2ef 903a 724a 60ba 7da4 393a
00000180: d1eb f4b8 cfdc 14b9 1e68 163a de0b 5e38
00000190: cdad 6e3a d265 eb39 0a75 42bb 52f9 8bb9
000001a0: b85a 1cba e278 52b8 19e1 143b 58c0 9cb8
000001b0: 5226 7e3a af69 5cba cd12 9dbb 4937 2039
000001c0: ee53 b83a 015c 883a c5a3 c0bb 47a5 7dba
000001d0: 21b4 89bb 27c4 9eba c885 153c a861 beba
000001e0: aa3a 9dbb 13a1 ac3a 0de2 673c ade3 08bb
000001f0: 5391 26ba 98c0 bb39 33f0 403b ad62 05b9
00000200: 95c8 343b 4ace 99b9 5fca 44bc fe36 c2b9
00000210: 8094 753b 4ede 29ba 5b6e 5ebc 3fc7 0b3a
00000220: 4625 b2ba 975d 773a 81be 5c3b 7685 c2ba
00000230: a62f ae3a dd97 b439 e278 b3bb d89b 04ba
00000240: 8566 393a 9048 ebb9 fcf6 2ebb 217c 2739
00000250: eac9 0abb 9f32 a33a 033f c13b cd53 e3ba
00000260: 266f 37bb 04e1 84ba b454 bb3b 45f0 00ba
00000270: 05e9 fd3a ce70 973a 8924 1dbb ea6d f039
00000280: a106 f4ba c97e 403a f725 a93b d073 a6ba
00000290: cbc5 5b3b 9bba 6aba 6ee1 fabb 5532 1e3b
000002a0: dad1 4e3a c04b a439 6927 14bb ed6e 3739
000002b0: 39ad b63a aa06 81b9 1049 b7bb b375 f038
000002c0: d620 7a3a ed1c 90b9 c10f 36bb b8e1 6639
000002d0: 14c1 3e3a 8461 073a 13b5 10bb d8df f0b7
000002e0: 3cc7 763a efdc e5b9 6586 76bb e1f3 3939
000002f0: 5377 b83b 31cc a43a d8fe 67bc c3f0 e53a
00000300: 0211 31bb df1a 723a c1aa f03b a074 aeba
00000310: 5c76 063a ee10 71b9 9dbb 1dbb 3b43 d138
00000320: f071 253b c99f b5b9 c452 08bc ba34 bb39
00000330: b723 613b 7e59 baba bf1a fbbb d4e4 393b
00000340: fd55 073b 9c6e 97ba cc96 95bb ef47 093b
00000350: bd92 b2ba b205 afba e5b0 103b 984b 7db9
00000360: d7cb e83a 2af7 7ab9 70c3 9cbb 9b12 203a
00000370: 836b 1eb9 82fd 5f38 0fea 4f3a e561 0039
00000380: 4567 1dba 0637 6439 9425 413b 5f66 2839
00000390: 091e 9aba 9a6d 83b6 77b9 5b3b b5c1 deb9
000003a0: 8dae c6bb 8a1c 213a 8544 883c f321 26bb
000003b0: ef30 5aba a1ed 43b9 73b7 103b 5ee0 a8b9
000003c0: aded d3bb b494 5d3a 69f3 9b3c 16f6 09bb
000003d0: f7a5 c1bb a3b5 743a c1c8 8b3c 62a6 c5ba
000003e0: 532c 7e3b 00a8 88b9 c02d efbb fb5f 043b
000003f0: 17d5 abbb d216 8139 2af9 5d3c 19ce 16bb

exp_avg_sq f4 [256, 4]
4.4945156e-07 1.125649e-07 1.0401588e-06 9.7301694e-08 1.4712365e-06 3.9659267e-07 1.17276495e-05 3.7937193e-07
7.033144e-06 3.6365448e-06 5.640854e-05 3.0530243e-06 3.45423e-06 1.0600053e-06 1.4111141e-05 1.8002702e-06
1.5209215e-06 7.438236e-07 7.5117987e-06 3.532235e-07 7.1585555e-06 2.7737483e-06 4.4619283e-05 3.5034575e-06
3.1890647e-06 1.8213905e-06 4.0136238e-05 9.22733e-07 5.3731846e-06 2.5531772e-06 3.93728e-05 2.2747347e-06
2.105585e-06 8.0875213e-07 5.6464037e-06 8.88089e-07 6.352318e-07 2.7050154e-07 2.027997e-06 2.696701e-07
5.976208e-07 2.2244488e-07 7.810981e-07 1.6308844e-07 5.8157906e-07 1.5641679e-07 1.8985186e-06 1.3262681e-07
5.94883e-06 1.8882866e-06 3.387428e-05 4.0668356e-06 4.7874764e-06 1.2252798e-06 2.5209107e-05 2.679557e-06
5.9881986e-06 1.596757e-06 4.160021e-05 3.3684785e-06 7.716781e-07 3.631265e-07 1.1569438e-06 3.556179e-07
1.4557929e-06 7.373851e-07 9.872784e-06 3.7963284e-07 3.7223517e-06 1.5369365e-06 2.1287658e-05 2.2136592e-06
1.0758371e-05 4.333644e-06 6.548744e-05 2.7772787e-06 3.6674207e-06 1.07451e-06 1.7569702e-05 2.305823e-06
2.5074694e-06 8.3896936e-07 1.3146854e-05 1.6612696e-06 9.395474e-06 3.860225e-06 8.2868835e-05 4.3157042e-06
2.6544973e-07 1.2642971e-07 7.736775e-07 1.10472904e-07 1.3395808e-06 7.2894335e-07 3.267468e-06 5.047533e-07
1.0845907e-06 6.0422263e-07 1.3113853e-06 6.611312e-07 2.3581144e-07 9.635824e-08 1.2141938e-06 1.2823538e-07
9.2636907e-07 3.2544614e-07 1.7442055e-06 2.78115e-07 8.323694e-07 3.6218145e-07 2.3413863e-06 2.9080144e-07
1.0944015e-06 3.679884e-07 4.6557634e-06 5.785059e-07 1.0012693e-05 3.1448922e-06 5.8448175e-05 5.5140504e-06
5.899245e-06 2.6030878e-06 5.2342253e-05 2.7153858e-06 1.446712e-06 4.645328e-07 3.4299762e-06 4.273936e-07
2.3879954e-06 7.7333954e-07 2.0262232e-05 6.782489e-07 2.2273662e-06 1.3016045e-06 2.7717677e-05 5.476515e-07
1.5941223e-06 7.610241e-07 4.7999715e-06 3.3279338e-07 2.7298734e-07 9.222212e-08 2.7857789e-06 1.5967983e-07
3.9843275e-07 1.8855398e-07 1.0323708e-06 2.2297694e-07 2.5542583e-06 1.2907824e-06 1.0717127e-05 5.217103e-07
3.6544818e-06 1.2220781e-06 1.354433e-05 2.438236e-06 2.3570587e-06 1.0677345e-06 6.891272e-06 2.0294797e-06
2.4257338e-06 1.0875096e-06 9.494377e-06 6.0397304e-07 4.5928214e-06 2.3362984e-06 3.0874602e-05 1.8737729e-06
7.7875404e-07 3.1819667e-07 2.0734685e-06 2.1562288e-07 1.8499306e-06 6.8986486e-07 1.0000943e-05 9.612476e-07
7.7051965e-07 3.117297e-07 2.1307562e-06 5.1907165e-07 1.6536943e-06 8.6118047e-07 2.279952e-06 7.556753e-07
6.4110594e-07 1.8882332e-07 3.4719872e-06 5.006117e-07 1.3302881e-05 6.019551e-06 9.78736e-05 4.962647e-06
2.8256327e-06 1.1574023e-06 1.22849515e-05 5.530058e-07 6.966869e-07 2.43952e-07 1.4144342e-06 1.8187748e-07
2.275129e-06 8.237279e-07 1.0426696e-05 5.861641e-07 3.2409616e-06 1.9154263e-06 2.4919009e-05 8.9740143e-07
1.7376792e-06 1.0883986e-06 9.864719e-06 4.1616855e-07 1.9402967e-06 1.2466055e-06 4.077836e-06 1.0438392e-06
2.40679e-06 8.461573e-07 1.00280495e-05 1.4266985e-06 3.7718263e-07 1.2275166e-07 1.8451465e-07 1.17637555e-07
3.2563213e-07 1.8734367e-07 8.379572e-07 2.1857826e-07 1.1769345e-06 5.2109374e-07 3.417278e-06 3.7338728e-07
1.3578552e-05 6.209638e-06 9.8643235e-05 6.2267072e-06 6.541891e-07 3.6058353e-07 3.272757e-06 3.5292175e-07
1.5506997e-05 6.7147434e-06 0.00010043988 4.70329e-06 1.0580234e-05 3.4675406e-06 5.98055e-05 4.383233e-06
4.6187215e-06 1.0268483e-06 2.4265511e-05 2.5424324e-06 1.2740074e-05 5.450953e-06 8.067419e-05 6.5232707e-06
00000000: 274c f134 35bb f133 969b 8b35 2cf4 d033
00000010: 4d77 c535 48eb d434 dfc1 4437 7bac cb34
00000020: 3ffe eb36 5d0b 7436 3598 6c38 8fe2 4c36
00000030: 38cf 6736 8145 8e35 e4be 6c37 d0a0 f135
00000040: 7722 cc35 2bab 4735 dc0d fc36 aba2 bd34
00000050: 8633 f036 a224 3a36 9725 3b38 f11c 6b36
00000060: b703 5636 8076 f435 f557 2838 bbb1 7735
00000070: 4e4b b436 4057 2b36 3924 2538 a5a7 1836
00000080: ad4d 0d36 0619 5935 3d76 bd36 0365 6e35
00000090: cc84 2a35 7339 9134 b918 0836 2dc7 9034
000000a0: 306c 2035 2fd9 6e34 a7ac 5135 691d 2f34
000000b0: cf1d 1c35 85f3 2734 9ad0 fe35 2e68 0e34
000000c0: 109c c736 0971 fd35 3b14 0e38 da75 8836
000000d0: 1ca4 a036 4b74 a435 2578 d337 70d2 3336
000000e0: 3cee c836 2750 d635 e37b 2e38 050e 6236
000000f0: 5125 4f35 baf3 c234 4948 9b35 c1eb be34
00000100: aa64 c335 b8f0 4535 49a3 2537 57d0 cb34
00000110: 84cd 7936 bc48 ce35 e692 b237 608e 1436
00000120: da7e 3437 b869 9136 4d56 8938 4961 3a36
00000130: cf1d 7636 e237 9035 a662 9337 bdbd 1a36
00000140: ff45 2836 8935 6135 4f91 5c37 caf8 de35
00000150: 41a1 1d37 1587 8136 dec9 ad38 9ecf 9036
00000160: 2283 8e34 bcc0 0734 b7ae 4f35 1f3d ed33
00000170: a5cb b335 9bac 4335 ac46 5b36 627e 0735
00000180: 4192 9135 dd31 2235 db02 b035 9778 3135
00000190: 5b33 7d34 81ed ce33 62f7 a235 13b1 0934
000001a0: 99ab 7835 fab8 ae34 721a ea35 d64f 9534
000001b0: fd6f 5f35 d771 c234 b620 1d36 721f 9c34
000001c0: 59e3 9235 f18f c534 b438 9c36 9f4a 1b35
000001d0: 30fc 2737 d60c 5336 4026 7538 5505 b936
000001e0: 21f2 c536 b5b0 2e36 118a 5b38 f939 3636
000001f0: a52c c235 e764 f934 8b2e 6636 8774 e534
00000200: 7341 2036 7d97 4f35 d0f8 a937 e910 3635
00000210: dc79 1536 cab2 ae35 4283 e837 5302 1335
00000220: a0f5 d535 2e49 4c35 710f a136 c6aa b234
00000230: 188f 9234 a60b c633 51f3 3a36 7574 2b34
00000240: 2ee8 d534 5375 4a34 fe8f 8a35 6f6b 6f34
00000250: d369 2b36 f23e ad35 b6cd 3337 a90b 0c35
00000260: 853f 7536 4906 a435 743c 6337 93a0 2336
00000270: f62d 1e36 144f 8f35 933b e736 3232 0836
00000280: cac9 2236 8cf6 9135 0a4a 1f37 b620 2235
00000290: 091c 9a36 4dc9 1c36 5a7f 0138 597e fb35
000002a0: 920b 5135 9ed4 aa34 eb25 0b36 f785 6734
000002b0: 224b f835 272f 3935 b9c9 2737 3704 8135
000002c0: b5d5 4e35 ce5b a734 1dfe 0e36 5556 0b35
000002d0: 81f4 dd35 df2b 6735 4701 1936 9cd9 4a35
000002e0: 7718 2c35 5cbf 4a34 4900 6936 c661 0635
000002f0: 702f 5f37 8dfb c936 7d41 cd38 d084 a636
00000300: 00a0 3d36 0a58 9b35 771b 4e37 4572 1435
00000310: f603 3b35 82f8 8234 97d7 bd35 1a4a 4334
00000320: 6bae 1836 261e 5d35 51ee 2e37 e458 1d35
00000330: 4c7f 5936 c68a 0036 2a09 d137 f5e4 7035
00000340: 343a e935 1715 9235 a580 2537 c56d df34
00000350: 0b36 0236 0a51 a735 58d4 8836 0b1a 8c35
00000360: 5684 2136 7d23 6335 253e 2837 fd7c bf35
00000370: 967f ca34 b8cd 0334 001f 4634 ee9f fc33
00000380: 8ad2 ae34 a328 4934 fbef 6035 56b2 6a34
00000390: 29f7 9d35 4ae1 0b35 6454 6536 f575 c834
000003a0: 70cf 6337 625c d036 afde ce38 02ef d036
000003b0: 889b 2f35 3996 c134 8aa1 5b36 3279 bd34
000003c0: 0615 8237 354f e136 40a3 d238 f4d0 9d36
000003d0: c281 3137 e5b3 6836 abd7 7a38 af13 9336
000003e0: 84fa 9a36 3dd2 8935 ca8d cb37 a89e 2a36
000003f0: 34be 5537 54e7 b636 a02f a938 78e2 da36
