distributed_shared/worker_logs/worker_7/models/model_episode_60.pt (torch, 816842 bytes, 16 tensors)

0.weight f4 [256, 4]
0	0xbecfc06c	-0.40576494
1	0xbe8a8df4	-0.27061427
2	0x3dc89d93	0.0979568
3	0x3ea3f589	0.32023266
4	0x3e3859f9	0.18003072
5	0xbe8c793c	-0.27436244
6	0xbe11671f	-0.14199494
7	0x3eb436af	0.3519797
8	0x3eb5f82e	0.3554091
9	0x3e03a697	0.12856518
10	0xbea2e1ed	-0.31812993
11	0x3dc1a61e	0.094555125
12	0x3e2f5518	0.17122304
13	0xbeb871d8	-0.36024356
14	0xbef24306	-0.4731676
15	0xbe881e16	-0.26585454
16	0xbd584ec8	-0.052809507
17	0x3ebe237d	0.3713645
18	0x3ecb6e7a	0.39732724
19	0xbef6046e	-0.48050255
20	0xbe3c9711	-0.18417002
21	0x3eec72ac	0.46181238
22	0xbdfb4d5f	-0.12270617
23	0x3d8b7e22	0.06811167
24	0xbe9a5692	-0.30144173
25	0xbdfefd2b	-0.12450632
26	0x3e1ddcfa	0.15416327
27	0x3eae54f4	0.3404919
28	0xbe818e17	-0.25303718
29	0xbe15c921	-0.14627506
30	0xbebd8658	-0.3701656
31	0x3e4df1e1	0.201118
32	0x3ec17b24	0.3778926
33	0x3eee7c17	0.46579048
34	0x3df126f7	0.1177501
35	0x3ea789d2	0.32722336
36	0xbee3aed2	-0.44469315
37	0x3e24caa7	0.1609293
38	0x3d691a23	0.05690969
39	0x3e26a3b0	0.1627338
40	0x3d583b54	0.052790955
41	0xbea15b2a	-0.31514865
42	0xbef2a1ae	-0.47388977
43	0x3d804317	0.06262796
44	0x3eb22675	0.34794965
45	0x3ef632e6	0.48085707
46	0xbed87ab4	-0.42281115
47	0x3d7ca2e7	0.061678793
48	0x3e0c1822	0.13681081
49	0x3e8cbd8e	0.2748837
50	0x3e75183e	0.23935029
51	0x3ecf7777	0.40520832
52	0x3efd9c6c	0.49533403
53	0x3e47d573	0.19515018
54	0xbbaa9a32	-0.00520637
55	0x3e3029f9	0.17203511
56	0x3e423544	0.18965632
57	0xbeeb31dd	-0.4593648
58	0x3cad1eb1	0.021132799
59	0xbe943885	-0.2894937
60	0xbdc3e6be	-0.09565495
61	0x3ed01438	0.40640426
62	0xbcea3cf3	-0.028593516
63	0xbe218b54	-0.15775806
64	0x3ea455a4	0.3209659
65	0x3eea1f7b	0.45727143
66	0xbe0c429d	-0.13697286
67	0xbef5ca02	-0.48005682
68	0xbedd98af	-0.4328055
69	0x3d740fa9	0.059585247
70	0x3e2e264b	0.17006795
71	0x3e50f081	0.20404245
72	0xbee8cd8c	-0.4546932
73	0x3ed8924f	0.42299125
74	0x3eabf1f8	0.33583045
75	0xbeb55ecc	-0.35423887
76	0x3e082dd0	0.13298726
77	0x3df0df6b	0.117613636
78	0x3da2f813	0.07957473
79	0xbeb2d984	-0.34931576
80	0x3ec81955	0.39081827
81	0xbdd572f0	-0.10422313
82	0x3b3d09e9	0.0028845018
83	0x3e19fe42	0.15038398
84	0x3eeccf87	0.4625208
85	0xbe7895b6	-0.2427586
86	0x3e5513fe	0.20808408
87	0x3e1e7546	0.15474424
88	0x3ddbbfe5	0.1072996
89	0x3efdd98d	0.4958004
90	0x3eda121d	0.42591944
91	0x3eb325d2	0.34989792
92	0x3e302540	0.1720171
93	0x3e77ed5a	0.24211636
94	0xbebf2677	-0.37334034
95	0x3eab6bac	0.33480585
96	0x3eb9b882	0.3627358
97	0x3eaa63d0	0.33279276
98	0x3ef19c83	0.4718972
99	0x3edb4819	0.42828444
100	0xbeb613ce	-0.35561985
101	0xbeface92	-0.48985726
102	0xbeae3697	-0.34026024
103	0x3dcb9c50	0.099419236
104	0xbe5a55e5	-0.21321829
105	0xbdf2158b	-0.11820515
106	0xbd7da604	-0.061925903
107	0xbe93f5c6	-0.28898448
108	0x3d813be5	0.06310252
109	0x3ec30dec	0.3809656
110	0x3e5ba4bf	0.21449564
111	0xbe4f631f	-0.20252655
112	0x3ecdbd8d	0.40183678
113	0x3e8dc348	0.2768805
114	0xbeefe44d	-0.46853867
115	0xbefc0c7b	-0.49228272
116	0x3eeb530e	0.45961803
117	0xbe517ad5	-0.20457013
118	0xbd951f7a	-0.07281394
119	0xbec11e9b	-0.37718663
120	0xbe8bb405	-0.27285782
121	0xbe2630cb	-0.1622955
122	0x3e894c9d	0.26816264
123	0xbc59f9a3	-0.013304147
124	0xbee42244	-0.44557393
125	0x3e2a74d1	0.16646124
126	0xbe524d9a	-0.20537415
127	0xbe0d9af0	-0.13828635
128	0xbe8ff11b	-0.28113636
129	0xbe8d6a51	-0.27620175
130	0x3e9dca05	0.3081819
131	0xbe9920a5	-0.29907718
132	0xbe6d53bb	-0.23176472
133	0xbea0bee0	-0.31395626
134	0xbe548c27	-0.20756589
135	0x3c999da4	0.018751927
136	0xbebe8812	-0.37213188
137	0xbef07b90	-0.4696927
138	0x3e80d715	0.25164095
139	0x3e60b0dc	0.21942466
140	0x3e004f32	0.1253021
141	0x3eff0c2f	0.49813983
142	0x3eb7aa42	0.35872084
143	0xbd399bf3	-0.04531474
144	0x3eff1dbb	0.4982737
145	0x3e49181e	0.19638106
146	0x3eb70196	0.35743397
147	0x3d12f91f	0.03588211
148	0x3eacf77f	0.33782575
149	0x3ea7da77	0.32783863
150	0x3ec0a13b	0.3762301
151	0x3ea8c5e7	0.32963488
152	0xbea5cb74	-0.32381785
153	0xbe326235	-0.17420276
154	0xbe97a361	-0.29616836
155	0xbe8f63f0	-0.28005934
156	0xbea5ab30	-0.32357168
157	0x3e99f9db	0.30073437
158	0x3e9edbd1	0.31027082
159	0x3eddf876	0.43353623
160	0xbed3c9af	-0.4136481
161	0xbe112926	-0.14175853
162	0xbede417d	-0.4340934
163	0xbe97deca	-0.29662162
164	0x3ebfa610	0.37431383
165	0x3eba6845	0.36407676
166	0xbee631fe	-0.44960016
167	0xbe99360f	-0.29924056
168	0xbd7ff84d	-0.062492657
169	0xbd2e156a	-0.04250089
170	0x3e1ba0fe	0.15198132
171	0x3deb5417	0.11490648
172	0xbea1b12c	-0.31580484
173	0x3e8c02f3	0.27346
174	0x3eb5ca5a	0.35505944
175	0x3ebc0fb2	0.36730725
176	0xbe599a84	-0.2125035
177	0x3ce4c8d4	0.027927794
178	0x3e8fe712	0.2810598
179	0x3e59f9bc	0.21286672
180	0x3e98f316	0.2987296
181	0xbe69053c	-0.22755903
182	0x3e86eedb	0.26354107
183	0x3ee8b97f	0.45454022
184	0xbebf5b96	-0.37374562
185	0x3e9c570a	0.30535156
186	0x3e5066ca	0.20351711
187	0xbee6dcae	-0.4509024
188	0xbe8204af	-0.25394198
189	0x3d4aa7f7	0.04947659
190	0x3e8e31b7	0.27772304
191	0x3f031b0e	0.5121316
192	0xbdd66f57	-0.10470455
193	0xbc1371b1	-0.008999274
194	0xbc945f7d	-0.018111939
195	0x3e8f83cd	0.28030244
196	0x3e150511	0.14552714
197	0xbe6b1a49	-0.22959246
198	0xbd1aa057	-0.03775057
199	0xbe53c3e0	-0.20680189
200	0xbe4a9a7c	-0.19785494
201	0x3e2b684f	0.1673901
202	0x3dfa0940	0.122087955
203	0x3e54a053	0.20764284
204	0xbeecaaed	-0.46224156
205	0x3eea185b	0.45721707
206	0x3e2e4a90	0.17020631
207	0x3e8e908c	0.27844656
208	0x3e4686d3	0.19387369
209	0x3ecfaba1	0.4056063
210	0x3c4c587a	0.012472266
211	0xbe6f0645	-0.23342235
212	0x3f012318	0.50444174
213	0xbe6c457c	-0.23073381
214	0x3edc31ad	0.4300665
215	0xbead1d44	-0.3381139
216	0xbe8eeb5a	-0.27913934
217	0x3e76ce71	0.24102189
218	0x3e37b17d	0.179388
219	0x3ea76bbb	0.3269938
220	0xbd345ab0	-0.0440318
221	0x3eeec976	0.46638077
222	0x3e992e14	0.29917967
223	0x3c259c5f	0.010108083
224	0xbe664d02	-0.22490314
225	0x3edda896	0.43292683
226	0xbe870a75	-0.26375166
227	0x3e36ed4e	0.17863962
228	0xbec8e370	-0.3923602
229	0xbd0212f8	-0.03175637
230	0x3e1c07c9	0.15237345
231	0x3d2de071	0.042450372
232	0x3e921e64	0.2853881
233	0x3e0ba8a8	0.13638556
234	0x3d47a68c	0.048742816
235	0xbecdd517	-0.40201637
236	0x3e30f0dd	0.17279382
237	0x3ef97435	0.4872147
238	0xbe9952d0	-0.29945993
239	0x3e834392	0.2563749
240	0xbd5b0e6f	-0.05348056
241	0x3eb56e0b	0.3543552
242	0x3e9026fa	0.28154737
243	0x3eb0b488	0.34512734
244	0x3e0e2865	0.13882597
245	0xbea5b695	-0.32365862
246	0x3d377ea7	0.04479852
247	0x3db20ca1	0.08693815
248	0x3ebf4298	0.37355494
249	0xbd40250d	-0.046910334
250	0xbd29b22c	-0.041429684
251	0x3d8bc14e	0.06823979
252	0xbdd460cd	-0.10370026
253	0xbec74f9b	-0.38927922
254	0xbe0230dd	-0.12713952
255	0xbd03db3d	-0.032191504

0.bias f4 [256]
0	0xbe706580	-0.23476219
1	0xbe8e35c1	-0.27775386
2	0x3ea744c0	0.3266964
3	0x3e223946	0.1584216
4	0x3e9c7d09	0.30564144
5	0x3daf2781	0.08552457
6	0x3de73dbe	0.11291073
7	0x3dcfe839	0.10151715
8	0xbec046f4	-0.37554133
9	0xbe296165	-0.1654106
10	0xbec9c89d	-0.39410868
11	0xbd725583	-0.05916358
12	0x3ecdfed2	0.40233475
13	0xbee125eb	-0.43974242
14	0x3c3f3509	0.011670359
15	0x3e930d83	0.28721246
16	0xbdaefdf6	-0.08544533
17	0x3dd23737	0.10264438
18	0xbe812df3	-0.2523037
19	0xbe95700a	-0.29187042
20	0xbb094d16	-0.0020950488
21	0x3e5ec5c1	0.21755125
22	0xbefc9141	-0.4932957
23	0x3e1595cf	0.14607929
24	0x3d26534d	0.040606786
25	0xbe97ed43	-0.29673204
26	0xbeb23ff7	-0.34814426
27	0x3e7435cf	0.23848651
28	0x3e9ca47b	0.3059424
29	0xbeb9e87d	-0.36310187
30	0xbe40b9f0	-0.1882093
31	0xbeafcde7	-0.3433678
32	0xbdf5e6ba	-0.12006898
33	0x3eecc022	0.46240336
34	0xbea48d29	-0.32138947
35	0xbe25f36a	-0.16206136
36	0x3e83bae9	0.2572854
37	0xbe9eabc8	-0.30990434
38	0xbe45e287	-0.19324695
39	0xbec9e65e	-0.3943357
40	0x3ea0f1a6	0.31434363
41	0xbdc3a46a	-0.09552844
42	0xbd820dc5	-0.063502826
43	0x3e44520c	0.19171923
44	0xbe240fff	-0.16021727
45	0x3dd369d5	0.1032292
46	0xbe45715a	-0.19281521
47	0xbe83dd2b	-0.25754675
48	0xbeddbebd	-0.43309584
49	0x3e2af2b0	0.1669414
50	0xbe8ff50e	-0.2811665
51	0xbe1a09d9	-0.15042819
52	0xbebe3847	-0.3715231
53	0x3a94a143	0.0011339564
54	0xbd9fe1bf	-0.078067295
55	0x3b852e20	0.0040643364
56	0x3edef5c4	0.4354688
57	0xbc632693	-0.013864177
58	0xbee3a687	-0.44462988
59	0x3e28170a	0.16415039
60	0x3d26ee12	0.040754385
61	0x3edd962a	0.4327863
62	0x3e271b78	0.16319072
63	0xbe8c23ac	-0.27370965
64	0xbdb6d217	-0.0892679
65	0xbe8b170e	-0.27166027
66	0xbe1dbf55	-0.15405019
67	0xbe788b14	-0.24271804
68	0x3e00f03e	0.12591645
69	0x3e0c3359	0.13691463
70	0x3e989b2d	0.2980589
71	0x3e2c586e	0.16830608
72	0x3e273a40	0.16330814
73	0x3ef615c1	0.48063472
74	0x3e7718bb	0.24130528
75	0x3eb621a9	0.35572556
76	0x3e80b490	0.25137758
77	0xbdb1eda4	-0.086879045
78	0xbeea3e4d	-0.45750657
79	0x3ed23ac3	0.41060457
80	0xbeab9da5	-0.3351871
81	0xbdb78b9c	-0.08962175
82	0xbe28c69f	-0.16482018
83	0x3e64dfc2	0.22350982
84	0xbe9b6ee4	-0.3035804
85	0xbeace9fb	-0.33772263
86	0x3df155d8	0.117839515
87	0x3e2d74c3	0.16939072
88	0x3dd3c614	0.10340515
89	0x3ec4f715	0.3846976
90	0x3e9818c5	0.29706398
91	0x3d8305ca	0.063975886
92	0x3eb729ae	0.35773987
93	0xbe5003d5	-0.20313962
94	0xbea09047	-0.31360075
95	0x3eb8b6ce	0.3607697
96	0xbdfe9e00	-0.1243248
97	0xbe744d7d	-0.23857684
98	0xbcb1b722	-0.02169377
99	0xbd8270d2	-0.06369175
100	0x3e94c63e	0.29057497
101	0x3ebdc545	0.37064567
102	0xbefd849b	-0.49515232
103	0xbecb76a3	-0.3973895
104	0xbc909d7d	-0.017653221
105	0xbd60aff0	-0.054855287
106	0xbe23980f	-0.15975975
107	0xbc2ca0c0	-0.010536373
108	0x3e145dff	0.14488982
109	0xbef1b903	-0.47211465
110	0x3efa3646	0.48869532
111	0x3e7f897e	0.24954793
112	0xbef1a02d	-0.47192517
113	0x3e92261e	0.28544706
114	0xbe8fd9aa	-0.28095752
115	0x3e087952	0.1332753
116	0xbef77c8e	-0.48337215
117	0xbe646611	-0.2230456
118	0x3ebb8353	0.3662363
119	0xbefeccdd	-0.49765673
120	0x3ed9332c	0.42421854
121	0xbee287b3	-0.44244155
122	0x3e81205c	0.2522
123	0x3e5555a9	0.20833458
124	0xbe0c6452	-0.13710144
125	0x3ea60b61	0.32430556
126	0x3e0d430e	0.1379511
127	0xbe478d21	-0.1948743
128	0xbe908baa	-0.28231555
129	0xbed17b21	-0.40914252
130	0xbb437531	-0.002982449
131	0xbd7d51c1	-0.061845545
132	0xbef7251a	-0.48270494
133	0xbd7e5803	-0.062095653
134	0xbcde4b6f	-0.027135579
135	0x3e8ce047	0.2751486
136	0xbea43fc5	-0.32079902
137	0xbef6b2ef	-0.4818339
138	0xbea496be	-0.32146257
139	0x3d9b65e8	0.075877964
140	0xbe15345a	-0.14570752
141	0x3e3f4fdf	0.18682812
142	0x3e8a227d	0.26979437
143	0xbe809688	-0.25114846
144	0x3e4e2940	0.20132923
145	0xbeaf371d	-0.34221736
146	0xbea33773	-0.31878242
147	0x3e7a4fa9	0.2444445
148	0xbed227b4	-0.41045916
149	0x3ef454f3	0.4772106
150	0xbed4836d	-0.4150652
151	0x3ed32ec4	0.41246617
152	0x3d6e741b	0.058216196
153	0xbe40d435	-0.1883095
154	0x3e0e806e	0.1391618
155	0xbe2a0508	-0.16603482
156	0x3e0ee05a	0.13952771
157	0xbe195a30	-0.1497581
158	0xbea16b25	-0.31527057
159	0xbec5cf92	-0.38634926
160	0xbeca7a82	-0.3954659
161	0x3d8d7d19	0.06908626
162	0xbef011b3	-0.46888503
163	0x3ef592c6	0.47963542
164	0xbebf0eb3	-0.37315902
165	0xbeeac252	-0.4585138
166	0xbe61129f	-0.2197976
167	0x3d6136f1	0.054984037
168	0xbdd16e93	-0.102261685
169	0x3ed59308	0.41713738
170	0x3ddbb24d	0.107273676
171	0x3eb318c8	0.34979844
172	0x3eb18bf9	0.34677103
173	0xbea74184	-0.32667172
174	0x3e0a2c36	0.13493428
175	0xbe70648b	-0.23475854
176	0x3d684f05	0.056715984
177	0xbefc5c90	-0.4928937
178	0xbee0d326	-0.43911093
179	0x3ebb3d57	0.36570236
180	0xbda4ddaa	-0.080500916
181	0x3d8a3ad8	0.06749505
182	0xbe30bb9f	-0.17259072
183	0xbe7decda	-0.24797383
184	0xbd0a3363	-0.033740412
185	0x3e16c123	0.14722113
186	0x3d38c42c	0.04510896
187	0xbed31445	-0.41226402
188	0xbecd016c	-0.40040147
189	0x3e42786d	0.18991251
190	0xbd6b93c3	-0.057513963
191	0x3d68ab87	0.056804206
192	0x3ef01df2	0.46897846
193	0xbde10841	-0.109879024
194	0xbbf03719	-0.007330787
195	0xbc9103fa	-0.017702091
196	0xbea4e250	-0.32203913
197	0x3ea6101d	0.32434168
198	0x3e04db91	0.12974383
199	0x3e1d9ecf	0.15392612
200	0xbdd6d650	-0.104900956
201	0x3cb015e0	0.021494806
202	0xbe9618dc	-0.2931584
203	0xbe9cd1b9	-0.30628756
204	0x3c6f96d2	0.014623361
205	0xbe97988e	-0.29608577
206	0xbe023153	-0.12714128
207	0x3ea33d61	0.31882766
208	0x3ed653d2	0.41860825
209	0xbe8e9a32	-0.27852017
210	0xbedf102c	-0.43567026
211	0xbe25db1c	-0.16196865
212	0x3da59505	0.08085064
213	0xbe780519	-0.24220695
214	0x3df43f40	0.119261265
215	0x3eb6d497	0.35709068
216	0x3e8b0128	0.2714932
217	0xbef1373b	-0.4711245
218	0xbd6d66ec	-0.057959482
219	0x3db98113	0.09057822
220	0xbee474ee	-0.4462046
221	0x3ec5f887	0.38666174
222	0xbe94ffa3	-0.29101285
223	0x3d848aa1	0.06471754
224	0x3ee4bba6	0.44674414
225	0x3dda6182	0.106631294
226	0xbeda17c5	-0.4259626
227	0x3e886268	0.26637578
228	0x3c0631d8	0.008190595
229	0x3ee5b8ae	0.44867462
230	0x3e36613e	0.17810532
231	0x3e83312c	0.25623453
232	0x3d5df145	0.05418517
233	0xbeb5472a	-0.35405856
234	0x3ee6825a	0.45021325
235	0x3ef56e20	0.4793558
236	0x3e9dad8c	0.30796468
237	0x3e8cdbe9	0.27511528
238	0x3ef22db0	0.47300482
239	0xbdbae3e5	-0.09125499
240	0x3e956884	0.29181302
241	0x3c10eb9f	0.008845239
242	0x3ecff97c	0.4062003
243	0xbdcd889f	-0.10035824
244	0xbd20eed7	-0.039290275
245	0x3e037781	0.12838556
246	0x3eaa7ee7	0.33299944
247	0x3eb412a2	0.35170466
248	0x3a355682	0.0006917493
249	0xbdc99bab	-0.098441444
250	0xbe262f01	-0.16228868
251	0x3e2217f2	0.15829447
252	0x3ed247b1	0.4107032
253	0x3db93b89	0.090445586
254	0x3e7d469a	0.24733964
255	0x3e37fa48	0.17966568

2.weight f4 [256, 256]
0	0xbc25afdb	-0.010112728
1	0xbd5f6f9e	-0.054549806
2	0xbd6d8a8d	-0.05799346
3	0xbcaac91b	-0.020847848
4	0x3c7e94dc	0.0155384205
5	0xbd821cfc	-0.063531846
6	0xbd1fe0e7	-0.039032843
7	0xbd17074a	-0.036872186
8	0x3d6aa213	0.057283472
9	0x3c581895	0.013189455
10	0xbd4e5873	-0.05037732
11	0x3cb4d116	0.022072356
12	0x3d4142a4	0.047182694
13	0x3b0d10a7	0.0021524818
14	0xbbc85a23	-0.0061142608
15	0x3d3ecb9c	0.046580896
16	0x3d1b5fc6	0.037933134
17	0x3c998403	0.018739706
18	0xbd56d1e3	-0.052446257
19	0xbd5e682b	-0.05429856
20	0x3d21f9f8	0.03954503
21	0x3d45e4b1	0.0483138
22	0x3cad4118	0.021149203
23	0x3ca645af	0.0202969
24	0x3d46d25f	0.04854047
25	0xbd82a9e4	-0.0638006
26	0xbcd6f262	-0.026238624
27	0x3cd9039e	0.026490983
28	0xbce7d999	-0.028302
29	0x3c2a311a	0.010387683
30	0x3d5f58a1	0.054527882
31	0x3d524114	0.051331595
32	0x3d81a721	0.063307054
33	0x3d4a0a23	0.049326073
34	0xbd0e003c	-0.034668192
35	0x3d3342b0	0.04376477
36	0x3d868646	0.065685794
37	0x3ceecba6	0.029149842
38	0xbc542668	-0.01294861
39	0xbb3f3d17	-0.00291807
40	0x3d143794	0.036185816
41	0xbd528bbd	-0.051402796
42	0x3d301a51	0.042993847
43	0xbcb22fa2	-0.021751229
44	0x3d660799	0.05615959
45	0x3c0f557c	0.008748408
46	0xbd13f13d	-0.036118735
47	0xbd2045e2	-0.039129145
48	0x3d7066a5	0.05869164
49	0x3ba2392f	0.0049506645
50	0xbccda9c9	-0.025105374
51	0x3d82aeba	0.06380983
52	0x3d4bde64	0.049772635
53	0x3be454a0	0.006968096
54	0x3c768eb6	0.015048673
55	0xbc4c501f	-0.012470274
56	0x3cce30da	0.025169779
57	0x3d3a7744	0.045523897
58	0xbce0736e	-0.027398791
59	0xbaf423be	-0.0018626375
60	0x3d947ca5	0.072503366
61	0xbd4f7386	-0.05064728
62	0xbc7eb068	-0.015544988
63	0x3cfa7a07	0.030575765
64	0xbd7096c6	-0.05873754
65	0xbd40909b	-0.047012907
66	0x3d84045a	0.064461425
67	0x3d89aa00	0.06721878
68	0x3a68d12a	0.00088812655
69	0xbd9683e2	-0.073493734
70	0xbb856f64	-0.0040721167
71	0x3c2c3943	0.010511699
72	0xbd21c0af	-0.039490398
73	0xbd33f7f2	-0.04393763
74	0x3cc5a8b9	0.024128305
75	0xbb95ec71	-0.004575305
76	0x3ce252d7	0.027627392
77	0x3d3733ac	0.044727013
78	0xbb95d000	-0.0045719147
79	0xbcd83664	-0.026393123
80	0x3cc62846	0.024189126
81	0x3d18faa3	0.0373484
82	0x3d76a4fe	0.060215943
83	0xbc5a97f7	-0.013341895
84	0xbcf6aa32	-0.030110452
85	0x3d2a1fbd	0.041534174
86	0x3bec8876	0.007218416
87	0xbcb3d8fb	-0.02195405
88	0xbd3d0ad0	-0.04615289
89	0xbc28399a	-0.0102676395
90	0xbc2143a7	-0.00984279
91	0x3d414c98	0.047192186
92	0xbbe636d3	-0.0070255785
93	0xbca4425e	-0.020051178
94	0x3c3173d0	0.0108308345
95	0x3cdd6220	0.027024329
96	0xb90e3a86	-0.00013563977
97	0x3c1fda47	0.009756631
98	0xbd4c5613	-0.049886774
99	0x3d061392	0.032733507
100	0xbcf66913	-0.0300794
101	0xbd6b6800	-0.05747223
102	0x3c8e0ff7	0.017341597
103	0x3cb9568a	0.022624273
104	0x3d1e8046	0.03869655
105	0xbd22bd79	-0.039731476
106	0x3d327720	0.043570638
107	0xbd58eeb3	-0.052962016
108	0x3c1909d7	0.009340725
109	0x3c9bec39	0.019033538
110	0x3cf20606	0.029543888
111	0xbc211b35	-0.009833147
112	0x3d202478	0.03909728
113	0xbc1ec925	-0.009691511
114	0xbcf83195	-0.03029708
115	0x3ccbc8d9	0.024876045
116	0xbd5428d4	-0.05179675
117	0xbc640149	-0.013916322
118	0x3c616be9	0.013758638
119	0xbd5f5bac	-0.054530784
120	0x3c674b82	0.014117124
121	0xbd707873	-0.05870862
122	0x3d703529	0.058644447
123	0xbd609be1	-0.054836158
124	0xbd57ce6e	-0.0526871
125	0x3cbaa0f3	0.022781825
126	0x3d36cb43	0.04462744
127	0x3d66e830	0.056373775
128	0xbcb36e19	-0.021903085
129	0x3d24de50	0.040251076
130	0x3ba1d10a	0.0049382495
131	0xbc66f496	-0.0140964
132	0x3b253ed7	0.0025214457
133	0x3d168649	0.036749158
134	0xbd85cb9d	-0.06532977
135	0xbcc4dd2f	-0.02403125
136	0xbd43e00b	-0.047821086
137	0xbd000479	-0.031254265
138	0xbd6adba6	-0.05733838
139	0x3cb14305	0.021638403
140	0xbd19327d	-0.037401665
141	0x3d08ebd5	0.033428032
142	0xbcc8bc33	-0.024503803
143	0xbd4f611f	-0.05062973
144	0xbd6a19f6	-0.057153665
145	0x3bd79e12	0.0065801227
146	0xbd5222e5	-0.05130281
147	0x3ccb4f8a	0.0248182
148	0xbd28dfce	-0.04122906
149	0x3d344a9d	0.04401647
150	0xbcfafca8	-0.030638054
151	0x3c96a7aa	0.018390495
152	0xbc15cf9a	-0.009143734
153	0xbbf63ef3	-0.0075148284
154	0x3d571e58	0.052519172
155	0x3b21649a	0.0024626614
156	0x3d7b7c7c	0.061398014
157	0x3c9914c7	0.018686665
158	0xbcd390e8	-0.025825933
159	0xbc464ec9	-0.012103745
160	0x3ca30e98	0.01990442
161	0x3d7ad3f3	0.061237287
162	0xbcdf1ad7	-0.027234478
163	0x3cef4ac8	0.029210463
164	0x3d3d4f1f	0.046218034
165	0xbd0bfc80	-0.03417635
166	0x3cb23125	0.02175195
167	0x3d5e10ee	0.054215364
168	0xbd2b47ef	-0.041816648
169	0x3c5b00af	0.013366862
170	0xbd2d7b73	-0.04235406
171	0xbc89f382	-0.016839746
172	0xbb74e401	-0.0037367346
173	0xbd58bcc0	-0.05291438
174	0x3bdd3fa3	0.006751971
175	0x3c8dbcd0	0.017301947
176	0x3d487c61	0.048946742
177	0x3c7cbc2d	0.015425724
178	0x3d3f32b2	0.046679206
179	0xbd3662ee	-0.04452794
180	0x3ca6cb2b	0.02036055
181	0x3cc49197	0.023995204
182	0xbb785b1a	-0.0037896098
183	0x3c4d5335	0.012532045
184	0x3d693e41	0.056944136
185	0x3d918199	0.07104797
186	0x3d6249cb	0.055246156
187	0x3c695f62	0.014243932
188	0x3d25ff1a	0.040526487
189	0xbba15b90	-0.004924245
190	0x3d553277	0.05205008
191	0x3baaaea6	0.005208808
192	0x3cfeefa6	0.031120133
193	0xbd3ace48	-0.04560688
194	0x3d576ee8	0.052596003
195	0x3cd6381c	0.026149802
196	0xbd217e1f	-0.03942692
197	0x3d69da39	0.05709288
198	0xbc8032b0	-0.01564917
199	0x3c5b5df4	0.013389099
200	0xbd2d5a74	-0.04232259
201	0xbc6bc71a	-0.014390731
202	0xbaed2d29	-0.0018095124
203	0xbd52fe7f	-0.051512238
204	0x3ad05314	0.00158939
205	0xbd5fb201	-0.054613117
206	0x3cbd26e4	0.023089834
207	0x3ceeb6f0	0.029139966
208	0xbbc71fb5	-0.006076778
209	0x3d1dd900	0.038537025
210	0x3c4b4afc	0.012408014
211	0x3d057d28	0.03259006
212	0xbc0473c5	-0.008084242
213	0xbc65213f	-0.013984977
214	0xbd2cecda	-0.042218067
215	0x3d65e46f	0.056126054
216	0x3da0e0d3	0.07855382
217	0x3b98cd4e	0.004663146
218	0xbd8515c2	-0.064982906
219	0xbc0c99ef	-0.0085816225
220	0x3cc8cfcd	0.02451315
221	0xbce60aed	-0.028081382
222	0xbc4ae281	-0.012383104
223	0xbca76b43	-0.020436889
224	0xbc618b70	-0.013766155
225	0x3d049d6e	0.0323767
226	0xbd692b53	-0.056926083
227	0x3d84f3f0	0.0649184
228	0xbd2ab239	-0.041673873
229	0x3d353791	0.044242445
230	0xbd0d113f	-0.034440275
231	0x3d79e93d	0.06101345
232	0xbcd2946a	-0.025705535
233	0x3a2d41de	0.0006609241
234	0xbd764fa4	-0.060134545
235	0xbd280e16	-0.04102906
236	0xbbca5d4a	-0.0061756717
237	0x3a97995e	0.0011566093
238	0x3cf59868	0.0299799
239	0xbd0bebf0	-0.034160554
240	0x3d6a9a01	0.057275776
241	0x3cf265d5	0.029589573
242	0xbcde96b6	-0.027171474
243	0x3d955cdb	0.072931014
244	0x3cfc9765	0.03083391
245	0xbd119dc6	-0.035550855
246	0xbd107d54	-0.035275772
247	0x3d710d93	0.058850836
248	0x3c4087aa	0.011751095
249	0xbd909cb1	-0.070611365
250	0xbcb8b279	-0.02254604
251	0xbd3cb6f5	-0.04607292
252	0xbd1da186	-0.03848412
253	0x3d39f9d8	0.045404285
254	0xbd1a0497	-0.037602033
255	0x3d8b3af9	0.067983575

2.bias f4 [256]
0	0xbbebfd7b	-0.007201848
1	0xbd5a41d4	-0.053285435
2	0xbd61edca	-0.055158414
3	0xbd05e669	-0.03269044
4	0xbd2f0396	-0.04272803
5	0x3cf1d5eb	0.02952095
6	0xbcd47edd	-0.0259394
7	0x3a9c4274	0.001192166
8	0xbd4ac4bd	-0.04950403
9	0xbd25e93a	-0.040505625
10	0xbcde51e1	-0.027138652
11	0x3d5b10a8	0.05348268
12	0xbd760d29	-0.060071144
13	0x3d3e1e36	0.04641553
14	0x3c10e8cb	0.008844565
15	0xbd24371e	-0.040091626
16	0x3d02f55d	0.031972278
17	0x3c122fb6	0.008922508
18	0xbd28b45b	-0.041187625
19	0x3abf6f99	0.0014605402
20	0xbd171fbb	-0.036895495
21	0x3b0016ec	0.0019544913
22	0x3c0724f6	0.008248558
23	0xbaa73925	-0.0012758119
24	0x3b217c68	0.0024640802
25	0xbcd1cb97	-0.025609775
26	0x3b9708ca	0.004609202
27	0x39fb11f0	0.00047887815
28	0xbc8c0ecd	-0.017096901
29	0xbce01090	-0.027351648
30	0x3d1037fd	0.035209645
31	0x3cab9b32	0.020948026
32	0xbd3c70a8	-0.046005875
33	0x3d51ea29	0.051248703
34	0x3d5c7255	0.053819973
35	0xbc03370f	-0.008008732
36	0xbcab9e7f	-0.0209496
37	0xbd17b730	-0.037039936
38	0x3c8e30bc	0.017357223
39	0xbbd77515	-0.0065752366
40	0x3d0743f4	0.03302379
41	0xbc1bd137	-0.00951033
42	0x3c69b95f	0.014265387
43	0xbd1583ec	-0.036502764
44	0x3d1c4bd1	0.03815824
45	0xbc2f085f	-0.010683148
46	0x3ced6b8c	0.028981946
47	0xbc1f5321	-0.009724409
48	0xbd60968d	-0.054831076
49	0xbd710982	-0.058846958
50	0x3bee92b4	0.007280672
51	0x3d272de0	0.040815234
52	0xbd089925	-0.033349175
53	0x3cb38504	0.021914013
54	0xbccda525	-0.025103161
55	0xbca549fa	-0.020176876
56	0x3d3236a2	0.043509133
57	0xbcd287bd	-0.02569949
58	0x3d0aae1e	0.033857457
59	0x3d28175d	0.041037906
60	0xbc75d7d4	-0.015005071
61	0xbd5be3d6	-0.05368408
62	0xbd65a229	-0.05606285
63	0xbd72fd41	-0.059323553
64	0xbd6173af	-0.055041965
65	0x3cba8292	0.022767339
66	0xbd5103e6	-0.05102911
67	0xbd112cb5	-0.035443027
68	0xbcdfac4f	-0.027303843
69	0xbc888d76	-0.016669016
70	0x3c7aaef5	0.015300502
71	0xbd1c0171	-0.038087312
72	0xbd4910d6	-0.04908832
73	0x3cff5f10	0.031173259
74	0xbc2f651d	-0.01070526
75	0xbc14eefe	-0.009090183
76	0x3d1f27f8	0.038856477
77	0x3d49899b	0.049203496
78	0x3c90806d	0.017639363
79	0xbaf849c7	-0.0018942886
80	0x3d379300	0.044817924
81	0xbd1fac42	-0.038982637
82	0x3d7402f2	0.05957312
83	0x3cd2ce42	0.025733117
84	0xbc1a128d	-0.009403837
85	0xbc9f231d	-0.019425923
86	0xbcfe680e	-0.031055477
87	0xbd3fb2d3	-0.0468014
88	0x3d6baf90	0.057540476
89	0xbd14f5e0	-0.036367297
90	0xbd57c5a6	-0.052678727
91	0x3d6fbcbe	0.058529608
92	0xbd0a17d6	-0.033714138
93	0xbd6d1093	-0.057877135
94	0xbc5205f7	-0.012818805
95	0xbd608ea9	-0.05482355
96	0x3c9a1aab	0.018811544
97	0x3d6bc78a	0.057563342
98	0xbc3a7205	-0.011379723
99	0xbcc86a82	-0.02446485
100	0x3d35e820	0.044410825
101	0xbd05da16	-0.032678686
102	0xbc81c886	-0.015842687
103	0xbd451589	-0.04811624
104	0x3ca1082b	0.019657215
105	0xbc32a25a	-0.010902965
106	0x3ceabee5	0.028655479
107	0x3c247a16	0.010038873
108	0xbd17f453	-0.03709824
109	0xbc93f2b0	-0.018060058
110	0xbb39690e	-0.0028291377
111	0x3c5f2ee5	0.01362202
112	0x3d42f493	0.047596525
113	0x3d444250	0.047914803
114	0xbc48e383	-0.012261274
115	0xbd75d14d	-0.060014058
116	0x3c1bee21	0.009517224
117	0x3d6233c8	0.055225164
118	0x3d6f6f6a	0.058455862
119	0x3c62f4a7	0.013852275
120	0x3c9d40f4	0.019196011
121	0x3d0bb62d	0.034109283
122	0x3cdaa2f2	0.026689027
123	0xbd789620	-0.060690045
124	0xbbccb5b4	-0.0062472466
125	0xbd581b0b	-0.052760165
126	0xbd0e7d6b	-0.034787577
127	0x3d4d73d2	0.050159283
128	0xbd77cbd5	-0.060497124
129	0xbd246772	-0.040137716
130	0xbd1caace	-0.03824883
131	0xbd0cab3e	-0.034342997
132	0x3cf4b800	0.029872894
133	0x3ce57923	0.028011864
134	0x3d4df8e2	0.05028618
135	0xbd6e3232	-0.05815334
136	0xbd3f6abd	-0.046732653
137	0xbd79abd4	-0.060954884
138	0x3d64f198	0.055894464
139	0x3d2b9aa1	0.041895512
140	0xbc17075f	-0.009218066
141	0xbc034f6e	-0.008014543
142	0x3d65e47e	0.05612611
143	0xbc3979a8	-0.011320509
144	0x3b2f3d5f	0.002673946
145	0xbd4a0ec8	-0.049330503
146	0xbd1a06ed	-0.03760426
147	0xbcd43770	-0.02590534
148	0xbd0a4c00	-0.033763885
149	0xbd3c2457	-0.045933094
150	0xbd714852	-0.05890686
151	0x3bca9f9b	0.0061835772
152	0x3d08b7cc	0.033378407
153	0xbd5d2d40	-0.053998232
154	0xbd40b6d8	-0.047049373
155	0xbcd5f3fb	-0.026117316
156	0x3bf5435e	0.0074848374
157	0x3ba0634f	0.004894651
158	0xbc0aa7d9	-0.00846287
159	0x3c188d5c	0.009311046
160	0x3a9aafc1	0.0011801646
161	0xbcc577ff	-0.02410507
162	0x3d14e701	0.036353115
163	0xbc42f56f	-0.011899336
164	0xbd11f171	-0.035630647
165	0xbd5621b3	-0.05227823
166	0x3b847d81	0.0040432815
167	0x3d726582	0.059178837
168	0x3ba31f1f	0.004978075
169	0xbd50ddb2	-0.050992675
170	0xbc196bf4	-0.009364117
171	0x3b7e02b4	0.0038758935
172	0x3c8a0e15	0.016852418
173	0x3cd162e5	0.025559852
174	0xbd3b0e27	-0.045667794
175	0xbd498776	-0.04920145
176	0xbcf8c849	-0.03036894
177	0x3c7437be	0.014905868
178	0xbd4623f7	-0.048374142
179	0x3d389a62	0.045069106
180	0x3d4d4c51	0.05012161
181	0x3d4c9004	0.04994203
182	0x3d4681b4	0.04846354
183	0xbcc1f565	-0.023676584
184	0x3d1f5b6b	0.038905542
185	0x3c8e0bb1	0.01733956
186	0xbd4f790f	-0.05065256
187	0x3cedbfb5	0.029022077
188	0xbcb2dbb4	-0.021833278
189	0x3ce0a871	0.02742407
190	0x3bfd03dd	0.007721408
191	0xbd11e8ff	-0.035622593
192	0x3d046d9b	0.03233109
193	0xbd01141d	-0.031513322
194	0xbc2c86e0	-0.010530204
195	0xbc9c12f7	-0.019052012
196	0xbcb84a55	-0.022496382
197	0x3d3649b4	0.044503883
198	0x3d107edc	0.035277233
199	0x3d5a63b0	0.053317726
200	0x3c9a957e	0.018870112
201	0xbd745622	-0.059652455
202	0xbcf1d36d	-0.029519761
203	0x3d1b59d8	0.03792748
204	0x3d039497	0.03212413
205	0x3cc81ce9	0.024427848
206	0xbb95e1f6	-0.004574056
207	0xbcbe3a39	-0.023221122
208	0x3c03ca84	0.008043889
209	0xbd7a8062	-0.06115759
210	0xbd384843	-0.04499079
211	0x3c9cea4d	0.019154692
212	0xbd373bfc	-0.04473494
213	0x3d23a768	0.039954573
214	0xbd4053d2	-0.046954937
215	0xbc826d82	-0.015921358
216	0x3cf64b36	0.03006516
217	0x3d20b462	0.039234526
218	0xbd6bc4b2	-0.05756063
219	0x3d52ca70	0.05146259
220	0xbd2762de	-0.04086577
221	0x3cd12789	0.025531547
222	0x3cbd9104	0.023140438
223	0x3d41c8c5	0.04731061
224	0xbd2170fe	-0.0394144
225	0x3d806a78	0.06270307
226	0x3d7f6819	0.062355135
227	0x3c0c37f1	0.008558259
228	0xbcaba715	-0.020953694
229	0xbd01fe75	-0.03173681
230	0x3d5c240a	0.053745307
231	0x3af58157	0.0018730563
232	0x3bff7bab	0.007796725
233	0x3d2d26ba	0.04227326
234	0xbce21403	-0.027597433
235	0x3cf6a7e1	0.030109348
236	0x39e2d5b3	0.00043265297
237	0x3d296fe9	0.04136649
238	0x3c7f75bd	0.015592036
239	0xbc923c42	-0.017850999
240	0x3d33aea8	0.043867737
241	0x3d435199	0.04768524
242	0xbd666ae4	-0.056254283
243	0x3d5ea4b6	0.0543563
244	0x3d6aea50	0.057352364
245	0x3d336733	0.04379959
246	0x3d5c497d	0.05378102
247	0xbd3d64bd	-0.04623865
248	0x3d1686d3	0.036749672
249	0xba95a17a	-0.0011415922
250	0x3cd8a55c	0.026446037
251	0x3d384653	0.04498894
252	0xbd76eed3	-0.060286354
253	0xbcbe625a	-0.023240257
254	0xbc4d1fc1	-0.012519778
255	0xbd33bef0	-0.043883264

4.weight f4 [2, 256]
0	0xbcef3b68	-0.029203132
1	0xbd8dd356	-0.06925075
2	0x3cad9826	0.021190714
3	0xbd482f02	-0.048872955
4	0xbcc48a3a	-0.023991693
5	0xba21ff2b	-0.00061796856
6	0x3a87f375	0.0010372238
7	0xbcf58563	-0.02997083
8	0xbd52b3c6	-0.051440977
9	0xbd27d7ec	-0.040977404
10	0xbd36083f	-0.044441458
11	0x3d471a02	0.048608787
12	0x3c83e2d6	0.016099375
13	0x3ceb3ede	0.0287165
14	0x3bc309e4	0.005952107
15	0xbc7bf18c	-0.0153774135
16	0xbd5a06ce	-0.053229146
17	0xbccbab9e	-0.024862107
18	0xbc512a6b	-0.012766461
19	0xbd12fbb0	-0.03588456
20	0x3cbcb5e5	0.023035953
21	0x3cad1836	0.021129709
22	0x3cc26554	0.023729958
23	0xbc523132	-0.012829112
24	0xbd4f5bbd	-0.050624598
25	0xbc371ca1	-0.011176259
26	0x3d747ea0	0.05969107
27	0x3ccaf13b	0.02477323
28	0x3d102dcc	0.035199925
29	0x3d63a8b9	0.05558083
30	0x3d747724	0.059683934
31	0x3d58e4ff	0.052952763
32	0x3d20208b	0.039093535
33	0x3d129baf	0.035793003
34	0x3cc953e6	0.024576139
35	0xbd06994b	-0.032861035
36	0x3cb90e70	0.022589892
37	0x3d1f80a3	0.038941037
38	0x3d1eb402	0.038745888
39	0x3c0c30a7	0.0085565215
40	0x3c2c6420	0.010521919
41	0x3d51e19a	0.05124054
42	0xbd0216cb	-0.03176002
43	0x3b3496b2	0.0027555642
44	0xbce18c74	-0.027532794
45	0x3d4246c3	0.047430765
46	0xbd05ef37	-0.032698836
47	0x3c882ad4	0.016621985
48	0x3c8e13ea	0.01734348
49	0xbcb34910	-0.021885425
50	0x3cde6430	0.027147382
51	0xbd7f6d13	-0.06235988
52	0x3cab7ab7	0.020932538
53	0x3d3278bb	0.04357217
54	0x3d1444a2	0.036198266
55	0x3ca504b8	0.020143852
56	0xbc912d72	-0.017721865
57	0x3d190eb8	0.037367553
58	0xbb5c12bc	-0.0033580502
59	0x3c7edfa8	0.0155562535
60	0xbd2a8fc1	-0.041641
61	0xbd3c19b6	-0.045922957
62	0x3c7f25e0	0.015572995
63	0x3d6480aa	0.055786766
64	0x3d355356	0.04426893
65	0x3c9a9ac0	0.018872619
66	0xbd03c1cf	-0.032167252
67	0xbcc3077b	-0.023807278
68	0xbb21bb57	-0.0024678314
69	0x3cbc82af	0.023011534
70	0x39abfc30	0.00032803556
71	0x3d7cd38c	0.061725184
72	0xbc816ae6	-0.015798043
73	0xbd5a133c	-0.053241
74	0xbd15bf67	-0.03655949
75	0x3d7ad874	0.061241582
76	0xbd73fc1d	-0.059566606
77	0x3cbeec59	0.023306059
78	0x3d00e900	0.031472206
79	0xbd506588	-0.050878078
80	0xbd622e92	-0.055220194
81	0x3b1e6e5d	0.0024174668
82	0x3cea9a58	0.02863805
83	0x3cdb57e0	0.0267753
84	0xbb70a105	-0.003671707
85	0xbcd8b982	-0.026455645
86	0xbd22989e	-0.03969633
87	0x3d23c6d1	0.039984528
88	0xbcc924aa	-0.024553616
89	0xbd18f892	-0.03734643
90	0xbcfeb63a	-0.031092752
91	0x3d1ee549	0.038792882
92	0x3c0a294d	0.008432698
93	0x39b3a8b8	0.00034267246
94	0x3cda7208	0.026665702
95	0xbc3b1da0	-0.011420637
96	0xbd4a5f3c	-0.04940723
97	0xbd0aec43	-0.033916723
98	0x3cf8748d	0.030329013
99	0x3d695d2a	0.056973614
100	0x3d3eee57	0.046614017
101	0x3d3efeec	0.04662983
102	0x3d6eaabf	0.058268305
103	0x3b6b73d0	0.0035927184
104	0xbcf0de0d	-0.029402757
105	0xbd1c0801	-0.03809357
106	0xbc9a3437	-0.018823726
107	0x3d5b3f10	0.053526938
108	0x3c2b161e	0.010442285
109	0xbce03bd4	-0.027372278
110	0xbd1cc915	-0.038277704
111	0x3c61814a	0.013763735
112	0x3cae5708	0.021281734
113	0xbce48e7b	-0.027899971
114	0x3d396525	0.045262475
115	0x3d291977	0.04128405
116	0xbcf23cd8	-0.029570028
117	0xbd13d31d	-0.036090005
118	0x3d7c6317	0.061617937
119	0x3d22c64e	0.0397399
120	0x3c9117dc	0.017711572
121	0x3d21cbb2	0.0395009
122	0x3d60bef1	0.054869596
123	0xbd44b9af	-0.048028644
124	0x3bc70758	0.0060738735
125	0x3d6e7c60	0.058224082
126	0x3d0cebc0	0.034404516
127	0x3d813349	0.0630861
128	0x3a4edaaa	0.000789086
129	0x3c3ed6ce	0.011647893
130	0x3d14ec8b	0.036358397
131	0xbcd76ce8	-0.026297048
132	0x3c2d5a16	0.01058056
133	0x3d72f3a7	0.059314396
134	0xbcedc5b0	-0.029024929
135	0x3d58d4da	0.052937366
136	0x3b9e1ae6	0.004824984
137	0xbc984c38	-0.018591031
138	0xbd578ddd	-0.052625526
139	0x3d62159f	0.0551964
140	0x3d3c8de3	0.04603375
141	0xbd427093	-0.04747064
142	0xbcc82f77	-0.024436696
143	0x3c01c49c	0.0079204105
144	0xba730334	-0.00092701917
145	0x3d285559	0.04109702
146	0x3d640091	0.055664603
147	0xbcfb3559	-0.030665087
148	0x3c392993	0.011301416
149	0xbc037c6b	-0.008025269
150	0x3d1d6db7	0.03843471
151	0x3cecc290	0.028901368
152	0xbc1c0d0e	-0.009524597
153	0xbd526ea5	-0.05137505
154	0xbd8deedf	-0.06930327
155	0x3ccf4ee0	0.025306165
156	0xbd348821	-0.044075135
157	0x3d0c3f73	0.034240197
158	0x3d784762	0.06061495
159	0xbd14fca6	-0.036373757
160	0x3d55521d	0.052080262
161	0x3d34a9c2	0.044107206
162	0x3c959086	0.01825739
163	0xbd871f7f	-0.06597804
164	0xbceeeab8	-0.029164657
165	0x3cfb9164	0.030708976
166	0x3b2b3b4e	0.0026127878
167	0x3d8d798d	0.069079496
168	0x3d4f2d69	0.050580416
169	0xbccaba10	-0.024746925
170	0x3d060399	0.032718275
171	0x3ba05bce	0.0048937565
172	0x3cafd097	0.021461768
173	0x3ce28e5f	0.027655778
174	0x3b29a11e	0.0025883387
175	0xbd8d3da1	-0.068965204
176	0xbd662acf	-0.05619317
177	0x3c96038c	0.018312238
178	0x3b99d11d	0.0046941177
179	0x3d9268e3	0.07148912
180	0x3d565501	0.05232716
181	0xbd863a12	-0.06554045
182	0xbd060995	-0.032723982
183	0xba32057a	-0.0006790977
184	0x3ce27fab	0.027648767
185	0xbd62e214	-0.055391386
186	0x3cb222e4	0.021745153
187	0x3cca1b91	0.024671348
188	0xbd480595	-0.04883345
189	0x3d1b58af	0.037926372
190	0xbca7eec3	-0.020499593
191	0x3d596727	0.05307689
192	0xbd607be9	-0.05480567
193	0xbd10fb83	-0.03539611
194	0x3cfd5463	0.030924028
195	0xbbdcab9a	-0.0067343237
196	0x3d2b67f1	0.041847173
197	0xbba85a64	-0.0051377285
198	0xbc5545d6	-0.0130171385
199	0xbc30b24c	-0.010784697
200	0x3d167375	0.036731202
201	0x3d24724f	0.040148076
202	0x3d08de5b	0.03341518
203	0x3a816f81	0.000987515
204	0xbd3a1b0c	-0.04543595
205	0x3b5c5dfa	0.003362535
206	0x3d11fed0	0.0356434
207	0x3cecc4f1	0.028902503
208	0x3d3d8869	0.04627267
209	0x3b3d80c9	0.0028915873
210	0x3b8e3e19	0.0043408987
211	0xbc6ae592	-0.01433696
212	0xbd30fb37	-0.043208327
213	0x3c85f4de	0.016352113
214	0x3d190466	0.03735771
215	0x3d05f2b6	0.03270217
216	0xbcc6ef1e	-0.024283942
217	0xbc18fca6	-0.00933758
218	0x3cdb66d4	0.02678243
219	0x3d6cdc97	0.05782756
220	0xb948b18c	-0.00019139628
221	0xbd0b1c77	-0.033962693
222	0xbc07bbc4	-0.008284513
223	0x3c7239c5	0.014784281
224	0x3d25bdd5	0.04046424
225	0xbd475a17	-0.0486699
226	0x3d502cd4	0.050824
227	0xbd4a615c	-0.049409255
228	0xbd24a9a1	-0.040200833
229	0xbca29baf	-0.019849626
230	0xbd12482c	-0.03571336
231	0x3b9fc3a1	0.0048756157
232	0xbafc4327	-0.0019246087
233	0xbcef4baa	-0.029210884
234	0x3d9713f5	0.073768534
235	0x3d3d43f1	0.046207372
236	0xbd4055ae	-0.04695671
237	0xbd3aed50	-0.045636475
238	0xbc3a2c57	-0.0113631105
239	0xbd066102	-0.032807358
240	0xbcabc3fd	-0.020967478
241	0xbd02e80a	-0.03195957
242	0xbc2dc908	-0.010607012
243	0xbd3356d4	-0.043783978
244	0xbd5992c6	-0.05311849
245	0x3d1a7b20	0.037715077
246	0x3d747618	0.059682935
247	0x3d029785	0.03188278
248	0xbcd9856a	-0.026552875
249	0xbcd3c988	-0.025852934
250	0xbd3fdf6d	-0.046843935
251	0xbd5368bc	-0.051613554
252	0x3d924383	0.07141783
253	0x3d695d84	0.05697395
254	0x3cff7b97	0.031186862
255	0xbc8c1f26	-0.017104696

4.bias f4 [2]
0	0xbd779d71	-0.060452882
1	0xbd4d27b4	-0.050086692

exp_avg f4 [256, 4]
0	0xba652865	-0.0008741676
1	0xb9006927	-0.00012246204
2	0xb9037a90	-0.00012538792
3	0xb83e5fbf	-4.53887e-05
4	0xbd8002c3	-0.06250527
5	0xbbfbd517	-0.0076853144
6	0xbbfe8a7a	-0.0077679725
7	0xbac6f59b	-0.0015179397
8	0x3d039d5f	0.032132503
9	0x3bcae910	0.006192334
10	0x3b6197be	0.003442272
11	0xb938cee7	-0.00017624685
12	0xb9ecd580	-0.00045172498
13	0x370db9b4	8.447492e-06
14	0x38af248e	8.351459e-05
15	0x371c9ab2	9.334342e-06
16	0x3c6d4748	0.014482327
17	0x3ad4c927	0.0016234264
18	0x390efeb7	0.00013637064
19	0xb9abf51b	-0.0003279828
20	0x3d0a8820	0.033821225
21	0x3b977740	0.00462237
22	0x3ad9ae0f	0.001660766
23	0xba596df2	-0.0008294276
24	0x3b7ec010	0.0038871802
25	0x3ab6b075	0.0013938086
26	0x3aaa1ec3	0.0012979138
27	0xb8e1aa27	-0.000107605294
28	0xbccf912a	-0.025337774
29	0xbb851c75	-0.0040622302
30	0xbaab5153	-0.0013070501
31	0x39ccb4ee	0.00039044715
32	0xba940db0	-0.0011295583
33	0xb9de88b5	-0.00042444994
34	0xb9d7a680	-0.00041132048
35	0x3787e29f	1.6198783e-05
36	0xbc2c6b2a	-0.010523597
37	0xbad39691	-0.0016142895
38	0xba3290f2	-0.00068117597
39	0x39a97a5d	0.0003232536
40	0x3cb62199	0.022232817
41	0x3b45c00b	0.003017428
42	0x3af3f572	0.0018612577
43	0x385a3f26	5.203406e-05
44	0x39d880c8	0.0004129468
45	0x39234343	0.00015569948
46	0x3987a959	0.0002587538
47	0x3894e7a6	7.100338e-05
48	0xbb98d911	-0.004664548
49	0xba30ba9e	-0.00067416753
50	0xba1eb116	-0.00060536095
51	0xb94d2386	-0.00019563557
52	0xbd0a791a	-0.033806898
53	0xbbd42b77	-0.006474908
54	0xbb001149	-0.0019541553
55	0x3b1a1583	0.0023511357
56	0xbc54e71e	-0.012994556
57	0xbb2eae4b	-0.002665418
58	0xbb110c50	-0.0022132583
59	0xb9deb244	-0.00042475958
60	0xbcf84843	-0.030307895
61	0xbb9003f4	-0.0043950025
62	0xbb1cb7fc	-0.0023913374
63	0x39c37ba1	0.0003728541
64	0x3bf8e21a	0.007595313
65	0x3affcc43	0.0019515831
66	0x3a1dc536	0.00060184614
67	0xba3b9cac	-0.000715683
68	0xbb8e7800	-0.004347801
69	0xba915e9d	-0.0011090819
70	0xba4b2533	-0.00077493786
71	0x3847997c	4.758824e-05
72	0xbb869bff	-0.0041079517
73	0xba68f39e	-0.00088863994
74	0xb8c52df7	-9.4022536e-05
75	0x3a08b7b9	0.0005215365
76	0xbd2ad963	-0.041711222
77	0xbba2a9e8	-0.004964102
78	0xbb3dc31e	-0.002895541
79	0xba9d0fe0	-0.001198288
80	0x36ce176c	6.142005e-06
81	0xb9621321	-0.00021560166
82	0xb9a9527c	-0.00032295648
83	0xb7e1d2ad	-2.6920194e-05
84	0xbc042e63	-0.0080677
85	0xbb1d1d1d	-0.0023973652
86	0xbb06e584	-0.002058358
87	0x37c43ed2	2.3394274e-05
88	0xbb4ec533	-0.0031550645
89	0xba2f423e	-0.0006685591
90	0xb9be1896	-0.00036257942
91	0x38591281	5.1754065e-05
92	0xbb8e1c53	-0.0043368726
93	0xba92fcd6	-0.0011214267
94	0xba380766	-0.00070201454
95	0x3901e790	0.00012388662
96	0xbab8ed9e	-0.0014108901
97	0xb9472391	-0.00018991368
98	0xb85b1641	-5.2234394e-05
99	0x378ba930	1.6648875e-05
100	0xbc760ab5	-0.015017201
101	0xbaf8aa0f	-0.001897158
102	0xbaa0d678	-0.0012270948
103	0xb9b857e2	-0.00035160693
104	0x3baa0f90	0.0051898435
105	0x3a73d7a7	0.0009301849
106	0x39ec62a2	0.00045086915
107	0xb7a7f6a2	-2.0022799e-05
108	0xbb845ab9	-0.0040391353
109	0xbaa6d024	-0.0012726826
110	0xba592d4c	-0.0008284643
111	0x3969bf19	0.00022291801
112	0xbd03fc33	-0.032222938
113	0xbb81ae7b	-0.0039575673
114	0xbb1d6d78	-0.0024021547
115	0xba76987f	-0.0009406879
116	0x3c70b89d	0.014692453
117	0x3abf075c	0.0014574337
118	0x3a8e413d	0.0010853183
119	0x3a1dd42a	0.00060206896
120	0x3c9652d7	0.018350048
121	0x3b828ce5	0.003984081
122	0x3b3ad7c4	0.0028509954
123	0x393517b8	0.00017270341
124	0xb9ea235a	-0.00044658297
125	0x38c10ae3	9.204985e-05
126	0x39345b3c	0.00017200125
127	0xb5efd60d	-1.7869185e-06
128	0xbc0c9796	-0.008581063
129	0xbb106c33	-0.0022037148
130	0xbace6ab0	-0.0015748348
131	0x38b5900b	8.657583e-05
132	0xbbe869ee	-0.007092706
133	0xbafb3e89	-0.0019168417
134	0xbac95d98	-0.0015362976
135	0x3851e349	5.004116e-05
136	0x3b0acdbd	0.0021179758
137	0x3a1b8e05	0.00059339433
138	0x3a07536f	0.0005162274
139	0x376dcebb	1.4174434e-05
140	0xbaf44517	-0.0018636313
141	0xb9c9f600	-0.00038520992
142	0xb9cf4d77	-0.00039539833
143	0xb88b15ac	-6.632073e-05
144	0xbc104413	-0.008805293
145	0xbaf077c7	-0.0018346243
146	0xba53353c	-0.0008056944
147	0x39942f52	0.00028264016
148	0x3b044a91	0.0020186047
149	0x3a10f6fe	0.0005529969
150	0x39fd4982	0.00048310688
151	0x37b897b1	2.2005146e-05
152	0x3c6ace75	0.01433145
153	0x3b4b1326	0.0030986755
154	0x3a2b84fc	0.00065429485
155	0xbab84466	-0.001405847
156	0xbb4b6371	-0.0031034613
157	0xba92bf8f	-0.0011196005
158	0xba45e684	-0.0007549303
159	0x397bcf22	0.00024014388
160	0x3a73a7ff	0.0009294748
161	0x3935060c	0.00017263758
162	0x388afa0b	6.626927e-05
163	0xb7d4aba1	-2.535229e-05
164	0xbda87879	-0.08226103
165	0xbc2e24ee	-0.010628922
166	0xbba4d783	-0.005030574
167	0x39d82156	0.00041223568
168	0xbd628a83	-0.055307876
169	0xbbf3ecc3	-0.0074439957
170	0xbb889c79	-0.0041690436
171	0x38a6d76b	7.9556215e-05
172	0xb9bb832f	-0.0003576516
173	0xb9944b14	-0.00028284697
174	0xb9a816bd	-0.00032060398
175	0x36d7b4f2	6.428564e-06
176	0xbb401027	-0.0029306503
177	0xba2cf06f	-0.00065971067
178	0xb9a5c9ba	-0.0003162155
179	0x38ef61d2	0.000114146285
180	0xbcf9ae93	-0.030478751
181	0xbb8a566e	-0.004221729
182	0xbb110b44	-0.002213196
183	0x39c88a2b	0.00038249916
184	0xbb2a7a05	-0.002601267
185	0xba419c7d	-0.00073856843
186	0xba2dcedc	-0.0006630251
187	0x376b10c1	1.4010992e-05
188	0xbcfa3fb1	-0.030547949
189	0xbbf582bc	-0.0074923914
190	0xbb655353	-0.0034992292
191	0x3ab0135b	0.0013433503
192	0x3af6d022	0.0018830339
193	0x3a199f7a	0.00058602507
194	0x3a3164fa	0.0006767061
195	0x389a0214	7.343679e-05
196	0xbb6b0fb4	-0.0035867514
197	0xba0d47a7	-0.00053894
198	0xb9b55e05	-0.0003459306
199	0xb6f3430f	-7.249771e-06
200	0xbb9dd3bf	-0.004816502
201	0xba8c07b1	-0.0010683445
202	0xb960132f	-0.00021369451
203	0x39f62854	0.00046950823
204	0xbb82efec	-0.003995886
205	0xba906987	-0.0011017778
206	0xba8bfade	-0.0010679623
207	0xb8cdbf55	-9.8108e-05
208	0xbb4bdce5	-0.0031107005
209	0xba6f4feb	-0.0009129035
210	0xba5a71ac	-0.00083329785
211	0xb7dd7015	-2.6397445e-05
212	0x3b764497	0.0037577504
213	0x3a789e4b	0.0009484037
214	0x39f7d9ca	0.00047273777
215	0xb9404b61	-0.00018338628
216	0xbb488eae	-0.0030602622
217	0xba6faa68	-0.0009142519
218	0xba43045d	-0.000743931
219	0x381e426f	3.7732007e-05
220	0x3b883297	0.0041564214
221	0x3a68a9d4	0.0008875404
222	0x39eb5429	0.00044885397
223	0xb8b6b242	-8.7116394e-05
224	0x3b6652e1	0.0035144615
225	0x3a532aa0	0.0008055363
226	0x3a00077a	0.00048839266
227	0xb8894913	-6.54628e-05
228	0x3785f491	1.596872e-05
229	0x35320219	6.631322e-07
230	0xb920355b	-0.00015278666
231	0xb8ef42bd	-0.00011408839
232	0x3df2ccce	0.1185547
233	0x3c70b3b9	0.014691287
234	0x3c2e9b77	0.010657183
235	0x3a5beeab	0.00083897513
236	0x3b7ebfc4	0.0038871625
237	0x3a9afb49	0.0011824156
238	0x3a500d05	0.00079365104
239	0xb9390ee3	-0.0001764852
240	0x3c4e5cd2	0.012595372
241	0x3adecc32	0.0016998111
242	0x398cb5cc	0.0002683833
243	0xb9f9a47b	-0.00047615528
244	0x3bad072a	0.005280395
245	0x3aac9de2	0.0013169611
246	0xb9d5410d	-0.00040674992
247	0xbaa86e5d	-0.0012850274
248	0xbd38d16a	-0.045121588
249	0xbbd5d65d	-0.0065257982
250	0xbbb2ec76	-0.0054603172
251	0x39f4e070	0.00046706526
252	0x3d9c64ea	0.07636435
253	0x3c1a5ec4	0.009422008
254	0x3baccbcb	0.0052733175
255	0x3775915f	1.4636985e-05

exp_avg_sq f4 [256, 4]
0	0x36048885	1.9748998e-06
1	0x357563bf	9.141476e-07
2	0x36cf1ca1	6.1724136e-06
3	0x354a74d9	7.54209e-07
4	0x392a35c4	0.00016232493
5	0x376e5220	1.4205027e-05
6	0x384485d1	4.6854668e-05
7	0x368f8307	4.2769857e-06
8	0x38e4ec4e	0.000109159024
9	0x38096b5d	3.2763335e-05
10	0x39329267	0.00017029942
11	0x3762e34b	1.35235705e-05
12	0x373c616f	1.1228359e-05
13	0x36411cd1	2.8776014e-06
14	0x37aa1909	2.0277237e-05
15	0x36601fd8	3.3397137e-06
16	0x384610c7	4.7222504e-05
17	0x36ca3715	6.0264815e-06
18	0x37e8bb77	2.774385e-05
19	0x363b1f95	2.7883555e-06
20	0x39051bf6	0.00012694285
21	0x3775b0ea	1.4644329e-05
22	0x38af7708	8.3668216e-05
23	0x3702420f	7.763984e-06
24	0x37e15b62	2.6864644e-05
25	0x37e68122	2.7478269e-05
26	0x390b726f	0.00013298703
27	0x3716f3ce	8.997462e-06
28	0x38a97d5a	8.0818965e-05
29	0x378af6a4	1.6565733e-05
30	0x38c1caa4	9.240702e-05
31	0x36f5be0b	7.323693e-06
32	0x3668d62e	3.4695363e-06
33	0x3609480f	2.0456534e-06
34	0x373a0243	1.10869905e-05
35	0x35c2c5c3	1.4511683e-06
36	0x37880cf3	1.6218493e-05
37	0x36279589	2.497198e-06
38	0x373b5d97	1.1167859e-05
39	0x35fc9bef	1.8820846e-06
40	0x380750dd	3.2261818e-05
41	0x362a24dc	2.535343e-06
42	0x374a2908	1.2049692e-05
43	0x3633dfdf	2.6803389e-06
44	0x36044994	1.971236e-06
45	0x350ba163	5.2016384e-07
46	0x368fbb71	4.283553e-06
47	0x35128df2	5.4595796e-07
48	0x37906c5a	1.7216593e-05
49	0x36c1cba8	5.775557e-06
50	0x3843a766	4.6647525e-05
51	0x36c37f2f	5.826259e-06
52	0x39177010	0.00014442229
53	0x37a822fb	2.004345e-05
54	0x38b9941c	8.849075e-05
55	0x371e5f6a	9.439749e-06
56	0x38488c82	4.7814574e-05
57	0x37905449	1.7205386e-05
58	0x38fcec27	0.00012060283
59	0x37482ea3	1.1931787e-05
60	0x3888641c	6.503632e-05
61	0x36a54278	4.925121e-06
62	0x3788d817	1.6313088e-05
63	0x367f433b	3.8037094e-06
64	0x374ae14e	1.2092596e-05
65	0x363fcc89	2.8580273e-06
66	0x379cdcdd	1.8699497e-05
67	0x35f87102	1.851033e-06
68	0x379e8656	1.8897623e-05
69	0x36fd04ce	7.540547e-06
70	0x38481e4f	4.7711943e-05
71	0x36b708e4	5.45486e-06
72	0x38b497df	8.611357e-05
73	0x3819a4aa	3.6631398e-05
74	0x394d824b	0.00019598861
75	0x3777bcba	1.4766289e-05
76	0x38a15edd	7.694748e-05
77	0x373a1838	1.1092103e-05
78	0x38696f7d	5.565536e-05
79	0x36f9723b	7.4340765e-06
80	0x373417f9	1.0734418e-05
81	0x361619b9	2.2366714e-06
82	0x37be7ce0	2.2707914e-05
83	0x3687f2be	4.0515724e-06
84	0x3877e558	5.9102982e-05
85	0x3822bb43	3.879821e-05
86	0x39659dae	0.00021897882
87	0x3796e948	1.7990023e-05
88	0x36fd4443	7.5479343e-06
89	0x360a54f1	2.0613045e-06
90	0x37146d3a	8.846919e-06
91	0x35b650ef	1.3583611e-06
92	0x379045fa	1.7198723e-05
93	0x36ab68d1	5.1083994e-06
94	0x37ca668b	2.4128027e-05
95	0x36635942	3.387759e-06
96	0x36edffa8	7.0929127e-06
97	0x35a31820	1.2151468e-06
98	0x36baca2f	5.5667692e-06
99	0x35e0ac8c	1.6739518e-06
100	0x3783abf4	1.5696489e-05
101	0x361bf2c2	2.3238103e-06
102	0x3729fa31	1.0131437e-05
103	0x360cf52b	2.1004332e-06
104	0x37915137	1.7323166e-05
105	0x3643a763	2.9154696e-06
106	0x379ad417	1.8456993e-05
107	0x36959c37	4.458732e-06
108	0x3717d555	9.049972e-06
109	0x36ad98ab	5.1735747e-06
110	0x3786ff95	1.609306e-05
111	0x358c1afe	1.0438669e-06
112	0x38310146	4.2201274e-05
113	0x36b38416	5.3499925e-06
114	0x379bdd84	1.8580591e-05
115	0x364e250e	3.071796e-06
116	0x3856233f	5.10544e-05
117	0x37762aef	1.4672739e-05
118	0x38f07c37	0.000114672286
119	0x37579e6f	1.2851887e-05
120	0x3898605d	7.265874e-05
121	0x37ea057f	2.7897533e-05
122	0x3929a4c2	0.00016178473
123	0x375b6716	1.3077419e-05
124	0x3696a897	4.489975e-06
125	0x35856f89	9.941733e-07
126	0x36ad5dac	5.1667066e-06
127	0x354548fa	7.3494414e-07
128	0x37e68101	2.7478209e-05
129	0x377ba2d8	1.4998681e-05
130	0x3884fe11	6.341574e-05
131	0x36ab3610	5.102491e-06
132	0x380f1158	3.411001e-05
133	0x37c10eef	2.3014347e-05
134	0x38eaa302	0.00011188352
135	0x37109bba	8.619327e-06
136	0x378d8868	1.6872029e-05
137	0x36965a7e	4.480883e-06
138	0x37f0b290	2.869338e-05
139	0x36a716ce	4.9796427e-06
140	0x36c183b6	5.7671814e-06
141	0x36631db9	3.3842937e-06
142	0x378d3d8f	1.6837175e-05
143	0x3614cb5d	2.2172092e-06
144	0x375f8f41	1.332519e-05
145	0x368539c2	3.9704328e-06
146	0x3773cd4a	1.4531726e-05
147	0x35cf8e62	1.5464141e-06
148	0x3755536f	1.2715215e-05
149	0x36a36b9a	4.870305e-06
150	0x37f972ce	2.9736573e-05
151	0x3661ec97	3.3665326e-06
152	0x3857baac	5.1433846e-05
153	0x3724eefa	9.830803e-06
154	0x38407cc0	4.589255e-05
155	0x36d51c31	6.3511766e-06
156	0x371e653f	9.441107e-06
157	0x3685f86d	3.9926294e-06
158	0x37b32906	2.1357566e-05
159	0x367f05a6	3.800125e-06
160	0x375824ea	1.2883198e-05
161	0x3666f9ba	3.441803e-06
162	0x37d3a394	2.5229332e-05
163	0x3676b14b	3.6760055e-06
164	0x39ae9d0a	0.0003330487
165	0x37bf89e5	2.2833186e-05
166	0x38c0b650	9.189232e-05
167	0x36fbda22	7.505777e-06
168	0x390705a2	0.00012876702
169	0x36c8acb1	5.9805684e-06
170	0x378a25ba	1.646845e-05
171	0x3631e74c	2.6509688e-06
172	0x370b8793	8.3166115e-06
173	0x3607a740	2.021392e-06
174	0x378753c6	1.6132264e-05
175	0x3624e77c	2.4572646e-06
176	0x3605bafc	1.9927384e-06
177	0x351701d6	5.6254555e-07
178	0x366c05e6	3.5170174e-06
179	0x352e64e5	6.496687e-07
180	0x388fec61	6.8628004e-05
181	0x36ba7ee9	5.5580063e-06
182	0x37b01870	2.0992215e-05
183	0x36a01ec6	4.771954e-06
184	0x370e52c9	8.4831345e-06
185	0x36d764e5	6.419245e-06
186	0x37e78e59	2.7603632e-05
187	0x36215047	2.4037597e-06
188	0x392bc064	0.00016379502
189	0x3867032e	5.5077653e-05
190	0x3997b1e6	0.0002893351
191	0x37bdb017	2.2612554e-05
192	0x37329099	1.06432935e-05
193	0x36d383d0	6.303635e-06
194	0x3816482b	3.583e-05
195	0x363ab5b7	2.7821932e-06
196	0x37331917	1.0675073e-05
197	0x360dab5a	2.1110377e-06
198	0x372c1357	1.0256502e-05
199	0x3606d89f	2.0093646e-06
200	0x380526b4	3.1745716e-05
201	0x372ce9f5	1.0306471e-05
202	0x3831d211	4.2395728e-05
203	0x3683e007	3.9301844e-06
204	0x379533eb	1.778636e-05
205	0x3723b667	9.758026e-06
206	0x3889bd43	6.567922e-05
207	0x36a08a76	4.7844906e-06
208	0x375de576	1.3226052e-05
209	0x36d07c89	6.213381e-06
210	0x380e8ddd	3.398756e-05
211	0x3651b9f3	3.1251664e-06
212	0x37ae3270	2.0765903e-05
213	0x36bddb39	5.65816e-06
214	0x37cfd70c	2.4776462e-05
215	0x3681c1ac	3.867046e-06
216	0x3710b415	8.6249975e-06
217	0x367f7911	3.806843e-06
218	0x37bc8bc8	2.2476437e-05
219	0x36258bb8	2.4668243e-06
220	0x36c6f8a4	5.9298054e-06
221	0x35a08bd5	1.1961625e-06
222	0x36674920	3.4464247e-06
223	0x3527e948	6.2551817e-07
224	0x36f77d3f	7.375754e-06
225	0x36269dfc	2.4827887e-06
226	0x371177af	8.6705395e-06
227	0x359f2a59	1.1858748e-06
228	0x373ad2bb	1.1135528e-05
229	0x363115bc	2.6387706e-06
230	0x377279ed	1.4452712e-05
231	0x361ddcf8	2.3523444e-06
232	0x3a44b4d4	0.0007503752
233	0x388ccb25	6.713559e-05
234	0x39960aed	0.0002861837
235	0x37c1f25c	2.312025e-05
236	0x3756d3ce	1.2804709e-05
237	0x36dad265	6.5213994e-06
238	0x37cd533f	2.4476669e-05
239	0x3602b228	1.947521e-06
240	0x3917d429	0.00014479518
241	0x3851b8fe	5.000177e-05
242	0x398ee7d4	0.00027257076
243	0x37ae0256	2.0743504e-05
244	0x38dffbf2	0.00010680397
245	0x38110dbf	3.4583496e-05
246	0x39419ac1	0.00018463565
247	0x378742fd	1.6124448e-05
248	0x3918fb1d	0.00014589397
249	0x3758b0cb	1.2915766e-05
250	0x389c3094	7.447708e-05
251	0x37026f26	7.774483e-06
252	0x39ae9df7	0.0003330556
253	0x38095554	3.2742813e-05
254	0x393646b1	0.00017383207
255	0x37843f0f	1.576499e-05
